tutorial/interim_data_test/models/model_30_6.pt (torch, 358763 bytes, 18 tensors)

encoderlayers.0.weight f4 [200, 170]
000000 0c d2 3e bd 62 e7 13 3d 16 87 c3 bc 1d b2 31 bd
       -0.046587035 0.036109336 -0.023868125 -0.043382753
000010 28 4c e6 3d 1f be 69 bc d5 ef b2 bc 81 0f e8 bc
       0.112449944 -0.01426652 -0.021842876 -0.028327705
000020 80 5e d6 bb 74 e2 de bc b7 04 99 bd 9b 15 0b 3b
       -0.006542027 -0.02720759 -0.074716024 0.0021222595
000030 92 d4 1a 3d f0 47 6d ba c5 38 19 3d 92 11 b7 bc
       0.03780038 -0.0009051552 0.037407655 -0.022347245
000040 83 af db 3c c2 83 4a bd 7b 5e bd 3d ed 43 e0 3c
       0.026817089 -0.04944206 0.09246536 0.02737614
000050 76 a8 52 bd 6c b1 cf 3c 13 0d 37 bd cd 00 9d bb
       -0.051430188 0.025353156 -0.044690203 -0.004791355
000060 53 a0 a7 bd ea a7 27 3d 15 ec d8 bc 76 d7 1f 3d
       -0.08184876 0.04093162 -0.02647976 0.03902384
000070 3f 35 9f bc 4f 21 b2 3d 07 e0 0e bd df 73 b3 3d
       -0.01943457 0.08697759 -0.034881618 0.08762335
000080 bb d0 16 3d 0e 44 07 bd 8b fe 00 3c 26 d7 b1 bc
       0.036820155 -0.033023886 0.007873188 -0.021709036
000090 ac 5c a9 3d 50 b2 1d bd 06 da 94 3c e1 73 ce 3d
       0.08269629 -0.03850013 0.018170368 0.10080696
0000a0 a8 c1 ab 3d dd 7b f8 3b 15 a2 a3 3c 93 40 83 3d
       0.083865464 0.007583125 0.019974748 0.06408801
0000b0 5e 4f 7f 3d 6a 1d 0b 3d 2e 18 0d 3d 1c 95 2d bd
       0.06233155 0.0339636 0.034446888 -0.04237853
0000c0 ca b6 3a 3d a4 cd 67 3c 4d c6 62 3b 24 5b 9e 3d
       0.045584477 0.01414815 0.003460306 0.077322274
0000d0 0e d7 35 bd 1e af ce bc 43 9d d9 ba 0e d6 18 bd
       -0.044394545 -0.025229987 -0.0016602654 -0.037313513
0000e0 b1 f0 5d bc dc 74 8c 3d ec 3b e5 bc c0 1b 0e 3d
       -0.013546155 0.06858227 -0.027982675 0.034694433
0000f0 bb c7 1b bc 56 ed 9e bc a9 38 80 bd fb 90 ce bc
       -0.009508069 -0.01940028 -0.06260807 -0.025215616
000100 e4 b9 45 bc e7 37 2d bc eb 5e 2c 3c 0e e1 99 bc
       -0.012068246 -0.01057241 0.010520677 -0.018784072
000110 ae 40 30 bd a0 a6 dc 3b 43 1f 5e ba 03 df 58 bd
       -0.043030433 0.0067337304 -0.0008473286 -0.052947056
000120 5f a0 5a 3c 87 4d 00 bd 4c f4 11 3d 8b 89 ab bc
       0.0133438995 -0.031323936 0.03563337 -0.020939609
000130 4f 49 25 3d 9f 7c 27 3d 3a df a6 3c 11 02 14 3d
       0.040353116 0.040890332 0.020370115 0.036134783
000140 e2 c1 6c 3d 01 6d 91 3c a0 af 8a bd da 84 85 bd
       0.05780209 0.017752172 -0.06771779 -0.0651948
000150 29 a1 dd bc b5 7e 20 3d c8 65 4c 3d b3 89 b6 3c
       -0.027054386 0.039183337 0.049901754 0.022282457
000160 f7 ec b8 3d e2 b1 3a 3c 0d 10 53 bd a3 c5 75 bd
       0.090295725 0.01139495 -0.05152898 -0.060002934
000170 c7 e7 ea 3c ad 20 a0 bc 30 44 23 3c 0a d1 5b bd
       0.028674973 -0.019546831 0.009964988 -0.053666152
000180 54 37 38 bd d0 be 08 3c 00 01 bc 3c 41 4e 39 3d
       -0.04497464 0.0083462745 0.022949696 0.045240644
000190 4e e1 94 3d ad 5d 2e 3d cc 98 4e 3d 0b eb 4e bd
       0.07269536 0.042569805 0.050438687 -0.050517123
0001a0 7a cf d8 3c 15 8c cf bc 19 7e 8a 3d 7b df 6c 3c
       0.02646612 -0.025335351 0.067623325 0.014457579
0001b0 08 7d 9c 3b 31 81 b9 3d dc 8d 5d bd f6 2e b7 3c
       0.004775647 0.090578444 -0.054090366 0.02236126
0001c0 3e 74 28 bd 9c b5 45 bc 7d f0 2f 3d f7 c2 4b 3d
       -0.041126482 -0.012067225 0.042953957 0.04974648
0001d0 39 05 79 bd f2 68 1b bd 8c a1 54 bd 13 8a 81 bd
       -0.060795996 -0.03794188 -0.051911876 -0.06325164
0001e0 0f 3b c1 bb c3 2f 63 3c 43 37 c4 bd 5f f6 a7 3d
       -0.005896933 0.013866368 -0.09580853 0.082012884
0001f0 19 25 97 bd c3 37 9c bc ae 85 33 3d 51 4d 96 3d
       -0.07380123 -0.019069558 0.04382866 0.07338966
000200 c7 f7 c5 3b 1c f1 df bc 77 fd 7a bd 34 69 97 3d
       0.0060415003 -0.02733665 -0.06127688 0.07393113
000210 83 b5 7d bb e9 8b 8a 3d a5 bf 0a bd 9f b0 c0 3b
       -0.0038712926 0.06764967 -0.033874173 0.00588043
000220 57 8e 41 bb 25 19 be bd 6b d2 cc ba 3d 52 d3 bc
       -0.0029534304 -0.0928214 -0.0015626674 -0.02579605
000230 03 f6 a4 bd 27 38 d3 bd e4 98 5f 3d c2 4c 3a 3d
       -0.080547355 -0.103134446 0.054589167 0.04548336
000240 19 a2 9e 3b 61 73 44 3d e2 47 9c bd e0 44 2e bd
       0.004841101 0.047961596 -0.07630898 -0.042546153
000250 5e 7f 8d 3b 49 00 35 bd 39 cc 8d bd 1f cb d6 3c
       0.004318162 -0.044189725 -0.06923718 0.026219903
000260 71 a2 eb bc e6 17 d5 3a 61 be b2 3b a4 97 6b 3d
       -0.028763982 0.0016257733 0.005454824 0.057517663
000270 f5 bd c3 bd df 13 89 bc 51 c9 10 3b 7d 73 83 bd
       -0.09557716 -0.016733108 0.002209265 -0.06418512
000280 93 0d 30 bc fb ff 89 3b db 4f 8d 3c e7 26 c5 3c
       -0.010745424 0.0042114235 0.017249992 0.024066402
000290 89 46 1e 3d d0 75 1b bd 5d 42 06 3d 26 a9 2d 3d
       0.038641486 -0.03795415 0.032778133 0.04239764
0002a0 d0 a7 50 3d e9 32 aa 3c ba 81 23 3d 6a 93 30 bd
       0.05094129 0.020776229 0.03991864 -0.043109335
0002b0 35 1c ac 3d cf dc ac bd e3 c6 ae 3c eb 82 7b bd
       0.084038176 -0.084405534 0.021335071 -0.06140415
0002c0 ae 81 94 3c 19 cf 61 3d a6 1d 81 3c a3 48 cc 3d
       0.018128242 0.055129144 0.015761208 0.09974792
0002d0 fd 08 9d bd 17 4a f1 bc e5 35 03 3d 65 a0 d1 3d
       -0.0766773 -0.029454274 0.03203382 0.10235671
0002e0 93 b5 6f bd ae 02 5f 3d 87 86 99 3c 56 01 db bc
       -0.058522772 0.054445915 0.018740905 -0.026734035
0002f0 0c 94 61 bd 91 63 8a bc db 61 2e 3d 2e 38 7d bc
       -0.05507283 -0.01689318 0.04257379 -0.015455289
000300 82 4e e9 bd 36 82 08 3d 60 c5 d1 bd ee 10 d0 bb
       -0.11391927 0.033327304 -0.102427244 -0.0063496744
000310 97 54 04 3d 41 7e 7a 3d c7 47 d5 bd 9b 77 e5 3d
       0.032307234 0.06115556 -0.10414081 0.112044536
000320 74 da ab 3c aa 3b 3d 3d 95 f8 80 bd 72 40 29 3d
       0.02097819 0.04619948 -0.06297413 0.041321225
000330 f7 4e da 3c d7 12 bf 3d 03 ad 49 3c 24 84 79 3d
       0.026648981 0.09329765 0.012309316 0.060917035
000340 e9 fd 2f 3d a5 99 aa 3d b9 14 0e 3d ff 80 4f 3d
       0.042966757 0.083300866 0.03468773 0.05066013
000350 44 d4 c2 bc 4c 78 87 3c 9a 40 da bc cd 16 96 bc
       -0.023782857 0.016536854 -0.026642133 -0.01832142
000360 cf e4 51 3c 60 c0 cf bc d2 42 1f bd d1 f5 1d 3d
       0.0128109 -0.025360286 -0.038882084 0.038564507
000370 a4 82 a0 bd f9 3a 5d 3d 94 10 63 3d a6 8c ad 3a
       -0.07837418 0.05401132 0.055435732 0.0013240769
000380 81 33 24 bd 6a 1d 91 3b c0 c0 ab 3d 00 ef 46 3d
       -0.04008818 0.0044285553 0.083863735 0.048567772
000390 c8 35 a2 bc a2 d0 cc 3c f7 bc 7c bd f2 e3 42 bd
       -0.019801036 0.025001828 -0.06170365 -0.047580667
0003a0 b0 21 a4 3a 52 91 3a 3d 4e 8c b7 bc b6 29 a2 3c
       0.0012522247 0.045548744 -0.02240577 0.01979528
0003b0 fe 98 e0 3a 7c 33 3b bc 1d 17 a1 3b d0 9d 87 3b
       0.0017135439 -0.011425849 0.0049160854 0.0041386858
0003c0 12 58 8e 39 39 c6 26 bc 74 38 af 3c e5 f4 92 bd
       0.00027149968 -0.010179096 0.021389224 -0.07175616
0003d0 66 6a e9 bb 49 2b 8e 3d dd 02 70 bc 52 6d 74 3d
       -0.0071232794 0.0694185 -0.01464912 0.05967457
0003e0 dd 5c 1e bb bf 4b 4f 3d 15 91 89 bc 44 71 3f bd
       -0.0024164238 0.050609346 -0.016792813 -0.046738878
0003f0 cc 77 5d 3d 46 09 00 bd 7d f8 a7 bc 34 97 b9 bd
       0.054069325 -0.031258844 -0.02050423 -0.09062043

encoderlayers.0.bias f4 [200]
000000 03 84 e8 bc c9 36 98 bd 6a 56 22 bd 07 fb 83 bd
       -0.02838326 -0.074323244 -0.039633192 -0.06444364
000010 b0 6c 3d ba 3d 98 77 3c f1 48 9f bd bb 91 ec 3c
       -0.00072259735 0.01511198 -0.07777584 0.028878083
000020 62 a7 2c bd 25 74 8a 3d ba b6 99 3c 8b 67 00 3d
       -0.042151816 0.06760434 0.018763889 0.031348746
000030 be 35 53 bd 5e a9 99 bc 14 ce 0b bd 77 d2 82 3d
       -0.051564924 -0.018757518 -0.03413208 0.06387799
000040 d2 c5 9b 3d 24 aa 47 3d 34 47 83 bd 60 3a 0e 3d
       0.076060906 0.048746243 -0.06410065 0.03472364
000050 d1 cf a4 bc b8 cd 8d 3c a0 0b 95 3d bc 8f 87 bd
       -0.020118626 0.017310008 0.07277608 -0.06619212
000060 c3 67 46 3c 0d b2 78 bd cb 88 69 3d 39 75 2d bd
       0.0121097 -0.060716677 0.05701522 -0.04234812
000070 51 c6 7d 3d 27 e1 b1 3c 04 31 4b 3d 6b bb 8c 3b
       0.061956707 0.021713806 0.04960729 0.004294803
000080 ef 42 14 3d 1d 5b 91 3d d8 55 8a bd ba 40 a5 bc
       0.036196645 0.070974566 -0.06754655 -0.020172466
000090 f9 73 0c bd 31 29 b8 3c fa 13 88 bd 7a d5 76 3c
       -0.034290288 0.02248058 -0.06644435 0.015065545
0000a0 2c 1e 7a bd 5f 38 99 bb 9b 7a ec 3c 82 61 84 bc
       -0.06106393 -0.0046759094 0.028867057 -0.016159777
0000b0 2b ec 4f 3d 8c 69 35 bd 69 93 8b 3c d2 a2 08 bd
       0.050762337 -0.04429011 0.017038064 -0.033358403
0000c0 8c 2a 76 bd 85 a2 3d bd 90 8d 14 3d 39 a3 bb bc
       -0.06009917 -0.04629757 0.036267817 -0.022904979
0000d0 85 30 16 bd 5c 60 2a 3d 97 6d 34 bc 4a 68 27 3d
       -0.036667366 0.0415958 -0.011012456 0.040870942
0000e0 c6 61 8e 3d a8 f1 9e 3b 66 b9 7e 3d 9e 72 fd bb
       0.069522426 0.004850585 0.06218853 -0.0077346107
0000f0 26 22 6a 3b 1a 57 33 3c ec cf be ba ff c7 42 3c
       0.003572592 0.01094606 -0.0014557815 0.011888503
000100 3d 8c db 3c 24 71 55 bc f8 95 96 3d cc 9c 33 bd
       0.02680027 -0.013027463 0.07352823 -0.043850705
000110 4f 83 0f 3d cb c4 c7 3c a1 70 97 3d 0e 36 4e 3b
       0.035037335 0.02438583 0.07394529 0.0031465325
000120 f0 60 1a 3c ab 9d 37 bd 35 7a ac bc 09 09 06 bd
       0.009422526 -0.0448281 -0.021054367 -0.03272346
000130 08 42 e4 bc 23 42 8f 3d 99 20 69 bd 46 a5 57 bd
       -0.027863517 0.069950365 -0.056915853 -0.05264785
000140 8d 4a 7f bd fe b8 cb 3c a9 c4 ba 3b 3d 32 83 bd
       -0.062326957 0.024868485 0.0056997132 -0.064060666
000150 99 7a 73 3d e6 37 90 3d ab 5f 9f bc 3d e9 43 bd
       0.05944309 0.07041912 -0.019454798 -0.047829855
000160 5c ad 81 bd 18 62 a2 3b 9f 48 7f bc 66 f8 70 3c
       -0.06331894 0.0049555413 -0.015581279 0.01470766
000170 77 09 68 3d e8 bd 92 bd e8 73 5f bb 14 27 21 bd
       0.05664965 -0.07165128 -0.0034096185 -0.03934391
000180 ae 0a 05 bc ec 21 98 3d 18 29 2f 3d e5 4e ee 3c
       -0.008120222 0.07428345 0.0427638 0.029090354
000190 c9 2d 89 3d 62 6e 9a 3d ca cd 93 bc e7 75 33 3c
       0.06698186 0.07540585 -0.018042464 0.010953403
0001a0 34 80 f0 bb 53 2e 61 3d 0a 8b 19 bc 63 64 87 3d
       -0.0073395018 0.05497582 -0.009371528 0.06610944
0001b0 9b 67 e6 bc db 2a 9c bc ef fb a3 3c 5f e7 70 bc
       -0.028125575 -0.019063404 0.020017592 -0.014703601
0001c0 49 77 93 3b f4 e1 79 bd 45 fd ee bc 57 4b 85 3d
       0.004500304 -0.0610065 -0.029173503 0.065085106
0001d0 cb 62 f9 bc 76 84 b3 bc 35 e8 f1 bc c3 35 a1 3c
       -0.030442616 -0.021913748 -0.02952967 0.019678956
0001e0 40 14 4f 3d b7 7a c7 3c c4 c1 f5 3b 5a a2 95 3d
       0.05055642 0.024350507 0.0074999053 0.07306357
0001f0 bd 7e a7 bb c8 07 c4 bc 93 b7 11 bd a4 9f d6 3b
       -0.005111544 -0.023929492 -0.03557546 0.0065497924
000200 b6 87 8a 3d 4b 06 b7 bd b0 ad f3 bc fc d7 9b 3d
       0.06764166 -0.08936747 -0.029745907 0.07609555
000210 2e 90 58 bd 88 23 4f 3d 99 f0 89 3d 11 60 a8 bc
       -0.052871875 0.050570995 0.067353435 -0.02055362
000220 b7 31 24 3d b0 5d 6b 3d bf ef 1b 3d 19 15 79 bd
       0.040086474 0.057462394 0.038070437 -0.060811136
000230 f0 5d 2f 3d 4e fb d9 3c 01 07 28 bd fe d5 fa 3c
       0.042814195 0.02660909 -0.041022304 0.030619618
000240 40 29 94 3d 49 2c 11 3c 84 a8 ce 3c 5e 2e 40 3c
       0.0723443 0.008860656 0.025226839 0.011729805
000250 eb e9 5e 3d 5d ce 5d 3d 56 d6 9e bc 21 f2 fc bc
       0.0544223 0.05415188 -0.019389313 -0.030877175
000260 9d bf 2c 3d 3f ff f7 3c 12 c0 82 3d d0 af f1 3c
       0.042174924 0.030273078 0.06384291 0.02950278
000270 38 3b bd 39 53 05 db 3c 76 ac 83 bd 7e 34 d4 3b
       0.0003609301 0.026735937 -0.06429379 0.006475984
000280 f0 86 83 3c 52 11 83 bc 1b 63 8d bd 17 15 36 bd
       0.016055554 -0.01599947 -0.069036685 -0.044453707
000290 5f 2b 94 bd f6 f4 2f 3d f9 25 cb 3c dc dd 80 3d
       -0.07234835 0.042958222 0.02479838 0.06292316
0002a0 09 b1 7f 3d 61 b2 57 bd 78 03 16 3d f1 c0 00 3d
       0.062424693 -0.05266035 0.0366244 0.031434003
0002b0 90 66 2a bd 0d 0f 7c 3d 44 30 3f 3d 0b 88 98 bb
       -0.041601717 0.06153779 0.04667689 -0.0046548895
0002c0 54 87 89 3d c8 88 dc bc 20 c1 10 bd 4b 2d 0d 3d
       0.06715265 -0.026920691 -0.03534043 0.034467023
0002d0 e3 ad 3d 3d 2e 62 20 bc f1 76 8d 3d 91 dd 30 bc
       0.04630841 -0.009789033 0.06907452 -0.010795013
0002e0 20 71 33 bd 90 88 e8 3c fa 86 2d bd ff 51 e7 bb
       -0.043809056 0.02838543 -0.04236505 -0.0070593352
0002f0 92 64 9f bc a2 6e a1 bc f2 6f 5c 3b 28 04 36 bd
       -0.019457135 -0.019706074 0.003363606 -0.044437557
000300 bc e0 78 3d cc f3 a0 38 66 81 16 3d c8 34 83 bd
       0.0607612 7.674805e-05 0.036744498 -0.064065516
000310 ab b1 92 bd a4 11 78 bc dc 80 01 3d 5f c9 a9 bb
       -0.07162794 -0.015140925 0.03161703 -0.005181476

encodernorms.0.weight f4 [200]
000000 c7 a5 8a 3f c5 13 8d 3f 82 2c 7e 3f f9 32 89 3f
       1.0831841 1.1021658 0.99286664 1.0718681
000010 02 73 91 3f e7 92 89 3f e9 52 90 3f ad f6 8f 3f
       1.1363223 1.0747956 1.1275302 1.1247154
000020 99 cd 90 3f 09 a4 89 3f a7 82 8a 3f 84 c9 8e 3f
       1.1312743 1.0753185 1.0821122 1.1155248
000030 1c 87 8a 3f f9 0d 88 3f 43 85 88 3f 97 64 92 3f
       1.0822482 1.0629264 1.0665668 1.1436948
000040 e9 50 8c 3f b4 e5 8b 3f 18 f1 8b 3f 29 59 8c 3f
       1.0962192 1.0929475 1.0932951 1.096471
000050 a1 28 88 3f 3a e2 8c 3f 42 49 8d 3f fb 07 8f 3f
       1.0637399 1.1006539 1.1037982 1.117431
000060 bd 12 91 3f 70 60 8a 3f 63 b6 8a 3f 28 36 8c 3f
       1.1333843 1.081068 1.083691 1.0954027
000070 fa ab 8c 3f 98 69 7a 3f 87 25 90 3f cc 18 8a 3f
       1.0989983 0.97817373 1.1261452 1.0788817
000080 52 b3 8e 3f 3b b8 8e 3f 09 da 8e 3f 36 1c 89 3f
       1.1148474 1.1149973 1.1160289 1.0711734
000090 9b b7 90 3f ff 94 8c 3f 23 5e 8c 3f b2 07 82 3f
       1.1306032 1.098297 1.0966228 1.0158598
0000a0 ea 6b 87 3f 61 54 8c 3f 21 ae 8f 3f ef ab 8e 3f
       1.0579808 1.096325 1.1225015 1.114622
0000b0 92 83 8b 3f 00 3c 8b 3f ea 1b 8b 3f 66 fc 8b 3f
       1.0899527 1.0877686 1.0867894 1.0936401
0000c0 87 2c 8b 3f d0 2c 8d 3f f4 67 8b 3f 20 5c 8c 3f
       1.0872964 1.1029301 1.0891099 1.0965614
0000d0 c7 b8 8c 3f 87 31 8e 3f 74 31 8d 3f 90 e5 90 3f
       1.099389 1.1108865 1.1030717 1.1320057
0000e0 70 14 89 3f a8 77 72 3f 26 1e 8a 3f 6b e7 8b 3f
       1.0709362 0.9471383 1.079045 1.0929998
0000f0 ac 62 87 3f f8 ff 8e 3f fe d8 86 3f e7 66 8b 3f
       1.0576987 1.1171865 1.0534971 1.0890778
000100 af b8 7c 3f 74 46 8b 3f 36 82 91 3f 9f 78 8d 3f
       0.98719305 1.0880876 1.1367862 1.1052436
000110 f4 d9 8a 3f 57 00 91 3f 04 f2 8c 3f 57 ea 7c 3f
       1.0847764 1.1328229 1.1011357 0.98795074
000120 d1 1d 91 3f 46 9e 8e 3f 03 64 7a 3f 41 d6 85 3f
       1.1337224 1.1142051 0.97808856 1.045601
000130 f7 a3 8d 3f 6c 7d 8b 3f 63 8b 8f 3f b3 6e 8c 3f
       1.1065663 1.0897651 1.1214412 1.0971283
000140 ab 81 89 3f 58 96 8b 3f ee 66 8b 3f 8f cf 8a 3f
       1.0742697 1.0905256 1.0890787 1.0844592
000150 0e 31 83 3f b5 ff 86 3f fa 11 8e 3f 53 c9 87 3f
       1.0249345 1.0546786 1.1099236 1.0608314
000160 f9 9e 8e 3f b1 f6 88 3f b9 e4 87 3f 69 8c 8d 3f
       1.1142265 1.0700284 1.0616676 1.1058475
000170 d0 6a 8e 3f 20 d3 86 3f 92 7c 86 3f 94 e6 89 3f
       1.1126347 1.053318 1.0506766 1.0773492
000180 b6 c5 86 3f 02 cc 8a 3f 85 1b 8d 3f 77 41 8a 3f
       1.0529087 1.0843508 1.1024023 1.0801228
000190 cf 3a 8d 3f c4 b8 8a 3f fd f6 89 3f 56 e8 8f 3f
       1.1033572 1.0837636 1.07785 1.1242778
0001a0 a4 00 8e 3f 81 71 89 3f 9b f1 8a 3f 7f ac 88 3f
       1.1093946 1.0737764 1.0854982 1.0677642
0001b0 d4 18 7a 3f 2a 73 7d 3f 0f b8 8c 3f 01 94 88 3f
       0.97694135 0.9900385 1.099367 1.0670167
0001c0 f0 5d 8f 3f 7b 97 86 3f 9b 80 8e 3f 57 d0 8a 3f
       1.1200542 1.0514978 1.1132997 1.084483
0001d0 b6 78 8c 3f 61 2c 8d 3f 4d 2e 91 3f 4a 8f 8f 3f
       1.0974338 1.1029168 1.1342255 1.1215603
0001e0 1a 11 8e 3f 45 99 88 3f 7b bf 8c 3f 01 cb 85 3f
       1.1098969 1.0671774 1.0995935 1.0452577
0001f0 1a 81 8c 3f 4b cc 89 3f 13 e3 8b 3f d4 f8 89 3f
       1.0976899 1.076547 1.0928673 1.0779061
000200 0f 5f 8c 3f 19 22 8d 3f cd a6 8a 3f 19 a1 8b 3f
       1.096651 1.1026031 1.0832154 1.0908538
000210 b4 b5 81 3f 11 07 8e 3f 3d 2f 89 3f 36 c8 8d 3f
       1.0133576 1.1095906 1.0717541 1.1076725
000220 88 06 7d 3f b1 e9 8b 3f 75 88 8a 3f b7 94 8e 3f
       0.9883809 1.0930692 1.0822893 1.1139134
000230 f3 db 91 3f fd 1a 91 3f bf c4 8d 3f f9 0f 86 3f
       1.1395248 1.1336361 1.1075667 1.0473624
000240 68 18 8b 3f cc 26 8f 3f cd 0d 90 3f e5 e8 91 3f
       1.0866823 1.1183715 1.1254212 1.1399199
000250 83 00 89 3f 22 63 8d 3f cb 5b 8d 3f 3e d0 8c 3f
       1.0703281 1.1045878 1.1043638 1.100105
000260 ff 9a 8e 3f f7 0f 8d 3f 45 ec 89 3f db 93 8d 3f
       1.1141051 1.1020497 1.0775229 1.1060747
000270 f3 7c 8a 3f ce f9 8c 3f 77 cb 75 3f c4 91 89 3f
       1.0819381 1.1013734 0.9601359 1.0747609
000280 1f 85 89 3f f9 99 8d 3f e0 84 7a 3f 15 46 8d 3f
       1.074375 1.1062614 0.97859 1.1037012
000290 b5 b8 74 3f 8d 86 88 3f 14 2c 8a 3f ce 07 8d 3f
       0.9559434 1.0666062 1.0794702 1.1018007
0002a0 1c fa 8b 3f 65 97 8c 3f 3e 32 8f 3f 85 aa 8f 3f
       1.0935702 1.0983702 1.1187208 1.1223913
0002b0 f2 31 8e 3f 93 8d 8f 3f 2c 0e 86 3f 02 fc 8e 3f
       1.1108992 1.121508 1.0473075 1.1170657
0002c0 b5 10 8f 3f af 9d 8b 3f 0f e9 8c 3f bc 9c 86 3f
       1.1176974 1.0907496 1.1008624 1.0516582
0002d0 20 f6 8d 3f d8 9e 8c 3f a1 d8 8b 3f 6a 4e 92 3f
       1.1090736 1.0985975 1.0925485 1.143018
0002e0 ca e0 81 3f 05 cb 8b 3f b3 ca 89 3f f5 8d 8a 3f
       1.0146725 1.0921332 1.0764984 1.0824572
0002f0 ee d8 8e 3f 59 5e 8e 3f 88 14 8c 3f b8 fc 8d 3f
       1.1159952 1.1122543 1.0943766 1.1092749
000300 70 27 8a 3f a2 be 8c 3f 8e 57 8b 3f 77 03 8e 3f
       1.0793285 1.0995677 1.0886095 1.1094807
000310 3a c5 8f 3f 01 19 8e 3f 9e 16 8b 3f 57 9d 83 3f
       1.1232064 1.110138 1.0866277 1.0282391

encodernorms.0.bias f4 [200]
000000 fb c3 e3 be 71 97 c2 bc f2 21 a0 3e e9 25 e4 3c
       -0.4448546 -0.023753854 0.31275898 0.027850108
000010 8d d7 ed bb c5 b0 43 3e 43 e0 18 be b9 d2 c5 be
       -0.0072583617 0.19110401 -0.14929299 -0.3863733
000020 b1 7c b9 3e da c1 dd be 64 3f 61 bd 55 dd b2 be
       0.36227944 -0.4331196 -0.054992095 -0.34934488
000030 ed 4f 5f 3e d6 ed bf be a7 5b cf be 54 92 98 be
       0.21807833 -0.37486142 -0.40499613 -0.2979914
000040 a0 45 83 3e b8 93 87 3d b7 a6 c9 3e 9b 3b 40 3e
       0.25639057 0.06619972 0.39385006 0.18772738
000050 32 fb f2 3e 40 a5 dd 3d b4 f6 a3 be d2 4e 18 bf
       0.47457272 0.108225346 -0.32024157 -0.5949527
000060 9d a3 0f 3f 46 da ef be a3 d3 a3 be 41 eb b3 3e
       0.5610903 -0.46846217 -0.31997404 0.35140422
000070 cd 0e 0d 3e 0c 5e 8c be ce 88 6d be cd 5b 60 3e
       0.13775177 -0.27415502 -0.23196718 0.21910019
000080 30 fb d2 3e f6 5f d5 be 53 a5 8f 3e 64 dc ae be
       0.41207266 -0.41674775 0.2805582 -0.3415252
000090 d0 3d 63 be f8 14 12 be aa 42 d7 be b5 55 0d bf
       -0.22191548 -0.14265811 -0.42043048 -0.55208904
0000a0 ca 7b f3 3e b6 94 f4 3e ba 2b fa 3e 70 e1 f7 be
       0.4755538 0.47769707 0.48861486 -0.48414183
0000b0 69 e7 0b 3f 14 61 50 3e 9f c6 d8 3e 30 19 ea 3e
       0.5464998 0.20349532 0.42339036 0.45722342
0000c0 6f 85 11 be 51 46 ad 3e f8 51 73 3e 33 65 aa be
       -0.14211057 0.3384271 0.23761737 -0.33280334
0000d0 9b 45 8c 3e 86 eb 41 3e dc 4b 0a bf 39 a4 20 be
       0.27396855 0.18937501 -0.54022 -0.15687646
0000e0 e6 68 fa 3e 9f ae 06 bf 34 74 28 3e 76 5a 71 3e
       0.48908156 -0.526102 0.16450578 0.23569664
0000f0 8f 2d 0f bf 8e 25 90 3b d8 21 bb be 4e 1d 7e bd
       -0.5592889 0.004399008 -0.36549258 -0.062039666
000100 cd 0a d1 3e 99 6f b6 be 94 16 0f 3e 53 79 83 be
       0.40828553 -0.35632017 0.13973457 -0.256785
000110 31 dd a4 be 7d bd 02 3f 58 9c c4 3d dd 45 09 bf
       -0.32200006 0.51070386 0.09600133 -0.5362223
000120 2d 6e d3 3e ca 87 80 be a7 16 fa be ee 77 06 bf
       0.41294995 -0.251036 -0.48845407 -0.5252675
000130 df 7d a8 3e e8 2b 80 be aa 06 a2 be 80 ac 69 3e
       0.32908532 -0.25033498 -0.3164571 0.2281971
000140 0e 0e 05 3f f8 09 03 3f b0 54 a2 be 52 a0 ea be
       0.5197457 0.51187086 -0.31705236 -0.4582544
000150 4e 71 e8 be 79 d6 7f 3e 5a 5c 87 bd e5 38 7f 3e
       -0.45398945 0.24984159 -0.066094115 0.24924047
000160 7c d0 02 bf d1 ae 05 3f c0 09 9b bd 7a d9 e6 3e
       -0.5109937 0.52219874 -0.07570219 0.45087796
000170 14 ec ab be 7d b9 95 3e 0d c7 de 3e d6 33 6b be
       -0.3357855 0.2924308 0.4351124 -0.22968993
000180 28 6e bd be 18 ab 08 bf 57 3a 02 bf e7 f7 e7 be
       -0.36998105 -0.5338607 -0.5087027 -0.45306322
000190 b8 53 03 bf f7 47 ab 3e 76 cf de be 53 87 18 3e
       -0.5129962 0.33453342 -0.43517655 0.14895372
0001a0 d5 b0 10 3e 39 92 3b bd d0 92 c7 be f6 fe f6 be
       0.14129956 -0.045793746 -0.38979197 -0.48241395
0001b0 c0 ea 04 bf 0f 32 b7 3e 6f 64 00 bd 07 38 e1 be
       -0.519207 0.3578038 -0.03134578 -0.43988058
0001c0 72 ae 6a be 49 a9 8a bd 3f 33 8e 3e ea a2 f1 3e
       -0.22918108 -0.0677057 0.27773473 0.47194606
0001d0 42 28 c3 3e 16 75 8e 3e fa ee f5 3d 1b 5c b0 3e
       0.38116652 0.27823704 0.12008472 0.3444527
0001e0 89 f1 f9 be 8b 24 fb be c3 83 05 bf 38 7d 09 3f
       -0.4881709 -0.49051318 -0.5215418 0.53706694
0001f0 19 13 89 bd 85 1d 3b be 40 96 b6 3e 30 28 d2 3e
       -0.06693096 -0.1827298 0.35661507 0.41046286
000200 97 ba a3 be 41 e5 c7 3d 25 d0 71 be 42 b4 e2 be
       -0.31978294 0.097605236 -0.23614557 -0.4427815
000210 70 fe df be 1b d8 e2 3e 13 23 d9 be 35 e7 c7 be
       -0.43748808 0.443055 -0.42409572 -0.39043584
000220 8e cc d8 be d8 3b 91 3d fe bc 05 3f 07 80 9d 3e
       -0.42343563 0.070914924 0.52241504 0.3076174
000230 b8 ea 87 3e 91 61 32 3e 8d 23 e0 be 7c 54 00 3f
       0.26546264 0.17420031 -0.43777123 0.5012891
000240 27 59 b2 be 80 f2 99 be aa 27 8b be 70 6b fe 3e
       -0.34833643 -0.30067825 -0.271787 0.49691343
000250 32 c1 05 bf 8d e5 ba be e4 60 85 3c c7 13 c7 bd
       -0.5224792 -0.36503258 0.016281553 -0.09720569
000260 93 5f 0c 3f 36 5b cc 3e 63 09 a5 be 5c 01 d5 be
       0.54833335 0.39913338 -0.32233724 -0.416026
000270 48 1e fe bc 75 c3 f1 be 88 32 03 3f e6 d4 e7 3e
       -0.031020299 -0.47219434 0.5124898 0.45279616
000280 1f d4 0f 3f 1f aa c4 3e 65 85 bb be 96 a3 c8 be
       0.56183046 0.38411042 -0.3662521 -0.39187306
000290 25 f0 ec be f9 c6 43 be 46 5a 06 3f 75 79 09 be
       -0.46276966 -0.19118871 0.52481496 -0.13425238
0002a0 4d 34 b3 be ce c2 74 3d c2 5c b9 3e 10 19 3a 3e
       -0.3500084 0.059756093 0.3620358 0.18173623
0002b0 82 bd 82 3e ce 09 eb 3e fc 8f b4 be 39 70 8e 3e
       0.25535208 0.45905918 -0.352661 0.27819994
0002c0 2f 98 af be 01 29 1d 3e c3 66 e5 3e 75 7f c0 be
       -0.34295794 0.15347673 0.44804963 -0.37597242
0002d0 97 97 e0 be 2e cb b4 be 88 c8 fa 3b 43 80 00 3f
       -0.43865654 -0.35311264 0.0076532997 0.5019571
0002e0 85 b2 d3 be 55 d3 e2 3e c8 14 f9 3e 9e 8e ae 3e
       -0.41347137 0.4430186 0.48648667 0.34093183
0002f0 04 33 62 3e 99 eb ce be 68 b7 cb 3e b8 ca da be
       0.22089773 -0.40414122 0.39788365 -0.42732787
000300 3f c1 c7 be f7 e2 3d be 10 27 38 3e 43 5b 65 3e
       -0.39014623 -0.18543611 0.17983651 0.22398095
000310 cb ae cc bb d4 2e e0 bd fa 00 02 be c0 c8 88 be
       -0.006246423 -0.10946432 -0.12695685 -0.2671566

encodernorms.0.running_mean f4 [200]
000000 e1 28 88 3e f4 d9 66 3e 82 76 bc bb 40 52 90 3e
       0.26593688 0.2254408 -0.005751432 0.28187752
000010 46 96 6c 3e e1 bf 82 3e 95 31 5a 3e b2 c5 81 3e
       0.231042 0.25537017 0.21307977 0.25346142
000020 62 d4 61 3e ac 80 7e 3e 90 32 80 3e cd 20 60 3e
       0.22053674 0.24853772 0.25038576 0.21887513
000030 6e 15 85 3e 33 f4 88 3e 8b 9d 87 3e b1 85 59 3e
       0.25992912 0.2674881 0.26487383 0.21242405
000040 a2 5c 8d 3e 8d 3a 6c 3e a4 85 6d 3e 46 39 b7 3e
       0.27609736 0.2306921 0.23195511 0.35785884
000050 18 12 5f 3e 3f ef 9d 3e 52 3f 60 3e 38 bd 73 3e
       0.21784246 0.30846593 0.21899155 0.2380265
000060 bb 48 87 3e 2b a3 5f 3e 39 aa 8c 3e ee 75 74 3e
       0.26422676 0.21839587 0.2747362 0.23873112
000070 d0 d9 69 3e 06 18 9f bb d9 42 6d 3e 37 84 90 3e
       0.22836995 -0.0048551587 0.23170032 0.28225872
000080 89 b2 97 3e 00 fc 72 3e 5c e2 64 3e f9 36 85 3e
       0.296284 0.23728943 0.22351974 0.26018503
000090 ae b5 77 3e 7e 4c 66 3e 6e 98 78 3e 7a e2 91 bb
       0.24190399 0.22490117 0.24276897 -0.004452047
0000a0 19 8d 93 3e f1 33 97 3e d3 d0 65 3e bb 8d 82 3e
       0.28818586 0.29531816 0.22442941 0.25498757
0000b0 f3 c8 8b 3e a8 3e ae 3e 3b 58 8c 3e 99 4b 7d 3e
       0.2730175 0.34032178 0.27411065 0.2473587
0000c0 07 ac 51 3e 9e b3 79 3e 6d fa 6e 3e 40 79 84 3e
       0.2047578 0.24384925 0.23337717 0.25873756
0000d0 d0 ab 57 3e 74 23 88 3e 62 11 5c 3e f4 74 88 3e
       0.21061635 0.2658955 0.21491006 0.26651728
0000e0 58 65 96 3e 9d 4b 94 bb 80 f4 96 3e 53 f6 69 3e
       0.29374194 -0.0045256154 0.29483414 0.22847871
0000f0 fd c8 7f 3e 40 ed 5e 3e f6 01 82 3e 72 24 81 3e
       0.24979015 0.21770191 0.2539212 0.25223118
000100 62 27 56 bb a9 e3 7c 3e 26 11 43 3e 3a cc 60 3e
       -0.0032677283 0.2469622 0.1904951 0.21952906
000110 f0 9a 69 3e e1 d0 70 3e 51 16 65 3e 56 3f a8 bb
       0.2281301 0.23517181 0.22371794 -0.0051345034
000120 87 2b 8b 3e 41 e3 91 3e 5c b7 a5 bb 76 fb 76 3e
       0.27181646 0.28493693 -0.0050572585 0.24119362
000130 6c cb 60 3e 11 34 90 3e f9 51 71 3e f2 74 86 3e
       0.219526 0.28164724 0.23566426 0.26261097
000140 d3 09 2d 3e f9 32 8a 3e 02 9b 85 3e 0f 5c 5b 3e
       0.16898279 0.26992014 0.26094824 0.21421836
000150 bb 0d 19 bb 24 84 79 3e b5 6d 8c 3e a7 e2 8b 3e
       -0.0023354131 0.24366814 0.2742745 0.2732136
000160 ee 47 57 3e 8d 1f 95 3e 53 25 91 3e f4 8d 57 3e
       0.21023533 0.29125634 0.2834879 0.21050245
000170 e2 27 79 3e d9 bb 70 3e 76 56 95 3e 65 05 50 3e
       0.2433162 0.23509158 0.29167527 0.20314558
000180 bb 07 a6 3e fb ea 7d 3e ae 21 81 3e db 7e 77 3e
       0.32427773 0.24796669 0.25221008 0.24169485
000190 39 9d 68 3e aa fc 5d 3e 3c d3 80 3e 38 c8 82 3e
       0.22716226 0.21678415 0.2516116 0.2554338
0001a0 e9 e1 b6 3e 25 a4 8b 3e 22 ad 7c 3e e3 fe 88 3e
       0.3571923 0.2727367 0.2467542 0.26756963
0001b0 5a d2 ac bb 72 62 da bb b1 e2 91 3e 5b b9 5d 3e
       -0.0052740993 -0.0066645676 0.28493264 0.21652739
0001c0 e2 2d 99 3e 8b 6e 85 3e bf 85 7b 3e e4 ed 96 3e
       0.29917818 0.260609 0.24562739 0.2947837
0001d0 d9 74 92 3e dc 90 74 3e 25 79 9a 3e a3 12 6c 3e
       0.28604773 0.23883384 0.3017055 0.23053984
0001e0 41 10 a9 3e ce d7 90 3e 5c 9a 93 3e 57 eb 65 3e
       0.33020213 0.28289646 0.28828704 0.22453056
0001f0 01 91 4f 3e 48 5b 6a 3e 40 d1 55 3e 21 79 48 3e
       0.20270158 0.22886384 0.20880604 0.19577457
000200 12 9e 55 3e 5b 01 78 3e 4c 9a 77 3e f7 f9 a1 3e
       0.2086108 0.24219267 0.24179953 0.3163602
000210 d0 e3 37 bb db 7e 70 3e c3 c3 74 3e ec ac 83 3e
       -0.002805937 0.23485892 0.23902802 0.25717866
000220 03 a0 2c 3d 7c 7f 90 3e f3 e2 8a 3e 59 0c 78 3e
       0.042144787 0.28222263 0.27126274 0.2422346
000230 b1 37 7d 3e 59 76 45 3e 90 e7 65 3e 9a 10 89 3e
       0.24728276 0.19283427 0.22451615 0.26770478
000240 1a 08 af 3e 1e c0 92 3e 60 e0 71 3e e1 52 7a 3e
       0.34185869 0.286622 0.23620749 0.24445678
000250 3f 75 5d 3e 74 10 87 3e b4 d2 56 3e 36 fa 4d 3e
       0.21626757 0.2637974 0.20978814 0.20114979
000260 d3 22 91 3e 7a 9a b0 3e df 2f a2 3e 2f 21 56 3e
       0.2834688 0.34492856 0.31677148 0.20911096
000270 f0 43 73 3e 1e 7a 6e 3e 55 d6 de 3b 19 93 8b 3e
       0.23756385 0.23288772 0.0068004527 0.27260664
000280 62 ff b2 3e 27 f7 93 3e 50 44 76 bb 83 c8 7f 3e
       0.34960467 0.288995 -0.0037577339 0.24978833
000290 d4 89 64 bb fc 02 92 3e 2e 31 97 3e 4f 52 8c 3e
       -0.003487219 0.28517902 0.2952971 0.27406546
0002a0 3b a8 6e 3e 82 4d 97 3e 83 44 3b 3e a3 94 53 3e
       0.23306362 0.2955132 0.18287854 0.20662169
0002b0 6a ee 5c 3e a0 86 3d 3e 53 fa 3f 3e 44 90 99 3e
       0.21575323 0.18508387 0.18747835 0.29992878
0002c0 e7 92 a1 3e 80 47 82 3e 79 0c 91 3e 98 87 79 3e
       0.3155739 0.25445175 0.28329828 0.24368131
0002d0 2f 52 97 3e 48 21 89 3e 77 f4 90 3e 9d 02 86 3e
       0.2955489 0.26783204 0.28311512 0.2617387
0002e0 83 34 41 bb 4b fb a4 3e d9 b7 85 3e c1 5a 69 3e
       -0.0029480762 0.3222297 0.26116827 0.22788526
0002f0 48 07 6e 3e b0 9b 4b 3e 6d 8d 7f 3e a3 2d 52 3e
       0.23244965 0.19883609 0.24956293 0.20525222
000300 d0 4d 57 3e 55 d4 92 3e ef 63 50 3e 4b 51 8e 3e
       0.21025777 0.2867762 0.20350622 0.27796397
000310 c6 38 2e 3e 67 ac 9a 3e 7d 03 71 3e df 69 05 3e
       0.17013845 0.30209658 0.23536487 0.13028668

encodernorms.0.running_var f4 [200]
000000 9a 17 de 3d b6 71 cf 3d 29 d1 28 3a b9 41 f1 3d
       0.108443454 0.101291105 0.00064398587 0.11780114
000010 0c 7b d5 3d 31 72 cb 3d ea bf c4 3d be e8 b8 3d
       0.1042386 0.0993389 0.09606917 0.09028767
000020 9a d8 af 3d 31 91 d0 3d 89 5d bc 3d cd 24 c0 3d
       0.08586235 0.10183943 0.09197528 0.09382019
000030 af b7 e0 3d c7 21 dc 3d 29 21 da 3d 26 59 9c 3d
       0.10972535 0.1074863 0.10650856 0.07634191
000040 1a 3b cd 3d 01 18 b5 3d e8 be a0 3d 5c ec 16 3e
       0.10021038 0.08842469 0.078489125 0.14738601
000050 92 7b b7 3d 9a 82 fc 3d 66 92 b3 3d aa 5f b2 3d
       0.08959116 0.12329598 0.08768158 0.08709653
000060 ad e5 ee 3d d0 e5 bb 3d 3f 29 ee 3d 67 78 b9 3d
       0.11664901 0.09174693 0.11628961 0.09056168
000070 5c 67 b0 3d da 17 0b 3a 9e 54 df 3d e1 a6 e9 3d
       0.08613464 0.00053059834 0.10904811 0.11408783
000080 55 39 ed 3d 78 f0 bf 3d 23 c9 bc 3d 1a 7d e2 3d
       0.11583201 0.09372038 0.09218051 0.110590175
000090 5e ca bf 3d 3b 4a c4 3d 7a 32 c5 3d 5c df c3 39
       0.0936477 0.09584471 0.09628768 0.00037359714
0000a0 4a c8 f1 3d c8 63 0e 3e 84 0f b2 3d df 27 c9 3d
       0.1180578 0.13905251 0.086943656 0.09822058
0000b0 d8 a4 d2 3d 7b 0e 2b 3e 1e e9 db 3d 0a 11 bd 3d
       0.10285348 0.16704743 0.10737823 0.092317656
0000c0 1c 24 b6 3d 4a 95 c3 3d 77 30 bd 3d c3 cd d5 3d
       0.08893606 0.09549959 0.092377596 0.104396366
0000d0 28 61 96 3d 65 ae e5 3d bc b5 9a 3d 89 38 d9 3d
       0.0734275 0.11214904 0.07554194 0.10606486
0000e0 2d e1 f1 3d df 99 ee 39 68 26 fe 3d e6 62 db 3d
       0.11810527 0.0004550954 0.12409669 0.10712223
0000f0 40 70 df 3d 9f 64 be 3d e0 6d f7 3d 31 7b c7 3d
       0.10910082 0.09296536 0.12081504 0.09740294
000100 d6 92 a7 3a ff b5 bb 3d c5 13 96 3d 8a 9a a3 3d
       0.0012784849 0.091655724 0.073279895 0.0798846
000110 10 65 c5 3d b8 34 b4 3d a6 ee b4 3d 88 33 22 3a
       0.09638417 0.08799118 0.08834581 0.00061874883
000120 cd d0 ed 3d bc 05 f9 3d 9f e9 bd 39 cb 1b e7 3d
       0.11612091 0.12159297 0.0003622295 0.11284598
000130 55 5a a7 3d d2 1c ed 3d 06 ab cc 3d 0a 32 ea 3d
       0.08171526 0.11577763 0.09993558 0.114353254
000140 36 d5 79 3d a2 aa e4 3d 84 cb e3 3d 66 6a ae 3d
       0.06099435 0.11165358 0.11122802 0.08516388
000150 33 47 84 3a 1f 9b d7 3d e9 2b cf 3d 82 c3 e7 3d
       0.001009202 0.10527634 0.10115797 0.11316587
000160 2c e5 b5 3d 75 09 eb 3d fd 86 01 3e 2c c5 ac 3d
       0.08881602 0.11476413 0.1264915 0.08436045
000170 d6 94 c9 3d 3d 91 ce 3d d8 b6 10 3e ba 79 af 3d
       0.09842841 0.10086296 0.1413225 0.085681394
000180 6d fe 19 3e 25 45 cc 3d f2 e1 d1 3d da 05 c9 3d
       0.15038462 0.09974126 0.10248174 0.09815569
000190 e5 23 aa 3d 99 15 b4 3d 26 a8 c7 3d 92 3b cb 3d
       0.083076276 0.08793182 0.09748869 0.099234715
0001a0 76 2d 08 3e 7f 2d cd 3d 46 df bd 3d 12 e1 ce 3d
       0.13298592 0.10018443 0.09271102 0.101015225
0001b0 99 56 42 3a 03 5a ce 39 ea 28 f9 3d d7 f2 a0 3d
       0.0007413417 0.00039358446 0.12166007 0.07858818
0001c0 51 b4 05 3e ef 42 d7 3d dc fa c7 3d 05 95 0c 3e
       0.13057067 0.105108134 0.097646445 0.13728721
0001d0 8f 53 ee 3d ff 78 d5 3d 0b 0e f0 3d a3 e0 ba 3d
       0.11637031 0.10423469 0.117214285 0.09124877
0001e0 a7 f6 03 3e 07 52 da 3d fa c3 bf 3d 45 c4 b0 3d
       0.12887059 0.10660177 0.093635514 0.086311854
0001f0 20 6a c3 3d af fb b8 3d 79 c5 9c 3d 07 1b 8d 3d
       0.09541726 0.0903238 0.076548524 0.06889921
000200 ed 9d b8 3d c8 d2 d1 3d 30 f7 dd 3d 9f 3b 16 3e
       0.09014497 0.102452815 0.10838163 0.14671181
000210 72 ff 8b 3a 43 e4 b1 3d 12 c8 a2 3d 2f 8d ce 3d
       0.0010680987 0.086861156 0.07948317 0.100855224
000220 6e 2c 83 3c 1a 26 f2 3d 88 9e 02 3e c4 7a c8 3d
       0.016012397 0.118236735 0.12755787 0.09789041
000230 db e6 c4 3d eb 86 99 3d 0d cd d1 3d 56 55 f7 3d
       0.09614345 0.07496437 0.102441885 0.120768234
000240 84 90 01 3e b0 3b f4 3d 3f 6c c6 3d d7 51 ad 3d
       0.12652785 0.11925447 0.09688615 0.08462875
000250 e4 42 b3 3d 4a 9f d1 3d 03 54 b1 3d 15 30 b1 3d
       0.08752993 0.1023546 0.08658602 0.08651749
000260 3c 81 0c 3e 69 e7 06 3e a6 ab fb 3d 77 aa af 3d
       0.13721174 0.13174213 0.12288599 0.085774355
000270 8b bf c3 3d 5b 5e c0 3d ee 91 84 3b e7 28 f2 3d
       0.09558018 0.09392997 0.0040457165 0.11824208
000280 03 76 12 3e 27 83 07 3e 0a fd 23 3a c8 a4 db 3d
       0.1430283 0.13233624 0.00062556623 0.10724789
000290 0f 96 1b 3a c7 a4 ff 3d 9e d5 ed 3d 03 1f e9 3d
       0.0005935141 0.12482601 0.1161301 0.11382868
0002a0 98 ba ae 3d 87 68 04 3e 07 ed 8a 3d 28 5e b5 3d
       0.08531684 0.12930499 0.06783491 0.088558495
0002b0 29 87 ab 3d 3c fc 85 3d 71 e4 97 3d 44 5d f3 3d
       0.08375389 0.065422505 0.074166186 0.118830234
0002c0 b6 14 01 3e 0e 64 c8 3d 20 53 f2 3d 06 bf c2 3d
       0.12605557 0.09784709 0.11832261 0.09509091
0002d0 22 49 fb 3d c0 ad d5 3d 2a e5 e8 3d 17 86 d2 3d
       0.12269808 0.10433531 0.113718346 0.10279482
0002e0 3d 0d 47 3a 87 6d 15 3e ad 51 ef 3d 82 7a af 3d
       0.000759322 0.14592563 0.116855 0.085682884
0002f0 47 33 cd 3d 44 dc b1 3d 9b 6e ea 3d e8 77 a5 3d
       0.10019546 0.086845905 0.114468776 0.08079511
000300 ea 49 9c 3d 50 0b 03 3e 2c 5f b3 3d f8 5e fb 3d
       0.076312855 0.12797284 0.08758387 0.12273973
000310 ca 20 59 3d 18 f0 ff 3d aa 44 be 3d d5 ab 77 3d
       0.053009786 0.12496966 0.092904404 0.060466606

decoderlayers.0.weight f4 [200, 30]
000000 27 ad c1 bd e0 4f ec bd c4 51 cd 3d 1e 9b e7 3d
       -0.09456854 -0.115386724 0.10025361 0.11308883
000010 9d 62 18 be ea 68 dc 3d bd 1a 10 be 39 21 12 3e
       -0.14881368 0.10762198 -0.140727 0.14270486
000020 74 e1 d4 3d 4d 01 c1 bd 71 e1 bf 3d c6 2d 1f 3e
       0.10394564 -0.09424076 0.093691714 0.15544805
000030 97 e3 af bc e6 f4 09 3e 82 d6 03 3e 7f c1 7a 3b
       -0.021470828 0.13472328 0.12874797 0.0038262305
000040 c0 4d 47 3c fe 7d 35 be 40 0f d3 bd 96 ec d8 bd
       0.012164533 -0.17723843 -0.10305643 -0.10592
000050 13 1e ff bd 25 44 29 3e 53 51 c8 3d 88 6c 14 bd
       -0.12456908 0.16529901 0.09781136 -0.036236316
000060 ca 61 a5 3d 64 2f 2f bc fc 61 3e 3e 8c 5b 0f bc
       0.080752924 -0.010692451 0.18592066 -0.008749854
000070 ad 68 5e 3e 20 14 be 3d 7f 56 e7 bb f4 c2 ae 3d
       0.21719618 0.09281182 -0.0070598717 0.08533278
000080 27 f9 9a bd ea e3 d7 bd 21 ed 1a 3b 59 7b f7 3d
       -0.07567053 -0.10541518 0.0023639875 0.120840736
000090 f3 81 4c bd d6 e7 3a 3e 56 a2 59 3e e5 87 b2 bd
       -0.049928617 0.18252501 0.21253332 -0.08717326
0000a0 2b 69 e1 bd 83 3b 55 be 25 d6 0f bd 3b 52 23 3a
       -0.11006387 -0.20823483 -0.035116334 0.000623021
0000b0 7b 78 47 3d 69 74 d5 3c e3 2a f7 3c 01 e4 fd bd
       0.048698884 0.026056485 0.030171817 -0.12397004
0000c0 eb 58 36 be 9b 86 e3 3d 59 28 ce 3d 7b 00 50 3d
       -0.17807357 0.11109658 0.100662895 0.05078171
0000d0 15 8a c1 3d be 07 2d 3e 36 9f b4 bd aa 3b ed bd
       0.09450165 0.16897485 -0.088194296 -0.11583646
0000e0 10 96 e3 bb bc de 39 3e a1 e2 ce 3d c1 76 fe bc
       -0.006945379 0.18151373 0.1010182 -0.031062486
0000f0 bd b2 8e 3d 18 c1 a5 bc fc 9a e5 3d 29 a7 ea 3c
       0.06967685 -0.020233676 0.112112015 0.028644161
000100 b6 01 00 3e 10 40 29 bd bb 22 11 bd ab 26 1f 3d
       0.12500653 -0.04132086 -0.035433512 0.038855236
000110 de c7 51 bd c3 6f 9c 3d 35 be 3a 3e 07 a7 23 be
       -0.051216 0.07638504 0.1823662 -0.15981685
000120 4a 29 88 3d 26 88 5f bd 75 10 18 3e e3 57 bc 3c
       0.066485 -0.0545732 0.14850028 0.022991126
000130 c4 5b 37 3e 13 db d5 bb 63 7a 81 3c a4 04 c4 3d
       0.179061 -0.00652636 0.015805429 0.09571198
000140 7c b0 d8 3d 06 0d c5 bc ed 13 1d 3e 59 70 ab bb
       0.10580537 -0.024054062 0.15339632 -0.0052318987
000150 7b 41 17 3e 49 71 8e 3d da e7 0c bc 5b bb 15 bc
       0.14771073 0.06955201 -0.0086002 -0.009138907
000160 84 e2 3e 3d d7 44 50 bd a4 3a 2c 3e 20 90 05 3e
       0.04660274 -0.0508469 0.16819245 0.1304326
000170 34 d3 86 3d dc af ba bd b7 cf ac bc 6c 1a 1d 3e
       0.065832525 -0.09115574 -0.02109514 0.1534211
000180 5e f0 02 be 3e 86 1c be 55 fa 1d 3e 7e f3 c9 3d
       -0.12787005 -0.15285584 0.15427525 0.098608956
000190 c9 97 27 be 94 50 f6 3d 64 d3 cd 3d ff 71 8f bd
       -0.16366495 0.12027088 0.10050085 -0.07004165
0001a0 ae d6 eb bc 59 88 6c bc c8 cb 93 3d 85 2b c5 bd
       -0.02878889 -0.014436805 0.072166026 -0.09627441
0001b0 17 5b 3f be 57 41 e2 bd fc f0 24 be 7f f7 2b be
       -0.18687092 -0.11047619 -0.16107553 -0.16793631
0001c0 23 c8 34 be 02 e3 39 3e 66 e3 2d 3e 46 68 e9 bd
       -0.17654471 0.18153003 0.16981277 -0.11396842
0001d0 95 16 a8 3d a9 bd 4e 3d e1 a8 0e be 7e aa af bd
       0.08207432 0.050473843 -0.1393161 -0.08577441
0001e0 58 3d b3 bd 0f 4e 0b be 1c 9f e4 bd 08 8b 56 bd
       -0.08751935 -0.13603996 -0.1116316 -0.052378684
0001f0 97 32 ed 3d ec 9f 9d bd a0 ab ef bd 81 8e 2d 3d
       0.11581915 -0.07696518 -0.11702657 0.04237223
000200 f7 6a 10 be b5 6c 1f 3e 6a e7 84 3d 77 70 00 bd
       -0.14103304 0.15568812 0.06489451 -0.031357255
000210 98 43 d0 bd 69 6e 53 bd 48 cd 04 3e 02 59 25 3e
       -0.101691425 -0.051618967 0.12968934 0.16147235
000220 99 99 38 3d 25 c7 69 bd f6 7c 52 bd fa d1 a0 3d
       0.045068357 -0.057074685 -0.051388703 0.0785255
000230 00 f6 fa 3d 01 d4 2b be fd 30 fd bd 79 4a 32 be
       0.12253952 -0.16780092 -0.123628594 -0.17411222
000240 dd ac 35 be 38 f4 24 bd db 6b fc bd 3b 5f 12 3e
       -0.17741723 -0.040271968 -0.12325259 0.1429414
000250 6f 3b e3 bc 92 72 4c 3e 94 b8 57 be bd e3 22 be
       -0.027738301 0.1996558 -0.21066505 -0.15907188
000260 3a 37 da bd e4 fc 46 3e 43 44 45 3b a2 b0 2d bd
       -0.10655065 0.19432408 0.0030100502 -0.04240478
000270 b1 34 bb 3c e8 a8 1e 3d ed 10 b3 bd 02 02 db 3d
       0.022852274 0.0387353 -0.08743463 0.10693742
000280 55 a7 fe bd be 14 0b be 65 54 ab 3d 60 8b bf bd
       -0.1243426 -0.13582131 0.08365706 -0.093527555
000290 62 6c 36 3d 38 2c 16 3e 1a 32 a2 3d 64 39 cd bc
       0.044536956 0.14665306 0.07919712 -0.02505178
0002a0 fb eb 40 3e ac 3d 1a be 50 c7 23 3e 7f d2 a3 3d
       0.1884002 -0.15062588 0.15994 0.07999133
0002b0 5b c0 94 3d f8 90 d3 3d ed 09 c8 3d 6a 09 9e bb
       0.072632514 0.10330385 0.09767518 -0.0048228996
0002c0 ab 1e c5 3d 9a b9 7d 3d 3a 0f 19 3e 4a 73 15 bd
       0.0962499 0.06194458 0.14947215 -0.0364869
0002d0 aa 33 ec 3d 13 e2 e8 bc b8 b5 27 be 76 60 71 bd
       0.11533292 -0.028428113 -0.16377914 -0.058929883
0002e0 da 91 5a bc 71 f0 34 be f2 12 83 bd 64 d9 f0 bd
       -0.013340438 -0.17669846 -0.06400098 -0.11760214
0002f0 b4 c7 10 3e 0f 5b 11 3e 07 d9 0f 3e 36 13 44 bd
       0.1413868 0.14194892 0.14047633 -0.047869883
000300 ca 8f 45 bd b1 52 c9 3d 9d 4e bb bd a4 5e 7d bd
       -0.04823283 0.09830225 -0.09145854 -0.061857834
000310 43 c2 c8 3c 48 a7 84 3d 7a c9 83 bd 90 4f 80 bd
       0.024506694 0.06477219 -0.06434913 -0.06265175
000320 d5 ce 10 be 5f 34 71 bd 03 8b fb bd ca d7 c5 bd
       -0.141414 -0.058887836 -0.12282374 -0.09660299
000330 6c dc ee bd f7 c7 4f 3d 98 20 95 bd a5 39 0f bc
       -0.11663136 0.05072781 -0.072816074 -0.008741771
000340 6d b2 ab 3d 89 22 2a bd 05 9e 43 3d b6 a1 22 bd
       0.083836414 -0.04153684 0.04775812 -0.039705
000350 27 38 b9 bd c1 e4 04 3d 4e 15 ed bd ec 37 a0 3a
       -0.09043913 0.03244472 -0.11576329 0.0012223697
000360 00 0c ae 3c 7f 1b 1f 3e d4 1a c5 3d da a1 31 3e
       0.021245956 0.15537833 0.09624258 0.17346898
000370 96 0c 72 3a 19 2c a1 3d 3d f6 55 3d 58 df 46 3d
       0.0009233443 0.07869739 0.052236784 0.04855284
000380 2a f5 0d 3d 96 d4 8c 3d 92 a5 a3 3d 63 3c 92 bd
       0.034657635 0.06876485 0.079905644 -0.07140424
000390 bb be 06 3e c1 19 15 be 21 e3 3e 3e 35 00 cc bd
       0.13158695 -0.14560606 0.1864133 -0.09960977
0003a0 9c f1 29 bc cf b0 be bd e6 b8 cc bd d7 12 15 3e
       -0.010372546 -0.09311067 -0.09996204 0.14557968
0003b0 8f 99 81 3d be 03 3d be 0f 8e a3 3d db f0 92 bd
       0.06328117 -0.18458459 0.0798608 -0.07174846
0003c0 82 92 03 bd e1 89 b7 bd 68 ad eb bd e2 c6 2a 3d
       -0.032122143 -0.08961845 -0.11507684 0.041693576
0003d0 e0 06 ff bd 16 fa 06 bd d6 50 fa bd 4c ca 81 bd
       -0.12452483 -0.032953344 -0.122224495 -0.06337413
0003e0 24 aa b5 bd e1 5d d6 bd 28 9d ac 3d b8 d0 25 3d
       -0.088703424 -0.10467125 0.08428413 0.040482253
0003f0 f3 56 9e bd 7f 87 3a be e4 a3 13 3e f7 ac a0 3b
       -0.07731428 -0.1821575 0.14417988 0.0049034315

decoderlayers.0.bias f4 [200]
000000 14 e0 39 3e ea 21 5c 3e 8a a9 fd bd ed f0 0b bd
       0.18151885 0.21497312 -0.12385853 -0.03416531
000010 84 2f 03 3e 41 f9 0b bd 80 7c 38 3d 57 4f ee 3d
       0.12811095 -0.034173254 0.045040607 0.116362266
000020 2c a2 fc 3d 77 62 32 3d df 00 3d 3e 19 31 4a 3e
       0.12335619 0.043550935 0.18457364 0.19745292
000030 77 65 30 3e 00 bf ed 3d a3 34 6a bd 91 c1 10 3d
       0.17226206 0.11608696 -0.057179105 0.03534085
000040 f5 ff 89 3e 1e 53 20 3e f1 83 b0 bc 8c 86 0f 3e
       0.26953092 0.15656707 -0.02154729 0.1401617
000050 0a da 12 3e 64 34 00 3e 7f fd c1 3d 65 ac 50 3e
       0.14340988 0.12519985 0.09472179 0.20378263
000060 fa e5 01 be 69 e6 fe 3d 5a c6 15 b9 cb 1d 20 3e
       -0.12685385 0.12446291 -0.00014283639 0.15636365
000070 df 4b 67 3d d8 c1 44 3e 18 37 5f 3e 0c c0 5e 3e
       0.05646884 0.1921457 0.2179836 0.21752948
000080 7b 4e 07 be 42 2d 11 3d 3c f8 1e 3d 4f 9e a5 bc
       -0.13213532 0.03544355 0.038810953 -0.020217089
000090 c3 d5 7e 3d 71 01 d2 bd e9 3c 3c 3e e4 8e f5 3d
       0.062215578 -0.10254181 0.1838261 0.11990145
0000a0 6d 83 10 3e 33 cc 25 3e 10 1c 00 3e 25 6e 36 3d
       0.14112635 0.16191177 0.12510705 0.044538636
0000b0 c8 5e 48 3e 58 7f bf bd 3d 1c 16 3e 4d 8a a8 3d
       0.19567406 -0.09350461 0.1465921 0.08229504
0000c0 21 8d 5c 3e e9 0e d9 3d bb 23 d2 3d b5 05 64 3e
       0.21538211 0.10598547 0.10260721 0.22267802
0000d0 dc 7f 69 3e 03 fb bf 3d df 7e c5 3d 36 1c 5e 3e
       0.2280268 0.093740486 0.09643339 0.21690449
0000e0 56 63 3d bd bf 94 4d 3d 51 7f 09 bd a3 a0 f5 3c
       -0.046237312 0.050190683 -0.033568684 0.029983824
0000f0 55 88 3b 3e 8e 94 27 3e 77 27 0b bd 10 f9 2a 3e
       0.18313725 0.16365263 -0.033973183 0.16696572
000100 77 2c 0c 3c fa cb 57 3c 68 2b fd 3d 9b 65 02 3d
       0.008555523 0.01317119 0.12361795 0.03183518
000110 3e b5 43 3e 71 64 39 3e c2 47 4b 3d 53 a9 a4 bd
       0.19112107 0.18104722 0.04962898 -0.080401085
000120 f8 5c 12 bd 3a ad 4c 3d 3d 30 67 3e 29 30 a4 3d
       -0.035733193 0.04996989 0.22576995 0.08016998
000130 d3 be 29 3e 98 84 4e bd 0f fe bd bd 07 bf 6c 3c
       0.165767 -0.05041942 -0.092769735 0.014449841
000140 73 fa c2 bd 16 a2 a5 3c 14 ad 2c 3e 9e a7 be 3d
       -0.09520426 0.02021889 0.16862899 0.09309314
000150 8f 99 92 3d 69 db 14 bd bc bd a9 bc d8 f0 53 3e
       0.07158195 -0.03634206 -0.020720355 0.20697343
000160 75 e4 97 ba 3f 68 8e 3e a1 44 ce 3d 61 07 2f 3e
       -0.0011588471 0.27813908 0.10071684 0.17092659
000170 42 1a 50 3e 4b 37 99 bd d7 4c 4d 3e db 8c 8c bd
       0.20322517 -0.074812494 0.20048843 -0.068628035
000180 ad 93 1f 3e 9b 6c 92 3e 2d 42 3d bd ac 8f 22 3c
       0.15583678 0.28598484 -0.04620569 0.009921949
000190 a2 11 63 3e 8a bb 21 bd 5e 42 54 3d 73 d7 55 3e
       0.22174695 -0.03948549 0.051821105 0.20882969
0001a0 91 32 2e 3d 9a c1 13 3e 49 04 09 3e 5b 66 1f 3d
       0.042528693 0.14429322 0.13380541 0.038915973
0001b0 cf 08 01 3e 6a a9 93 bb e1 0c ed 3c c0 e9 07 3e
       0.12601016 -0.0045062797 0.028936805 0.13272762
0001c0 28 88 0a 3e 55 67 7d bd d2 44 bb 3d 06 86 b5 bc
       0.13528502 -0.061866123 0.09143986 -0.022158634
0001d0 56 46 1f be 31 d3 47 3c 85 3a 36 3e 9f df 36 3e
       -0.15554175 0.012196348 0.17795761 0.17858742
0001e0 d7 20 66 3d ec 31 0a 3d 12 bb a8 bd 3b 40 41 3e
       0.056183662 0.033739015 -0.08238806 0.18872158
0001f0 63 63 bd bc c5 04 5a 3e 46 a2 f1 3d 96 30 e4 bb
       -0.02311868 0.21290882 0.11798529 -0.0069637997
000200 10 2b f5 3c f0 c8 52 3e 3c f5 5b 3b 80 50 15 3e
       0.02992776 0.20584464 0.003356292 0.1458149
000210 3f ac 4b 3b c1 a7 4b 3e b6 cf 39 be 47 a3 0f 3e
       0.0031078008 0.19888212 -0.18145642 0.14027129
000220 1d eb c7 b9 53 a5 a5 bd f7 38 53 bd 69 43 7d 3c
       -0.0003813141 -0.08088174 -0.051567998 0.015457966
000230 30 04 2d 3e a6 b8 df 3d b1 ba 26 3e f5 eb 4c 3e
       0.16896129 0.10923891 0.16282155 0.20011885
000240 3f 20 2d bd f1 4c ff bc 12 b1 24 3e 6d 88 87 3e
       -0.04226708 -0.031164618 0.16083172 0.26471272
000250 21 84 3b 3e 0a 25 9b 3d ef 08 29 bc 3b c4 03 3e
       0.18312122 0.07575424 -0.010317071 0.12867825
000260 c9 d4 1a 3e 9c a5 06 bc 94 a2 18 3e df 8a c3 3d
       0.15120234 -0.008218195 0.14905769 0.09547972
000270 67 67 ea bd bb ac 9e bd 27 e1 a8 3d ec 09 d8 3d
       -0.11445504 -0.077477895 0.082460694 0.105487674
000280 56 57 9b bc 0e 2b 34 3e e6 c1 fb 3d 9e 77 b4 3c
       -0.018962543 0.17594549 0.122928426 0.022029694
000290 cb 13 9f 3d ac e4 67 3e 0a 1d 17 bd 85 1a 19 3e
       0.07767447 0.22645825 -0.03689293 0.14951523
0002a0 93 39 a7 3d 7b 3a 84 3e 40 9f 66 3e 1f 98 24 3e
       0.08165278 0.25825867 0.22521687 0.16073655
0002b0 43 f9 7c 3e 01 0b 51 bd 44 78 c0 3d e8 7f af 3d
       0.24704461 -0.051035885 0.09397939 0.08569318
0002c0 2b 3b 25 bd d7 0d 0e 3e a0 d2 67 3e 61 ce ef 3d
       -0.04033963 0.13872467 0.22638941 0.117092855
0002d0 86 ce 37 3d de 3e 25 bd 03 ac 92 3e 10 60 52 3e
       0.04487469 -0.040343158 0.2864686 0.20544457
0002e0 96 60 a7 bd 0e 38 41 bd 6b 62 0e bc dc c7 3c 3e
       -0.08172719 -0.0471726 -0.008690457 0.18435615
0002f0 f7 7c 0b 3e d0 f6 9f 3d f8 5e 1d 3e 1e dc d2 3d
       0.13621889 0.078107476 0.15368259 0.1029589
000300 bb 92 c8 3d d3 31 ea 3d 54 98 8e 3e 35 92 29 bd
       0.097936116 0.114352845 0.27850592 -0.0413992
000310 5d 32 7a bc 93 d5 f4 3d 57 aa 12 3e 3a c4 cc 3c
       -0.015270797 0.119547985 0.14322792 0.024995912
