tutorial/interim_data_test/models/model_10_9.pt (torch, 78251 bytes, 18 tensors)

encoderlayers.0.weight f4 [100, 70]
00000000: 7a5d 87bd 60f1 d7bc ddf3 d93d 7356 b73c
00000010: bbdf 263e ab49 3bbe a592 0cbe 6f59 ae3c
00000020: b029 e03d 767b f3bd 2b46 7c3d bb2a 94bd
00000030: 6bd5 b9bd 17cc 653d d6f1 5e3d f38d b83d
00000040: 0472 ab3d e24e babc f4ed d83b c0a1 4f3d
00000050: e2d0 aebd 5c4f 153d 5930 c73d fd60 d13c
00000060: acca cb3d dc49 e73d 3ff9 ddbd c775 61bd
00000070: c84a 733c ffe6 8d3c ce76 e7bc 7802 33bd
00000080: a631 2d3d 07af c43d 3d4a b83c 0c29 903d
00000090: 27b1 323c 35c0 c5bd 498e 5e3d c3ea 7abd
000000a0: 4d50 86bd a1cc 9f3d 966c 72bc e81e e5bc
000000b0: 56b5 7a3d e4b1 a03b 7dce cdbc ada2 9d3d
000000c0: bbf5 f63d 5c00 0c3d ba28 943c e614 c6bd
000000d0: cd6f 81bc e5be 903c 6308 72bd 2380 e1bb
000000e0: 0675 d4b9 4e5d 043d bbd7 633d a17b 8cbd
000000f0: 6e87 b0bd b5c1 c83b 024a 8e3d 1336 863d
00000100: 473c ed3b a86b 363d 09bb 54bd cf5f c83d
00000110: 4d61 1e3d 38f3 a93c a5cf d9bd 9553 ee3d
00000120: 5050 fe3c 0525 82bd 142b 0ebe b995 013e
00000130: 5218 c23d 904c 49bd 125e ccbd 9c5a 80bd
00000140: 045d c0bb 750a 81bd dd8f 003c 13e4 2b3d
00000150: b655 b2bd 0747 86bd bf30 933d b1a8 ed3d
00000160: 2531 ec3c cb4a 853c b0c5 dabd ed2d 7fbd
00000170: c1dd c03d fe02 ecbd 09a6 41bd c914 7e3d
00000180: f221 cabd 8663 d83d be43 bebc 0571 313d
00000190: 1000 dfbd 25e5 a0bd 1867 b3bd 5093 7c3d
000001a0: 23a1 b1bd fb87 91bd 51c2 82bd d8c7 25bd
000001b0: 9cfc 613d b9e6 9b3d 9bae b5bd 1ccd b93c
000001c0: 7e0c 013d 00fd 8abd 62de 9dbd de97 c4bd
000001d0: f0b4 b5bc bb28 b9bd b3ef 51bc d47f e8bd
000001e0: e8eb be3d dd80 e5bc e2ca 503d 86a1 d8bc
000001f0: 4fa9 c9bd b82e 8fbd cb43 3c3d ea79 dabd
00000200: 40b7 1f3d 7950 5b3c 82a5 fa3b 8498 eb3c
00000210: ae50 14bd d69c cb3d 5733 ee3c d2ca bd3c
00000220: 65f8 803d 1458 573b 7d9f aebd 34ed 903c
00000230: 5229 cebd f803 0f3e 3beb 2b3d 4863 d23d
00000240: fb46 04bd 5cd2 2fbe 8da4 dfbd 8f50 bb3d
00000250: f3a6 ff3d 9046 a7bc 77d9 bf3d c7c7 75bd
00000260: f5a4 e4bd 49a2 75bd 432e 33bd 94d2 43bc
00000270: 4c25 c3bd 872a d73d b7dd ea3d 9388 b3bd
00000280: 15d4 d93d 8549 37ba 42e9 4b3c 26a5 653d
00000290: 5dcf 1cbd f796 a4bd bf4c d23d 1a13 ad3d
000002a0: 4968 cdbd 3efe 19bd 9943 823d 8625 ec3d
000002b0: abda 413d 1ee7 a5bd f7cd c53d b755 9c3d
000002c0: 015b 81bd fccb 9a3d 31d8 ce3d d4b1 59bd
000002d0: e987 123d 13e1 803d 1950 523d f1be c4bd
000002e0: 476d 0ebd 953e 223c 8ea1 263d 2575 9ebd
000002f0: d118 e93d 2cc6 4dbd b6df 9bbd fbda 213c
00000300: 6c8a c8bd be6f 86bc 762b acbd 03a9 573d
00000310: 3301 48bd 5b98 9bbd c2a1 79bd 6d12 143d
00000320: 208e a0bd 1225 e63c cd82 243d 4c0c 893d
00000330: ef80 c83d 468d 0b3d 2f1e b63d 4f56 07bd
00000340: 939a 02bc 5f34 c83d 4ce3 a03d 7a28 efbc
00000350: b33c d4bc ff2a f8bd 303c fd3d 418a 353c
00000360: 01ef 523a 0990 893d 07eb c43c 86c7 9f3d
00000370: 8bcc b13c 2211 02bd ab9c 5b3c f0f4 b73d
00000380: 55ed d7bd 59ee 633d 882c fdbc daf2 623d
00000390: 7e8b d43d 0c77 bbbb 0fe6 1f3d 9f86 a0bd
000003a0: 62d9 77bd dc7b 8e3d 3a73 bcbd 1d07 93bc
000003b0: 8b07 c23d bec1 803c e332 223d 3426 ba3d
000003c0: 7795 75bd 6e32 d03c 8577 f93b 4606 a4bd
000003d0: 2853 233d 3d47 8a3c 98a5 89bc 774d b53b
000003e0: 95f9 f53d de49 24bd b288 d9bd 9d3b c3bd
000003f0: 0a8d f53c e1a0 953d 21e0 c8bc ca0c d03d
-0.06609626 -0.026360214 0.10642216 0.02238009 0.16296284 -0.18289821 -0.13727815 0.02128288
0.10945451 -0.11888783 0.061590355 -0.07234713 -0.09073909 0.05610284 0.05442985 0.0901145
0.08371356 -0.022742692 0.006620163 0.050691366 -0.08535935 0.036452636 0.097260185 0.025558943
0.09950766 0.112933844 -0.108385555 -0.05504396 0.014849372 0.017322062 -0.028254893 -0.043703526
0.042283677 0.09603696 0.022496337 0.07039079 0.010906494 -0.09655801 0.054334912 -0.061259042
-0.06558285 0.07802702 -0.014796397 -0.027968839 0.06120809 0.0049040187 -0.025122875 0.076970436
0.12058588 0.03418003 0.018085826 -0.09671955 -0.015800381 0.01766915 -0.05909003 -0.00688173
-0.0004052298 0.032315545 0.05562566 -0.06859518 -0.08619581 0.0061266073 0.069477096 0.065532826
0.0072398516 0.044536263 -0.051936183 0.09783899 0.038667012 0.020745859 -0.10635308 0.11637036
0.031044155 -0.06354717 -0.1388362 0.12654771 0.09477295 -0.04914528 -0.0997888 -0.06267282
-0.0058704633 -0.06300823 0.0078468 0.041965555 -0.08707754 -0.06556516 0.07187032 0.11604441
0.028832028 0.016271016 -0.10682237 -0.062299658 0.09417296 -0.11524008 -0.047277484 0.06203154
-0.09869756 0.105658576 -0.023225661 0.043320674 -0.10888684 -0.07856206 -0.08759898 0.061663926
-0.086733125 -0.07106014 -0.06384719 -0.04047379 0.055172548 0.07612366 -0.08871194 0.022680812
0.031506054 -0.06786537 -0.07708432 -0.09599279 -0.022181004 -0.09040972 -0.012813496 -0.11352506
0.09322339 -0.028015548 0.050974734 -0.026444208 -0.09846746 -0.06991333 0.04596309 -0.106677845
0.03899312 0.013385885 0.0076491246 0.028759249 -0.036209755 0.099420235 0.029077215 0.023168001
0.062973775 0.0032858895 -0.08526514 0.017691232 -0.10066475 0.13966358 0.04197238 0.10272843
-0.032294255 -0.1717009 -0.109200574 0.09146225 0.12483015 -0.020419389 0.0936765 -0.060004976
-0.111642756 -0.05996922 -0.04374529 -0.011952061 -0.09528598 0.10506158 0.1146807 -0.08766284
0.106361546 -0.0006991851 0.01244575 0.0560657 -0.038283695 -0.08036607 0.102685444 0.08450909
-0.100296564 -0.03759598 0.063605495 0.115305945 0.04732768 -0.08100723 0.09658425 0.07633536
-0.06316186 0.07558438 0.10099829 -0.053148106 0.035774145 0.062929295 0.05134592 -0.09606732
-0.034772184 0.009902616 0.040681414 -0.07737187 0.113816865 -0.05023782 -0.07611029 0.009878869
-0.09792027 -0.016410705 -0.08406727 0.052651417 -0.04882927 -0.07597419 -0.06094528 0.036150385
-0.07839608 0.028093848 0.040163804 0.066917986 0.09790217 0.034070276 0.08892476 -0.033041295
-0.007971424 0.09775614 0.078558534 -0.029194105 -0.02590785 -0.12117576 0.123649955 0.011080326
0.00080464786 0.06716926 0.024037851 0.07801728 0.021703979 -0.03175462 0.013404052 0.08982265
-0.10543314 0.055647228 -0.030905023 0.055407383 0.103781685 -0.0057209786 0.03903776 -0.07838177
-0.060510047 0.06957218 -0.09201665 -0.017947728 0.09474095 0.015717383 0.03959931 0.09089318
-0.059956994 0.025414672 0.007613125 -0.08009009 0.039874226 0.016879672 -0.016802594 0.005532916
0.120104946 -0.040109508 -0.10621776 -0.09532855 0.02997448 0.07306076 -0.024520935 0.10158689

encoderlayers.0.bias f4 [100]
00000000: 07bb b3bc bdd2 ea3d 6b07 a43b df9b 5bbd
00000010: cceb acbc 5af6 debd 10cd b3bd d538 e3bd
00000020: 443a 49bd 3231 343c e218 423d c4f3 9bbd
00000030: d4f2 5bbd a238 d93d 770d 52ba d635 b33b
00000040: b671 c7bd 386b 953d 2d87 cbbd ab28 3e3d
00000050: 4705 de3d dacf 59bd 76f5 b1bc f600 b1bd
00000060: 8375 ab3d f17a d8bd d485 cdbd e1c9 d5bd
00000070: acb7 16bc e737 adbd bd8c d0bc b066 5a3d
00000080: e7ac b03d 6b62 c73d 37c0 c1bd 1f55 40bd
00000090: 9fc7 17bd 86dd 913d 79dd 9dbd ad19 ca3d
000000a0: 4ff5 c9bd 1dae a8bd c3d2 d83c 693d dabd
000000b0: b2bc 883d 37d4 5b3d ae69 a43c 996d e6bd
000000c0: cc72 b2bd fe8a 62bd 2ab2 4c3d 593d a23d
000000d0: d8ac dc3d 1b5b 083d 8a09 45bd a0da b5bc
000000e0: 51a9 023d 14f5 92bb 8a81 b5bc f13b 9e3d
000000f0: b71e f43d a638 c2bd 815d e23d 7ed9 7c3c
00000100: 8b63 7abc c4bb 983c ca33 4ebb a52c 4abd
00000110: 6fb5 c03d 817c 9b3d 6ed9 84bd a7a7 0fbd
00000120: 87d1 2ebd cd7b ec3c 2a1c b23c b949 54bd
00000130: 2c75 263d bf43 c73d 3916 103d 5e19 a53d
00000140: dfca 6d3d d62f ecbd 89ca a33d b095 61bd
00000150: dfcf 41bb af98 433a c51d a8bd d906 c0bc
00000160: 2e5f a03d 75fc 5fbd dd1e 263d 1857 4bbd
00000170: 40a9 153d 9664 adbd e3a4 803d 12bc 99bd
00000180: 4675 5dbc 7c5a 88bd 6a63 c3bd c8b2 1f3d
-0.021939768 0.114659764 0.005005767 -0.053615447 -0.02110853 -0.108868316 -0.08779347 -0.11094824
-0.049127832 0.010998057 0.04738701 -0.07614854 -0.053698376 0.10606505 -0.00080128707 0.005469064
-0.097384855 0.07295841 -0.09937892 0.046425503 0.1084085 -0.05317674 -0.02172349 -0.086427614
0.08372023 -0.10570324 -0.10035291 -0.10438896 -0.009199064 -0.08457928 -0.025457734 0.053320587
0.086267285 0.097355686 -0.0946049 -0.046956178 -0.037055608 0.0712233 -0.07708258 0.098681785
-0.09861242 -0.082363345 0.026467687 -0.10656244 0.06676616 0.05366918 0.020069923 -0.11251373
-0.08713302 -0.055308335 0.049974598 0.079218574 0.10775155 0.03329001 -0.0481048 -0.022198975
0.031899754 -0.004484782 -0.022156496 0.07726277 0.11919921 -0.09483461 0.11052991 0.015432714
-0.015282522 0.018644221 -0.0031463974 -0.049358983 0.09409606 0.075921066 -0.06486784 -0.035071995
-0.04268029 0.028867627 0.021741945 -0.05182812 0.040639088 0.097297184 0.035177443 0.08061479
0.0580548 -0.115325615 0.07997615 -0.055074394 -0.0029573364 0.00074614113 -0.08208803 -0.023440765
0.07830654 -0.05468412 0.040556777 -0.049643606 0.036538363 -0.08466451 0.0628145 -0.07506575
-0.01351673 -0.066578835 -0.09540446 0.03898886

encodernorms.0.weight f4 [100]
00000000: 89d9 893f a13e 893f 706d 843f d82c 873f
00000010: ea60 883f af88 843f 970b 843f 6768 843f
00000020: a606 813f 4a99 833f 9a19 823f 3bc9 833f
00000030: 0a8d 853f bcdb 823f 0725 873f 35e4 823f
00000040: 4bed 833f e8a6 853f 4e1b 833f 33bc 833f
00000050: e701 813f 2f5d 823f e4bd 7e3f 8096 823f
00000060: fe87 823f eb6a 883f 66c8 853f b95c 833f
00000070: ed00 853f fbaf 833f f84d 883f 73e3 833f
00000080: d521 863f 76a7 7f3f fcba 843f 885d 883f
00000090: 85f7 833f cb86 863f 512e 853f 0526 823f
000000a0: c441 823f 6715 833f 915e 853f b9ed 873f
000000b0: e29f 863f ff06 833f 2dac 843f 8bf9 803f
000000c0: e211 823f 44be 843f 5441 873f af22 863f
000000d0: 7e5a 813f 8a78 803f 75ec 803f 1f52 813f
000000e0: e3d1 853f c140 863f ffb5 853f a460 843f
000000f0: 5f67 853f 25e4 893f 2b38 873f 2679 833f
00000100: 6d01 873f 0ff0 823f f369 853f 61f5 813f
00000110: 548e 7d3f 024d 823f 6bd2 833f b378 873f
00000120: 6a4c 803f 5936 853f c18e 863f f2c9 843f
00000130: 6503 873f 5edd 843f e292 843f 7bcc 813f
00000140: c402 823f 0b28 853f 0f15 843f 403a 833f
00000150: 3009 853f a981 823f d868 833f 1236 843f
00000160: 88f0 833f f442 813f bbe6 853f 51fd 813f
00000170: 9e3e 853f 629f 833f 805b 853f b413 823f
00000180: 25eb 853f 49ef 813f fbd5 873f f2f9 853f
1.0769511 1.0722238 1.0345898 1.056056 1.0654576 1.0354213 1.0316037 1.0344361
1.0080154 1.0281155 1.0164063 1.0295786 1.0433667 1.0223308 1.0558175 1.0225893
1.0306791 1.0441561 1.0242708 1.0291809 1.0078706 1.0184687 0.995085 1.0202179
1.0197752 1.0657629 1.0451782 1.0262672 1.0390908 1.028808 1.0648794 1.0303787
1.0479075 0.998649 1.0369563 1.0653543 1.0309912 1.0509886 1.040476 1.0167853
1.017632 1.0240906 1.0419484 1.0619422 1.0517542 1.023651 1.0365044 1.0076154
1.0161707 1.0370564 1.0566812 1.0479335 1.0105741 1.0036786 1.0072161 1.0103186
1.0454677 1.0488511 1.0446166 1.0341992 1.0422171 1.0772749 1.0564016 1.0271347
1.054731 1.022951 1.0422958 1.0153009 0.990453 1.0179751 1.029859 1.058371
1.002332 1.040721 1.0512315 1.0374129 1.0547911 1.0380056 1.0357325 1.0140527
1.0157094 1.0402845 1.0318927 1.0252151 1.0393429 1.0195819 1.0266371 1.0329001
1.0307779 1.0098557 1.0461038 1.0155431 1.0409734 1.0283015 1.0418549 1.0162263
1.0462385 1.0151149 1.0612177 1.0466902

encodernorms.0.bias f4 [100]
00000000: c9b3 40bd 2649 85bb fe81 aa3d 8a14 86bc
00000010: 02a4 893c a58a d0bc fb24 3d3d a12d 8c3d
00000020: 62bb d5bc bb8c 18bc ba18 46bb a201 37bc
00000030: a30b 79bb e171 f83c a747 a7bb e8fd ec3c
00000040: e62a 703b 9188 553d 5543 3e3d 427a bc3c
00000050: ba00 85bc 6c25 84bc 8fad debc 55c2 6fbc
00000060: 57d2 633d 153c 94bd 3ab6 cbbd bb64 71bc
00000070: 7b94 0dbb 0594 6d3c ba82 cc3b 3399 603d
00000080: 0ac2 aa3c bd59 aa3d f4cb 283d 9959 0e3d
00000090: 90ae a13c 6489 a83d 9ffc 543d a1df 7abd
000000a0: b000 ff3c 3132 ac3c 2e65 843d aaf6 1ebd
000000b0: 552a 99bd 52a1 61bc 04c1 59bd 2a89 3e3c
000000c0: a11a 28bd e273 243d 9d6d ba3d cea6 45bd
000000d0: 0df3 8b3d 59a9 cabd 8812 32bc 594c 953d
000000e0: c734 15bd 09d2 353d 6633 df3c 9eb1 59bd
000000f0: 2484 973d dd01 a33c 8f15 9f3c 8df0 a9bb
00000100: adac 753c 9a6b 10bc a4e8 02bb cd04 6ebd
00000110: 49d6 853d 4d37 513d 13b5 093d ba99 da3c
00000120: 7942 d2bd 7c1e 3a3d aac0 bcbd 02ac 52bd
00000130: e1a5 44bd ad34 05bd b1e6 84bd 5600 00bd
00000140: 28df a2bb 59c3 153d 41e6 c2bd 07f5 cc3c
00000150: 579d 8fbd 45c1 25bc 5925 51bd 2e5b f13a
00000160: 4c56 8a3c e38b 94bd 402b dfbd 615c 803d
00000170: 8b6b 673b adc6 073d aedc f93b 9249 c5bd
00000180: 0717 1ebc d875 d73b 879f 7b3d df7f 72bd
-0.047046456 -0.004067558 0.08325575 -0.016367216 0.016801838 -0.025456736 0.046177845 0.068446405
-0.026090328 -0.0093108965 -0.003022714 -0.011169823 -0.003800132 0.03032774 -0.005104977 0.028929666
0.0036646663 0.052132193 0.04645093 0.023007516 -0.016235698 -0.016131125 -0.027182369 -0.014633735
0.055620518 -0.07238022 -0.09946866 -0.014733489 -0.0021603394 0.014500623 0.0062411698 0.054833602
0.020844478 0.083178975 0.04121013 0.034753416 0.019736558 0.0822933 0.05199873 -0.061248425
0.031128258 0.021020027 0.06464611 -0.038809456 -0.07478777 -0.013771372 -0.05316259 0.011629382
-0.04104102 0.040149577 0.09102938 -0.04825478 0.06833468 -0.09895582 -0.010868676 0.07289953
-0.036427286 0.04438976 0.027246188 -0.053147905 0.07398251 0.01989835 0.01941946 -0.0051861466
0.014994782 -0.008814717 -0.001997509 -0.058110047 0.06535012 0.05107813 0.03361995 0.02668463
-0.10266585 0.04543923 -0.09216435 -0.05143357 -0.048009757 -0.03252094 -0.064893134 -0.03125032
-0.00497045 0.03656325 -0.09516574 0.025019182 -0.07012432 -0.01011688 -0.051061008 0.0018414014
0.016886853 -0.07253244 -0.10896921 0.0626762 0.0035311903 0.033148456 0.007625184 -0.09633173
-0.009649045 0.0065753274 0.061431434 -0.05920398

encodernorms.0.running_mean f4 [100]
00000000: 7a02 a93e 0eaf b33c a15a a63e aa80 8e3e
00000010: 9dc8 843e 5330 a03d 6251 033e 65d6 363c
00000020: 8864 7b3e e128 c03d e112 1d3e 6bb6 803e
00000030: 084d 97bb f663 fb3d 9f58 703e 77b7 813d
00000040: d591 243c 4fb9 8d3e c40b 023e a9b8 5a3e
00000050: da8e 903e 6454 b93e 0777 7b3d 7e02 813e
00000060: 7b99 9f3e 3e4f d43e 088a 643e 2926 20bb
00000070: 275d e63e c4f5 e63e 7973 823e f3d8 753e
00000080: 278c 5f3e 896d e33e 2220 c33e 59e3 a63e
00000090: 936d 683e 5ca2 7c3e c26f 3f3b 82ab dc3e
000000a0: 9095 f23d a8cc 113e 4062 a83d 7bbc 843e
000000b0: c633 a33e daa3 3e3e 4628 7f3e c538 5e3d
000000c0: 20f3 ba3d 69e9 1f3e baa6 983e 322a 913e
000000d0: a0c6 b23d 57fa 103e 4a8a 9d3c 447a 083e
000000e0: 0890 793e cdc1 313e b1aa 333e 6be0 c13e
000000f0: 9ef5 533e 27b7 a03e ae75 853e 2255 b6bb
00000100: 2166 a73e c81f 713e 9e7a cb3e 70db 1c3e
00000110: 3876 103e c08c 133d 1da2 7d3c 84e1 773e
00000120: 6f00 193e a49f 383e 608c 553d b4bb 723e
00000130: 5cd2 ac3e 4027 b73e 0624 9d3d 0867 d73d
00000140: 16a8 103e 203e 803d d30f 053e ddf7 52ba
00000150: ab27 dc3e 338a 113e a81b 6a3d 230f d63e
00000160: ac64 283e 090e 193c a844 323e c306 263e
00000170: ecdd 183e 212b 883e 6fba 2a3e 0238 d43c
00000180: 2e05 b23e 1c9d fe3d b1fd 9f3e 7cf1 8b3e
0.33009702 0.021934059 0.3249102 0.27832538 0.25934306 0.07821717 0.12824014 0.011159514
0.24550068 0.09382797 0.15339233 0.25139174 -0.004617337 0.122749254 0.23471306 0.06333821
0.010044535 0.27680442 0.126998 0.21359505 0.28233987 0.36197197 0.06139281 0.25197214
0.31171784 0.41466707 0.2231828 -0.0024436808 0.44992945 0.4510938 0.25478724 0.24008541
0.21830808 0.44419506 0.38110453 0.32595327 0.22698049 0.2467131 0.00292109 0.430996
0.11844933 0.14238226 0.08221865 0.2592505 0.31875437 0.18617192 0.24917707 0.05425336
0.09128404 0.15616383 0.29814702 0.28352505 0.08729291 0.14157997 0.01923098 0.1332789
0.2437135 0.17359085 0.17545582 0.3786653 0.20699164 0.31389734 0.26066345 -0.005564348
0.32695106 0.2354728 0.39741987 0.15318084 0.14107597 0.0360229 0.015480545 0.24207121
0.14941572 0.18029648 0.052135825 0.23704416 0.3375424 0.35772133 0.076728866 0.105176985
0.1412662 0.062618494 0.12994318 -0.0008047799 0.42999014 0.14212875 0.05715528 0.41808423
0.16444653 0.009341725 0.17409003 0.16213517 0.14928406 0.26595405 0.16672681 0.025905613
0.34769577 0.1243231 0.3124824 0.27332675

encodernorms.0.running_var f4 [100]
00000000: 66f8 ea3d e943 083c 09c4 fd3d 5220 aa3d
00000010: 2f63 c43d 9d10 d13c 713b 563d 4b82 a83b
00000020: e2cc ee3d ddb3 093d d357 7c3d fca4 ce3d
00000030: 9d1d 193a b18d 2e3d 4b78 903d 9a43 ee3c
00000040: fa98 983b dccb d23d 74d6 5b3d 5004 b93d
00000050: d69e af3d 000f 003e 7901 e43c 9f4f c13d
00000060: 59aa b43d 6744 043e 0243 a63d 48d8 5d3a
00000070: 114c 0b3e b64d 0b3e ee7c d63d 4b48 a63d
00000080: cecb 893d 71d6 193e 92d3 d73d 9e66 c33d
00000090: 6c5b b13d 175a b33d 5b90 203b 4eac 183e
000000a0: 81bd 2a3d ba76 833d 08d1 1f3d ace3 c93d
000000b0: 1892 e03d 4972 683d 978d d43d acf6 a73c
000000c0: a76b 393d 0739 513d 6a00 ce3d 4eb7 c93d
000000d0: 21cf 133d 16d1 533d 599f e63b 86fd 4b3d
000000e0: bfd6 ba3d 6b18 7e3d d311 963d dd53 173e
000000f0: 6971 763d ecff d73d af70 bd3d 9caf 8539
00000100: 14dc e83d 5141 c13d bf04 fd3d c9a4 4b3d
00000110: 51e3 3e3d b749 5b3c 7c2c 053c 9617 e33d
00000120: 1833 3d3d f4f1 9a3d c491 b53c 1214 873d
00000130: 17f6 db3d cdea f23d ba21 133d aecb 2a3d
00000140: 1f5f 343d 004a 073d ef97 893d ef50 ec3a
00000150: 1554 123e 79b0 383d 3b07 d13c 8583 133e
00000160: abe4 7e3d 5a4e 0e3c 18c2 753d ba51 483d
00000170: f53c 653d b0a9 cc3d 9822 883d 240e 743c
00000180: ba6a 013e fae1 313d 005a be3d 2af9 e03d
0.114731595 0.008316972 0.12390906 0.08306946 0.0958923 0.025520617 0.05230278 0.0051424853
0.11660172 0.033618797 0.061607193 0.10090062 0.00058408995 0.042615596 0.07054194 0.02908497
0.004656908 0.10292789 0.053671315 0.09034026 0.085752174 0.12505722 0.027832733 0.09439015
0.08821554 0.12916718 0.081182495 0.00084627094 0.13603236 0.13603863 0.10473047 0.081192575
0.06728326 0.15023209 0.10538401 0.09541057 0.086600155 0.08757418 0.0024500105 0.14909479
0.04168463 0.0641913 0.039017707 0.09857878 0.10965365 0.056749616 0.103785686 0.020503365
0.04526868 0.051079776 0.10058673 0.09849416 0.036086205 0.05171307 0.0070380387 0.049802326
0.09122991 0.062035006 0.073276184 0.14778085 0.06016675 0.1054686 0.09250008 0.00025498576
0.113701016 0.09436286 0.12354421 0.0497177 0.046603505 0.013384274 0.008128282 0.11088483
0.046191305 0.0756568 0.022164233 0.06595625 0.10740297 0.11861191 0.035920836 0.04169815
0.044036027 0.033029556 0.06718432 0.0018029491 0.14289887 0.045090172 0.025516143 0.1440564
0.062229794 0.008685673 0.059999555 0.048906066 0.055966336 0.09993303 0.06647223 0.0148959495
0.12638369 0.0434284 0.0929451 0.10985024

decoderlayers.0.weight f4 [100, 10]
00000000: f39c c6bd ad86 143e cd6b 3fbe 9b7b 153e
00000010: eadb 84bd 9277 3f3e a19a f33d 1631 143e
00000020: 723f 883e cbc1 cf3d 1372 90bd 276e 20be
00000030: 0b58 52bd 75c3 0dbe bd67 383e efa9 54bd
00000040: 150f 55be 135b 55be dad1 de3c 2975 71be
00000050: af8c 8fbe 1fb4 e9bd 1148 19be f9a3 693e
00000060: 3c75 dabd a5b5 77bd fd2c a73a a478 dcbd
00000070: 1070 16be db8d 1d3e 8ef4 53be 522d 02bd
00000080: 4e97 61bd e65f 253e 68bc 0abe 978d eabd
00000090: 53ba 703e 1b3f 06be 0873 3fbe cba2 dcbd
000000a0: d0ba 9bbe 75c7 a2bd 2037 38be c5ed 4b3d
000000b0: 1a4d 2d3e 453f 42be c0df ca3d 5443 6cbd
000000c0: 4089 c93d a265 6fbe 7baa a4bd 31b2 7dbe
000000d0: ede8 2b3e 0539 cfbd e147 893e 9e03 54bc
000000e0: 97b0 6e3e 5c08 883e 08f2 443e 18a1 b23d
000000f0: 2224 70be 07c4 2f3e bbc4 043d cedf 493e
00000100: 2cad 073c d738 9c3e 38d2 77bd baad 86be
00000110: 39cb 88be 42fb d83d 377e 903e a085 933e
00000120: 3f54 f1bd 84ba c63d d6f7 bebd bb74 3bbd
00000130: 1afa 79be 52ea 94be 3ab0 003e 3770 27be
00000140: 0dfa 8cbd bfe4 91bd a5b8 8fbe 05ff c73c
00000150: 24f8 ac3d 0221 b23d 1104 a3bd 6422 a83e
00000160: 2a82 8d3e 5f66 60be 8c57 45bd bdf3 0bbc
00000170: 82f2 acbd 24b5 db3d b633 1f3e ef7e a5be
00000180: 2b4a 08be 4461 28bd 66e3 24be 1edb 373e
00000190: ae3d 8fbe 09e0 5dbe b365 4e3e 421d 45be
000001a0: 3c5a 8abe 0e49 3ebe 5dda 18be 9025 87be
000001b0: 9b91 43be cccd e2bc 8322 9c3e f88e e039
000001c0: d1f9 79bd 1111 92be 5298 55be 42a4 87be
000001d0: d14c 7f3e d6f3 a53d eaff 213e f65d 193e
000001e0: eb7f e0bd 86dd b03b 436b 71be 9519 22be
000001f0: 5c99 8e3e 62a5 91bd d0f1 2bbe d8cb 073e
00000200: 23c7 08be 3de9 a43e e413 dfbc 6236 273e
00000210: 9462 9c3d 61ec a03d 9659 8cbe 7854 983e
00000220: 3f20 c9bd 1124 843e 0f87 2dbe 7b8c 77be
00000230: fca5 0abe 3434 693d 7a76 8a3c 0662 633e
00000240: 3471 e43d 6cce 753e af65 5b3e 82fc 61be
00000250: 4184 953d 4662 dabd e64e a2be 6427 abbe
00000260: 3225 8f3e 10a1 2a3e 93fe 79be a059 6e3e
00000270: bdd6 e63c f9a2 86be 23d4 5bbe 1873 acbd
00000280: 71fd 323e 717e 8cbd 4306 9cbe abd2 19be
00000290: 7dec 453e 4781 c33d 5b6a 0e3e dd5c 783c
000002a0: 29e0 a7be c475 243e 8447 053e e9cc 2bbe
000002b0: 8aef 723b 689a 1bbd 8c70 eebc 1d5d 30bd
000002c0: 9f6d 963e 537d 2b3e c8ad 71be 07a3 7a3e
000002d0: 8da2 0b3e debb 0d3e 7b8d e63d fa8f a33d
000002e0: b010 7d3e 8247 883e acb1 06be 3f52 c73d
000002f0: 5188 033e 9a90 1d3e ecb8 ec3d 2d55 5e3e
00000300: 10fa 72bd 6de8 0dbe c43d 103e 6f6c 71be
00000310: 409c c7bd 34fe 54be 10dd 85be 2ef6 093d
00000320: 0c14 953e a5a3 71be eeb8 55be f365 ae3e
00000330: a1ef 09be 498f 80be 33b7 a5bc 37e0 383e
00000340: 0f43 9fbd d347 7f3e 8700 a1bd 7658 383e
00000350: 796e a3bd fa80 5f3e b150 d3bd bfac f1bd
00000360: 1d4f 0ebe ef6c ba3d 785b 5f3e 77df 4a3e
00000370: b328 983e 6841 1a3e 3e65 94be 342e 003d
00000380: 9a85 bebd 15f5 4b3e 821f 723e aeb5 8a3b
00000390: 8c15 c03b 5509 18be 40b0 0d3c 303e 33be
000003a0: 730d 69be 99be 1cbe ae24 e43d ae00 ca3c
000003b0: 751f 3bbe 49a7 3f3e 9269 41bd da75 c6bd
000003c0: 3e43 d4bd 0d53 16bd a81d 843e e439 5cbe
000003d0: 3a1a 9cbe 9206 a9be 7105 97bd d202 913e
000003e0: ac1d 04be 50f1 16be b02b 28be 2493 8ebe
000003f0: 6ba7 92bd bc32 aa3d 43d4 74be b3ef 703e
-0.096979044 0.145045 -0.18693466 0.14597933 -0.06487258 0.18697956 0.118947275 0.1447185
0.26610905 0.10144385 -0.07053008 -0.1566702 -0.051353496 -0.13844092 0.18008323 -0.051919874
-0.20806535 -0.20835523 0.027199674 -0.2357985 -0.2803702 -0.114113085 -0.14968897 0.22816457
-0.10666892 -0.060475964 0.0012754496 -0.10765198 -0.14691186 0.15386145 -0.20698759 -0.031781502
-0.055075936 0.16149864 -0.13548434 -0.11452787 0.23508577 -0.1311001 -0.18696225 -0.10773238
-0.30415964 -0.079482 -0.17989779 0.0497873 0.16923943 -0.18969448 0.09905958 -0.057681397
0.098406315 -0.23378614 -0.08040329 -0.24775006 0.16788073 -0.101182975 0.26812652 -0.0129403155
0.23309551 0.26568878 0.19232953 0.087221324 -0.23451284 0.17164622 0.03241418 0.19714281
0.0082810335 0.30512115 -0.060503215 -0.26304418 -0.26717547 0.105947986 0.28221294 0.28812885
-0.11783647 0.09703544 -0.09324615 -0.04576562 -0.24411812 -0.29085022 0.12567225 -0.163514
-0.06883631 -0.07123708 -0.2807056 0.024413595 0.084457666 0.08697702 -0.0795976 0.32838738
0.2763837 -0.21914051 -0.048179194 -0.008541998 -0.08444692 0.10727909 0.1554707 -0.32323405
-0.13309543 -0.041108385 -0.1610237 0.1795468 -0.27976745 -0.21667494 0.20155983 -0.19249442
-0.27021968 -0.18582556 -0.14927049 -0.26395845 -0.19098513 -0.027686022 0.3049508 0.0004283113
-0.06102926 -0.28528646 -0.20858887 -0.26492506 0.24931647 0.08103149 0.1582028 0.1497725
-0.109618984 0.0053975014 -0.23576073 -0.15830071 0.2785138 -0.071116224 -0.16791463 0.13261354
-0.13357215 0.32209197 -0.027231164 0.16329339 0.0763599 0.07857586 -0.274121 0.29751945
-0.098206036 0.25808766 -0.16946052 -0.24174683 -0.1353988 0.05693455 0.016902197 0.22205362
0.11154404 0.24004525 0.21425508 -0.2206898 0.07300616 -0.106632754 -0.3170082 -0.3342849
0.27958065 0.16663003 -0.24413519 0.23276377 0.028178567 -0.26296213 -0.21467642 -0.0842039
0.17479493 -0.06860054 -0.30473527 -0.1502177 0.19328494 0.09546142 0.13907759 0.015158859
-0.32788208 0.16060549 0.13015562 -0.16777386 0.0037069046 -0.03798905 -0.0291064 -0.04305755
0.2938051 0.16747026 -0.23601449 0.24476252 0.13636227 0.13841197 0.11257454 0.07986446
0.24713397 0.26617056 -0.13153714 0.09732484 0.1284497 0.15387192 0.115587085 0.2171218
-0.05932051 -0.13858195 0.14086062 -0.2357652 -0.09746599 -0.20800096 -0.2614522 0.03368204
0.29116857 -0.23597582 -0.20871326 0.34062156 -0.13470317 -0.25109318 -0.020228958 0.18054281
-0.07776462 0.24929743 -0.07861429 0.18002495 -0.07980055 0.21826544 -0.10318125 -0.11800527
-0.13897367 0.09102809 0.21812236 0.19811808 0.2971855 0.15064013 -0.28983492 0.031294063
-0.09302826 0.1991771 0.23644832 0.0042330837 0.0058619436 -0.1484731 0.008647978 -0.17504191
-0.22759037 -0.15307082 0.111398086 0.024658527 -0.18273719 0.18716158 -0.04721982 -0.09690447
-0.10364388 -0.036700297 0.25803876 -0.21506459 -0.3048876 -0.33012825 -0.07374085 0.28322464
-0.12901944 -0.14740491 -0.16422915 -0.27846634 -0.07160839 0.08310458 -0.23909096 0.23528938

decoderlayers.0.bias f4 [100]
00000000: 50ae 71bd fb32 c53d 471b 24be 20e3 81be
00000010: 056b 603e c8a9 99bc ef10 8ebc 11fb 723e
00000020: c9c6 8d3e 0904 cc3d 9682 99be a2bf 563e
00000030: 7670 8f3e d5fb 92be 16a3 343e be3b 73be
00000040: 7a59 30be ea4e bdbd f61c 4dbe 3b67 f8bd
00000050: 8c8a c73b 661f a33d af27 69bb d51e 36be
00000060: 0851 513c 7b09 3f3e 464d 943e 9472 66be
00000070: 26fa 493e 6d24 a7bd 6c47 8abe e97a 683e
00000080: 0c59 023d 1e45 4bbe 3002 c4bd 4e89 16bc
00000090: f106 ddbd 15b2 1d3e ff2a 823e d665 163e
000000a0: 43cb 1a3e 769a 223e c0a8 c33d 3904 553d
000000b0: a862 d1bd ac60 5a3e 398d 213e 8845 923d
000000c0: 3a56 88be 25d7 b7bd 4bcb 76be 6e48 31be
000000d0: d2b0 dbbd 59bf 63be 1f93 f4bb 8f76 2abc
000000e0: 8efe c9bd 901a a9bd fe00 873e 06d0 7bbe
000000f0: 0718 e63d aa4a 8a3e faa3 71be b9df 813e
00000100: 6796 82be 9f75 83be 677c 5c3e 6cab 153e
00000110: 27c8 953e b32b c0bc 89b1 55be 7bcd 4cbe
00000120: 61e5 a23d 6f95 03be 84e2 51be 357d d13c
00000130: 0be8 333d 4306 21be ea36 133e 9a48 9fbc
00000140: c124 133e 4c16 29be e57e 1e3d 27cf 2b3e
00000150: 15f9 033e 3f7b b93d c04f 583e df57 b33d
00000160: f3f5 a7bd 137e bfbd c968 11be 1fd7 52be
00000170: 3ffc 193d 27ca 843c 6cad 903e 0adf 663e
00000180: 80d7 1c3e eaf8 04be 96ac efbd e678 78bd
-0.059004128 0.096288644 -0.1602603 -0.25368595 0.21915825 -0.018757716 -0.017342059 0.23728587
0.27690724 0.09961707 -0.29982442 0.2097154 0.28015488 -0.28707758 0.17640337 -0.23753259
-0.17221633 -0.09243567 -0.20030579 -0.12129065 0.006089514 0.07964973 -0.0035576632 -0.17785199
0.012775667 0.1865596 0.28965205 -0.22504646 0.1972433 -0.081612445 -0.27007616 0.22703137
0.031823203 -0.19850585 -0.0957073 -0.009188009 -0.107923396 0.15399964 0.25423428 0.14687285
0.151166 0.15879235 0.09553671 0.05200598 -0.10223895 0.2132594 0.15776528 0.07142168
-0.26628286 -0.089765824 -0.24100988 -0.17312786 -0.10727085 -0.22240962 -0.0074638273 -0.010404243
-0.098630056 -0.082570195 0.26367944 -0.24591073 0.112350516 0.2701009 -0.23597708 0.25366
-0.25505373 -0.25675675 0.2153183 0.14616174 0.29254267 -0.023458337 -0.20868506 -0.2000026
0.07953907 -0.12849973 -0.20496565 0.025572399 0.043922465 -0.15725045 0.14376417 -0.019443799
0.14369489 -0.16512412 0.038695235 0.16778241 0.12887986 0.090567105 0.21124172 0.087569945
-0.08201208 -0.093502186 -0.14200129 -0.20589875 0.037594076 0.016209675 0.2825731 0.2254602
0.15316582 -0.12985578 -0.1170284 -0.060662173

decodernorms.0.weight f4 [100]
00000000: 2df2 6f3f bcbb 6e3f b094 743f 660d 733f
00000010: 3955 753f 2256 723f ed03 763f 68b9 713f
00000020: 1ecc 783f 8056 793f 08b9 6f3f d9d1 703f
00000030: d5bd 753f 7276 763f 1c6d 6a3f 5635 733f
00000040: 665f 753f d6cd 733f e3f2 743f 2e7b 713f
00000050: 83e6 783f 1964 733f 44e6 733f d051 723f
00000060: 0bc8 793f f1aa 773f 5103 763f d8bc 743f
00000070: 16c9 773f 41ba 783f b423 733f 912d 7c3f
00000080: 5fc4 713f cb43 7a3f 745d 703f b776 6f3f
00000090: 86bd 703f f9d4 743f 6534 713f 27f7 6e3f
000000a0: 034b 713f fb94 763f 4bdc 753f c13b 783f
000000b0: 536d 723f 1b28 713f 05a0 773f a61d 773f
000000c0: 88fe 6d3f 989d 743f a0c2 783f 6472 753f
000000d0: 099f 6f3f 9abe 713f ee99 723f 7723 743f
000000e0: 7375 753f 3f63 753f 038c 743f c61c 743f
000000f0: 7bb5 743f 6647 733f 6e53 6e3f 1a2f 763f
00000100: d417 733f 98b9 753f f3c3 723f 2335 703f
00000110: 4a61 773f 4dee 783f cdf6 6d3f 93ad 713f
00000120: b853 723f 2da4 6c3f 82b8 6f3f e29f 763f
00000130: c64e 743f 6959 733f 40e4 743f fcc3 733f
00000140: 8dc2 713f 024d 753f 2625 753f e866 763f
00000150: 270e 733f 720c 7b3f 7904 793f 75b5 783f
00000160: 1f2c 6e3f da4e 6e3f 19fd 6f3f 0718 753f
00000170: ec6a 753f 773e 703f 3bfb 743f 9ae9 743f
00000180: 25e5 753f db9c 763f 44e8 743f 8c1f 743f
0.93728906 0.9325521 0.9553938 0.9494232 0.95833164 0.9466268 0.9609974 0.9442353
0.9718646 0.97397614 0.9364171 0.940702 0.95992786 0.96274483 0.9157274 0.9500326
0.9584869 0.95235956 0.95683116 0.9432858 0.9722673 0.9507461 0.9527323 0.94656086
0.97570866 0.9674521 0.9609881 0.9560065 0.9679121 0.971592 0.94976354 0.9850703
0.94440264 0.97759694 0.938926 0.9354052 0.9403919 0.9563747 0.9422057 0.93345875
0.94255084 0.96321076 0.96039265 0.9696618 0.94698066 0.9420182 0.96728545 0.96529615
0.9296651 0.9555297 0.97171974 0.9587767 0.93602043 0.9443146 0.9476613 0.95366615
0.9588234 0.9585456 0.9552614 0.95356405 0.9558942 0.9503082 0.93096054 0.9616562
0.94958234 0.9598632 0.94830245 0.9383108 0.96632826 0.9723862 0.92954713 0.9440548
0.94658995 0.9243801 0.9364091 0.9633771 0.954327 0.95058304 0.9566078 0.95220923
0.94437486 0.9582063 0.9575981 0.9625077 0.9494347 0.98065865 0.9727245 0.9715188
0.93036073 0.9308907 0.9374557 0.9573979 0.95866275 0.93845314 0.9569585 0.9566895
0.9605277 0.9633309 0.9566691 0.95360637

decodernorms.0.bias f4 [100]
00000000: 7374 8139 2970 fa3c 36e0 be3b 0105 3cbd
00000010: 3672 af3b 4386 5d3d 0cfe a0bb d387 933b
00000020: 79fa 62bc 44d8 4fbb 3e3c 3f3a c107 c93c
00000030: 2aa3 1cbd ddfc b3bb 19f1 cc3c 85ba a3bb
00000040: a26c 0dbd 2e95 d33b bfc8 cb3c e4f4 65bb
00000050: d8da 1b3d a52a ed3c 9cb5 983c d848 0f3c
00000060: e7bd 113c db44 2fbc 8274 d8bc 65d8 08bc
00000070: 2b6a 23bb 3a18 dcbb 3835 a3bc f240 a03c
00000080: 0f4a 983c 5237 c63c fc07 653b e6f4 753c
00000090: 388b 5e3b eef8 273d e9b4 e7bc 6030 d5bb
000000a0: 15cf 0abc ae96 033a c201 093c 96cb bd3a
000000b0: 3198 fbb8 d1a5 4b3c cb1d 653d 82d6 993b
000000c0: 6a2c 96bc 00db 1c3c 8858 84bc f712 9d3c
000000d0: e802 b43c f14e bdbb 4099 7dbc 7b2e 923c
000000e0: 8b3d 22bc a41c 9d3c f947 05bd 25c1 88bc
000000f0: 65a8 01bd 17d3 5d3c 2c65 6e3c 0668 0bbd
00000100: 0dd2 d9bc b431 0e3c b7bd 443d 02dd fabc
00000110: c0fd 1dbd 063c 723c b5c8 b7bc a407 87bc
00000120: f81b 3cbd b3e6 a7bc 4a84 b8bb 45fc dbbc
00000130: 8ee3 463c 4476 aabc 55f0 ccbc c234 40bc
00000140: fc78 c0bb bf5a c63b 5233 6eba e636 473d
00000150: 3f7b 09bc cbfe 9c3b c2c0 763b bcc0 9a39
00000160: 68e5 bdbc dad8 533c 4446 5cbd c1b0 5fbc
00000170: 647a ab3c d0c2 dc3c d5bd c2bc cbb4 283d
00000180: 850b 5bbb ba6e bdbc 3295 7e3b 3c72 e73b
0.0002469156 0.03057106 0.005825068 -0.04590321 0.005354191 0.05408312 -0.0049130972 0.0045022755
-0.013853663 -0.0031714598 0.00072950486 0.02453983 -0.038241543 -0.00549279 0.025017308 -0.0049966
-0.03452743 0.0064569926 0.024875997 -0.0035088593 0.038050503 0.028950999 0.018641286 0.008745395
0.008895374 -0.010697569 -0.026422743 -0.008352374 -0.0024935107 -0.006716755 -0.019922838 0.019562218
0.018590001 0.0241963 0.0034947386 0.015012002 0.0033957493 0.041008882 -0.028284507 -0.006506011
-0.008472224 0.00050197064 0.0083622355 0.0014480229 -0.000119969605 0.01242967 0.055936616 0.004694761
-0.018331725 0.009573698 -0.016155496 0.019174082 0.021974042 -0.005777233 -0.015478432 0.01784443
-0.009902368 0.019178696 -0.03253934 -0.016693661 -0.031654734 0.013539097 0.014550488 -0.03403475
-0.026589418 0.008678842 0.04803249 -0.030622963 -0.038572073 0.0147848185 -0.022434572 -0.016483136
-0.04592511 -0.020495748 -0.0056310045 -0.02685369 0.012139214 -0.020808347 -0.025016943 -0.011731328
-0.0058737975 0.0060532982 -0.0009086627 0.04863634 -0.008391201 0.004791116 0.0037651514 0.00029516767
-0.023180678 0.012930119 -0.053777948 -0.013652981 0.020932384 0.026948363 -0.02377216 0.041188043
-0.0033423614 -0.023124088 0.0038846252 0.0070631783

decodernorms.0.running_mean f4 [100]
00000000: 6808 a73e d8b5 ab3e afbf 693e 4736 483e
00000010: 8b10 dd3e 68da ba3e 37c7 b03e f892 fa3e
00000020: fbfe 1b3f 3f53 b73e 4cc9 453e b89d 053f
00000030: db49 013f f417 3b3e 9094 bb3e d176 9f3e
00000040: 6dbc b73e 3b67 8d3e 483b 593e b855 8e3e
00000050: 241d e33e 5d83 a63e b5c5 d43e d96f 323e
00000060: 78ca c93e 01c1 0f3f 8a52 073f c447 973e
00000070: 80e4 e23e 78f7 a73e e0a8 833e e863 0d3f
00000080: 3dcb d43e 12ae 503e 7add a43e 4b1a cd3e
00000090: 99be 633e 7260 063f 061b 023f 2ee1 b93e
000000a0: 19fe 173f a011 c83e 6f06 d93e 19f4 933e
000000b0: 29e2 9e3e 5514 033f 95ad 0c3f 78e6 c53e
000000c0: 8d47 5f3d 4fd0 883e c150 913e 28ad 873e
000000d0: 831e 863e d926 b13e 1819 bf3e d38b b63e
000000e0: 32e7 ad3e 7e14 fd3e 9e19 123f c8aa 593e
000000f0: 03b6 de3e 61fb e53e 4087 4e3e 34ab fd3e
00000100: ad4f 853e 603a 733e 425d d03e fa73 dd3e
00000110: e002 1a3f 31c0 ad3e 6f44 613e 536e ab3e
00000120: 1c89 da3e d9bd 7e3e 8770 783e f278 bb3e
00000130: 43a6 ae3e afff a33e 7334 e23e 258f f03e
00000140: be58 fa3e 410d 913e ab24 9c3e bafd ba3e
00000150: 8673 9d3e 5d6e db3e d988 043f 07f7 d33e
00000160: 4a0f 7b3e c2cc 773e f566 9d3e b444 6d3e
00000170: e6ea a13e c2af a43e 1bad 193f bdee de3e
00000180: 6c1b d93e f735 713e f1c5 b83e 7b39 af3e
0.326236 0.33537173 0.22827028 0.19551955 0.43176684 0.36494756 0.3452699 0.48940253
0.60935944 0.358057 0.1931507 0.52193785 0.5050332 0.18270856 0.36636782 0.31145337
0.35885945 0.2761782 0.2121402 0.27799773 0.4435817 0.32522097 0.41557088 0.17425479
0.39412284 0.56153876 0.5286032 0.2954694 0.44314957 0.3280599 0.2571478 0.5523057
0.41561309 0.20378903 0.32200223 0.40059122 0.22240676 0.52490914 0.50822484 0.3630461
0.593721 0.39075947 0.4238772 0.2889717 0.31031922 0.512029 0.54952365 0.38652396
0.054511596 0.26721427 0.28381923 0.26499295 0.26195154 0.3459995 0.37323833 0.35653552
0.3396545 0.49429697 0.5707034 0.21256554 0.4349824 0.4491835 0.20168781 0.4954468
0.2603735 0.23752737 0.4069615 0.43252546 0.60160637 0.33935693 0.21998762 0.33482608
0.4268273 0.24877109 0.24261676 0.3661571 0.34111223 0.3203101 0.4418064 0.4698421
0.4889583 0.28330424 0.30496725 0.36521703 0.307522 0.42857638 0.5177131 0.41399404
0.24517551 0.24199203 0.30742612 0.2317074 0.31624526 0.32165343 0.60029763 0.43541518
0.42403734 0.23555742 0.36088517 0.34223542

decodernorms.0.running_var f4 [100]
00000000: 0cad 8e3e 8ca8 933e 0355 5a3e 35b8 1f3e
00000010: 74d6 a43e 157d 9b3e 32bb bb3e 52e3 e63e
00000020: 735f 283f f23d a83e 6a94 533e 13cf c43e
00000030: 1e68 033f 38c5 2d3e 9481 813e 3302 b33e
00000040: ce15 c03e 62ec 5e3e 7b89 3c3e d93c 8c3e
00000050: 3d10 0b3f fd47 793e a014 d93e bd00 dd3d
00000060: 547b d43e 845a 2d3f d5b3 f43e 547e a73e
00000070: 273f f73e 45ed a83e 1afc 7b3e 16df 023f
00000080: 7086 c03e fffb 2c3e 872c 913e 082e f13e
00000090: 5659 113e d536 033f 0931 013f 3b0c a83e
000000a0: b841 523f 90a5 973e c24f cc3e 56da 633e
000000b0: 1574 ac3e 58e9 e23e 7dab 283f 3658 c13e
000000c0: d597 c83c e2d3 763e 5352 883e 4dbf a93e
000000d0: 0c82 9c3e b613 b53e fb17 9e3e 46d8 a63e
000000e0: 89e4 903e 5fce 0a3f 0ce8 253f 58cb 293e
000000f0: c29c d83e 0785 e13e 6834 4b3e 905b e33e
00000100: 0996 903e bbbb 5c3e 5522 a73e ccc5 ab3e
00000110: e556 173f 2629 ab3e 2239 333e d556 c33e
00000120: 51f0 cb3e 74f5 633e 4f50 2a3e e11e 933e
00000130: a1be 863e e38a ac3e c36c c13e 917c 0b3f
00000140: 55f9 fc3e 9803 bb3e 8a41 9e3e 3471 653e
00000150: a7f1 683e 7bf1 c23e 7674 1f3f 0866 c63e
00000160: 74f4 8d3e 4917 3e3e affa 973e 1f40 4e3e
00000170: 5cc0 813e 6b02 a03e 2581 373f ad86 ba3e
00000180: 33a9 fd3e 4401 373e d678 b53e 6877 a03e
0.278664 0.2883953 0.21321492 0.15597613 0.32194865 0.30368868 0.36666256 0.45095307
0.65770644 0.3285976 0.20662084 0.38439235 0.51330745 0.16969764 0.25294173 0.34962615
0.37516636 0.2176986 0.1841182 0.27390173 0.5432165 0.24343868 0.42398548 0.107911564
0.41500342 0.6771624 0.4779345 0.32713568 0.4829037 0.32993522 0.24607888 0.5112165
0.37602568 0.16893004 0.28354284 0.47105432 0.14194235 0.5125554 0.50465447 0.3282183
0.8213153 0.29618502 0.399046 0.22251257 0.33682314 0.44318652 0.6588667 0.37762612
0.024486462 0.24104264 0.26625308 0.33153763 0.30567968 0.353666 0.3087767 0.3258688
0.28299358 0.5422115 0.648072 0.16581476 0.42307097 0.44046804 0.1984421 0.44405794
0.28239468 0.21555988 0.3264338 0.33549345 0.59116966 0.3342983 0.17502263 0.38152185
0.39831784 0.22261602 0.16632198 0.28734496 0.26317313 0.33699712 0.3777829 0.5448695
0.49408975 0.3652618 0.30909377 0.22406465 0.22748433 0.3807486 0.6228708 0.3874972
0.27725565 0.1856357 0.29683444 0.20141648 0.2534207 0.31251845 0.71681434 0.36430874
0.4954315 0.17871577 0.35443753 0.313411

mu.weight f4 [10, 100]
00000000: 1eef 1a3d 1eb6 4c3d 2371 13bd a791 92bd
00000010: ecdb f8bc 20c4 49bd b1b3 83bc 8dde fbbc
00000020: 0f03 243d 9980 5dbd 455f 803d b1c1 1fbc
00000030: 3a85 de3d c3b7 24bd 6031 053e 2727 aabd
00000040: 333b ff3d a201 913d 8721 dfbc 903a ccbd
00000050: a0cf 563d 5760 5fbd 09df 15bc 3ce9 d63c
00000060: d816 f13c 71bd 23bd ace5 f4bc 4da8 a83d
00000070: 899b 40bd c7fe 11bb 2ba8 123d 8539 c43c
00000080: 842e 7a3d 59d2 4d3d 4561 89bd cdf3 a23d
00000090: 6e19 833d 883d 0f3e e956 fb3c d1bd b0bd
000000a0: 9c2f aabd 804a 893d 93d6 0c3d 2d2b b3bd
000000b0: 8691 f2bb 3619 61bc 64a9 24bd d6d0 6f3d
000000c0: 3fe3 9cb9 e3ab 98bd 0983 84bd 4110 d33c
000000d0: 10fb 373d 8447 07be 5b16 2dbb 0fc7 2abd
000000e0: 5561 23bd dd14 823c 4afc 813d 42ac d9bd
000000f0: a3f7 9dbd e938 b63d 1f81 613d f431 8abc
00000100: 4991 09bb 94ef 74bd cd0f 02be 227c a73c
00000110: 037d a6bd b00b 823d f703 ff3d e942 0ebe
00000120: 808c 0b3d d2cc bc3c c0e3 973d 4a35 ac3d
00000130: bc38 f6bb 9c88 a43d 49a2 a1bc 4f81 b43d
00000140: 5126 cabd b49f 84bd 0d55 1dbd e90f dcbd
00000150: 1bcd 0e3c 39c8 e93d 76b6 f6bd aabf c33d
00000160: 4d6f ce3d 95d2 a0bd 09e1 993c 5a3e 5b3d
00000170: 434f e93d e82c 8abd 1a08 5fbd 1a94 fdbd
00000180: 9d25 ae3d 4ab5 b33d 7ce0 17bb bd0d 11be
00000190: c9c7 863d 0de2 1cbe f656 3bbd e66f 0b3e
000001a0: 3d98 e5bd 41e3 4b3d bb02 063e f9c6 d6bd
000001b0: 2520 143d 7068 00be a31a 373d 694e 8f3c
000001c0: f194 e53d 6db3 0f3c 3ab5 e6bd 87d0 dc3d
000001d0: 3d88 e63d 8f67 ac3d e1ae 173d bdea 9b3d
000001e0: 9951 5bbd 31e2 d33d a543 993d 2a66 9c3d
000001f0: 5698 66bd c902 0f3e c789 723d eda5 9bbd
00000200: d3cb abbd 5e08 b8bd d5eb 8dbc c2bf a83d
00000210: 7a20 803d 1cdf cc3d 579e 05be cb41 143e
00000220: f208 f63d 2147 a53d 7766 23bd b9fc a93d
00000230: 239d aebd bfcc 8cbc d377 5bbb 5824 f1bd
00000240: 56c8 003e 497b bd3d c1ea a4bd b6bd 103d
00000250: d7cd 813d 004f bdbd 43c1 8b3d fdb9 543d
00000260: d1d0 9abd 82f6 353d fdf0 3e3d 012e 73bd
00000270: 5ef0 c3bd 4f27 41bd 87b8 4a3d 8762 edbc
00000280: 4b79 233d e433 85bd 1b83 07be f2fd a03d
00000290: 7d8e e33d 4bcc 353d 16ec d03c 8d56 183d
000002a0: 3002 28bc 7b67 5bbd deee b83d 2e94 863d
000002b0: d4ea 84bd c9d1 0e3e 8674 043d 1e16 babd
000002c0: de3a 64bd 4c1c cdbc ba45 003e 8799 d03d
000002d0: 2ed8 96bc 6083 b23d 170f 45bd 409d c0bd
000002e0: b8a7 fc3b ba79 083d 3185 393d 248b bf3d
000002f0: f636 c0bd 2c55 dfbd c678 c83b 143a d93d
00000300: d7ce 4fbd 35a5 88bb ea5b 193e d740 97bc
00000310: 78b2 cd3d 1303 603d 0006 ecbd ba08 5cbd
00000320: 77a9 78bd d0fb 903c ae72 67bc ed67 c33c
00000330: c2bb 6bbd 745c 1dbc f3bc adbd 922d 8f3d
00000340: fba5 a2bd dfa3 ecbd cc6c 7b3d 07ab 1ebd
00000350: abfc 69bd 3c7f 3f3d 5a86 a3bc 0867 1a3d
00000360: 7814 36bd bf44 8dbd a3f4 053e 3e3c e33d
00000370: 48cb 10bc 390e 883b d9d4 f53d 2356 a2bd
00000380: ac5c 9dbd 7a6e 323d 6d87 e8bd 2cbc d0bd
00000390: 449c 1d3d a09e 8c3d eef4 653d 4c47 1dbd
000003a0: 3fa6 0fbd 160b 27bc d921 b1bd 7ebe 7e3d
000003b0: 9dc6 5bbd a705 1cbd 64db fb3c aea8 9b3b
000003c0: d884 213d a3b5 da3d 52d7 913d 5e38 72bd
000003d0: be47 abbd eae0 2b3d ad0b 70bc 8a57 9dbd
000003e0: c39d b1bd 3cbd e7bc a24b 0cbe 90c3 83bd
000003f0: 3f0a 6a3c 275e 96bd 187d 8bbd 8065 53bd
0.037825696 0.049978368 -0.035996567 -0.07156687 -0.030378304 -0.049259305 -0.016076894 -0.030745769
0.04004198 -0.05407772 0.06268171 -0.0097507695 0.10865255 -0.04021431 0.13007116 -0.08308249
0.12462463 0.070803896 -0.027237667 -0.099721074 0.0524441 -0.054535236 -0.009147414 0.026234262
0.029429838 -0.039975587 -0.029894672 0.08235226 -0.04702333 -0.0022277103 0.03580491 0.023953209
0.061079517 0.05024943 -0.06708006 0.079566576 0.06401335 0.13988316 0.03068109 -0.086299546
-0.08309862 0.06703663 0.03438432 -0.087484695 -0.0074026017 -0.013738921 -0.040200606 0.05854877
-0.0002992395 -0.0745466 -0.064703055 0.025764586 0.044917166 -0.13210875 -0.002641103 -0.041693743
-0.039887745 0.015879089 0.063469484 -0.10628559 -0.077132486 0.088975735 0.05505478 -0.016869523
-0.0020991138 -0.059798792 -0.1270134 0.020444933 -0.08129313 0.063498855 0.12451928 -0.13892712
0.034069538 0.023046885 0.07416487 0.084086016 -0.0075140875 0.08033869 -0.019730704 0.08813726
-0.098705895 -0.064757735 -0.03841119 -0.10745222 0.008715893 0.114151426 -0.120465204 0.095580414
0.10079823 -0.07852665 0.018784063 0.05352626 0.11392071 -0.067468464 -0.054451086 -0.12381764
0.08503268 0.087748125 -0.0023174575 -0.14165397 0.06581075 -0.15320607 -0.04573723 0.13616905
-0.11210678 0.049777273 0.13086979 -0.1048717 0.036163468 -0.1253984 0.044703137 0.017493444
0.11210049 0.008770806 -0.11265035 0.10781961 0.11256454 0.0841819 0.037032012 0.07613132
-0.053544614 0.10345877 0.07483605 0.07636674 -0.056297623 0.13965906 0.059213426 -0.07600007
-0.08388486 -0.08985971 -0.017324368 0.082397 0.062561944 0.10003492 -0.13048683 0.14478223
0.12013425 0.080702074 -0.03989264 0.08300156 -0.08526065 -0.017187474 -0.003348817 -0.1177451
0.12576422 0.092520304 -0.08052588 0.035337172 0.06338089 -0.09243584 0.06823971 0.051935185
-0.0755936 0.04442454 0.046616543 -0.059370045 -0.09567331 -0.04715663 0.049492385 -0.028977646
0.039910596 -0.06504038 -0.13233607 0.07860936 0.11111162 0.044384282 0.0255032 0.037191916
-0.010254428 -0.053565484 0.09029935 0.06571232 -0.064901024 0.13947214 0.032337688 -0.0908625
-0.055720203 -0.025037907 0.12526599 0.10185533 -0.01841363 0.08716464 -0.048110094 -0.09404993
0.0077104233 0.033319212 0.045293037 0.09352711 -0.09385483 -0.10904917 0.006117913 0.10606781
-0.050734367 -0.004170085 0.14976469 -0.018463535 0.10043806 0.05469043 -0.11524582 -0.05371926
-0.06070849 0.017698199 -0.014126463 0.023853267 -0.057552107 -0.009604562 -0.08483305 0.06991114
-0.079418145 -0.115546934 0.061383054 -0.038737323 -0.05712573 0.0467522 -0.019961525 0.037695915
-0.044453114 -0.06897878 0.13081603 0.11095475 -0.0088375285 0.004152086 0.12003488 -0.079265855
-0.076836914 0.04356239 -0.113539554 -0.10192141 0.038479105 0.06866193 0.056141786 -0.038398072
-0.035070654 -0.010195514 -0.08649034 0.062193386 -0.05365621 -0.038091328 0.030744262 0.004750333
0.03943333 0.10679176 0.07121147 -0.059135787 -0.08363293 0.04196254 -0.014651221 -0.076827124
-0.08672669 -0.028288476 -0.13700727 -0.06433785 0.014284669 -0.07342177 -0.06810969 -0.05161047

mu.bias f4 [10]
00000000: 0784 923d ae3c 3e3d 5e97 8abc dfd9 98bd
00000010: bb4a 933d f226 d03a 73ef 843d 9f85 c43d
00000020: 317d 8a3d 60d6 a6bd
0.071540885 0.046444587 -0.01691788 -0.074634306 0.07191988 0.0015880747 0.06490984 0.09595799
0.067621596 -0.081463575

var.weight f4 [10, 100]
00000000: 64b6 3939 5f9b 4b3d fe22 0ebd 8ac1 7e3d
00000010: a234 39bd d66b 81bd ca07 06bc 90b2 983c
00000020: ea2b a63d e8d8 5bbd 9772 b83c 4555 8b3d
00000030: 33bb 903d 3d5f 79bd 4720 dbbc ded4 743d
00000040: 8f98 1c3c 9df1 97bd 48d8 4abc 89b1 a23d
00000050: e9c6 6d3b 400b a03d 7fce 15bd 4b02 f3bc
00000060: d976 31bd 54c2 fc3b fe8b 1b3d 77fe 46bd
00000070: c4e5 a9bd a0ac 403d c72b 533d 834d 98bd
00000080: 73a5 833d e590 8dbd 7e86 ce3c d261 adbd
00000090: f11c 4cbd 1601 ed3c 0392 b5bc 0cc9 913d
000000a0: 86c3 adbc 217d 933c 52a0 913c dcfc 4b3c
000000b0: e0fa 68bb ca85 acbc d3e2 96bd 534a 6f3d
000000c0: 63a9 103d 3432 13bd 6627 323d 6100 59bd
000000d0: 4b60 9bbc fd7e bb3d 28bc fc3b 779c 2c3d
000000e0: dbd1 18bd 95c8 183d 355d cbbd 27a0 8c3c
000000f0: 06b1 0ebc 47ef 993d 6229 193c 9936 363d
00000100: 23af 63b9 4f76 6dbd 2f5c 83bc b262 9f3b
00000110: 16b6 e2bc 1335 f6bb 546d dbbc 504e 1cbd
00000120: 3b8d 523d 000b d4bb 1fef 923d 6142 57ba
00000130: 9b66 be3d c8ae 1a3a 6723 5c3d 33c3 903c
00000140: 2847 293d 52d7 7e3c 0f84 953c 4d07 54bc
00000150: 4882 7c3d 3faa cb3d f64a 083d 9427 863c
00000160: b165 2e3d f1ec b23c 2bc4 0a3d 1edc 033c
00000170: 53d9 013d 0c01 b13c 31cc 86bc 1d59 30bd
00000180: be33 73bd 444e e23c cd6a 6f3d c6c8 72bd
00000190: f858 43bd 59a1 62bd 4e1c c4bc e7ec 283d
000001a0: e539 7c3d 76b0 fe3c e204 e13a 9bcf 9ebd
000001b0: 2f17 b93c 500b 2a3d 2b27 44bd 9ff2 a83d
000001c0: a7b7 87bc e7df a1bd 6ae5 373c 081c 0c3d
000001d0: 9d88 843d 4178 4e3d 16e0 833d 39c2 bc3c
000001e0: 0ae4 5f3c 180d f83b 11b2 0fbb 8f0a 83bb
000001f0: b268 a03d d210 df3d 4cdd 153d 7ad0 b13b
00000200: de51 59bd 0935 bc3d 350e ce3c 34e7 06bd
00000210: 4bcd 9d3d 5baf 5cbd c529 3dbd a1eb b9bd
00000220: 49ed 81bc 85a0 ed3c 5005 9abd 462e 75bd
00000230: b15b 943d 512a 6bbd 3e18 bebd 4dee 9c3d
00000240: 4b46 b63d 9d85 08bd f83a f0bb 5ed7 dd3c
00000250: e9d2 8dbc 1879 7abd df8f 153d 1c76 97bd
00000260: 54ac dcb8 4d87 c63d d4f9 603d 8a14 3f3d
00000270: 203e a83d 40aa 643d d3e4 b2bd d2fd 8dbb
00000280: 6551 7f3d 3147 3c3d b35a 69bd 20a5 8dbd
00000290: f299 8c3d 8818 e13c b6a4 b83a f44e 223d
000002a0: e3a1 49bd 296f 74bc be03 763d 1d30 4dbd
000002b0: 3778 a53d 448b e4bc f29f 06bd 1c22 18bd
000002c0: 2f29 b43c 5028 96bd 4fe2 b33d dcc4 10bd
000002d0: 6778 debb f213 6cbd 7aa1 9a3d 5f60 873d
000002e0: 5ba6 1e3d cc3b 133c 99f7 ac3b a3b6 81bd
000002f0: d3a1 943c 9e3f 683d f2e6 a03d c250 43bd
00000300: c93c 613d 8438 5abb c211 91bc 7ab5 a73d
00000310: fe60 b23c 5e87 dbbc 4bc0 20bd fa58 d9bb
00000320: 4ddc 063c d2a8 30bc 0177 543d 863d 6d3d
00000330: 304a dfbc 32fd 6c3d 120c bc3c aa71 78bd
00000340: 355b bdbd b8be 62bd 4ce5 61bd 02bf 81bd
00000350: 2d0c 883b dab6 6b3d 3565 9bbc a2df b33d
00000360: 371c aabd 183d cdbd 489f 04bd e5e6 c5bd
00000370: 65d1 773d ad63 5dbd 7422 5b3c 9ae3 66bd
00000380: 391e adbd f55f a1bd dc93 753d 8f3e 91bd
00000390: f396 3fbd 56ee a03c 063e 59bd 0487 2e3d
000003a0: a75d 86bd 4787 813d db22 b2bd 804e 3dbd
000003b0: 5ebf a93c 8ad4 f4bc 27b2 ecbc 3057 a33d
000003c0: 246f 85bd ba6f 7abb 3558 53bd 9f7a 563d
000003d0: f0ac e8b7 18af 8a3d 5262 9a3d a472 1a3c
000003e0: 66e8 df3c 3d07 4d3d 14c1 a0bd 1f4c db3c
000003f0: 67ec 83bd 885e af3d aff7 f5bc 6551 d73c
0.0001771092 0.04970872 -0.03470134 0.062196292 -0.04521621 -0.06319396 -0.008180568 0.018639833
0.08113845 -0.053673655 0.022515578 0.06803373 0.070669554 -0.060881842 -0.02674879 0.05977332
0.009557857 -0.07419131 -0.012380667 0.079440184 0.003628189 0.07814646 -0.036573883 -0.02966418
-0.043326233 0.0077135954 0.037975304 -0.04858252 -0.082957774 0.047039628 0.05155542 -0.07436659
0.06428041 -0.06912402 0.025210615 -0.08465923 -0.04983229 0.028931182 -0.02216435 0.07118425
-0.021211397 0.018004002 0.017776642 0.012450423 -0.0035549924 -0.02105989 -0.07367482 0.05842049
0.03531779 -0.03593655 0.043494605 -0.052978877 -0.018966815 0.091550805 0.0077128597 0.042141404
-0.03730951 0.037300665 -0.09929887 0.01716621 -0.008709198 0.07516342 0.009348245 0.044485662
-0.0002171365 -0.057974156 -0.016035168 0.0048640603 -0.027674716 -0.007513651 -0.02678553 -0.038160622
0.05140422 -0.006471038 0.07174515 -0.00082114903 0.09296914 0.0005900678 0.0537447 0.017671203
0.041327626 0.015554266 0.018251447 -0.012941194 0.061647683 0.09944581 0.033274613 0.016376294
0.04257745 0.021841498 0.033878487 0.0080480855 0.031701397 0.021606945 -0.016454788 -0.043053735
-0.059375517 0.02762521 0.058451463 -0.059273504 -0.04769227 -0.055329654 -0.023939278 0.041241553
0.06157865 0.031090003 0.0017167593 -0.07754441 0.022594063 0.041514695 -0.047888916 0.08249401
-0.016567064 -0.07904034 0.01122413 0.03420642 0.064713694 0.05040765 0.064392254 0.023041831
0.013665209 0.0075699203 -0.0021926204 -0.0039990614 0.07832469 0.1089188 0.036588 0.0054264637
-0.05305659 0.09189803 0.025153259 -0.032935336 0.07705172 -0.05387817 -0.046182413 -0.09078146
-0.015860217 0.029007206 -0.075205445 -0.059858583 0.07244051 -0.057413403 -0.092819676 0.0766264
0.08900126 -0.03333055 -0.0073312484 0.027080234 -0.017312484 -0.06115064 0.03651416 -0.073955745
-0.00010522516 0.09693775 0.054925755 0.046650447 0.082149744 0.055826426 -0.08735051 -0.0043332363
0.062333483 0.04596633 -0.056971263 -0.06916261 0.068653 0.027477518 0.0014087174 0.039626077
-0.049226653 -0.014919081 0.060062163 -0.050094713 0.0807957 -0.027898438 -0.03286738 -0.037141904
0.021992294 -0.07331908 0.08783399 -0.03534399 -0.0067892554 -0.05763621 0.075503305 0.06610178
0.038732868 0.008986425 0.0052785394 -0.06333663 0.01814357 0.056701295 0.07856549 -0.04768444
0.05498961 -0.0033297846 -0.017708663 0.08188911 0.021774765 -0.026797947 -0.039245885 -0.0066329213
0.008231235 -0.010782437 0.051871303 0.05792 -0.027257055 0.057858653 0.022954974 -0.060655273
-0.09245912 -0.055357665 -0.055150315 -0.0633526 0.004151842 0.057547428 -0.018969158 0.08782889
-0.08306163 -0.10021418 -0.032378465 -0.0966318 0.06050243 -0.054050136 0.0133749135 -0.0563694
-0.0845303 -0.078796305 0.059955463 -0.0709201 -0.046774816 0.019644897 -0.053037666 0.04260923
-0.065608315 0.0632463 -0.086980544 -0.04621744 0.020721134 -0.029886503 -0.028893543 0.07975614
-0.06515339 -0.0038213567 -0.051597793 0.052363034 -2.7737085e-05 0.06771678 0.07538284 0.0094267465
0.027332496 0.05005573 -0.07849327 0.026769696 -0.064415745 0.08562952 -0.030025331 0.02628393

var.bias f4 [10]
00000000: a652 c33b 230c 25be 045e 06bc 4b9c e2bd
00000010: cda6 0dbe fac0 cabd b2ca 19be 5882 b0bb
00000020: b78e 1abd b622 6abc
0.00596078 -0.16117911 -0.008201126 -0.11064967 -0.1383316 -0.099000886 -0.15018728 -0.005386632
-0.03773376 -0.014290502
