tutorial/interim_data_test/models/model_8_35.pt (torch, 14379 bytes, 18 tensors)

encoderlayers.0.weight f4 [12, 70]
000000 70 8b bd 3d d4 89 b6 3d 0c f6 30 be 22 59 37 3d
       0.09255111 0.089130074 -0.1728136 0.044762738
000010 38 0f 17 be ba 12 db 3d 24 69 16 3d fb 3e 9b bd
       -0.14751899 0.10696931 0.036721364 -0.07580372
000020 07 da 95 bc f6 3d 26 bd 28 d7 37 3d bc 42 ae bd
       -0.01829244 -0.040586434 0.044882923 -0.08508822
000030 8d 66 fb 3c 4a a9 6c bd 65 a8 79 bd 0e 81 b1 bd
       0.030688548 -0.057778634 -0.06095161 -0.08667193
000040 4d 28 55 3d c3 f6 63 3d 86 f9 0c 3e 3c cd 96 bc
       0.052040387 0.055655252 0.1376706 -0.01840841
000050 21 23 9f 3d fe 51 2e bd d0 ab ab bd fb 39 dc 3c
       0.07770372 -0.042558663 -0.0838238 0.026883116
000060 99 46 8f 3b 34 12 53 bd 96 00 fa 3d 33 a9 e0 bd
       0.0043724296 -0.05153103 0.12207143 -0.10969772
000070 2d ff ad 3d 5c 71 59 3d eb 9e d2 3c ef c5 e1 3c
       0.084959365 0.053086624 0.025710544 0.027560202
000080 f2 ce 52 3c 48 dd c7 3c b3 fb 87 3d 17 26 ed bd
       0.012866722 0.024397507 0.06639805 -0.11579531
000090 c1 ec b6 3d d3 61 dd 3b 3c c2 b1 bd 79 0e cd 3d
       0.08931876 0.0067560463 -0.086796254 0.10012526
0000a0 e5 51 a5 bc 7c 6c f3 3d 11 ec 99 bd ac ea 0c 3d
       -0.020180652 0.11885926 -0.07515729 0.034403488
0000b0 67 e9 88 3d 95 08 c4 3b 7d a0 df 3d c6 14 6d bd
       0.06685143 0.0059824684 0.109192826 -0.05788114
0000c0 bd 4c 13 bd e2 62 97 bd 39 f9 fb bc 40 8b c7 bc
       -0.035961855 -0.07391907 -0.030758487 -0.024358392
0000d0 ff 3a fe 3d 47 ec 34 3d 1c 71 3c 3d 11 91 a3 3d
       0.12413596 0.044170644 0.046006307 0.079866536
0000e0 18 77 c8 bb 66 48 9a 3d 7e de fb 3c fc 82 a8 bd
       -0.0061177127 0.0753334 0.030745741 -0.08228108
0000f0 7f 72 52 3d 9c 7f ee 3d 20 d3 a9 3d a9 88 95 bd
       0.051378723 0.11645433 0.08292222 -0.073014565
000100 fb 5e 5c bd f8 9c a9 3c 1a 30 ca bd f7 a2 84 3d
       -0.053801518 0.020704731 -0.09872456 0.064763956
000110 60 36 63 bd 0e e5 23 bd 42 a5 23 3d cf 81 a6 3d
       -0.055471778 -0.040013365 0.039952524 0.08130228
000120 dc 02 5d bc 04 22 b6 bd 70 4a b5 3c 54 c3 3a 3d
       -0.013489451 -0.08893207 0.022130221 0.045596436
000130 39 0d 13 3e 0b ae 59 bd 39 6c 76 3e 92 3a 9a be
       0.14360513 -0.053144496 0.24064721 -0.3012281
000140 d5 8b fb 3d 53 b4 b5 3d 0a 83 10 3d 35 9d 02 3e
       0.1228253 0.08872285 0.03528122 0.12755282
000150 6a 8d 7a 3d cb ed 05 bc 79 aa 13 3d 04 74 3f 3d
       0.06117002 -0.00817437 0.036051247 0.0467415
000160 c6 56 44 bc 4b 4e 7d 3d 34 a0 15 bd 77 a3 d4 3c
       -0.011983579 0.061842244 -0.036529735 0.025956852
000170 92 eb 26 bc 85 c8 7d 3d 83 b3 dc 3b 72 a6 4f bd
       -0.010188 0.06195881 0.0067352667 -0.050695844
000180 04 28 7a 3d ab 84 36 3d df c3 88 bd be bd b8 bd
       0.061073318 0.044560116 -0.066779844 -0.090205655
000190 b7 09 c3 bd 0f 5a ce 3c c4 f3 c4 bc 32 55 a3 3c
       -0.09523337 0.025189428 -0.024042018 0.019938085
0001a0 f4 b2 53 3d 19 f1 90 3c 21 20 48 3d 34 83 f0 3d
       0.051684335 0.01769309 0.048858766 0.11743775
0001b0 70 b3 e1 3c 22 cb 80 bd 83 e7 de bd 00 5e e4 bd
       0.027551383 -0.062887445 -0.10884001 -0.111507416
0001c0 3a fd b6 3c e9 27 57 bd 75 cd 0b 3d 10 4e 29 bd
       0.022337545 -0.052528296 0.034131486 -0.04133421
0001d0 28 bf 45 bc ea 7f 8e bd 6a e9 23 3d 6d e7 43 3c
       -0.012069501 -0.069579914 0.040017523 0.011957032
0001e0 2e a8 ce bd 80 9a 44 bd 8c 88 19 bd 37 43 90 3d
       -0.100906715 -0.047998905 -0.037483737 0.0704407
0001f0 59 be 7c bc 84 75 0f 3d 5f 73 33 3d a3 25 46 3d
       -0.015426242 0.03502418 0.0438112 0.048375737
000200 19 ba 7d 3c cf f4 88 3c a7 c4 99 bd a4 10 da bd
       0.015486264 0.016718296 -0.075082116 -0.10647705
000210 c1 58 99 3c 68 cf 1f 3d 6f 50 1f bd 21 bb 33 bd
       0.018719079 0.039016157 -0.038895067 -0.043879632
000220 b3 e6 b8 3d ff 8d 97 bc 61 c7 36 3d 1d de d6 3c
       0.090283774 -0.018500326 0.044623736 0.026228959
000230 84 d2 1f bd 64 4a a3 bd 56 6c 3a be 92 1c 86 3e
       -0.039019123 -0.07973173 -0.1820539 0.26193672
000240 2d 08 33 3d aa d2 70 bd 12 b5 23 be 8c 23 ca 3d
       0.04370897 -0.058794655 -0.15987042 0.09870061
000250 88 8d 53 3b 68 03 9a bb 96 20 0a 3d e8 ff 02 3d
       0.0032280404 -0.004700113 0.033722483 0.031982332
000260 68 f4 13 bd 03 4c da bc dd dc d2 3d b9 02 6f 3d
       -0.036121756 -0.026647573 0.102960326 0.058352206
000270 48 1d b5 bd 5c 5f bd bd f0 3d 55 3d 28 a0 21 3d
       -0.088434756 -0.09246704 0.05206102 0.039459378
000280 90 cf 13 bc 5d 8c 8f 3d c3 78 aa bd 56 96 e7 3c
       -0.009021655 0.07009194 -0.08323815 0.028269928
000290 21 5d 33 3d 93 26 e3 bc 22 47 9d 3d 54 e7 a5 bb
       0.043789987 -0.027728355 0.07679583 -0.005062977
0002a0 4e 7a 3a 3d 0a bb 9b 3d 06 83 3b bc 0d 3d 4f bd
       0.045526795 0.07604034 -0.011444813 -0.050595332
0002b0 08 0d 03 3d 2d 6b 91 3d b5 9b 81 3d ae 50 97 3d
       0.03199485 0.0710052 0.06328527 0.07388435
0002c0 7c 01 af 3d 07 21 55 bd a2 24 08 3c 93 ab 58 3d
       0.08545205 -0.05203345 0.008309515 0.052898
0002d0 32 71 42 bd 96 7c 81 bd dd 4a 9d bd ed 88 9e bd
       -0.047471233 -0.06322591 -0.07680295 -0.0774096
0002e0 c9 e3 12 bc c7 30 6b 3d 9e ae df 3b ed 2d 55 bc
       -0.008965441 0.057419565 0.006826236 -0.013011438
0002f0 45 6d 87 3d 45 c0 0e bc 8c 5f fd 3c 97 08 08 3d
       0.066126384 -0.008712833 0.03092935 0.033211317
000300 ca 7c 4c 3d 58 0c a3 bd 6d 25 1b 3d 53 3f 97 3d
       0.049923696 -0.07961339 0.03787749 0.07385125
000310 2a 1e 48 bd 0f 0d 54 bc a0 4c 9c bd 96 d5 27 3d
       -0.04885689 -0.012942567 -0.076318026 0.040975176
000320 11 6e c2 bc 0e 2b 04 3d e1 1d fc bc 1b d1 93 bd
       -0.023734124 0.032267623 -0.030775966 -0.07217618
000330 a1 b5 ed bc 93 d4 44 bc 72 f1 0c bd 8c d1 4c bc
       -0.029017271 -0.012013572 -0.034409948 -0.012501132
000340 32 a8 2c 3c 3d 57 35 3d d2 df ec bd 47 e4 af 3d
       0.010538148 0.04427265 -0.11566128 0.08588462
000350 f6 48 cf bd 15 2f 27 3e f5 56 a0 bd 20 c5 5d bd
       -0.10121338 0.16326554 -0.07829086 -0.05414307
000360 eb c7 df 3c a0 43 b2 bd 76 4c a8 bd 3a 2d 16 be
       0.027317008 -0.08704305 -0.08217709 -0.1466569
000370 74 a8 af 3d 07 fa 49 bc c7 d3 c3 bd fd 6b fd bd
       0.08577052 -0.012327678 -0.09561878 -0.12374113
000380 76 17 a0 bd 2b 7e de bc c8 6b bd bd 3e 55 92 bb
       -0.07816975 -0.027159771 -0.09249073 -0.004465728
000390 e2 70 3e bd 5f ef 25 bd b6 ca 1d 3c 4a e6 bb bc
       -0.046494372 -0.040511485 0.00963085 -0.022936959
0003a0 d9 d8 8d bd 3d 92 eb 3c 68 09 67 3c 8d b2 37 bd
       -0.06926126 0.028756255 0.014101364 -0.044848014
0003b0 55 09 01 3d 0f 4d 7d 3d a6 e1 6c 3c 22 ff c0 bd
       0.03150304 0.061841067 0.014458096 -0.09423663
0003c0 76 50 91 3d ef d4 95 bd a8 7a f2 bd 0e 82 7d bd
       0.07095425 -0.073160045 -0.11839801 -0.061891608
0003d0 d3 2e 0d bd 18 14 94 bd 64 93 1e 3d 14 66 59 bd
       -0.034468483 -0.07230395 0.03871478 -0.053075865
0003e0 58 22 4f bc 47 45 af 3d 5c 21 43 3d c9 3d 9f 3d
       -0.0126424655 0.085581355 0.047639236 0.077754565
0003f0 b9 72 a6 3d 73 ba 18 bd 3f ae b2 bc dc c7 3e 3c
       0.0812735 -0.037287187 -0.021811603 0.01164433

encoderlayers.0.bias f4 [12]
000000 01 df 0a 3c b5 16 48 3d 4a b3 9c 3d 1f 83 44 bc
       0.00847602 0.04884978 0.07651384 -0.011994152
000010 33 05 c2 3d 5b 0c bf 3c f8 25 e3 3d 13 d0 a2 3d
       0.09473648 0.023321321 0.11091226 0.07949843
000020 0c 3e 86 bd c5 0f 49 3d c5 4a 1d 3d 82 2e 20 3c
       -0.06554803 0.049087305 0.038401384 0.009776713

encodernorms.0.weight f4 [12]
000000 0a e8 82 3f 37 f4 96 3f a0 e7 97 3f 6b 8a 8c 3f
       1.0227063 1.1793278 1.1867561 1.0979742
000010 7c 39 8c 3f 12 a4 99 3f e8 85 95 3f 42 e9 8e 3f
       1.0955043 1.2003195 1.168149 1.1164935
000020 bc f9 8b 3f 7e 37 95 3f 9c f4 80 3f fc f7 93 3f
       1.0935588 1.165756 1.0074649 1.1560054

encodernorms.0.bias f4 [12]
000000 7c 23 31 3d 7d 17 1a be c1 e5 39 3c 70 79 b5 bd
       0.04324673 -0.15048023 0.0113462815 -0.08861053
000010 71 b6 f7 3b 1b 0a fe bd 5b 1a 24 3c 5d 56 70 3c
       0.0075595905 -0.12404271 0.010016049 0.014669028
000020 55 51 07 3e 1c 70 c1 bd 1f d6 03 bd 6a d2 07 bd
       0.1321462 -0.09445211 -0.032186624 -0.03315965

encodernorms.0.running_mean f4 [12]
000000 c0 4a 7e 3e 14 df a5 3e 60 05 93 3e 65 09 1e 3c
       0.24833202 0.32396758 0.28715038 0.0096457945
000010 c4 7f ac 3e fa c1 5f 3e a3 03 84 3e 7a 11 b8 3e
       0.33691227 0.2185134 0.25784025 0.35950834
000020 df 17 8a 3e 9e 57 88 3e 1d 9f 31 3b 28 ad 93 3e
       0.26971337 0.26629347 0.0027102896 0.28843045

encodernorms.0.running_var f4 [12]
000000 30 84 d6 3d 4a 2a 03 3e 03 8c c7 3d 25 19 1a 3c
       0.104744315 0.12809101 0.09743502 0.009405409
000010 82 6d 14 3e ee ab b0 3d 75 1e d3 3d ad 76 0c 3e
       0.14494899 0.08626543 0.103085436 0.13717146
000020 66 84 cf 3d 82 21 d4 3d 36 5b 39 3b 78 1d d3 3d
       0.10132675 0.103579536 0.0028283126 0.10308355

decoderlayers.0.weight f4 [12, 8]
000000 3d 6e 42 be 07 ac 9b 3d 00 4a 68 3e a2 1b ab 3e
       -0.18987365 0.07601171 0.22684479 0.3341952
000010 78 2a 82 3d 2d 25 c0 3e 48 47 65 3e 6f 2c ef bd
       0.063557565 0.37528363 0.22390473 -0.11678397
000020 20 e5 d4 3d ce 14 af bd 77 92 4b 3c bf 73 a1 3e
       0.103952646 -0.0854889 0.012425057 0.3153362
000030 1a 09 a7 be 64 36 52 3e 55 c9 73 3e 50 c7 7d 3d
       -0.3262413 0.20528561 0.23807271 0.061957657
000040 27 a0 41 3e 66 6d 59 be 72 f2 87 3e ee 2e 9b 3e
       0.1890875 -0.21233138 0.2655216 0.30309242
000050 29 5e 7b be 2f 67 44 3e d6 19 18 3d 77 ae 8d 3e
       -0.24547638 0.19179986 0.037134014 0.2767217
000060 f3 13 2e be 96 a8 ec b9 04 b2 57 be db 01 98 be
       -0.16999798 -0.00045139034 -0.21064001 -0.29688916
000070 76 a6 a7 3e cc f5 f1 3d 6f f0 a9 3e 53 8e 13 bc
       0.32744187 0.1181446 0.3319125 -0.009006101
000080 eb 5a 5a be 03 d1 ce bc 23 7a 24 be d5 7e 45 3d
       -0.21323745 -0.025246149 -0.16062216 0.04821666
000090 42 9f 85 3d ee b5 81 be 13 f4 15 be 1c 8f 7b be
       0.06524517 -0.25334114 -0.14643888 -0.2456631
0000a0 00 fb 4f 3d aa 9e 82 3e c4 72 bb be 31 de c0 3d
       0.05077648 0.25511676 -0.36610997 0.0941738
0000b0 dd 2d 90 3e eb 08 c0 3e 4e 33 23 3e da 90 83 3e
       0.2815999 0.37506804 0.1593754 0.2569645
0000c0 73 07 72 3e 41 ea 39 be 1b 9e 35 be ff 59 4d be
       0.23635654 -0.18155767 -0.17736094 -0.20053862
0000d0 65 9e c9 bd 3e f0 8e bd 69 1e 92 be c5 74 5e be
       -0.098446645 -0.06979416 -0.28538826 -0.21724232
0000e0 62 b5 b3 3d 70 2d db bb 35 4e 75 bd d7 c5 67 3d
       0.087748304 -0.006688766 -0.059889037 0.05658516
0000f0 d9 a8 1d 3e 4e 8e 2d 3e 29 bf d8 bc 9e f0 ad 3d
       0.15396442 0.16948816 -0.02645834 0.0849316
000100 35 32 af be 76 db a6 be f9 3f f3 bd 30 44 af 3d
       -0.34217992 -0.3258931 -0.11877436 0.085579276
000110 3f bb 92 3e 8a d1 51 3e 3b 70 b8 3c e5 16 05 be
       0.28658482 0.20490089 0.022514453 -0.12997015
000120 c4 cd 39 3e 1c ee db ba 5a 63 26 bd 21 6e c5 3e
       0.181449 -0.0016779336 -0.040622093 0.38560584
000130 50 4f 59 3e 3e e2 99 3e 48 ae a2 3d 84 a0 9f be
       0.21221662 0.30055422 0.07943398 -0.3117715
000140 f7 af 3f 3e d7 4a 54 3e 5f 95 d0 3e 02 6f dd bd
       0.18719469 0.20731674 0.4073896 -0.10812189
000150 3b 9c 77 3d 4c ed 41 3d ef 16 61 be 0a 88 e5 3d
       0.060451727 0.047345445 -0.21981405 0.11207588
000160 b1 41 73 be 4b 37 4b 3d a0 b2 cd bd e7 9b 60 be
       -0.23755528 0.04961328 -0.10043836 -0.21934472
000170 c7 23 95 bd b2 68 d1 bd d8 da 7b 3e 3b a3 9b 3e
       -0.072822146 -0.10225047 0.24595201 0.30397972

decoderlayers.0.bias f4 [12]
000000 61 7c 14 3e 1a c4 80 3e 80 19 41 3e 5d a9 89 3e
       0.14500572 0.25149614 0.18857384 0.26887026
000010 e6 79 3e 3d 22 90 81 3e 8e a6 e0 bd 68 89 36 3e
       0.04650297 0.25305277 -0.10969268 0.17825854
000020 d5 df 0f 3e e2 41 98 be 00 74 cf b9 bb 03 26 be
       0.14050229 -0.29737765 -0.00039568543 -0.1621236

decodernorms.0.weight f4 [12]
000000 3b ce 4a 3f d7 f1 57 3f e8 75 58 3f d3 34 4f 3f
       0.7922093 0.84353393 0.8455491 0.8093998
000010 7f e3 52 3f 00 d9 54 3f 98 ce 49 3f 4d 51 56 3f
       0.8237838 0.83143616 0.7883086 0.83717805
000020 03 11 4b 3f 57 7d 4b 3f 8e 1b 57 3f 81 da 40 3f
       0.7932283 0.7948813 0.8402642 0.7533341

decodernorms.0.bias f4 [12]
000000 4d a2 26 3d 47 44 22 bd 34 72 34 be 9d ab 16 bd
       0.040682126 -0.039615896 -0.1762169 -0.036784757
000010 64 1a bc bd 31 b9 c5 3d b2 01 9d bd 21 69 68 bd
       -0.09184721 0.09654463 -0.07666339 -0.056740884
000020 22 a9 7d bd 9f 61 6f bd 9a 3e d4 3c 84 ab a1 bd
       -0.061928876 -0.058442708 0.025908757 -0.07894042

decodernorms.0.running_mean f4 [12]
000000 bc 1d 06 3f 02 7e 1a 3f 1d da 1f 3f c1 07 2b 3f
       0.5238912 0.6034852 0.6244219 0.66808707
000010 2c c7 c2 3e 0a bb 44 3f 82 2a 82 3e 9f 27 a4 3e
       0.3804258 0.768479 0.25423056 0.32061478
000020 d7 9e f5 3e e4 e9 84 3e 50 89 d4 3e 3c be 8a 3e
       0.47972748 0.25959694 0.4151101 0.27098262

decodernorms.0.running_var f4 [12]
000000 4c d2 0f 3f d1 9a 3b 3f a3 2f 78 3f a3 77 56 3f
       0.5618026 0.73283106 0.9694769 0.837763
000010 f0 e9 d1 3e 78 1b 89 3f 7e ac a9 3e ca bd 0e 3e
       0.40998793 1.0711508 0.33139414 0.13939586
000020 d4 8c f1 3e 3f 7a ae 3e b4 0c fe 3e 73 a8 56 3e
       0.47177756 0.3407764 0.49619067 0.20962696

mu.weight f4 [8, 12]
000000 59 c0 7a 3e 28 a4 24 be 83 19 9e be e0 20 05 bd
       0.24487437 -0.16078246 -0.3087884 -0.032502055
000010 80 ef 02 be 87 31 9a 3e 4b 88 52 3e 00 cf 3b 3e
       -0.12786674 0.3011591 0.20559804 0.18340683
000020 a3 95 b7 3e 05 97 cf 3e f2 26 78 be 08 ac dc 3d
       0.3585635 0.40544906 -0.24233606 0.10775
000030 6d 6b 50 3e 68 35 25 be 2e fc ec bd 5f ad 0e 3b
       0.2035348 -0.16133654 -0.11571537 0.0021770818
000040 f8 c2 b8 3c a7 ab 61 bc ca 4e b9 bd ce 69 ac 3e
       0.022553906 -0.013773835 -0.09048231 0.33674473
000050 e9 80 6a 3e 41 dc 55 be da 3b 8e 3b 78 9f c9 be
       0.22900738 -0.20884801 0.004340631 -0.39379478
000060 43 23 6d be 36 85 4a be 7a 86 d1 be 93 72 16 be
       -0.23157983 -0.19777378 -0.4092291 -0.14692144
000070 8a 5c 89 3e 33 96 f1 3e 79 55 09 be 62 eb 5f 3e
       0.26828414 0.47184905 -0.13411511 0.21867135
000080 29 d1 92 3e ff 02 80 3d 54 70 57 3e 98 af bd be
       0.28675202 0.062505715 0.21038944 -0.3704803
000090 de b0 c4 bd 3c ac 60 be d0 d1 2d be 9c cd ae 3e
       -0.09604047 -0.21940702 -0.16974568 0.34141243
0000a0 de b7 7b be 92 75 75 3e bf ca b0 3e ca 3f a6 3d
       -0.24581859 0.23970631 0.34529683 0.081176355
0000b0 56 7d 17 3d 0a a0 7a 3e 53 d3 93 3e 7f 85 22 3e
       0.036984764 0.24475113 0.28872165 0.15871237
0000c0 61 40 f2 3d ea 7b 38 be d8 ba ba 3e 30 c7 69 3e
       0.118286856 -0.1801602 0.36470675 0.2282989
0000d0 8a bf 26 be 1f a2 9a be ce fb bf 3d 78 2e 9d be
       -0.16284004 -0.30201814 0.093742 -0.30699515
0000e0 73 94 83 3e c6 d5 d4 be 8e e4 0b 3e 8c e4 18 be
       0.25699195 -0.41569346 0.13661405 -0.14930934
0000f0 7a 91 05 3e 20 b2 b8 be bf 4f a4 3e 02 cf 13 3e
       0.13043776 -0.360734 0.3209209 0.14434436
000100 8b a0 e4 3d cb f6 37 3e 6f 3f 86 3e 55 dd 5a bd
       0.11163434 0.17965238 0.2622027 -0.053433735
000110 15 09 13 3d 10 34 67 3d 94 92 a1 be 22 92 f6 bd
       0.035897333 0.056446135 -0.31557143 -0.12039591
000120 2e 33 e4 3c 22 6c 5a be 6b 20 b2 3e 87 2e 0b 3d
       0.027856436 -0.21330312 0.34790358 0.03397992
000130 4c 92 c2 3e 1f 0b 37 3d 25 fa 95 3e e5 eb 29 bd
       0.3800224 0.04468834 0.29292408 -0.041484732
000140 12 75 17 be 40 33 97 3d 4d 63 63 be c0 41 93 be
       -0.14790753 0.07382822 -0.22205849 -0.287611
000150 4d 4f 31 be 7f 9a d7 be 80 f5 20 3e cc 0a 9e be
       -0.17315407 -0.4211006 0.15718651 -0.30867612
000160 0a 71 fb bd 17 33 98 3e 90 8a 1f 3e 7a a1 68 3e
       -0.1227742 0.29726478 0.15580201 0.22717848
000170 47 df 00 3e ae ff 83 be cb c1 2c bd 35 f8 6e be
       0.12585174 -0.25781006 -0.042177003 -0.23336871

mu.bias f4 [8]
000000 22 c3 d1 bd c7 d5 6b 3d 5c 2e 6d bc bb 06 70 3e
       -0.10242297 0.05757692 -0.014476385 0.23440067
000010 96 dc 99 3c e8 24 99 3c 21 fa 35 3e 26 75 f9 3d
       0.018781941 0.018694356 0.17771198 0.121805474

var.weight f4 [8, 12]
000000 44 fe 6e bb bd 89 89 3e 56 cd 91 bd 4d f1 cb bd
       -0.0036467472 0.26862898 -0.07119243 -0.09958134
000010 2d 77 77 be 8a 5e 03 3e 73 42 75 3e 0e c9 0e be
       -0.24166556 0.12829033 0.2395113 -0.13943884
000020 24 e6 3b 3e 5b 91 9c 3d 94 62 f5 3d 99 bf 47 be
       0.1834951 0.07644912 0.11981693 -0.19506682
000030 5d 61 7e 3d ea 2d f2 3d c8 e3 f1 3d 58 80 d7 3d
       0.06210457 0.11825164 0.11811024 0.105225265
000040 c0 cc 77 bd d1 55 3b 3e a9 f1 8c bd 49 92 05 3e
       -0.060498 0.18294455 -0.068820305 0.13044085
000050 b4 f4 ea bc 4a 70 4e 3e d8 5a 81 be 76 ca 48 3c
       -0.028681137 0.20160022 -0.2526462 0.012255302
000060 81 1b 36 3d b9 cd ac 3d db 04 87 3d c9 7e bb 3d
       0.044459824 0.08437676 0.06592723 0.09155042
000070 0d 61 1e 3e ec 80 10 3e 62 32 c7 3d 11 e4 4c be
       0.1546671 0.1411168 0.09726407 -0.20008875
000080 0d 28 57 be 24 06 68 3d 0d d3 8a 3c bd c0 03 be
       -0.21011372 0.05664648 0.01694634 -0.12866493
000090 12 3b 46 be 70 3c 4a 3e 54 c9 7f 3e 6c 8a 82 3e
       -0.19358471 0.19749618 0.24979144 0.25496233
0000a0 40 85 f1 3d 18 85 49 be d5 8d 2b bd f0 9a d4 ba
       0.117929935 -0.19679677 -0.04188331 -0.0016220491
0000b0 48 92 17 bd 01 24 28 3e 2c f4 36 be a2 9a 63 bd
       -0.03700474 0.16419984 -0.17866582 -0.05556739
0000c0 0a 9c 71 be d8 1f 52 3e 59 63 c9 3d 97 76 a2 3d
       -0.2359468 0.2051996 0.09833402 0.079327755
0000d0 62 ab e5 3c a0 9a 75 bb 12 51 34 3e 8d 61 6d be
       0.028035823 -0.0037476197 0.17609051 -0.23181744
0000e0 20 98 81 be d2 25 4a bc f6 34 7c 3c dc 25 e0 3c
       -0.25311375 -0.012338119 0.015393486 0.027361803
0000f0 9b 2e 88 3e da 22 13 3d 84 2b 07 3d 4f f1 06 3e
       0.26598057 0.03592191 0.033000484 0.1317799
000100 14 c2 43 3e 27 08 28 3e 99 24 0e bd f9 08 a4 bd
       0.19117004 0.1640936 -0.03470287 -0.08009524
000110 8d 02 eb bd 7a 43 24 be 39 df 26 be e9 b7 87 3e
       -0.11475096 -0.16041365 -0.1629609 0.265075
000120 fc 3a fc 3d 65 07 cc bd 46 4b b1 bd d1 eb 74 3e
       0.12315938 -0.09962348 -0.086569354 0.23918082
000130 0b 1f b0 bc 64 43 7b 3e 05 e3 49 be 5d 07 ae 3d
       -0.021499177 0.24537426 -0.19715507 0.08497498
000140 37 01 71 3d 90 c6 b4 bc d6 2a 78 3e f8 9b 42 3e
       0.05883905 -0.022067338 0.2423509 0.1900481
000150 05 41 f6 bd 9e c0 d0 3d 6c 81 19 bd 28 ed 9d bc
       -0.1202412 0.10192989 -0.037476942 -0.019278124
000160 47 14 25 be d0 7a 3b bd 3a 63 f5 bd c1 99 2c 3e
       -0.16121016 -0.04577142 -0.119818166 0.16855527
000170 96 b7 7c be 1a 81 29 3e 2e 16 a4 3d 12 19 d8 3d
       -0.24679407 0.16553155 0.08012043 0.10551657

var.bias f4 [8]
000000 19 9d dc be 54 ce 18 3d 65 21 34 be 34 8c 48 3e
       -0.43088606 0.037306145 -0.17590864 0.19584733
000010 6c 93 a9 bd 7c 16 ae be 90 4e 84 bc 9e 1b c9 3c
       -0.082800716 -0.3400153 -0.016150743 0.024549302

out.weight f4 [70, 12]
000000 5f b5 51 bd 4b ad 57 be 1a 1e 15 be df 5a 43 bd
       -0.05119836 -0.210622 -0.14562264 -0.047694083
000010 75 40 c0 3d 3f 30 28 bd f4 51 3f 3b d1 4c c8 bc
       0.09387294 -0.041061636 0.0029193135 -0.024450691
000020 fa 89 48 3d 39 3f 80 3d a9 ca aa 3e f4 1d 8d 3e
       0.04895971 0.06262059 0.33357742 0.27561915
000030 48 44 f4 bd fe 22 7b 3d f8 67 5b 3d 9c 42 19 3d
       -0.11927086 0.061312668 0.05356595 0.03741704
000040 c3 ef 17 3e 15 6f d9 bc b8 23 dc 3d ab 1b 41 be
       0.14837556 -0.026542226 0.10749 -0.1885821
000050 4d ed be 3d 16 2b 64 3e c6 7d 56 3e 46 c6 ed 3d
       0.09322605 0.22282061 0.20946416 0.11610083
000060 a7 1f dc 3b 07 a7 03 be 04 83 26 be bf 57 f2 3d
       0.0067176404 -0.12856685 -0.16260916 0.118331425
000070 b3 48 38 be 7f 40 d8 bd ec 76 d6 bd 1c 1d a1 bd
       -0.17996483 -0.10559177 -0.10471901 -0.0786688
000080 8e 6f 94 be 3c 2c 11 be aa 52 8a 3e 3b a3 41 3d
       -0.2899136 -0.1417703 0.27016193 0.04727481
000090 a6 b3 02 3e 33 a3 83 be 49 ff 88 be d4 7c b1 3e
       0.12763843 -0.2571045 -0.26757267 0.3466555
0000a0 79 f3 2f be fa 61 2e 3e da 05 d5 bd 00 c1 77 3e
       -0.17182721 0.17029563 -0.10401507 0.24194717
0000b0 46 11 31 bb 26 89 0f 3e 5a 95 10 bd b5 b5 56 3e
       -0.0027018352 0.14017162 -0.035298683 0.20967753
0000c0 7f 28 45 3e ad 83 c1 bd fe 6d af 3d 02 9b 7d bd
       0.1925373 -0.09448943 0.08565901 -0.061915405
0000d0 9f f5 55 be e3 04 48 3d ac ca 3b 3e 71 bb c6 3d
       -0.20894478 0.048832785 0.18339032 0.0970372
0000e0 e5 14 0a be a8 23 04 bd 0c 00 29 bb 8e 8a 3f 3d
       -0.13484533 -0.032260567 -0.0025787381 0.046762995
0000f0 71 38 61 3c eb ba 48 be 75 e9 65 bd b9 ed 67 bd
       0.013746367 -0.19602554 -0.056130845 -0.056623194
000100 91 3e 23 bd bc 91 e5 3c a3 c5 2f bd 80 05 f9 3d
       -0.03985459 0.028023593 -0.04291309 0.12159252
000110 be c2 84 be 3d cc f5 3d f1 29 7a bd 83 58 40 be
       -0.25929826 0.12001846 -0.061075155 -0.18783765
000120 5d c8 de 3d 3e 5d 67 bd 5a 34 43 be 66 66 24 be
       0.1087806 -0.056485407 -0.1906294 -0.16054687
000130 9c f8 c9 bd 01 31 d4 bc 23 4e 55 3e 95 33 31 be
       -0.098618716 -0.025902273 0.20830588 -0.17304833
000140 38 7b 20 be 85 c9 54 3e 34 0e 20 3d 19 ca 1e 3e
       -0.15672004 0.20779999 0.039076045 0.15506782
000150 48 b1 78 3e 45 d7 e2 3d 70 ce 8e be 6c 4a 3c 3e
       0.24286377 0.11076216 -0.27891874 0.18387765
000160 36 a6 7a be ba 98 7c 3d cd cf 15 bd c8 81 28 be
       -0.24477467 0.06166909 -0.036575127 -0.16455758
000170 1c 5a 06 3e 7e 05 82 bd 27 1e 9e 3d cf 66 81 3e
       0.13120311 -0.06348704 0.07720595 0.2527375
000180 69 e8 25 be 63 7a 83 bd e7 ce 23 be b7 c8 02 bd
       -0.16201939 -0.06419828 -0.15996896 -0.031929698
000190 3b 9b 3b 3e 4b 8e 83 be 27 62 6d 3e 08 b1 85 be
       0.18320934 -0.25694498 0.23181973 -0.26111627
0001a0 a5 2e 9c 3d 4f 8b 4a 3e 0d 3b b5 bd 69 8c 2f be
       0.07626084 0.19779705 -0.08849154 -0.17143406
0001b0 db 37 e1 bd bd f7 06 3e 85 9b 4b 3e 20 17 23 bc
       -0.10996982 0.13180442 0.19883545 -0.009954244
0001c0 e3 6d 38 be 6c 16 01 be bf 6e 83 be 62 be 81 3c
       -0.18010668 -0.1260621 -0.2567043 0.015837852
0001d0 ea 70 33 be 3c 00 5e 3e 37 dc 5f 3e 8a 8c 31 be
       -0.17523542 0.21679777 0.21861349 -0.17338768
0001e0 b7 c7 25 3e 48 1a 36 3d 88 8a be bc 56 f1 25 bb
       0.16189466 0.044458658 -0.023259416 -0.002532085
0001f0 8d 1c 03 3e f0 50 4a be 5e 62 19 bd d2 77 3d 3e
       0.1280386 -0.19757438 -0.037447326 0.18502739
000200 ac 6d 05 be c6 13 8b bd 5b bb 83 3e 4e b7 22 be
       -0.13030118 -0.06790881 0.25728878 -0.15890238
000210 79 65 2b 3e 05 d3 bc bc 3c 0c 67 3e bf 95 06 be
       0.16737927 -0.02304984 0.22563261 -0.13143061
000220 f5 d4 e5 bb e2 55 a4 bd d1 18 3e 3d d6 a3 bb 3d
       -0.007013912 -0.08024193 0.046410386 0.091621086
000230 2c 7b 50 3d ce a4 de bd 99 18 3f 3e 1f e4 c0 3b
       0.050898716 -0.10871278 0.18661727 0.005886569
000240 f1 d7 21 bd 64 a3 88 3e c3 eb 92 3e 50 69 ea bc
       -0.03951258 0.26687157 0.28695497 -0.02861467
000250 9e 8f 57 3c 29 df d2 3d 11 5e 7c 3d cf 93 94 3d
       0.0131568 0.10296471 0.061613146 0.07254755
000260 29 0e 95 3d a4 67 88 3e 09 27 f1 3d f4 12 de 3d
       0.072780915 0.26641572 0.117750235 0.10843459
000270 e1 93 2d bd 98 12 28 3e 75 06 12 3e 9a 23 10 3e
       -0.042377356 0.16413343 0.14260276 0.14076081
000280 a6 ce c4 bd aa 1c 9c bd 45 4c ef 3c 6b ab 25 be
       -0.096097276 -0.07622655 0.029211173 -0.16178672
000290 a3 75 09 3e 9c 32 2e 3e ba 09 24 be 07 0c b7 bd
       0.13423781 0.17011493 -0.16019335 -0.08937841
0002a0 de 54 96 bd 5e 86 fc 3d d3 09 45 3c ec ee e4 3d
       -0.07340406 0.12330316 0.012026268 0.11178383
0002b0 21 77 85 3e 0d 3f 7b be 47 41 0f 3e 28 6a cf bc
       0.2606745 -0.2453577 0.13989745 -0.025319174
0002c0 38 d7 2b be 7c b9 29 3d bc 41 d5 bd 08 08 b0 3d
       -0.16781318 0.041436657 -0.104129285 0.08595282
0002d0 0c db 5f bd 4a 72 a8 bc a2 e7 a1 3a 57 53 4b 3c
       -0.05465226 -0.02056231 0.0012352357 0.0124100065
0002e0 e8 6c 35 3e 0e e2 8b be 91 d1 2b 3d 31 0f ee bd
       0.17717326 -0.27320904 0.041947905 -0.11623991
0002f0 9d 9a e6 3a d6 de 47 3d 27 9e 9e bd 15 4f 8e bd
       0.0017593686 0.048796497 -0.07745009 -0.069486775
000300 d8 f6 93 ba f5 af 45 be e6 7a 6e bc 59 41 95 be
       -0.0011288775 -0.19305404 -0.014555668 -0.2915142
000310 a4 b9 59 3e fa a3 b2 bd 5e 27 c2 bd c4 e5 12 3d
       0.21262223 -0.08722682 -0.09480165 0.035863653
000320 a1 db 33 3e 51 fe 5a 3d da ef 8d 3c ef 41 3c bd
       0.1756425 0.05346519 0.017326284 -0.045961317
000330 e3 5d c4 3d e5 1c 35 be 70 b8 0e 3e f9 6c 57 be
       0.0958822 -0.17686804 0.13937545 -0.21037664
000340 83 36 91 3e 77 66 ff 3b 1c a0 69 3e ef 87 81 bd
       0.28361902 0.007794197 0.22814983 -0.063247554
000350 f2 c2 39 3e 03 bd 48 3e f1 04 13 be d5 66 2f be
       0.18140772 0.19603352 -0.14357354 -0.17129071
000360 89 70 b7 bd 16 7a 52 3d e9 a7 39 3e aa 1d 2a 3e
       -0.08957011 0.05138596 0.18130459 0.16612878
000370 79 e1 76 3d 94 e5 33 be 20 ab c3 bd 07 4d 1f 3e
       0.06027362 -0.17568046 -0.09554124 0.15556727
000380 7a 6b a8 3d 1a ba 0e 3e df ab ba 3d b1 ae 51 3e
       0.082236245 0.1393818 0.09114813 0.20476796
000390 97 bc 09 be e7 90 ad 3d a5 5b 9d bb fd 11 f9 3d
       -0.13450848 0.084749036 -0.0048021846 0.12161634
0003a0 4b 9d 7a bd e3 f4 47 be 68 31 4d be 75 33 24 bd
       -0.061185163 -0.1952701 -0.20038378 -0.040088136
0003b0 39 62 52 3e 4a be fe 3d 60 ec 3e 3e 2b d7 36 3e
       0.20545281 0.124386385 0.18644857 0.17855518
0003c0 35 4f c9 bd 1b e1 c2 bd 8f 21 2c 3e 8c c5 ab bd
       -0.09829561 -0.09515592 0.16809677 -0.083872885
0003d0 58 79 80 be 99 21 4c 3d 7a 9c 78 3d 9f 21 ec bd
       -0.25092578 0.04983673 0.060696103 -0.1152985
0003e0 cb 56 11 be 86 a1 6b 3e cc e0 33 3e 89 e0 ec bd
       -0.14193265 0.23010835 0.17566222 -0.11566264
0003f0 02 33 c7 bd a6 a7 2c bd 36 af a4 bd e7 6a c4 bd
       -0.09726526 -0.04215207 -0.08041231 -0.095907025

out.bias f4 [70]
000000 be 6c da 3d 81 10 6e 3e 95 5f b3 3c 83 3d ee 3d
       0.10665272 0.23248483 0.021896163 0.11632826
000010 3e 0d 6a bc bb 40 5e bd 7d 67 93 3c b4 54 c4 bd
       -0.014285384 -0.05426095 0.017993683 -0.09586468
000020 8a 5f 02 be ba e9 69 bd 4f ff 0d be d8 58 09 be
       -0.12731758 -0.057107665 -0.13866924 -0.13412797
000030 24 05 01 be 18 6e f7 bd 59 55 e7 3c 58 d4 90 bc
       -0.12599617 -0.120815456 0.02823894 -0.017679378
000040 7c fb 46 3e 93 c0 dc 3d 29 62 86 3d 6d e7 9a 3d
       0.19431871 0.10778918 0.06561691 0.07563672
000050 b8 47 44 bd af e3 a6 bc e4 de ae bd 32 6b 89 3d
       -0.04791996 -0.02037224 -0.08538607 0.06709899
000060 ec 1e 73 bd f4 47 21 3c b9 2d 71 be 05 ad 19 be
       -0.05935566 0.009843815 -0.23552598 -0.15007408
000070 05 52 f1 3d f5 00 b3 3d 64 ce e0 bd 03 f8 b5 3c
       0.11783222 0.08740417 -0.10976866 0.022212988
000080 18 d4 ac 3d 50 cc 00 3d 53 60 6a be 13 45 61 bd
       0.08438891 0.031444848 -0.22888307 -0.054997515
000090 45 0c c8 3d 7b 22 a0 3b 9c dc 43 be ff b6 63 be
       0.09767965 0.004886923 -0.19127125 -0.22237776
0000a0 0f ad b7 3d a0 4e c8 3b 39 57 a7 bd 8a 2c c1 3d
       0.08968555 0.0061128885 -0.08170933 0.09432323
0000b0 e1 5b a6 3d e8 95 11 3d 11 b0 25 3e 67 e9 8c 3e
       0.08122993 0.035543352 0.16180445 0.27521822
0000c0 2e 90 f6 bd ce 28 69 be 64 ea 66 3c 65 4d c9 bc
       -0.12039219 -0.22769472 0.014093969 -0.024573037
0000d0 1b 3d b7 bd 20 46 d6 bd fc 1f 0d bc c3 a6 32 bd
       -0.08947202 -0.10462594 -0.008613583 -0.043616068
0000e0 94 92 4b bd ca 5e 2c 3d 5d 09 be bd 98 55 a9 3d
       -0.049700335 0.042082585 -0.0927913 0.08268279
0000f0 3c 5f c7 bd 49 bf 6a bd 4e 0c 7e 3d 2e c5 91 3d
       -0.097349614 -0.05731133 0.062023453 0.07117687
000100 25 66 92 bd e3 0e e6 bc b5 85 8e bd b7 97 bc bd
       -0.07148389 -0.02808327 -0.06959096 -0.09208625
000110 3f f9 02 3d bf 6e 88 be
       0.03197598 -0.26646993
