tutorial/interim_data_test/models/model_30_29.pt (torch, 358785 bytes, 18 tensors)

encoderlayers.0.weight f4 [200, 170]
000000 87 e5 91 3c a8 67 03 bd 3c 95 62 3d 52 da 05 bd
       0.017809642 -0.032081276 0.055318102 -0.03267891
000010 b4 1c 81 3d 48 5c 41 bd b1 75 91 3d d5 64 b3 3d
       0.06304303 -0.047207147 0.07102526 0.087594666
000020 5c 89 fc bc 74 15 1b 3d 12 ef 26 bd 15 66 1e bd
       -0.030827217 0.037862256 -0.04075534 -0.03867157
000030 eb 41 8c 3d f5 18 af 3c c1 03 3d 3d 46 b1 c2 bc
       0.0684851 0.021374205 0.046146158 -0.023766171
000040 22 0c 98 bd cb bc 8d 3d 07 bf 4c 3c 61 5a c9 bc
       -0.07424189 0.06920775 0.012496716 -0.024579229
000050 28 6a 04 3d 18 5d 41 bd 45 c5 c9 3d b9 45 78 bd
       0.0323278 -0.04720792 0.09852079 -0.060613368
000060 74 da 8d 3d 46 45 6a bd 7f 2f 19 3d 12 a8 d1 3c
       0.06926432 -0.05719497 0.03739881 0.025592837
000070 51 9d af bc 92 c6 34 bd 32 03 b3 3c f1 64 aa bd
       -0.021437319 -0.044134684 0.02185211 -0.08320034
000080 09 78 fd 3d 5a 98 0b be 18 a2 76 3d ec 39 a9 bd
       0.123764105 -0.13632336 0.06021318 -0.08263001
000090 da c2 8b 3d 75 7d c1 bd 7a 65 1d 3d 13 d6 cf 3c
       0.06824274 -0.09447757 0.038426854 0.025370633
0000a0 de dd 8a bc 13 72 51 3d 9c aa 12 bd 53 89 42 bd
       -0.016951498 0.05113418 -0.035807237 -0.047494244
0000b0 e9 ea 84 3d c4 a4 26 bb 8d 4e 95 ba 3a bd 9d bd
       0.06490118 -0.0025427798 -0.0011391208 -0.07702108
0000c0 58 8b 95 3c db 4b 1e bd 13 79 82 bb ae 75 15 3d
       0.01825492 -0.03864656 -0.0039817183 0.03648918
0000d0 ed 4a 15 bc ad 87 3c 3d 58 9b de bb 2b 81 b6 bd
       -0.009112102 0.046027828 -0.0067934208 -0.089113556
0000e0 7f d3 38 3d dc 2a 71 3c d8 be 54 bd 0c 77 61 bd
       0.045123573 0.014719691 -0.051939815 -0.055045173
0000f0 e8 13 16 bd b0 dd 8b bc 5d 38 8a 3c 13 ba f9 bc
       -0.036640078 -0.017073482 0.01687258 -0.030484235
000100 a9 39 2e bd 3a 36 0b bd 31 d4 89 3d 29 2a 93 3d
       -0.042535458 -0.03398726 0.067299254 0.07185776
000110 50 02 18 3c 43 1b 59 bc 4d 4b 39 3b ff f6 5a bd
       0.009277895 -0.013251129 0.0028273643 -0.05345821
000120 5c b2 20 bd 92 54 20 bd ec be cc bc f7 cb 69 bd
       -0.039232597 -0.039143153 -0.024993382 -0.05707928
000130 8a a2 2a bd 05 08 22 bb 8f 46 75 bd bc c3 59 bd
       -0.041658916 -0.0024724018 -0.059881743 -0.053165182
000140 c1 16 4e bd 09 6d 6d bd 6f 81 64 bc d2 13 0b bd
       -0.05031467 -0.057965312 -0.013946875 -0.03395445
000150 a6 bc 55 3d 32 5a ea 3c 9e f0 5d 3c 91 6c 8b bb
       0.052181862 0.028607462 0.013546137 -0.0042548855
000160 a8 e1 3d 3c c8 7e fb bc 18 d7 7b 3d 29 a5 9a 3d
       0.011589445 -0.030700102 0.061484426 0.07551033
000170 cf bd 5f 3d be 4f c0 bc 21 e6 cf 3c 7b a1 7e bc
       0.054624375 -0.023475524 0.025378289 -0.01554143
000180 95 2a 6b 3d 79 a4 9a 3c 88 e4 30 3d d2 d9 ca ba
       0.057413656 0.018877255 0.043186694 -0.0015476292
000190 f8 10 ec 3c 41 54 27 bd 27 47 11 bd d7 86 2d bc
       0.028816685 -0.040851835 -0.035468247 -0.01059123
0001a0 38 39 8b 3d 16 3e 05 3d 35 61 c3 bc 27 24 79 bd
       0.06798023 0.032529913 -0.023850063 -0.060825493
0001b0 2f 89 e0 3c 14 f8 9b 3d a9 7c 93 3d e3 72 2d bb
       0.027409164 0.076156765 0.072015114 -0.0026466183
0001c0 70 96 bd 3c e4 58 21 bd 6d 9b 32 3d 77 bb 7e bd
       0.023143023 -0.039391413 0.043605257 -0.0621905
0001d0 51 7f 1d 3d 77 cc d8 3c 0a a4 34 3d b4 5d 8c 3c
       0.038451497 0.026464684 0.044101752 0.017134525
0001e0 b8 0a 45 3d 0d 70 9b 3d 0c 57 83 3d 80 68 5c bd
       0.048105925 0.07589731 0.06413087 -0.053810596
0001f0 a3 97 26 bd cc 50 a5 bd 73 1b 8f 3b ee f3 a6 3c
       -0.040671956 -0.080720514 0.004367286 0.020379987
000200 88 f0 e1 3c 73 46 3a 3c 6b ff c6 bc 7f c5 9c 3d
       0.027580515 0.011369335 -0.024291715 0.07654857
000210 d8 17 7b bd a2 ea 3c 3d e9 0f 38 3d 99 6e 16 3d
       -0.061302036 0.0461222 0.044937048 0.036726568
000220 dc c9 88 3d 2b 38 1a bd d1 e2 72 3d f7 9b a8 3c
       0.066791266 -0.037651222 0.05929834 0.020582182
000230 e2 26 8a 3c f3 64 c5 bc 88 d5 e1 39 1b 60 cd bc
       0.016864244 -0.024095988 0.00043074437 -0.02507024
000240 6d aa 51 3c c1 21 c0 3c 8b 7f e2 bb d2 fc f6 bc
       0.01279698 0.023453595 -0.006912177 -0.030149851
000250 59 11 f8 bc e9 ee 7a 3d fb 07 4f 3c e2 ac 86 3d
       -0.03028171 0.061263 0.01263618 0.065759435
000260 c6 61 ab 3d 2f 9c ef 3c 29 da 3a 3d 21 29 88 bd
       0.08368258 0.029249279 0.04561821 -0.0664847
000270 7a a0 f7 bc 9d 9c 86 bd 15 54 d5 bb 43 aa a2 3d
       -0.030227888 -0.0657284 -0.0065102675 0.07942631
000280 91 41 b1 3c f5 18 20 bd a0 1f 09 bb 76 2c 91 bb
       0.02163771 -0.0390863 -0.002092339 -0.004430349
000290 cb b9 6b bd b9 69 5f bd 4f 3f 44 bc d9 43 05 bc
       -0.057550233 -0.054544184 -0.011977985 -0.008133852
0002a0 d2 37 2c 3d 48 f0 17 bd a9 04 cc 3b 51 f7 ea bc
       0.042045422 -0.037094384 0.0062261415 -0.028682383
0002b0 f1 5c ce bd 81 bf 66 3d 33 6b 86 bd c5 2b e4 3d
       -0.10076321 0.056334976 -0.065634154 0.11141161
0002c0 a0 ae e3 3d 2a 36 94 bd 45 6e 8f bc d1 8c 5e bd
       0.111172915 -0.072368935 -0.017508635 -0.05433351
0002d0 ee 1a 0d bc f2 d5 25 bd 76 bb d1 3c f8 86 67 3d
       -0.008612378 -0.040487237 0.025602084 0.0565252
0002e0 95 c7 53 bd df 35 43 bc 3d 3f a6 bd ec 15 6d 3d
       -0.051704008 -0.011914699 -0.081175305 0.057882234
0002f0 4b e0 c5 3a 0b c4 b4 3b 9d 5d a7 bc 3f b5 9b bd
       0.0015096752 0.005516534 -0.02043038 -0.07602929
000300 92 cb 64 bc 81 d0 05 bd e2 57 48 3d fb 35 11 bc
       -0.013964551 -0.032669548 0.048911937 -0.008862968
000310 05 e9 59 bc 08 9f 0c bc 1e e9 97 bd d5 df 86 3d
       -0.013300185 -0.008582838 -0.074175104 0.06585661
000320 9f 67 9f 3d d7 00 84 bd 33 5c 9e 3c 45 79 26 3d
       0.07783436 -0.06445473 0.019331073 0.040642995
000330 f8 7d ed 3d 66 89 de bd 0f b2 3b bd d8 7d 86 bd
       0.11596292 -0.108660504 -0.045824107 -0.065669715
000340 69 09 f4 3c 2c 80 39 3d 6b a6 3c bb 61 20 4a 3b
       0.029789643 0.04528825 -0.0028785716 0.0030842053
000350 cb e0 cb bb f2 00 9e 3b 35 96 1e 3c 1b 69 0e bc
       -0.006221866 0.00482189 0.009679367 -0.008692051
000360 ef 98 91 3d e0 bc b6 3c 76 06 80 bc 1b 7b 7a 3c
       0.07109248 0.02230686 -0.01562808 0.01528814
000370 f4 92 11 3d f8 05 8b 3b cc d3 03 bd 0a ef e6 bc
       0.035540536 0.004242655 -0.032184407 -0.028190155
000380 9b c1 7e 3c 5d 0a 77 3a 31 c2 5c bc 9e 30 7b 3d
       0.015549089 0.00094238465 -0.013474033 0.06132566
000390 0a de 06 bd 38 cb 07 3d 9e 67 b8 bc 8b c1 a3 3d
       -0.032926597 0.03315279 -0.022510346 0.079959
0003a0 7b 4a 7a 3b de 45 cb bc 50 9c 49 bc 57 fc d8 3c
       0.0038191366 -0.024813589 -0.012305334 0.026487513
0003b0 26 72 4c bd cf 84 27 bc 1b 05 87 3c 99 ad 5d bd
       -0.049913548 -0.010224535 0.016481927 -0.054120634
0003c0 f6 6b 80 bc f7 80 0d 3d 8a 4d 66 3d 9c c8 55 3c
       -0.01567648 0.03454682 0.05622629 0.013048317
0003d0 17 56 c3 bc 85 f0 60 3d 24 5a a2 bc f4 fb 1f 3d
       -0.023844762 0.054916877 -0.019818373 0.03905864
0003e0 82 e9 8e bb 85 95 d9 3c 03 94 a1 3d f0 35 15 3d
       -0.0043613324 0.026560554 0.07889559 0.036428392
0003f0 44 77 1a 3d eb 58 52 3c c7 0f 74 3d 77 18 4e 3c
       0.037711397 0.0128385825 0.05958536 0.012579075

encoderlayers.0.bias f4 [200]
000000 cf e2 9c 3d bc bf 1c bd 5b 5c ee 3c 8b d1 4e 3d
       0.07660448 -0.03826879 0.029096773 0.050492804
000010 f6 90 ff 3b 2d 9d 23 3d 75 ae 26 bd b7 77 83 3c
       0.007799263 0.039944816 -0.04069372 0.016048295
000020 5c 39 a3 3b 31 8c 84 3d 85 ad 8b bd f7 75 a1 3d
       0.004981203 0.06472052 -0.068202056 0.07883828
000030 fd 32 23 3d eb f7 3e bc 5c 1b 99 3d 4e 10 54 bd
       0.039843548 -0.011655788 0.074759215 -0.05177336
000040 fb 9d f2 3c 53 ed fa bc b7 c9 66 3d 4d 23 9c 3d
       0.029616347 -0.030630743 0.056344714 0.076239206
000050 e7 fd 5b 3d d6 e1 14 3d 40 29 2c bd 33 7b 31 bd
       0.053708937 0.036348186 -0.042031527 -0.043330383
000060 ba 25 20 3d 35 d1 79 bd 40 45 45 bd 75 57 ed 3c
       0.03909848 -0.06099053 -0.048161745 0.028972367
000070 f0 eb 23 bd 49 bd 64 bd b8 8f a7 bd 23 36 8a 3d
       -0.04001993 -0.05584458 -0.08181709 0.06748607
000080 33 1e 6a bd 8a e6 8d 3d d1 72 8e bd e0 12 c0 bc
       -0.057157706 0.069287375 -0.06955493 -0.0234465
000090 df b7 8f 3d f8 18 21 bc 05 cc ab bb 21 17 00 3c
       0.070174925 -0.009832613 -0.005242827 0.007818014
0000a0 d0 8f a6 bb cf 32 88 bd 6c e6 06 3d 0a 03 2e ba
       -0.0050830618 -0.06650316 0.03293459 -0.0006638026
0000b0 65 dd 92 3d f6 3c 8a 3d b1 3a 91 bd 06 77 91 3c
       0.07171134 0.067499086 -0.070912726 0.01775695
0000c0 44 a4 86 3c 4d 50 85 3d 1e fb 49 bd 34 16 33 bd
       0.01643575 0.06509457 -0.04931175 -0.043722346
0000d0 ed 5e 1b 3d 78 02 8a ba 64 5a 0c 3d f2 4d dc 3c
       0.037932325 -0.00105293 0.03426589 0.026892636
0000e0 96 3e 02 bd f1 fb ad bb f1 e8 7e bb 0f b7 66 3d
       -0.031797968 -0.005309575 -0.0038896168 0.056326922
0000f0 ce 06 14 3d c2 ec a7 bc 25 4d a3 3c 64 36 90 bd
       0.036139302 -0.020498637 0.019934246 -0.07041624
000100 f9 f5 7e 3d 79 51 85 3d d2 31 b5 bc da 76 a5 bd
       0.062246297 0.0650968 -0.022118483 -0.0807931
000110 ed 6a 1a bd 97 8f 1b bd e0 a7 f9 3c db 75 11 3d
       -0.03769963 -0.037978735 0.030475557 0.035512786
000120 15 4f 34 3d 1b c0 87 3d d5 67 8a 3c ca 43 c3 3c
       0.04402073 0.06628438 0.016895214 0.023836035
000130 35 f0 a0 3d 5e 7f 14 3d f9 e7 6c bd 8a 4b 43 3d
       0.07858316 0.03625428 -0.057838414 0.04767946
000140 5f 23 85 3d 7d 9c 46 3d 5f b0 d6 bc b0 5d b7 3c
       0.06500887 0.048489083 -0.026207147 0.02238354
000150 9c f0 db bc 60 f6 f7 bc 73 52 b1 bb 78 ea 89 bd
       -0.02684813 -0.030268848 -0.00541144 -0.067341745
000160 5d ac 25 3d 4b 8e 42 bd 2e 31 8a 3d 47 98 65 3d
       0.04044758 -0.047498982 0.067476615 0.056053426
000170 a9 1b be bb c0 e1 37 3d 94 ab 23 bd 96 16 84 bd
       -0.005801637 0.044893026 -0.03995855 -0.064496204
000180 b8 c8 d4 bc 70 bd 97 3d f8 c2 02 bb 1c 52 3c bd
       -0.025974616 0.07409179 -0.0019952636 -0.045976743
000190 c3 bc 37 bd 7c 5b 80 bd 50 33 78 3d 65 83 92 3c
       -0.04485775 -0.06267449 0.06059581 0.01788492
0001a0 15 32 79 3d 78 48 e1 bc 70 11 8e 3c e7 85 2e 3d
       0.060838778 -0.027500376 0.0173423 0.042608168
0001b0 c1 e4 d2 3c 59 99 9d 3d 13 65 3e 3c c0 2f 4b bd
       0.025743844 0.07695264 0.011620778 -0.049606085
0001c0 fa 7c 59 3d 75 69 25 bd b2 4a 3b bd ec 9d 13 3d
       0.053097703 -0.040383775 -0.045725532 0.036039278
0001d0 b9 f3 1e 3d 0e c0 04 bd 5b b2 38 bb df e6 10 3c
       0.03880665 -0.03240972 -0.002818248 0.008844106
0001e0 03 27 8a 3d 44 57 8e 3c 89 0a 9a bb 6b ac e2 3b
       0.06745722 0.017375596 -0.004700963 0.0069175265
0001f0 ba a9 c2 bc 75 2f 5c 3d e1 84 74 bd c3 11 26 3d
       -0.023762573 0.053756196 -0.059697036 0.040544283
000200 08 6c f7 bc 6b d7 2f 3d f6 65 38 3d bf 5a 21 bd
       -0.03020288 0.042930048 0.045019113 -0.039393183
000210 90 10 1f bd 99 57 9f 3c cb 1d 73 3c 2a 79 9c 3d
       -0.038834155 0.01945095 0.014838646 0.07640298
000220 10 68 8f bd 2f 63 8b bd 4d 98 59 3d cb 1c b5 bc
       -0.0700227 -0.06806027 0.05312376 -0.022108456
000230 d2 dd 89 3c 31 03 c5 bc e7 48 d2 3b 83 87 91 bd
       0.016829405 -0.024049373 0.006417382 -0.07105925
000240 db fa ae 3d 28 ca e8 bc 2e 68 d0 bb 2c 75 92 3c
       0.08543941 -0.028416708 -0.0063600754 0.017878138
000250 68 4b f7 3c ea 52 43 3d bf 5c 25 bd ca 8f 8b 3d
       0.030187324 0.047686495 -0.040371653 0.06814535
000260 1e 98 0c bd 1a 3e 56 3d b3 2d 8c bd 5b a3 92 3d
       -0.034324758 0.05230532 -0.06844654 0.07160064
000270 4a 89 c0 3c 26 b5 f6 bc 5b 90 6e ba ec a2 7a bd
       0.023502965 -0.030115675 -0.000910049 -0.06119053
000280 25 c8 69 bd bb 4a ea bc b3 4c d8 3c 2f 20 43 3d
       -0.05707564 -0.028600087 0.02640376 0.047638115
000290 66 6e 09 bd 50 1d de ba 4b a0 54 3d 96 5f 2a bd
       -0.03355255 -0.0016945992 0.05191068 -0.041595064
0002a0 28 0d 7a 3c 20 ef 42 3d f1 d0 90 bd b9 5a 4c bd
       0.015261926 0.04759133 -0.070711024 -0.049891207
0002b0 b0 9c 9f 3d 7d bc 22 bd 2d 62 e0 3c 7b 31 90 bd
       0.07793558 -0.039730538 0.027390564 -0.07040688
0002c0 fd c1 b2 3c cc e9 dd bc 48 ef 37 3d f3 b7 61 3c
       0.021821016 -0.027089022 0.04490593 0.013776767
0002d0 fa 31 79 3c b8 7c 41 3d 23 aa 4a bd 66 2d 42 bd
       0.015209669 0.04723808 -0.04947866 -0.047406577
0002e0 6b 4c 62 bd 0e e2 a9 bd 2a 48 b6 bb 3b 4d e2 bc
       -0.05524866 -0.0829507 -0.005562802 -0.027624717
0002f0 49 e5 26 bd be 18 5a bd 2c dd 80 bd df d9 ef 3c
       -0.040746007 -0.053246252 -0.06292185 0.029278694
000300 9f 29 ad 3b 43 b4 ad bd d9 26 3d 3d eb dc 2f 3d
       0.0052845026 -0.08481648 0.046179626 0.042935293
000310 e2 93 37 bd 29 6c 50 3d c7 28 82 3d c3 15 e0 3c
       -0.044818766 0.0508844 0.06355434 0.027354127

encodernorms.0.weight f4 [200]
000000 45 6e 88 3f fe bf 8e 3f 09 4d 8d 3f d0 cc 8e 3f
       1.0658652 1.1152341 1.1039134 1.1156254
000010 fa 0c 8f 3f d2 e4 86 3f 11 4e 8b 3f b0 b0 89 3f
       1.1175835 1.053858 1.0883199 1.0757046
000020 a3 69 8a 3f 98 65 8b 3f 18 e9 8a 3f d6 42 8d 3f
       1.0813488 1.0890379 1.0852385 1.1036022
000030 db f1 8d 3f f0 0f 8c 3f e8 fe 87 3f 56 2e 90 3f
       1.1089433 1.0942364 1.0624666 1.1264141
000040 a9 c1 88 3f ab 4e 8f 3f 53 3b 8d 3f 04 2a 8e 3f
       1.06841 1.1195883 1.1033729 1.1106572
000050 74 9d 8b 3f ec dc 8c 3f 53 e7 81 3f 55 0b 86 3f
       1.0907426 1.100492 1.014872 1.0472208
000060 6d 34 8f 3f e0 39 8b 3f c9 00 88 3f 67 ac 8a 3f
       1.1187874 1.0877037 1.062524 1.0833863
000070 89 d7 88 3f 21 10 8b 3f 15 f7 8c 3f f4 13 90 3f
       1.0690776 1.0864297 1.1012903 1.1256089
000080 af 01 88 3f f9 6b 8c 3f 6d d8 81 3f fb 29 91 3f
       1.0625514 1.0970451 1.0144173 1.1340936
000090 83 a1 8a 3f c0 20 90 3f 97 5c 8e 3f d8 b4 8f 3f
       1.083054 1.1259995 1.1122006 1.1227064
0000a0 b0 4a 8c 3f b8 3d 8c 3f c6 a7 8a 3f 3d 01 8e 3f
       1.0960293 1.0956335 1.083245 1.1094128
0000b0 57 1b 8d 3f 56 cb 87 3f 2f b5 8a 3f df fb 91 3f
       1.1023968 1.0608928 1.0836543 1.140499
0000c0 c2 e7 8e 3f f6 c8 8a 3f 31 d7 88 3f 6f bd 8c 3f
       1.1164477 1.0842578 1.0690671 1.099531
0000d0 cb 9d 8e 3f 71 eb 8e 3f 44 9d 86 3f 5c 7e 8f 3f
       1.1141905 1.1165601 1.0516744 1.1210437
0000e0 e4 32 8c 3f 96 45 8c 3f 11 17 8c 3f 78 e2 8a 3f
       1.095303 1.0958736 1.0944539 1.0850363
0000f0 c3 ce 8c 3f 4e c2 87 3f 2d 7c 8b 3f 86 0e 8d 3f
       1.1000599 1.0606172 1.089727 1.1020057
000100 95 7d 8d 3f 1b ee 8a 3f 1e c9 8e 3f 15 8c 8e 3f
       1.105395 1.0853914 1.1155126 1.11365
000110 7c 04 8c 3f 6a d0 8d 3f d0 6c 91 3f e8 52 87 3f
       1.0938869 1.1079228 1.1361332 1.0572176
000120 59 eb 8e 3f 8e 14 8c 3f e0 bf 89 3f 61 d4 8e 3f
       1.1165572 1.0943773 1.0761681 1.1158563
000130 1e 8d 89 3f ce c3 8a 3f 81 1e 8e 3f 19 3f 86 3f
       1.074619 1.0841005 1.1103059 1.0488006
000140 19 3d 8e 3f a6 f7 8b 3f f1 ba 92 3f f7 e7 8c 3f
       1.1112396 1.0934951 1.14633 1.100829
000150 65 a2 8a 3f 48 26 8c 3f 8f af 8b 3f d9 97 8d 3f
       1.0830809 1.0949183 1.0912951 1.1061965
000160 b1 96 8c 3f 67 08 8f 3f 41 82 8e 3f 89 54 8e 3f
       1.0983487 1.1174439 1.11335 1.1119548
000170 96 87 8b 3f 0f ce 8d 3f e1 ea 83 3f a2 d8 8a 3f
       1.0900753 1.1078509 1.0306054 1.0847361
000180 4f ed 8c 3f 3d cc 8f 3f 77 08 90 3f 40 e3 8f 3f
       1.1009921 1.1234204 1.1252583 1.1241226
000190 f5 e3 8c 3f b0 da 89 3f bf f5 89 3f 41 a1 8b 3f
       1.1007067 1.0769863 1.0778121 1.0908586
0001a0 41 fa 8e 3f 05 60 8d 3f 73 65 8a 3f 3e 87 8c 3f
       1.1170121 1.1044928 1.081221 1.0978773
0001b0 f4 2c 90 3f b7 30 8a 3f d3 25 8c 3f ec c4 82 3f
       1.1263719 1.0796117 1.0949043 1.0216346
0001c0 36 10 8b 3f 59 4d 91 3f b2 73 88 3f e8 aa 8e 3f
       1.0864322 1.135173 1.0660307 1.1145906
0001d0 2c 9e 8f 3f 36 8b 8c 3f 62 b3 8b 3f 65 9b 8c 3f
       1.1220145 1.0979984 1.0914118 1.0984923
0001e0 7a 12 8e 3f 70 c4 89 3f 4c 7e 8e 3f bc 98 8e 3f
       1.1099389 1.0763073 1.1132293 1.1140361
0001f0 3c 39 8e 3f 06 19 8e 3f d0 e3 8d 3f a0 0d 90 3f
       1.1111217 1.1101387 1.1085148 1.1254158
000200 19 44 8b 3f 4b 94 8f 3f e7 0c 8b 3f 27 25 8e 3f
       1.0880157 1.121713 1.0863312 1.1105088
000210 df 64 8b 3f 6c ed 85 3f c4 c5 8e 3f 73 5b 8c 3f
       1.0890158 1.046308 1.1154103 1.0965408
000220 7f 70 8a 3f 61 4f 8d 3f 12 21 90 3f 33 6e 8b 3f
       1.0815581 1.103985 1.1260092 1.0893005
000230 b7 98 83 3f 9a 83 8b 3f 17 5b 8a 3f 12 c0 90 3f
       1.028098 1.0899537 1.0809048 1.1308615
000240 d0 72 89 3f ec 79 90 3f 23 d4 87 3f 8a 69 8f 3f
       1.0738163 1.1287208 1.0611614 1.1204083
000250 a1 aa 88 3f d6 99 83 3f 9a 87 8a 3f 58 93 8c 3f
       1.0677072 1.0281322 1.0822632 1.0982466
000260 03 c2 8c 3f 97 d5 8d 3f bc b3 8a 3f 4d 6f 8e 3f
       1.0996708 1.1080807 1.08361 1.1127716
000270 a7 9d 87 3f 51 89 8b 3f bf 17 83 3f 43 f8 89 3f
       1.0594987 1.0901281 1.0241622 1.0778888
000280 92 80 8d 3f 8a 47 8f 3f ca 67 85 3f 8f e6 8e 3f
       1.1054862 1.1193707 1.0422299 1.1164111
000290 50 5c 88 3f ce a1 8f 3f 94 1d 8e 3f a4 5d 8f 3f
       1.0653172 1.1221254 1.1102777 1.1200452
0002a0 ec 43 8c 3f 9d 3b 8c 3f 85 13 8b 3f 70 f8 84 3f
       1.0958228 1.0955693 1.0865332 1.0388317
0002b0 4b 15 8d 3f 51 0f 8d 3f 0e a8 89 3f f4 4a 8f 3f
       1.1022123 1.1020299 1.0754411 1.1194749
0002c0 ae 05 8b 3f 7a 06 8a 3f d3 1f 8c 3f 6f ab 8c 3f
       1.0861108 1.0783226 1.0947212 1.0989817
0002d0 ae c7 8f 3f ce 9f 86 3f 83 2a 90 3f b1 bb 8c 3f
       1.1232812 1.0517519 1.1262974 1.0994779
0002e0 46 9e 8a 3f 3b ae 83 3f b0 09 8b 3f 6a f8 8b 3f
       1.0829551 1.0287546 1.0862331 1.0935185
0002f0 ad cd 8d 3f 0b 18 94 3f e8 cf 8b 3f ba e3 91 3f
       1.1078392 1.1569837 1.0922823 1.1397622
000300 2c 1d 81 3f d7 09 8d 3f 0e 96 90 3f 70 a0 8f 3f
       1.0087028 1.1018628 1.1295793 1.1220837
000310 23 ed 83 3f c2 d9 8b 3f 1f 60 92 3f b1 19 8e 3f
       1.0306743 1.092583 1.1435584 1.110159

encodernorms.0.bias f4 [200]
000000 8e c4 fa be 60 36 f2 be 28 3b 02 bf 09 48 bc be
       -0.48978084 -0.4730711 -0.50871515 -0.36773708
000010 bc 3e c5 bd ff 55 0c 3e 8e b8 b6 3e e7 42 a4 be
       -0.09631106 0.1370468 0.3568768 -0.32082292
000020 00 7c da 3e ec 25 a3 3e 92 06 80 3e 72 52 b8 3e
       0.4267273 0.3186487 0.25005013 0.360004
000030 5b 28 a5 3e 03 df 07 3d cd 7f dc be 63 c3 c7 3e
       0.3225735 0.033171665 -0.43066254 0.39016256
000040 38 02 1c be a6 4c 36 3e a4 78 fd be f3 6a 62 be
       -0.15235221 0.17802677 -0.49506104 -0.2211111
000050 6e b8 f9 bd 4f af 81 bb 17 bb d7 be 43 e2 e1 be
       -0.1219338 -0.003957666 -0.42134926 -0.44117936
000060 b9 cf e2 be 11 48 ff 3e ce 49 f8 be 16 18 9f 3e
       -0.44299105 0.4985967 -0.48493809 0.31073064
000070 85 97 83 3d 38 15 fb be 04 40 80 be 1b e1 c3 3e
       0.064253844 -0.49039626 -0.2504884 0.3825768
000080 ea 1d 7a 3e 5d 49 8f 3e b9 ca fe be 9d c0 b6 3e
       0.24425474 0.2798566 -0.4976404 0.35693827
000090 eb 5f ac be 1e a8 95 3d ec ca d0 3d ac 98 f0 be
       -0.3366693 0.073074564 0.10194954 -0.4699148
0000a0 69 bd 7a 3e f5 e6 8d be 31 c6 c6 be 95 72 e8 3e
       0.24486317 -0.2771527 -0.38823083 0.4539992
0000b0 77 78 20 be f3 97 da be 05 1f c3 3e 0c d4 d0 3e
       -0.15670954 -0.42694053 0.38109604 0.4078678
0000c0 b2 91 ed be 82 9b bb be 4b 0b e4 bd 42 c0 02 3f
       -0.4640022 -0.3664208 -0.111349665 0.5107461
0000d0 35 30 d8 be 42 92 52 3d da e7 ce be bc ad a9 3e
       -0.4222428 0.051409014 -0.40411264 0.3314036
0000e0 9a a1 d6 be b4 67 98 3e 34 e3 9e 3d 86 71 f7 be
       -0.41920167 0.2976662 0.07758179 -0.483288
0000f0 77 f0 93 be 6d 84 f6 be c6 e7 ad bd 07 bf b4 be
       -0.28894398 -0.48147908 -0.08491473 -0.35301992
000100 37 0d db be 48 ad c6 3e 7b 1c 8e bd 73 2a 0c bd
       -0.4278352 0.38804078 -0.06939026 -0.03422017
000110 99 bc eb 3d a4 e3 c1 be 9d 36 07 bd 02 7c fc be
       0.115105815 -0.3786899 -0.033011068 -0.4931336
000120 c1 d3 82 bd 16 da cf be 23 8c b3 be 96 0f 95 be
       -0.06388045 -0.40596074 -0.35067853 -0.29113454
000130 83 e7 a3 be 49 0c 81 be 07 fe 23 be 02 02 39 be
       -0.32012567 -0.25204685 -0.16014872 -0.18067172
000140 30 f9 bf be b5 54 e4 be 86 ef 05 bf 1b a1 4e 3c
       -0.37494802 -0.44595876 -0.5231861 0.012611653
000150 41 39 dc be f5 82 d5 3e ed 13 b1 be 6e 5c a7 3e
       -0.4301243 0.41701475 -0.34585515 0.32687706
000160 20 d8 03 bf d4 88 af 3e ae 5d 68 3e fc ce e0 be
       -0.51501656 0.3428408 0.22691986 -0.43907917
000170 de 67 83 3e 21 a4 bf be 2c 75 94 3e 92 05 f6 3e
       0.25665182 -0.37429908 0.28995645 0.48051125
000180 5c a4 fd bd c7 c4 91 b9 8c 2e 25 3c e4 0e 04 bf
       -0.12384865 -0.00027803166 0.010081898 -0.5158522
000190 0e fb d8 3e 0f 28 b3 3e 75 a6 27 bd 6b a8 a5 3d
       0.4237904 0.349915 -0.04093023 0.08088764
0001a0 4b 91 df be 91 59 40 3e bf 2f f8 be 22 0d f9 be
       -0.43665537 0.18784167 -0.48473927 -0.48642832
0001b0 5f 18 ba 3e 62 a2 6b be 31 3f d6 be 10 d1 e8 3e
       0.3634672 -0.23011163 -0.41845086 0.45472002
0001c0 4e d4 86 be cd 27 3a be 8a c1 c1 be 09 97 5e 3d
       -0.2633385 -0.18179245 -0.3784297 0.054343257
0001d0 d8 46 0e 3e b9 e9 ef 3e b6 35 e3 be 44 b6 d6 3c
       0.13894212 0.46858004 -0.44376916 0.026209958
0001e0 96 1c ce 3e 46 ec b2 3e 47 3f d0 3e d6 ae 74 be
       0.40256184 0.34945887 0.40673277 -0.2389482
0001f0 c1 0f 56 bd 89 9d 98 3e 05 d9 5b be ac f1 68 3e
       -0.052261118 0.2980769 -0.21469505 0.2274844
000200 67 f0 f2 be 41 ef 84 3e e8 70 9b 3e f7 b4 81 3e
       -0.47449037 0.25963786 0.30359578 0.25333378
000210 e4 60 f6 be 7f 04 ad 3e a4 88 43 be 1a 86 ec 3e
       -0.48120797 0.33792493 -0.19095093 0.4619606
000220 50 35 93 be 80 2a e1 be ed a6 ec be b0 02 ca be
       -0.28751612 -0.43977737 -0.46221104 -0.39455175
000230 97 f9 fd 3e 83 c8 97 be ea 22 f9 3e 0b f0 dc 3e
       0.49604484 -0.29645166 0.4865945 0.43151888
000240 cd ed e2 be f4 27 81 be 2d ba 08 3f 4c 8b bb 3e
       -0.44322053 -0.25225794 0.5340908 0.36629713
000250 ee 1c f0 3e 83 22 7b be 2f fa f1 3e e3 8e 0c 3e
       0.46897072 -0.24524884 0.47261187 0.13726382
000260 78 ee db 3e 10 3b 96 be 79 3d ed be 06 44 d3 3e
       0.42955375 -0.29341936 -0.46335962 0.41262835
000270 f7 1f 85 3e 3f 78 d9 bd 5e e9 be be cd 8b bd be
       0.2600095 -0.10618638 -0.3728742 -0.37020722
000280 39 fc b0 be 89 7c 86 be 72 00 f4 3e 36 2d 84 bd
       -0.3456743 -0.26266888 0.4765659 -0.06453936
000290 b9 aa b4 3e b6 b9 34 3e 05 fe e6 be 5b 84 eb be
       0.352865 0.17648968 -0.45115677 -0.45999417
0002a0 c5 44 e6 be 6e 38 20 be a0 ce e5 be a5 38 c2 be
       -0.44974342 -0.15646526 -0.44884205 -0.3793384
0002b0 39 15 c2 3e bb ea 4e 3e 20 fd 78 be 4e a6 93 3e
       0.37906817 0.2020673 -0.2431531 0.28837818
0002c0 44 e0 e2 3e 4d db fb be 4f 4c ce 3e fd 76 85 be
       0.44311726 -0.4919075 0.40292594 -0.26067343
0002d0 6d 89 25 be b5 30 d1 be fa a8 72 3e 80 08 04 be
       -0.16165705 -0.40857473 0.23697272 -0.12893867
0002e0 9e 46 82 3e 8c de 5b 3e 07 74 d0 be 1b 70 7b be
       0.25444502 0.21471614 -0.40713522 -0.24554484
0002f0 48 5d ad be 84 6f 15 be a3 e6 fd be 6d 62 ea be
       -0.3386023 -0.14593321 -0.49590024 -0.45778218
000300 33 aa cb be 28 0c 05 3f 83 f1 01 bf dd 9e 77 3e
       -0.3977829 0.51971674 -0.5075914 0.24181695
000310 c3 e1 04 bf 47 9e d6 be e4 ff fc be 61 ad b6 be
       -0.51906985 -0.4191763 -0.4941398 -0.35679153

encodernorms.0.running_mean f4 [200]
000000 51 af b1 3e 46 8e 8e 3e 44 13 a0 3e 6b a1 8f 3e
       0.34704068 0.2784292 0.31264699 0.2805284
000010 ad 36 81 3e f0 1a a3 3e 6f 10 9e 3e 77 30 a2 3e
       0.25237027 0.3185649 0.30871913 0.316776
000020 e1 dc 99 3e 57 9a 77 3e 1c 21 8c 3e 34 b1 b0 3e
       0.3005133 0.2417997 0.2736901 0.34510195
000030 2a 81 8c 3e 45 38 b0 3e cf a5 ab 3e 15 20 42 3e
       0.27442294 0.3441793 0.3352494 0.18957551
000040 9c 41 a8 3e 1f 67 7f 3e 22 d4 87 3e b8 59 9c 3e
       0.32862556 0.24941681 0.26529032 0.305372
000050 a0 2f 93 3e 86 19 a9 3e 77 1f 48 bb 0b ac 9a 3e
       0.28747272 0.33027285 -0.0030536333 0.30209383
000060 6b 40 68 3e 98 68 83 3e 12 4c 88 3e e2 3f 7b 3e
       0.22680824 0.25665736 0.26620537 0.24536088
000070 f5 c9 9b 3e b6 c2 8c 3e a0 d9 7e 3e c9 50 bf 3e
       0.30427518 0.27492303 0.24887705 0.37366322
000080 dd 32 71 3e 2f 63 ad 3e 5c 8b 4b bb a4 68 99 3e
       0.23554559 0.33864734 -0.0031058406 0.29962647
000090 fc d9 ca 3e ab 53 64 3e b6 ef 8b 3e 04 3a 87 3e
       0.39619434 0.22297542 0.27331322 0.2641145
0000a0 b4 26 8c 3e ad a4 96 3e 8f bc d7 3e 70 a2 94 3e
       0.27373278 0.29422513 0.42136046 0.2903018
0000b0 86 41 98 3e a1 fb a7 3e 07 0a c1 3e cf 9d d6 3e
       0.2973749 0.32809165 0.37702963 0.41917273
0000c0 12 8b 8c 3e 7d f9 91 3e 5d a6 c9 3e 01 c6 a9 3e
       0.27449852 0.28510657 0.39384738 0.33158877
0000d0 a7 92 ca 3e fd 8e 99 3e 8d 5e b6 ba 36 6f 91 3e
       0.39565012 0.29991904 -0.0013913676 0.2840516
0000e0 49 55 a8 3e 70 d7 8b 3e bd 83 ab 3e 33 db a7 3e
       0.32877567 0.27312803 0.33498946 0.32784423
0000f0 4d 02 6d 3e 76 3f ad 3e 30 1d 7e 3e ef b3 9d 3e
       0.23145409 0.3383748 0.24815822 0.3080134
000100 94 38 8b 3e 43 2c db 3e ec 0c 8c 3e f6 0f 95 3e
       0.27191603 0.42807207 0.2735361 0.2911374
000110 81 f1 94 3e 54 a2 b5 3e 17 78 6c 3e 9c c0 bc 3e
       0.29090503 0.3547541 0.23092686 0.368657
000120 dc ff 92 3e 55 8d a5 3e 60 83 a4 3e a0 f0 c8 3e
       0.2871083 0.3233439 0.3213148 0.39246082
000130 f6 34 ac 3e b0 87 bc 3e 4c 1c 91 3e 44 c8 f1 ba
       0.33634156 0.3682227 0.283419 -0.0018446525
000140 51 6f 9c 3e 37 c3 92 3e 60 13 af 3e fa 9f 77 3e
       0.30553678 0.28664562 0.3419447 0.2418212
000150 1c eb 9a 3e f9 a8 87 3e cd c4 90 3e cf 20 91 3e
       0.302575 0.26496103 0.28275147 0.28345343
000160 a7 41 b1 3e 32 91 96 3e e1 ec 8b 3e ae 4e 8a 3e
       0.346204 0.2940765 0.27329162 0.27013153
000170 ac 62 5e 3e aa 2b 7f 3e 34 15 8f 3e bd 8c 84 3e
       0.21717328 0.24919 0.27945864 0.25888625
000180 db 12 7c 3e fd 19 81 3e d0 d7 95 3e 42 05 9c 3e
       0.24616568 0.2521514 0.29266214 0.3047276
000190 e6 70 b9 3e 8b 17 81 3e 32 5a 95 3e 2c 60 6d 3e
       0.36218947 0.25213274 0.29170376 0.23181218
0001a0 78 2f 9f 3e e7 3c c1 3e 35 3f ae 3e 09 be 97 3e
       0.31090903 0.37741777 0.34032598 0.29637173
0001b0 5f 5f 91 3e d4 f4 79 3e 25 c4 b8 3e 40 4a 2f bb
       0.28393075 0.24409801 0.36087146 -0.0026747137
0001c0 4a 2d 89 3e 2b 8e be 3e 85 3a 78 3e 97 6c 8c 3e
       0.26792365 0.3721784 0.24241073 0.27426597
0001d0 9d 63 92 3e ba 82 9e 3e cf 41 c0 3e d8 35 af 3e
       0.28591624 0.3095911 0.37550208 0.34220767
0001e0 32 12 a0 3e 88 a9 a3 3e 81 e5 a5 3e 25 02 97 3e
       0.31263882 0.3196528 0.3240166 0.29493824
0001f0 2f e0 9e 3e 86 dc 93 3e 3d ff 9d 3e d0 36 93 3e
       0.31030414 0.28879184 0.30858794 0.28752756
000200 0a 2c 8b 3e 6c 0e a0 3e ef 87 a2 3e 08 d2 92 3e
       0.27182037 0.31261003 0.31744334 0.28675866
000210 cc 4f 85 3e 1d 28 96 3e 56 8e 8b 3e a2 61 6e 3e
       0.26037443 0.2932748 0.2725703 0.23279431
000220 26 01 9c 3e ff be 83 3e 21 0a 90 3e 9c 3e 5c 3e
       0.30469626 0.25731656 0.28132728 0.21508259
000230 90 d9 75 bb 3e c6 b8 3e 1b 1b aa 3e f0 7a 98 3e
       -0.003751371 0.36088747 0.33223805 0.29781294
000240 58 54 5f 3e f2 f7 85 3e a5 bf ab 3e d5 73 8d 3e
       0.21809518 0.2616573 0.3354465 0.27627435
000250 4e 38 87 3e 65 71 fa 3d 91 a1 b5 3e a1 cc 99 3e
       0.26410145 0.122286595 0.35474828 0.30038932
000260 24 41 ae 3e 65 ce 95 3e 6a 5e 65 3e 1a eb 8e 3e
       0.34034073 0.2925903 0.22399297 0.27913743
000270 89 e0 8e 3e cb bb 95 3e ac 6d d3 bb d7 7f a8 3e
       0.27905682 0.29244837 -0.006452283 0.32910034
000280 0d be a4 3e d9 35 8d 3e d7 af 85 3e b9 48 75 3e
       0.32176247 0.27580145 0.26110718 0.23953523
000290 e3 09 90 3e a9 d2 be 3e 14 90 98 3e cd 39 aa 3e
       0.28132543 0.37270096 0.29797423 0.33247223
0002a0 2f 90 90 3e 23 03 6e 3e a2 a7 9c 3e 3c c6 af ba
       0.28235003 0.23243384 0.30596644 -0.0013410519
0002b0 f4 b3 84 3e 9b 54 8d 3e 48 a4 a5 3e e8 6c 74 3e
       0.25918543 0.2760361 0.323519 0.2386967
0002c0 95 19 58 3e e2 8e 7b 3e 3e 1b 7c 3e d4 a2 85 3e
       0.21103509 0.24566224 0.24619767 0.2610079
0002d0 7b c9 91 3e f4 f9 b6 3e 8e b9 78 3e de 4c 7f 3e
       0.2847403 0.35737574 0.24289533 0.24931666
0002e0 d9 0e 75 3e a0 40 13 bb 0c 0c ca 3e ed 0e a0 3e
       0.23931445 -0.002246894 0.39462316 0.31261387
0002f0 ec 75 60 3e 8e 9e 91 3e 6f a7 9d 3e 40 1b 8b 3e
       0.21919984 0.2844128 0.30791804 0.27169228
000300 65 13 b9 3b 2b 86 9b 3e 17 f1 8a 3e 9a 6f aa 3e
       0.005648064 0.303758 0.27137062 0.3328827
000310 15 79 83 3c f3 81 b2 3e 20 66 97 3e 88 2a 9c 3e
       0.016048947 0.34864768 0.29570103 0.305012

encodernorms.0.running_var f4 [200]
000000 fa f0 13 3e 9c 96 d6 3d 09 99 00 3e b4 79 bd 3d
       0.14447394 0.10477945 0.12558378 0.09251729
000010 aa 09 c7 3d 41 ef 0e 3e e5 07 e9 3d 5f 7e 01 3e
       0.0971864 0.13958456 0.11378459 0.12645863
000020 d1 eb f6 3d 46 1d bf 3d 4f 8a e5 3d 26 2e 01 3e
       0.12056697 0.09331755 0.11208021 0.1261526
000030 f0 4a cf 3d 33 45 09 3e 0b d5 1a 3e 53 a3 9e 3d
       0.10121715 0.13405304 0.15120332 0.077459954
000040 83 24 f8 3d a4 4e ca 3d 6b 94 c1 3d 3d 2d 05 3e
       0.12116339 0.09878281 0.094521366 0.13005538
000050 f0 02 e5 3d 0e 34 dc 3d 5e ca 7e 3a ca 42 00 3e
       0.11182201 0.10752116 0.0009719486 0.12525478
000060 6d a0 b5 3d 0e 60 bb 3d 7b e4 d3 3d ea de b1 3d
       0.088684894 0.0914918 0.103463136 0.086850956
000070 bb 65 f7 3d da a7 ef 3d 0d 12 c5 3d fd 1f 1f 3e
       0.120799504 0.11701937 0.096225835 0.15539546
000080 2e 46 a6 3d 3e 5b 07 3e c0 23 57 3a f5 d7 d5 3d
       0.081188545 0.132184 0.0008206926 0.10441581
000090 93 ea 21 3e 84 cb ac 3d 8e cb c0 3d 34 64 d8 3d
       0.15812139 0.08437255 0.09413825 0.10565987
0000a0 f8 2b c0 3d 84 35 f3 3d ca f8 3a 3e 8d 62 da 3d
       0.093833864 0.11875442 0.18258968 0.10663328
0000b0 ea d1 dd 3d 79 b9 f0 3d 87 78 1f 3e f7 fb 28 3e
       0.108310536 0.11754126 0.15573321 0.16502367
0000c0 de d5 de 3d c1 66 c9 3d 0d 69 1a 3e 31 08 01 3e
       0.10880636 0.09834052 0.15079136 0.12600781
0000d0 6f 24 24 3e 6b 45 c7 3d c8 65 94 3a 45 cd d9 3d
       0.16029523 0.09730037 0.0011321837 0.10634855
0000e0 73 f2 15 3e 15 fa cc 3d 43 2a fe 3d 52 96 08 3e
       0.14643268 0.10008637 0.124104045 0.13338593
0000f0 10 38 df 3d 3b c2 0e 3e 02 84 a6 3d 03 91 ee 3d
       0.10899365 0.1394128 0.08130647 0.116487525
000100 12 96 e8 3d 6e 65 38 3e c9 b2 ca 3d 8e 96 bb 3d
       0.11356749 0.18007442 0.09897382 0.091595754
000110 b9 86 e8 3d 66 d1 0d 3e 89 1c aa 3d a2 59 13 3e
       0.11353821 0.1384941 0.08306224 0.14389661
000120 62 7c c6 3d 60 14 12 3e a3 42 db 3d de f2 23 3e
       0.09691693 0.14265585 0.10706069 0.16010615
000130 0e cf 06 3e 7f aa f7 3d b5 d3 cf 3d 23 5a ae 3a
       0.13164923 0.120930664 0.10147802 0.0013302009
000140 28 c4 09 3e 6d 61 de 3d a6 e2 f3 3d 17 9f b9 3d
       0.13453734 0.10858426 0.11908464 0.09063547
000150 1d 88 00 3e 79 e3 dc 3d 28 ab cd 3d 76 b6 c7 3d
       0.12551923 0.107855745 0.10042411 0.097515985
000160 30 ca 00 3e 52 4a e3 3d 8f 01 df 3d 0d 58 bb 3d
       0.12577128 0.1109816 0.10888969 0.09147654
000170 b2 76 b2 3d c2 a5 dc 3d aa 4e f2 3d d7 32 be 3d
       0.087140456 0.10773803 0.1183141 0.09287041
000180 b6 64 d0 3d 3c 29 b7 3d d5 bb 12 3e 87 a0 d5 3d
       0.10175459 0.08943412 0.14329465 0.10431009
000190 05 c6 1d 3e 66 3a cf 3d c8 11 f1 3d 1f fe c3 3d
       0.1540757 0.101185605 0.1177097 0.09569954
0001a0 21 e2 d6 3d 4c 6c 02 3e f8 33 ea 3d 3d c1 ee 3d
       0.104923494 0.12736624 0.114356935 0.11657951
0001b0 96 51 d2 3d fd 68 b5 3d de 21 0c 3e e8 00 60 3a
       0.102694675 0.088579156 0.13684794 0.0008545057
0001c0 90 45 d4 3d 0e 5c 14 3e c5 f0 bb 3d 8d 9d ea 3d
       0.103648305 0.14488241 0.091767825 0.11455832
0001d0 92 b8 d0 3d 87 c0 f6 3d d5 a0 1b 3e 81 90 04 3e
       0.10191454 0.120484404 0.15198071 0.12945749
0001e0 80 d3 e8 3d 13 21 f7 3d 33 33 f9 3d 7f dd e2 3d
       0.113684654 0.12066855 0.121679686 0.11077403
0001f0 67 6f d8 3d 6e c2 c8 3d 47 be be 3d 67 3a cb 3d
       0.10568123 0.098027095 0.09313636 0.09923249
000200 a7 4a c4 3d d8 4e ed 3d 34 8a ea 3d 5e f8 e0 3d
       0.09584551 0.11587304 0.114521414 0.10984872
000210 40 1e da 3d bf c3 f7 3d ec ba b3 3d 2d 8d be 3d
       0.10650301 0.120978825 0.08775887 0.09304271
000220 97 dd ce 3d 41 a7 dc 3d 43 66 d2 3d f5 84 b5 3d
       0.10100859 0.10774089 0.10273411 0.0886325
000230 23 8c 4a 3a 3d 16 03 3e 12 46 03 3e 9d 38 de 3d
       0.00077265705 0.12801452 0.12819698 0.10850642
000240 c3 2b 9b 3d 58 29 bc 3d 34 73 f8 3d f6 56 cd 3d
       0.07576706 0.09187573 0.12131348 0.10026352
000250 e1 2a e4 3d 71 60 31 3d ad 23 09 3e 62 c6 00 3e
       0.11140991 0.043304864 0.13392515 0.12575677
000260 7c e4 fe 3d 18 32 c8 3d 76 49 b1 3d 26 55 fd 3d
       0.12445924 0.097751796 0.0865659 0.123697564
000270 f0 bd c9 3d c9 e4 d4 3d b0 d0 67 39 27 30 1a 3e
       0.09850681 0.103952 0.00022107619 0.15057431
000280 ca 3d 0b 3e 9b 94 cf 3d cf ec bf 3d f9 54 b0 3d
       0.1359779 0.10135766 0.093713395 0.08609957
000290 17 47 d1 3d 93 ef 1e 3e 50 7d f7 3d 02 f8 0a 3e
       0.102186374 0.15521078 0.12084448 0.1357117
0002a0 46 21 ea 3d 41 a5 b5 3d ea 66 e8 3d 0a af 4d 3b
       0.11432128 0.0886941 0.11347754 0.003138485
0002b0 bb 4a c7 3d ee 57 ce 3d 9f 7c 05 3e af ee 9a 3d
       0.097310506 0.10075365 0.1303582 0.075650565
0002c0 80 df 9b 3d 0d 2e bd 3d 8d 53 d4 3d 8b 72 da 3d
       0.076109886 0.09237299 0.103674985 0.106663786
0002d0 80 82 d8 3d d9 ef 0e 3e bc aa c0 3d 39 90 b7 3d
       0.10571766 0.13958682 0.09407565 0.08963055
0002e0 34 0c b2 3d dc 43 4b 3a d2 e9 14 3e 92 08 fb 3d
       0.08693734 0.0007753947 0.1454232 0.12257494
0002f0 86 d2 a3 3d f3 44 d5 3d 4b c8 f0 3d b4 0c d6 3d
       0.079991385 0.10413542 0.11756953 0.10451642
000300 ee 5a 6f 3b 8a 56 fd 3d da bd da 3d 65 0e 03 3e
       0.0036522704 0.12370022 0.106807426 0.1279846
000310 52 6f 08 3c 13 d0 00 3e 41 9c b6 3d 1f c7 f4 3d
       0.008327322 0.12579374 0.08916522 0.11952042

decoderlayers.0.weight f4 [200, 30]
000000 0e e2 f9 bc e2 a0 97 bd 8f 4d e8 bb 39 a9 0f be
       -0.0305033 -0.07403733 -0.007089324 -0.14029397
000010 3c 3f 0c 3e 2b 5e fd bd cc e3 f9 bd 78 cf dc bd
       0.13695997 -0.12371477 -0.12201652 -0.10781759
000020 ff 07 c0 3d 05 14 c1 bd 05 4e 10 3a b1 a2 82 bd
       0.09376525 -0.094276465 0.000550479 -0.06378687
000030 e6 bf 26 be 35 96 f9 3d 79 51 94 bc e6 7e 3f be
       -0.16284141 0.12186853 -0.018105255 -0.18700752
000040 7b 07 54 3d d1 47 69 bd a1 33 fb 3d 9f c2 13 3e
       0.051764946 -0.056953255 0.12265707 0.14429711
000050 ac 5e 6b bd d0 fb 64 bd df ac 01 be b6 97 0c 3e
       -0.057463333 -0.05590421 -0.12663601 0.13729748
000060 80 b1 00 3e fb b6 3b bd 0a 02 b5 bb 5a c3 32 3d
       0.12567711 -0.0458288 -0.0055239247 0.043643333
000070 fb e1 06 bd 3a ed df bd 1e ab f6 3d a0 75 c5 3d
       -0.032930356 -0.10933919 0.12044357 0.09641576
000080 9a d0 13 be 94 f6 2c 3e 49 51 3d 3e 40 2c 85 bc
       -0.14435044 0.16890937 0.18488039 -0.016256452
000090 52 ce 8b 3c b8 36 66 bd 6d ea 0a 3e bd 50 80 3d
       0.017066155 -0.056204528 0.13565989 0.062653996
0000a0 97 96 0e be 05 10 a1 3d fa c3 64 be 5d e3 95 bc
       -0.13924633 0.078643836 -0.22340384 -0.018296892
0000b0 d9 02 de bd 3e 69 0f be 93 f1 0e 3d b3 eb ed 3d
       -0.10840387 -0.1400499 0.034898352 0.11617222
0000c0 03 6f 0e be 36 bc f8 3d ea 3b 12 3e e8 84 93 3d
       -0.13909535 0.121452734 0.14280668 0.07203084
0000d0 cc de 3f be 4d 55 ed bc 43 1e ae 3d 83 70 b1 3c
       -0.18737334 -0.028971339 0.08501866 0.021660095
0000e0 ab 42 08 be f0 4d 44 3d 57 1f 13 3e 9e fe 04 be
       -0.13306682 0.04792589 0.14367424 -0.12987754
0000f0 43 e3 10 3e c2 f3 09 be fb 83 22 3e fb 8d 31 3e
       0.14149193 -0.13471892 0.15870659 0.17339318
000100 42 85 f8 3d d8 45 e4 bd 2f 50 64 bd 20 b2 bb 3c
       0.12134792 -0.11146134 -0.05574053 0.022912085
000110 74 4f 19 3e a1 9d 8b 3d f7 f6 a0 3d 6b de 6c bd
       0.14971715 0.06817175 0.07859605 -0.0578293
000120 84 7e 1f be 25 18 89 bd f1 b5 88 bd 52 aa 10 be
       -0.15575606 -0.06694058 -0.066753276 -0.14127472
000130 b9 9c 15 be 29 e6 ce 3d d4 bb d5 3d 15 a4 2c bd
       -0.14610566 0.10102493 0.10436216 -0.04214867
000140 49 e7 bb 3d b4 ef f5 3d 4e 93 0b 3e 92 02 27 3e
       0.091749735 0.1200861 0.13630411 0.16309574
000150 a9 67 02 bb c7 5a 10 3e 07 c5 28 3e 51 f2 c5 bc
       -0.0019898212 0.14097129 0.1648141 -0.024163397
000160 5c 0f b1 bc 52 d2 b9 bd 84 40 30 3e 8e 7c 28 3d
       -0.02161377 -0.090733185 0.17212111 0.04113441
000170 6a 35 1d 3e 38 7c 98 3c b2 22 2b be 88 bd 5b 3e
       0.15352407 0.01861392 -0.16712454 0.21459019
000180 19 13 e2 bd 2b 05 f7 3d 80 a1 e8 3d 4f 44 bb bd
       -0.11038799 0.120615326 0.11358929 -0.09143888
000190 97 3c 14 bd 80 a0 a4 bd 2e 70 05 be a7 ee d5 3c
       -0.036190595 -0.080384254 -0.13031074 0.026114775
0001a0 61 7d ca bd 60 4a 29 be b7 cb b8 bd 60 82 39 3e
       -0.098871954 -0.16532278 -0.090232305 0.1811614
0001b0 76 48 03 be e3 60 92 bd 13 94 84 3d cb d8 48 bc
       -0.1282061 -0.07147386 0.064735554 -0.012258719
0001c0 bf 48 1b be dd 4c 8f bd ae 48 d5 bc 92 06 fa 3c
       -0.15164469 -0.069970824 -0.026035633 0.030520711
0001d0 79 6f 21 3d e6 c4 a6 3c 9d dd 55 3d 16 70 9c 3d
       0.03941295 0.02035756 0.0522133 0.07638566
0001e0 4b 33 e2 bd c6 46 ff bd 33 fd a6 3d a7 94 e5 3c
       -0.110449396 -0.12464671 0.08153763 0.028024985
0001f0 44 0a d4 bd 62 4f 48 3e ee 58 cc 3d 26 92 54 bd
       -0.103535205 0.19561532 0.099778995 -0.05189719
000200 ac 91 b9 3c 5c e0 d4 bd 8b 8a a7 bd d9 19 12 be
       0.02265247 -0.10394356 -0.08180722 -0.14267673
000210 69 f5 3a bd 6d e0 19 3e 3a ce 09 3e 4c d9 73 3d
       -0.045644198 0.15027018 0.13457575 0.059533402
000220 93 4c c5 bc 8c 60 28 3d 38 18 b8 3d dd 93 00 be
       -0.024084365 0.0411077 0.08988994 -0.12556405
000230 4a ac 3f bd 1b b5 31 3e 26 09 a3 bc d9 76 b6 bd
       -0.046795167 0.17354243 -0.019901823 -0.08909387
000240 90 59 0c 3c 70 78 91 bd f9 94 41 3e c1 6d 21 3c
       0.008566275 -0.0710305 0.18904485 0.0098528275
000250 16 79 38 be 0c 3a e1 3c 2a 4d 88 3d bd df aa bb
       -0.1801494 0.0274935 0.06655343 -0.00521466
000260 c9 59 b2 3c f8 74 20 be 83 9f 15 be ab f3 d6 3d
       0.021771329 -0.1566962 -0.1461163 0.10495695
000270 82 f0 14 3e 38 23 38 3e 52 8c 2b bc f9 74 6b bd
       0.14544871 0.17982185 -0.010470467 -0.0574846
000280 94 d6 20 bd a6 7f ed 3b fd 64 14 3d 4c 53 0f be
       -0.039267138 0.007247883 0.036229122 -0.13996619
000290 33 a8 03 be fc f5 af 3d 21 7a 09 3e 79 a1 d8 3d
       -0.12857132 0.0859184 0.13425495 0.105776735
0002a0 dd df 74 bc 5d 7a ce 3d cf cb 7a 3c 82 fe 59 3d
       -0.014945951 0.10081933 0.015307381 0.053221233
0002b0 c1 e7 c1 bc 4a 61 ab bd fc 98 e3 3d f9 ae 89 3d
       -0.02367008 -0.08368166 0.11113164 0.067228265
0002c0 61 ea f0 bd c5 cf 0f bd 4f fc 5c be df 77 ba 3d
       -0.11763454 -0.035110254 -0.21580623 0.09104895
0002d0 5a 1f 39 3e cf 17 6d 3c f3 6f 54 bc d6 64 8e bc
       0.18078366 0.014471008 -0.012966144 -0.017382067
0002e0 9d db e8 bd ee a0 75 3d 01 8f c0 3d 87 6a 26 3e
       -0.11370013 0.059967928 0.09402276 0.16251574
0002f0 9f 1d 56 be 8d 64 87 3d 73 55 07 3e 90 58 6f 3d
       -0.20909737 0.066109754 0.1321619 0.05843407
000300 9c eb 1c 3e 54 a4 f7 bd 89 cc ad bd da e5 90 bd
       0.15324253 -0.1209189 -0.084862776 -0.07075091
000310 07 53 43 be b2 e4 c6 bd ce 39 d1 3d 1c fb d1 3d
       -0.19074641 -0.09711589 0.102161035 0.102529734
000320 4e 83 1d 3c 97 3e 4c 3e 97 b8 f5 3d f8 d2 d5 bd
       0.009613825 0.19945751 0.11998098 -0.1044063
000330 1e 35 6e 3d 64 e9 11 be a5 69 07 be ac 75 65 3d
       0.058156125 -0.14249188 -0.13223894 0.056020424
000340 bb 78 28 3e 28 70 09 3c 5d 24 2c be f8 f5 53 bc
       0.16452305 0.008388557 -0.16810746 -0.0129370615
000350 51 63 b3 bd 9a 54 2b ba 75 a6 1e 3e 57 bc 29 3e
       -0.087591775 -0.0006535739 0.15493186 0.16575752
000360 8a 93 5a 3d 5e 41 94 bd 0f 7a 48 bd f7 16 33 3e
       0.05336336 -0.0723903 -0.04894453 0.17489229
000370 50 0b ca 3d d1 26 03 3e 21 99 a4 3d d3 40 87 bd
       0.09865439 0.12807776 0.080370195 -0.06604161
000380 8f c7 13 bd 45 f8 c5 bd c1 ce 35 be 2f 1f f9 bd
       -0.036078986 -0.09666494 -0.17754652 -0.12164151
000390 e7 4f de bc 91 c9 a8 bd 73 82 47 be 45 f9 42 be
       -0.02713771 -0.08241571 -0.19483356 -0.19040401
0003a0 00 ac e6 3c 80 8d 69 3d cc 49 21 bd 69 8c 9a bb
       0.028158188 0.05701971 -0.03937702 -0.004716445
0003b0 62 b8 23 be 17 13 07 3d 9a 55 a1 b9 be 51 50 3e
       -0.15988305 0.03297719 -0.0003077209 0.20343682
0003c0 d0 c3 64 3e 86 c5 81 bd 90 dd 12 be fe 56 e6 bd
       0.22340322 -0.06336503 -0.14342332 -0.11247061
0003d0 58 4e fa 3c ee ad ab 3d 15 2b b2 3d ac 73 25 3e
       0.030554935 0.08382784 0.086996235 0.16157407
0003e0 60 d0 1b be 4b ed 7e bd d6 ae f6 3c 90 d6 74 3c
       -0.15216208 -0.06223802 0.030112665 0.014943734
0003f0 41 d1 c3 3d 6a c9 10 3e 04 44 10 be 1f 50 2c bd
       0.095613964 0.14139333 -0.14088446 -0.042068597

decoderlayers.0.bias f4 [200]
000000 7a da 04 3c 75 0f b6 bc e9 00 34 3e ae 2a 45 bd
       0.0081087295 -0.022224167 0.17578472 -0.048136406
000010 fb 61 b8 3d f3 f0 6d 3d 09 73 8c 3d 8e 18 c0 bd
       0.09003063 0.058091115 0.06857879 -0.093796834
000020 5a 73 ac 3d 13 41 00 3e 6e e2 12 3d f2 57 28 3e
       0.08420439 0.12524824 0.03586047 0.16439798
000030 30 8a 92 3d 8e 77 9d 3d 51 36 21 3e 93 0a b4 3d
       0.071552634 0.07688819 0.15743376 0.08791079
000040 a5 c5 0a 3d 78 1c 9d 3d d3 69 dc 3c c9 b9 74 3e
       0.033879895 0.076714456 0.02690593 0.23898996
000050 fa 53 30 3e 8f 24 39 3e 45 0a f7 3d 65 b7 16 3e
       0.17219535 0.18080352 0.12062506 0.14718397
000060 7d f0 ec 3d e6 ef 8c 3d b8 88 b6 3d 30 5f 44 3e
       0.11569307 0.068816945 0.08912796 0.19176936
000070 bb 95 79 3d 31 39 21 3e 05 4a ef bc 12 d8 fd 3c
       0.06093381 0.15744473 -0.0292101 0.03098682
000080 96 96 72 bc ad 56 33 3e e2 80 0a bc a6 90 c5 3d
       -0.01480641 0.17513533 -0.00845358 0.0964673
000090 f0 72 38 3d 1c d7 5e 3d 1a e4 01 3e 59 7e b0 3d
       0.045031488 0.054404363 0.1268467 0.08617849
0000a0 a9 30 3a 3e ba 79 90 bc 27 93 38 3d 8b 9d 4d 3e
       0.18182625 -0.017636169 0.04506221 0.20079629
0000b0 68 76 60 3d aa da c3 bd 1a 73 67 3d 69 48 90 3e
       0.05480042 -0.09563191 0.056506254 0.28180245
0000c0 23 18 40 bd 77 4a 89 bc e1 dc 39 3e a8 71 8f 3e
       -0.04689802 -0.01675914 0.18150665 0.280164
0000d0 ae 6f 38 3e 39 b2 2b 3d 71 74 3b 3e 66 a9 1e 3c
       0.18011352 0.041918013 0.18306138 0.009683942
0000e0 bd 15 6c 3e f4 2b 86 3e c2 62 db 3c 55 ba 5b 3e
       0.23055167 0.2620541 0.02678049 0.21457799
0000f0 2c 2a 7b 3e 11 81 40 3a 07 88 23 3e dc b4 32 bd
       0.24527806 0.0007343451 0.15969859 -0.043629512
000100 9a 5a 89 3e 97 88 b8 3d 22 21 89 3d cd 55 9e bd
       0.26826936 0.090104274 0.06695773 -0.07731209
000110 64 0c c9 3d e1 24 04 3c e0 92 fa 3d 12 92 d5 3c
       0.098168164 0.008065433 0.122350454 0.026070628
000120 df 0a 18 3e 34 9f a8 bc fe 99 8c 3e dd 83 b3 3d
       0.14847897 -0.020583726 0.27461237 0.08765385
000130 68 22 39 3e 74 64 a6 3d f6 c4 62 3c 42 f4 5d 3e
       0.18079531 0.08124629 0.013840904 0.21675208
000140 11 d9 84 bc 6e e2 06 3c 1b 19 7a 3e 4a 5f 24 3e
       -0.016216787 0.008232696 0.2442364 0.16051975
000150 72 42 e2 3d 64 25 03 3c 36 44 46 3e 98 da 45 3e
       0.1104783 0.00800452 0.19361958 0.19321668
000160 4d a7 31 3e e1 47 89 3d e1 63 5f 3e f5 f2 e2 3d
       0.17348976 0.06703163 0.21815445 0.110814966
000170 f7 bb fe 3d 52 a4 a9 b9 16 6a 39 3e 8f dc 0d 3e
       0.12438195 -0.0003235662 0.18106875 0.13853668
000180 36 2f f4 3d 73 c8 42 bd 90 da 87 ba 35 26 d4 3d
       0.11923067 -0.047554445 -0.0010364819 0.1035885
000190 5d 01 09 3e 3d d3 a0 3c 9f 73 5c 3d 7c 60 09 3c
       0.13379426 0.019631976 0.053821202 0.00838482
0001a0 e3 40 ca 3d 9a d2 8c 3e da 29 33 3d ce 12 48 3e
       0.098756574 0.27504426 0.043741085 0.19538423
0001b0 83 c8 72 3a cb ff 1b 3e c5 10 48 3e 9b f7 1f bd
       0.0009261446 0.15234296 0.19537647 -0.039054494
0001c0 33 41 be 3d 52 55 31 3e 06 e8 83 bd cc 74 c9 3d
       0.092897795 0.17317703 -0.06440739 0.0983673
0001d0 32 aa 5d 3e 66 c5 ec 3d 9b a2 8e 3b 69 eb 67 3e
       0.21646956 0.11561088 0.00435288 0.22648396
0001e0 33 23 86 3e 3a 9f 45 3e df 34 bd bc b6 d3 a7 3d
       0.2619873 0.19299021 -0.0230965 0.081946775
0001f0 81 87 18 3e 2e 61 d2 bc b8 7a d2 3d 15 ae 3f 3e
       0.1489544 -0.025681105 0.10277313 0.18718751
000200 29 ca 1b 3e 9a c0 48 3e 44 c2 22 3e 97 ef 81 bc
       0.15213837 0.19604722 0.15894419 -0.015861316
000210 7e 37 6a 3e ae 4b e4 bd 4b 4c 49 3e db 1d 78 3e
       0.22872731 -0.11147247 0.1965801 0.24230139
000220 e4 82 33 3d 5a 2f d7 bd 20 bf 72 3d b1 53 3a 3e
       0.043826 -0.105070785 0.059264302 0.18195988
000230 36 05 72 3e c8 65 0a 3e 8a c8 39 bd 81 51 4b 3e
       0.236348 0.13515389 -0.045357265 0.1985531
000240 76 3d e0 3b 26 8c 85 3e d3 75 a8 bc 6f ac 0e bd
       0.006843264 0.26083487 -0.020563995 -0.034832414
000250 ae bb e7 3d 49 e6 a9 3c f9 da 1a 3e 07 fa 5e 3d
       0.11315094 0.020739691 0.15122594 0.054437663
000260 e1 58 6a bd 5b 83 7b 3e bf 3a 32 3c a2 99 4b 3d
       -0.057213668 0.24561827 0.010878264 0.049707063
000270 59 ca 8a bd 2b 60 0e 3e f6 37 62 3e 7b 86 00 3c
       -0.06776876 0.13903873 0.2209166 0.007844563
000280 9f 22 96 bd c5 74 e9 3c 09 d6 09 3e 56 e1 e4 bc
       -0.07330822 0.028498063 0.13460554 -0.02793948
000290 00 ea 78 3e 38 aa 36 3e 97 92 b0 3d ac f2 3d 3d
       0.24308014 0.17838371 0.0862171 0.046374008
0002a0 5b ad bc 3d 9a 30 8e 3d eb dd 5a 3e 20 82 cc 3d
       0.092127524 0.06942864 0.21373717 0.09985757
0002b0 51 0a 3c 3e 31 dd a9 3d 87 cf 47 3d 74 a6 c2 bc
       0.1836331 0.08294142 0.048781898 -0.023761012
0002c0 56 b9 6b 3e e4 34 56 3d 78 fb 6c bd 14 4a e5 bd
       0.23019919 0.052296534 -0.057857007 -0.1119577
0002d0 21 33 80 bd 89 9e 5b 3e fe fa 13 bb 73 5c 04 3e
       -0.06259752 0.21447195 -0.0022580023 0.12925892
0002e0 e6 cb a2 3c 7a b5 49 3a ae e3 4a 3d 7f 46 85 3e
       0.019872617 0.00076945836 0.04953354 0.26030347
0002f0 80 34 43 3e 04 e2 36 3e a6 b3 80 3e 1d c7 51 3e
       0.19062996 0.17859656 0.2513706 0.20486112
000300 1a a7 e7 3d 41 6a 28 3e 93 3c 0b 3e 74 66 2d 3e
       0.11311169 0.16446783 0.13597326 0.16933614
000310 d2 e3 1a bd b2 25 72 3d 08 71 15 bd 8f 5f 01 3e
       -0.037814923 0.05911798 -0.036484748 0.12634109
