tutorial/interim_data_test/models/model_30_27.pt (torch, 358785 bytes, 18 tensors)

encoderlayers.0.weight f4 [200, 170]
0	0x3a3b93ba	0.0007155497
1	0x3d72f0a4	0.059311524
2	0xbcf51dae	-0.029921379
3	0x3d9c4075	0.07629482
4	0x3da69974	0.081347376
5	0xbcf2b13c	-0.029625528
6	0xbdfd6e7b	-0.12374588
7	0xbbe2140f	-0.006899364
8	0x3c509d26	0.01273278
9	0x3c44a216	0.012001535
10	0x3b29243f	0.0025808958
11	0xbd3aed33	-0.045636367
12	0x3d344734	0.044013217
13	0xbd48a656	-0.048986755
14	0xbcc340dd	-0.02383464
15	0xbc98a457	-0.01863305
16	0x3c8e9ff4	0.017410256
17	0x3ccc025e	0.024903473
18	0xbc55401a	-0.013015771
19	0x3c92cc8c	0.017919801
20	0x3c4aadec	0.012370568
21	0xbd8361a0	-0.06415105
22	0xbd81150e	-0.06302844
23	0x3c829344	0.015939362
24	0xbdbbe0dd	-0.09173749
25	0xbd01be40	-0.031675577
26	0xbd49b96c	-0.049249098
27	0x3ccf234e	0.02528539
28	0xbdcaa023	-0.09893825
29	0xbc97ec9a	-0.018545438
30	0x3dbf7ace	0.09349595
31	0xbd3edc46	-0.046596788
32	0x3d9cb6be	0.07652043
33	0xbce189ed	-0.027531588
34	0xbc014476	-0.0078898575
35	0x3c0dcae3	0.008654329
36	0xbcbcd544	-0.023050912
37	0x3d631620	0.055441022
38	0x3d85fca1	0.06542326
39	0xba89eeea	-0.0010523472
40	0xbb73ed04	-0.003722013
41	0xbc833bf0	-0.016019791
42	0xbd3a164e	-0.045431428
43	0xbd398674	-0.04529424
44	0x3cea1a55	0.02857701
45	0xbc44cdc6	-0.012011951
46	0x3b9ede5e	0.0048482856
47	0xbc3864e4	-0.011254523
48	0x3d883df8	0.066524446
49	0x3d1e8201	0.0386982
50	0x3d2c371e	0.04204475
51	0x3cde0b6b	0.027105054
52	0x3bc037ee	0.0058660423
53	0x3c727a8e	0.014799727
54	0xbcf0c743	-0.02939189
55	0x3d34fbda	0.044185497
56	0xbc8bfe2b	-0.01708897
57	0xbccc13ad	-0.024911726
58	0x3d298422	0.041385777
59	0x3cdec1bf	0.027191995
60	0x3a568ea6	0.00081847084
61	0x3aa34367	0.0012456
62	0x3d60de1c	0.05489932
63	0x3d7d1260	0.061785102
64	0x3d0dfc13	0.034664225
65	0x3d4580d1	0.048218552
66	0xbdcc0818	-0.09962481
67	0xbd1296f9	-0.03578851
68	0x3d6a3c0b	0.057186168
69	0xbd0e5b5b	-0.034755092
70	0xbbcdd1f4	-0.006281132
71	0xbb548254	-0.0032426314
72	0xba476963	-0.00076069514
73	0xbd07c14a	-0.03314332
74	0xbc839493	-0.016062057
75	0x3c3d0e53	0.01153906
76	0xbd0a34d6	-0.033741795
77	0xbcbdfde3	-0.023192352
78	0x3cc6f843	0.024288302
79	0xbd1c28eb	-0.03812496
80	0x3cd0e657	0.02550046
81	0x3adc98af	0.0016830171
82	0x3c2b2d67	0.0104478365
83	0x3d299da1	0.041410092
84	0xbcb54964	-0.022129722
85	0xbcb3d1e7	-0.021950675
86	0x3d12cea1	0.035841588
87	0xbd5ce801	-0.053932194
88	0x3c9b83df	0.01898378
89	0x3d5ddf45	0.054168005
90	0xbc006191	-0.007835762
91	0x3d78c535	0.060734946
92	0x3c7aff06	0.015319591
93	0xbd0952c9	-0.033526216
94	0x3d6bbb32	0.05755157
95	0xbd49d9ea	-0.049280085
96	0xbc771ee5	-0.015083049
97	0xbd63a71b	-0.055579286
98	0x3d2dd02f	0.042434867
99	0xbcd1796e	-0.025570597
100	0x3ae8a44b	0.0017749158
101	0xbd1238e0	-0.03569877
102	0x3c8099e5	0.015698383
103	0x3caee4b1	0.021349283
104	0x3dc59ab5	0.09648649
105	0x3cfd8905	0.030949125
106	0x3c8edcc6	0.017439257
107	0xbcfd9493	-0.030954635
108	0x3cf3e4cf	0.02977219
109	0xbd93288d	-0.07185469
110	0xbb924aeb	-0.0044644973
111	0x3bca46b1	0.006172978
112	0x3d912cfb	0.070886575
113	0x3d43f3aa	0.047839798
114	0xbd58ccd4	-0.052929714
115	0xbcd7c62d	-0.026339615
116	0xbc8a9c0a	-0.016920108
117	0xbd008591	-0.03137738
118	0x3d0d5aee	0.034510545
119	0x3ce99cd8	0.028517172
120	0x3d670f55	0.056411106
121	0x3cd7d72d	0.026347721
122	0xbd445e86	-0.047941707
123	0xbc871c16	-0.016492885
124	0x3d0e93f9	0.034809086
125	0x3d204c2b	0.03913514
126	0xbd9698e1	-0.07353378
127	0xbd1003c6	-0.03515985
128	0xbd638bb9	-0.05555317
129	0x3ba7662a	0.0051086145
130	0x3d675fc1	0.056487802
131	0x3cdd20d3	0.02699319
132	0x3daff006	0.08590703
133	0xbc541166	-0.012943601
134	0xbc8d248f	-0.017229347
135	0x3be78d8f	0.0070664356
136	0x3da92c66	0.082604215
137	0x3c961fac	0.01832565
138	0x3d40e456	0.047092758
139	0xbd3d8cbd	-0.046276797
140	0x3caa9e4c	0.020827435
141	0xbdb30725	-0.08741597
142	0x3d18ec23	0.037334573
143	0x3d1ef770	0.038810194
144	0x3d069aa0	0.032862306
145	0xbc9e6f44	-0.019340165
146	0x3d123d40	0.035702944
147	0x3c208573	0.009797442
148	0xbdb50525	-0.08838872
149	0xbd5e89b9	-0.05433056
150	0xbbd6d020	-0.006555572
151	0x3a5681fb	0.0008182821
152	0x3d391457	0.045185413
153	0xbb9675d8	-0.004591685
154	0x3d17cdca	0.03706149
155	0xbd1da329	-0.03848568
156	0xbd47ccab	-0.04877917
157	0x3da219df	0.07915091
158	0xbc34537f	-0.011006235
159	0x3cccc7c4	0.0249976
160	0xbcf75182	-0.030190233
161	0xbd942be5	-0.07234935
162	0xbd59a13e	-0.05313229
163	0x3cba83d9	0.022767948
164	0xbca584ac	-0.020204864
165	0xbdba877c	-0.09107873
166	0x3db5ba56	0.088734314
167	0xbc371ac1	-0.011175812
168	0x3d2a7c79	0.041622613
169	0x3ca86934	0.020557977
170	0x3cced8a8	0.025249794
171	0x3d9f6208	0.0778237
172	0x3c4da9da	0.012552703
173	0x3c832f9d	0.016013915
174	0x3dab331c	0.08359358
175	0xbdad8567	-0.0847271
176	0x3c2966ca	0.010339448
177	0xbc9f1c7a	-0.019422758
178	0xbd8cf188	-0.06882006
179	0xbc88352b	-0.016626915
180	0xbdbfc356	-0.09363429
181	0x3d0a2faa	0.033736862
182	0x3d99ca3c	0.07509276
183	0xbc14b7af	-0.009076997
184	0xbd09725d	-0.03355633
185	0x3dae1bf6	0.08501427
186	0xbd4ac862	-0.049507506
187	0x3c5bd038	0.013416342
188	0xbc82c173	-0.015961384
189	0x3d48f32c	0.04906003
190	0x3d5e4ee7	0.054274466
191	0xbc8ea41f	-0.017412243
192	0xbceb51a1	-0.028725447
193	0xbdcd751a	-0.10032101
194	0x3df676b5	0.1203436
195	0xbd590221	-0.052980546
196	0x3d88b21b	0.06674596
197	0x3d1a3c21	0.037655
198	0x3d0c7b7d	0.034297455
199	0xbd49e33f	-0.049288984
200	0xbe00f901	-0.12594987
201	0x3d8d0c51	0.06887115
202	0xbd9ea84c	-0.07746944
203	0x3c86508a	0.016395826
204	0xbde3073b	-0.110853635
205	0x3e0febaa	0.14054742
206	0xbde49d3d	-0.11162803
207	0x3de505bf	0.111827366
208	0xbc18508e	-0.0092965495
209	0x3d0be20c	0.034151122
210	0x3cef646b	0.029222688
211	0x3ca186bd	0.019717569
212	0xbd18b6b7	-0.037283625
213	0xbcc53ca9	-0.024076777
214	0x3d245598	0.04012069
215	0x3d3106ca	0.043219365
216	0x3d638c8d	0.05555396
217	0x3cd43a65	0.025906751
218	0xbb9fd361	-0.0048774933
219	0xb9ddd33e	-0.00042309792
220	0xbda9e031	-0.08294714
221	0xbd499d1f	-0.049222108
222	0x3d2bfb08	0.04198745
223	0xbd05ff9c	-0.03271447
224	0x3cfd5ab6	0.030927043
225	0xba634cb5	-0.0008670793
226	0xbd89720d	-0.067112066
227	0x3d8ae06a	0.06781085
228	0xbcaa322b	-0.020775875
229	0x3c9c46e4	0.019076772
230	0xbc96caf2	-0.018407319
231	0xbcfd723e	-0.030938264
232	0x3d3bf5ba	0.04588864
233	0x3d406f55	0.046981174
234	0x3bca8882	0.006180824
235	0x3d20a605	0.03922083
236	0x3d2ff63d	0.04295944
237	0x3d89c68e	0.067273244
238	0xbc3e5247	-0.011616296
239	0x3da86132	0.082216635
240	0xbc00b70b	-0.007856141
241	0xbb6ac72b	-0.003582428
242	0x3d6e7a52	0.058222122
243	0x3c544852	0.012956696
244	0xbc3351a9	-0.010944762
245	0xbc13a95c	-0.009012546
246	0x3b61573b	0.0034384269
247	0xbd7089fb	-0.05872534
248	0x3d493f38	0.049132556
249	0xbc71ccdd	-0.014758316
250	0x3be6469d	0.0070274607
251	0xbc93f29d	-0.018060023
252	0x3cb87358	0.022515938
253	0x3dc1484e	0.09437619
254	0x3d37bafb	0.044856053
255	0x3d7bc6b9	0.061468814

encoderlayers.0.bias f4 [200]
0	0xbd183d7e	-0.03716802
1	0x3d214a23	0.039377343
2	0x3d2d1960	0.042260528
3	0xbd8a7a28	-0.06761581
4	0xbd8e0e54	-0.069363266
5	0x3d0d3d3f	0.034482237
6	0x3b3576f8	0.002768932
7	0x3d7aa2f3	0.061190557
8	0xbcef1e6d	-0.029189313
9	0x3bf3e201	0.0074427132
10	0xbca048ff	-0.019566057
11	0x3d05f2be	0.0327022
12	0x3d997f86	0.07495026
13	0x3d952e36	0.07284205
14	0xbd542ac6	-0.051798604
15	0xbd800266	-0.062504575
16	0x3d2268be	0.03965067
17	0xbd85a383	-0.06525328
18	0xbd2aa9d9	-0.041665886
19	0x3d01758c	0.031606242
20	0x3d5fd932	0.054650493
21	0xbd27bc72	-0.0409512
22	0xbc840291	-0.016114505
23	0x3c63e202	0.013908865
24	0xbd475aec	-0.048670694
25	0xbbb030b7	-0.005376901
26	0x3cc5c60f	0.024142293
27	0x3d09a286	0.03360226
28	0x3cf78151	0.03021303
29	0x3cbc5a13	0.02299217
30	0x3d89ee8b	0.067349516
31	0xbcd93401	-0.026514055
32	0x3cd06972	0.025440905
33	0xbdb465b0	-0.08808458
34	0xbd04e3c6	-0.032443784
35	0xbc0ca752	-0.008584814
36	0x3bafd10f	0.005365498
37	0xbd37ea52	-0.0449012
38	0x3d4c9b57	0.04995283
39	0x3b0da88e	0.002161536
40	0xbd5e01df	-0.054201003
41	0x3d9ac968	0.075579464
42	0xbcee6312	-0.029099975
43	0x3d89752d	0.06711803
44	0xbd85baad	-0.06529746
45	0x3c81dd0c	0.015852474
46	0x3b696533	0.0035613298
47	0x3d905d08	0.07048994
48	0xbd040d25	-0.032239098
49	0x3d252dbb	0.040326815
50	0x3cd5ad68	0.026083663
51	0x3ae70f10	0.001762839
52	0x3d829403	0.06375887
53	0x3d963d7e	0.073359475
54	0xbd6c80a2	-0.05773986
55	0x3d85de34	0.065365225
56	0x3daa904c	0.08328304
57	0xbd0d766d	-0.034536768
58	0xbd55e102	-0.052216537
59	0x3cd455cc	0.025919817
60	0x3cc3036c	0.023805343
61	0xbc534d5a	-0.01289686
62	0x3d60f05c	0.054916725
63	0x3bf75d37	0.007548954
64	0x3c90d3b7	0.017679079
65	0xbc8df4fb	-0.01732873
66	0xbd49e598	-0.049291223
67	0xbd03e6b6	-0.032202445
68	0xbd89b4c0	-0.067239285
69	0xbc606676	-0.013696304
70	0xbb8d3afd	-0.0043100105
71	0xbd84bdda	-0.06481524
72	0x3c8bc5fe	0.017062183
73	0xbca9fbb5	-0.020749906
74	0x3caa8040	0.020813107
75	0x3d3b9e41	0.04580522
76	0xbd8df46d	-0.06931386
77	0xbd7990a3	-0.060928952
78	0x3bc3c09c	0.0059738886
79	0x3d49b7e2	0.04924763
80	0x3d92349d	0.071389414
81	0x3cce37b1	0.02517304
82	0x3c9a0ebe	0.018805858
83	0xbcadaa2d	-0.02119931
84	0x3d695232	0.056963153
85	0xbc962432	-0.018327806
86	0xbd5701e0	-0.052492023
87	0xb9651460	-0.00021846732
88	0x3d0df3b2	0.034656234
89	0xbc6fe599	-0.014642143
90	0x3d1f4137	0.038880553
91	0x3cfbcce5	0.03073735
92	0x3cc26444	0.023729451
93	0xbda021fc	-0.07818982
94	0x3dae1a19	0.085010715
95	0xbd15dc96	-0.03658732
96	0x3d8b634b	0.06806048
97	0x3cdff33d	0.027337665
98	0xbcf41f6f	-0.029800145
99	0xbd04f653	-0.032461476
100	0x3d17f0ad	0.03709476
101	0x3d02ac2e	0.031902485
102	0x3c77f7ca	0.015134761
103	0x3ce59fc0	0.028030276
104	0xbd63e222	-0.05563558
105	0xbd8dcfcc	-0.069244
106	0x3d6b6af4	0.057475045
107	0xbd2a1c8c	-0.04153113
108	0xbb17185d	-0.0023055293
109	0xbd168a96	-0.03675326
110	0x3d3e69b9	0.046487544
111	0xbca85d58	-0.020552322
112	0x3d324a26	0.043527745
113	0xbd548653	-0.051885914
114	0xbc2cba2d	-0.010542435
115	0xbc8814fc	-0.016611569
116	0xbc8f7a7a	-0.017514456
117	0xbd4a9051	-0.049454037
118	0xbc8ef7db	-0.017452171
119	0x3da55722	0.0807326
120	0xbd4530f0	-0.048142374
121	0xbd3bae46	-0.045820497
122	0x3da70623	0.08155467
123	0x3c919049	0.017768996
124	0x3d0bfa39	0.034174178
125	0xbd7a8ddb	-0.06117044
126	0x3d53edde	0.05174052
127	0x3b222a4e	0.0024744454
128	0x3c82c1fa	0.015961636
129	0xbc2a3494	-0.010388512
130	0x3d718f99	0.058974836
131	0xbca20e12	-0.0197821
132	0xbd28104c	-0.041031167
133	0xbbd8f3bb	-0.006620852
134	0xbb8b6361	-0.0042537902
135	0xbcbff9bd	-0.023434514
136	0x3bfe0283	0.0077517643
137	0x3d8bfe1b	0.06835576
138	0x3da616f6	0.08109848
139	0xbd821862	-0.06352307
140	0xbd879d81	-0.06621838
141	0xbd200a86	-0.039072536
142	0xbd276a9d	-0.04087316
143	0xbd551842	-0.052025087
144	0x3d78b222	0.060716756
145	0x3d5d2479	0.05398986
146	0xbc550a7d	-0.013002989
147	0xbc8fc4cf	-0.0175499
148	0xbca658b1	-0.020305963
149	0xbd30bcf3	-0.043148946
150	0x3db30e47	0.087429576
151	0x3d9ada0f	0.075611226
152	0x3cf0e42c	0.029405676
153	0x3c2bd746	0.010488337
154	0xbd98fb9b	-0.07469865
155	0x3d9c0c6f	0.07619559
156	0xbd117b5f	-0.035518046
157	0x3be07b9d	0.0068506734
158	0x3cc3b99e	0.02389222
159	0x3d668f76	0.05628916
160	0x3d5eaefc	0.054366097
161	0xbd818727	-0.063246064
162	0x3d1ec952	0.038766213
163	0x3ca979ab	0.020687899
164	0xbd67de16	-0.056608282
165	0x3c96b251	0.018395575
166	0x3d00019b	0.03125153
167	0x3c0335fc	0.008008476
168	0x3d8eae8e	0.069668874
169	0xbd899332	-0.067175284
170	0xbd50a8d8	-0.050942272
171	0xbd5f3a16	-0.054498754
172	0xbd9438b1	-0.072373755
173	0xbb33a307	-0.0027410404
174	0x3b31f993	0.0027156814
175	0xbd882b85	-0.06648926
176	0xbd9d041c	-0.076667994
177	0xbc17c99c	-0.009264376
178	0xbd01984f	-0.031639393
179	0x3cb6f106	0.022331726
180	0xbc83452e	-0.016024198
181	0x3d8cd4c4	0.06876519
182	0xbd56408c	-0.05230765
183	0xbd7ee6e8	-0.062231928
184	0x3d388795	0.045051176
185	0x3d92c4eb	0.07166465
186	0xbd862436	-0.065498754
187	0x3d3d4812	0.04621131
188	0x3d0c9e00	0.034330368
189	0x3d6b2c1c	0.057415113
190	0xbcd69952	-0.026196156
191	0xbd48e090	-0.049042284
192	0xbbf4df6c	-0.007472923
193	0x3c4394a5	0.011937295
194	0xbd12f30e	-0.035876326
195	0x3c64c6ea	0.01396344
196	0xbcc8a565	-0.024492929
197	0xbd6ab8ff	-0.057305332
198	0xbd180a06	-0.037118934
199	0xbd7ffe93	-0.06249864

encodernorms.0.weight f4 [200]
0	0x3f8b7bb2	1.0897124
1	0x3f8c6a19	1.0969878
2	0x3f8f0a27	1.1174973
3	0x3f87c019	1.0605499
4	0x3f881bf3	1.063353
5	0x3f897d54	1.0741372
6	0x3f8c6c25	1.0970503
7	0x3f8cf7b8	1.1013098
8	0x3f8de729	1.108617
9	0x3f8be336	1.0928714
10	0x3f8175c3	1.0114063
11	0x3f8fa559	1.1222335
12	0x3f82d95a	1.022258
13	0x3f8ac9a7	1.084279
14	0x3f8ccf3d	1.1000744
15	0x3f8c1126	1.0942733
16	0x3f8d460b	1.1037
17	0x3f91d722	1.1393778
18	0x3f8e8c62	1.1136591
19	0x3f8e89fd	1.1135861
20	0x3f89bb38	1.076026
21	0x3f89e978	1.0774374
22	0x3f906b34	1.1282716
23	0x3f81ce3a	1.014106
24	0x3f93c45f	1.1544303
25	0x3f8c7fc5	1.0976492
26	0x3f8dcef5	1.1078783
27	0x3f834406	1.0255134
28	0x3f8e9c8a	1.1141522
29	0x3f8d977f	1.1061858
30	0x3f8c7302	1.0972598
31	0x3f8a01b1	1.0781766
32	0x3f8aea76	1.0852802
33	0x3f8d27af	1.1027735
34	0x3f84db0f	1.0379351
35	0x3f91f65b	1.1403307
36	0x3f8a5487	1.0807046
37	0x3f8d203f	1.1025466
38	0x3f8a39bb	1.0798868
39	0x3f898098	1.0742369
40	0x3f8a9b93	1.0828727
41	0x3f8fd6b2	1.1237395
42	0x3f8ede3f	1.1161574
43	0x3f909b7d	1.1297451
44	0x3f8c071b	1.0939668
45	0x3f8f74a7	1.1207474
46	0x3f8a2cfb	1.0794977
47	0x3f8cbdc9	1.0995418
48	0x3f8c9486	1.0982826
49	0x3f8de5c7	1.1085747
50	0x3f8abdb0	1.0839138
51	0x3f8aec9a	1.0853455
52	0x3f8ddcb2	1.1082976
53	0x3f90ce5d	1.1312977
54	0x3f85d6f9	1.045623
55	0x3f8edb35	1.1160647
56	0x3f8c3e35	1.0956484
57	0x3f86ec3c	1.0540843
58	0x3f8de85c	1.1086535
59	0x3f8f5e95	1.1200739
60	0x3f8bec58	1.0931501
61	0x3f8f8532	1.1212523
62	0x3f8a6730	1.081274
63	0x3f927f4e	1.14451
64	0x3f8892ab	1.066976
65	0x3f8ee62a	1.116399
66	0x3f8ea305	1.11435
67	0x3f8ff78b	1.1247419
68	0x3f8c8de7	1.0980805
69	0x3f8963a9	1.0733539
70	0x3f8f42c5	1.1192251
71	0x3f8d27fe	1.102783
72	0x3f8d2c44	1.1029134
73	0x3f8aef5f	1.08543
74	0x3f8ce686	1.100785
75	0x3f8dd278	1.1079855
76	0x3f8ee2b0	1.116293
77	0x3f8e0662	1.1095698
78	0x3f8b7b73	1.0897049
79	0x3f82d16c	1.022016
80	0x3f7a9876	0.97888887
81	0x3f8d347b	1.1031641
82	0x3f914637	1.1349553
83	0x3f92461e	1.1427648
84	0x3f90a751	1.1301061
85	0x3f85f335	1.0464846
86	0x3f8dccc6	1.1078117
87	0x3f8e1736	1.1100833
88	0x3f8da1e7	1.1065034
89	0x3f8aa3f3	1.0831283
90	0x3f8c89dd	1.0979573
91	0x3f8d7ed0	1.1054325
92	0x3f90161c	1.1256747
93	0x3f85903d	1.0434643
94	0x3f8d5faa	1.1044819
95	0x3f9088a5	1.1291701
96	0x3f8add21	1.0848733
97	0x3f887701	1.0661317
98	0x3f91296f	1.134077
99	0x3f8e3f1b	1.1113008
100	0x3f8b03d0	1.0860538
101	0x3f828bec	1.0198951
102	0x3f914e3c	1.1352
103	0x3f8ce6dd	1.1007954
104	0x3f8f8435	1.1212221
105	0x3f8604f9	1.0470268
106	0x3f91cf14	1.139132
107	0x3f8d704d	1.1049896
108	0x3f8b13ba	1.0865395
109	0x3f8e03a6	1.1094863
110	0x3f8eac61	1.1146356
111	0x3f8c9fdc	1.0986285
112	0x3f8ff67f	1.12471
113	0x3f8ccb8e	1.099962
114	0x3f8a4918	1.0803556
115	0x3f8a5e4b	1.0810026
116	0x3f8d8bf2	1.1058333
117	0x3f8ee7cf	1.1164492
118	0x3f7d8e24	0.99045014
119	0x3f8a3906	1.0798652
120	0x3f809723	1.0046123
121	0x3f8e8073	1.113295
122	0x3f8fa79e	1.1223028
123	0x3f8be6d2	1.0929816
124	0x3f8c713b	1.0972055
125	0x3f8cec43	1.1009601
126	0x3f9025dc	1.1261554
127	0x3f8d4672	1.1037123
128	0x3f8f1ea2	1.1181223
129	0x3f8dae44	1.1068807
130	0x3f8986e7	1.0744294
131	0x3f8cff18	1.1015348
132	0x3f7d16c1	0.98862845
133	0x3f8eb03f	1.1147536
134	0x3f8bcd0f	1.0921954
135	0x3f8d7c19	1.1053497
136	0x3f8eec0b	1.1165785
137	0x3f913d4a	1.1346829
138	0x3f8bf88a	1.0935223
139	0x3f827882	1.0193026
140	0x3f8da5b7	1.1066197
141	0x3f8f9996	1.1218746
142	0x3f8b09db	1.0862383
143	0x3f87eeff	1.0619811
144	0x3f8b891b	1.0901216
145	0x3f8cc0d1	1.0996343
146	0x3f90c35a	1.1309617
147	0x3f8dea0e	1.1087053
148	0x3f8c5902	1.0964663
149	0x3f8dbe9e	1.1073797
150	0x3f895fa0	1.0732307
151	0x3f8ccfb6	1.1000888
152	0x3f8b48bc	1.0881572
153	0x3f8ff556	1.1246746
154	0x3f8ea50c	1.1144118
155	0x3f86eb3e	1.054054
156	0x3f8e4b38	1.1116705
157	0x3f8fb397	1.1226681
158	0x3f8f03b8	1.117301
159	0x3f904a5f	1.1272696
160	0x3f89e5fc	1.0773311
161	0x3f8ccb5d	1.0999562
162	0x3f8aee5a	1.0853989
163	0x3f906f7c	1.1284022
164	0x3f8dc07f	1.107437
165	0x3f89cbf5	1.0765368
166	0x3f8b233e	1.087013
167	0x3f8c0a13	1.0940574
168	0x3f8e67e3	1.1125454
169	0x3f8caa50	1.0989475
170	0x3f90ea48	1.1321497
171	0x3f8aad32	1.0834105
172	0x3f8cab46	1.0989769
173	0x3f912549	1.1339504
174	0x3f90084e	1.1252534
175	0x3f8d9526	1.1061141
176	0x3f8b79b9	1.0896522
177	0x3f9183d8	1.136836
178	0x3f8e03c3	1.1094898
179	0x3f8ba606	1.0910041
180	0x3f8be516	1.0929286
181	0x3f8e580c	1.112062
182	0x3f8c2f7c	1.0951991
183	0x3f8ebfbb	1.1152261
184	0x3f8b31b5	1.0874544
185	0x3f8b0be5	1.0863005
186	0x3f8f1873	1.1179336
187	0x3f8924ed	1.0714394
188	0x3f8967ce	1.0734804
189	0x3f8bd67a	1.0924828
190	0x3f8e7660	1.1129875
191	0x3f8acccd	1.084375
192	0x3f8651dc	1.0493731
193	0x3f88835b	1.0665087
194	0x3f8d433b	1.1036142
195	0x3f8f02e6	1.117276
196	0x3f85d247	1.0454797
197	0x3f8ae6e4	1.0851712
198	0x3f8e1306	1.1099555
199	0x3f8d8982	1.1057589

encodernorms.0.bias f4 [200]
0	0x3ecdca2a	0.401933
1	0x3cecd8b7	0.028911931
2	0x3cfae155	0.030625025
3	0xbe9d8c49	-0.30771092
4	0xbecfea51	-0.40608457
5	0x3e5f8950	0.21829724
6	0x3ee11587	0.43961737
7	0x3eee213d	0.46509734
8	0xbe9a19e7	-0.30097887
9	0x3ef778f3	0.48334464
10	0xbed6a440	-0.41922188
11	0x3ec7462b	0.3892072
12	0x3ed0c1b0	0.40772772
13	0xbed2ec84	-0.41196072
14	0xbebad51a	-0.3649071
15	0x3e6bb86b	0.23019569
16	0x3ef064fd	0.46952048
17	0xbe3bb5cb	-0.18331067
18	0xbef849af	-0.48493716
19	0xbef093b5	-0.46987692
20	0xbef1b81e	-0.47210783
21	0x3ebe5cd2	0.3718019
22	0xbec1dffa	-0.37866193
23	0x3ee7753c	0.4520663
24	0x3e64d3c4	0.22346407
25	0xbe8dd978	-0.27704978
26	0x3ec73337	0.3890626
27	0xbeeffea4	-0.46873963
28	0x3afec55b	0.0019437479
29	0x3ee032b2	0.43788677
30	0xbedf9cad	-0.43674222
31	0xbe9eefc4	-0.31042302
32	0x3e35c988	0.1775266
33	0x3eae60a8	0.34058118
34	0x3f08780d	0.5330818
35	0x3e8cd2ce	0.2750458
36	0x3eaadea4	0.33372986
37	0xbefc772c	-0.4930967
38	0xbeec200b	-0.46118197
39	0xbe959b00	-0.29219818
40	0xbe643a11	-0.22287776
41	0x3ec397d2	0.38201767
42	0x3e272f91	0.16326739
43	0x3d156226	0.036470555
44	0xbeb75418	-0.35806346
45	0xbeafbbcb	-0.34322962
46	0x3ef872db	0.48525128
47	0xbe40946d	-0.1880662
48	0xbdc70963	-0.09718587
49	0x3eec7b53	0.4618784
50	0xbe5c394e	-0.21506235
51	0xbea668ff	-0.3250198
52	0xbed48fdd	-0.4151601
53	0xbe34918d	-0.17633648
54	0x3ede4b40	0.43416786
55	0xbefa41c4	-0.488783
56	0xbefc6daf	-0.49302432
57	0x3e3415b9	0.17586412
58	0xbea6cbec	-0.32577455
59	0x3d99e1d3	0.07513776
60	0xbee16bbc	-0.44027507
61	0xbeba8f1f	-0.36437318
62	0xbea866f4	-0.32891047
63	0xbee33c38	-0.4438188
64	0x3d86a258	0.06573933
65	0x3e37ed78	0.17961681
66	0xbe8bdf55	-0.27318826
67	0x3e55be9d	0.20873494
68	0x3efb155f	0.49039742
69	0x3eeec6f5	0.46636167
70	0xbe7e4edf	-0.24834774
71	0xbf04d89b	-0.51893014
72	0xbd833985	-0.06407455
73	0x3e74bdb8	0.23900497
74	0x3ee77817	0.4520881
75	0xbecdfdc3	-0.40232667
76	0xbecab107	-0.39588186
77	0x3e04710b	0.12933747
78	0xbe94b6df	-0.2904577
79	0xbea2ddc5	-0.31809822
80	0xbeb642bc	-0.3559779
81	0xbefaf559	-0.4901531
82	0xbede6433	-0.4343582
83	0x3eebf001	0.46081546
84	0x3e058db1	0.13042332
85	0xbef21b9d	-0.47286692
86	0xbdae8f74	-0.08523455
87	0x3ed0fc2f	0.408174
88	0xbe83937e	-0.25698465
89	0xbe7e1e6a	-0.2481629
90	0xbebed60f	-0.3727269
91	0x3eee1315	0.46498933
92	0x3ee2da30	0.4430709
93	0x3ea81102	0.32825476
94	0xbea1e10a	-0.31617004
95	0x3c911bf7	0.01771353
96	0x3e1a4cd4	0.1506837
97	0x3e810219	0.25196913
98	0xbefdb217	-0.49549934
99	0xbe36ed25	-0.17863901
100	0x3ed5c5ee	0.4175257
101	0xbe5bab68	-0.21452105
102	0xbed37b39	-0.4130495
103	0x3e765c59	0.24058665
104	0xbef8f3f5	-0.48623624
105	0xbf00b52d	-0.5027645
106	0xbe9e45d9	-0.30912665
107	0x3ed63292	0.41835457
108	0xbec0bdb5	-0.37644735
109	0xbe691d17	-0.22765003
110	0xbea87a03	-0.32905588
111	0x3de15074	0.11001673
112	0xbec30f74	-0.38097727
113	0x3e910121	0.28321174
114	0x3d59aa2b	0.0531408
115	0x3e82373a	0.2543276
116	0xbe81b8b6	-0.25336236
117	0xbd093503	-0.03349782
118	0x3ef644c6	0.48099345
119	0xbe6bd634	-0.23030931
120	0xbedf3c41	-0.43600658
121	0xbebffce2	-0.37497622
122	0xbe8b2862	-0.27179247
123	0x3f006f48	0.501698
124	0xbeed197d	-0.4630851
125	0x3e71e398	0.23621976
126	0x3ea34777	0.3189046
127	0xbe1602cb	-0.14649503
128	0x3e3a3700	0.18185043
129	0xbe5c8390	-0.21534562
130	0x3e0dea99	0.13859023
131	0x3e73e598	0.23818052
132	0xbea3e7ef	-0.3201289
133	0xbda9ddc1	-0.08294249
134	0xbe0cbc78	-0.1374377
135	0xbe68c7d6	-0.22732481
136	0x3e07c083	0.13257031
137	0x3e463895	0.19357522
138	0x3efcea89	0.49397686
139	0xbf0b9193	-0.54519004
140	0x3eea6ef9	0.4578779
141	0x3ea28cd8	0.3174808
142	0x3e8fd53a	0.28092366
143	0xbf00e18c	-0.5034416
144	0xbeadabf4	-0.33920252
145	0xbeb3eb82	-0.35140616
146	0x3ed2153a	0.4103182
147	0xbdad7c35	-0.08470956
148	0xbddadc49	-0.10686547
149	0x3dcad554	0.0990397
150	0x3f00cfea	0.5031725
151	0x3ecc752c	0.39933145
152	0x3e4040ca	0.18774715
153	0xbed64204	-0.4184724
154	0x3ec93d71	0.3930469
155	0xbe4e6a8f	-0.20157836
156	0x3e9ec5e5	0.31010357
157	0xbec31a57	-0.38106033
158	0xbe386557	-0.18007408
159	0xbe9ebaec	-0.31001985
160	0x3ede16e5	0.43376842
161	0x3ee3847c	0.44437015
162	0xbef88668	-0.48540044
163	0xbed60374	-0.4179951
164	0xbd9f1d51	-0.077692635
165	0xbef45b61	-0.47725967
166	0x3ec420f1	0.38306382
167	0xbecfe71c	-0.4060601
168	0xbe583a0a	-0.2111589
169	0x3ee6e7fa	0.4509886
170	0x3eea34b3	0.4574333
171	0x3efcbad5	0.49361292
172	0x3e9c1d7f	0.30491254
173	0x3ed0dbda	0.40792733
174	0x3ee26335	0.44216314
175	0x3cc238ba	0.02370869
176	0xbe8ee0e4	-0.27905953
177	0x3e092347	0.13392363
178	0x3ef115c8	0.4708693
179	0x3eee9bf8	0.4660337
180	0x3e957633	0.2919174
181	0xbee9d67e	-0.45671457
182	0xbe189b3c	-0.14902967
183	0x3e8aed6c	0.27134264
184	0xbe5a9d32	-0.21349028
185	0xbee826a6	-0.45341986
186	0xbf0e2d2e	-0.5553769
187	0xbe8c1fff	-0.2736816
188	0xbeeb5bc6	-0.45968455
189	0xbe5c8e4f	-0.21538661
190	0x3ea0df19	0.3142021
191	0x3cd65e83	0.026168114
192	0x3ee850fb	0.45374283
193	0x3e34bdc6	0.17650518
194	0xbeb32def	-0.34995982
195	0xbeacd279	-0.33754328
196	0xbf029d3f	-0.5102119
197	0xbea9b202	-0.33143622
198	0xbec69658	-0.38786578
199	0xbed9da29	-0.42549255

encodernorms.0.running_mean f4 [200]
0	0x3e507f56	0.20361075
1	0x3e9e5364	0.30922997
2	0x3e90a24a	0.28248817
3	0x3e9fc569	0.312053
4	0xbb375f3e	-0.0027980353
5	0x3e94e891	0.29083684
6	0x3e93b13a	0.2884615
7	0x3eb8610e	0.36011547
8	0x3eba73f7	0.364166
9	0x3ea8ea64	0.32991326
10	0xbaea8566	-0.0017892539
11	0x3eaa4213	0.33253536
12	0xba4b7828	-0.000776174
13	0x3e684dad	0.22685881
14	0x3ebb286e	0.36554283
15	0x3e938809	0.28814724
16	0x3e853ec1	0.2602444
17	0x3ec46b87	0.38363287
18	0x3e86e8a8	0.26349378
19	0x3e9b110f	0.30286452
20	0x3e865ad0	0.2624116
21	0x3e8b36d2	0.27190262
22	0x3e901e8c	0.28148305
23	0x3c0ee2b2	0.008721041
24	0x3e920a14	0.28523314
25	0x3e8ab1ba	0.2708872
26	0x3eb2897e	0.34870523
27	0xbb3410c5	-0.0027475816
28	0x3e82c336	0.2553956
29	0x3ea0bebb	0.31395516
30	0x3eb641fb	0.35597214
31	0x3ebece28	0.3726666
32	0x3e89c031	0.26904443
33	0x3e8c0e2a	0.27354556
34	0xbb6eb000	-0.0036420822
35	0x3e92bcc1	0.28659633
36	0x3ec7b347	0.39003965
37	0x3e9c3bc2	0.30514342
38	0x3eb2d17d	0.34925452
39	0x3e9adb62	0.302455
40	0x3eb63003	0.35583505
41	0x3eb25c6a	0.3483613
42	0x3e8cb22c	0.27479684
43	0x3e92b143	0.28650865
44	0x3e744c0b	0.23857133
45	0x3eb33628	0.35002255
46	0x3e7ac42f	0.244889
47	0x3e84cc98	0.25937343
48	0x3ea18e42	0.31553847
49	0x3ed67ea8	0.41893506
50	0x3e90f4c0	0.2831173
51	0x3eae1f70	0.3400836
52	0x3eaafb4b	0.33394846
53	0x3e7424af	0.23842119
54	0xbba3ab34	-0.0049947742
55	0x3e8a0180	0.2695427
56	0x3e973b92	0.29537636
57	0xbb6bb3b0	-0.0035965256
58	0x3e855a24	0.26045334
59	0x3e96338d	0.29336205
60	0x3ec32baf	0.38119265
61	0x3e921094	0.28528273
62	0x3e915502	0.28385168
63	0x3e84e903	0.25959024
64	0x3e9f7121	0.31140998
65	0x3eb26bfe	0.34848017
66	0x3eb72b8d	0.35775414
67	0x3eb1e1ed	0.3474268
68	0x3e95023d	0.2910327
69	0x3ea2486a	0.31695873
70	0x3e91ede0	0.28501797
71	0x3ea2b970	0.31782103
72	0x3e4b7b72	0.1987131
73	0xbb924812	-0.004464158
74	0x3e843af6	0.25826234
75	0x3e89fde6	0.26951522
76	0x3ea22483	0.3166848
77	0x3e9241a8	0.28565717
78	0x3e95ad66	0.29233855
79	0xbb79f849	-0.0038142374
80	0x3c89a89f	0.016804038
81	0x3e90ccb8	0.28281188
82	0x3e840830	0.25787497
83	0x3e80055d	0.25004092
84	0x3e8af9d5	0.27143732
85	0x3e9e8df0	0.30967665
86	0x3e9c3d4e	0.30515522
87	0x3eacf8c1	0.33783534
88	0x3e812e93	0.25230846
89	0x3ea6f8ed	0.3261179
90	0x3ea63d08	0.32468438
91	0x3ea0f470	0.3143649
92	0x3e9adcf7	0.30246708
93	0xbb90ff0e	-0.004424936
94	0x3e9e000f	0.3085942
95	0x3e8b95b9	0.27262667
96	0x3e8ba2d9	0.2727268
97	0x3e8d63e2	0.27615267
98	0x3e96960c	0.29411352
99	0x3eae4fc9	0.34045246
100	0x3e9f0819	0.31060866
101	0xbb85099f	-0.004059985
102	0x3e985467	0.29751894
103	0x3e985791	0.29754308
104	0x3e859fbf	0.2609844
105	0xbba6576d	-0.00507634
106	0x3e94e210	0.29078722
107	0x3ea50a5c	0.32234466
108	0x3e9d282d	0.30694714
109	0x3eb17525	0.34659687
110	0x3ec451ed	0.38343754
111	0x3ea24a19	0.31697157
112	0x3e8efe76	0.27928513
113	0x3e871586	0.2638361
114	0x3e947961	0.28998855
115	0x3eb9bf7f	0.36278912
116	0x3e9d7a17	0.3075721
117	0x3e85e895	0.26154009
118	0xbb60a1e0	-0.0034276173
119	0x3eb4f536	0.3534333
120	0xbb151a3f	-0.002275124
121	0x3e8cd44f	0.2750573
122	0x3eb8da30	0.36103964
123	0x3e9d05db	0.3066853
124	0x3eba9e7a	0.36449033
125	0x3ebe2bea	0.3714288
126	0x3e957f40	0.29198647
127	0x3ea40628	0.32035947
128	0x3e9e87e0	0.3096304
129	0x3ea58914	0.32331145
130	0x3ec605fd	0.38676444
131	0x3e9a9ae0	0.30196285
132	0x3e74a13d	0.23889633
133	0x3e59e0db	0.21277182
134	0x3ea621c5	0.3244764
135	0x3e9ab346	0.302149
136	0x3ea9a79d	0.3313569
137	0x3e9e3b5c	0.30904663
138	0x3eba776b	0.36419234
139	0x3e25105f	0.16119526
140	0x3e92888d	0.28619805
141	0x3e946139	0.28980425
142	0x3e782bdb	0.2423548
143	0x3c81d9b0	0.015850872
144	0x3ead6473	0.338657
145	0x3ea9d9c1	0.33173946
146	0x3e8d6900	0.2761917
147	0x3e9de03d	0.30835143
148	0x3ea233d8	0.3168018
149	0x3e918383	0.28420648
150	0x3e97f93e	0.29682344
151	0x3ea5c091	0.3237348
152	0x3ea41600	0.32048035
153	0x3e9f6b67	0.3113663
154	0x3e85fba9	0.26168564
155	0x3a13891e	0.0005628037
156	0x3e9f6e95	0.31139055
157	0x3ea5a79a	0.32354432
158	0x3e83d167	0.257457
159	0x3e893e8b	0.2680553
160	0x3e914a10	0.28376818
161	0x3ea7ed2e	0.3279814
162	0x3e950dc5	0.29112068
163	0x3e7c46fc	0.24636453
164	0x3e8ec695	0.2788588
165	0xbb1d8380	-0.002403468
166	0x3e81a741	0.25322917
167	0x3eb8935e	0.36049932
168	0x3e766d5e	0.24065158
169	0x3e67cc1e	0.22636458
170	0x3e98eb16	0.29866856
171	0x3e9bc851	0.30426267
172	0x3ead8a9d	0.33894816
173	0x3e85679b	0.26055607
174	0x3ea354a6	0.3190052
175	0x3e942ee3	0.28942022
176	0x3e8d581a	0.2760628
177	0x3ea088d0	0.3135438
178	0x3ea547f3	0.32281455
179	0x3eaec3ae	0.34133667
180	0x3eb6c991	0.35700658
181	0x3ea11452	0.31460816
182	0x3ea7c544	0.3276769
183	0x3e8e9928	0.27851224
184	0x3eb675e7	0.35636827
185	0x3eb09fde	0.3449697
186	0x3e97926a	0.29603893
187	0x3ea5e3ac	0.32400262
188	0x3e879aaa	0.26485187
189	0x3e44c8c6	0.19217214
190	0x3e9dd6d0	0.3082795
191	0x3e90f387	0.28310797
192	0x3e5d064c	0.21584433
193	0x3e9be830	0.30450583
194	0x3e9a492f	0.3013396
195	0x3e8eb5da	0.27873117
196	0xbac7bd3a	-0.0015238889
197	0x3e7e5260	0.24836111
198	0x3e832d36	0.2562043
199	0x3e9af088	0.30261636

encodernorms.0.running_var f4 [200]
0	0x3d9be2ae	0.07611595
1	0x3e0ef751	0.13961531
2	0x3ddb73ba	0.107154325
3	0x3e01241f	0.12611435
4	0x3ac60abd	0.0015109401
5	0x3dd63f21	0.1046126
6	0x3de3d0ca	0.11123808
7	0x3e08923e	0.13337037
8	0x3e0d135d	0.13776918
9	0x3dfff835	0.124985136
10	0x3b3af0bd	0.002852484
11	0x3e038f5c	0.12847656
12	0x3ad94aa8	0.0016578035
13	0x3dc4b144	0.09604123
14	0x3e036fa2	0.12835553
15	0x3de58e70	0.112088084
16	0x3dc5f46f	0.09665763
17	0x3e1f7b01	0.15574266
18	0x3dddd697	0.108319454
19	0x3e007293	0.12543707
20	0x3dc5a67f	0.09650897
21	0x3de79664	0.113079816
22	0x3dc686f6	0.096937105
23	0x3ba08577	0.0048987227
24	0x3dbcd707	0.09220701
25	0x3dcc896d	0.099871494
26	0x3e11535d	0.14191957
27	0x3a96a4fa	0.0011493259
28	0x3dc5d06b	0.09658893
29	0x3e084954	0.13309222
30	0x3e0c26de	0.13686702
31	0x3e211c99	0.15733565
32	0x3db94248	0.09045845
33	0x3dc1dc62	0.09465863
34	0x3a599016	0.00082993635
35	0x3dfb869c	0.12281534
36	0x3e33157f	0.17488669
37	0x3dc38c9d	0.09548304
38	0x3dedccef	0.116113536
39	0x3dd3a1eb	0.10333618
40	0x3e13fa26	0.14450893
41	0x3dee7c0c	0.11644754
42	0x3decfa50	0.11571181
43	0x3ddaa201	0.10675431
44	0x3dba14a6	0.090859696
45	0x3e04902d	0.12945624
46	0x3db0450c	0.0860692
47	0x3de11dba	0.10991998
48	0x3dfdfb9b	0.124015056
49	0x3e26eea1	0.16301967
50	0x3e080692	0.13283756
51	0x3e0d13d7	0.137771
52	0x3e0a0c0f	0.13481162
53	0x3da2f2b0	0.07956445
54	0x39e767d5	0.00044137114
55	0x3dd3ada0	0.10335851
56	0x3e04a59c	0.129538
57	0x3a306536	0.0006728949
58	0x3dd03a3f	0.101673596
59	0x3de7db58	0.113211334
60	0x3e129f0b	0.14318483
61	0x3dc45a87	0.09587579
62	0x3e02bc66	0.12767181
63	0x3daf9d1b	0.08574887
64	0x3dd41085	0.10354713
65	0x3dff95db	0.124797545
66	0x3e21a270	0.15784621
67	0x3e07d791	0.13265826
68	0x3df9b062	0.121918455
69	0x3df29e14	0.11846557
70	0x3dc7ad41	0.097498424
71	0x3e00b5b9	0.12569322
72	0x3d8b5e1e	0.06805061
73	0x3a76c08b	0.00094128464
74	0x3dc7379b	0.09727403
75	0x3db18d40	0.086695194
76	0x3df3756f	0.11887633
77	0x3dde7696	0.10862462
78	0x3dd85b96	0.10564344
79	0x3a4a7d95	0.00077244017
80	0x3bdfb2cc	0.006826734
81	0x3dd47f90	0.10375893
82	0x3dd375c1	0.10325194
83	0x3d9440fc	0.07238957
84	0x3dcb8dff	0.09939193
85	0x3dee01e5	0.11621455
86	0x3deb0775	0.11476032
87	0x3e116667	0.1419922
88	0x3dad69c7	0.08467441
89	0x3e100d5a	0.14067593
90	0x3e0547b6	0.13015637
91	0x3e091d96	0.13390192
92	0x3dd01c9f	0.10161709
93	0x3a732f25	0.00092767394
94	0x3dedc8eb	0.11610588
95	0x3dce5def	0.1007651
96	0x3dd6d618	0.10490054
97	0x3dceeccb	0.101037584
98	0x3dc5dc17	0.096611194
99	0x3e0048d2	0.12527779
100	0x3deaf226	0.114719674
101	0x3a195484	0.00058490806
102	0x3dea0241	0.11426211
103	0x3e02fa02	0.12790683
104	0x3dc4e4cf	0.09613954
105	0x3a16b4d1	0.00057489896
106	0x3df0aa00	0.11751175
107	0x3e01ed6f	0.1268823
108	0x3dde8091	0.10864366
109	0x3e13a06a	0.14416662
110	0x3e0f44c8	0.13991082
111	0x3dfb3f42	0.12267925
112	0x3dce7cd2	0.10082401
113	0x3dd55457	0.10416477
114	0x3dddd288	0.10831171
115	0x3e0f2d66	0.13982162
116	0x3dec28ae	0.115311965
117	0x3dd3d371	0.103430636
118	0x3aa94259	0.001291345
119	0x3e0a5118	0.13507497
120	0x3ab94deb	0.0014137601
121	0x3def2333	0.116766356
122	0x3dedfc29	0.11620361
123	0x3debc523	0.1151221
124	0x3e3ceb48	0.18449128
125	0x3e0fbc42	0.14036658
126	0x3df050d8	0.1173417
127	0x3df9048b	0.1215907
128	0x3dee6e4e	0.11642133
129	0x3df53dd4	0.119746834
130	0x3e04ae99	0.12957229
131	0x3de4773d	0.111555554
132	0x3da8fdc8	0.0825153
133	0x3db6576a	0.08903392
134	0x3e02d9ab	0.12778346
135	0x3dd2c6e6	0.10291843
136	0x3e0079be	0.12546441
137	0x3e024104	0.12720114
138	0x3e07dc6e	0.13267681
139	0x3d7acc8a	0.06123022
140	0x3decb4c7	0.11557918
141	0x3dff5b14	0.12468544
142	0x3dc3aefc	0.0955486
143	0x3c1652e8	0.00917504
144	0x3df55766	0.119795606
145	0x3e0ae498	0.13563764
146	0x3dc4b130	0.09604108
147	0x3de7e278	0.11322492
148	0x3e081d61	0.13292457
149	0x3de2ccf2	0.110742465
150	0x3de5eab6	0.11226408
151	0x3e0e6433	0.1390541
152	0x3e0861b5	0.13318522
153	0x3dc7df5a	0.09759398
154	0x3dbad10c	0.09121904
155	0x3b0bbba2	0.0021321555
156	0x3de82d83	0.11336806
157	0x3de02e49	0.10946328
158	0x3dbfe7e9	0.09370405
159	0x3dc0e726	0.09419088
160	0x3de20d0f	0.11037647
161	0x3e081ad8	0.1329149
162	0x3df28536	0.11841814
163	0x3db363eb	0.08759292
164	0x3dbedecb	0.09319838
165	0x3a93eefd	0.0011286434
166	0x3dd0f4af	0.1020292
167	0x3e0201e2	0.1269603
168	0x3da6305a	0.08114691
169	0x3d83ff82	0.064452186
170	0x3df38388	0.11890322
171	0x3df3f47a	0.119118646
172	0x3e1f67df	0.15566967
173	0x3dbf0e97	0.09328955
174	0x3df766fa	0.12080188
175	0x3dcf5c5e	0.101250395
176	0x3ddee78d	0.108840086
177	0x3df442db	0.11926814
178	0x3e029e34	0.12755662
179	0x3e0a294b	0.13492315
180	0x3e18e248	0.1493007
181	0x3ddb14df	0.1069734
182	0x3df29dae	0.11846481
183	0x3dd1026f	0.10205542
184	0x3dfcb5d2	0.12339367
185	0x3e0cc0f0	0.13745475
186	0x3de8e951	0.113726266
187	0x3e050aa4	0.1299234
188	0x3dd106b2	0.10206355
189	0x3d85f043	0.06539967
190	0x3df52bac	0.119712204
191	0x3e048cfa	0.12944403
192	0x3db792cb	0.089635454
193	0x3e022c2e	0.12712166
194	0x3dde11a6	0.1084321
195	0x3dd1c253	0.102421425
196	0x3ad38c76	0.0016139883
197	0x3dcee8a0	0.101029634
198	0x3db00cfe	0.08596228
199	0x3e009ba2	0.12559369

decoderlayers.0.weight f4 [200, 30]
0	0x3e1b504b	0.15167348
1	0xbd08cf03	-0.033400547
2	0x3d283d52	0.041074105
3	0xbe067766	-0.13131484
4	0xbdf37146	-0.118868396
5	0x3dcdb3f5	0.1004409
6	0x3df05b6c	0.11736187
7	0x3b8c3cca	0.0042797076
8	0x3c01b1dc	0.00791594
9	0xbe2c6523	-0.16835456
10	0xbd51c702	-0.05121518
11	0x3d1a2f2c	0.037642643
12	0x3d36659d	0.0445305
13	0x3e37b58d	0.1794035
14	0xbd7373e8	-0.05943671
15	0x3dc902db	0.09814998
16	0x3db90ed2	0.0903603
17	0x3a52da5a	0.0008043401
18	0x3cbb4170	0.022858351
19	0xbd9d8a51	-0.076923974
20	0xbd32550e	-0.043538146
21	0xbe182806	-0.14859018
22	0xbd8d0342	-0.06885387
23	0x3e2ec322	0.17066625
24	0x3e531ae5	0.20615728
25	0xbdf96859	-0.12178106
26	0x3d9a6fac	0.07540831
27	0x3ddcf26c	0.10788426
28	0xbdc7fa31	-0.09764517
29	0x3e27d7da	0.16390935
30	0x3e01256d	0.12611933
31	0xbd0be5f8	-0.034154862
32	0x3e1b468d	0.15163632
33	0x3e1ab423	0.15107779
34	0xbe4d6a73	-0.20060138
35	0x3da6aa7c	0.08137986
36	0x3d1e3d63	0.03863276
37	0xbe0da9b1	-0.13834263
38	0x3dd7afb5	0.1053156
39	0xbd25b6dd	-0.040457595
40	0x3e27894c	0.16360968
41	0x3e005370	0.12531829
42	0xbe0b68bd	-0.13614173
43	0xbd88c402	-0.066780105
44	0xbe36d0f6	-0.1785315
45	0xbdf0e8cd	-0.11763153
46	0xbd37973b	-0.04482196
47	0xba2c2992	-0.0006567474
48	0x3dd4fa25	0.10399274
49	0x3d4d90bd	0.05018686
50	0xbbea336c	-0.0071472432
51	0xbd2e40bb	-0.0425422
52	0x3df38c9d	0.11892054
53	0x3d779aef	0.06045049
54	0xbe13d361	-0.14436103
55	0xbdcf1153	-0.10110726
56	0xbdbea408	-0.0930863
57	0x3dc82f8e	0.09774695
58	0x3c8f831d	0.017518574
59	0x3df1bdfb	0.11803814
60	0x3c05d3d0	0.008168176
61	0x3d84f829	0.06492645
62	0x3d649401	0.05580521
63	0x3dca45f2	0.09876622
64	0xbdf1b487	-0.11802011
65	0x3da525ee	0.08063875
66	0x3c587db6	0.013213566
67	0x3d9f7986	0.07786851
68	0x3e2d9aba	0.16953555
69	0xbe508b6d	-0.20365687
70	0x3d05d7c3	0.03267647
71	0xbe2b3580	-0.16719627
72	0xbdb583c6	-0.088630244
73	0xbe12ce56	-0.14336523
74	0x3d5de481	0.054172996
75	0xbe3e83f2	-0.1860502
76	0x3c0b40a1	0.008499295
77	0xbcd8d0a1	-0.02646667
78	0xbe078de9	-0.13237728
79	0xbb9816ed	-0.004641405
80	0xbd17be85	-0.037046928
81	0xbdc6f6a2	-0.0971501
82	0x3e48641b	0.19569437
83	0xbe26f304	-0.1630364
84	0x3e1e1195	0.15436395
85	0x3d208dd0	0.039197743
86	0xbcbfddc6	-0.02342118
87	0xbe08de5f	-0.13366078
88	0xbe18845a	-0.14894238
89	0x3dea07b6	0.11427252
90	0x3c4a9f10	0.012367025
91	0x3de82605	0.11335377
92	0x3dc75edd	0.097348906
93	0x3d7e963c	0.062154993
94	0xbd60fd58	-0.054929107
95	0x3b4d7a84	0.0031353543
96	0xbe2f8eca	-0.17144313
97	0x3dad967a	0.08475967
98	0x3d30d81e	0.043174855
99	0x3d8131ed	0.06308351
100	0xbd6ee8d0	-0.058327496
101	0xbe3b7c34	-0.18309098
102	0x3da9519d	0.082675196
103	0xbe0b553e	-0.13606736
104	0x3dd9adb3	0.106288336
105	0x3d589c50	0.052883446
106	0xbe188360	-0.14893866
107	0xbd8a2521	-0.06745363
108	0xbe2c89f8	-0.16849506
109	0x3daa3d1a	0.083124354
110	0xbd2cf845	-0.042228956
111	0x3deb5eda	0.11492701
112	0xbd70dc66	-0.05880394
113	0xbdca6011	-0.098816045
114	0xb986734a	-0.0002564437
115	0x3d00a0ca	0.03140334
116	0x3e49e8bb	0.19717686
117	0xbd5beabb	-0.053690653
118	0x3e1b2849	0.15152086
119	0x3de7be17	0.11315554
120	0xbd6561b0	-0.056001365
121	0x3e093abb	0.1340131
122	0x3e00bcee	0.12572071
123	0xbcc476f4	-0.023982503
124	0x3e4de765	0.20107801
125	0x3d00dc0d	0.031459857
126	0xb9ae830b	-0.000332855
127	0x3e36ca0b	0.17850511
128	0x3cf90e24	0.03040225
129	0xbe255d17	-0.16148792
130	0xbe6713b5	-0.22566111
131	0x3d7b9ea6	0.061430596
132	0x3e1488b9	0.1450528
133	0x3e0ededb	0.139522
134	0x3dee2ca7	0.116296105
135	0x3d6b3064	0.057419196
136	0xbdea606f	-0.114441745
137	0xbdbf87ac	-0.09352049
138	0xbde3b06e	-0.11117636
139	0x3bbe1b19	0.00580157
140	0x3e056c08	0.13029492
141	0xbe285e6b	-0.16442268
142	0x3df6187f	0.12016391
143	0xbccaa148	-0.024735108
144	0xbb8761dd	-0.0041315393
145	0xbdecf00a	-0.11569221
146	0xbd55e01d	-0.052215684
147	0xbd4fb83c	-0.05071281
148	0xbdf52bf2	-0.119712725
149	0x3e344cc4	0.17607409
150	0x3ca79f58	0.020461723
151	0x3e0fa327	0.14027081
152	0x3cf0f72b	0.029414734
153	0xbd35b4e8	-0.04436198
154	0xbe09c740	-0.13454914
155	0x3e1e96ba	0.15487185
156	0xbe00caeb	-0.12577407
157	0xbdb2cb10	-0.08730137
158	0xbe06c6b4	-0.13161737
159	0x3debdcd1	0.11516727
160	0x3cec5fc2	0.028854255
161	0x3e2f7e54	0.17138034
162	0xbe2fdc25	-0.17173822
163	0xbb3dfe64	-0.002899074
164	0x3db870da	0.090059
165	0x3e048d40	0.12944508
166	0xbd581608	-0.052755386
167	0x3dba880f	0.09107982
168	0xbd6e7da2	-0.05822528
169	0x3d6d83a7	0.05798688
170	0x3b96ede0	0.0046059936
171	0x3e38e075	0.18054374
172	0xbe0b27ac	-0.13589352
173	0xbdc2a954	-0.09504953
174	0x3d133349	0.03593758
175	0x3e1e96e3	0.15487246
176	0x3dc16385	0.0944281
177	0xbe17a54f	-0.14809154
178	0xbdd919c0	-0.106006145
179	0xbe28b132	-0.16473845
180	0x3dac2d58	0.08407086
181	0x3c5a08a9	0.013307729
182	0xbd925afa	-0.07146259
183	0x3e469b2f	0.19395135
184	0x3dbaa58a	0.09113605
185	0x3c931e61	0.017958822
186	0x3e10c185	0.14136322
187	0x3dad3148	0.08456665
188	0xbd455ef4	-0.048186257
189	0xbdbd47ce	-0.09242211
190	0x3e0ea936	0.13931736
191	0xbd65a3ff	-0.056064602
192	0x3dcd6528	0.1002906
193	0x3e22cbeb	0.15898101
194	0xbda0b86e	-0.07847677
195	0x3d71ff6c	0.05908148
196	0x3dc7c25b	0.09753867
197	0x3dfbfe0c	0.12304315
198	0x3d214995	0.039376814
199	0xbe130021	-0.14355518
200	0x3e46c938	0.19412696
201	0x3e34c3d8	0.17652833
202	0x3d837fc4	0.06420854
203	0xbd1646ff	-0.0366888
204	0x3cc83525	0.024439404
205	0x3d2e91a2	0.042619355
206	0xbda8f209	-0.082492895
207	0xbe217a38	-0.15769279
208	0x3c833233	0.016015148
209	0xbe1e42a1	-0.15455104
210	0x3e062777	0.13100992
211	0xbdf431b1	-0.119235404
212	0xbda1de1c	-0.07903692
213	0x3d85c433	0.06531563
214	0x3bbb7bdd	0.0057215528
215	0x3e15efe5	0.14642294
216	0x3e163467	0.14668427
217	0xbe006192	-0.1253722
218	0xbdc5bf1f	-0.09655594
219	0xbe1d4054	-0.1535657
220	0x3d8818e2	0.06645371
221	0xbdaa5d82	-0.083186164
222	0x3e3d9667	0.18514405
223	0xbbdf30ec	-0.006811252
224	0xbe2d7de2	-0.16942552
225	0x3e03351f	0.12813233
226	0x3c1e74bb	0.009671385
227	0xbe344d2a	-0.17607561
228	0xbc346f7b	-0.011012907
229	0xbd9b5987	-0.07585435
230	0xbdeaeb05	-0.11470608
231	0x3c9c054b	0.019045493
232	0x3e59feb3	0.21288566
233	0xbe134b41	-0.14384176
234	0xbc7b8c76	-0.015353313
235	0x3df7ee8c	0.12106046
236	0x3cf18e75	0.029486874
237	0xbe424003	-0.18969731
238	0x3d2e2842	0.04251886
239	0xbc70e0bb	-0.014702017
240	0x3c3b3944	0.011427227
241	0x3e4064ab	0.18788402
242	0x3e0fdfb5	0.14050181
243	0x3e24e0b8	0.16101348
244	0xbdcbf5b4	-0.099589735
245	0x3e23cd6b	0.1599633
246	0x3c5fcf75	0.013660301
247	0x3e0cc753	0.13747911
248	0x3c2c62b1	0.010521577
249	0xbdd67aab	-0.10472616
250	0x3e10c279	0.14136685
251	0xbe190bfd	-0.1494598
252	0x3cebf6a4	0.02880413
253	0x3e52b327	0.20576154
254	0xbdc3430f	-0.09534275
255	0x3d82823d	0.06372497

decoderlayers.0.bias f4 [200]
0	0x3de18d75	0.11013309
1	0x3e65ff9a	0.22460786
2	0x3e67c12d	0.22632284
3	0x3e1ef0c5	0.15521534
4	0x3dbadbfc	0.0912399
5	0xbb96d761	-0.004603312
6	0x3e61dcb2	0.22056845
7	0x3dd61e6c	0.10455021
8	0xbd8ae507	-0.06781965
9	0x3e0c514c	0.13702887
10	0xbd79f7f0	-0.061027467
11	0x3e1c814d	0.152837
12	0x3dca03db	0.098640166
13	0xbd8102cc	-0.062993616
14	0xbcf8c4e6	-0.030367326
15	0x3e09561f	0.13411759
16	0x3e3d0a98	0.18461072
17	0x3e440909	0.19144072
18	0x3e128744	0.14309412
19	0x3de1e93f	0.11030816
20	0x3df9fd49	0.122065134
21	0xbc313fe9	-0.01081846
22	0xbbcea2e2	-0.0063060382
23	0x3e84f7d9	0.25970343
24	0x3e186b26	0.14884624
25	0x3e623968	0.22092211
26	0x3e033d6a	0.12816396
27	0x3e283e44	0.16430002
28	0x3e661b3c	0.22471327
29	0x3e64f42d	0.2235877
30	0x3d856701	0.06513787
31	0xbd2bd68d	-0.04195266
32	0x3e0f1203	0.13971715
33	0x3e50d06a	0.20392004
34	0x3b3630a0	0.002779998
35	0x3e753706	0.23946771
36	0x3e801798	0.25018
37	0x3da001b9	0.078128286
38	0x3d94d221	0.072666414
39	0xbc3e8392	-0.0116280485
40	0x3e44be70	0.19213271
41	0xbbf66f71	-0.007520609
42	0x3e66aba3	0.22526412
43	0x3e9cba9d	0.30611125
44	0xbc5d5c11	-0.01351072
45	0x3cca3fdc	0.024688654
46	0x3e21c6ce	0.15798494
47	0x3e213c7b	0.15745728
48	0x3c0db493	0.008649009
49	0x3d811098	0.06301993
50	0x3e006bd5	0.12541135
51	0x3e082620	0.13295794
52	0xbd41fe1e	-0.047361486
53	0x3e77d1cb	0.24201123
54	0x3e5764f7	0.21034609
55	0xbdd16767	-0.102248006
56	0xbdfcf94e	-0.123522386
57	0xbc564a23	-0.013079199
58	0x3daef357	0.08542507
59	0x3e2c3a85	0.16819198
60	0x3d67520b	0.056474727
61	0x3e643478	0.2228564
62	0x3caccca1	0.021093668
63	0x3e434054	0.19067508
64	0xbdad8409	-0.08472449
65	0x3e2c553f	0.16829394
66	0x3d15e609	0.03659633
67	0x3d9de39c	0.07709429
68	0x3ced982e	0.029003229
69	0xbc756e9f	-0.014979987
70	0x3d8f38f0	0.06993282
71	0x3deac8ab	0.11464056
72	0x3e55fe6e	0.20897838
73	0x3e1b47a4	0.15164047
74	0x3e627a2c	0.22116917
75	0x3e303c75	0.17210563
76	0x3e12a7bf	0.14321803
77	0x3e3749f8	0.1789931
78	0x3d2632ef	0.040575918
79	0xbbad4280	-0.0052874684
80	0x3cd60f00	0.0261302
81	0x3e4c80c1	0.1997099
82	0x3d0ab3a5	0.03386273
83	0xbdb5017a	-0.08838172
84	0x3e457e5b	0.19286482
85	0xbb655c82	-0.0034997766
86	0x3e38f77d	0.1806316
87	0x3c4afcd8	0.012389384
88	0x3e14ca79	0.14530362
89	0x3e6eb5ae	0.23311493
90	0x3da8892e	0.0822929
91	0xbd5e4fe9	-0.054275427
92	0x3e5c63d8	0.21522462
93	0xbdd57ce1	-0.104242094
94	0xbddbce27	-0.1073268
95	0x3e01fd47	0.12694274
96	0x3e38c457	0.18043648
97	0x3e3f5c75	0.18687613
98	0x3e1ea0d4	0.15491039
99	0xbbf75abc	-0.007548658
100	0x3dea6b82	0.11446287
101	0x3bd9df5a	0.00664894
102	0xbc45ebaa	-0.0120801125
103	0xbdcf00df	-0.10107588
104	0x3b9babd8	0.00475071
105	0x3e430e3c	0.19048399
106	0xbc9e7931	-0.019344898
107	0x3e1e7e86	0.15477952
108	0xbcb460f3	-0.022018885
109	0x3dc8dbe9	0.098075695
110	0x3c1333d0	0.008984521
111	0x3d896db7	0.067103796
112	0x3e2237e1	0.15841629
113	0x3e79d97e	0.24399373
114	0x3dd73fd4	0.10510221
115	0x3da5546b	0.08072742
116	0xbd54dfcb	-0.051971238
117	0x3e92fd6a	0.28708965
118	0xbb05d7dc	-0.0020422852
119	0x3e061e19	0.13097419
120	0x3b950eca	0.004548882
121	0x3e2acc33	0.16679458
122	0x3e51d116	0.20489916
123	0x3e724447	0.23658858
124	0xbde0cf2c	-0.10977015
125	0xbd4b8716	-0.049689375
126	0x3e2274a3	0.15864806
127	0x3df83aae	0.12120567
128	0x3e201ec4	0.15636736
129	0x3d6625b8	0.056188315
130	0xbd7e5c50	-0.062099755
131	0x3c42d13e	0.011890708
132	0x3d14955c	0.036275253
133	0x3d9458d7	0.07243507
134	0x3d455c40	0.04818368
135	0xbc796ce7	-0.015223718
136	0xbd64ba72	-0.05584187
137	0x3d89d519	0.06730098
138	0x3d551e44	0.052030817
139	0xbd09e102	-0.03366185
140	0x3db618b6	0.08891432
141	0x3e8acd51	0.2710977
142	0x3d902dcb	0.07039984
143	0x3e5fcd93	0.21855764
144	0x3e76984c	0.24081534
145	0xbb371c93	-0.0027940616
146	0x3d70a06c	0.05874674
147	0x3c82683b	0.015918842
148	0x3e8a78fa	0.27045423
149	0x3db476ca	0.0881172
150	0x3d941d96	0.072322056
151	0x3e902227	0.28151056
152	0x3e0d6a33	0.13810043
153	0xbda5c900	-0.08094978
154	0x3db69ec0	0.08916998
155	0xbd3bf4d0	-0.04588777
156	0x3ea5da1d	0.3239297
157	0x3c44c38b	0.012009512
158	0x3e5c1362	0.21491769
159	0x3dd3b86e	0.103379115
160	0xbc18977f	-0.009313463
161	0x3e23bcaf	0.15989946
162	0x3df5e907	0.12007337
163	0x3e1156ea	0.14193311
164	0x3e89fbb8	0.2694986
165	0x3dc21347	0.09476333
166	0x3e434906	0.19070825
167	0x3dc3f657	0.0956847
168	0x3e1d9122	0.15387395
169	0x3e16a0a4	0.14709717
170	0x3db4f9c3	0.08836701
171	0x3d36d36e	0.04463523
172	0x3e624a82	0.22098735
173	0x3d91cc2b	0.0711902
174	0x3e799e05	0.24376686
175	0x3e2921ab	0.1651675
176	0x3e276a4e	0.16349146
177	0xbd221ec4	-0.03958012
178	0x3d8a28bd	0.067460515
179	0x3d5ef8d2	0.054436512
180	0x3dadb1b6	0.08481161
181	0x3e02ee3a	0.12786189
182	0x3e81db85	0.25362793
183	0x3d1bf98b	0.03807978
184	0x3d7280e4	0.05920495
185	0x3dab2e81	0.08358479
186	0x3d04cbb8	0.032420844
187	0xbcea2c7e	-0.028585669
188	0x3e75aab8	0.23990905
189	0x3d9a2c5b	0.075279914
190	0x3d8384c8	0.064218104
191	0x3e7481af	0.23877595
192	0x3e53f4b7	0.2069882
193	0x3e456cd8	0.19279802
194	0xbc88a858	-0.016681835
195	0x3e761722	0.24032262
196	0xbdf7b759	-0.12095518
197	0x3c9482a9	0.01812871
198	0xbc7121f2	-0.014717566
199	0x3e7fcdd1	0.24980856

decodernorms.0.weight f4 [200]
0	0x3f87325a	1.0562241
1	0x3f877a66	1.0584228
2	0x3f8481d9	1.0352126
3	0x3f85539c	1.041614
4	0x3f83ac7d	1.0287014
5	0x3f84ef4d	1.0385529
6	0x3f871a96	1.0554988
7	0x3f817e8e	1.0116746
8	0x3f871e2e	1.0556085
9	0x3f887e40	1.0663528
10	0x3f84d4c2	1.0377429
11	0x3f878d49	1.0589992
12	0x3f8a139b	1.0787233
13	0x3f88b81e	1.0681188
14	0x3f80ddfa	1.0067742
15	0x3f884f39	1.0649177
16	0x3f85469d	1.0412174
17	0x3f89e0c0	1.0771713
18	0x3f812037	1.0087956
19	0x3f84b7b9	1.0368568
20	0x3f8a668b	1.0812544
21	0x3f82351b	1.0172457
22	0x3f84c1ff	1.0371703
23	0x3f85fddb	1.0468096
24	0x3f845ba9	1.0340472
25	0x3f856c7d	1.0423733
26	0x3f8aef01	1.0854188
27	0x3f85b6eb	1.0446447
28	0x3f86771e	1.0505102
29	0x3f828a57	1.0198468
30	0x3f802929	1.0012561
31	0x3f80ad7a	1.0052941
32	0x3f849b99	1.0359985
33	0x3f891faa	1.0712788
34	0x3f8820de	1.063503
35	0x3f863556	1.0485027
36	0x3f854a6a	1.0413334
37	0x3f873594	1.0563226
38	0x3f840fa7	1.0317277
39	0x3f830928	1.0237169
40	0x3f891ea5	1.0712477
41	0x3f884681	1.0646516
42	0x3f86a05d	1.0517689
43	0x3f863a3e	1.0486524
44	0x3f851992	1.0398428
45	0x3f8546ab	1.0412191
46	0x3f8a7dc4	1.0819631
47	0x3f84a89d	1.0363957
48	0x3f851e00	1.039978
49	0x3f837356	1.0269573
50	0x3f82b398	1.0211058
51	0x3f82b8c5	1.0212637
52	0x3f872f22	1.0561259
53	0x3f829cc0	1.0204086
54	0x3f85c42b	1.0450491
55	0x3f813c62	1.0096552
56	0x3f88d424	1.068974
57	0x3f8b7bfd	1.0897213
58	0x3f81e830	1.0148983
59	0x3f818ef0	1.0121746
60	0x3f876d49	1.0580226
61	0x3f8618c9	1.0476314
62	0x3f849865	1.0359007
63	0x3f899911	1.0749837
64	0x3f888f61	1.0668756
65	0x3f86e30c	1.0538039
66	0x3f876325	1.0577132
67	0x3f8432f6	1.0328052
68	0x3f85ef8c	1.0463729
69	0x3f845f03	1.0341495
70	0x3f83f5d7	1.0309399
71	0x3f89b86d	1.0759407
72	0x3f88e096	1.0693538
73	0x3f8624da	1.0479996
74	0x3f8948fc	1.0725398
75	0x3f87516e	1.0571725
76	0x3f89d370	1.0767651
77	0x3f8101b7	1.0078648
78	0x3f843812	1.0329611
79	0x3f80017c	1.0000453
80	0x3f879961	1.0593683
81	0x3f84b3bd	1.0367352
82	0x3f858fd9	1.0434524
83	0x3f80272a	1.0011952
84	0x3f8b3c6f	1.0877818
85	0x3f86bec7	1.0526971
86	0x3f86eaed	1.0540444
87	0x3f84a008	1.0361338
88	0x3f86081d	1.0471226
89	0x3f849c88	1.036027
90	0x3f822bcd	1.0169617
91	0x3f869c5d	1.0516468
92	0x3f81be6c	1.0136237
93	0x3f83b7b4	1.0290437
94	0x3f85d728	1.0456285
95	0x3f8990ba	1.0747292
96	0x3f87c5bc	1.0607219
97	0x3f88eff3	1.0698227
98	0x3f878143	1.0586323
99	0x3f7a3c1b	0.97747964
100	0x3f84e8d3	1.0383552
101	0x3f82c308	1.0215769
102	0x3f83fe5d	1.0312
103	0x3f82cbee	1.0218484
104	0x3f8005cc	1.0001769
105	0x3f8879f8	1.0662222
106	0x3f83df2f	1.0302485
107	0x3f85938a	1.043565
108	0x3f80174a	1.0007107
109	0x3f84636c	1.0342841
110	0x3f86feb9	1.0546485
111	0x3f83daae	1.0301111
112	0x3f83e672	1.0304701
113	0x3f7f7e5d	0.9980219
114	0x3f847e53	1.0351051
115	0x3f827258	1.0191145
116	0x3f858bf7	1.0433339
117	0x3f81a3cd	1.0128113
118	0x3f82ff62	1.0234187
119	0x3f859ee2	1.0439112
120	0x3f87f579	1.0621787
121	0x3f80c450	1.005991
122	0x3f86f86c	1.0544562
123	0x3f898aa5	1.0745436
124	0x3f86e8f9	1.0539848
125	0x3f84f67a	1.0387719
126	0x3f8396e2	1.0280421
127	0x3f8801f0	1.0625591
128	0x3f8887e3	1.0666469
129	0x3f87a195	1.0596186
130	0x3f85e082	1.0459139
131	0x3f80eedc	1.0072894
132	0x3f83c36b	1.0294012
133	0x3f85cef8	1.0453787
134	0x3f82cb11	1.0218221
135	0x3f84f53f	1.0387343
136	0x3f866ab9	1.0501319
137	0x3f8420f4	1.0322556
138	0x3f82cc9c	1.0218692
139	0x3f839d4b	1.0282377
140	0x3f83ea64	1.0305905
141	0x3f841fbc	1.0322185
142	0x3f83c54e	1.0294588
143	0x3f859184	1.0435033
144	0x3f83338c	1.0250106
145	0x3f829458	1.0201521
146	0x3f841e69	1.032178
147	0x3f7d9688	0.9905782
148	0x3f85cc2a	1.0452931
149	0x3f8798f1	1.0593549
150	0x3f87b246	1.060128
151	0x3f87a051	1.05958
152	0x3f84d167	1.0376405
153	0x3f89fbf2	1.0780013
154	0x3f8680af	1.0508021
155	0x3f8737dd	1.0563923
156	0x3f874dac	1.0570579
157	0x3f827f09	1.0195018
158	0x3f869674	1.0514665
159	0x3f870e31	1.0551206
160	0x3f891cb7	1.0711888
161	0x3f856b4c	1.042337
162	0x3f7ca012	0.9868175
163	0x3f865337	1.0494145
164	0x3f87785c	1.0583606
165	0x3f870993	1.0549797
166	0x3f845e01	1.0341188
167	0x3f85a820	1.0441933
168	0x3f8238c1	1.017357
169	0x3f8dfc9d	1.1092716
170	0x3f884df6	1.0648792
171	0x3f890c8f	1.0706958
172	0x3f8349f1	1.025694
173	0x3f86d852	1.0534766
174	0x3f81f3ef	1.0152568
175	0x3f846fb2	1.0346587
176	0x3f8043cc	1.002069
177	0x3f8d81f8	1.1055288
178	0x3f867a0e	1.0505998
179	0x3f84454f	1.0333651
180	0x3f83b94b	1.0290922
181	0x3f86059c	1.0470462
182	0x3f8a1225	1.0786787
183	0x3f884a7d	1.0647732
184	0x3f855fb1	1.0419828
185	0x3f89bf29	1.0761462
186	0x3f84bf17	1.0370816
187	0x3f870f34	1.0551515
188	0x3f8991c2	1.0747607
189	0x3f800f59	1.0004684
190	0x3f868244	1.0508504
191	0x3f864b8d	1.0491806
192	0x3f882218	1.0635405
193	0x3f81f65e	1.015331
194	0x3f8c0357	1.0938519
195	0x3f837699	1.0270568
196	0x3f86ce67	1.0531739
197	0x3f85ae5c	1.0443835
198	0x3f89b4ae	1.0758264
199	0x3f84399d	1.0330082
