tutorial/interim_data_test/models/model_8_37.pt (torch, 14379 bytes, 18 tensors)

encoderlayers.0.weight f4 [12, 70]
00000000: e1f9 413d e223 2ab9 af17 10be 9f1c 59bd
00000010: bae4 cabd c6a3 aebd 824e 2cbe 6037 a63e
00000020: 0140 a43d c6a7 fb3c b98e 8b3d 16fe 1f3c
00000030: 63cb af3d 3b72 4d3d 1ae2 6bbd c336 9b3c
00000040: 7bae 2cbd 68e2 873d 2147 48bd e207 6f3d
00000050: 906e 90bc 1e1c 633d ca81 4fbd e52d 213d
00000060: f8d9 dabd 3470 883d 47a4 97bd 48b4 dbbc
00000070: 6276 0e3d aaab 04bd b01d b53d ebca b23c
00000080: 38ef d7bd 7ad9 0b3c 683d e6bc 09c6 b33d
00000090: b99c a33d 9d0e b4bc bb88 d73d 729c 5dbc
000000a0: f1ce 743d 3451 553d 4319 123c 8d3b 723d
000000b0: d064 403d d2f8 433d 4887 e13c 2142 a33d
000000c0: f35a a73d dbf3 6e3d 77b7 cabd c3f3 863d
000000d0: a48c f73b 1e8f bb3c a26f b4bd b12c 893c
000000e0: b7b9 ab3d 6728 7e3c a37e 663d 5593 913c
000000f0: 2a90 293d 5111 9a3d d84e 44bd 0f47 4a3c
00000100: 96bd 0bbc fe23 d0bd eeaf 203d 2f45 b0bd
00000110: e65b 123d 0e63 f4bc 0c9d f73d ce2f 7a3b
00000120: d178 593e b9c9 fbbd 1c03 3a3c 9187 f1bd
00000130: 4fa9 ad3d 8c90 f6bc 1aeb 383d e30d 183d
00000140: b278 813d c62d 4a3d d59b 913d 0982 38bd
00000150: 5f9a c43d 02ed 103e 420f 06bd 9709 a8bd
00000160: 3006 36bd 2311 49bd 9aa0 aebd df29 613c
00000170: 5088 813d eebf 86bc b4fa 803d ddc8 5c3d
00000180: eb23 84bd ce14 88bd 79c5 3fbd b16c ab3d
00000190: f0f0 3bbd 4c73 38bd ce68 873d 77d4 9a3d
000001a0: 8052 46bd 7d1b 57bd 2def d03d eab8 50bd
000001b0: 558d b73c 4e23 7abd 6f27 80bd 8852 dabd
000001c0: 775f f0bc 0346 103d b76e 7fbc 20b0 e13c
000001d0: 871f b93b 5bec 183d 1f94 db3d 0a62 a33d
000001e0: c160 973c da45 21bd 3a75 043d 3989 59bc
000001f0: 10aa 133c 9926 023e 7438 62bd 2acb 04bd
00000200: c124 2bbb ce65 97bd 62f0 3dbd 60c5 a0bc
00000210: 4dd8 3bbd fb57 ae3d 404a ebbc 942d 7e3d
00000220: f926 2fbc ae21 a7bd dd93 03be f39a 533d
00000230: 34ad 253e 2530 12be 7768 823c 8b13 79bd
00000240: afe3 c53d a43a dbbb c7ca 03be 1cba 1cbc
00000250: 5079 4ebe e410 673e 0c57 243d 50e3 843c
00000260: d1a5 a23d 46df b03d 7c2e 293d 2f9c b9bd
00000270: 7973 9ebd e45f b23c 0739 ccbd 3105 d0bc
00000280: 6ad7 8c3c 9d73 2fbb bc9d 553d 4460 b4bc
00000290: 3e48 43bb dab8 8ebd 7cd8 903c f06a 10bd
000002a0: aaab 073d f4c7 b03d b54f c23d 85a3 8d3d
000002b0: c670 26bd 6395 153d 1bb0 9f3c 31d8 723d
000002c0: 103a 303b 8ef9 ff3c 6e0e 183d 9f68 983d
000002d0: 17e8 013d bd21 3c3c 8168 bc3d b420 c83c
000002e0: 380a 14bd a10a 803c 8fbe c0bd c0bb a8bd
000002f0: 0736 8a3d 64fe 053e 0ff7 403d 3947 903d
00000300: 1b74 d4bb 9ce7 acbd 66fd 9fbd 6745 30bd
00000310: 1003 103d b92b d6bd 6c3e cf3d 8c17 db3c
00000320: b08a f23c fc83 753d b683 10bd ef88 8b3d
00000330: 1d1b a03d 4929 0cbc 6b4e e8bb e157 cbbd
00000340: 77bd 67bd 8798 393c 1d58 cbbd f648 203e
00000350: e6b0 ca3d a5fa adbc 9c83 723d c613 0bbe
00000360: 6bbb 823d f488 dbbd c756 353e 1c1b 6cbe
00000370: 00ed 363d a156 803c 8b1e 27bd 8319 ad3c
00000380: 6044 e3bb 73c4 13bd ed1b 523d c932 773d
00000390: cdc7 31bc 9657 5e3d 6f8f e23d 540e b13d
000003a0: 6a34 733a 9d13 aebb 7da1 083c 3590 293d
000003b0: 9eea 5abd 7712 273d c87a 2a3c e3d5 3ebc
000003c0: ee45 5d3d c9c4 973c a55c 98bd 3ff4 28bd
000003d0: 2c60 98bc 9c14 8b3b 83e4 873d ad37 023e
000003e0: 83dd e73d 2a62 933d 874a 1c3d ce59 39bb
000003f0: af12 16bd 0864 783c 2ac5 9b39 3455 4f3d
0.047357444 -0.00016225831 -0.14071535 -0.05300581 -0.099069074 -0.08527331 -0.16826823 0.32464123
0.0802002 0.030719649 0.068143316 0.009765169 0.08583715 0.050157767 -0.057588674 0.01894701
-0.042158585 0.066349804 -0.04889596 0.058357127 -0.017630845 0.055446737 -0.050660886 0.03935041
-0.106861055 0.06662026 -0.0740438 -0.026819363 0.034780867 -0.032390274 0.08843553 0.021825274
-0.10543674 0.008535737 -0.028105453 0.087780066 0.07988877 -0.021979624 0.10524126 -0.013526069
0.059767667 0.052079394 0.008917156 0.059138823 0.046971142 0.047844715 0.027530327 0.079715975
0.08171644 0.058338027 -0.098982744 0.065894626 0.0075546075 0.022895392 -0.08810355 0.016744943
0.08385032 0.015512562 0.056273114 0.017770449 0.04139725 0.07522834 -0.047926754 0.012346043
-0.0085290875 -0.10163115 0.03923028 -0.08606946 0.035732172 -0.02983239 0.12090501 0.0038175466
0.21237494 -0.12294335 0.01135328 -0.11793435 0.08479559 -0.030098222 0.045146085 0.03712262
0.06321849 0.04936006 0.07109801 -0.045045886 0.095997564 0.14152911 -0.032729395 -0.08204954
-0.044439495 -0.04908861 -0.08526726 0.013742893 0.06324828 -0.016448941 0.06297818 0.053902496
-0.06452163 -0.06644593 -0.046819184 0.083703406 -0.045884073 -0.04503183 0.06611787 0.07560056
-0.048418522 -0.05251645 0.10201869 -0.050957598 0.02240626 -0.061068825 -0.06257521 -0.10660273
-0.029342396 0.03522302 -0.015590361 0.027549803 0.0056495103 0.03733478 0.10721611 0.07977684
0.018478753 -0.039373256 0.03233836 -0.013277345 0.009012714 0.12710036 -0.05522962 -0.032420315
-0.0026114436 -0.073924646 -0.046371825 -0.019625366 -0.045860577 0.08512875 -0.028721929 0.062055185
-0.010690444 -0.08160721 -0.12849374 0.051661443 0.16179353 -0.14276178 0.015918953 -0.060809653
0.09662568 -0.00669034 -0.12870322 -0.009565856 -0.20163465 0.22565037 0.040122077 0.016221672
0.07941783 0.08636336 0.041304097 -0.09062993 -0.077368684 0.02177424 -0.099718146 -0.0253931
0.017192561 -0.0026771792 0.05215238 -0.02201856 -0.0029797698 -0.069688514 0.017681353 -0.035258234
0.033122696 0.08631888 0.09487859 0.069159545 -0.040634893 0.03651942 0.019493153 0.059288207
0.0026890077 0.031246927 0.037123136 0.0744183 0.03171548 0.011482653 0.0919962 0.024429657
-0.036142558 0.015630068 -0.09411346 -0.082389355 0.06748586 0.13085324 0.047110613 0.07044835
-0.0064835674 -0.084426135 -0.07812004 -0.043034937 0.03515917 -0.10457558 0.10119328 0.026744626
0.029607147 0.059940323 -0.03528186 0.068132274 0.078176714 -0.008554765 -0.0070894263 -0.09928871
-0.056577172 0.011327869 -0.09928916 0.15652832 0.09897022 -0.02123768 0.059207544 -0.13581762
0.063834034 -0.10719481 0.17708884 -0.23057216 0.044659615 0.015666308 -0.040800612 0.021130329
-0.006935641 -0.03607602 0.051296163 0.060351167 -0.010850859 0.054282747 0.11062514 0.08645311
0.00092775247 -0.0053123967 0.008339283 0.041397292 -0.053446405 0.040789094 0.01040525 -0.011647674
0.05402177 0.018526452 -0.074395455 -0.041248556 -0.018600546 0.0042444 0.06635382 0.12716551
0.11321547 0.07196458 0.038157012 -0.0028282288 -0.03663891 0.015160568 0.00029710802 0.050618365

encoderlayers.0.bias f4 [12]
00000000: fbf8 4bbd 51c5 5dbb ebb6 c63d bc7e ddbd
00000010: 1d59 c9bb d57f a7bd 4025 ca3d 3f5a 153e
00000020: f0d0 b1bd 5c9f 95bd c7be 23bd c7f0 013c
-0.049797993 -0.0033839534 0.097028576 -0.10815188 -0.0061446563 -0.08178679 0.09870386 0.14585207
-0.0868243 -0.07305786 -0.03997686 0.007930941

encodernorms.0.weight f4 [12]
00000000: eed1 903f ad44 963f 94ab 953f 758e 9d3f
00000010: 0079 923f aa8b 903f 81e2 8b3f 859a 8d3f
00000020: b493 923f 19cd 963f 9d7e 923f 397d 8a3f
1.1314065 1.1739708 1.1692986 1.23091 1.1443176 1.1292622 1.0928499 1.1062781
1.1451325 1.1781341 1.1444889 1.0819465

encodernorms.0.bias f4 [12]
00000000: 97e5 d23d ca93 d33d d41e 3a3e 9933 a9bd
00000010: 46d5 283c 9e1d 573d 8a03 4bbd 6a4d f0bc
00000020: 4721 153c a1e0 b83c f5ca 88bd 5a02 033e
0.10297697 0.10330923 0.18175822 -0.082617946 0.010304755 0.05251848 -0.049563922 -0.029333789
0.009102172 0.022568049 -0.06679336 0.12793866

encodernorms.0.running_mean f4 [12]
00000000: fd8e c33e 42ee 973e 8d80 d43e 069d 953e
00000010: dcc1 da3e 3921 883e abfc 873e 32a4 b13e
00000020: f2d6 843e 8efc b43e 13b8 a83e 5166 b83c
0.3819503 0.29673964 0.41504326 0.29221362 0.42726028 0.26587847 0.26559958 0.34695584
0.2594524 0.35348934 0.32952937 0.022509726

encodernorms.0.running_var f4 [12]
00000000: 7620 1b3e 313b d93d b3d9 233e 2e44 c53d
00000010: 09ad 0c3e d646 cc3d a014 cc3d fc1d 0f3e
00000020: aa51 cf3d 63e1 053e 9808 023e 9b4c 1b3c
0.15149102 0.10606993 0.16001014 0.09632145 0.13737883 0.099744484 0.099648714 0.13976282
0.10122998 0.1307426 0.12698591 0.009478713

decoderlayers.0.weight f4 [12, 8]
00000000: f26e f63d 8486 8cbe 8a80 ec3d 2368 303e
00000010: 6547 36be aac2 d53d 70e5 ee39 c23a 95be
00000020: 1b48 aabb 9b3b 8e3d 7afa cebe 493c 2c3e
00000030: 6af6 24be f465 983e 0205 3e3d cf1c 25be
00000040: 82a1 8f3e 8cdf 123e bdc8 c83e a7ae c2bd
00000050: a63b 433e 8d03 71bc 4875 70be a8bd 0abe
00000060: dd0d bbbd e21c 5cbe bbe2 6d3e dc53 963d
00000070: 5ed2 bd3d bd43 c3bb 7f96 31bc 8d5b 71be
00000080: 8315 1ebe 46b7 c3be 149f a93e 79ee b13d
00000090: e789 8ebd caa1 883e 3db3 e8bd 5df6 a0bd
000000a0: 6e80 613d 73f2 023e 7413 14bd 088f a43d
000000b0: 4a18 213e 5ecf 71be cfb3 aebc 7b3a 80be
000000c0: c4b0 5dbe c252 c43d fb4e b33e 7217 adbe
000000d0: 26bf 39be a076 9dbe 5ec0 193d 6e6b 593e
000000e0: c0a8 bbbc a442 99be 544a 2e3e 46d2 973e
000000f0: 51c3 a93d 9ab7 673e a3aa 1bbc a54a 0b3e
00000100: bb21 143e eb98 a7bc 7f47 3fbe dce8 1d3e
00000110: 7849 893e 5714 b2be 975f be3d 4fcc 213b
00000120: 86c3 80be 8328 05be 491b b23e 6c38 853d
00000130: 908b 63be a031 45bd e560 b13d 5284 f3bd
00000140: d1b0 a7be 4644 6f3e 11da 033e 2747 40be
00000150: db8e 71be 7f59 933e e7fc 10be 9bee 9e3d
00000160: 9503 a13e 84c7 7dbe 3226 723e 66f5 d13c
00000170: b4eb 77bd 0ef2 83be e7e6 52be 6a38 123e
0.1203288 -0.27446377 0.115479544 0.17227225 -0.17800672 0.1043752 0.00045565842 -0.2914639
-0.005196584 0.069449626 -0.40425473 0.16819872 -0.16109625 0.29765284 0.046391495 -0.16124271
0.28052908 0.14343089 0.3921565 -0.095059685 0.19065723 -0.014710319 -0.23482239 -0.1354891
-0.091335036 -0.21495393 0.23231022 0.07340214 0.0926864 -0.0059590028 -0.010839104 -0.2357008
-0.15437894 -0.38225764 0.3312918 0.08688063 -0.069598965 0.26685935 -0.11362312 -0.0785949
0.05505412 0.127878 -0.036151364 0.080350935 0.15731922 -0.2361426 -0.021325974 -0.25044617
-0.21649462 0.09586097 0.35021195 -0.3380695 -0.18139324 -0.30754566 0.03753697 0.21232387
-0.022907615 -0.29933655 0.17020541 0.29652613 0.08289207 0.22628632 -0.009501132 0.13602693
0.14465992 -0.02045866 -0.18679617 0.1542086 0.26813865 -0.34781143 0.09295576 0.0024688428
-0.25149173 -0.13003735 0.34786442 0.06504902 -0.22221208 -0.04814303 0.08661059 -0.118904725
-0.32752088 0.23365888 0.12876154 -0.18777142 -0.23589651 0.28779218 -0.14158975 0.07760354
0.31448045 -0.2478314 0.23647383 0.02562971 -0.06052752 -0.2577061 -0.20595895 0.14279333

decoderlayers.0.bias f4 [12]
00000000: 3508 24be cc95 29be a6c5 b93d 89b9 6c3e
00000010: b270 35be 379f 963e 11b6 5ebe 46e3 8d3e
00000020: 6a78 bd3e e909 6e3d 7a41 bbbc 88e2 c4b9
-0.16018756 -0.16561049 0.090709016 0.23117651 -0.17718771 0.29418346 -0.2174914 0.27712458
0.3700593 0.05811492 -0.02285837 -0.00037552812

decodernorms.0.weight f4 [12]
00000000: b5ef 5b3f b60d 443f b08b 533f edf8 533f
00000010: 631c 4d3f 11eb 5e3f 2c6e 4d3f eeaa 533f
00000020: ef25 3f3f 4d7f 503f d8ca 4b3f 81fc 423f
0.8591264 0.7658342 0.8263502 0.82801706 0.8012144 0.8707743 0.80246234 0.82682693
0.7466726 0.81444246 0.7960639 0.7616654

decodernorms.0.bias f4 [12]
00000000: 8448 2d3d 81a4 0ebd 2ab4 02be 2e51 38bd
00000010: 8cfd b03d 6a22 f13d 0fc2 633d d7a5 febd
00000020: 06e1 1abd ae56 8fbd 8384 923d b739 36bd
0.042305484 -0.034824852 -0.1276404 -0.044999294 0.0864211 0.11774142 0.05560499 -0.12433975
-0.037812255 -0.06998955 0.07154181 -0.044488635

decodernorms.0.running_mean f4 [12]
00000000: 2d47 de3e 1cca d33e 016e 0a3f 97cf 093f
00000010: baeb ed3e d38e e13e a98f ac3e bda6 243f
00000020: 0044 f23e 7b76 ae3e 703b dd3e 58af e33e
0.43413678 0.41365135 0.540741 0.5383238 0.46468908 0.4405428 0.33703354 0.6431692
0.47317505 0.34074768 0.4320941 0.44469714

decodernorms.0.running_var f4 [12]
00000000: 6803 d83e d4c2 e93e 3cba 253f aadc d63e
00000010: 943f 073f 7a6f a93e 6fab 113f 9d33 123f
00000020: 6ab1 e53e 5e23 883e 0c76 193f a2cb 063f
0.421901 0.45656455 0.64737296 0.41965228 0.5283139 0.33092862 0.5690221 0.57110006
0.4486192 0.26589483 0.5994575 0.5265447

mu.weight f4 [8, 12]
00000000: b740 39be a6ef 05be f189 163e 27f6 5fbd
00000010: e91d a53e a693 423e 1bd7 973e 2c15 893e
00000020: eb11 163e 551e c9be 37b1 fabd a3ef 893e
00000030: a49b 99be f33b 53be 3d29 99be 630b a83e
00000040: cc31 753c 6699 6a3d b002 9bbe c360 4cbd
00000050: 4956 3abe 6049 d1be f768 bd3e 87cf f73b
00000060: 39be 5dbe c329 c03e 0435 1dbd cc2b b43e
00000070: 0e78 43be f23c 8bbe 8adc 033e 6c8e 9e3e
00000080: d009 123e 9ffd 383e c222 813e b2e9 833e
00000090: 9c02 883e e307 003e bba7 ce3e 882c 2dbe
000000a0: e6d4 9f3e bb65 3abd fe69 a5bd 5c6f 803e
000000b0: d494 423e dd2a 403e 7e84 24be c766 a2bc
000000c0: abb7 3ebe 4f7a 403e 7684 843e 5ace 61bd
000000d0: 744c 033e 4b2d b1be 5733 8fbd e838 203e
000000e0: 626a 5f3e d338 bbbd 16bc 1fbd c791 0bbd
000000f0: 254d dc3e 78ed babe 89a5 fb3d 0fd7 9d3e
00000100: ba39 6f3d ee38 a43d fbc1 873e a525 33be
00000110: 7461 a8be e673 6f3d 47ee a9be 4bc9 ccbd
00000120: c9b3 873e 484f a8be 9142 25be 8339 62be
00000130: f078 b1bd de12 fd3c 0f43 2d3e 16b6 4e3e
00000140: e680 c23d 82b3 013e b71c 153d a47e 97be
00000150: bf5d da3d 7397 8b3d d0a2 43be f5b1 b43e
00000160: 969b 38be d0e2 b1be 7b61 eebd d71a e4bd
00000170: 4344 81be 143c 2dbd 8af0 05be ee63 5cbe
-0.18091093 -0.130797 0.14701058 -0.05467811 0.32249382 0.19001636 0.296563 0.26773965
0.14655273 -0.39280954 -0.12240832 0.2694064 -0.30001557 -0.20628338 -0.29914275 0.32821187
0.014965486 0.0572752 -0.30275488 -0.049896967 -0.18196978 -0.40876293 0.36994144 0.007562581
-0.21654595 0.37531862 -0.038380638 0.35189664 -0.19088766 -0.27194935 0.12877098 0.30968034
0.14261556 0.18065499 0.2522183 0.25764233 0.2656449 0.12503009 0.40362343 -0.16911519
0.31217116 -0.045507174 -0.08076857 0.2508496 0.19002086 0.18766351 -0.16066167 -0.019824399
-0.18624751 0.18796657 0.2588231 -0.055128433 0.12822133 -0.34604868 -0.06992214 0.15646708
0.21817926 -0.09141698 -0.038997732 -0.03407457 0.43027607 -0.365093 0.12287433 0.3082814
0.05840466 0.08018671 0.26515183 -0.17494829 -0.3288685 0.05846014 -0.33189604 -0.09999331
0.26504353 -0.32872987 -0.16138674 -0.22092251 -0.08665645 0.030892786 0.16920112 0.20186648
0.09497242 0.12666133 0.036404338 -0.29588807 0.10662412 0.06815996 -0.19105077 0.3529202
-0.18028101 -0.34743357 -0.11639687 -0.11137932 -0.25247392 -0.042293623 -0.1308004 -0.21522495

mu.bias f4 [8]
00000000: 1844 633e 9f97 98be 397a c53d 036b 83bd
00000010: 6be4 1ebd 5e62 433e ddbe acbe 305e 69be
0.22193944 -0.29803178 0.09642453 -0.06416895 -0.038792055 0.19080493 -0.33739367 -0.22789836

var.weight f4 [8, 12]
00000000: e9c2 2bbe 7882 39be 4b4a 67be 3aa7 4d3e
00000010: f35e d5bc 17b3 f5bd bc2a 653e af12 273e
00000020: 94d9 bb3d 041a 223e 4593 d53d 9ff3 4e3e
00000030: 3a41 6bbd f847 27be 206a 20be a24a 853e
00000040: e698 2d3e 86c7 db3d da7c cc3d 8fdd c5bc
00000050: ee48 e23d db95 a1bb a02f 1a3e c8f7 1bbe
00000060: 39e5 3c3e bbb7 4dbe 9c0d 803e 4fa1 be3d
00000070: b18e 3fbe 3fbe ca3c 0469 15bc 791b 7f3e
00000080: c5a2 383e 8390 193e dc61 483e 3c59 e0bd
00000090: ed3d a9bc 5ebf 163e 2531 32be 125e fe3c
000000a0: 670c 1cbd bdfe 0c3e 792d 12be c679 45be
000000b0: 16b8 9ebd ce24 eabc ca51 9f3d 0d7e d03d
000000c0: b2d0 3dbe 827a 49be 181a 8dbd 5844 ccbd
000000d0: 2de4 68bd 1698 00be 20dc 843d 3446 babd
000000e0: 0b3a 9dbd ffaf dcbd a2d2 3f3e dea5 963d
000000f0: d1dd e03c bd23 03bb 6835 35be 03e8 373e
00000100: 6f4d 1c3e 6aa6 6ebe 8bb0 d53d 0311 793e
00000110: 12db 103d d16c a5bd f983 1cbe b641 1abe
00000120: 3efc 703e 0811 94bd 4df0 53be 3466 713e
00000130: b088 00bd 920a c5bd d1f7 4f3e a43a 6bbc
00000140: 1d49 c03d 27a7 c93c 2208 c2bc 8896 833e
00000150: c906 81be 64d5 683e 1e3a 51be e119 35be
00000160: 9ec8 97bd 3c8e 153e 7d56 84bd beb1 08bd
00000170: 0115 03be 3547 fb3d 2091 00be e9c0 4fbe
-0.16773571 -0.18116176 -0.22586934 0.20083323 -0.026046252 -0.11997049 0.22379583 0.16315721
0.09172359 0.15830237 0.1042848 0.20210122 -0.05743525 -0.16336048 -0.15665483 0.26033503
0.16952857 0.107314155 0.09984751 -0.024153499 0.110490665 -0.0049311942 0.1505723 -0.1523124
0.18446817 -0.20089619 0.25010383 0.09308111 -0.18706776 0.02474892 -0.009119276 0.24912824
0.18030842 0.14996533 0.1956858 -0.1095452 -0.020659411 0.14721438 -0.1740156 0.031050716
-0.038097765 0.1376905 -0.14275159 -0.19284734 -0.07749955 -0.028582003 0.07779272 0.10180292
-0.18536642 -0.1967564 -0.068897426 -0.09973973 -0.05685823 -0.12558016 0.06487298 -0.090954214
-0.076770864 -0.10775756 0.18732694 0.073558554 0.02744952 -0.0020010315 -0.17696154 0.17959599
0.15263914 -0.2330567 0.104340635 0.24322896 0.03536517 -0.08077396 -0.15284719 -0.15064129
0.23533723 -0.07229811 -0.20697136 0.23574144 -0.031380355 -0.09621157 0.20309378 -0.014357243
0.09388945 0.024615837 -0.023685519 0.25700784 -0.2520049 0.22737652 -0.20432326 -0.17685653
-0.074113116 0.1460504 -0.06461809 -0.033372633 -0.12800981 0.12269441 -0.12555361 -0.20288433

var.bias f4 [8]
00000000: b549 58be 599a 2bbe 5ad2 72be ff35 18be
00000010: ae6a 023d 98f0 fe3d 6c3f c43d cee3 62be
-0.21121867 -0.16758098 -0.23713055 -0.14864348 0.03184002 0.12448233 0.09582409 -0.22157213

out.weight f4 [70, 12]
00000000: 9a97 8d3e c055 633e d99b 3dbd 192b 313e
00000010: 5b13 05be 836e 7cbd 9eac 3cbe 9370 1d3e
00000020: 1360 c3bd a6aa debc a71b 5abe 8afe 6abc
00000030: 2684 213e c8b1 833d 3376 55be f9a0 6fbe
00000040: d6e6 5e3e fc9f 50be 62b2 d5bd 4421 5ebe
00000050: 1f10 87be 1db6 3fbe 60a2 1f3e ac6d eabd
00000060: f5d1 3abe 41b1 e3bd d3ed 043d 87c3 183e
00000070: f57f e0bc b45a 553b f7f1 3cbd 21a5 183e
00000080: c7c4 2f3e 2653 6fbd b410 073d 94b6 92bd
00000090: f886 2c3e 8033 8ebd f7af 0cbe 3005 3dbe
000000a0: 58fc 13be ed67 24bc 7a48 5bbe de8f e7bd
000000b0: ff77 823e 019e e4bd 9ef9 9a3d 821e 63be
000000c0: 1d09 7b3e 55e6 2c3e 6beb a03d fefc b03e
000000d0: 8875 ae3d 42bf 71be 7a54 7cbe ac40 debc
000000e0: 2959 9f3c a71a 6abd 6ccd 5c3d 30d1 d6bc
000000f0: ddd8 2f3e 7f87 803e d720 efbd 30c6 163e
00000100: 2de5 2ebe fd10 053e 0ce3 8cbe c2eb 583c
00000110: 9b9f 49be 5902 2fbe fe1f 11be 3027 16be
00000120: 0d4d 2cbe d3d1 14be a2d8 5a3e aec6 89be
00000130: 7978 7ebe 33e6 c43d fab5 db3d 1745 a2bc
00000140: 68e3 49bd 6d25 48be ee7d f33b 4d45 9a3e
00000150: 313e 613d 5e95 843e ee5c 26be b88f 5fbe
00000160: 4f1d 593c 77ac 80be ace8 5bbd d24c 29bd
00000170: 4018 ffbd 9274 05be 9700 4cbe 6ab2 4a3e
00000180: be60 96be 0719 f1bc 271e 13be 4b77 63be
00000190: 241a 4d3e d05e 763c b090 a13e e566 b23d
000001a0: 9c4b 78be ccc6 dd3d 5a7c 01bd 6d08 35be
000001b0: 1ab7 333e 0813 6a3e c8bf 66be cecf 1e3e
000001c0: c8a1 273e 0094 033e f723 d13c a4ed 053e
000001d0: 1d56 3f3c 7955 75be 87df 99be a57b a03d
000001e0: 50b8 e8bd c6c2 93be 6573 d1bd 3dab debd
000001f0: 234e a13d 5655 5ebe 5f26 ba3d bdf2 14be
00000200: 2122 72be 8326 45be 7cdb 233e 046b a93d
00000210: 28d4 3bbe 95b7 c1bd a7c1 203e 5c48 13be
00000220: 05c3 6b3c f0eb 5dbe 295f ac3d e264 3ebe
00000230: a66e 75be 7a44 b83d 9630 863d a263 243e
00000240: 35c8 363d c5b1 74be a6f3 ad3d 3f26 243e
00000250: 9735 98be 8647 0cbe bcca 8ebd 8efe d73d
00000260: b794 fabd 168b 363d 2da5 d6bd 2f3d 49bd
00000270: 8b2e b33d f37b 25be 5df6 653e 38dc 35be
00000280: ec4b 1dbe 9930 6bbe 5a3a 523d ebc0 ca3d
00000290: 8b81 a23d 3fc8 223e 0eb9 0ebe 3dea 71be
000002a0: 03c7 8ebc b434 1e3e 2e4d 823d 1b91 2c3e
000002b0: 84b4 6e3e d43f 983d 6eab aabd 5ec2 eabd
000002c0: e0cd 51be 31d6 4c3e 5f0c f4bd 8d38 b9bd
000002d0: 3ff9 10bd f0ca 173e e7fa 823d f180 5e3e
000002e0: 362b 003e 53b1 84bd 2fbe 86bd b725 dcbd
000002f0: 2cd6 c7bd 9df6 1d3e 3b3d 82bd 6da8 8ebb
00000300: e1dd 303e 4b80 1bbe bc1a 173e 2cb9 663e
00000310: c0c5 fabd c47d 84bd 0ac1 6d3d 51d1 2abe
00000320: f9d5 02be f671 3cbd 7218 36bd dcf0 933d
00000330: c5a7 293e e425 0dbd f4c6 333e a167 28be
00000340: 5adb 1abe 7178 263e 495b d83b 8071 313e
00000350: 6506 85be 442f 323d f007 adbd 6d83 91bd
00000360: d4bc babb f1c9 8f3d 6eec ac3d 3ebf 4ebd
00000370: 68e1 093e ee70 643e 82e4 ad3e 1ee9 a0bd
00000380: a874 42be 2450 5bbe fe05 463d 34b5 e0bd
00000390: 12e7 863d b2de 213e 7e4a 4d3e dc86 d63d
000003a0: 371a 0ebe f355 04be c511 003e 03e5 403e
000003b0: 4224 6ebc 0129 26be d04e 593e e1fe 3b3c
000003c0: ba12 823d 385c a7bc dde2 093e ac3e 84be
000003d0: b107 713d 46bf dcbd 2b08 a73e 91f9 873d
000003e0: 8c37 a1bd d96f 5cbb 20e1 97bd 9dc0 c63d
000003f0: 6969 3f3e 843f a53c 9b01 013d 3e0a 7bbe
0.27654725 0.2220068 -0.046291206 0.17301597 -0.12995665 -0.06162883 -0.18425223 0.15374975
-0.09539809 -0.02718098 -0.21299611 -0.014342913 0.15773067 0.064303935 -0.2084587 -0.2340125
0.21767744 -0.20373529 -0.104344144 -0.21692377 -0.26379487 -0.18721814 0.15589285 -0.114466995
-0.18244155 -0.11117793 0.03245337 0.14918338 -0.027404765 0.0032555284 -0.046129193 0.14906742
0.17164908 -0.058428906 0.032974914 -0.0716373 0.16848361 -0.069434166 -0.13739 -0.1845901
-0.1445173 -0.010034543 -0.21414366 -0.11306737 0.25482175 -0.11162949 0.07567142 -0.22179607
0.24515195 0.1688474 0.078574024 0.34568018 0.08518511 -0.23608115 -0.246416 -0.027130447
0.019451695 -0.057154324 0.053906843 -0.026222795 0.1717257 0.25103375 -0.116761856 0.1472404
-0.17079611 0.12994762 -0.27516973 0.013239803 -0.19689791 -0.1709074 -0.1417236 -0.14663386
-0.16826268 -0.14533167 0.21371701 -0.26909393 -0.24850644 0.096142195 0.10728069 -0.019808335
-0.049289137 -0.19545527 0.0074307835 0.30130997 0.05499095 0.25895208 -0.16246387 -0.21832168
0.013251617 -0.2513158 -0.05368869 -0.041333027 -0.12455797 -0.1303275 -0.199221 0.19794622
-0.29370683 -0.02943088 -0.14366971 -0.22213475 0.20029503 0.0150372535 0.315557 0.08711032
-0.24247593 0.10828933 -0.03161273 -0.17678995 0.17550316 0.22858822 -0.22534096 0.15508959
0.16370308 0.12849426 0.025529845 0.13078934 0.011678246 -0.23958386 -0.3005335 0.07836083
-0.1136328 -0.28859538 -0.10227088 -0.10872505 0.078762315 -0.2171224 0.0908935 -0.14545722
-0.23645832 -0.19252972 0.16001695 0.08272365 -0.1834265 -0.094588436 0.15698873 -0.14383072
0.014389758 -0.21672034 0.08416588 -0.18593171 -0.2396799 0.08997436 0.06552236 0.16053632
0.044624526 -0.23895939 0.08493738 0.16030215 -0.29728386 -0.13699159 -0.06972262 0.10546599
-0.12235396 0.044566236 -0.104807235 -0.049130615 0.08749112 -0.16160564 0.22457261 -0.17759788
-0.15360993 -0.22967757 0.05132518 0.099000774 0.079348646 0.158967 -0.1393778 -0.23624511
-0.01742888 0.15449792 0.06362377 0.16852228 0.23311049 0.07434049 -0.08333479 -0.11462854
-0.20488691 0.20003583 -0.11916422 -0.09043989 -0.03539395 0.14823508 0.06395512 0.21728875
0.12516484 -0.064791344 -0.065792434 -0.10749381 -0.09757647 0.15426107 -0.06359335 -0.004353574
0.1727214 -0.15185659 0.14756292 0.22531575 -0.12244749 -0.064693004 0.058045425 -0.1668141
-0.12776937 -0.04600712 -0.044456907 0.07223675 0.16567905 -0.034459963 0.17556363 -0.16445781
-0.15122738 0.16256882 0.006602679 0.17328453 -0.2598144 0.043502107 -0.084487796 -0.071051456
-0.0056987796 0.07020939 0.08443533 -0.05047535 0.13464892 0.22308704 0.339634 -0.078569636
-0.18989813 -0.2141729 0.04834556 -0.10972062 0.06587042 0.15807608 0.20047948 0.10474941
-0.13877188 -0.12923412 0.12506779 0.18837361 -0.014535012 -0.16226579 0.21221471 0.011474342
0.06351228 -0.020429716 0.13465448 -0.25829065 0.058845226 -0.1077867 0.3262342 0.06639398
-0.07871923 -0.0033636002 -0.07415986 0.09704707 0.18692555 0.020171888 0.03149567 -0.24515626

out.bias f4 [70]
00000000: 6c04 073d 5bd7 46bd 6d15 b83d acc6 003d
00000010: ce78 50be b33b 6bbe b4e1 163e f00b 383e
00000020: 0f08 08be c00a 31bd 6a75 b1bc b7cb f73d
00000030: b409 0ebd 4243 0c3d a4f1 41be 8a94 7cbd
00000040: 22bb 573e bafd 393e 8a36 14be 583c 273c
00000050: 25af 69bc 44b9 a5bc 9795 fabd 3079 55bd
00000060: ed5f c43d d3b9 38bd 7f60 84bd 076f 04bd
00000070: dbb6 babd 8686 14be aa73 503d 857c c83d
00000080: 7d96 0ebe 502e 953c f9a4 0e3e a024 813e
00000090: 8ab0 803e b576 4b3e 1182 8b3e 0283 373e
000000a0: eea6 3cbe ea51 9fbd c485 f1bc e310 81bd
000000b0: 9221 81be 2758 52be b54f 103d 2588 be3d
000000c0: a618 2ebd dff4 cebd 1e49 a4bd 65e0 4f3d
000000d0: 26c6 cc3d 794c 59bd 998d 50bc 4d85 8f3d
000000e0: 108d b23c eb84 43bd c71d c9bc 6a96 4cbd
000000f0: ce94 51bc 31d7 c93d e617 febc 82e5 f13d
00000100: aea6 423d fbf2 9b3d 31ae 99bd 112a 23bd
00000110: 69ad 513d 0289 813e
0.0329632 -0.048545223 0.08988462 0.03143947 -0.20358583 -0.22971992 0.14734536 0.17973304
-0.13284324 -0.043223143 -0.021662433 0.120994024 -0.034677222 0.03424383 -0.18939835 -0.061665095
0.21067479 0.18163195 -0.1447393 0.010207258 -0.014262949 -0.020229943 -0.12235563 -0.052117527
0.09588609 -0.04509909 -0.06463718 -0.032332446 -0.09116908 -0.14504442 0.050891556 0.09789375
-0.13924594 0.01821056 0.1393012 0.25223255 0.2513469 0.19869502 0.2724767 0.1792107
-0.18423054 -0.07779296 -0.02948273 -0.06302049 -0.25220925 -0.2054144 0.035232265 0.09303311
-0.042503975 -0.10105299 -0.080217585 0.05075111 0.09998731 -0.053051446 -0.012729072 0.07007847
0.02179578 -0.047734182 -0.024550332 -0.049948134 -0.012791825 0.09855498 -0.031017255 0.11811353
0.04752224 0.07614704 -0.075039275 -0.03983504 0.051190767 0.2529984
