tutorial/interim_data_test/models/model_30_23.pt (torch, 358785 bytes, 18 tensors)

encoderlayers.0.weight f4 [200, 170]
0	0x3cc77895	0.02434949
1	0x3ccf8ae9	0.025334792
2	0x3c18ff52	0.009338217
3	0x3da53e42	0.08068515
4	0x3dacd026	0.08438139
5	0xbde70cb6	-0.11281721
6	0xbda12c2b	-0.078697525
7	0x3c50881c	0.0127277635
8	0xbcd1f65d	-0.02563017
9	0x3da96b62	0.08272435
10	0xbc4c9b6e	-0.012488229
11	0x3d4508f0	0.048104227
12	0xbd6e6dad	-0.058210064
13	0x3d8e0751	0.06934989
14	0xbd50aedb	-0.050948005
15	0xbd48780b	-0.048942607
16	0xbca62040	-0.02027905
17	0xbdb825c1	-0.08991576
18	0xb9f4697a	-0.00046617893
19	0x3d9d26e9	0.07673437
20	0xbc673a07	-0.014112956
21	0xbdf048ec	-0.11732659
22	0xbd9ce031	-0.076599486
23	0x3d850d77	0.06496709
24	0x3d82d07f	0.06387424
25	0x3cab76db	0.020930698
26	0x3d71bfd8	0.059020847
27	0x3d93ac5d	0.0721061
28	0xbdbf1155	-0.09329478
29	0x3ce494b5	0.02790294
30	0x3c8f9123	0.017525261
31	0xbd9f900e	-0.07791148
32	0xbdb4678b	-0.08808812
33	0xbc90bb2c	-0.017667376
34	0xbc3822a6	-0.01123873
35	0x3e08cd67	0.13359605
36	0xbb71c8f5	-0.0036893461
37	0x3d248a3b	0.04017089
38	0x3c8f93af	0.017526476
39	0xbcfcb1fa	-0.030846585
40	0x3c182e35	0.00928836
41	0xbd930d1f	-0.07180237
42	0x3d95cdc9	0.07314641
43	0x3d34af5c	0.04411255
44	0x3d7892a1	0.06068671
45	0x3ce60c47	0.028082026
46	0x3cee1a66	0.029065322
47	0x3d7cb0e5	0.061692137
48	0x3d0c3bda	0.034236766
49	0xbd515b09	-0.05111221
50	0xbd6c59e7	-0.057702925
51	0xbd801d21	-0.06255556
52	0xbd8fbb2f	-0.07018124
53	0xbc03900c	-0.008029949
54	0x3c8e68f6	0.017384034
55	0xbd19610f	-0.037446078
56	0x3cc04526	0.023470473
57	0x3d916474	0.07099238
58	0xbd93d427	-0.07218199
59	0xbd9263d6	-0.071479484
60	0xbd0ed06d	-0.03486674
61	0xbd24da15	-0.04024704
62	0xbd1f9e38	-0.03896925
63	0xbbc8ef71	-0.0061320593
64	0x3a6b3c21	0.00089734985
65	0x3cdf26b4	0.027240135
66	0xbd27af62	-0.040938742
67	0x3bd8c6f8	0.006615516
68	0x3c106a8f	0.008814468
69	0x3d54bb07	0.051936176
70	0xbc57e69a	-0.013177538
71	0x3c9c478e	0.019077089
72	0x3d9f4a29	0.07777817
73	0xbcfb7d70	-0.030699462
74	0xbd8a140d	-0.06742106
75	0xbd064634	-0.032781795
76	0x3c9265e2	0.017870847
77	0x3d031d5b	0.032010417
78	0x3bb5de83	0.005550207
79	0xbcb2f376	-0.021844607
80	0x3cb6f11a	0.022331763
81	0xbccf2c07	-0.025289549
82	0xbb5a063b	-0.0033267874
83	0xbd15c41c	-0.036563978
84	0x3d519f59	0.051177356
85	0xbd320f41	-0.04347158
86	0x3cd65041	0.026161315
87	0xbd52329a	-0.05131779
88	0xbbebed8d	-0.007199949
89	0xbd631a15	-0.055444796
90	0xbca6ba79	-0.020352589
91	0xbb99e815	-0.004696856
92	0xbcffed42	-0.031241063
93	0xbc91832e	-0.017762747
94	0x3d304d08	0.043042213
95	0xbcab08e2	-0.02087826
96	0x3d67823f	0.056520697
97	0x3c9727e8	0.018451646
98	0xbdbb62ce	-0.09149705
99	0xbd298aa8	-0.041392
100	0xbcccef17	-0.02501635
101	0x3d3a9563	0.045552623
102	0x3d2b6283	0.041841995
103	0x3d384f5e	0.044997565
104	0x3d311955	0.04323705
105	0x3d130a2b	0.03589837
106	0x3dbe77d9	0.09300203
107	0x3c402858	0.011728369
108	0xbd0a0fb4	-0.033706382
109	0x3ad388bf	0.0016138776
110	0x3ca7bbfb	0.020475378
111	0x3cd392eb	0.025826892
112	0x3d57c345	0.052676458
113	0x3d5d9c29	0.054104004
114	0x3db23b88	0.08702761
115	0x3d527def	0.05138963
116	0x3babeefe	0.005246996
117	0x3da6c45e	0.08142923
118	0x3cbbd051	0.022926481
119	0xbd6b48a2	-0.057442315
120	0xbc55a952	-0.013040857
121	0x3b2be0fc	0.002622663
122	0xbb230d37	-0.0024879703
123	0x3ce36385	0.027757416
124	0x3d718737	0.05896684
125	0x3c064c5d	0.008196917
126	0x3d57b9a6	0.052667283
127	0x3d38f9bd	0.045160044
128	0x3cbb06a3	0.022830313
129	0x3d2e446d	0.042545725
130	0xbc76bd85	-0.015059833
131	0x3c609cab	0.013709228
132	0xbc0cecba	-0.008601362
133	0xba96deca	-0.0011510488
134	0x3cb899c9	0.022534268
135	0xbc279865	-0.010229205
136	0x3cc4286e	0.02394506
137	0xbd3eba50	-0.0465644
138	0xbcb095f1	-0.021555873
139	0xbd295e15	-0.04134949
140	0xbc9ad511	-0.018900426
141	0xbdc87125	-0.097872056
142	0xbd30b84a	-0.0431445
143	0xbca03936	-0.01955853
144	0x3c00cf1e	0.007861881
145	0x3d02ba42	0.03191591
146	0xbc37c7eb	-0.011217098
147	0xbc119f96	-0.008888146
148	0x3ccbe3c8	0.024888888
149	0xbd17176f	-0.036887582
150	0x3c040c52	0.008059578
151	0x3c02fd92	0.007995026
152	0x3d98148e	0.074257955
153	0xbc1f1dd0	-0.009711698
154	0xbd9921e5	-0.07477168
155	0xbd84c1b4	-0.064822584
156	0x3c7d0f01	0.015445472
157	0xbd04b908	-0.032403022
158	0xbda6cafa	-0.081441835
159	0x3c25c88e	0.010118617
160	0xbd6a4daf	-0.05720299
161	0xbd9c62c5	-0.07636026
162	0x3c79d7cd	0.015249205
163	0x3d666224	0.056245938
164	0xbc315e5e	-0.010825722
165	0xbccaabb5	-0.02474008
166	0xbd196fb3	-0.03746004
167	0xbd82ed06	-0.06392865
168	0xbd030ba3	-0.03199352
169	0xbcd2deff	-0.025741098
170	0xbdb9dd70	-0.09075439
171	0x3d27d16a	0.040971197
172	0x3d0e246b	0.0347027
173	0xbdd93883	-0.10606482
174	0xbc1451f9	-0.009052747
175	0xbd6e8451	-0.058231656
176	0x3d45e970	0.048318326
177	0x3be1c7ec	0.0068902876
178	0x3d83aea4	0.064297944
179	0xbd40b96b	-0.04705183
180	0x3c4fa777	0.012674204
181	0x3dcf02f0	0.10107982
182	0xbc83e367	-0.016099645
183	0x3c6de557	0.014520011
184	0xbb9f69d2	-0.0048649097
185	0x3d2e3268	0.04252854
186	0xbd466a94	-0.048441485
187	0x3da3f286	0.08005242
188	0x3ba8f38d	0.0051559866
189	0xbbc9f5a1	-0.0061633145
190	0x3cdbf1c7	0.026848687
191	0xbc1ae2c1	-0.009453476
192	0x3d6721b0	0.05642861
193	0xbcf4a075	-0.029861668
194	0x3dbf26af	0.0933355
195	0x3d7f49d7	0.06232628
196	0x3c6a5018	0.014301322
197	0xbcda1f0d	-0.026626134
198	0xbbb6aba9	-0.0055746627
199	0xbd02ed32	-0.03196449
200	0x3d4d2c04	0.050090805
201	0x3ad424a7	0.001618524
202	0x3df2e73b	0.1186051
203	0xbd0304b7	-0.03198692
204	0x3d3e815f	0.046510097
205	0xbd42ca58	-0.04755625
206	0xbd436b59	-0.047709797
207	0x3a9a3305	0.0011764473
208	0x3cfd280c	0.030902885
209	0x3da08ee4	0.07839754
210	0xbcb3628d	-0.021897579
211	0xbaec1896	-0.0018012698
212	0x3c87fac5	0.016599068
213	0xbb464526	-0.0030253618
214	0x3b1974b3	0.0023415505
215	0x3d036c19	0.03208551
216	0xbd0e3b9e	-0.034724824
217	0xbceef879	-0.029171215
218	0x3d816604	0.06318286
219	0x3d00596c	0.03133528
220	0xbc7fd317	-0.015614293
221	0x3bd6f76f	0.006560258
222	0xbd7ac819	-0.061225984
223	0xbd650007	-0.05590823
224	0x3d962fd1	0.07333339
225	0xbd386d1f	-0.04502594
226	0xbd4cde30	-0.050016582
227	0x3cb61cb9	0.022230493
228	0x3cb9f3d9	0.022699283
229	0xbd02dc44	-0.031948343
230	0x3cc9a82e	0.024616327
231	0x3d9e90a3	0.07742431
232	0xbcdce317	-0.026963754
233	0xbd37ab8f	-0.044841345
234	0x3c814032	0.015777681
235	0xbb8bb9e0	-0.0042641014
236	0x3cb562c7	0.022141827
237	0xbd73ce60	-0.059522986
238	0xbd22e30d	-0.039767314
239	0xbd0967c7	-0.033546235
240	0x3bd2b8a5	0.0064307027
241	0x3cb274e2	0.02178425
242	0x3d835115	0.064119495
243	0xbb43203b	-0.002977385
244	0x3d344049	0.04400662
245	0x3d6097e1	0.054832343
246	0xbd868893	-0.06569018
247	0xbd282065	-0.04104652
248	0x3d4fd641	0.050741438
249	0xbd91cf66	-0.07119636
250	0x3c556be1	0.013026209
251	0x3d327d95	0.043576796
252	0xbd231fb8	-0.03982517
253	0xbb5f96e2	-0.0034117033
254	0xbd2144db	-0.039372306
255	0xbd18df3a	-0.03732226

encoderlayers.0.bias f4 [200]
0	0x3cff73c6	0.031183135
1	0xbd2a82f2	-0.041628785
2	0x3c81fd7e	0.015867945
3	0x3d845668	0.06461793
4	0x3d4a2bfb	0.04935835
5	0xbc7c89dd	-0.015413729
6	0xbd866964	-0.065630704
7	0x3c5a6906	0.013330704
8	0x3d84d0d2	0.06485142
9	0x3c5bacbf	0.013407885
10	0x3d617c98	0.055050462
11	0xbc2d8702	-0.01059127
12	0xbd1893e5	-0.03725042
13	0x3cba31d2	0.022728834
14	0xbcfd37ea	-0.030910451
15	0x3c9ad08e	0.018898275
16	0xbd7097c6	-0.058738492
17	0xbd691fab	-0.056914967
18	0x3d94afc4	0.07260087
19	0xbd501d34	-0.0508091
20	0x3da823e7	0.08209973
21	0xbb88ac19	-0.0041709063
22	0x3d8ea063	0.06964185
23	0xbd756188	-0.059907466
24	0x3c7eb4a4	0.015545998
25	0xbd546022	-0.051849492
26	0x3d097d0d	0.033566523
27	0x3c7fa74a	0.01560385
28	0x3cfd7411	0.030939134
29	0xbcc111d5	-0.023568073
30	0xbc2a149c	-0.01038089
31	0xbc49ec85	-0.012324457
32	0x3d2d447e	0.042301647
33	0x3d8883eb	0.06665786
34	0x3b9c8ec0	0.0047777593
35	0xbcd5fcc4	-0.026121505
36	0xbd8237ba	-0.06358285
37	0x3d648ebc	0.055800185
38	0xbd5246e0	-0.051337123
39	0x3d59312a	0.053025402
40	0x3d52ccb5	0.051464755
41	0xbcc2597a	-0.023724306
42	0xbb7ef104	-0.003890098
43	0xbc66be06	-0.014083391
44	0x3d76373d	0.060111273
45	0x3d2400d1	0.04003984
46	0x3ccc9b73	0.024976468
47	0xbc6d59ca	-0.014486739
48	0x3d92c733	0.071669005
49	0x3c49b3c7	0.012310929
50	0x3d51b805	0.051200885
51	0xbd3a054b	-0.045415204
52	0x3ce54ab1	0.027989717
53	0x3c545ab6	0.01296108
54	0xbd514105	-0.051087398
55	0xbc964448	-0.018343106
56	0xbd26d675	-0.040731866
57	0x3d386f46	0.045027994
58	0xbc3c539c	-0.011494543
59	0xbcacce5d	-0.021094495
60	0x3d2c8785	0.04212143
61	0xbced4676	-0.028964262
62	0x3d6fbc26	0.05852904
63	0x3d5c0d31	0.053723518
64	0xbd4bd53d	-0.049763907
65	0xbd70a251	-0.058748547
66	0x3cd0840c	0.02545359
67	0xbce9eda4	-0.028555699
68	0x393cfa0c	0.00018022227
69	0x3c733afd	0.014845607
70	0x3b1df5b3	0.0024102747
71	0xbc22ccb1	-0.009936498
72	0x3d7f587f	0.062340256
73	0xbc74ae70	-0.014934167
74	0x3d951e0e	0.07281123
75	0x3d2bd3f5	0.041950185
76	0x3c77d3e9	0.015126207
77	0x3d095810	0.03353125
78	0x3d0b6bd0	0.034038365
79	0x3d25ae62	0.040449508
80	0x3ceda3a3	0.029008692
81	0x3d2c81e6	0.04211607
82	0xbc90f314	-0.017694034
83	0xbd8c888b	-0.06861981
84	0x3cc3c26c	0.023896419
85	0x3d8ae210	0.06781399
86	0xbc94f717	-0.018184228
87	0x3d15f9b2	0.03661508
88	0xbd35680d	-0.044288684
89	0x3d38cc37	0.04511663
90	0xbd28215c	-0.04104744
91	0xbd89e930	-0.0673393
92	0x3d8be12c	0.068300575
93	0x3ce72f5d	0.028220827
94	0x3d2ccf54	0.04218991
95	0xbbc28352	-0.0059360648
96	0x3d045a4b	0.032312673
97	0x3c2b7eb2	0.010467218
98	0x3ce7bd58	0.028288528
99	0xbd52f103	-0.051499378
100	0x3c83b717	0.016078515
101	0xbd8150c9	-0.06314237
102	0xbcf84850	-0.030307919
103	0xbcc15533	-0.023600196
104	0x3d9be523	0.07612064
105	0xbd14c185	-0.036317367
106	0xbd48cca4	-0.049023286
107	0x3d24ece9	0.040264998
108	0xbd12a97d	-0.035806168
109	0xbd0ccf6f	-0.03437751
110	0x3d6cb95d	0.057793964
111	0xba1616d7	-0.00057254493
112	0x3d91db39	0.071218915
113	0x3d079cac	0.0331084
114	0xbd826d95	-0.06368557
115	0x3d20e0f0	0.039277017
116	0x3d9b8e33	0.07595482
117	0xbd0cc149	-0.03436402
118	0x3d195381	0.03743315
119	0x3a8e2083	0.001084343
120	0x3d66543c	0.056232676
121	0xbd8bf89e	-0.06834529
122	0x3d161391	0.036639754
123	0x3d811172	0.063021556
124	0xbc1db481	-0.009625555
125	0xbd72c202	-0.05926705
126	0xbd69f1ba	-0.057115294
127	0x3bc03c2a	0.005866547
128	0xbd1308cd	-0.035897065
129	0x3c297b9a	0.01034441
130	0xbd658a71	-0.05604023
131	0x3d8b3445	0.06797079
132	0xbb9e9414	-0.0048394296
133	0xb9f6f920	-0.0004710639
134	0xbce6d0f6	-0.028175812
135	0xbbf7a9b3	-0.0075580715
136	0xbc7f402a	-0.015579263
137	0x3cb62540	0.022234559
138	0xbc342412	-0.010994928
139	0xbd5dbad6	-0.05413326
140	0xbd8e08be	-0.06935261
141	0x3d75443c	0.059879526
142	0xbd329072	-0.043594785
143	0x3d2b80c1	0.041870836
144	0xb8dfc051	-0.0001066929
145	0x3d6f451d	0.05841552
146	0x3d81d956	0.06340282
147	0x3d0a296e	0.033730917
148	0xbd4a26f2	-0.049353547
149	0xbc660b07	-0.014040715
150	0xbc682ce9	-0.014170864
151	0x3d90111f	0.070345156
152	0x3bb3aa0f	0.005482919
153	0xbd22bb48	-0.039729387
154	0x3d2de9bf	0.042459246
155	0xbd021637	-0.031759467
156	0x3d484dea	0.04890243
157	0x3d37ba38	0.044855326
158	0x3d851d19	0.064996906
159	0x3bd4ef76	0.0064982725
160	0x3d5446f6	0.051825486
161	0x3bc16705	0.0059021735
162	0x3be4a98e	0.0069782203
163	0x3ca81885	0.020519504
164	0x3c9a79f9	0.01885699
165	0x3ce7e97a	0.028309572
166	0x3cfae058	0.030624554
167	0x3c8ffa69	0.01757546
168	0xbcab9b6c	-0.020948134
169	0xbd319b78	-0.043361157
170	0xbd2e4921	-0.04255021
171	0xbca1eefb	-0.019767275
172	0xbd669baf	-0.056300815
173	0x3d851f4d	0.06500111
174	0x3ce7afe6	0.028282117
175	0x3dbe5d68	0.092951596
176	0xbd02105c	-0.031753883
177	0x3b2fa7a7	0.002680281
178	0x3d7bf385	0.061511535
179	0x3d0a1ee8	0.03372088
180	0x3c9c0d8b	0.019049427
181	0xbc55da6c	-0.013052564
182	0xbd8aca7a	-0.067769006
183	0xbc8dd473	-0.017313218
184	0x3cc202d5	0.023682991
185	0xbd037c42	-0.032100923
186	0x3cbab7a1	0.02279264
187	0xbd20d27e	-0.03926324
188	0x3d92639a	0.07147904
189	0x3d465c6c	0.048427984
190	0xba9497d5	-0.0011336753
191	0xbd4d2a99	-0.050089452
192	0x3ca8ce93	0.020606315
193	0xbd75ec35	-0.060039718
194	0xbc506d78	-0.012721412
195	0x3ced425e	0.02896231
196	0x3d5a618c	0.053315684
197	0x3c8c24c9	0.017107384
198	0x3d787975	0.060662705
199	0xbc597ee7	-0.013274885

encodernorms.0.weight f4 [200]
0	0x3f8e98b1	1.1140348
1	0x3f8cb2f1	1.0992109
2	0x3f887e79	1.0663596
3	0x3f8d704c	1.1049895
4	0x3f8dd139	1.1079475
5	0x3f8d3e08	1.1034555
6	0x3f8ae8dc	1.0852313
7	0x3f8f923b	1.1216501
8	0x3f8d75bb	1.1051553
9	0x3f8dedfb	1.1088251
10	0x3f8c097d	1.0940396
11	0x3f8ba116	1.0908535
12	0x3f8f9091	1.1215993
13	0x3f88ecf7	1.0697316
14	0x3f8c0535	1.0939089
15	0x3f8ed099	1.1157409
16	0x3f8cb5d4	1.099299
17	0x3f83feed	1.0312172
18	0x3f8ce2ca	1.100671
19	0x3f8ca966	1.0989196
20	0x3f89b42f	1.0758113
21	0x3f8d3bac	1.1033835
22	0x3f880634	1.0626893
23	0x3f896520	1.0733986
24	0x3f8c907a	1.0981591
25	0x3f893ff0	1.0722637
26	0x3f905071	1.1274549
27	0x3f8d0b43	1.1019062
28	0x3f8ef35d	1.1168019
29	0x3f8eb291	1.1148244
30	0x3f8e5605	1.1120001
31	0x3f87b0d3	1.0600837
32	0x3f8c8971	1.0979444
33	0x3f89b538	1.0758429
34	0x3f8cdf16	1.100558
35	0x3f8ae4a2	1.0851023
36	0x3f867302	1.0503848
37	0x3f8a84a6	1.0821731
38	0x3f8097ed	1.0046364
39	0x3f90e05b	1.1318468
40	0x3f8d7fa8	1.1054583
41	0x3f8eee4c	1.1166472
42	0x3f8c1d52	1.0946448
43	0x3f88df59	1.069316
44	0x3f8a3d81	1.080002
45	0x3f8b5d63	1.0887874
46	0x3f8d775c	1.105205
47	0x3f8f0361	1.1172906
48	0x3f8cbe78	1.0995626
49	0x3f91397d	1.1345669
50	0x3f8c3a36	1.0955265
51	0x3f90430a	1.1270459
52	0x3f8d052a	1.1017201
53	0x3f8b84d6	1.0899913
54	0x3f8a51bf	1.0806197
55	0x3f90295f	1.1262625
56	0x3f9081f2	1.1289656
57	0x3f8dd7e9	1.1081516
58	0x3f88152a	1.0631459
59	0x3f8f2020	1.1181679
60	0x3f8e1c81	1.1102449
61	0x3f8b88fc	1.0901179
62	0x3f8cff8f	1.101549
63	0x3f8ab859	1.0837508
64	0x3f83921a	1.0278962
65	0x3f897dad	1.0741478
66	0x3f8d6b72	1.1048415
67	0x3f8efc51	1.1170751
68	0x3f8c0cde	1.0941427
69	0x3f8cde8c	1.1005416
70	0x3f8bce4a	1.092233
71	0x3f8b1228	1.0864916
72	0x3f89eec7	1.0775994
73	0x3f8d303d	1.1030346
74	0x3f8da8fa	1.1067193
75	0x3f8cc31d	1.0997044
76	0x3f8b3335	1.0875002
77	0x3f8acd5f	1.0843924
78	0x3f8dfc0e	1.1092546
79	0x3f8e7d4a	1.1131985
80	0x3f8c9a3b	1.0984567
81	0x3f8a3d8f	1.0800036
82	0x3f8ab4f4	1.0836473
83	0x3f8ebcd7	1.1151379
84	0x3f9005f6	1.1251819
85	0x3f8c0f56	1.094218
86	0x3f8e035e	1.1094778
87	0x3f8f70f3	1.1206344
88	0x3f8c39e0	1.0955162
89	0x3f8d6d32	1.1048949
90	0x3f8cd201	1.1001588
91	0x3f8f4e23	1.119572
92	0x3f8f1331	1.1177732
93	0x3f8fb34b	1.1226591
94	0x3f91abd3	1.1380562
95	0x3f8a498f	1.0803698
96	0x3f902ec5	1.1264273
97	0x3f8de8bf	1.1086653
98	0x3f8be9ad	1.0930687
99	0x3f8b0fc7	1.086419
100	0x3f86647b	1.0499414
101	0x3f8c0d47	1.0941552
102	0x3f8f7345	1.1207052
103	0x3f8fe268	1.1240969
104	0x3f830eef	1.0238932
105	0x3f8515b0	1.0397243
106	0x3f8e978f	1.1140002
107	0x3f89f608	1.0778208
108	0x3f843dc0	1.0331345
109	0x3f8ab1b4	1.0835481
110	0x3f94090e	1.1565263
111	0x3f8ec1ef	1.1152934
112	0x3f8bde5b	1.0927233
113	0x3f8d18ba	1.1023171
114	0x3f8bf373	1.093367
115	0x3f8368f4	1.0266404
116	0x3f8dc302	1.1075137
117	0x3f8e8e14	1.1137109
118	0x3f8b821b	1.089908
119	0x3f8cc478	1.0997458
120	0x3f8e5918	1.1120939
121	0x3f8f4989	1.1194316
122	0x3f8cd0ba	1.1001198
123	0x3f8aedbc	1.0853801
124	0x3f9083d0	1.1290226
125	0x3f8d7980	1.1052704
126	0x3f8da4e7	1.1065949
127	0x3f8efb00	1.1170349
128	0x3f8eb081	1.1147615
129	0x3f8bda1b	1.0925936
130	0x3f8b7db0	1.0897732
131	0x3f8b35ef	1.0875834
132	0x3f8c7e9b	1.0976137
133	0x3f8cc3ce	1.0997255
134	0x3f8ba6f7	1.0910329
135	0x3f8c12d4	1.0943246
136	0x3f8e4d83	1.1117405
137	0x3f8f7afa	1.1209404
138	0x3f8d2871	1.1027967
139	0x3f89b20b	1.0757459
140	0x3f8e77c2	1.1130297
141	0x3f8c3503	1.0953678
142	0x3f873df6	1.0565784
143	0x3f8c030a	1.0938427
144	0x3f8c1ae9	1.0945712
145	0x3f8b6823	1.0891155
146	0x3f8bcc50	1.0921726
147	0x3f8af15e	1.085491
148	0x3f8d8d72	1.1058791
149	0x3f8a0d06	1.0785224
150	0x3f9017e9	1.1257297
151	0x3f8a44ec	1.0802283
152	0x3f8e227d	1.1104275
153	0x3f882f53	1.0639442
154	0x3f8cc1d3	1.099665
155	0x3f8b72ef	1.089445
156	0x3f8ff26d	1.1245857
157	0x3f8b0674	1.0861344
158	0x3f8d1087	1.1020669
159	0x3f8c25a1	1.0948983
160	0x3f8dea80	1.1087189
161	0x3f8a1573	1.0787796
162	0x3f8b2e77	1.0873555
163	0x3f8f7c7e	1.1209867
164	0x3f8aeffc	1.0854487
165	0x3f8f3255	1.1187235
166	0x3f8c9585	1.098313
167	0x3f920392	1.140734
168	0x3f8b2022	1.0869181
169	0x3f8fa3f3	1.1221908
170	0x3f91485c	1.1350207
171	0x3f8b0692	1.086138
172	0x3f8dcca2	1.1078074
173	0x3f869afe	1.051605
174	0x3f901213	1.1255516
175	0x3f8b9536	1.090491
176	0x3f8eff2f	1.1171626
177	0x3f8c5fd6	1.0966747
178	0x3f8bd198	1.0923338
179	0x3f8feb76	1.1243732
180	0x3f898d55	1.0746256
181	0x3f7ba92d	0.98305017
182	0x3f8576e1	1.0426904
183	0x3f8ef549	1.1168605
184	0x3f8ed0e5	1.11575
185	0x3f9397d7	1.1530713
186	0x3f901f31	1.1259519
187	0x3f8ae6c1	1.085167
188	0x3f8eac1f	1.1146277
189	0x3f84acdf	1.0365256
190	0x3f8a6af9	1.0813895
191	0x3f90f0ed	1.1323525
192	0x3f8ccf98	1.1000853
193	0x3f8ba4c8	1.0909662
194	0x3f8e4329	1.1114246
195	0x3f8d200a	1.1025403
196	0x3f8cf6bf	1.1012801
197	0x3f8c1577	1.094405
198	0x3f8a6d29	1.0814563
199	0x3f84d653	1.0377907

encodernorms.0.bias f4 [200]
0	0x3e170dc2	0.14751342
1	0xbee6aa3b	-0.4505175
2	0xbe387c64	-0.18016201
3	0x3dd848f6	0.10560791
4	0xbed2de69	-0.4118531
5	0x3d7ec49b	0.062199216
6	0xbdd6d38a	-0.104895666
7	0xbe4cb2d4	-0.19990093
8	0x3eea2985	0.45734802
9	0xbe3638e7	-0.17795144
10	0xbea9f582	-0.3319512
11	0xbf0441c4	-0.5166285
12	0xbcdf94a4	-0.027292557
13	0xbf0028c6	-0.50062215
14	0xbefc26a0	-0.4924822
15	0x3eb50f51	0.35363248
16	0x3eb49109	0.35266903
17	0x3ee86f89	0.45397595
18	0xbe00a0ef	-0.12561391
19	0x3ecfe23f	0.406023
20	0x3eda56ee	0.42644447
21	0x3eaa4b80	0.33260727
22	0xbedf2ed2	-0.4359041
23	0xbea5ba3f	-0.32368657
24	0x3efc2096	0.4924361
25	0x3e7c2254	0.2462247
26	0x3ef40976	0.47663468
27	0xbe6398c8	-0.2222625
28	0xbe20d7e5	-0.15707357
29	0xbeddaf93	-0.43298015
30	0x3e8ec73d	0.27886382
31	0xbeed0aad	-0.46297207
32	0xbee90c6a	-0.45517284
33	0x3eb69831	0.35662988
34	0xbeae615b	-0.3405865
35	0x3e44aa78	0.19205654
36	0xbef6a0d4	-0.48169577
37	0xbeb6641b	-0.3562325
38	0xbe639f75	-0.22228797
39	0xbeb2e5ee	-0.34941047
40	0xbe20feb3	-0.1572216
41	0xbe33a181	-0.17542078
42	0xbef79a16	-0.48359746
43	0xbee493ab	-0.44643912
44	0xbeb1bb1b	-0.34713063
45	0x3eec22e1	0.4612036
46	0xbe635322	-0.22199681
47	0xbd5c8004	-0.053833023
48	0xbe7dfa1c	-0.2480244
49	0x3ea0d9f6	0.3141629
50	0xbedee816	-0.43536443
51	0xbe755d57	-0.23961388
52	0xbe06a8ec	-0.13150376
53	0x3f00b0a6	0.50269544
54	0xbf07ea1b	-0.5309159
55	0x3e01ed6e	0.12688228
56	0xbefed0fb	-0.49768814
57	0xbd634a7d	-0.05549096
58	0x3edd530e	0.43227428
59	0xbe6488c0	-0.22317791
60	0xbcc9c090	-0.024627954
61	0xbeb08792	-0.34478432
62	0xbe5c1c98	-0.21495283
63	0xbed7a2c1	-0.4211636
64	0x3ee34a9a	0.44392854
65	0x3ea1af84	0.3157922
66	0xbee59477	-0.44839832
67	0x3ec8adbf	0.39195058
68	0xbdff7717	-0.124738865
69	0x3ec568ed	0.38556615
70	0x3ee36dfb	0.44419846
71	0xbef9f4ae	-0.48819488
72	0x3e9fa33a	0.3117922
73	0x3ef9bf75	0.48778883
74	0xbe047bea	-0.12937894
75	0x3ee315ee	0.4435267
76	0x3c48715e	0.01223406
77	0xbebc15a2	-0.36735255
78	0x3e9e6668	0.30937505
79	0x3e668814	0.22512847
80	0x3efe11de	0.49623007
81	0x3ede38d6	0.43402737
82	0xbe3f67fc	-0.1869201
83	0x3ec9661a	0.3933571
84	0xbee2ff3c	-0.44335353
85	0xbe0e9d03	-0.13927083
86	0xbedaf005	-0.42761245
87	0xbddb375c	-0.10703918
88	0x3ec4d7ea	0.3844598
89	0xbee0d7bf	-0.439146
90	0xbeb1c422	-0.3471995
91	0xbf020dce	-0.50802314
92	0x3ed0d35f	0.40786263
93	0x3eef7303	0.46767434
94	0x3e68f228	0.22748625
95	0x3dedd7cf	0.11613428
96	0x3ea7b8fe	0.32758325
97	0x3d2dad36	0.042401515
98	0x3eefc1f3	0.4682766
99	0xbe168137	-0.14697729
100	0x3ef8e468	0.4861176
101	0xbdfb13ef	-0.122596614
102	0x3efa34fa	0.48868543
103	0x3d09454b	0.03351335
104	0xbe759f41	-0.23986532
105	0x3ee4c2a2	0.44679743
106	0xbe61a849	-0.22036852
107	0xbecc8371	-0.39944032
108	0x3f00bdae	0.5028943
109	0xbe844ea4	-0.25841248
110	0xbe7d2d74	-0.2472437
111	0x3daa5842	0.08317615
112	0xbd64052f	-0.055669006
113	0x3eca8a51	0.39558652
114	0xbed21cab	-0.41037497
115	0x3e9316a8	0.28728223
116	0xbe1bd61c	-0.15218395
117	0x3e756314	0.23963577
118	0xbdb793c0	-0.08963728
119	0x3eddc374	0.4331318
120	0x3eb71230	0.35756063
121	0x3dffea6f	0.124958865
122	0x3ed872f5	0.42275205
123	0x3e44369e	0.1916146
124	0xbeb3f74c	-0.3514961
125	0xbf0505eb	-0.51962155
126	0xbee15d98	-0.4401672
127	0xbef1f7a5	-0.4725925
128	0x3ecbd3e0	0.39810085
129	0xbed42d4d	-0.41440812
130	0xbc691ab4	-0.014227558
131	0x3d091457	0.033466663
132	0xbee5deb5	-0.44896474
133	0xbec41e45	-0.38304344
134	0x3ef3dbc1	0.47628596
135	0x3e9bce14	0.30430663
136	0xbed40c26	-0.4141552
137	0xbea40012	-0.32031304
138	0xbef3c92d	-0.47614422
139	0x3ec9e8c7	0.39435408
140	0x3ec1a436	0.37820596
141	0xbedc7476	-0.43057603
142	0x3ef75c0b	0.4831241
143	0x3ec16de4	0.37779152
144	0x3e8f0e64	0.27940667
145	0xbedf7b5f	-0.43648812
146	0xbe891f82	-0.2678185
147	0x3e8c38f6	0.27387208
148	0xbec7c012	-0.39013726
149	0xbee5dba6	-0.4489414
150	0x3db6c445	0.08924154
151	0xbe66d224	-0.225411
152	0xbedca2a7	-0.43092844
153	0xbeef9ee0	-0.468009
154	0xbf0b01ee	-0.5429982
155	0x3eb12d8b	0.3460506
156	0xbe9199e6	-0.28437728
157	0x3e09b942	0.13449576
158	0xbd0f07be	-0.034919493
159	0xbdf83c0e	-0.121208295
160	0xbea8c6e3	-0.3296424
161	0xbf032fb6	-0.51244676
162	0xbe2f0552	-0.17091873
163	0x3e239293	0.15973882
164	0xbeea64a6	-0.45779914
165	0xbe4680bd	-0.19385047
166	0x3e63202b	0.2218024
167	0x3ef43ca4	0.47702515
168	0xbe7110f4	-0.23541623
169	0xbe5365ab	-0.20644252
170	0x3ebcf2e3	0.36904058
171	0xbea9e8c7	-0.33185408
172	0xbf03b135	-0.5144227
173	0x3ed46c83	0.41489038
174	0xbecdac5c	-0.40170562
175	0x3ec39b7a	0.38204557
176	0x3f06c59c	0.5264528
177	0x3ed92e14	0.42417967
178	0x3f000d98	0.5002074
179	0xbebbea5e	-0.36702245
180	0x3ece45ef	0.4028773
181	0xbeb00e62	-0.34385973
182	0xbef22fb4	-0.4730202
183	0x3e3c495d	0.18387361
184	0x3db03602	0.08604051
185	0xbd28bc1b	-0.041195016
186	0xbef3fbc2	-0.47653013
187	0x3c8933ff	0.016748426
188	0xbeb5fdc4	-0.3554517
189	0xbec72988	-0.38898873
190	0x3ed59ca1	0.4172106
191	0x3e8f17bd	0.27947798
192	0x3ee565ff	0.4480438
193	0xbe8543cf	-0.26028296
194	0xbeb72615	-0.35771242
195	0x3eab70c8	0.33484483
196	0x3e33c1c3	0.17554383
197	0x3e093bac	0.1340167
198	0x3e6c5c1c	0.23082012
199	0xbf016018	-0.5053725

encodernorms.0.running_mean f4 [200]
0	0x3e99c933	0.30036315
1	0x3e9bf2b6	0.3045861
2	0x3e86aa9e	0.26302046
3	0x3e95d90a	0.2926715
4	0x3e903cc8	0.28171372
5	0x3e9fa29e	0.31178755
6	0x3e848bd6	0.25887936
7	0x3e800e83	0.25011072
8	0x3e857e81	0.26073077
9	0x3e8cc17b	0.27491364
10	0x3e915310	0.28383684
11	0x3e927068	0.28601384
12	0x3ea37a4f	0.31929252
13	0x3e97d839	0.29657152
14	0x3e884acf	0.26619574
15	0x3e78b73a	0.24288645
16	0x3e84e68a	0.25957137
17	0xbaaff891	-0.0013425519
18	0x3ea21653	0.31657657
19	0x3e693cb4	0.22777063
20	0x3e8494e9	0.2589486
21	0x3e970ce2	0.29502016
22	0x3e738b63	0.2378364
23	0x3ebaa8d9	0.36456946
24	0x3ea5286b	0.322574
25	0x3ee69978	0.45038962
26	0x3e968c04	0.29403698
27	0x3e81e722	0.25371653
28	0x3e92ee14	0.28697264
29	0x3e84a6b9	0.2590845
30	0x3e7e0af9	0.24808873
31	0x3e9a093c	0.3008517
32	0x3e90e225	0.28297535
33	0x3e9e276c	0.30889452
34	0x3e9e3e22	0.3090678
35	0x3e95fe07	0.2929537
36	0xba290fc1	-0.0006449186
37	0x3ecbd443	0.3981038
38	0x3bb9b759	0.0056676087
39	0x3e8b5315	0.27211824
40	0x3e9f37db	0.31097302
41	0x3e78f9dc	0.24314064
42	0x3e987499	0.29776457
43	0x3e90f02a	0.2830823
44	0x3e99dee0	0.30052853
45	0x3e62f40e	0.22163412
46	0x3e92a0b6	0.28638238
47	0x3eb8e51f	0.36112306
48	0x3e851b87	0.25997564
49	0x3eb28ce5	0.3487312
50	0x3ea13788	0.3148768
51	0x3e9d7edd	0.30760852
52	0x3e8c5592	0.27409035
53	0x3e62e8b5	0.22159083
54	0x3e98ecd3	0.29868183
55	0x3e8c8127	0.27442285
56	0x3ea971fe	0.33094782
57	0x3e907c3f	0.28219792
58	0x3e8b352c	0.27189004
59	0x3e77ba98	0.24192274
60	0x3e8552b7	0.2603967
61	0x3e8ac323	0.27102003
62	0x3e854044	0.26025593
63	0x3e84998e	0.25898403
64	0x3ee2e6c0	0.44316673
65	0x3e9fc20f	0.31202742
66	0x3e9c42ab	0.30519614
67	0x3e853b58	0.26021838
68	0x3e857a21	0.2606974
69	0x3ea001ee	0.31251472
70	0x3e7d5988	0.24741185
71	0x3e77ef9e	0.242125
72	0x3e99f7f1	0.30071977
73	0x3e9d950b	0.30777773
74	0x3e80b13a	0.25135213
75	0x3eb59cd5	0.35471216
76	0x3e5838e2	0.21115449
77	0x3e585043	0.21124367
78	0x3e8ac4ee	0.2710337
79	0x3e956a44	0.29182637
80	0x3e6a0758	0.22854364
81	0x3ea83fa0	0.32861042
82	0x3e72ec6f	0.23723005
83	0x3ebaaeea	0.36461574
84	0x3e6ea170	0.23303771
85	0x3ea41b16	0.32051915
86	0x3e8e0a02	0.2774201
87	0x3ea2cbcd	0.31796113
88	0x3e8d8bda	0.2764576
89	0x3e9905a3	0.29887113
90	0x3ea45b00	0.32100677
91	0x3e9cf1da	0.30653268
92	0x3ec2b8c2	0.38031584
93	0x3ea94daf	0.3306708
94	0x3e79e76a	0.24404684
95	0x3ec8f362	0.39248186
96	0x3e6fcbfd	0.23417659
97	0x3e8f2611	0.2795873
98	0x3e68ca9a	0.22733536
99	0x3e97fa03	0.2968293
100	0x3ea6c2d8	0.3257053
101	0x3e8c6605	0.27421585
102	0x3ea02aa7	0.3128254
103	0x3e8b4337	0.27199718
104	0x3e4132dc	0.18867058
105	0xbb938fcc	-0.004503226
106	0x3e886888	0.2664225
107	0x3e8bd8ce	0.27313846
108	0x3e80ccf5	0.2515637
109	0x3e6d38f7	0.23166262
110	0x3e8a5057	0.2701442
111	0x3e870383	0.26369867
112	0x3e8a8dc2	0.27061278
113	0x3ea9aa73	0.33137855
114	0x3e9deda5	0.3084537
115	0x3eb2022b	0.3476728
116	0x3e815440	0.2525959
117	0x3eb8f5dd	0.3612508
118	0x3eb6731a	0.3563469
119	0x3e72deb6	0.2371777
120	0x3eafe8ae	0.34357208
121	0x3ea9820a	0.33107024
122	0x3e9a982d	0.30194226
123	0x3ebff8e9	0.3749459
124	0x3ea022c3	0.3127652
125	0x3e8ddc04	0.2770692
126	0x3e9281b6	0.28614587
127	0x3e984ca0	0.2974596
128	0x3e860ee6	0.26183242
129	0x3e9a72f1	0.30165818
130	0x3e916c30	0.28402853
131	0x3ea82554	0.3284098
132	0x3ea00df4	0.31260645
133	0x3e70fd42	0.2353411
134	0x3eaa3a45	0.3324758
135	0x3eb168af	0.3465018
136	0x3ec7c813	0.39019832
137	0x3e993d2b	0.2992948
138	0x3e937068	0.28796697
139	0x3e85f7ae	0.26165527
140	0x3ea19eff	0.31566617
141	0x3e8861ef	0.26637217
142	0x3eae2bd0	0.340178
143	0x3e91a13b	0.28443322
144	0x3ec730e1	0.3890448
145	0x3eb8174c	0.35955274
146	0x3ebc11d6	0.36732358
147	0x3ed828d2	0.42218643
148	0x3e921e64	0.2853881
149	0x3e9285c3	0.28617677
150	0x3e95c2bb	0.2925013
151	0x3ec8c818	0.3921516
152	0x3e89d2fd	0.26918784
153	0x3e5b0a2f	0.21390603
154	0x3ea3b98c	0.319775
155	0x3e881a8f	0.26582763
156	0x3e858c00	0.26083374
157	0x3e8a4871	0.27008393
158	0x3e993c43	0.2992879
159	0x3e9e5876	0.30926865
160	0x3e8fbf4f	0.28075644
161	0x3e8807ca	0.26568443
162	0x3ec37cd1	0.38181165
163	0x3e97c7c3	0.29644594
164	0x3eaa4109	0.33252743
165	0x3e9bfe43	0.30467424
166	0x3e968317	0.2939689
167	0x3e782f91	0.24236895
168	0x3e9921e5	0.29908672
169	0x3eab647a	0.33475095
170	0x3e7ce1b1	0.2469547
171	0x3e9bd0c5	0.30432716
172	0x3e8b3445	0.27188316
173	0x3e961dc2	0.29319578
174	0x3e772a14	0.24137145
175	0x3ea44b9b	0.32088932
176	0x3eaf03b6	0.3418252
177	0x3e9303a3	0.28713712
178	0x3e85bcbd	0.26120558
179	0x3e772006	0.2413331
180	0x3eabdd8b	0.3356746
181	0x3b85edc5	0.004087182
182	0xbb907710	-0.0044087246
183	0x3e9ccb02	0.30623633
184	0x3e9c2d1a	0.3050316
185	0x3eb13e6e	0.34617943
186	0x3ea53b96	0.32272023
187	0x3e8722c4	0.26393712
188	0x3e8272fc	0.2547835
189	0x3e7251ae	0.23663971
190	0x3eb5ad8e	0.35483974
191	0x3ea77abb	0.32710823
192	0x3e9e3c34	0.30905306
193	0x3ea05bec	0.3132013
194	0x3e73a5a3	0.23793654
195	0x3e881ab4	0.26582873
196	0x3e97adc5	0.29624763
197	0x3e9d1f17	0.30687782
198	0x3ea2cade	0.317954
199	0xbb13735a	-0.0022499175

encodernorms.0.running_var f4 [200]
0	0x3dea07f2	0.11427297
1	0x3ddcaf7f	0.10775661
2	0x3dcad0ab	0.099030815
3	0x3de30018	0.11084002
4	0x3dccff99	0.10009689
5	0x3dd54629	0.104137726
6	0x3dc8e7c0	0.09809828
7	0x3dbfa4fa	0.09357639
8	0x3dc9dee4	0.09856966
9	0x3db9842e	0.090584144
10	0x3ddc5797	0.10758894
11	0x3de65761	0.11247135
12	0x3df16f15	0.11788765
13	0x3df5ffca	0.120116785
14	0x3db6abb7	0.08919471
15	0x3dd01f2b	0.10162195
16	0x3dbeaf4a	0.093107775
17	0x3b0667f2	0.0020508734
18	0x3e0791ef	0.13239263
19	0x3dc5995f	0.09648394
20	0x3dcd9dcb	0.10039862
21	0x3dd969d1	0.10615886
22	0x3dda444c	0.10657558
23	0x3e0ec23f	0.13941287
24	0x3e0d1a8b	0.13779657
25	0x3e2d1967	0.16904221
26	0x3dccb623	0.09995677
27	0x3dadf40f	0.08493816
28	0x3dd29d5f	0.102839224
29	0x3dda35df	0.10654806
30	0x3dbf285e	0.09333871
31	0x3df69b8c	0.12041387
32	0x3deba747	0.11506515
33	0x3dcbc379	0.09949393
34	0x3dd751ca	0.10513647
35	0x3ded556d	0.11588559
36	0x3add7c5a	0.0016898022
37	0x3e2648fa	0.16238776
38	0x3b3a622c	0.0028439863
39	0x3dda7737	0.1066727
40	0x3de59fd1	0.11212123
41	0x3dbfd8eb	0.09367546
42	0x3e0615c4	0.1309424
43	0x3dbf9403	0.09354403
44	0x3de04cba	0.109521344
45	0x3d81ecb1	0.063439734
46	0x3df24df8	0.118312776
47	0x3df05ead	0.11736808
48	0x3dd0310f	0.10165607
49	0x3e057282	0.13031963
50	0x3e074a92	0.1321204
51	0x3e00bc41	0.12571813
52	0x3de7c93c	0.11317679
53	0x3dba3c3e	0.090935215
54	0x3ddc30fc	0.107515305
55	0x3de102e7	0.10986882
56	0x3dfefb88	0.124503195
57	0x3dd4bfa8	0.10388118
58	0x3df4bab4	0.11949673
59	0x3dde413f	0.108522885
60	0x3dc060a4	0.09393433
61	0x3dae1bd6	0.08501403
62	0x3dccf418	0.10007495
63	0x3dd067dd	0.1017606
64	0x3e23e4e1	0.16005279
65	0x3e02879c	0.12747043
66	0x3def1fe6	0.11676006
67	0x3ddafd69	0.106928654
68	0x3dca87b0	0.098891616
69	0x3df58613	0.11988463
70	0x3dc6d575	0.097086824
71	0x3dc2452b	0.09485849
72	0x3e013f0f	0.12621711
73	0x3ddf78ea	0.109117344
74	0x3dc4d983	0.096117996
75	0x3e0584bb	0.13038914
76	0x3daf24a2	0.08551909
77	0x3d938cca	0.07204588
78	0x3dc9aa2d	0.098469116
79	0x3dcedae7	0.10100346
80	0x3db088a5	0.08619813
81	0x3e0d1048	0.13775742
82	0x3dc741c0	0.09729338
83	0x3e1a29f0	0.1505506
84	0x3dbc2b7d	0.09187982
85	0x3dfd5b9b	0.12370988
86	0x3de178e7	0.110093884
87	0x3e1717e1	0.14755203
88	0x3db60e90	0.08889496
89	0x3de95909	0.11393935
90	0x3de59eb9	0.112119146
91	0x3dd58d7a	0.10427375
92	0x3e13cfe4	0.14434773
93	0x3dfd88b9	0.123795934
94	0x3db969f1	0.0905341
95	0x3e0ff522	0.14058354
96	0x3db91f22	0.09039141
97	0x3dca7e17	0.09887331
98	0x3db327e1	0.08747841
99	0x3de38555	0.111094154
100	0x3e05e1b5	0.13074382
101	0x3dc7d8a3	0.09758117
102	0x3de5cc46	0.11220603
103	0x3de6d024	0.112701684
104	0x3d974a91	0.07387269
105	0x3a1f375b	0.0006073617
106	0x3dafa4f6	0.08576386
107	0x3ddf95b9	0.10917229
108	0x3db43b8b	0.088004194
109	0x3dafb5b3	0.08579578
110	0x3dc9b96f	0.09849822
111	0x3db6f59b	0.08933564
112	0x3dc6ad73	0.097010516
113	0x3e027826	0.12741145
114	0x3e07dfc2	0.1326895
115	0x3e066e0e	0.1312792
116	0x3dcb3a3a	0.09923215
117	0x3e17fd4f	0.14842723
118	0x3e0c0af8	0.13676059
119	0x3dc405a8	0.09571391
120	0x3e01b10b	0.12665193
121	0x3de9eb51	0.11421836
122	0x3de94f63	0.11392095
123	0x3e2280f0	0.15869498
124	0x3e029658	0.12752664
125	0x3dccea2d	0.10005603
126	0x3de9a368	0.114081204
127	0x3dd12a4b	0.10213145
128	0x3dbfa22d	0.093571045
129	0x3de869b7	0.113482885
130	0x3deef546	0.11667876
131	0x3df8e3e1	0.121528395
132	0x3e11334b	0.14179723
133	0x3dae6902	0.085161224
134	0x3df5342a	0.1197284
135	0x3e04e388	0.12977421
136	0x3e0c1efa	0.13683692
137	0x3df00811	0.117202885
138	0x3ddd8739	0.10816807
139	0x3dc42edd	0.09579251
140	0x3dde86ee	0.108655795
141	0x3dbb9c61	0.09160686
142	0x3e022c5e	0.12712237
143	0x3df4f640	0.11961031
144	0x3e118497	0.14210735
145	0x3e00fd74	0.12596685
146	0x3e22fc19	0.1591648
147	0x3e1c964d	0.1529171
148	0x3df86c31	0.12130011
149	0x3dece980	0.11567974
150	0x3de5bc97	0.11217611
151	0x3e3030b8	0.17206085
152	0x3dbe944c	0.09305629
153	0x3db05d22	0.08611514
154	0x3dfa7f5d	0.12231324
155	0x3dc64884	0.096818
156	0x3dd9b246	0.10629706
157	0x3dca1c96	0.098687336
158	0x3df598c9	0.11992032
159	0x3de6b866	0.1126564
160	0x3dd4e77c	0.10395715
161	0x3dd8a764	0.10578802
162	0x3e10592f	0.14096521
163	0x3db48dad	0.08816085
164	0x3e02794d	0.12741585
165	0x3dd29343	0.10281994
166	0x3dc8cf28	0.09805137
167	0x3da92bf0	0.082603335
168	0x3df0a16b	0.11749538
169	0x3e02c502	0.12770465
170	0x3dc23e19	0.094845004
171	0x3df7ecc5	0.12105707
172	0x3ddf5f49	0.10906846
173	0x3dd32e9a	0.10311623
174	0x3dacc1f5	0.08435432
175	0x3debeb56	0.11519496
176	0x3e089246	0.13337049
177	0x3dbdc952	0.092669144
178	0x3dd77fe8	0.10522443
179	0x3d9a79b1	0.07542742
180	0x3e120208	0.14258587
181	0x3b8532be	0.004064887
182	0x3a49884d	0.0007687852
183	0x3e03c4a9	0.12867989
184	0x3dfbe279	0.122990556
185	0x3e064671	0.13112809
186	0x3e14e03f	0.14538668
187	0x3dbcad4d	0.09212742
188	0x3dcf6cf3	0.10128202
189	0x3dbb15b2	0.091349974
190	0x3e0bd994	0.13657218
191	0x3e0ac59b	0.13551943
192	0x3df0686a	0.117386654
193	0x3df77926	0.12083654
194	0x3da81ab2	0.08208217
195	0x3dc2a5ea	0.09504302
196	0x3de34982	0.11098005
197	0x3df59165	0.119906224
198	0x3df5dc11	0.12004865
199	0x3af71ddc	0.0018853503

decoderlayers.0.weight f4 [200, 30]
0	0xbc132795	-0.008981605
1	0x3deffd79	0.11718268
2	0xbe1e7a47	-0.15476333
3	0x3bb21427	0.0054345313
4	0xbe3cc5df	-0.18434857
5	0x3d7ebeeb	0.062193792
6	0xbd41ed00	-0.04734516
7	0xbbef5af0	-0.0073045418
8	0xbd8a9141	-0.06765986
9	0x3d11c7d4	0.03559096
10	0x3e06d4ab	0.13167064
11	0xbda5d07f	-0.08096408
12	0xbdab603c	-0.083679646
13	0x3db8a950	0.09016669
14	0x3e0bf6fe	0.13668439
15	0xbe00114a	-0.12506595
16	0xbdfa2872	-0.122147456
17	0x3df4711f	0.11935639
18	0xbe16ead4	-0.14738017
19	0x3e1feb74	0.15617162
20	0xbd8c416f	-0.06848418
21	0xbdd88aab	-0.10573324
22	0x3ca906e9	0.020633178
23	0xbd5ab529	-0.053395424
24	0xbda7f847	-0.08201652
25	0xbd8ff4dd	-0.07029126
26	0xbd7efa03	-0.06225015
27	0xbda5f64e	-0.081036195
28	0x3de73c3e	0.11290787
29	0xbd57cd23	-0.052685868
30	0xbe20ff25	-0.1572233
31	0x3e021594	0.12703544
32	0x3b0d7dde	0.0021589915
33	0xbda029c4	-0.07820466
34	0xbce83923	-0.028347557
35	0x3d71c06d	0.059021402
36	0xbd8ae7a0	-0.0678246
37	0xbdb987c0	-0.090590954
38	0x3dd11840	0.102097034
39	0x3d8bc56f	0.06824767
40	0x3d9f3ba8	0.077750504
41	0xbe1fe050	-0.15612912
42	0xbda7eea9	-0.08199818
43	0x3dc74321	0.09729601
44	0xbdf85d54	-0.12127176
45	0xbd5dbfef	-0.05413812
46	0xbe162a96	-0.14664683
47	0xbd80a363	-0.062811635
48	0x3e6f6697	0.23378979
49	0xbdec274e	-0.11530934
50	0x3e0d7462	0.13813928
51	0xbd958832	-0.07301368
52	0x3d83123e	0.06399964
53	0xbe36f957	-0.17868553
54	0xbd890279	-0.06689925
55	0x3e00acc3	0.12565903
56	0x3d8d4cce	0.06899415
57	0xbd32e74c	-0.043677613
58	0x3b31180e	0.0027022394
59	0x3c5b117c	0.013370868
60	0xbe2a6d46	-0.16643247
61	0x3d3061d5	0.04306205
62	0xbdfcd983	-0.123461746
63	0x3e177243	0.14789681
64	0xbd3bdd43	-0.04586531
65	0x3c750ca1	0.014956624
66	0x3d447837	0.04796621
67	0xbddefb66	-0.10887794
68	0x3d39cf8c	0.045363948
69	0x3d1bd0d0	0.038040936
70	0xbd2b9477	-0.041889634
71	0x3bfaa341	0.007648856
72	0x3ba08e44	0.004899772
73	0x3d43f92e	0.04784506
74	0x3d0d081f	0.034431573
75	0xbda98f96	-0.0827934
76	0x3e12469d	0.1428475
77	0x3d974a76	0.07387249
78	0xbb3c8242	-0.0028764163
79	0x3bbb16bb	0.005709497
80	0xbd39d10d	-0.045365382
81	0xbde5fe9f	-0.11230206
82	0x3d97880c	0.07398996
83	0xbdbe68f1	-0.0929736
84	0xbd2fdb8b	-0.042933982
85	0xbe330883	-0.17483716
86	0x3ca0ec71	0.019643994
87	0xbc20bada	-0.009810174
88	0xbd68009a	-0.0566412
89	0x3dc1dd8c	0.09466085
90	0x3e1222f9	0.14271154
91	0x3d9343ab	0.07190641
92	0xbe5e7803	-0.21725468
93	0xbcc2ee9c	-0.023795418
94	0xbdefefa1	-0.117156275
95	0xbda13186	-0.07870774
96	0xbd71abcc	-0.05900173
97	0xbd9a66c3	-0.075391315
98	0xbc3ac019	-0.011398339
99	0xbc258879	-0.010103338
100	0x3d4d83ac	0.0501744
101	0x3cf1569b	0.029460242
102	0x3d34ed21	0.044171456
103	0xbe15fcb9	-0.14647187
104	0xbd0d8a2b	-0.034555595
105	0x3db7e005	0.08978275
106	0x3c96d6e4	0.018413015
107	0xbe04d8f1	-0.12973382
108	0xbde9be10	-0.11413205
109	0xbe06bf3c	-0.13158888
110	0x3cf73ab8	0.030179366
111	0xbdfdf47d	-0.12400148
112	0xbd9f1a66	-0.07768707
113	0x3daea40c	0.08527383
114	0x3d3631bb	0.04448102
115	0x3dd92d47	0.10604339
116	0xbe309b63	-0.17246775
117	0xbd41f26f	-0.047350343
118	0xbc07823b	-0.008270795
119	0x3e34651c	0.17616695
120	0xbe33adba	-0.1754674
121	0x3de95b54	0.113943726
122	0x3de562ff	0.11200523
123	0x3e458a24	0.19290978
124	0x3cd32d9c	0.025778584
125	0xbda4b0f3	-0.08041563
126	0x3cf9fd68	0.030516341
127	0x3dd661e7	0.10467892
128	0xbd8ec77e	-0.06971644
129	0xbe158aff	-0.14603804
130	0xbe2af9da	-0.16696873
131	0x3e2982af	0.16553758
132	0x3e0ff8fe	0.14059827
133	0x3d0d2e31	0.03446788
134	0xbe13771c	-0.14400905
135	0xbdd376a5	-0.10325364
136	0xbdbc82a9	-0.09204609
137	0xbd842841	-0.0645299
138	0x3dbe7145	0.09298948
139	0x3e1aac43	0.15104775
140	0xbd943341	-0.072363384
141	0x3e0983db	0.13429205
142	0xbd92a339	-0.071600385
143	0xbdd6fce4	-0.10497454
144	0x3d9864c0	0.074410915
145	0xbd5210cb	-0.051285546
146	0xbc6834bb	-0.014172728
147	0xbe15333e	-0.14570329
148	0x3d52f12e	0.051499538
149	0xbcdb3dd4	-0.02676288
150	0xbca6a2a9	-0.020341234
151	0x3da9d333	0.08292236
152	0xbdaecff3	-0.08535757
153	0x3dbbe4e3	0.09174516
154	0x3e05bfce	0.13061449
155	0x3d6f371f	0.058402177
156	0x3d934330	0.071905494
157	0x3e0d22f7	0.1378287
158	0x3ddad928	0.106859505
159	0x3dada8c2	0.084794536
160	0xbdb1ee34	-0.08688012
161	0xbda09d6a	-0.07842524
162	0x3decfdf8	0.11571878
163	0xbd817350	-0.06320822
164	0x3d29e012	0.041473456
165	0x3e01b16c	0.12665337
166	0x3e25d8e5	0.1619602
167	0xbcf6ffea	-0.030151326
168	0x3b7d8c91	0.003868852
169	0xbe07225d	-0.13196702
170	0x3d0e1271	0.034685556
171	0xbe58c8e4	-0.21170384
172	0x3d33b15d	0.04387032
173	0x3df9ee37	0.12203639
174	0xbe21fa58	-0.15818155
175	0x3e33da11	0.17563654
176	0x3e2ccc34	0.16874772
177	0x3e027be2	0.1274257
178	0xbda30ef9	-0.0796184
179	0x3d8c1283	0.06839468
180	0xbdfaa049	-0.12237603
181	0xbdf5825d	-0.119877554
182	0xbe021366	-0.12702712
183	0xbd1bfc92	-0.038082667
184	0xbd9488ff	-0.072526924
185	0xbd79aefb	-0.06095789
186	0xbda232b9	-0.07919831
187	0x3e421c35	0.18956073
188	0xbdf7e98c	-0.121050924
189	0x3d9f3fab	0.077758156
190	0xbd837bbf	-0.06420087
191	0xbdb3b0d9	-0.087739654
192	0x3e2fd9b0	0.17172885
193	0x3db4f5a0	0.08835912
194	0xbb4dc881	-0.0031400027
195	0x3d83f24b	0.06442698
196	0x3dcb6b6b	0.09932598
197	0x3ddb0365	0.10694007
198	0x3dc8bc7a	0.09801574
199	0xbe85417d	-0.26026526
200	0xbdd98e97	-0.106229
201	0x3dde87e3	0.10865762
202	0xbd972431	-0.0737995
203	0x3da5feda	0.0810525
204	0xbe0be3e5	-0.13661154
205	0xbd979f33	-0.07403412
206	0x3d5050d0	0.05085832
207	0x3d951a00	0.0728035
208	0xbe2cf1fc	-0.16889185
209	0xbc46dcb9	-0.012137585
210	0x3e4f7eaf	0.2026317
211	0xbe134f8e	-0.14385816
212	0x3e37d4a9	0.17952217
213	0x3c48e7ec	0.012262326
214	0xbdae5fc2	-0.08514358
215	0xbdaa5acb	-0.08318099
216	0xbddf7f3a	-0.109129384
217	0x3d8f06e1	0.06983734
218	0xbc8f02c5	-0.017457375
219	0xbddbf262	-0.1073959
220	0x3cec66a2	0.028857533
221	0x3dd40d57	0.10354107
222	0x3d5e29e9	0.054239187
223	0x3dc33576	0.09531681
224	0x3da08464	0.078377515
225	0x3d3f8a95	0.04676302
226	0xbde551b4	-0.11197224
227	0x3d440aaa	0.047861733
228	0xbe0af77e	-0.13570973
229	0x3d25eb26	0.04050746
230	0x3da02c17	0.078209095
231	0x3dde874a	0.10865648
232	0xbe344164	-0.1760307
233	0x3d9f0c50	0.0776602
234	0x3e01f2f9	0.12690343
235	0x3d70e2a4	0.05880989
236	0x3e3a2e67	0.18181764
237	0x3e1012dd	0.14069696
238	0x3dd202cb	0.10254439
239	0x3d6db709	0.058035884
240	0xba8d8306	-0.0010796494
241	0xbe14ac2e	-0.14518806
242	0xbdf0bb64	-0.11754492
243	0xbd8dc619	-0.0692255
244	0x3d149809	0.036277805
245	0xbc85afe7	-0.016319228
246	0x3e20f46c	0.1571824
247	0x3c93a81b	0.018024495
248	0x3d155c41	0.036464933
249	0xbe00e332	-0.12586668
250	0x3d988e98	0.074490726
251	0x3e1f7ace	0.1557419
252	0x3e486102	0.19568256
253	0x3e15fe4d	0.1464779
254	0xbe4745dd	-0.19460244
255	0xbd99c478	-0.075081766

decoderlayers.0.bias f4 [200]
0	0x3e8a73a6	0.27041358
1	0x3e355c1e	0.17710921
2	0x3e83e4c8	0.25760484
3	0x3e6bd982	0.23032191
4	0xbda2470b	-0.079237066
5	0xbdecd4a1	-0.11563993
6	0x3e1533cc	0.1457054
7	0x3d9f0f78	0.07766622
8	0x3e354527	0.17702161
9	0xbb8e1b3b	-0.004336742
10	0xbd2d671b	-0.042334657
11	0xbe069014	-0.13140899
12	0x3de5e9f5	0.112262644
13	0x3a84c383	0.0010129068
14	0x3c903fa8	0.017608479
15	0xbd645135	-0.055741508
16	0xbd8afc44	-0.06786397
17	0x3dce9084	0.10086158
18	0x3d1be5c5	0.038060922
19	0x3e71d9c1	0.23618223
20	0x3e68f77b	0.22750656
21	0xbdbc3614	-0.09190002
22	0x3e537233	0.20649032
23	0x3d975615	0.07389466
24	0x3e1975a6	0.14986286
25	0x3e38cdc7	0.18047248
26	0xbc8bfca6	-0.017088246
27	0x3e1fe1c3	0.15613465
28	0x3e7abd56	0.24486288
29	0x3e6c9eba	0.23107424
30	0x3e4e2a97	0.20133434
31	0xbde64420	-0.112434626
32	0x3da4b100	0.080415726
33	0xbd5ab746	-0.05339744
34	0xbcdac8bc	-0.026707046
35	0x3e089e9b	0.13341753
36	0x3e830a69	0.2559388
37	0x3dc637f0	0.09678638
38	0x3e741dcb	0.2383949
39	0x3e166a25	0.14688928
40	0xbd28ca9f	-0.04120886
41	0xbcf063b9	-0.029344426
42	0x3de0cff3	0.10977163
43	0x3e3f42d4	0.18677837
44	0x3e016066	0.1263443
45	0xbc67aa9b	-0.014139797
46	0x3dd3d152	0.10342659
47	0x3e1ea997	0.15494381
48	0x3e0b40e2	0.1359897
49	0xbdd92144	-0.10602048
50	0x3c825daa	0.015913803
51	0x3e61b9b9	0.22043504
52	0x3e702446	0.23451337
53	0x3e81dd17	0.2536399
54	0x3e73a4c3	0.2379332
55	0xbcb54ae2	-0.022130433
56	0xbdbb6783	-0.09150603
57	0x3e1a6606	0.15077981
58	0x3cb705bc	0.022341602
59	0x3da9df9a	0.08294602
60	0x3cf62211	0.030045541
61	0x3e45ef24	0.19329506
62	0x3d68adcf	0.05680638
63	0x3da452a5	0.08023576
64	0xbc6e1b3e	-0.014532862
65	0x3adeb3df	0.0016990862
66	0xbc3f5fe9	-0.011680582
67	0x3e1b2dba	0.15154162
68	0x3e212a4d	0.15738793
69	0x3d9adf8e	0.07562171
70	0x3e21ae26	0.15789089
71	0x3e488608	0.19582379
72	0x3e22fe96	0.1591743
73	0x3e844da9	0.258405
74	0x3d8de56f	0.069285266
75	0x3c80b1b7	0.015709741
76	0x3d7e3a6c	0.062067434
77	0x3e2b714f	0.16742443
78	0xbccbae9a	-0.02486353
79	0x3e3bd431	0.18342663
80	0x3e14b983	0.14523892
81	0x3e3d2f45	0.18475063
82	0x3d620e1b	0.055189233
83	0x3e5607dc	0.20901436
84	0xbc6dfbd0	-0.014525369
85	0x3d15ee81	0.03660441
86	0xbd287ba6	-0.041133545
87	0x3e312720	0.17300081
88	0x3e86ef56	0.26354474
89	0x3e969d2b	0.29416785
90	0x3e11fd77	0.14256845
91	0x3c212f12	0.009837883
92	0x3e1104f1	0.14162041
93	0x3d3b5957	0.045739498
94	0x3dea4d51	0.11440528
95	0x3e2904d1	0.16505744
96	0x3e91414d	0.28370133
97	0x3c8d6757	0.01726119
98	0x3d6bfadc	0.057612285
99	0x3e339929	0.17538895
100	0x3c33b84f	0.010969236
101	0x3d93dd85	0.07219986
102	0x3d4511e2	0.048112758
103	0x3e5abf42	0.21362022
104	0x3d1be84e	0.03806334
105	0x3e86d5f5	0.2633511
106	0x3cb41537	0.021982772
107	0x3e018eed	0.12652178
108	0xbcbf7e19	-0.023375558
109	0x3dc8dd7c	0.0980787
110	0x3d391ff6	0.045196496
111	0x3e549cb5	0.20762904
112	0x3d413eb5	0.047178943
113	0x3e32c36f	0.17457364
114	0x3ca40dc9	0.020026105
115	0x3c03fdda	0.008056128
116	0x3e51ae2e	0.204766
117	0x3ea29382	0.31753165
118	0xbdd9cd1d	-0.106348254
119	0x3e3ddd93	0.18541555
120	0x3c73ec1c	0.014887836
121	0x3cda5da9	0.026655989
122	0x3d64baf6	0.055842362
123	0x3c6516dd	0.013982502
124	0x3e08e3ce	0.1336815
125	0x3c8f401f	0.01748663
126	0x3dd2e2fd	0.10297201
127	0x3e616a70	0.22013259
128	0x3b77c46b	0.0037806283
129	0xba44c487	-0.00075060915
130	0xbd0b3e7d	-0.03399514
131	0x3ea10504	0.3144914
132	0x3dfcc30e	0.12341891
133	0x3e8dfeb1	0.27733377
134	0x3da2f555	0.079569496
135	0x3d1636e2	0.036673434
136	0x3bb31b2c	0.0054658856
137	0x3da7e58e	0.08198081
138	0x3cfc8a11	0.030827554
139	0x3d86117f	0.06546306
140	0xbce82bd3	-0.02834121
141	0x3cb3fec8	0.021972075
142	0xbd3a3338	-0.045459002
143	0xbca665dc	-0.020312242
144	0x3df60854	0.12013307
145	0x3e6c5274	0.23078328
146	0xbab06a44	-0.0013459404
147	0x3dd53021	0.104095705
148	0x3e632e50	0.22185636
149	0x3e6007e4	0.2187801
150	0x3dec586d	0.115403034
151	0xbd03251b	-0.03201781
152	0x3e745b3b	0.23862927
153	0x3e62dbf4	0.22154218
154	0x3d96b848	0.073593676
155	0x3de3d892	0.11125292
156	0x3c6dee3c	0.0145221315
157	0x3e591180	0.21198082
158	0x3d34987c	0.044090733
159	0x3c20e4ef	0.009820207
160	0x3e81821c	0.25294578
161	0x3d9fc659	0.07801504
162	0xbc82b1f7	-0.015954
163	0x3c99c377	0.018769963
164	0x3e38e14e	0.18054697
165	0x3debd405	0.11515049
166	0x3e74a9c6	0.23892888
167	0x3e5d13e4	0.21589619
168	0xbd00ad2a	-0.031415142
169	0x3c6ccb26	0.014452731
170	0x3e8698ce	0.26288456
171	0x3d5e28fc	0.054238304
172	0x3e5c104c	0.21490592
173	0x3e60dd91	0.21959521
174	0xbddb733a	-0.10715337
175	0x3e3fcc35	0.18730243
176	0x3ded1dfc	0.11577985
177	0xbd498c0f	-0.049205836
178	0xbd69087f	-0.056892868
179	0x3e10f1c2	0.14154723
180	0x3e5eeeca	0.21770778
181	0x3d160124	0.03662218
182	0x3e6ab739	0.22921456
183	0xbdc02cff	-0.09383582
184	0x3e00d139	0.12579812
185	0x3d666bb5	0.05625506
186	0xbcb2a8d9	-0.021809028
187	0x3d2a815b	0.04162727
188	0x3de78412	0.11304487
189	0x3e27e6f5	0.16396697
190	0x3d0c296a	0.034219183
191	0x3cc3cd8b	0.023901721
192	0x3d75eca1	0.06004012
193	0x3e1e0a10	0.15433526
194	0xbda55e4b	-0.080746256
195	0xbd8b1179	-0.06790442
196	0x3dd054a9	0.10172398
197	0x3e644c21	0.22294666
198	0x3dc510bc	0.096223325
199	0x3daac634	0.083385855

decodernorms.0.weight f4 [200]
0	0x3f8a1ce0	1.0790062
1	0x3f84a3bd	1.0362469
2	0x3f861eb5	1.0478121
3	0x3f7fea1a	0.99966586
4	0x3f851df5	1.0399767
5	0x3f851701	1.0397645
6	0x3f80d22e	1.0064142
7	0x3f86e0b8	1.0537329
8	0x3f87bf25	1.0605208
9	0x3f84511b	1.0337251
10	0x3f840543	1.0314106
11	0x3f84dfd9	1.0380813
12	0x3f83c851	1.0295507
13	0x3f8596d9	1.043666
14	0x3f7eacef	0.99482626
15	0x3f87b85c	1.0603137
16	0x3f8946ae	1.0724695
17	0x3f835797	1.0261105
18	0x3f850b83	1.0394138
19	0x3f833fdc	1.0253863
20	0x3f85059b	1.0392336
21	0x3f852f41	1.0405046
22	0x3f847be5	1.035031
23	0x3f82788d	1.0193039
24	0x3f842142	1.032265
25	0x3f86c16b	1.0527776
26	0x3f820ef6	1.0160816
27	0x3f8586d4	1.0431771
28	0x3f89363d	1.0719677
29	0x3f8abd6c	1.0839057
30	0x3f8353c7	1.0259942
31	0x3f8228ab	1.0168661
32	0x3f8bd1a0	1.0923347
33	0x3f801566	1.000653
34	0x3f842ddc	1.0326495
35	0x3f81e5eb	1.014829
36	0x3f88ace7	1.0677766
37	0x3f889af0	1.0672283
38	0x3f87352a	1.0563099
39	0x3f87c160	1.0605888
40	0x3f8671f9	1.0503532
41	0x3f838ab0	1.0276699
42	0x3f80c50e	1.0060136
43	0x3f83d9db	1.0300859
44	0x3f863e89	1.0487834
45	0x3f81cc1c	1.0140414
46	0x3f889658	1.0670881
47	0x3f8570a4	1.0425
48	0x3f843554	1.0328774
49	0x3f834a3f	1.0257033
50	0x3f84773a	1.0348885
51	0x3f865502	1.0494692
52	0x3f892807	1.071534
53	0x3f854309	1.0411083
54	0x3f8d77f5	1.1052233
55	0x3f850d7e	1.0394742
56	0x3f83e988	1.0305643
57	0x3f85fe22	1.046818
58	0x3f86d39d	1.0533329
59	0x3f8a08aa	1.0783894
60	0x3f81527b	1.0103296
61	0x3f86d9a5	1.053517
62	0x3f85feba	1.0468361
63	0x3f87c261	1.0606195
64	0x3f8830e6	1.0639923
65	0x3f87d1fb	1.0610956
66	0x3f8665fa	1.0499871
67	0x3f863cff	1.0487365
68	0x3f83232a	1.0245106
69	0x3f87e493	1.061663
70	0x3f8062d5	1.0030161
71	0x3f88acae	1.0677698
72	0x3f84bd5f	1.0370291
73	0x3f8d4c24	1.1038861
74	0x3f864f24	1.0492902
75	0x3f8b4029	1.0878955
76	0x3f831f5a	1.0243943
77	0x3f88f607	1.0700082
78	0x3f864484	1.0489659
79	0x3f8557bd	1.0417401
80	0x3f848f76	1.0356281
81	0x3f889ee4	1.067349
82	0x3f844067	1.0332154
83	0x3f882109	1.0635082
84	0x3f82b66b	1.021192
85	0x3f8509da	1.0393631
86	0x3f82f718	1.0231657
87	0x3f82cec8	1.0219355
88	0x3f87e19b	1.0615724
89	0x3f864e3b	1.0492624
90	0x3f88761f	1.0661048
91	0x3f82779e	1.0192754
92	0x3f888902	1.0666811
93	0x3f86a9a6	1.0520523
94	0x3f892cc7	1.071679
95	0x3f83d92e	1.0300653
96	0x3f879528	1.0592394
97	0x3f8636aa	1.0485432
98	0x3f879e93	1.0595268
99	0x3f8767d4	1.0578561
100	0x3f8cd776	1.1003253
101	0x3f830e36	1.0238712
102	0x3f857c2d	1.042852
103	0x3f84909c	1.0356631
104	0x3f8736a9	1.0563556
105	0x3f85c4b7	1.0450658
106	0x3f8c1d80	1.0946503
107	0x3f813155	1.009318
108	0x3f86d8a7	1.0534867
109	0x3f7c0502	0.9844514
110	0x3f869988	1.0515604
111	0x3f87de50	1.0614719
112	0x3f851cf0	1.0399456
113	0x3f83edbc	1.0306926
114	0x3f8b1494	1.0865655
115	0x3f87bfdb	1.0605425
116	0x3f876827	1.057866
117	0x3f8648ce	1.0490968
118	0x3f86c2d3	1.0528206
119	0x3f839219	1.027896
120	0x3f864f41	1.0492936
121	0x3f8174e6	1.01138
122	0x3f860e75	1.0473162
123	0x3f85149c	1.0396914
124	0x3f898041	1.0742265
125	0x3f864ad3	1.0491585
126	0x3f86646f	1.04994
127	0x3f893d28	1.0721788
128	0x3f82fc09	1.0233165
129	0x3f82f390	1.0230579
130	0x3f87b796	1.0602901
131	0x3f847e9f	1.0351142
132	0x3f86fc41	1.0545732
133	0x3f879942	1.0593646
134	0x3f85671f	1.0422095
135	0x3f80a35f	1.0049857
136	0x3f80ce7d	1.0063015
137	0x3f80983e	1.0046461
138	0x3f84228d	1.0323044
139	0x3f85a755	1.0441691
140	0x3f838a95	1.0276667
141	0x3f8278bd	1.0193096
142	0x3f833239	1.0249702
143	0x3f8143ca	1.0098813
144	0x3f835feb	1.0263647
145	0x3f894b44	1.0726094
146	0x3f8643af	1.0489405
147	0x3f87f499	1.062152
148	0x3f88ec80	1.0697174
149	0x3f876282	1.0576937
150	0x3f82d620	1.0221596
151	0x3f87df49	1.0615016
152	0x3f81e252	1.0147192
153	0x3f83898b	1.027635
154	0x3f82ebbb	1.0228189
155	0x3f871707	1.0553902
156	0x3f843e05	1.0331427
157	0x3f8802a5	1.0625807
158	0x3f8206d1	1.015833
159	0x3f87ae33	1.0600036
160	0x3f817984	1.0115209
161	0x3f813b27	1.0096177
162	0x3f82c570	1.0216503
163	0x3f844bbf	1.0335616
164	0x3f8991e9	1.0747653
165	0x3f851518	1.0397062
166	0x3f82958b	1.0201887
167	0x3f88f8c1	1.0700914
168	0x3f81c44c	1.013803
169	0x3f8623d8	1.0479689
170	0x3f884b55	1.064799
171	0x3f854e9a	1.0414612
172	0x3f8f2cce	1.1185548
173	0x3f83ec83	1.0306553
174	0x3f843f01	1.0331727
175	0x3f845885	1.0339514
176	0x3f807cc7	1.0038079
177	0x3f83d6ef	1.0299968
178	0x3f872ad4	1.0559945
179	0x3f84e574	1.0382524
180	0x3f8b7b1c	1.0896945
181	0x3f84782b	1.0349172
182	0x3f84499a	1.0334961
183	0x3f865528	1.0494738
184	0x3f866e9c	1.0502505
185	0x3f83c71c	1.0295138
186	0x3f885142	1.0649798
187	0x3f81c2dd	1.0137593
188	0x3f8a5f14	1.0810266
189	0x3f858a59	1.0432845
190	0x3f857b08	1.0428171
191	0x3f7f3352	0.99687684
192	0x3f841af0	1.0320721
193	0x3f83d56b	1.0299505
194	0x3f816671	1.0109388
195	0x3f876f71	1.0580884
196	0x3f8797ab	1.059316
197	0x3f82b9a4	1.0212903
198	0x3f87844f	1.0587252
199	0x3f8bee46	1.093209
