tutorial/interim_data_test/models/model_10_25.pt (torch, 78273 bytes, 18 tensors)

encoderlayers.0.weight f4 [100, 70]
0	0x3c6fa8a0	0.014627606
1	0xbcbeb106	-0.02327777
2	0xbda9f93b	-0.0829949
3	0xbcf45036	-0.029823404
4	0x3db3438d	0.08753119
5	0x3dd7e0a1	0.105408914
6	0x3dabd02e	0.083893165
7	0x3d9f42f0	0.07776439
8	0x3da070c9	0.07834012
9	0x3c8be4af	0.017076818
10	0xbd5e89e0	-0.054330707
11	0x3cf3d40d	0.0297642
12	0xbd03a7ba	-0.03214238
13	0x3b815f76	0.0039481474
14	0xbd9b7ff2	-0.07592763
15	0xbbba22e7	-0.00568043
16	0x3de47887	0.11155801
17	0xbd5bb1c3	-0.053636324
18	0xbdd00e06	-0.10158925
19	0x3ce57577	0.028010113
20	0x3ca8b2e3	0.020593112
21	0xbde1959a	-0.11014862
22	0x3da31f28	0.07964927
23	0x3c2068ee	0.009790642
24	0xbd0c5cc1	-0.034268145
25	0xbded29ee	-0.11580263
26	0xbdc780fc	-0.09741399
27	0xbd95f7af	-0.073226325
28	0xbdcbbf74	-0.09948626
29	0x3db7c519	0.0897314
30	0x3dda3d04	0.10656169
31	0x3c131927	0.008978165
32	0xbcf727b3	-0.030170297
33	0xbd17d31e	-0.03706657
34	0xbc8a934d	-0.016915942
35	0xbbd7d6d7	-0.00658689
36	0x3d11ce86	0.035597347
37	0xbd97703c	-0.07394454
38	0xbdf5af38	-0.11996311
39	0x3d9cba61	0.076527365
40	0xbda55817	-0.080734424
41	0x3d736f44	0.059432283
42	0xbd273a5f	-0.04082715
43	0xbdb86b2b	-0.09004816
44	0xbdb013cd	-0.08597527
45	0x3cce0b81	0.02515197
46	0x3bbe2f2f	0.0058039646
47	0xbdb0354a	-0.08603914
48	0xbdbd8bf1	-0.09255207
49	0x3df09f10	0.11749089
50	0x3c91dff1	0.017806979
51	0xbd391b32	-0.04519195
52	0x3d9697a7	0.07353144
53	0x3d436296	0.04770144
54	0x3dae66f2	0.08515729
55	0x3de89b36	0.11357729
56	0xbdbc73ff	-0.09201812
57	0x3c722af6	0.0147807505
58	0xbdb5ecb3	-0.088830374
59	0x3cb7c773	0.022433972
60	0xbd96711f	-0.07345795
61	0x3ce712aa	0.028207142
62	0xba888fa1	-0.0010418781
63	0xbcfbeb53	-0.03075186
64	0x3db3ea8f	0.08784973
65	0xbd0cfe13	-0.03442199
66	0xbd01516b	-0.031571787
67	0x3d24230c	0.040072486
68	0xbd544da6	-0.051831864
69	0x3d6b7ba2	0.057490952
70	0xbd5cd0ca	-0.053910054
71	0x3e01fdda	0.12694493
72	0x3d3ed5e4	0.0465907
73	0xbd948cc5	-0.07253412
74	0xbc07b87a	-0.008283729
75	0x3e0b6bd7	0.13615356
76	0xbdef7c53	-0.11693635
77	0xbd36ce82	-0.044630535
78	0x3dc48034	0.09594765
79	0xbddaf49a	-0.10691185
80	0xbd46bd94	-0.04852064
81	0x3d446669	0.04794923
82	0x3d94f446	0.07273154
83	0xbd7e03ae	-0.062015228
84	0x3d5bbe5b	0.053648334
85	0x3df18e28	0.11794692
86	0x3d4b6649	0.049658094
87	0x3d185ac0	0.03719592
88	0xbd072c50	-0.033001244
89	0xbda6fe0b	-0.081539236
90	0xbdc22043	-0.0947881
91	0x3cf7af30	0.030234903
92	0xbdc7e3ec	-0.097602695
93	0x3dc88bb2	0.0979227
94	0x3d11186d	0.035423685
95	0xbda15888	-0.07878214
96	0xbdd4900a	-0.10379036
97	0xbdd350e3	-0.10318162
98	0x3de53a5a	0.1119277
99	0xbb4bf3cf	-0.0031120663
100	0xbcf68db7	-0.030096872
101	0x3d47e9dd	0.048807014
102	0xbd9d7b26	-0.07689504
103	0x3de02fcb	0.10946616
104	0x3d629673	0.05531926
105	0xbd2f0797	-0.042731848
106	0xbd13a61b	-0.036047082
107	0x3dc97de4	0.09838465
108	0xbc9b7008	-0.01897432
109	0xbd82f167	-0.063937
110	0xbd1df0c8	-0.038559705
111	0x3adb834f	0.0016747507
112	0x3e024053	0.1271985
113	0x3dd3eb6e	0.10347639
114	0x3d77330c	0.060351416
115	0xbdec238f	-0.1153022
116	0xbd1db494	-0.03850229
117	0x3de5293a	0.11189504
118	0x3dd47ee1	0.10375763
119	0x3d920fe4	0.07131937
120	0x3d0ffb74	0.035151914
121	0x3d1e8647	0.038702276
122	0x3dd58de1	0.10427452
123	0xbd293b57	-0.041316357
124	0x3ddfeeca	0.10934217
125	0xbd1f7534	-0.038930133
126	0xbd9cef55	-0.076628365
127	0xbdc497bc	-0.095992535
128	0x3d4851ad	0.048906017
129	0x3de6748b	0.112526976
130	0x3bb7e4c0	0.005611986
131	0x3da09dc0	0.078425884
132	0x3d68b00b	0.056808513
133	0xbd352087	-0.044220474
134	0xbe053805	-0.13009651
135	0x3d24875c	0.04016815
136	0xbdc6ad1c	-0.09700987
137	0x3dccb8d7	0.09996193
138	0x3bf95aad	0.0076096863
139	0xbd0a731f	-0.033801194
140	0x3d606ad6	0.054789387
141	0x3e141b8d	0.14463635
142	0x3c304c2e	0.01076035
143	0x3bc740d7	0.0060807276
144	0x3cd06c29	0.0254422
145	0x3e0a7e36	0.13524708
146	0x3e091be3	0.13389544
147	0xbcd8123d	-0.026375884
148	0xbc2a83c0	-0.010407388
149	0xbd87197c	-0.06596658
150	0x3e008fa4	0.12554795
151	0x3d32e171	0.04367203
152	0xbd1421cc	-0.036165044
153	0x3db4d569	0.08829767
154	0x3db4cdeb	0.08828338
155	0x3c8db543	0.017298346
156	0x3d257b64	0.040400878
157	0x3cd42986	0.025898706
158	0xbc7edbf6	-0.015555372
159	0xbdde7ffe	-0.10864256
160	0xbdb719f8	-0.089405
161	0xbdffaeb1	-0.124844916
162	0xbd8d321d	-0.06894324
163	0x3d035e81	0.032072548
164	0x3c7756d3	0.015096384
165	0xbd4bf384	-0.04979278
166	0x3d2d9d23	0.042386185
167	0x3d6aac2c	0.057293102
168	0x3c3bb4e0	0.011456698
169	0xbd076800	-0.033058167
170	0x3d570569	0.052495394
171	0x3d048be3	0.03235997
172	0xbda4ee24	-0.08053234
173	0x3ca16a52	0.019704018
174	0x3de3d8a0	0.11125302
175	0xbcbef9ed	-0.023312533
176	0x3dd0dc95	0.10198323
177	0xbb4a86f9	-0.0030903204
178	0xbd8a7279	-0.06760115
179	0x3d29f35b	0.041491847
180	0xbdb6568b	-0.089032255
181	0xbdd4babc	-0.10387179
182	0x3d3348f7	0.043770757
183	0x3db12204	0.08649066
184	0x3d874499	0.06604881
185	0xbd4d22c5	-0.050081987
186	0x3d9f0cef	0.07766139
187	0xbd86a615	-0.065746464
188	0xbd10d73e	-0.03536152
189	0x3d7eb1d7	0.06218132
190	0xbdafc127	-0.08581763
191	0xbd8c51e5	-0.06851558
192	0xbdebf0a6	-0.115205094
193	0xbd4f60ae	-0.05062931
194	0x3df5d785	0.12003998
195	0x3d93f6e1	0.07224823
196	0x3dd0468b	0.10169705
197	0xbd970290	-0.07373536
198	0x3dbf4525	0.0933936
199	0xbd4de276	-0.050264798
200	0x3c38b0e7	0.011272646
201	0x3c685c1e	0.014182119
202	0xbd49f615	-0.049306948
203	0xbd5dc4b1	-0.054142658
204	0xbcf1f84f	-0.029537348
205	0xbd9b9d58	-0.0759837
206	0x3cdf4965	0.027256677
207	0xbdcb7885	-0.09935097
208	0x3d9c5ae4	0.076345235
209	0x3d53b28d	0.05168395
210	0xbd60fe06	-0.054929756
211	0x3e12b9b9	0.1432866
212	0x3d5b2d5d	0.05351006
213	0x3dc84692	0.09779085
214	0x3db9bdeb	0.09069427
215	0xbe03f1aa	-0.12885156
216	0x3dd68214	0.10474029
217	0xbc6894a0	-0.014195591
218	0xb9287a56	-0.00016067302
219	0xbdb003b2	-0.08594455
220	0x3da489cf	0.080340974
221	0x3dd87369	0.10568888
222	0xbd9a3720	-0.075300455
223	0x3d4f1b08	0.05056289
224	0x3c4a599c	0.012350466
225	0x3d10b026	0.03532424
226	0xbd9f921d	-0.07791541
227	0x3de9f015	0.11422745
228	0xbd342b0f	-0.043986376
229	0xbd5c03dc	-0.053714618
230	0xbd5fb96b	-0.054620188
231	0x3dce9906	0.10087781
232	0x3c597ef2	0.013274895
233	0xbd5116de	-0.0510472
234	0x3da4ad17	0.08040827
235	0x3ca52e73	0.02016375
236	0xbda1cf79	-0.079009004
237	0xbcece1d0	-0.02891627
238	0xbb093b32	-0.0020939824
239	0x3df91f11	0.121641286
240	0x3d9c9b8c	0.07646856
241	0x3da9a07a	0.082825616
242	0xbd2fbed4	-0.042906597
243	0x3c94a8df	0.01814693
244	0xbdb0022f	-0.085941665
245	0x3ad36d5c	0.0016130614
246	0x3dcc1e90	0.09966767
247	0x3e037903	0.12839131
248	0x3d6ef154	0.058335617
249	0xbc7e5a85	-0.015524511
250	0x3d3d80ee	0.046265535
251	0xbdd362b5	-0.10321561
252	0xbc161300	-0.009159803
253	0x3d258970	0.040414274
254	0xbdb0c06c	-0.086304516
255	0xbdb96c5e	-0.090538725

encoderlayers.0.bias f4 [100]
0	0x3dbdb98d	0.09263907
1	0x3d2ce83a	0.042213656
2	0xbde3c96e	-0.11122404
3	0xbd3c2fa1	-0.04594386
4	0xbdcf941a	-0.1013567
5	0x3d97bb5f	0.07408785
6	0x3d924d84	0.07143691
7	0x3dd44bc0	0.10366011
8	0x3d1e5e68	0.03866425
9	0xbcec927c	-0.028878443
10	0x3dbfdfc5	0.093688525
11	0x3ba4d284	0.005029978
12	0xbcdaefc9	-0.026725667
13	0x3cef7334	0.029229738
14	0xbdb45ce1	-0.08806778
15	0x3dbaaeb5	0.09115354
16	0x3e013d60	0.12621069
17	0xbc4b891e	-0.012422828
18	0xbdc724e9	-0.09723837
19	0x3b5e5a51	0.0033928344
20	0xbd3da4db	-0.046299797
21	0xbd7bfff7	-0.061523404
22	0x3d88220f	0.06647121
23	0x3db83bd3	0.089957856
24	0x3c3ee901	0.011652232
25	0x3d80e0ba	0.06292863
26	0xbc1a0aa9	-0.009401956
27	0x3df1ef22	0.11813189
28	0x3cec95ef	0.028880088
29	0xbd4c57c5	-0.04988839
30	0x3d8b9887	0.06816202
31	0xbca1a539	-0.019732105
32	0xbd12e890	-0.03586632
33	0x3dd0f2af	0.10202538
34	0x3dc2ea99	0.09517402
35	0xbd275ffd	-0.040863026
36	0xbb0fc0b2	-0.0021934924
37	0x3be3b55d	0.0069491104
38	0xbd8a9c25	-0.067680635
39	0x3de2757c	0.110575646
40	0xbdcda143	-0.10040524
41	0x3d87aaad	0.06624351
42	0xbd0a9bd4	-0.033840016
43	0x3d62fc5c	0.05541645
44	0xbcd980e8	-0.026550725
45	0x3dc5e7f2	0.09663381
46	0x3dbfcd53	0.09365334
47	0xbb92b285	-0.0044768476
48	0x3d4ec71b	0.05048285
49	0xbd32398a	-0.043511905
50	0x3a472712	0.00075970695
51	0x3b03eb81	0.0020129385
52	0xbdab98df	-0.08378767
53	0xbc78d079	-0.0151864225
54	0x3bcc6448	0.0062375404
55	0xbde72c25	-0.11287717
56	0xbc26ec33	-0.01018815
57	0xbdb79c57	-0.08965366
58	0xbdaf72a7	-0.0856679
59	0x3d977230	0.073948264
60	0x3c5fd7ab	0.013662259
61	0xbdaeaf5e	-0.085295424
62	0xbcc23cac	-0.023710571
63	0x3d8bdf16	0.0682966
64	0x3d05c492	0.032658167
65	0xbce1e25c	-0.027573757
66	0xbd52dcb2	-0.051480003
67	0x3d6ca0af	0.057770427
68	0xbd890b07	-0.066915564
69	0xbd6208bd	-0.055184115
70	0xbd61e0ce	-0.05514603
71	0x3dbeb2ef	0.093114726
72	0xbdcc0dcf	-0.09963571
73	0xbc686a64	-0.014185522
74	0xbdeaf7bb	-0.11473032
75	0x3da1e755	0.07905451
76	0x3da406da	0.08009119
77	0xbd1c8c70	-0.03821987
78	0x3c12c64b	0.00895841
79	0x3d7ca3cf	0.061679658
80	0x3c615672	0.01375352
81	0xbca42221	-0.020035805
82	0xbdf60053	-0.120117806
83	0xbdda76e7	-0.1066721
84	0x3d6ee876	0.05832716
85	0xbd668be1	-0.056285743
86	0xbbb5b515	-0.0055452683
87	0x3d34f709	0.044180904
88	0xbd2c3c66	-0.042049788
89	0x3e04a9d9	0.12955417
90	0xbdb0a338	-0.086248815
91	0xbdb761ec	-0.08954224
92	0xbd0d12d5	-0.034441788
93	0xbdf10bd4	-0.11769834
94	0xbcd6840a	-0.026186008
95	0x3d84da5c	0.06486961
96	0x3dd44e0a	0.10366447
97	0xbd9fc6b1	-0.07801569
98	0xbdc6df0a	-0.0971051
99	0xbcc107a6	-0.023563217

encodernorms.0.weight f4 [100]
0	0x3f80df4a	1.0068142
1	0x3f810dd4	1.0082345
2	0x3f809d8b	1.0048078
3	0x3f814c47	1.0101403
4	0x3f81f0d2	1.0151618
5	0x3f8075d6	1.0035961
6	0x3f834057	1.025401
7	0x3f878b20	1.0589333
8	0x3f8564d3	1.0421394
9	0x3f871d1d	1.055576
10	0x3f83c827	1.0295457
11	0x3f81d975	1.0144488
12	0x3f894e7c	1.0727077
13	0x3f83e910	1.03055
14	0x3f82ef14	1.0229211
15	0x3f88cfa0	1.0688362
16	0x3f85ffea	1.0468724
17	0x3f8332b0	1.0249844
18	0x3f87e2b2	1.0616057
19	0x3f82572b	1.0182852
20	0x3f83c3ec	1.0294166
21	0x3f84d58c	1.0377669
22	0x3f8580a6	1.0429885
23	0x3f8293d1	1.020136
24	0x3f858203	1.0430301
25	0x3f82a72c	1.0207267
26	0x3f8395cd	1.028009
27	0x3f85a6ca	1.0441525
28	0x3f8568aa	1.0422566
29	0x3f84e9f3	1.0383896
30	0x3f816c2c	1.0111136
31	0x3f842a5d	1.0325428
32	0x3f83d50e	1.0299394
33	0x3f85e9f0	1.0462017
34	0x3f844c0a	1.0335705
35	0x3f88163f	1.0631789
36	0x3f84908b	1.0356611
37	0x3f82cc38	1.0218573
38	0x3f876449	1.057748
39	0x3f840392	1.031359
40	0x3f877f64	1.0585752
41	0x3f838ff4	1.0278306
42	0x3f7d9013	0.99047965
43	0x3f810a8a	1.0081341
44	0x3f856b8e	1.0423448
45	0x3f899bc9	1.0750667
46	0x3f88d976	1.0691364
47	0x3f83bb9b	1.0291628
48	0x3f84e867	1.0383424
49	0x3f802aac	1.0013022
50	0x3f84b61f	1.0368079
51	0x3f8376ac	1.0270591
52	0x3f851c54	1.039927
53	0x3f800543	1.0001606
54	0x3f85f1ce	1.0464418
55	0x3f85be6e	1.044874
56	0x3f843970	1.0330029
57	0x3f83a3f5	1.0284411
58	0x3f874dff	1.0570678
59	0x3f86ece0	1.0541039
60	0x3f88103f	1.0629958
61	0x3f8679e5	1.0505949
62	0x3f843a8d	1.0330368
63	0x3f841260	1.0318108
64	0x3f859a09	1.0437633
65	0x3f85cf49	1.0453883
66	0x3f837166	1.0268981
67	0x3f841050	1.0317478
68	0x3f8613fd	1.047485
69	0x3f89a28d	1.0752732
70	0x3f82c6c0	1.0216904
71	0x3f84300f	1.0327166
72	0x3f846ae4	1.034512
73	0x3f84c0fd	1.0371395
74	0x3f841261	1.0318109
75	0x3f84901f	1.0356482
76	0x3f827b5c	1.0193896
77	0x3f7f6673	0.997657
78	0x3f83f7c1	1.0309983
79	0x3f83619f	1.0264167
80	0x3f87e7bf	1.0617598
81	0x3f8642af	1.04891
82	0x3f7f0433	0.9961578
83	0x3f8814b0	1.0631313
84	0x3f865560	1.0494804
85	0x3f808d4b	1.0043119
86	0x3f88eddc	1.0697589
87	0x3f8305d6	1.0236156
88	0x3f86d6a6	1.0534256
89	0x3f85c058	1.0449324
90	0x3f85885a	1.0432236
91	0x3f82a1fd	1.0205685
92	0x3f84a4fd	1.036285
93	0x3f806e73	1.0033706
94	0x3f84a13f	1.0361708
95	0x3f88e619	1.069522
96	0x3f829882	1.0202792
97	0x3f85c46a	1.0450566
98	0x3f843a98	1.0330381
99	0x3f8403b0	1.0313625

encodernorms.0.bias f4 [100]
0	0x3c813cc2	0.015776042
1	0x3d3b6271	0.045748178
2	0xbd17d5f1	-0.037069265
3	0xbd2f079b	-0.042731863
4	0x3cc5c040	0.024139524
5	0xbd5f7650	-0.05455619
6	0xbd3b5266	-0.04573288
7	0x3dcac638	0.099010885
8	0x3dcd0a2b	0.10011705
9	0xbd317025	-0.04331984
10	0xbcc9eeee	-0.024650063
11	0xbc697a4c	-0.014250349
12	0x3c87df98	0.01658611
13	0x3c865f3a	0.01640283
14	0xbcff9282	-0.03119779
15	0x3d960549	0.07325227
16	0xbdbf8b31	-0.093527205
17	0xbd3d8784	-0.046271816
18	0x3dbd8b5f	0.092550986
19	0x3d3bd5e4	0.04585828
20	0xbd3736df	-0.044730064
21	0x3c2e648e	0.010644091
22	0x3d47a3ed	0.048740316
23	0xbd97660a	-0.07392509
24	0xba83e668	-0.0010063173
25	0xbd02bcc8	-0.031918317
26	0xba60172c	-0.0008548375
27	0x3d824ddc	0.06362507
28	0x3ad8a1e2	0.0016527737
29	0xbc2b65f8	-0.010461323
30	0xbd2cc3ad	-0.0421788
31	0xbd2320dc	-0.03982626
32	0x3d1e6b23	0.038676392
33	0x3d633eee	0.055479936
34	0xbd1d2d58	-0.03837332
35	0x3d9abd7f	0.07555675
36	0xbd67b392	-0.056567736
37	0xbda1cd7a	-0.0790052
38	0xbcd30720	-0.025760233
39	0x3d190b29	0.03736416
40	0x3c34c3d2	0.011033015
41	0x3d8ceec4	0.068814784
42	0xbde1b3dc	-0.110206336
43	0xbdd754f9	-0.10514254
44	0xbc549c4f	-0.01297672
45	0x3d17506f	0.03694194
46	0x3c0b9531	0.008519457
47	0x3b0ec10d	0.0021782548
48	0x3d16e3cc	0.036838338
49	0x3dc933fe	0.0982437
50	0xbd8a040b	-0.067390524
51	0x3d082408	0.033237487
52	0xbd92d864	-0.071701795
53	0x3daf3918	0.08555812
54	0x3d7671f2	0.06016726
55	0xbc970cfa	-0.018438805
56	0x3dba87a2	0.09107901
57	0xbd107cc7	-0.035275247
58	0xbbf17233	-0.00736835
59	0x3ca7519c	0.020424657
60	0xbdb12d93	-0.08651271
61	0x3d8cde52	0.06878342
62	0x3ac57fb4	0.0015067966
63	0x3d2aed59	0.04173026
64	0x3d8b84ba	0.06812425
65	0x3c139002	0.009006502
66	0x3ce8ef2b	0.028434357
67	0xbb8607ca	-0.004090284
68	0x3d14d2f5	0.036333997
69	0x3d7c8ffc	0.06166075
70	0x3d24afe7	0.040206816
71	0xbde71a3d	-0.112843014
72	0x3cb571d4	0.022149004
73	0xbba93cdd	-0.005164726
74	0xbd98a609	-0.07453544
75	0xbc450e0c	-0.012027275
76	0x3cbc5386	0.022989046
77	0x3c30ab03	0.01078296
78	0xbd343491	-0.043995444
79	0xbc88272b	-0.01662024
80	0x3d398fce	0.04530316
81	0xbd815c87	-0.06316476
82	0xbd801fae	-0.062560424
83	0x3d288c18	0.04114923
84	0x3cee30a6	0.029075932
85	0x3c873e87	0.016509308
86	0x3db44f1c	0.088041514
87	0x3d9bd989	0.07609851
88	0x3db0ca3c	0.08632323
89	0xbdd62e57	-0.104580574
90	0xbd78347a	-0.06059692
91	0xbd91a203	-0.071109794
92	0xbdc6b187	-0.097018294
93	0x3da4bace	0.08043443
94	0x3d48b4e6	0.049000643
95	0xbcb11383	-0.02161575
96	0x3cf7179f	0.03016263
97	0x3db38e90	0.08767426
98	0x3c99c33d	0.018769855
99	0x3c342981	0.010996223

encodernorms.0.running_mean f4 [100]
0	0x3db0eacd	0.08638535
1	0x3e999dca	0.30003196
2	0x3e8eb858	0.27875018
3	0x3ecaaebe	0.39586443
4	0x3d81989b	0.06327935
5	0x3de88f01	0.11355401
6	0x3db4772f	0.08811795
7	0x3e982df5	0.29722562
8	0x3ecd73af	0.40127322
9	0x3e63648a	0.22206321
10	0x3e2b3482	0.16719249
11	0x3e7d4731	0.24734189
12	0x3eca5554	0.39518225
13	0x3e32502a	0.17413393
14	0x3e165e03	0.146843
15	0x3ed4bff2	0.41552693
16	0x3ea3c683	0.3198739
17	0x3e3a4121	0.18188907
18	0x3ee1c67a	0.44096738
19	0x3e964945	0.29352775
20	0x3e9a9c27	0.3019726
21	0x3ed7c753	0.4214426
22	0x3eca68a8	0.3953297
23	0x3d5ddbfd	0.054164875
24	0x3e584760	0.21120977
25	0x3e4058b4	0.18783838
26	0xbb6eeb21	-0.0036456066
27	0x3e46f878	0.19430721
28	0x3e827b5b	0.25484738
29	0x3d75f616	0.06004914
30	0x3e62478d	0.22097607
31	0x3e9b7c7e	0.30368418
32	0x3db8b67b	0.090191804
33	0x3e5faeaa	0.21843973
34	0x3e4051c8	0.18781197
35	0x3ea49cf1	0.32150987
36	0x3da3049b	0.07959863
37	0xbbbfad6a	-0.00584953
38	0x3e3a600d	0.18200703
39	0x3eb6c066	0.35693663
40	0x3e5e32a6	0.21699008
41	0x3e504ed0	0.20342565
42	0x3de8b6e9	0.11363012
43	0x3e12af29	0.14324631
44	0x3eaae9aa	0.33381397
45	0x3e3faddc	0.18718666
46	0x3e73fe51	0.23827483
47	0x3e30feea	0.17284742
48	0x3ef44d3b	0.47715172
49	0x3d975a64	0.073902875
50	0x3eb15bb8	0.34640288
51	0x3dc13ea1	0.09435774
52	0x3e3bae6e	0.18328258
53	0x3c959c92	0.018263135
54	0x3e600fac	0.21880978
55	0xbb6babc0	-0.0035960525
56	0x3e5c75cc	0.21529311
57	0x3ecdb4b5	0.4017693
58	0x3e6dce6a	0.23223272
59	0x3e3d693c	0.18497175
60	0x3e695779	0.22787274
61	0x3e1749f7	0.14774309
62	0x3ec1d33c	0.37856472
63	0x3e5c06dc	0.21486992
64	0x3e9ef1b2	0.31043774
65	0x3eac6f13	0.33678493
66	0x3c0d5f35	0.008628656
67	0x3eb8e84e	0.36114734
68	0x3e35ff21	0.17773105
69	0x3e9f0d47	0.31064817
70	0x3c4e483a	0.012590462
71	0x3eaeaab2	0.34114605
72	0x3e7bac8a	0.24577537
73	0x3e9ac3bf	0.30227467
74	0x3ed7943a	0.42105275
75	0x3e9b9612	0.30387932
76	0x3e1b123c	0.15143675
77	0x3e1fee65	0.15618284
78	0x3d8d8820	0.069107294
79	0x3e2a615d	0.16638704
80	0x3c39c7b5	0.011339118
81	0x3e2c5192	0.16827992
82	0x3c169e33	0.009192991
83	0x3ee31d52	0.44358307
84	0x3e8ed01a	0.27893144
85	0x3e402d95	0.18767388
86	0x3ebd3a24	0.3695842
87	0x3d8d9336	0.06912844
88	0x3e7c2b00	0.24625778
89	0x3eb42a55	0.35188547
90	0x3ddda764	0.10822943
91	0x3bee7368	0.007276941
92	0x3de60052	0.1123053
93	0x3dca09bc	0.09865138
94	0x3c6ce3af	0.014458581
95	0x3e9edb22	0.3102656
96	0x3e2a4f38	0.16631782
97	0x3dd7d39a	0.10538407
98	0x3e36b860	0.17843771
99	0x3df8b4c0	0.1214385

encodernorms.0.running_var f4 [100]
0	0x3ceac70a	0.028659362
1	0x3ddb6cc5	0.107141055
2	0x3db127e4	0.08650187
3	0x3df211be	0.1181979
4	0x3cdb3a64	0.026761241
5	0x3d262a2a	0.040567555
6	0x3d319350	0.04335338
7	0x3db405b4	0.0879015
8	0x3e12c017	0.14331089
9	0x3dc5d602	0.096599594
10	0x3d63d997	0.05562743
11	0x3db40fb8	0.087920606
12	0x3df3ad8a	0.11898334
13	0x3d95bff0	0.07312
14	0x3d778b2e	0.060435466
15	0x3e087c3a	0.13328639
16	0x3dc14b29	0.09438164
17	0x3d8017d2	0.06254543
18	0x3e14295a	0.144689
19	0x3dfa397f	0.12217998
20	0x3de747de	0.112930045
21	0x3df546f6	0.11976425
22	0x3dfec77f	0.124403946
23	0x3cb6d25e	0.022317108
24	0x3d903d8b	0.070429884
25	0x3d9875dc	0.07444355
26	0x3a7b13eb	0.0009577858
27	0x3d6a8cdd	0.057263244
28	0x3dbc6a4d	0.09199963
29	0x3cfc861a	0.030825663
30	0x3da05626	0.078289315
31	0x3de03b38	0.10948795
32	0x3ceb07e4	0.028690286
33	0x3d8e9b7d	0.06963251
34	0x3d8613e1	0.0654676
35	0x3e10c559	0.14137782
36	0x3d0d5443	0.034504186
37	0x397888ae	0.0002370204
38	0x3daae625	0.08344678
39	0x3e14fde3	0.14549975
40	0x3d8b9e98	0.06817359
41	0x3d8e0e8d	0.06936369
42	0x3d3144fd	0.043278683
43	0x3d85a559	0.06525678
44	0x3dfabbd6	0.12242858
45	0x3d7f4cf4	0.062329248
46	0x3dc5c086	0.096558616
47	0x3da13f11	0.07873357
48	0x3e0af6bf	0.13570689
49	0x3cec2bb8	0.02882944
50	0x3ded1145	0.115755595
51	0x3d14fdc8	0.036374837
52	0x3d8ddd3c	0.06926963
53	0x3c2c03c8	0.010498948
54	0x3da8043e	0.08203934
55	0x3a5aafce	0.0008342237
56	0x3dadae74	0.0848054
57	0x3e0e9cd1	0.13927008
58	0x3dc0e9af	0.094195716
59	0x3d73d171	0.05952591
60	0x3d95d126	0.073152825
61	0x3d531835	0.051536757
62	0x3e093838	0.13400352
63	0x3da5520e	0.08072291
64	0x3dec05c2	0.11524536
65	0x3dfa7234	0.12228814
66	0x3b2068ff	0.0024476645
67	0x3e21546b	0.15754859
68	0x3d80a497	0.06281393
69	0x3dbc7153	0.092013024
70	0x3bd2845a	0.006424469
71	0x3e052c05	0.13005073
72	0x3dc05868	0.09391862
73	0x3de668af	0.112504356
74	0x3e1109d4	0.14163905
75	0x3ddb442b	0.107063614
76	0x3d6d8e12	0.057996817
77	0x3d85caf8	0.06532854
78	0x3ce7f2a5	0.028313944
79	0x3d60bc82	0.054867275
80	0x3c028e87	0.0079685515
81	0x3d4a0424	0.049320355
82	0x3ba7348e	0.0051027006
83	0x3e310419	0.1728672
84	0x3dea89bf	0.11452054
85	0x3d84540d	0.06461344
86	0x3deee696	0.116650745
87	0x3cdc5e76	0.026900511
88	0x3dcda509	0.100412436
89	0x3dcc6fd8	0.0998227
90	0x3d2f9686	0.04286816
91	0x3bbaaa89	0.005696599
92	0x3d201283	0.039080154
93	0x3d1b8338	0.037966937
94	0x3bc17b6e	0.0059046065
95	0x3de13e26	0.10998182
96	0x3d757a11	0.059930865
97	0x3d281636	0.041036807
98	0x3da32f83	0.079680465
99	0x3d2a1287	0.041521575

decoderlayers.0.weight f4 [100, 10]
0	0xbe29ac3b	-0.16569607
1	0xbe9d3f5a	-0.30712396
2	0x3ea0977f	0.31365582
3	0x3e9780cd	0.29590455
4	0xbe15d96e	-0.14633724
5	0x3e5f85eb	0.2182843
6	0xbe3dc510	-0.18532205
7	0x3e9bf910	0.30463457
8	0xbe94145d	-0.28921786
9	0xbd2a16c1	-0.041525606
10	0xbdc514f4	-0.09623137
11	0xbe687d11	-0.22703959
12	0x3d9deadc	0.077108115
13	0x3e4ae3a0	0.19813395
14	0xbdc0e3a0	-0.09418416
15	0x3cfc274c	0.030780457
16	0xbe4cbda8	-0.19994223
17	0x3e90c123	0.28272352
18	0xbe932382	-0.28738028
19	0x3dd2912b	0.10281595
20	0xbdb00d1d	-0.08596251
21	0xbe8eab1b	-0.27864918
22	0x3dbf1a2e	0.09331165
23	0x3e6507ae	0.22366211
24	0x3db20af5	0.08693496
25	0xbe4b9630	-0.1988151
26	0x3e3e3463	0.18574671
27	0x3e4dee73	0.20110492
28	0xbe946319	-0.28981856
29	0xbe9697df	-0.29412743
30	0xbc19730f	-0.009365811
31	0x3e8d7a1a	0.2763222
32	0x3e34769b	0.1762337
33	0x3dc4d441	0.09610797
34	0xbe3694b4	-0.17830163
35	0x3c1af6c3	0.009458247
36	0xbd4ca37d	-0.049960602
37	0x3d1f02d2	0.03882105
38	0xbe63bcfb	-0.22240059
39	0xbda9c485	-0.08289436
40	0xbe1e6652	-0.1546872
41	0x3e06fba2	0.13181928
42	0xbe33d6fd	-0.1756248
43	0x3c8c3277	0.017113907
44	0xbe4db9fd	-0.2009048
45	0x3da4c7e0	0.08045936
46	0xbda4c25e	-0.08044885
47	0x3e8ce6ac	0.2751974
48	0xbe974e17	-0.29551765
49	0xbe38e82d	-0.18057318
50	0x3d379fe2	0.04483021
51	0x3ddadc02	0.106864944
52	0xbe83e8b6	-0.25763482
53	0xbda4ae96	-0.08041112
54	0xbe8303fb	-0.25588974
55	0x3e95a8dd	0.29230395
56	0xbe9e8333	-0.30959472
57	0x3e8cb5a5	0.27482334
58	0x3e1cc77e	0.15310475
59	0xbe60e9ec	-0.21964234
60	0xbe8fe120	-0.28101444
61	0x3e5be445	0.21473797
62	0xbd8f8759	-0.070082374
63	0xbe0f2541	-0.13979055
64	0x3c127476	0.008938899
65	0xbea18f04	-0.31554425
66	0x3e96b410	0.29434252
67	0xbe90b7ff	-0.28265378
68	0xbe800699	-0.25005034
69	0x3e6056cd	0.21908112
70	0x3e29f761	0.16598274
71	0x3d959103	0.073030494
72	0xbe91d6db	-0.28484234
73	0xbe3f47c0	-0.18679714
74	0xbe8d6ff9	-0.2762449
75	0x3decfcbd	0.115716435
76	0xbe046b58	-0.12931573
77	0x3e35ab54	0.17741138
78	0xbd638bd5	-0.055553276
79	0x3dc96783	0.098341964
80	0x3e7e487e	0.24832341
81	0x3d1c6079	0.03817794
82	0x3ba1f971	0.004943066
83	0xbe71bf04	-0.23608023
84	0x3cc90d6f	0.024542538
85	0xbd1ae5ec	-0.037816927
86	0x3dd37e3a	0.1032681
87	0x3e7a2d56	0.24431357
88	0x3e974d4f	0.2955117
89	0xbe9047fe	-0.28179926
90	0x3e7ad70e	0.244961
91	0x3d289870	0.041161
92	0x3d80429b	0.06262704
93	0x3de19956	0.11015575
94	0xbe47a4e2	-0.19496492
95	0x3d9bb5f1	0.07603062
96	0xbd9cd63b	-0.07658049
97	0x3e6d854b	0.23195378
98	0xbcee3479	-0.029077755
99	0xbda41958	-0.080126464
100	0x3de16421	0.11005426
101	0xbc9a5602	-0.01883984
102	0xbd0d2095	-0.0344549
103	0x3d91b40f	0.071144216
104	0x3df2b227	0.11850386
105	0xbc663c7c	-0.014052507
106	0x3d8f2a69	0.06990511
107	0xbdc39378	-0.09549612
108	0x3e71ef8c	0.23626536
109	0x3e235671	0.15950944
110	0x3cdb1265	0.02674217
111	0xbdf49dd8	-0.11944169
112	0x3e799174	0.24371892
113	0x3d7a9bf5	0.06118389
114	0xbe86798b	-0.26264605
115	0xbe6446b3	-0.22292595
116	0xbc9234aa	-0.017847378
117	0xbe626530	-0.22108912
118	0x3e767ec5	0.24071796
119	0xbddcb621	-0.10776926
120	0x3dc7135a	0.09720488
121	0xbe7e157a	-0.2481288
122	0x3e688024	0.22705132
123	0x3d95e45d	0.073189475
124	0x3df7b196	0.12094419
125	0xbe53e007	-0.20690928
126	0xbca612d5	-0.020272652
127	0x3d9c26c7	0.07624584
128	0xbd3f61c0	-0.04672408
129	0x3e0702b2	0.13184622
130	0xbe46a304	-0.19398123
131	0xbd927169	-0.071505375
132	0x3ca6850f	0.02032712
133	0xbe609445	-0.2193156
134	0x3e9583e5	0.2920219
135	0xbe8fea9b	-0.28108677
136	0x3e043f0e	0.12914678
137	0x3e8d3f3a	0.275873
138	0x3e626819	0.22110023
139	0x3c63f42b	0.013913195
140	0x3d89a808	0.067215025
141	0x3e3d8cd6	0.18510756
142	0xbe8a97c5	-0.27068916
143	0xbe96594d	-0.29365006
144	0xbe935a04	-0.28779614
145	0x3e7f26ab	0.24917094
146	0x3d4a890b	0.0494471
147	0xbddad7cc	-0.10685691
148	0xbdfaa882	-0.122391716
149	0xbe81dd20	-0.25364017
150	0xbe84068c	-0.25786245
151	0xbe61e6be	-0.22060677
152	0x3e598af6	0.21244416
153	0xbe009076	-0.12555107
154	0x3cd55695	0.026042262
155	0x3dad6a15	0.08467499
156	0x3d37cfb0	0.0448758
157	0x3de0d910	0.109789014
158	0x3e605aa7	0.21909581
159	0x3e3ef6b9	0.18648805
160	0x3e3ef7a5	0.18649156
161	0xbe9ab15c	-0.3021344
162	0x3d801b82	0.06255247
163	0x3ea18a5b	0.3155087
164	0x3dd50e5c	0.104031295
165	0x3e5ab443	0.21357827
166	0x3db8622b	0.09003099
167	0xbdd2fd46	-0.10302214
168	0xbdc24be1	-0.09487129
169	0x3b5b97e0	0.0033507273
170	0xbe99980a	-0.2999881
171	0xbd974a08	-0.07387167
172	0xbdde5bf3	-0.10857382
173	0x3e0ada5b	0.13559859
174	0xbd9eaa73	-0.07747354
175	0xbe831d7f	-0.2560844
176	0x3ddfa54e	0.10920201
177	0xbe8e08ad	-0.27740994
178	0x3e85ec24	0.26156723
179	0xbe7a5ea7	-0.2445017
180	0xbd0a1ca8	-0.033718735
181	0xbe125537	-0.1429032
182	0x3e94adbe	0.29038805
183	0x3e7a3877	0.24435602
184	0xbe106fb0	-0.14105105
185	0xbe8cdaa5	-0.27510563
186	0xbe5cbb7d	-0.21555896
187	0xbe913a58	-0.28364825
188	0x3e355dd6	0.17711577
189	0xbe87d353	-0.26528415
190	0x3e0739b0	0.132056
191	0xbe36c089	-0.17846884
192	0xbd965c58	-0.07341832
193	0xbe8421d9	-0.25807074
194	0xbe9ebbcd	-0.31002656
195	0x3e56ee3e	0.2098932
196	0xbe498580	-0.19679832
197	0xbe9199cb	-0.28437647
198	0x3e4f0663	0.2021728
199	0xbe723aa2	-0.23655179
200	0x3e29fedb	0.16601126
201	0xbe3d331c	-0.18476528
202	0xbe5df7bf	-0.21676539
203	0xbce059ed	-0.02738663
204	0x3e96258f	0.2932553
205	0x3e8c9932	0.2746063
206	0xbe119d2c	-0.14220113
207	0x3e9f20c3	0.31079683
208	0x3e8c8b45	0.27450004
209	0x3e3cffd6	0.18456969
210	0xbd9fe765	-0.07807807
211	0xbe1d2c44	-0.15348917
212	0x3e75802f	0.2397468
213	0xbe54c291	-0.20777346
214	0x3e2e7167	0.17035447
215	0xbe6fcdfb	-0.23418419
216	0xbe4aa29e	-0.19788596
217	0x3d883bcd	0.06652031
218	0xbe1c7d3e	-0.15282151
219	0xbe2ff258	-0.1718229
220	0x3d9b51e2	0.07583977
221	0xbdb5d961	-0.08879352
222	0x3e48c6bd	0.19607063
223	0xbe8c085a	-0.27350122
224	0x3e73f45f	0.23823689
225	0x3ded015b	0.11572524
226	0xbe89301e	-0.26794523
227	0x3d03d266	0.032183073
228	0xbe6b6da4	-0.22991043
229	0xbd78c3e1	-0.06073368
230	0x3e7ed158	0.24884546
231	0xbe77a36e	-0.24183437
232	0xbe0072be	-0.1254377
233	0xbd78939b	-0.060687643
234	0x3c38bfd6	0.011276206
235	0x3ba76953	0.005108991
236	0xbdbeb1ed	-0.093112804
237	0x3dc7c958	0.097552
238	0xbe67e6a2	-0.22646573
239	0xbd387673	-0.045034837
240	0xbe8894d6	-0.26676053
241	0xbd4687f3	-0.048469495
242	0xbcaf6a96	-0.021413129
243	0x3e45242c	0.1925208
244	0x3de4b7e9	0.111678906
245	0x3dbf4826	0.09339933
246	0x3dce6e07	0.1007958
247	0xbe1988b4	-0.14993554
248	0xbdce074c	-0.100599855
249	0x3e9fe3f3	0.312286
250	0x3e41e43a	0.18934718
251	0xbea330f3	-0.31873283
252	0x3c1211bb	0.00891536
253	0xbe044a05	-0.12918861
254	0x3a0e5524	0.0005429557
255	0x3e8c6546	0.27421016

decoderlayers.0.bias f4 [100]
0	0xbde76ee6	-0.11300449
1	0xbd0c3245	-0.03422763
2	0x3e129a35	0.14316638
3	0x3e829cd8	0.25510287
4	0xbe52875a	-0.20559445
5	0x3db3afb3	0.08773746
6	0xbe8bb8c0	-0.2728939
7	0xbb6a9320	-0.003579326
8	0x3b044536	0.0020182854
9	0x3cf4288e	0.029804494
10	0x3e4ccea0	0.20000696
11	0x3ea25bb3	0.31710586
12	0x3e8526de	0.26006216
13	0x3e9bb681	0.30412677
14	0x3dc76498	0.097359836
15	0x3e00d696	0.12581858
16	0xbe97210b	-0.29517397
17	0xbd1aa5c4	-0.037755743
18	0x3d3d03cd	0.046146203
19	0xbe1f0f39	-0.1553315
20	0xbe1e0ccf	-0.15434574
21	0x3e0777cb	0.13229291
22	0x3e94c7b9	0.29058626
23	0x3e1ed993	0.15512685
24	0xbd8fe003	-0.07025149
25	0x3c176838	0.009241156
26	0x3e1ea2a7	0.15491734
27	0xbe0b4699	-0.1360115
28	0xbd92f764	-0.07176092
29	0xbe917c42	-0.28415114
30	0xbe8be4da	-0.27323037
31	0x3da1ca18	0.078998744
32	0xbe3328d3	-0.17496042
33	0x3de475c9	0.11155278
34	0x3dda3dbd	0.10656307
35	0x3c567fe4	0.013092015
36	0x3e3be2c8	0.18348229
37	0x3e17d752	0.14828232
38	0x3e4edae0	0.20200682
39	0x3a495515	0.000768022
40	0xbe7c68ad	-0.24649306
41	0x3e7f7515	0.24947007
42	0x3e117951	0.14206435
43	0xbbc777a6	-0.0060872613
44	0x3e15418b	0.14575784
45	0x3de816e0	0.11332488
46	0xbe2a123d	-0.1660852
47	0x3e93937d	0.28823462
48	0xbe66a245	-0.22522838
49	0x3e7eb00d	0.24871846
50	0x3e5d11d1	0.21588828
51	0x3e45b66c	0.1930787
52	0xbe1ed142	-0.15509513
53	0x3e5728ee	0.21011707
54	0x3d98f4c2	0.07468559
55	0x3d1be83e	0.03806328
56	0x3def6fea	0.11691268
57	0xbd074e7e	-0.03303384
58	0x3dc61dd2	0.096736565
59	0xbd848690	-0.06470978
60	0x3e4c00e0	0.19922209
61	0xbd14fffc	-0.03637694
62	0x3dfdb914	0.123888165
63	0x3a320811	0.0006791363
64	0x3ca398df	0.019970356
65	0x3bb4e9ec	0.0055210497
66	0x3e98bf55	0.29833475
67	0xbddfcea7	-0.10928088
68	0x3e024e14	0.12725097
69	0xbc67dd9a	-0.014151955
70	0x3e6ee42c	0.23329228
71	0x3e394a89	0.18094839
72	0xbc20b66f	-0.009809121
73	0x3d886d33	0.06661453
74	0x3e50d0d4	0.20392162
75	0xbe073812	-0.13204983
76	0x3e0dfc9c	0.13865894
77	0x3e9950e7	0.29944536
78	0xbe757ea0	-0.23974085
79	0xbe1cbfa8	-0.15307486
80	0xbdd25dc5	-0.10271791
81	0x3e13c84c	0.14431876
82	0xbdad810c	-0.08471879
83	0xbdf21226	-0.11819868
84	0x3e0036d5	0.12520917
85	0x3df37f62	0.11889531
86	0xbe70d73f	-0.2351961
87	0xbdfca5b1	-0.12336291
88	0xbcbc037e	-0.022950884
89	0xbe28d2cd	-0.16486664
90	0xbe8dc942	-0.2769261
91	0x3cc6be5d	0.024260694
92	0xbe0d2233	-0.13782577
93	0x3e75e80f	0.24014305
94	0x3e0d1386	0.13776979
95	0x3e373995	0.1789306
96	0xbdf44a3a	-0.1192822
97	0x3e1bb739	0.15206613
98	0x3e745870	0.23861861
99	0xbe974fae	-0.29552978

decodernorms.0.weight f4 [100]
0	0x3f73d1c1	0.95241934
1	0x3f7642a0	0.9619541
2	0x3f7e3b3e	0.99309146
3	0x3f7b5464	0.98175645
4	0x3f72202c	0.9458034
5	0x3f74badc	0.95597625
6	0x3f74f674	0.9568856
7	0x3f75592c	0.9583919
8	0x3f6cce4b	0.9250228
9	0x3f716308	0.94291735
10	0x3f7997e2	0.9749738
11	0x3f7d70ad	0.99000055
12	0x3f745a34	0.9545014
13	0x3f7cfc06	0.9882206
14	0x3f768603	0.96298236
15	0x3f6bf07d	0.9216383
16	0x3f75cbad	0.9601391
17	0x3f725e5a	0.9467522
18	0x3f74b5de	0.9559001
19	0x3f6cd712	0.9251567
20	0x3f722379	0.94585377
21	0x3f7721a5	0.9653571
22	0x3f70394b	0.9383742
23	0x3f71ba42	0.9442483
24	0x3f791d2c	0.9731014
25	0x3f79c678	0.97568464
26	0x3f7657e2	0.9622785
27	0x3f75e3ab	0.9605052
28	0x3f71f431	0.9451323
29	0x3f7166fa	0.94297755
30	0x3f743fc8	0.9540982
31	0x3f74e34a	0.95659316
32	0x3f739091	0.95142466
33	0x3f751490	0.957345
34	0x3f707dd0	0.93941975
35	0x3f783838	0.96960783
36	0x3f73e4fc	0.9527128
37	0x3f79ecf2	0.97627175
38	0x3f765475	0.9622262
39	0x3f76f117	0.96461624
40	0x3f70a804	0.9400637
41	0x3f703e29	0.9384485
42	0x3f729b08	0.9476781
43	0x3f77d45b	0.96808404
44	0x3f762001	0.96142584
45	0x3f756e1a	0.95871127
46	0x3f706bf2	0.9391471
47	0x3f6ff189	0.9372793
48	0x3f725d4b	0.94673604
49	0x3f77f4b5	0.9685777
50	0x3f780e9d	0.968973
51	0x3f727426	0.9470848
52	0x3f6dc29e	0.9287509
53	0x3f73f2f4	0.9529259
54	0x3f6f4f49	0.93480355
55	0x3f70bf03	0.9404146
56	0x3f6e07e6	0.929808
57	0x3f72591f	0.9466724
58	0x3f7be115	0.9839032
59	0x3f750f62	0.957266
60	0x3f790c0d	0.97284013
61	0x3f7881dd	0.97073156
62	0x3f7751bc	0.9660909
63	0x3f748dba	0.9552876
64	0x3f718f59	0.94359356
65	0x3f6d53a6	0.9270576
66	0x3f7b0beb	0.9806506
67	0x3f76fabe	0.9647635
68	0x3f79c0fd	0.975601
69	0x3f75bbdd	0.9598978
70	0x3f77d3ba	0.96807444
71	0x3f70b140	0.9402046
72	0x3f6e62a9	0.93119293
73	0x3f73a50a	0.95173705
74	0x3f771561	0.96516997
75	0x3f6ff865	0.93738395
76	0x3f764603	0.9620058
77	0x3f77e257	0.9682974
78	0x3f731183	0.94948596
79	0x3f7bf05a	0.9841362
80	0x3f70a49b	0.9400117
81	0x3f76217b	0.9614484
82	0x3f748332	0.9551269
83	0x3f790e41	0.97287375
84	0x3f77012c	0.96486163
85	0x3f6e4c11	0.9308482
86	0x3f708ef7	0.9396815
87	0x3f6f4496	0.9346403
88	0x3f7b1bfc	0.98089576
89	0x3f728c5f	0.9474544
90	0x3f717c4b	0.9433028
91	0x3f6ed059	0.93286663
92	0x3f73ac0f	0.95184416
93	0x3f7856dc	0.97007537
94	0x3f724967	0.94643253
95	0x3f74636b	0.954642
96	0x3f7c3803	0.9852297
97	0x3f714660	0.9424801
98	0x3f75fa95	0.9608548
99	0x3f6f6d0e	0.9352578

decodernorms.0.bias f4 [100]
0	0xbcb0616f	-0.021530835
1	0xbbd02e00	-0.00635314
2	0xbc83c882	-0.01608682
3	0xbcdb55da	-0.026774336
4	0x3ca2f2d6	0.019891184
5	0x3c86db52	0.016462002
6	0x3c45ed94	0.012080569
7	0x3c1cf070	0.009578809
8	0xbbfc0544	-0.0076910574
9	0x3c4659d8	0.012106381
10	0x3d116f20	0.035506368
11	0xbc956878	-0.018238291
12	0x3cbbec84	0.022939928
13	0x3ce770b8	0.02825199
14	0x3c5c3727	0.013440884
15	0x3b8d9035	0.0043201693
16	0xbb2a05f0	-0.002594348
17	0x3c08572b	0.008321564
18	0x3cd866a9	0.02641614
19	0xbc6ac620	-0.014329463
20	0xbcf33dd3	-0.029692566
21	0xbbd74940	-0.0065700114
22	0x3b9619cf	0.0045807133
23	0x3b627e56	0.0034560165
24	0xbaa6dce2	-0.0012730623
25	0x3c25077c	0.010072585
26	0x3b49f029	0.0030813313
27	0x3c802819	0.01564412
28	0x3c2511e6	0.010075068
29	0x3a9f51af	0.0012155081
30	0xbb63a6e0	-0.0034736916
31	0xbc564e71	-0.013080225
32	0xbccbf557	-0.02489726
33	0x3d2b1af5	0.041773755
34	0xbd03db64	-0.03219165
35	0x3c8aae7f	0.01692891
36	0x3c3380b6	0.01095598
37	0xbca645d7	-0.020296974
38	0x3c2d4923	0.010576519
39	0xbaa7118b	-0.0012746317
40	0x3c5155d3	0.01277681
41	0x3bf6281d	0.007512106
42	0x3c7de84a	0.015497277
43	0x3b904716	0.0044030054
44	0xbcc8eef5	-0.024528006
45	0x3c9bf0b0	0.019035667
46	0xbcdff22b	-0.027337154
47	0xbd32434e	-0.043521218
48	0x3c2c5030	0.010517165
49	0xbaf68a51	-0.0018809532
50	0x3c6b72f4	0.014370669
51	0xbbb0813f	-0.005386501
52	0x3cdfe611	0.027331384
53	0x3cf6ffcb	0.030151268
54	0x3c3f8aa0	0.011690766
55	0xbc8e4f12	-0.017371688
56	0x3c75996e	0.014990194
57	0xbcaca2bb	-0.02107369
58	0x3c8a8954	0.016911186
59	0xba0332c3	-0.00050048175
60	0x3b851c43	0.004062207
61	0x3cfd9711	0.030955823
62	0xbc9f3847	-0.019436015
63	0xbc58e420	-0.013237983
64	0xbc74ffb0	-0.014953539
65	0xbbc84e3c	-0.006112842
66	0x3beba73b	0.0071915663
67	0x3b84d1fc	0.0040533524
68	0x3c697ad6	0.014250478
69	0xbc58695c	-0.013208713
70	0x3ca6fda8	0.020384625
71	0x3bbca6e0	0.0057571977
72	0x3cba20e0	0.022720754
73	0x3cbd20cd	0.02308693
74	0xbc1eb6da	-0.00968715
75	0xbca7217a	-0.020401705
76	0x3c323917	0.010877869
77	0xbca201dd	-0.01977628
78	0xbbcc7c48	-0.0062404014
79	0x3c8d564f	0.01725307
80	0x3c8cecee	0.01720282
81	0x3b8e1b57	0.0043367553
82	0x3c473203	0.01215792
83	0xbc715148	-0.014728852
84	0xbc3862b3	-0.0112540005
85	0xbd00d7cf	-0.03145581
86	0xbc64d939	-0.013967806
87	0x3c2b7843	0.010465684
88	0x3b81f9c0	0.00396654
89	0xbc95744a	-0.018243928
90	0x3be617d7	0.007021885
91	0x3d2d4190	0.042298853
92	0x3c5a1fd2	0.013313251
93	0xbc8af863	-0.016964143
94	0x3c515cd4	0.01277848
95	0x3bb5c443	0.005547078
96	0xbc97e5cc	-0.018542193
97	0x3b615461	0.003438257
98	0x3cc6a4e7	0.024248553
99	0xbbcce77d	-0.0062531815

decodernorms.0.running_mean f4 [100]
0	0x3f094bf0	0.53631496
1	0x3ed15ab9	0.40889528
2	0x3f162ca2	0.58661854
3	0x3ee79713	0.45232448
4	0x3e92f98b	0.2870601
5	0x3ef559c2	0.47920042
6	0x3ed927a6	0.42413062
7	0x3ebc1caf	0.36740634
8	0x3eab483e	0.33453554
9	0x3e89bdbd	0.2690257
10	0x3e915ccd	0.28391114
11	0x3f1016ac	0.56284595
12	0x3eecfff6	0.46289033
13	0x3f12c4e7	0.573317
14	0x3eefb9aa	0.46821338
15	0x3ef04bb3	0.46932754
16	0x3e67f9bd	0.22653861
17	0x3ebecb76	0.37264603
18	0x3f046b1c	0.51725936
19	0x3ea697ab	0.32537588
20	0x3ea5ff2c	0.32421243
21	0x3ee98414	0.4560858
22	0x3edcb47d	0.43106452
23	0x3ea54560	0.3227949
24	0x3ea9df04	0.3317796
25	0x3ea44750	0.32085657
26	0x3f1bdb1c	0.6088121
27	0x3edbfa66	0.42964476
28	0x3e9701bf	0.2949352
29	0x3e0df9b3	0.13864784
30	0x3e8d7f42	0.27636153
31	0x3ec548d4	0.38532126
32	0x3ea75e0c	0.3268894
33	0x3ed6192d	0.41816083
34	0x3edeccae	0.43515533
35	0x3e854f46	0.26037043
36	0x3ed532b0	0.41640234
37	0x3ec84d39	0.39121416
38	0x3ef7de23	0.48411664
39	0x3ea5f805	0.32415786
40	0x3e451026	0.19244441
41	0x3f02e338	0.5112796
42	0x3eeae738	0.4587953
43	0x3ede2fe5	0.43395916
44	0x3eb5a8f8	0.35480475
45	0x3f05a04c	0.5219772
46	0x3e98d796	0.2985198
47	0x3ee226cc	0.44170225
48	0x3e302eb3	0.17205314
49	0x3f2ccc8d	0.6749962
50	0x3f10fb1b	0.56633157
51	0x3eb3e5d7	0.3513629
52	0x3e83c5b0	0.2573676
53	0x3edd4095	0.43213335
54	0x3eb368e0	0.3504095
55	0x3ea81370	0.3282733
56	0x3edc3276	0.4300725
57	0x3ead19bb	0.33808693
58	0x3e953384	0.29140866
59	0x3ec238b0	0.37933874
60	0x3ec005a9	0.37504318
61	0x3eba1445	0.3634359
62	0x3eba4925	0.3638393
63	0x3ea8cfa2	0.3297091
64	0x3f01d9c8	0.5072293
65	0x3ebb5da2	0.36594874
66	0x3efb8f4c	0.49132764
67	0x3eabbe64	0.33543694
68	0x3ece9960	0.4035139
69	0x3ed6732a	0.41884738
70	0x3f0223b2	0.50835717
71	0x3ef34663	0.47514638
72	0x3ee00247	0.43751737
73	0x3f03b4de	0.51447856
74	0x3eef0d7e	0.4668998
75	0x3ed08243	0.40724382
76	0x3e97d8a5	0.29657474
77	0x3ef3425e	0.47511572
78	0x3e7b81d9	0.24561252
79	0x3ea21738	0.3165834
80	0x3e3ff8ec	0.187473
81	0x3ee16810	0.44024706
82	0x3e9d275a	0.30694085
83	0x3ea19bc2	0.31564146
84	0x3ee27d6e	0.4423632
85	0x3ebf34a2	0.37344843
86	0x3e943270	0.2894473
87	0x3e94f9c4	0.29096806
88	0x3ee104a9	0.43948868
89	0x3e4910b5	0.1963528
90	0x3eb6897c	0.35651767
91	0x3ebc24ee	0.36746925
92	0x3e2ed72f	0.17074274
93	0x3ee40a11	0.4453893
94	0x3ea449c2	0.32087523
95	0x3ebc0926	0.3672573
96	0x3e674b80	0.22587395
97	0x3ef9e0d4	0.48804343
98	0x3ef3ad32	0.47593075
99	0x3e69c9a0	0.2283082

decodernorms.0.running_var f4 [100]
0	0x3f7312b8	0.9495044
1	0x3f0fbffb	0.56152314
2	0x3f511fd1	0.81689173
3	0x3e99c9b4	0.300367
4	0x3e9df487	0.30850622
5	0x3f1db5ae	0.61605346
6	0x3f1e6ab4	0.61881566
7	0x3ef0112c	0.468881
8	0x3ebb6bb7	0.36605617
9	0x3e523973	0.20529728
10	0x3e089cde	0.1334109
11	0x3ef0090b	0.468819
12	0x3ebf2bc5	0.3733808
13	0x3f175fad	0.59130365
14	0x3ef6590b	0.4811481
15	0x3efeb568	0.49747777
16	0x3e57b8b6	0.21066555
17	0x3eb27f51	0.3486276
18	0x3f199b78	0.6000285
19	0x3ec59d0d	0.38596383
20	0x3ed3b35e	0.41347784
21	0x3ee90ebd	0.45519057
22	0x3ec00172	0.37501103
23	0x3e566eee	0.20940754
24	0x3e88136a	0.26577312
25	0x3e99a845	0.30011192
26	0x3f3824c0	0.71931076
27	0x3f09a70f	0.53770536
28	0x3eb2727b	0.34852967
29	0x3dc04669	0.0938843
30	0x3e9ec59c	0.3101014
31	0x3ea65c05	0.3249208
32	0x3ec2a1bb	0.38014016
33	0x3edeaca7	0.43491098
34	0x3ef3ce8c	0.4761852
35	0x3e582fb7	0.21111952
36	0x3e8093a0	0.2511263
37	0x3ea7f82c	0.32806528
38	0x3ee6e21b	0.4509438
39	0x3e8d6fca	0.2762435
40	0x3e2efbb6	0.17088208
41	0x3eee2290	0.46510744
42	0x3eb472e0	0.35243893
43	0x3f219734	0.6312134
44	0x3e77b00d	0.24188252
45	0x3f13b1b1	0.5769301
46	0x3ea570be	0.32312578
47	0x3e7d4742	0.24734214
48	0x3e13950b	0.14412324
49	0x3f4ecc57	0.8078055
50	0x3f1493eb	0.58038205
51	0x3e751731	0.23934628
52	0x3e5d30d9	0.21600665
53	0x3eb71db8	0.3576486
54	0x3ea81704	0.3283006
55	0x3ea3b381	0.31972888
56	0x3ecfd506	0.4059221
57	0x3e930bec	0.28720033
58	0x3e58e84e	0.21182367
59	0x3ef9fee3	0.48827276
60	0x3e8e8353	0.27834567
61	0x3ebdbf3e	0.3705997
62	0x3e983fa5	0.29736057
63	0x3e82e725	0.25566974
64	0x3f09f563	0.53890055
65	0x3e8e2c52	0.2776819
66	0x3eccf424	0.40030015
67	0x3ea09668	0.3136475
68	0x3e9b891a	0.30378038
69	0x3f01a8aa	0.50647986
70	0x3ef4c6ce	0.47807926
71	0x3ee1d4b8	0.44107604
72	0x3f0795de	0.52963054
73	0x3f206ec4	0.62669015
74	0x3ebf00db	0.3730534
75	0x3f05eecf	0.5231752
76	0x3e319250	0.1734097
77	0x3efdadc9	0.4954665
78	0x3e856230	0.26051474
79	0x3eba3b57	0.36373398
80	0x3de7de60	0.113217115
81	0x3ebbd77d	0.36687842
82	0x3ea26127	0.31714746
83	0x3eb12f42	0.34606367
84	0x3ee9e3c0	0.45681572
85	0x3e949fac	0.2902807
86	0x3e95cf7b	0.29259858
87	0x3e713778	0.23556316
88	0x3f055d3d	0.52095395
89	0x3e178430	0.1479652
90	0x3ef2db80	0.4743309
91	0x3ebcb0bf	0.36853597
92	0x3dd97fb5	0.10620061
93	0x3ead9027	0.33899042
94	0x3e727855	0.23678716
95	0x3e8290d5	0.25501123
96	0x3e509f70	0.2037332
97	0x3f059dd4	0.5219395
98	0x3eae1e6a	0.3400758
99	0x3e53d274	0.2068575

mu.weight f4 [10, 100]
0	0x3d81e5bf	0.06342649
1	0x3dd78060	0.105225325
2	0xbd93ea6d	-0.072224475
3	0x3d903a79	0.07042403
4	0xbd139b66	-0.03603687
5	0xbd531fe3	-0.05154408
6	0xbd79d4a1	-0.060993794
7	0xbddf558e	-0.1090499
8	0xbd3751b5	-0.044755656
9	0xbda3a8df	-0.07991194
10	0x3d8bfed2	0.068357125
11	0x3d6c40b5	0.057678897
12	0xbcb73581	-0.02236438
13	0x3ddcdac1	0.107839115
14	0xbc438eab	-0.01193587
15	0xbdbef7a0	-0.093245745
16	0xbd821a9b	-0.06352731
17	0x3cd0f643	0.025508052
18	0x3d257f8c	0.04040484
19	0x3dd1133e	0.10208748
20	0xbd4781e0	-0.048707843
21	0xbdbc1a26	-0.09184675
22	0x3d5dc4e7	0.05414286
23	0x3d808809	0.06275947
24	0xbded77d0	-0.11595118
25	0xbd5b5434	-0.0535471
26	0xbdda5702	-0.10661127
27	0x3d4e8d3e	0.050427668
28	0xbdbfd7d2	-0.09367336
29	0x3d416445	0.047214765
30	0xbd18b4ee	-0.037281923
31	0xbde6e3a0	-0.11273885
32	0x3dc0670c	0.09394655
33	0xbdd6d6d6	-0.104901955
34	0x3c8e8640	0.017398
35	0xbceb3562	-0.028711978
36	0xbd2dddb4	-0.04244776
37	0x3d5e156d	0.054219652
38	0xbcb0b9c3	-0.021572953
39	0xbd19cab6	-0.037546836
40	0x3dfd42cd	0.12366257
41	0x3db03705	0.08604244
42	0x3c83f606	0.016108524
43	0xbd91af7f	-0.07113551
44	0x3db6e4ea	0.08930381
45	0xbd86ab04	-0.065755874
46	0x3d95202f	0.07281529
47	0xbd814f73	-0.06313982
48	0xbdb4b2ac	-0.088231415
49	0xbd8d9783	-0.06913664
50	0x3cbe5601	0.02323437
51	0xbd9ad604	-0.075603515
52	0x3d74edc8	0.05979708
53	0x3b6e67ae	0.0036377716
54	0xbdc0075e	-0.09376405
55	0xbd36d2ee	-0.044634752
56	0x3ce650d0	0.028114706
57	0x3d95b4d0	0.07309878
58	0xbd655b4d	-0.055995274
59	0xbdb722a3	-0.08942153
60	0x3d2b9cc7	0.04189756
61	0x3dbbc111	0.09167684
62	0xbdb0a586	-0.08625321
63	0x3ddd550f	0.10807239
64	0xbd41a84b	-0.047279637
65	0xbb9839a8	-0.004645545
66	0xbc1a808b	-0.009430061
67	0xbd7c8bdf	-0.06165683
68	0xbcd5038b	-0.026002666
69	0xbd6eceff	-0.058302876
70	0xbd323bcd	-0.04351406
71	0x3d7b77bc	0.061393484
72	0xbc37e230	-0.011223361
73	0x3d8d0eef	0.06887614
74	0xbe099f32	-0.13439634
75	0x3cc182f5	0.023622015
76	0x3d2bdd52	0.041959114
77	0x3d5e4e8f	0.054274138
78	0x3d8704bb	0.06592699
79	0xbc639e01	-0.013892652
80	0xbd34f3b1	-0.044177715
81	0x3da0dfb1	0.07855166
82	0x3ccbb3f9	0.024866091
83	0xbcf57e10	-0.029967338
84	0xbcbe9047	-0.023262156
85	0xbd1d6544	-0.038426653
86	0xbbcf4dac	-0.006326398
87	0x3d7421c0	0.0596025
88	0x3ae6d604	0.0017611389
89	0xbc19b635	-0.00938182
90	0x3dac1d80	0.08404064
91	0xbd7a6c7d	-0.06113862
92	0x3da90119	0.082521625
93	0xbc4c08b0	-0.012453243
94	0xbcfa009a	-0.030517865
95	0x3db71a58	0.089405715
96	0x3d2fc026	0.042907856
97	0xbdfc1d09	-0.123102255
98	0xbd81571c	-0.06315443
99	0xbd480fa9	-0.04884306
100	0xbd1f8fbb	-0.03895543
101	0xbc388937	-0.011263183
102	0xbdba78c8	-0.091050684
103	0xbd637e87	-0.055540588
104	0xbda9d257	-0.08292072
105	0x3d94a197	0.07257383
106	0xbd8fff7e	-0.07031153
107	0x3dd0ecfa	0.1020145
108	0x3d837d49	0.064203806
109	0x3d26c1d2	0.040712185
110	0xbbc9861b	-0.00615002
111	0xbd174f3c	-0.0369408
112	0x3de059e7	0.109546475
113	0x3dc7b81e	0.097519144
114	0xbdbd62ab	-0.09247335
115	0xbd59be23	-0.053159844
116	0x3c80059e	0.015627678
117	0xbdc92f79	-0.09823508
118	0x3d42fc6b	0.047604006
119	0x3d81192d	0.0630363
120	0x3b498174	0.0030747326
121	0xbd910a36	-0.07082026
122	0xbcfa5485	-0.03055788
123	0x3d309974	0.043115094
124	0xbc9f8569	-0.019472795
125	0x3da9395a	0.08262892
126	0xbc00a31f	-0.007851391
127	0xbc9b9230	-0.018990606
128	0x3d2f4c3b	0.04279731
129	0x3d67efe9	0.05662528
130	0xbc3a718d	-0.011379612
131	0xbca70977	-0.020390255
132	0xbd828e81	-0.06374837
133	0xbd4ca8a9	-0.049965534
134	0x3dccb9aa	0.0999635
135	0x3d692bca	0.056926526
136	0xbd9d11b7	-0.076693945
137	0x3d682c39	0.0566828
138	0xbdc5e32e	-0.09662472
139	0x3d8e7915	0.06956688
140	0x3dec055f	0.11524462
141	0xbd9e44f4	-0.077279955
142	0xbd8e8e21	-0.06960703
143	0xbcaf24de	-0.021379884
144	0xbdc275c6	-0.0949512
145	0x3e130372	0.14356783
146	0xbd5b279f	-0.053504582
147	0xbe0358f9	-0.12826909
148	0xbcc4dbcf	-0.024030594
149	0xbd80b5b4	-0.06284657
150	0xbd22fe68	-0.039793402
151	0x3d475218	0.048662275
152	0x3d3118e9	0.043236647
153	0xbcb2fc85	-0.021848926
154	0xbd61bdac	-0.055112526
155	0xbd16db01	-0.036829952
156	0xbbc50c00	-0.0060133934
157	0x3ccf595e	0.025311168
158	0x3e102f6a	0.14080587
159	0xbc5898c2	-0.013220014
160	0xbddba649	-0.10725076
161	0x3df15243	0.11783268
162	0xbdd3169d	-0.103070475
163	0x3db03476	0.08603756
164	0xbdf510bd	-0.11966083
165	0x3dd65e69	0.10467226
166	0xbd538be2	-0.051647075
167	0xbd971aeb	-0.07378181
168	0x3d76947e	0.060200207
169	0xb9224b02	-0.00015477467
170	0xbd0db32e	-0.034594707
171	0xbdb727ba	-0.08943124
172	0xbb10d4b4	-0.0022099437
173	0x3d3bfbf4	0.045894578
174	0x3d444eda	0.04792676
175	0x3d2251b5	0.039628703
176	0xbdc51837	-0.09623759
177	0xbb5e970b	-0.003396454
178	0x3d21eda2	0.039533265
179	0xbd2d4b9c	-0.042308435
180	0x3d74ea6c	0.059793875
181	0xbc2b6dd7	-0.0104632
182	0xbd863715	-0.06553475
183	0xbc2c6a34	-0.010523368
184	0x3dd6977e	0.104781136
185	0x3cdf9e1f	0.027297078
186	0xbdb9ab9a	-0.090659335
187	0x3d34a245	0.044100065
188	0x3b550245	0.0032502573
189	0xbdda203a	-0.10650678
190	0x3d461670	0.04836124
191	0xbb7578bf	-0.0037456003
192	0x3c332c63	0.010935876
193	0xbe03d089	-0.12872519
194	0x3d89ef38	0.067350805
195	0xbd84bcfc	-0.064813584
196	0x3cdc2379	0.026872383
197	0xbd9c6a48	-0.07637459
198	0x3db8e947	0.09028869
199	0xbd571913	-0.052514147
200	0x3dad7825	0.084701814
201	0x3ab36992	0.0013688079
202	0x3d6f94c5	0.058491487
203	0x3c17da43	0.009268346
204	0x3cf8e0c8	0.030380622
205	0xbcb12698	-0.021624848
206	0x3d4028f4	0.046914056
207	0xbe02d007	-0.12774669
208	0x3d942af5	0.07234756
209	0xbc2d03a4	-0.01055995
210	0x3d93b9f0	0.07213199
211	0xbd614da3	-0.05500568
212	0xbcedfd55	-0.029051462
213	0xbd7ce0ac	-0.0617377
214	0x3c96ab46	0.018392216
215	0x3de03270	0.1094712
216	0xbd23a0e9	-0.039948378
217	0xbd882dd4	-0.06649366
218	0xbdd587ba	-0.104262784
219	0x3d4dea37	0.050272193
220	0x3c6ce8a6	0.014459765
221	0x3deec67d	0.116589524
222	0xbd5d153a	-0.05397532
223	0x3bfbe78e	0.0076875156
224	0x3ddac6f3	0.10682478
225	0x3d8f6664	0.07001951
226	0x3c245f3b	0.01003247
227	0x3dc6ca5c	0.09706566
228	0x3e058000	0.1303711
229	0xbdb7cb5c	-0.089743346
230	0x3d81844c	0.06324062
231	0x3d4f9ddb	0.050687652
232	0x3d66c39f	0.056338903
233	0xbd30616a	-0.04306165
234	0x3e204252	0.15650299
235	0x3dfda76a	0.12385447
236	0x3d163147	0.03666809
237	0x37ec5baa	2.8176077e-05
238	0xbdc0d22e	-0.094150886
239	0xbdb54657	-0.08851307
240	0xbb02e073	-0.0019970208
241	0xbd310806	-0.043220542
242	0xbd44ffd8	-0.048095554
243	0xbc3c463b	-0.011491354
244	0xbd56a591	-0.05240399
245	0xbd63ea8b	-0.0556436
246	0xbd50a212	-0.050935812
247	0xbd6cdb97	-0.057826605
248	0xbde6fe04	-0.112789184
249	0x3d698b70	0.057017744
250	0x3b8c90fa	0.0042897435
251	0x3bcb02a6	0.006195384
252	0xbcbbdadf	-0.022931514
253	0x3db26b62	0.08711888
254	0x3e156195	0.14588006
255	0xbb0b0de3	-0.0021217994

mu.bias f4 [10]
0	0xbd742db7	-0.05961391
1	0xbc55b881	-0.013044477
2	0xbcb34e8a	-0.021888036
3	0xbd01fc2e	-0.031734638
4	0xbb4a0734	-0.0030827047
5	0xbd9ab547	-0.07554107
6	0xbc01ca9b	-0.00792184
7	0x3d894792	0.06703104
8	0xbd9aab70	-0.0755223
9	0xbd9b8f58	-0.075957
