tutorial/interim_data_test/models/model_8_4.pt (torch, 14357 bytes, 18 tensors)

encoderlayers.0.weight f4 [12, 70]
-0.114502825 0.19596541 0.06903183 -0.026426489 -0.13881056 0.01241369 0.11537359 -0.10180396
0.051185943 -0.06392613 -0.017212737 -0.025910407 0.019085836 0.061659228 0.014995614 0.1286895
-0.090801455 0.049892887 0.096157275 -0.07681077 0.048578683 0.08914425 -0.05494199 0.014862708
0.01347613 0.022758061 -0.023300711 -0.0043928986 -0.0038379459 -0.057057362 -0.06401806 -0.034621473
0.08844395 0.03976018 0.07455866 0.053974383 0.027436767 -0.04981678 -0.062033053 0.10125109
-0.079951055 0.089158975 -0.0025190422 -0.08038483 -0.042123158 -0.008987404 0.09369674 -0.07224338
-0.067015044 0.0076012397 -0.07088654 0.047972612 0.030082446 0.09025948 -0.037071984 0.009806503
-0.0010908386 0.08541918 0.023091838 -0.08287365 -0.066678286 0.008381897 0.038530894 0.030244743
0.029760813 -0.112825386 0.031983346 0.09095388 -0.116910435 -0.0015497217 -0.029057998 -0.081129245
-0.07257298 -0.012006444 -0.15920916 0.00053630787 0.020131834 -0.09648063 0.11117694 -0.12846182
-0.037008174 -0.049855944 0.020806154 0.07948117 0.053883642 0.048610765 0.09667648 0.038137563
-0.04212619 -0.045834176 -0.0436935 -0.09458034 0.006773651 0.05751497 -0.02675285 0.09946677
-0.09412873 -0.029133717 0.049269322 -0.03368037 -0.045640618 0.04280332 -0.08033485 0.003283666
-0.046207357 -0.08718138 0.06424256 0.02205645 0.043860056 0.08941839 -0.015350404 -0.10486825
0.1100466 -0.044664923 -0.077305436 0.026419438 -0.044212405 0.11418067 -0.043101482 -0.041541226
0.11124726 0.084065706 -0.06641754 0.056812953 -0.047471657 -0.022121118 0.10590603 -0.10611394
-0.08182966 -0.0349789 0.062682085 0.044573016 0.118295796 -0.11935733 -0.025304154 0.0699198
0.010166448 -0.03610739 -0.10893104 0.09113358 0.1407856 -0.085466355 0.06520392 -0.08272825
-0.16338778 0.114909 -0.05828206 0.018966204 0.14270866 -0.16406536 0.0050654453 0.07634714
0.06294245 0.038359918 -0.043370858 -0.031309713 -0.019359514 -0.0050984356 0.11121531 0.039518464
0.08569478 -0.059828684 -0.078727506 -0.053807445 -0.03811338 -0.06766283 0.10721002 0.10945795
-0.018711865 -0.0007300678 0.03418759 -0.01244044 0.09658954 0.017817749 0.0019251648 0.06854829
-0.03677434 0.044983223 0.08028506 0.051423572 0.05377697 -0.058509246 -0.06238914 0.08118527
0.013176239 0.021204501 0.061878975 0.088291004 -0.10142204 0.08241572 0.0044999328 -0.1016938
-0.04818193 -0.08454545 -0.10060378 -0.026061792 0.012880056 0.02788441 -0.026232235 0.058167078
-0.0037853946 0.0236089 -0.028032525 -0.15494369 -0.0323771 0.008416784 0.01029679 -0.054246586
0.081681825 0.0005159133 -0.1669639 0.14194892 0.21017478 -0.11574454 0.07335988 -0.1347161
0.012421733 0.044874195 -0.06044131 -0.09801268 -0.0045046923 0.03950728 0.08447472 0.015046739
0.08421546 -0.025432646 0.06185283 -0.061694294 -0.012422366 -0.00011324539 0.09349435 0.007137134
-0.040916584 -0.017631395 0.023089042 -0.08196055 0.07203913 0.08932658 0.072868675 0.09076007
-0.034067277 -0.017027162 -0.015691837 0.06708499 -0.016695812 0.029024033 0.0068461876 0.0749238
0.05299061 0.06506701 -0.01449711 0.10973809 -0.083094686 0.05945815 -0.05858119 -0.06135989
00000000: 7580 eabd 28ab 483e 8f60 8d3d 5d7c d8bc
00000010: 5b24 0ebe ca62 4b3c fd48 ec3d 987e d0bd
00000020: 5aa8 513d b4eb 82bd ba01 8dbc 1042 d4bc
00000030: e659 9c3c 638e 7c3d 2ab0 753c 2ec7 033e
00000040: 1df6 b9bd 7c5c 4c3d 1bee c43d f74e 9dbd
00000050: 71fa 463d 4391 b63d da0a 61bd b782 733c
00000060: fcca 5c3c 1d6f ba3c 22e1 bebc 4ef2 8fbb
00000070: 0c86 7bbb fbb4 69bd e71b 83bd 3fcf 0dbd
00000080: 1a22 b53d 92db 223d 36b2 983d 3e14 5d3d
00000090: 12c3 e03c ae0c 4cbd 5f16 7ebd bb5c cf3d
000000a0: 61bd a3bd fb98 b63d 8416 25bb cda0 a4bd
000000b0: 5589 2cbd e83f 13bc 14e4 bf3d 56f4 93bd
000000c0: 2f3f 89bd d213 f93b f62c 91bd ee7e 443d
000000d0: 766f f63c f6d9 b83d cbd8 17bd 74ab 203c
000000e0: 78fa 8eba 40f0 ae3d 182b bd3c a9b9 a9bd
000000f0: a08e 88bd 3954 093c 92d2 1d3d d3c3 f73c
00000100: f3cc f33c ff10 e7bd f800 033d 0746 ba3d
00000110: bd6e efbd 0820 cbba 0a0b eebc 1727 a6bd
00000120: 24a1 94bd adb6 44bc ba07 23be 0397 0c3a
00000130: 84eb a43c a397 c5bd bcb0 e33d 7f8b 03be
00000140: e295 17bd bf35 4cbd ab71 aa3c 06c7 a23d
00000150: 18b5 5c3d 151c 473d 51fe c53d 2236 1c3d
00000160: 838c 2cbd 9ebc 3bbd f5f7 32bd 56b3 c1bd
00000170: 81f5 dd3b d194 6b3d cb28 dbbc 3cb5 cb3d
00000180: 90c6 c0bd d5a9 eebc a1ce 493d 6df4 09bd
00000190: a8f1 3abd 8952 2f3d 9986 a4bd c632 573b
000001a0: ed43 3dbd 278c b2bd 9a91 833d baaf b43c
000001b0: 9aa6 333d fd20 b73d 4380 7bbc 2ac5 d6bd
000001c0: 1d60 e13d 91f2 36bd 5052 9ebd 946d d83c
000001d0: 1118 35bd 8ed7 e93d 2e8b 30bd 2227 2abd
000001e0: 9ad5 e33d a42a ac3d eb05 88bd b3b4 683d
000001f0: a471 42bd 5937 b5bc 43e5 d83d 4452 d9bd
00000200: 4f96 a7bd 0946 0fbd 775f 803d 3292 363d
00000210: 1145 f23d 9e71 f4bd a84a cfbc 1d32 8f3d
00000220: 2c91 263c 58e5 13bd 3d17 dfbd 3ea4 ba3d
00000230: 1a2a 103e fc08 afbd a289 853d 6e6d a9bd
00000240: 204f 27be 6955 eb3d 2bb9 6ebd 035f 9b3c
00000250: 3822 123e c000 28be 09fc a53b e45b 9c3d
00000260: f9e7 803d 4a1f 1d3d a4a5 31bd 9d3e 00bd
00000270: d897 9ebc c710 a7bb dac4 e33d 1dde 213d
00000280: bf80 af3d ec0e 75bd e33b a1bd 3265 5cbd
00000290: c71c 1cbd cf92 8abd ed90 db3d 7d2b e03d
000002a0: a049 99bc 0562 3fba 4908 0c3d fdd2 4bbc
000002b0: bdd0 c53d 87f6 913c d055 fc3a 0c63 8c3d
000002c0: b1a0 16bd 5440 383d 7e6c a43d 86a1 523d
000002d0: 3d45 5c3d 64a7 6fbd c18b 7fbd 7644 a63d
000002e0: 27e1 573c 10b5 ad3c cf74 7d3d ead1 b43d
000002f0: 5cb6 cfbd 93c9 a83d 2c74 933b d744 d0bd
00000300: 6a5a 45bd 2a26 adbd 5b09 cebd 8a7f d5bc
00000310: df06 533c d96d e43c fce4 d6bc 9a40 6e3d
00000320: 6214 78bb 7467 c13c 77a4 e5bc 8fa9 1ebe
00000330: da9d 04bd 8de6 093c deb3 283c ab31 5ebd
00000340: cd48 a73d 5b3e 073a 96f8 2abe 0f5b 113e
00000350: 0f38 573e 790b edbd b43d 963d 04f3 09be
00000360: 8684 4b3c 01ce 373d 4f91 77bd dfba c8bd
00000370: 199c 93bb 63d2 213d 1501 ad3d 9986 763c
00000380: 2879 ac3d 2058 d0bc 6559 7d3d 28b3 7cbd
00000390: 2e87 4bbc 287e edb8 f779 bf3d 9fde e93b
000003a0: 2698 27bd b76f 90bc 3b25 bd3c efda a7bd
000003b0: 4089 933d dbf0 b63d 2c3c 953d 6ae0 b93d
000003c0: 218a 0bbd 8c7c 8bbc 2b8c 80bc db63 893d
000003d0: a8c5 88bc cfc3 ed3c fc55 e03b a671 993d
000003e0: af0c 593d da41 853d 4985 6dbc 5dbe e03d
000003f0: 8c2d aabd 648a 733d d4f2 6fbd 8254 7bbd

encoderlayers.0.bias f4 [12]
0.08380579 -0.0796399 -0.008544227 -0.004607978 0.0479733 0.075080335 0.1075299 -0.05093114
0.0150487805 0.05769753 0.063314214 0.038924485
00000000: 5fa2 ab3d 3e1a a3bd 16fd 0bbc 85fe 96bb
00000010: a77f 443d b8c3 993d a338 dc3d 2c9d 50bd
00000020: 298f 763c 3f54 6c3d e2aa 813d 486f 1f3d

encodernorms.0.weight f4 [12]
1.1305798 1.0809245 1.099032 1.1928113 1.1226848 1.1306043 1.0933031 1.1893275
1.2012173 1.2005059 1.1199963 1.1426233
00000000: d7b6 903f bc5b 8a3f 15ad 8c3f 0aae 983f
00000010: 23b4 8f3f a4b7 903f 5bf1 8b3f e23b 983f
00000020: 7dc1 993f 2daa 993f 0a5c 8f3f 7b41 923f

encodernorms.0.bias f4 [12]
-0.021513455 0.13355619 0.23250642 -0.03884758 0.0066526374 -0.08081264 -0.015826989 -0.067867145
0.0090548415 -0.25589955 0.14486998 -0.04189179
00000000: fc3c b0bc f4c2 083e 2a16 6e3e a41e 1fbd
00000010: 5efe d93b 1981 a5bd 9aa7 81bc eefd 8abd
00000020: c25a 143c 4405 83be cc58 143e ba96 2bbd

encodernorms.0.running_mean f4 [12]
0.27557185 0.054137032 0.3515755 0.31820273 0.33806112 0.4208642 0.39649975 0.3528488
0.44901687 0.3981425 0.26016733 0.29178372
00000000: c117 8d3e cbbe 5d3d b401 b43e 78eb a23e
00000010: 5916 ad3e 837b d73e 0402 cb3e 99a8 b43e
00000020: 8ae5 e53e 55d9 cb3e a734 853e ad64 953e

encodernorms.0.running_var f4 [12]
0.12117559 0.025385 0.13369823 0.10975736 0.11123429 0.15148704 0.13313203 0.115983784
0.17190473 0.12521227 0.07641214 0.12456107
00000000: e82a f83d 34f4 cf3c 30e8 083e 77c8 e03d
00000010: cece e33d 6b1f 1b3e c353 083e e888 ed3d
00000020: cb07 303e a537 003e f87d 9c3d e019 ff3d

decoderlayers.0.weight f4 [12, 8]
-0.03785068 0.32835934 -0.09366389 -0.33717138 -0.10699635 -0.24152648 0.22270396 0.08528213
0.35900488 0.20639628 -0.24637252 -0.18313545 -0.10477925 0.13964532 -0.25821176 -0.12836033
-0.2500266 0.0678911 -0.16119261 0.048930924 0.23286115 -0.23047945 0.0032549673 0.19682713
-0.025664086 -0.0030347656 -0.0972207 -0.13806026 -0.26935858 -0.1959109 -0.37470523 0.04892413
0.16300514 0.29818752 -0.21686684 -0.37692145 -0.1491956 -0.033539236 0.19721836 -0.22104162
0.32232666 0.23947854 -0.10979053 -0.25718665 -0.15565534 0.062398233 -0.29236248 -0.24579747
-0.25736344 -0.12781572 -0.12706827 -0.049976993 0.088554084 0.25680855 -0.15897703 -0.0055091903
0.19081864 -0.039216835 -0.05652804 -0.08852583 -0.2991953 -0.048546854 -0.19765656 0.010682455
-0.31914997 -0.10502895 -0.14192614 0.1502783 0.092611164 -0.029553805 0.09421733 -0.0077241925
0.08753312 0.03761989 -0.27760264 -0.0776984 -0.2137367 0.13573577 -0.16971768 0.33168212
0.1912304 -0.33182147 -0.15487252 -0.1097294 -0.29642937 -0.12660024 0.10474857 0.3201577
-0.10014334 0.17145674 0.00351916 0.194294 -0.24916643 -0.030822476 0.079345174 0.3967785
00000000: 5109 1bbd b71e a83e dbd2 bfbd baa1 acbe
00000010: e720 dbbd b852 77be 820c 643e 66a8 ae3d
00000020: 7dcf b73e 8c59 533e 1449 7cbe dc87 3bbe
00000030: 8196 d6bd 2fff 0e3e 5534 84be e470 03be
00000040: 7d03 80be 7d0a 8b3d ad0f 25be cb6b 483d
00000050: 2773 6e3e ce02 6cbe 4a51 553b 0d8d 493e
00000060: 7d3d d2bc ebe2 46bb a51b c7bd ab5f 0dbe
00000070: 5ee9 89be de9c 48be 5dd9 bfbe ab64 483d
00000080: d2ea 263e 09ac 983e 5712 5ebe d9fb c0be
00000090: bbc6 18be 7060 09bd 9cf3 493e bc58 62be
000000a0: 0008 a53e dd39 753e dbd9 e0bd f8ad 83be
000000b0: 1d64 1fbe 4a95 7f3d 89b0 95be 55b2 7bbe
000000c0: 24c5 83be 20e2 02be 2f1e 02be adb4 4cbd
000000d0: d85b b53d 697c 833e e0ca 22be 7086 b4bb
000000e0: f665 433e d5a1 20bd f289 67bd 084d b5bd
000000f0: 2030 99be 11d9 46bd 7b66 4abe 7705 2f3c
00000100: a067 a3be 6b19 d7bd 1655 11be 8ee2 193e
00000110: ecaa bd3d d21a f2bc 04f5 c03d 391b fdbb
00000120: 9044 b33d 5017 1a3d ef21 8ebe 5720 9fbd
00000130: cbdd 5abe 51fe 0a3e 79ca 2dbe 3dd2 a93e
00000140: e7d1 433e 81e4 a9be e796 1ebe cfb9 e0bd
00000150: 97c5 97be 7ea3 01be 6b86 d63d b6eb a33e
00000160: f417 cdbd 5b92 2f3e b5a1 663b 02f5 463e
00000170: 7c25 7fbe 6b7f fcbc b97f a23d 8d26 cb3e

decoderlayers.0.bias f4 [12]
0.28064325 0.31840295 0.19920845 -0.13138913 0.0977401 -0.13524899 0.006168682 0.27669978
0.37464443 0.28492272 0.31668866 0.14567564
00000000: 79b0 8f3e b605 a33e 4dfd 4b3e df8a 06be
00000010: f62b c83d b67e 0abe a822 ca3b 98ab 8d3e
00000020: 65d1 bf3e 64e1 913e 0425 a23e ff2b 153e

decodernorms.0.weight f4 [12]
0.8167332 0.8423373 0.7868594 0.8261426 0.75838363 0.80441093 0.8113014 0.81973255
0.85385406 0.8004466 0.81291527 0.7781663
00000000: 6d15 513f 6ba3 573f 9e6f 493f 157e 533f
00000010: 6e25 423f e0ed 4d3f 73b1 4f3f fed9 513f
00000020: 2e96 5a3f 12ea 4c3f 371b 503f e835 473f

decodernorms.0.bias f4 [12]
0.035915222 0.07127319 -0.033908013 0.033773974 -0.119260885 0.114720464 0.05671243 0.027285663
-0.016459992 0.048118424 -0.08175581 0.05457317
00000000: d71b 133d aef7 913d 21e3 0abd 9456 0a3d
00000010: 0d3f f4bd 90f2 ea3d 4b4b 683d 2f86 df3c
00000020: 1bd7 86bc d317 453d 976f a7bd 1e88 5f3d

decodernorms.0.running_mean f4 [12]
0.6318552 0.6388867 0.5100531 0.3252834 0.39115047 0.40003192 0.36206794 0.48632044
0.55087703 0.67234284 0.5663011 0.38157278
00000000: 43c1 213f 148e 233f d792 023f 8c8b a63e
00000010: e044 c83e fcd0 cc3e f860 b93e fefe f83e
00000020: 4706 0d3f a91e 2c3f 1cf9 103f 825d c33e

decodernorms.0.running_var f4 [12]
0.7007962 0.7126632 0.37921843 0.26654407 0.38041267 0.48121965 0.28776637 0.32655242
0.46095622 0.5416436 0.53526044 0.29632175
00000000: 6167 333f 1871 363f eb28 c23e 7778 883e
00000010: 73c5 c23e 6c62 f63e 1d56 933e e131 a73e
00000020: 7402 ec3e 28a9 0a3f d406 093f 7cb7 973e

mu.weight f4 [8, 12]
0.062573746 -0.37534922 -0.32647118 0.26299 -0.15599214 -0.2585682 0.14350455 -0.41578028
0.042874523 0.20854525 -0.37692338 0.34742653 0.040694866 -0.17109185 -0.13586694 0.46417716
-0.17780927 -0.14571394 -0.16814014 0.09385147 0.19625367 -0.2829903 0.18002513 -0.0028718156
0.22553435 -0.032003056 0.26701468 0.2717122 -0.22602749 -0.15591468 0.026949914 -0.043963097
0.32326755 0.15808155 -0.15661873 -0.2361707 -0.08180562 0.0069451085 0.021927007 -0.1911566
0.19016391 -0.21424975 0.31704986 -0.096934795 -0.16801032 0.28696066 0.17434934 -0.2977463
-0.21912478 0.052847814 -0.04419566 0.18878289 0.32326302 0.24681757 0.23851548 0.024198802
0.14362904 0.074664675 0.18796092 0.18607922 -0.25821456 -0.26899213 -0.17966345 0.011073445
0.15134348 -0.15037198 0.36463898 -0.26650047 -0.4453763 -0.37673944 0.07236061 -0.053935405
0.29054043 -0.1797083 -0.15668789 -0.21548681 -0.046478227 0.22242908 0.053865723 0.34516972
0.31175625 0.3473813 0.24529192 0.2750408 -0.016074844 -0.0778797 -0.1808327 -0.3435968
-0.005004118 -0.32358947 0.035156343 -0.23357864 0.34356183 -0.07519591 -0.12717552 0.24254763
00000000: aa26 803d c62d c0be 3b27 a7be a0a6 863e
00000010: 67bc 1fbe 0d63 84be dbf2 123e 27e1 d4be
00000020: 329d 2f3d e38c 553e 1afc c0be e4e1 b13e
00000030: a9af 263d b432 2fbe b420 0bbe a1a8 ed3e
00000040: a213 36be 0936 15be ee2c 2cbe 3335 c03d
00000050: b9f6 483e 1be4 90be 8258 383e 1235 3cbb
00000060: 7af2 663e a315 03bd 26b6 883e dd1d 8b3e
00000070: c073 67be 19a8 1fbe 11c6 dc3c a612 34bd
00000080: 5383 a53e 21e0 213e a960 20be bbd6 71be
00000090: b489 a7bd cb93 e33b 44a0 b33c 8ebe 43be
000000a0: 54ba 423e 4964 5bbe 5c54 a23e c085 c6bd
000000b0: e60a 2cbe 82ec 923e a288 323e 3472 98be
000000c0: 3f62 60be f376 583d 8206 35bd 4d50 413e
000000d0: bb82 a53e bfbd 7c3e 673d 743e 913c c63c
000000e0: 7e13 133e cbe9 983d d478 403e 8d8b 3e3e
000000f0: b334 84be 56b9 89be b2f9 37be 656d 353c
00000100: c9f9 1a3e 1dfb 19be f6b1 ba3e c072 88be
00000110: 5d08 e4be fee3 c0be cd31 943d 5feb 5cbd
00000120: b7c1 943e 7405 38be ca72 20be 93a8 5cbe
00000130: f45f 3ebd 73c4 633e 4ea2 5c3d 16ba b03e
00000140: 849e 9f3e f6db b13e ce2d 7b3e 26d2 8c3e
00000150: 64af 83bc 647f 9fbd 352c 39be ebeb afbe
00000160: 96f9 a3bb 85ad a5be 1900 103d 3d2f 6fbe
00000170: 56e7 af3e 5000 9abd 4d3a 02be 685e 783e

mu.bias f4 [8]
0.14118439 -0.031751968 -0.15559947 -0.25313455 0.09387709 -0.17271987 -0.2272418 0.28128457
00000000: a492 103e 5a0e 02bd 7855 1fbe da9a 81be
00000010: a242 c03d 7add 30be 13b2 68be 8804 903e

var.weight f4 [8, 12]
0.06697162 -0.1362837 -0.15555845 -0.2500752 0.051266544 0.18740205 -0.25994462 -0.17930567
-0.16163298 0.19701989 -0.13890317 0.25384212 0.14490801 0.152518 -0.05591537 -0.18940352
-0.053316157 0.14250231 -0.027580455 0.04321391 -0.22349903 0.1083009 -0.18053833 0.18904328
0.10986555 0.045770604 0.029107865 0.15147503 0.040225532 -0.21046452 0.13920207 0.20114605
0.1909759 -0.00055512437 0.008921448 -0.10376932 -0.19543764 -0.2105695 -0.20524503 -0.023296544
-0.06556098 0.121303394 0.028102716 0.032447513 -0.00018303239 0.055857815 0.1362258 -0.018946437
-0.22396968 0.1369959 -0.18589514 0.11678925 -0.07883169 -0.15141028 -0.007536318 -0.06849274
0.0039179334 0.051096387 -0.19413212 0.22913836 0.16449013 -0.16515635 -0.20115468 0.17657156
0.1743994 -0.037038274 0.14334208 0.03130851 -0.11864615 0.25942764 -0.10012266 -0.03427542
-0.16645461 -0.14254133 -0.14637816 0.1626962 -0.19664249 0.1902791 -0.24221179 0.26273003
0.21197818 0.04238534 -0.21404056 -0.2316446 -0.04865521 -0.23254807 -0.2388633 0.016467169
0.016282203 -0.14286469 0.07411679 -0.009155843 -0.036928274 0.12726834 0.20023382 0.14736573
00000000: 6b28 893d f48d 0bbe b74a 1fbe db09 80be
00000010: defc 513d 53e6 3f3e 7617 85be e89b 37be
00000020: 1e83 25be 95bf 493e a23c 0ebe 98f7 813e
00000030: c462 143e ae2d 1c3e 8407 65bd fff2 41be
00000040: 0b62 5abd 20ec 113e 68f0 e1bc 1201 313d
00000050: eedc 64be ddcc dd3d 0adf 38be 9094 413e
00000060: 3101 e13d f579 3b3d 9e73 ee3c 451c 1b3e
00000070: 87c3 243d 0384 57be fd8a 0e3e 3bf9 4d3e
00000080: 308f 433e c485 11ba 442b 123c 0285 d4bd
00000090: ce20 48be 889f 57be c12b 52be 65d8 bebc
000000a0: d644 86bd ea6d f83d ab37 e63c afe7 043d
000000b0: 62ec 3fb9 2acb 643d c77e 0b3e 8f35 9bbc
000000c0: 4f58 65be a748 0c3e 4c5b 3ebe 342f ef3d
000000d0: 8272 a1bd 4c0b 1bbe 38f3 f6bb ec45 8cbd
000000e0: 0262 803b 724a 513d 92ca 46be 3fa3 6a3e
000000f0: 1a70 283e bf1e 29be 7efb 4dbe 2dcf 343e
00000100: c295 323e 72b5 17bd 44c8 123e 5a3d 003d
00000110: c1fc f2bd b3d3 843e 1c0d cdbd 6264 0cbd
00000120: 1473 2abe 5bf6 11be 28e4 15be d599 263e
00000130: a65c 49be 86d8 423e 5e06 78be 8d84 863e
00000140: cf10 593e 409c 2d3d 732d 5bbe 3e34 6dbe
00000150: af4a 47bd 1521 6ebe 9598 74be 28e6 863c
00000160: 4162 853c 1f4b 12be 8bca 973d 6402 16bc
00000170: 1a42 17bd a252 023e 180a 4d3e 0be7 163e

var.bias f4 [8]
0.12654303 -0.16580807 -0.24617606 -0.23310554 -0.28651074 -0.11522522 -0.02707834 0.18852966
00000000: 7f94 013e 97c9 29be 9415 7cbe 38b3 6ebe
00000010: 89b1 92be 33fb ebbd 65d3 ddbc eb0d 413e

out.weight f4 [70, 12]
-0.17573714 0.09728798 0.137026 -0.02653544 -0.22924452 -0.14766276 -0.036569588 0.00907355
0.20591395 -0.07303519 -0.133424 -0.20824021 0.2054608 0.12978515 -0.012843379 -0.049218018
-0.20216946 0.07718775 -0.30180448 0.05438669 -0.1377451 -0.18945418 -0.24016003 0.037548795
0.048407316 -0.050868273 -0.03943355 0.24695683 0.115462676 -0.0781431 0.032671142 0.20080733
-0.23384677 -0.14053518 -0.13317525 0.2372705 -0.15538053 -0.063917436 0.19369504 -0.22490062
0.14067796 -0.08192284 -0.18461753 0.11395371 0.22866943 0.18584582 0.22707514 0.09198502
0.027729055 0.29471987 0.041964862 0.21124409 -0.03605932 0.25913584 0.11497534 -0.0955206
-0.015262546 0.21876346 -0.03558525 0.15679929 0.08772405 -0.108241536 0.1887295 0.24666812
0.008843345 -0.12308415 -0.15533176 0.13880873 0.29290757 -0.16057684 0.06711389 0.07174194
0.13847877 -0.22084588 0.035368722 0.099473216 -0.12333933 -0.012852218 -0.16059355 -0.07125116
0.20192805 0.085366935 0.18501197 -0.21080962 0.08960429 -0.11475238 -0.09865475 0.26283926
-0.052371405 -0.044033766 0.23517738 0.16190128 0.040071048 0.2851986 -0.0648881 -0.17839186
0.27532762 -0.13004251 -0.024564132 0.21184094 -0.02112194 -0.07629749 -0.21645595 0.09745454
-0.16654482 -0.087404445 0.19173431 -0.13421091 -0.0006806607 0.17761078 -0.24390629 -0.09797741
-0.21885498 0.10582468 -0.08493339 0.13609403 -0.14749451 0.31229937 0.2596681 -0.039000127
-0.09468558 0.23424909 -0.11623526 -0.25324667 0.2478117 -0.12108146 -0.06329152 -0.0417095
-0.0015577778 -0.09827836 -0.1637571 -0.18497728 0.0001973242 0.03166825 -0.19425814 -0.18593691
0.20016776 0.19476089 0.044933878 -0.25883156 -0.043042794 0.061532997 -0.007543513 -0.27121314
0.09374901 0.19009067 0.069831155 -0.113395795 -0.05863058 0.11975712 -0.22315034 0.06567958
-0.1166144 -0.108610384 -0.16364744 0.0071672197 -0.14412929 0.22998722 0.1323663 -0.10317911
0.04003073 0.039453678 -0.19794363 -0.008899898 0.055270307 -0.07302228 0.043354988 -0.12572742
-0.13856757 0.16027464 0.16798195 -0.040082466 0.028481426 0.07359048 -0.24365124 -0.22290677
-0.10953486 0.22675309 -0.08676988 -0.1251284 -0.061902422 0.0138806505 0.022379236 -0.18858908
0.052162576 0.16731668 -0.06461688 0.11656332 0.14616108 0.15270285 -0.0045275395 0.14389089
-0.0844708 0.27798313 -0.13329081 -0.12918994 -0.1503437 -0.122571416 0.20020303 0.08803608
-0.17776875 0.14003569 -0.13192831 -0.09237895 -0.08329456 -0.053876273 0.019551111 0.012339833
0.036984902 0.0035729841 0.27336708 0.19452445 -0.2554296 0.01430493 -0.08174812 0.12859319
-0.05253673 -0.15816776 0.22766788 0.12042742 0.039454095 0.12560795 -0.105878405 -0.15732633
-0.18354669 -0.077220276 0.09973781 0.18964326 -0.12834217 0.077957876 0.2269694 0.038340088
0.030440113 -0.08431021 0.021863768 -0.19252196 -0.18083912 0.13247928 0.13537 0.09322977
0.068851806 0.013193234 0.11549499 -0.08529593 0.067974314 0.22497429 0.012845375 -0.14034371
-0.21914402 -0.1793399 0.09512205 -0.12845227 -0.056905735 -0.19479518 -0.037496246 -0.1402814
00000000: 70f4 33be ec3e c73d 8b50 0c3e da60 d9bc
00000010: 13bf 6abe e834 17be fec9 15bd 3aa9 143c
00000020: 1bdb 523e 7993 95bd 4da0 08be ec3c 55be
00000030: 5164 523e 66e6 043e 096d 52bc d598 49bd
00000040: 8305 4fbe 9c14 9e3d 1e86 9abe 94c4 5e3d
00000050: 0d0d 0dbe 4700 42be 83ec 75be c4cc 193d
00000060: c046 463d 405b 50bd 1385 21bd 40e2 7c3e
00000070: b277 ec3d 7d09 a0bd 2dd2 053d 70a0 4d3e
00000080: 8775 6fbe 74e8 0fbe 185f 08be 0af7 723e
00000090: 131c 1fbe 25e7 82bd fe57 463e 594c 66be
000000a0: e20d 103e 29c7 a7bd 610c 3dbe 9060 e93d
000000b0: 5228 6a3e 5e4e 3e3e 6386 683e a462 bc3d
000000c0: 0b28 e33c 86e5 963e 59e3 2b3d 5f50 583e
000000d0: f0b2 13bd 74ad 843e 3178 eb3d 4ea0 c3bd
000000e0: c20f 7abc 8703 603e d7c1 11bd fe8f 203e
000000f0: aba8 b33d bdad ddbd 4e42 413e 9196 7c3e
00000100: ade3 103c 8b13 fcbd 4a0f 1fbe e023 0e3e
00000110: fbf7 953e 416e 24be 0273 893d 70ed 923d
00000120: 61cd 0d3e 6c25 62be cbde 103d 9db8 cb3d
00000130: 5599 fcbd 1c92 52bc a372 24be 21ec 91bd
00000140: 3ac6 4e3e dcd4 ae3d c773 3d3e 7ade 57be
00000150: 7482 b73d 4c03 ebbd 800b cabd de92 863e
00000160: 6683 56bd c05c 34bd 57d2 703e 73c9 253e
00000170: 8a21 243d 8d05 923e 0de4 84bd 5bac 36be
00000180: bef7 8c3e dd29 05be b83a c9bc d5ec 583e
00000190: eb07 adbc dc41 9cbd a1a6 5dbe 3f96 c73d
000001a0: ba8a 2abe 1a01 b3bd 0056 443e 966e 09be
000001b0: 5e6e 32ba 9adf 353e 92c2 79be 61a8 c8bd
000001c0: 851b 60be 9cba d83d 8ff1 adbd 3c5c 0b3e
000001d0: cd08 17be b4e5 9f3e 38f3 843e 99be 1fbd
000001e0: 83ea c1bd fede 6f3e c10c eebd 8ca9 81be
000001f0: 5ac2 7d3e 8ef9 f7bd fc9e 81bd 95d7 2abd
00000200: 592e ccba 2a46 c9bd f1af 27be af6a 3dbe
00000210: d0e8 4e39 91b6 013d 9beb 46be 3f66 3ebe
00000220: c7f8 4c3e 666f 473e 960c 383d 9285 84be
00000230: a44d 30bd 060a 7c3d 932f f7bb 73dc 8abe
00000240: 7bff bf3d 21a7 423e a303 8f3d 0e3c e8bd
00000250: 9e26 70bd 3943 f53d 8681 64be 0483 863d
00000260: 88d3 eebd 1f6f debd 3293 27be ffda ea3b
00000270: a196 13be c581 6b3e 088b 073e 924f d3bd
00000280: 43f7 233d 2e9a 213d bcb1 4abe e1d0 11bc
00000290: 1e63 623d b58c 95bd 0095 313d b0be 00be
000002a0: a8e4 0dbe 091f 243e 7603 2c3e 832d 24bd
000002b0: e151 e93c 9bb6 963d b67f 79be ac41 64be
000002c0: d053 e0bd f631 683e 68b4 b1bd a921 00be
000002d0: 658d 7dbd ab6b 633c a954 b73c 7f1d 41be
000002e0: 6da8 553d 1055 2b3e db55 84bd c0b8 ee3d
000002f0: 40ab 153e 235e 1c3e c15b 94bb 2258 133e
00000300: 07ff acbd ce53 8e3e 637d 08be 5e4a 04be
00000310: b3f3 19be b906 fbbd 0602 4d3e 434c b43d
00000320: 0309 36be 8465 0f3e 3718 07be 2d31 bdbd
00000330: 5796 aabd 5ead 5cbd a729 a03c 032d 4a3c
00000340: 7b7d 173d ba28 6a3b c5f6 8b3e 6b31 473e
00000350: abc7 82be 3a5f 6a3c 8f6b a7bd efad 033e
00000360: c130 57bd bbf6 21be c521 693e a7a2 f63d
00000370: 9e9a 213d 5f9f 003e c7d6 d8bd 271a 21be
00000380: aaf3 3bbe aa25 9ebd 5643 cc3d d831 423e
00000390: 216c 03be 61a8 9f3d ab6a 683e 7f0a 1d3d
000003a0: 8b5d f93c d5aa acbd a51b b33c 7a24 45be
000003b0: e42d 39be a6a8 073e 6f9e 0a3e 40ef be3d
000003c0: 2d02 8d3d 6f28 583c a388 ec3d a2af aebd
000003d0: 1e36 8b3d a95f 663e 6875 523c 43b6 0fbe
000003e0: 4a67 60be e1a4 37be 59cf c23d fe88 03be
000003f0: fd15 69bd 6378 47be aa95 19bd eda5 0fbe

out.bias f4 [70]
-0.1257586 -0.0401595 -0.16580755 -0.048182275 -0.007537995 0.05613375 0.10027425 -0.048082363
0.092771135 0.032586742 -0.12678693 -0.2077087 -0.021731615 0.03199257 0.061869644 0.05795267
-0.020888316 -0.061967276 -0.15615974 -0.06848454 -0.20776641 -0.23265757 -0.00993324 0.14977275
-0.08335072 -0.13192086 0.05994517 0.044810258 0.16077514 0.16089773 -0.11368242 -0.12579505
-0.048428357 0.08376219 -0.092438385 0.12393289 0.17490667 0.12672672 -0.012939496 0.073993556
0.116199754 0.031580202 -0.067642786 -0.08645455 -0.13815144 -0.10678881 -0.18851565 -0.1062063
-0.039044335 -0.07480944 0.029435832 0.06275078 0.02060138 0.0964308 -0.018243702 -0.068729304
0.046404343 -0.016151108 -0.08851042 0.018056616 0.0049651237 0.04678718 -0.08086724 0.053006142
0.0046989117 -0.09727288 -0.00058329845 0.07486728 0.0073826713 -0.1955677
00000000: ddc6 00be 4a7e 24bd 74c9 29be c75a 45bd
00000010: 4901 f7bb 81ec 653d 965c cd3d 03f2 44bd
00000020: cbfe bd3d ad79 053d 6fd4 01be 97b1 54be
00000030: 8006 b2bc a40a 033d 066b 7d3d c75f 6d3d
00000040: f91d abbc 66d1 7dbd 57e8 1fbe 9f41 8cbd
00000050: b8c0 54be c93d 6ebe 07bf 22bc 075e 193e
00000060: c8b3 aabd 4316 07be 1189 753d f68a 373d
00000070: 3da2 243e 60c2 243e 54d2 e8bd 6bd0 00be
00000080: d05c 46bd 838b ab3d 5650 bdbd 87d0 fd3d
00000090: bc1a 333e a6c4 013e 2e00 54bc ef89 973d
000000a0: 23fa ed3d 3e5a 013d 4d88 8abd 150f b1bd
000000b0: 9277 0dbe 17b4 dabd 3f0a 41be b082 d9bd
000000c0: f4ec 1fbd b135 99bd 6a23 f13c 7b83 803d
000000d0: 3ac4 a83c 837d c53d d173 95bc f3c1 8cbd
000000e0: 7b12 3e3d 544f 84bc f344 b5bd 78eb 933c
000000f0: 7ab2 a23b eaa3 3f3d b99d a5bd f81c 593d
00000100: 54f9 993b 0137 c7bd 7fe8 18ba 0454 993d
00000110: 56ea f13b e642 48be
