tutorial/interim_data_test/models/model_10_20.pt (torch, 78273 bytes, 18 tensors)

encoderlayers.0.weight f4 [100, 70]
000000 fe 7b f9 bd c8 70 18 3d 83 2b 41 bd ce 04 00 bd
       -0.12181853 0.03721693 -0.047160637 -0.031254582
000010 74 1d a4 bc 49 20 04 3e 7a 32 71 bc 8f 5a 16 3e
       -0.020033576 0.12902941 -0.014721507 0.14682983
000020 af da 26 3e a5 60 24 bd 94 ae 79 3c a0 a8 f3 3c
       0.16294359 -0.04013123 0.015239377 0.029743493
000030 88 03 a0 3d 2d ed 7d 3d bb 24 7e 3d a8 19 a2 3d
       0.078131735 0.061993767 0.062046748 0.0791505
000040 a5 55 2e bd 96 2f 72 3d bd 5b 5a bd 07 9e 18 3c
       -0.042562146 0.059127413 -0.053310145 0.00931502
000050 fc 47 ac 3d c0 b2 cd 3d 82 2f bb 3a e1 14 b9 bd
       0.084121674 0.100438595 0.0014281126 -0.090371855
000060 5b 8e 56 bd f9 8d 06 bd de 52 57 3d 3b de b2 bd
       -0.052381855 -0.03285024 0.052569263 -0.08733793
000070 cb 9d d3 bd 9d 0c a3 bd 39 76 0c 3d e5 be 89 bd
       -0.10332831 -0.0796139 0.034292433 -0.06725863
000080 da 76 19 bc 71 24 c4 3c 92 87 47 bd 3d 79 25 3d
       -0.009366715 0.023943158 -0.048713274 0.040398825
000090 3b ec aa 3d 46 df a2 3a cc d6 c8 bc 98 52 55 bd
       0.08345839 0.001242616 -0.024516486 -0.05208072
0000a0 5a 75 74 bc 08 91 93 3c fc 3f a4 3d 44 5e 65 bd
       -0.014920557 0.018013492 0.080200166 -0.0559981
0000b0 63 99 ff 3c 24 7d 9e 3d 7a 55 c0 3d fc bc e6 bd
       0.03120107 0.077387124 0.09391303 -0.11266515
0000c0 50 75 80 3b 29 9f a9 bd 90 9b 5d bd cc a1 ec bc
       0.0039202347 -0.082823105 -0.054103434 -0.028885745
0000d0 41 9a 8b 3d 9c 07 b4 3d a2 03 b6 3d 8d c1 9c bd
       0.06816531 0.08790514 0.08887412 -0.076541044
0000e0 7e bd 1b 3c d6 12 57 bb ee 20 ea 3b 9e c3 9f 3d
       0.009505628 -0.0032817624 0.007145039 0.07800983
0000f0 4d 68 ad 3d c3 b9 9a 3d 39 47 89 3c ea 77 43 3d
       0.084671594 0.075549625 0.016757594 0.04772178
000100 d0 4a 1d 3b 8d 7d ec bd bb b7 90 3d 87 f8 f4 bd
       0.002400089 -0.115473844 0.07066294 -0.11961465
000110 22 d1 bc bd ff 4c 07 3d 5a 59 cc 3d 4d 23 22 bc
       -0.092195764 0.033032414 0.0997798 -0.009896112
000120 51 9c 14 3d 3a f4 eb bd fb e8 48 3d de fa f5 3d
       0.036281887 -0.11521192 0.049050312 0.1201074
000130 d8 e1 f0 bc 19 fe b6 bd 4b 96 26 3e 3a 34 db 3c
       -0.029404566 -0.08935184 0.1626827 0.026758302
000140 b6 f3 53 3d f6 e0 b5 bd e6 98 f9 bd 23 a3 b6 bc
       0.051746093 -0.088807985 -0.12187366 -0.022294587
000150 0a 57 13 bd 5b 07 04 bd cb 9e 90 bc 07 f5 d8 bd
       -0.03597168 -0.032233577 -0.017653843 -0.1059361
000160 85 2d 48 bc 72 7d c6 bd 32 10 8f 3d 67 55 a8 3d
       -0.012217884 -0.096918955 0.06985511 0.08219414
000170 e0 9f 75 3d af cd ee 3c 79 b7 22 3d 07 f1 93 3d
       0.05996692 0.029150812 0.039725754 0.07223707
000180 ae 4f f2 3d f8 12 ab 3d f5 f7 22 3c 4e 1a 9f 3d
       0.11831604 0.083532274 0.009946813 0.07768689
000190 fa bf 6b 3d 65 5b bc 3d 33 53 87 bd 36 02 ca bd
       0.05755613 0.091971196 -0.06607666 -0.09863703
0001a0 6a 38 e0 3d b8 d2 b2 3d da fa 89 bd df b4 12 bd
       0.1094826 0.08731598 -0.06737299 -0.035817023
0001b0 af 28 9c 3d b5 71 15 bc 7a 3e f7 3c 78 cc ab 3d
       0.07624947 -0.009121348 0.030181158 0.08388609
0001c0 54 b8 a4 bd e5 91 be bd 30 d0 c4 bd 95 7e 4f bc
       -0.0804297 -0.09305171 -0.09610021 -0.012664457
0001d0 79 cb 94 bd 55 3b 04 3d 56 53 ed 3b 69 c7 8c 3c
       -0.07265372 0.032283146 0.0072426004 0.01718493
0001e0 4f 71 e3 3c 07 8b 50 3d b6 1c d8 bc d2 a7 8f 3d
       0.02776399 0.050913837 -0.026380878 0.07014431
0001f0 a2 90 b4 3d 1d 5a 3a bd 36 04 05 3d ca 25 b1 bd
       0.08816649 -0.045496095 0.03247472 -0.08649786
000200 30 ea 34 bd a1 44 a0 3d ed 10 3c 3d 94 bc e5 bd
       -0.04416865 0.0782559 0.04591458 -0.11217609
000210 a6 ed 6e 3c 6f 3f 19 3d ff 0e c2 bd 8c 1a d0 bc
       0.014583027 0.03741401 -0.094755165 -0.025403284
000220 6c 75 7f bd be ab 69 bd ff 39 9c bd 46 1d 75 3d
       -0.06236784 -0.05704855 -0.076282494 0.05984237
000230 99 ca 21 3b c7 9c f5 3d 37 07 7d bc 7f ad 9c 3d
       0.0024687408 0.119927935 -0.015443615 0.07650279
000240 ea f7 56 3d 3b 63 d0 3d 99 9c 6f 3d a0 dd 18 3e
       0.052482523 0.10175177 0.058498953 0.14928293
000250 06 4c b9 3b 1a 1f e2 bd 0a db 66 bd 3a 8e a3 ba
       0.0056548147 -0.110410884 -0.056361236 -0.00124783
000260 e8 82 c5 3d a3 ce ad 3d 75 1c c1 3d d3 2e 38 3c
       0.09644109 0.084866785 0.09429256 0.0112416325
000270 38 69 43 3d 1c 9c f4 3d e7 73 81 3d e8 2d 61 3b
       0.047707766 0.11943838 0.06320935 0.0034359638
000280 09 f5 c9 3d d7 ea 26 3d fe 59 b7 bd 52 68 cb bc
       0.0986119 0.040751304 -0.089527115 -0.024830017
000290 e4 5c df 3c ad 30 39 3d 4d 92 0c bd 51 74 a4 3d
       0.027265973 0.045212436 -0.03431921 0.08029998
0002a0 a6 db 8b bc 94 89 e1 bc 94 5a f1 3c 2c 29 f2 3b
       -0.01707251 -0.027531423 0.029462136 0.007390162
0002b0 f4 a7 c4 bd 09 d3 4c bd 28 5e ba bd de ed 3f 3d
       -0.09602347 -0.050005946 -0.0909999 0.046857707
0002c0 8b b2 91 3c 08 57 a8 3d 9e a0 76 bd cc 25 35 3b
       0.017785331 0.08219725 -0.06021177 0.0027640937
0002d0 b7 9a c0 bc 26 cb 49 bd 42 06 92 bb b3 7b b0 3c
       -0.023511274 -0.049266003 -0.0044563124 0.02154336
0002e0 cc 7b 66 bb aa 87 61 3c 22 ab d3 3d 56 4b df bd
       -0.0035169004 0.013765255 0.10335375 -0.10903041
0002f0 c1 ee 92 bc 23 f9 41 bd 4a 2d ba bd 18 37 8c bc
       -0.017936112 -0.047356736 -0.090906695 -0.017116114
000300 5d 1a de bd 90 ab 85 bd d4 26 eb 3c 07 16 d5 3d
       -0.10844872 -0.065268636 0.028705038 0.10404592
000310 69 01 cb 3d 0b 22 22 3d 4d 6e bf bb f4 45 9b 3d
       0.09912378 0.039583247 -0.0058420063 0.07581702
000320 10 59 d1 3a 23 71 38 bc 55 61 06 3c c5 9a 2f 3d
       0.0015971977 -0.011257443 0.008201917 0.04287221
000330 91 60 2a bd 2f 9b b9 bd 45 42 d4 3d ca 04 ae 3d
       -0.041596 -0.09062802 0.103642024 0.08497007
000340 99 85 e5 3d b8 4d 84 bd 7e 8e 36 bd 79 28 c6 3d
       0.11207122 -0.06460136 -0.044569485 0.09675688
000350 fe aa e8 bc 0c 94 8e bd c6 6c c8 3d d8 dd 21 3d
       -0.028401848 -0.069618315 0.09786372 0.039518207
000360 94 52 d3 b8 39 78 6a bd da 70 05 be 84 ea 05 3d
       -0.000100766454 -0.05724356 -0.1303133 0.032694355
000370 17 02 6c 3d 78 08 42 3d 2a 9e 95 3d 0e c9 f0 3c
       0.05761918 0.047371358 0.07305558 0.029392745
000380 d4 b0 ec bd 24 7d 14 bc 60 6e bb bc f2 c7 0a bd
       -0.11557165 -0.009063039 -0.02287978 -0.03388209
000390 f7 ae d6 3d a3 ea a7 bd 54 e8 8d 3c 1e 99 92 3c
       0.10482591 -0.0819905 0.017322697 0.017895278
0003a0 3e bc a3 3d 72 23 9f 3d 94 a8 92 bd a1 97 46 3c
       0.07994889 0.077704325 -0.0716106 0.012121112
0003b0 7d 77 d1 3d f4 bc 5b bd dd 07 d4 3d 88 e5 3a 3d
       0.10227869 -0.053646997 0.10353062 0.045629054
0003c0 4f 8a 12 bd c9 71 b8 3d a8 de d0 3d 03 d6 a7 bd
       -0.035776433 0.09006078 0.10198718 -0.08195116
0003d0 a2 68 a4 3d 26 16 a3 bd 21 50 34 3d 85 10 4c bd
       0.080277696 -0.07963209 0.04402173 -0.04982044
0003e0 42 29 61 bd 19 17 1e 3d 78 5e 2a bd 8e 73 d6 bd
       -0.054970987 0.038596246 -0.041594 -0.10471259
0003f0 b0 4e d2 bd 11 c9 cf 3d 60 e5 ad bd 7b d2 39 3d
       -0.10268915 0.10145772 -0.084910154 0.045366745

encoderlayers.0.bias f4 [100]
000000 91 64 cf 3d 68 51 01 bd b2 5e 5f bd 78 9a 4c bd
       0.101266034 -0.031571776 -0.054533668 -0.049952
000010 07 be eb 3d 29 5f 6c 3d b7 07 a8 3c ad d5 f6 3c
       0.11510854 0.05770794 0.020511491 0.030131185
000020 ba cd f4 3d 1c f0 84 bb d5 cc fe bc 16 7b 14 bd
       0.11953302 -0.0040569436 -0.03110353 -0.036250196
000030 10 a2 87 3d f4 ee 78 3d f7 c5 a2 bc 9a f8 b6 3d
       0.06622708 0.06077476 -0.019869788 0.08934136
000040 67 2f b5 3c 47 52 bd 3d d4 76 d2 3d 75 64 c4 3d
       0.02211733 0.09244209 0.10276571 0.09589473
000050 a2 af 7b bd 0a 86 e2 3b 23 ce 56 3d aa bb cc bd
       -0.061446793 0.0069129514 0.05244268 -0.099967316
000060 68 5c e9 bd d4 99 78 3d 6d 59 a7 3d 1f bd 55 bd
       -0.11394578 0.060693577 0.081713535 -0.052182313
000070 9b 9f f5 3d d9 32 51 bd f3 4b 57 bd 64 99 a2 bd
       0.11993333 -0.051073883 -0.052562665 -0.07939413
000080 ca db b7 3d ae 41 b2 3b 68 b0 cf bd 2f 76 23 bd
       0.08977468 0.0054399585 -0.10141069 -0.03990763
000090 70 37 85 3d 3a 7f 1f bd d8 c0 77 bd 1e 02 01 3d
       0.065047145 -0.038939692 -0.060486645 0.03149616
0000a0 ba 49 ea bc 27 1d 04 3e 68 8b 84 3d d7 a2 30 bb
       -0.028599609 0.12901746 0.06471902 -0.002695253
0000b0 fa 63 7e 3b 4b d6 be bd ce 26 34 bd c1 d2 df bd
       0.0038816915 -0.09318217 -0.04398232 -0.1092887
0000c0 5d ab 7c 3d 65 aa 50 3d ad 92 9a bd be 4a d7 bd
       0.061686862 0.05094375 -0.075475074 -0.10512303
0000d0 b4 cd 41 3c 62 a2 bf 3d 87 4d bd bd f5 69 11 bd
       0.011828829 0.09357144 -0.09243303 -0.03550144
0000e0 40 50 75 bd 53 1e 66 bd b3 e7 57 bc 19 20 4a bc
       -0.059890985 -0.056181263 -0.0131778 -0.012336754
0000f0 ca af 9c 3d 9d 3e 96 bd f1 2f 2f 3c 1c 24 45 3d
       0.076507166 -0.07336161 0.0106925825 0.04813014
000100 c1 11 9f 3d cc 39 2a bd 5c c9 a2 bd 5a d9 cf bb
       0.07767058 -0.041559026 -0.079485625 -0.006343049
000110 8f ab 02 bc a9 bb a8 bd fc 96 a4 bd 5d c0 61 bd
       -0.007975473 -0.08238918 -0.080366105 -0.055115093
000120 21 39 dd 3c 2d 00 80 bc a8 a2 b8 3d dc 2c 0d 3c
       0.02700478 -0.015625084 0.09015399 0.008616652
000130 25 be a4 3d 32 b3 d3 3c 7b 81 06 bd f9 7f 65 3c
       0.0804408 0.025842283 -0.032838326 0.014007562
000140 68 4b 80 bd de 93 3b 3d 9c d9 96 3d ee 67 4c 3d
       -0.062643826 0.045795314 0.073657244 0.049903803
000150 4d e2 ac bd ae f7 9f bd 84 69 eb bc f2 51 80 bc
       -0.08441601 -0.07810913 -0.028736837 -0.015664075
000160 7a 53 7e bd f5 77 d1 bd bb bb bc bb e3 54 23 bd
       -0.06209133 -0.10227958 -0.005759684 -0.039875876
000170 0f 3b 99 3d 09 97 cb bd 11 55 24 bd 02 96 8e 3d
       0.07481968 -0.09940917 -0.04012019 0.069622055
000180 7f 95 ef 3d 77 af ab 3c c3 36 a9 3d f5 03 dd 3d
       0.11698436 0.020957692 0.08262398 0.1079177

encodernorms.0.weight f4 [100]
000000 93 52 88 3f 6e 7a 87 3f 2c 54 86 3f b7 74 82 3f
       1.06502 1.0584238 1.0494437 1.0191869
000010 59 aa 80 3f 85 63 86 3f b6 e6 82 3f 04 9f 82 3f
       1.0051986 1.0499121 1.0226657 1.0204778
000020 9e 41 85 3f 79 06 82 3f 2e 2e 84 3f 3d 02 7f 3f
       1.041065 1.0158225 1.0326593 0.9961279
000030 83 71 87 3f 22 90 86 3f e3 6e 87 3f 12 32 84 3f
       1.0581516 1.0512736 1.0580715 1.032778
000040 bb b6 86 3f 0a 4c 88 3f d1 ed 87 3f 62 f2 85 3f
       1.0524515 1.0648205 1.0619451 1.0464594
000050 81 99 7e 3f e3 81 83 3f 0e 99 86 3f 60 29 86 3f
       0.9945298 1.0274013 1.0515459 1.0481377
000060 b8 44 83 3f ad 59 88 3f 37 79 86 3f 29 1c 82 3f
       1.0255346 1.0652367 1.0505742 1.0164844
000070 f1 6e 84 3f 9c 84 84 3f b3 4d 80 3f 1d c2 84 3f
       1.0346357 1.0352969 1.0023712 1.0371739
000080 1b 11 84 3f 54 f5 84 3f b5 e9 81 3f 31 28 84 3f
       1.031772 1.0387368 1.0149447 1.0324765
000090 95 8e 7f 3f b9 c9 82 3f 54 20 85 3f 7e 54 86 3f
       0.9982694 1.0217811 1.0400491 1.0494535
0000a0 d1 3d 83 3f 5f e4 8a 3f c7 54 85 3f 60 0c 8b 3f
       1.025324 1.0850943 1.0416497 1.0863152
0000b0 ec c8 81 3f 4d 10 83 3f 3d c9 89 3f a8 6a 7d 3f
       1.0139441 1.023935 1.0764538 0.9899087
0000c0 60 f1 82 3f bc af 83 3f 58 8c 87 3f 53 4f 82 3f
       1.0229912 1.0288005 1.0589705 1.0180458
0000d0 a7 a8 85 3f 30 c1 84 3f f4 14 81 3f 8e cb 82 3f
       1.0442094 1.0371456 1.0084519 1.021837
0000e0 a1 b9 85 3f 5b 35 85 3f 33 66 86 3f 07 41 85 3f
       1.0447274 1.0406908 1.0499939 1.041047
0000f0 4b 25 88 3f 3b ce 87 3f ea 04 89 3f 90 ca 88 3f
       1.0636381 1.0609812 1.0704625 1.0686817
000100 26 8b 85 3f 92 1a 84 3f a9 f1 7e 3f 70 a7 80 3f
       1.043309 1.0320609 0.99587494 1.0051098
000110 54 6e 87 3f fd c8 84 3f 4f 54 7f 3f ce 49 80 3f
       1.0580544 1.0373837 0.9973802 1.0022523
000120 ac 69 87 3f ac 79 83 3f 63 36 87 3f af ac 88 3f
       1.0579123 1.0271506 1.0563473 1.0677699
000130 02 58 88 3f 5e 5f 86 3f 95 53 84 3f 31 cb 84 3f
       1.0651858 1.0497854 1.0338007 1.0374509
000140 f7 46 82 3f d5 c2 81 3f 4e 6f 85 3f 1f 41 86 3f
       1.0177907 1.0137583 1.0424592 1.0488623
000150 aa 6b 89 3f ce 94 84 3f 2b 8f 7e 3f 4d 31 83 3f
       1.0735981 1.0357912 0.99437207 1.024942
000160 a3 5f 7e 3f b1 3d 86 3f 31 6d 84 3f b6 07 82 3f
       0.9936468 1.0487577 1.0345823 1.0158603
000170 d1 48 8a 3f a2 f5 83 3f b3 fd 89 3f 14 47 80 3f
       1.0803472 1.0309336 1.0780548 1.0021691
000180 69 ae 8b 3f 9e 2e 87 3f 4a 8c 85 3f 16 a6 86 3f
       1.0912601 1.0561101 1.0433438 1.0519435

encodernorms.0.bias f4 [100]
000000 f4 5f be bc 33 65 c3 bd 12 08 b2 bd ff 69 bd bb
       -0.023239113 -0.095407866 -0.086929455 -0.005780458
000010 db 29 a7 3d 8a 24 27 bc c4 14 9e 3d e4 4e 6f 3c
       0.0816228 -0.010201583 0.077188045 0.014606211
000020 a7 a9 c0 3c b2 20 5f 3c 93 fe 7a bd 09 1a b4 bd
       0.023518397 0.013618635 -0.061277937 -0.08794028
000030 31 df ea bc 49 8c cd bd 88 51 25 3d e4 38 86 bd
       -0.02867088 -0.10036523 0.040360957 -0.0655382
000040 09 9f dc 3c ed 68 d7 3d a4 c1 34 3c 5a c2 b5 3c
       0.026931303 0.1051806 0.011032496 0.0221874
000050 a9 51 c3 3c de 86 65 3b 4d 2f 9e 3d 32 fb 99 ba
       0.02384265 0.0035023014 0.07723866 -0.0011747836
000060 e1 c8 10 be 4d de a5 3d d8 9d a9 bd f6 d6 9a 3d
       -0.14139129 0.08099041 -0.082820594 0.07560532
000070 a5 77 df bd 9b 48 3d 3c af c1 6b 38 c5 7c c2 bc
       -0.10911492 0.011552955 5.6208748e-05 -0.023741135
000080 6c 91 7f 3a e8 8c bc 3d 6e d3 f0 bd cb dc b3 3c
       0.00097491476 0.09206563 -0.11759077 0.021955868
000090 bb 43 d3 3d 37 b0 c6 3b 92 48 86 bd d2 02 84 3d
       0.10315653 0.006063487 -0.065568104 0.064458504
0000a0 b7 65 46 3d c4 20 1c 3c 47 4d f9 39 2d d2 71 bd
       0.048436847 0.009529296 0.00047550557 -0.05903833
0000b0 fa be 11 3d 2b a4 9c bd 49 04 ac 3d 1a b9 55 3d
       0.03558252 -0.076485 0.08399255 0.05217848
0000c0 82 66 d4 3d 99 5f 7c bd 5d 08 96 bc 0c a7 c3 bc
       0.10371114 -0.061614607 -0.018314535 -0.023883365
0000d0 62 24 81 bd 68 52 33 3c fb ab c7 bc 39 62 93 3d
       -0.063057676 0.01094494 -0.024373999 0.07196469
0000e0 d1 0e e1 bc fa 74 0d 3c 57 c1 87 bd 27 aa a9 3d
       -0.027472885 0.008633846 -0.066286735 0.08284407
0000f0 cc 1a f9 bd 8a 6a 38 3d 31 5a e7 bd 0e 02 75 3d
       -0.12163314 0.04502348 -0.112964995 0.059816413
000100 05 81 c9 3c 4a ff bd bd 22 2b b2 bc cc ff 1e ba
       0.024597654 -0.09277208 -0.021749083 -0.00060653384
000110 3e 1e f6 3d a6 98 1c 3d 1c 1a f6 3d 1f 04 4c bd
       0.12017487 0.038231514 0.12016699 -0.049808618
000120 eb fb 48 bd 0b 86 25 bd 06 d6 60 3c 8a 66 0b 3c
       -0.049068373 -0.040411036 0.013722902 0.008508334
000130 ca 6f ef bb 0f b4 e6 3d f6 58 89 3c 1e e6 75 3d
       -0.0073070275 0.11264812 0.016766053 0.06003391
000140 1a 26 a3 3c ee bf 8f 3d 05 54 ea bc 16 ed 51 3d
       0.01991563 0.070190296 -0.028604517 0.051251493
000150 72 62 0a 3d b6 37 ad 3d a7 57 a1 bd da 02 8e ba
       0.03378529 0.08457892 -0.078780465 -0.001083459
000160 a3 6a 0c bd 68 02 a4 bd 2a 1c 98 bd ad 1a 93 bd
       -0.034281384 -0.080082715 -0.07427247 -0.071828224
000170 25 ae 9a 3c 4a cb e0 3c b5 f5 52 bd 85 d0 b4 3d
       0.018881867 0.027440686 -0.051503856 0.088288344
000180 73 25 a0 bc e8 a0 b1 3c 7a aa 80 bd ba 5c 0b bd
       -0.019549107 0.021683171 -0.06282516 -0.034023978

encodernorms.0.running_mean f4 [100]
000000 8f 39 a5 3e 43 bf 5d 3e 74 7d b2 3e 9a 98 44 3e
       0.32270476 0.21654992 0.34861338 0.19198838
000010 cd 8a dc 3d 4e e0 ab 3e bd 77 e2 3e 1c bd 93 3c
       0.10768662 0.33569568 0.44231978 0.01803451
000020 62 7a 85 3e 4c 7c db 3b b4 29 23 3d df 08 b4 3d
       0.26069933 0.006698167 0.039834693 0.087907545
000030 72 03 a4 3e e4 43 80 3e 50 17 8d 3e 08 f0 3f 3e
       0.3203388 0.25051796 0.2755685 0.18743908
000040 96 e3 82 3e 13 49 78 3e ca 90 8f 3e 27 2a a8 3e
       0.2556426 0.24246626 0.28040153 0.3284466
000050 04 87 1e 3c 6f 2b 5c 3e f9 92 54 3e 56 36 02 3e
       0.009675745 0.21500944 0.2075919 0.1271604
000060 54 48 ae bb 8a 9f 82 3e 89 af ed 3d a6 33 85 3e
       -0.005318681 0.25512344 0.11605746 0.26015967
000070 6b 4a 9c 3e eb f6 5f 3e 36 67 ab 3e 86 80 a4 3e
       0.30525526 0.21871535 0.3347718 0.32129306
000080 fc ee 4c 3e 58 d1 8a 3e 7f d6 d7 3d 51 44 6e 3e
       0.2001304 0.27112842 0.10538959 0.23268248
000090 7f 1a 42 3e 5d 28 9a 3e 73 ae 42 3e 83 d3 87 3e
       0.1895542 0.3010892 0.1901186 0.26528558
0000a0 b0 38 2d 3d 0a ba 69 3e 85 c5 5d 3e 85 84 e1 3e
       0.04229039 0.22824875 0.21657379 0.44046417
0000b0 12 ba 6e 3e 48 20 dc 3d fb 64 bc 3e 55 5d 00 3e
       0.23313168 0.10748345 0.36795792 0.12535603
0000c0 42 91 c6 3d d8 43 9b 3e da 78 83 3e fc c9 07 3d
       0.096956745 0.30325198 0.2567814 0.03315161
0000d0 f6 99 63 3e 41 cf 9f 3e 8e a1 f7 3d bf ad 7b 3c
       0.222267 0.3121281 0.12091361 0.0153612485
0000e0 98 2c a9 3e d5 cd 5d 3d 6f e9 5d 3e 56 6b 35 3e
       0.33041835 0.054151375 0.21671079 0.17716727
0000f0 50 a7 77 3e 7a f2 de 3b ac 25 c1 3e e3 ed 8e 3e
       0.24184918 0.006803808 0.37724054 0.27915868
000100 6b a6 ed 3d cd 44 55 3e 46 3c 2a 3e 72 31 11 3e
       0.11604007 0.20827027 0.16624555 0.14179018
000110 28 41 d0 3e 88 8f c3 3e ce cb 31 3d 24 b0 f4 3d
       0.4067471 0.38195443 0.043407254 0.11947659
000120 65 f0 51 3d 11 9d fa 3e 0f da 89 3e 34 ee a2 3e
       0.05125465 0.48947957 0.26924178 0.3182236
000130 89 8d cb 3e 4b 2c ab 3e 96 7d 4a 3e 9d 54 88 3e
       0.3975642 0.3343223 0.1977447 0.26627055
000140 0b 1d 6b 3c 92 90 22 3e ae 29 56 3e b8 91 42 3e
       0.014350186 0.15875462 0.20914337 0.190009
000150 a4 e1 b2 3e ef 1f 57 3e ac c2 ad 3d 14 af c7 3d
       0.34937775 0.21008275 0.08484396 0.097501904
000160 2a 72 4b 3d 9a 42 fb 3d ac 92 9b 3e 3d 4c 22 3e
       0.049669422 0.122685626 0.3038534 0.15849395
000170 c5 8d aa 3e d0 bc 4d 3e b4 6b b0 3e 09 a3 2e 3e
       0.33311287 0.20091558 0.3445717 0.1705438
000180 99 2d 95 3e 4f ea 96 3e d2 a6 eb 3e d8 b7 16 3e
       0.2913635 0.29475638 0.4602571 0.14718568

encodernorms.0.running_var f4 [100]
000000 ea 6e f1 3d cc aa 8d 3d be b4 f0 3d c0 a6 a3 3d
       0.11788733 0.069173425 0.11753224 0.079907894
000010 20 18 5b 3d c5 11 eb 3d ae cb 1c 3e 68 83 03 3c
       0.053489804 0.11477999 0.15312073 0.008026935
000020 de e5 e2 3d d0 3e 53 3b f2 f2 8c 3c f3 30 10 3d
       0.11079 0.0032233484 0.01720569 0.03520293
000030 92 b1 d7 3d da 76 93 3d bb 7e ab 3d b8 aa 7d 3d
       0.10531916 0.072004035 0.08373781 0.06193039
000040 d3 70 ab 3d 2d 62 c0 3d 90 31 bf 3d 3b 54 00 3e
       0.08371129 0.093937255 0.09335625 0.12532131
000050 5a 8f 8a 3b 12 91 a1 3d d8 09 9c 3d 59 cc 50 3d
       0.0042285146 0.07888998 0.07619065 0.05097613
000060 a6 66 5d 39 92 ea c4 3d 0c f9 51 3d 42 a0 a7 3d
       0.00021114442 0.09615053 0.0512629 0.081848636
000070 8c 4a dd 3d 7f ed 8c 3d 51 db dc 3d 1d cc e8 3d
       0.10805234 0.06881236 0.10784019 0.113670565
000080 e1 7a 8f 3d 4b e3 e0 3d be 82 30 3d fb 08 b1 3d
       0.07005859 0.10980853 0.043093435 0.08644291
000090 2c 69 95 3d e7 a1 c1 3d d3 18 97 3d a0 45 e7 3d
       0.072954506 0.094547085 0.07377782 0.11292577
0000a0 64 f0 8f 3c bf 38 a3 3d 45 63 b6 3d b5 7a 25 3e
       0.017570682 0.07969808 0.08905653 0.1616009
0000b0 76 3e be 3d d6 4d ef 3c 03 c9 fb 3d cf 5f 33 3d
       0.09289257 0.02921192 0.12294199 0.043792542
0000c0 87 35 1d 3d 81 9b e8 3d fb 88 b4 3d 79 65 3f 3c
       0.038381126 0.11357785 0.088151895 0.011681908
0000d0 7a 02 a6 3d 8d 49 df 3d 70 73 1b 3d 6e c4 ad 3b
       0.08105941 0.109027006 0.037951887 0.0053029573
0000e0 f9 7d e8 3d 62 7b bb 3c 46 87 b4 3d 5a 27 9b 3d
       0.113521524 0.022885982 0.08814864 0.07575865
0000f0 7e 69 9b 3d 0f 5d 84 3b 6c c6 01 3e ca 44 ab 3d
       0.075884804 0.0040394138 0.12673348 0.0836273
000100 da 7a 1c 3d 2e 04 c5 3d a2 a4 78 3d 65 01 6c 3d
       0.038203098 0.09619938 0.06070388 0.057618517
000110 df 93 0f 3e 9d d1 3f 3e 4a 2b 78 3c b8 6e 16 3d
       0.14021252 0.18732305 0.01514704 0.036726683
000120 79 b7 8d 3c 9c 67 25 3e d6 f8 b9 3d c6 70 b4 3d
       0.0172994 0.16152805 0.09080665 0.08810572
000130 c5 04 38 3e ba 0c f7 3d 85 6e 94 3d 26 d0 e6 3d
       0.1797057 0.12062974 0.072476424 0.1127017
000140 15 c1 dd 3b 6d 9d 43 3d 1e b6 92 3d 36 01 95 3d
       0.006767402 0.047757555 0.07163642 0.072756216
000150 0f e3 d4 3d 92 e9 8c 3d 23 38 ed 3c 63 e5 20 3d
       0.103948705 0.068804875 0.028957432 0.03928126
000160 eb 58 9a 3c e3 8d 26 3d 1d 2f d7 3d a3 14 82 3d
       0.018841228 0.040662657 0.10507033 0.063515924
000170 54 1f ee 3d 99 f2 8c 3d f4 75 ea 3d b0 4f 92 3d
       0.11627069 0.06882209 0.11448279 0.071441054
000180 cc f7 ea 3d 33 90 d6 3d 76 04 34 3e d2 c1 71 3d
       0.11473045 0.104767226 0.17579827 0.059022732

decoderlayers.0.weight f4 [100, 10]
000000 97 e3 24 be 18 94 c6 3c 90 26 4c be 25 7a 8f 3e
       -0.16102444 0.024240538 -0.19936585 0.28022876
000010 05 20 8d be 14 4f 52 be ec 5a 8e be 1e d4 97 3e
       -0.2756349 -0.20537978 -0.27803743 0.2965402
000020 5f dc 63 3e ed 5f 6e be c4 65 90 be 6f 0e 63 3c
       0.22252034 -0.2327878 -0.2820264 0.013858422
000030 21 c5 8a 3d 80 ee 7a 3e c9 a6 8a 3d 29 4d ec 3d
       0.067758806 0.24505043 0.06770093 0.11538155
000040 20 b2 5f 3c 15 ce ea 3d 7c 5c 18 be f1 ea 12 3e
       0.013653308 0.11465088 -0.1487903 0.14347436
000050 fb df 86 3e 07 dc c0 bd 5b da 06 be 56 c7 87 3e
       0.2634276 -0.09416967 -0.13169234 0.2651927
000060 14 a6 23 3e 51 e9 1c 3d ef 37 a7 bd 8f 89 be bd
       0.15981323 0.038308445 -0.08164965 -0.09303581
000070 40 ba f3 3d 0c 28 89 3e 19 d7 4d be f3 75 59 3e
       0.11900759 0.26788366 -0.20101584 0.212364
000080 61 2f 2a 3d 59 04 95 3e 57 ae 2f be ef 3f 55 3e
       0.04154909 0.2910488 -0.17156349 0.2082517
000090 68 0b 8d 3e aa 9e 24 bc 2a 66 93 be cb 74 87 bb
       0.27547765 -0.010047594 -0.28788882 -0.004133796
0000a0 d4 3f 9c bd 54 d4 43 3e b1 6a 8d be 1e c6 58 bd
       -0.07629362 0.19123966 -0.27620462 -0.052923314
0000b0 22 41 18 3e 61 75 41 3e 50 de 82 bb 77 71 07 be
       0.14868596 0.18892433 -0.003993787 -0.13226877
0000c0 6f 24 71 bd 6e 8a 90 3e e6 94 a2 3c e7 28 2e 3d
       -0.058872636 0.28230613 0.019846391 0.042519476
0000d0 cb ac 47 3d fd 58 44 3e fe 19 16 be 8f c3 5e 3e
       0.048748773 0.19174571 -0.14658353 0.21754287
0000e0 cc ed 3e be c7 d2 24 bd 5b a1 9c 3e f4 9f 02 3e
       -0.186454 -0.040240075 0.30591854 0.1275633
0000f0 28 97 96 be 23 4a 57 be 6b 86 c9 bd 1e 0b e8 3d
       -0.29412198 -0.21024375 -0.09840091 0.113302454
000100 91 7a 43 3d 80 a5 13 3e 29 dc 5a 3d 9d ff da b9
       0.04772431 0.14418602 0.053432617 -0.00041770647
000110 4b 44 3e be 22 47 de 3c c9 20 64 3e e6 6f 8e 3e
       -0.18580739 0.027133528 0.22278132 0.27819747
000120 45 92 16 be f3 8a 26 be 56 20 7b be d8 d3 a1 3e
       -0.14704235 -0.16263942 -0.24524054 0.31606936
000130 0a 32 86 3d 56 68 f6 bd 6c 16 8c 3e 70 a5 ba bc
       0.06552513 -0.12031619 0.27360857 -0.022783965
000140 6d 13 67 be 74 42 6e 3e d5 86 6f 3e 2e 29 dd 3d
       -0.22566004 0.23267537 0.23391278 0.1079887
000150 1b 6d 15 3e db 47 51 3d c2 91 9f 3d c9 ea 19 3e
       0.14592402 0.051093917 0.07791473 0.1503097
000160 3d 90 a6 3d 05 44 81 be ab 2a 08 bd 22 2f 94 be
       0.0813298 -0.25247207 -0.033243816 -0.2894221
000170 06 43 6b be ac 92 f7 bb 91 41 84 be f3 11 0d be
       -0.22974786 -0.0075553264 -0.25831273 -0.13776378
000180 ef 81 30 3e 2e 19 42 be 11 95 bb 3d e7 f6 95 be
       0.17237066 -0.18954918 0.091592915 -0.29289934
000190 3a 77 d2 3d b9 8b 93 3e 12 2d a8 3d 14 16 81 3e
       0.10276647 0.28817537 0.082117215 0.25212157
0001a0 51 44 95 be 6f 02 90 be e7 a0 8b 3e 8f 18 9f be
       -0.29153684 -0.28126857 0.27271196 -0.31073424
0001b0 98 ae 4e be 82 1b ad bd 52 eb 33 3e 5f 2c 76 be
       -0.2018379 -0.08452512 0.17570236 -0.24040364
0001c0 de c8 d3 3d 9d 24 ba 3d 3d 6b 6c 3e 2e a6 2a be
       0.10341047 0.09089015 0.23087783 -0.16664955
0001d0 a2 3c 2b be 2d 43 23 3e a1 b5 90 3d f1 b6 71 3c
       -0.16722348 0.15943594 0.07065893 0.014753089
0001e0 93 32 85 3e 1c ba 94 3e 07 f8 3c be 78 be ba 3d
       0.26015148 0.2904824 -0.1845399 0.0911836
0001f0 0c 2b 83 3e e8 f8 b2 bd 56 af 1d 3e 24 33 27 be
       0.2561878 -0.08738881 0.15398917 -0.16328102
000200 b6 9f 06 bd 31 7e 26 be 80 d8 b7 bd 4d c5 84 3e
       -0.032867156 -0.16259076 -0.08976841 0.2593178
000210 86 a1 51 be 4d 9f a2 be f9 0c 0d be 73 4d bb 3d
       -0.20471773 -0.31762162 -0.1377448 0.09145632
000220 2f bf 6c 3e fe c3 6b 3d 4b 6d 83 bc 8b 84 ca 3d
       0.23119806 0.05755996 -0.016043326 0.09888562
000230 7b b0 9b 3e 4f 5f 29 3d ab a7 1f 3e 87 3c c7 bd
       0.3040808 0.04135066 0.15591304 -0.097283415
000240 c1 39 8c be ec 57 a3 be 59 c7 ac 3d 8a 67 89 3e
       -0.27387813 -0.31903017 0.0843646 0.26836807
000250 d8 1d a3 3d ea 92 18 3e 3a 73 91 3e e6 59 df 3c
       0.079646766 0.14899793 0.28408223 0.027264547
000260 af 9f 5e bd 24 74 55 3e 8a c5 70 3d b2 1f 77 be
       -0.054351505 0.20845085 0.058782138 -0.24133185
000270 2e 2a 86 be 7f 5c 8f be 60 cb 73 be 1a 84 24 3e
       -0.26204056 -0.28000256 -0.2380805 0.16066018
000280 8d 1c 89 3e b3 87 95 be ac 73 25 3e f5 89 f2 3d
       0.26779595 -0.29205093 0.16157407 0.118427195
000290 67 00 66 3e e3 17 86 3e 1b 0c c4 3d 95 6f ed 3d
       0.22461091 0.261901 0.095726214 0.11593548
0002a0 b7 b5 85 3d 1e c7 a1 be e3 93 3f bd 1d 6a 31 be
       0.065288 -0.31597227 -0.046771895 -0.17325635
0002b0 10 f2 9b be be 29 70 3e b3 ef e6 3c a2 1d 7f 3e
       -0.30458117 0.23453423 0.02819047 0.24913648
0002c0 42 e1 80 be dd 42 b0 3d 5d cb 6b be 9e 9a 5b 3e
       -0.25171858 0.08606503 -0.23026796 0.214457
0002d0 3d 0e 57 be a4 8d 5d 3e 0a 33 5b 3e 5e 11 8e be
       -0.21001525 0.21636063 0.21406189 -0.27747625
0002e0 37 09 14 3c 8a 5a 8a be 62 bd c6 bd 65 60 9b 3e
       0.0090354 -0.270222 -0.09704091 0.3034698
0002f0 64 82 a0 3e 32 b1 08 bd f3 fa 61 be e4 ec 82 be
       0.3134948 -0.03337211 -0.22068386 -0.25571358
000300 1c bd 35 3e 81 5f 9d 3e be 76 a5 3d 94 3c a0 3d
       0.17747921 0.30736926 0.08079289 0.07824054
000310 61 86 6b 3d 9a 48 9d be d7 d6 ff bd f2 bb 0d bb
       0.0575012 -0.30719453 -0.12492149 -0.0021626917
000320 9b c5 57 3e 8e 29 82 3e 4a 3f 09 be 5b 8f 2c 3e
       0.21071474 0.2542233 -0.13403049 0.16851561
000330 4f cb 82 bd 6f 5e 8b 3e d8 d4 0c 3e 17 9c 75 be
       -0.06386434 0.27220485 0.13753068 -0.23985325
000340 b1 eb 8d 3e 81 9f 38 3e df 3b 08 be 33 9c 4f ba
       0.2771888 0.18029596 -0.13304089 -0.0007919699
000350 94 52 5c 3e 68 de 8e bd 6a ec 46 3e e3 59 2c be
       0.21515876 -0.069760144 0.19426122 -0.16831164
000360 69 c7 e0 bd 40 49 94 3e 24 3b 86 3e 96 ee 6e 3d
       -0.109755345 0.28962135 0.26216996 0.058333002
000370 13 95 9f 3e 34 85 74 be 77 6f 1f be c6 90 0b 3e
       0.31168422 -0.23878938 -0.15569864 0.13629445
000380 a8 63 31 3e a9 1c 38 3e 75 93 c0 3d aa 4b 58 3e
       0.17323172 0.17979683 0.09403125 0.21122614
000390 87 28 90 3e 68 a5 84 3e 8f 79 99 be 43 20 6b be
       0.2815592 0.25907445 -0.29975554 -0.22961526
0003a0 e5 ee b2 bd a9 b7 17 be 8b 74 78 3c 3d b6 be 3d
       -0.08736972 -0.14816155 0.015164505 0.09312103
0003b0 c9 de 19 3d 00 5b b3 3c 30 cc 04 be 6a 25 21 3d
       0.03756598 0.021893978 -0.12968516 0.03934232
0003c0 0a 8d f6 bb 4a 0c 88 3e b0 ee 01 be ff 65 a0 3d
       -0.0075241374 0.26571876 -0.12688708 0.07831954
0003d0 e3 fd 40 3e 4e d8 21 3e 4c 7e 06 3e 50 f4 82 3e
       0.1884685 0.1580517 0.13134116 0.2557702
0003e0 a7 e1 97 be 46 ff 51 bd 5c 47 14 be 25 e5 c9 3d
       -0.29664347 -0.05126884 -0.14480346 0.09858159
0003f0 9c 82 02 be 57 9c 6c 3d b9 e1 3a 3d 45 d7 03 bd
       -0.12745136 0.057766285 0.045625422 -0.03218772

decoderlayers.0.bias f4 [100]
000000 fa 60 50 3e 15 12 e2 3c d8 b3 1e 3e 86 df 86 3e
       0.20349494 0.027596513 0.15498292 0.2634241
000010 61 4e 5d bd f6 eb 1c be b1 ff 6b 3d a7 d7 4c be
       -0.054029826 -0.15324387 0.057616893 -0.2000414
000020 65 06 92 3e c6 de 15 b8 7f ad d5 3d 7b 23 3f 3e
       0.28520504 -3.5731842e-05 0.104334824 0.18665878
000030 d2 94 cd bd 24 d2 44 be e4 25 7a bd 0b e8 bd bb
       -0.10038151 -0.19220787 -0.06107129 -0.005795484
000040 e5 bd b2 bd a0 c0 82 3d a0 b7 34 be 82 82 30 3e
       -0.08727626 0.063843966 -0.17648172 0.17237285
000050 35 43 11 be 21 1f 08 3e 56 a2 c4 bd 4c ef 08 be
       -0.14185794 0.13293125 -0.096012756 -0.13372535
000060 8a f7 6e 3e 68 6b 74 3e a6 20 dd bd 11 47 9a bd
       0.23336616 0.23869097 -0.10797243 -0.07533086
000070 4f cd a4 3d 5a 44 ed bd e3 87 db 3d 37 fd 38 be
       0.08046972 -0.11585303 0.10719278 -0.18065344
000080 cd 3c e3 3d 81 d4 59 3c 55 35 da bd c8 e5 39 3e
       0.11095581 0.013295294 -0.106547035 0.18154061
000090 b7 70 3e be 50 f4 16 3e 18 9a 69 3e 89 f4 9a 3e
       -0.18597685 0.14741635 0.22812688 0.3026469
0000a0 d1 34 89 be ae ee 30 3e c0 c6 07 3e 54 ae 99 3d
       -0.26798108 0.17278549 0.13259411 0.075039536
0000b0 24 3f f5 3d 9e 52 3a 3e ff 0e 4f 3e aa a8 b7 3d
       0.11974934 0.18195578 0.20220564 0.08967717
0000c0 24 4f 9b 3e ec 57 8c 3e 7f 98 0b bd b8 19 6c 3d
       0.30333817 0.2741083 -0.03408098 0.057641715
0000d0 dd c9 9b 3e 54 c8 24 b9 fd a1 68 3e 18 24 09 be
       0.30427447 -0.00015714887 0.22718044 -0.13392675
0000e0 54 c8 5f 3e e2 0e 80 bd 1f 32 01 3e 69 76 54 be
       0.21853763 -0.06252839 0.12616776 -0.20748295
0000f0 28 dc 91 3c d1 cc 0a 3d 7c 15 7c 3e 91 97 0f 3e
       0.017805174 0.033886734 0.2461757 0.14022662
000100 1c 88 5c be 66 2e f0 3c a0 d9 46 3e 4f 1b 93 3e
       -0.21536297 0.029319 0.19418955 0.28731772
000110 18 7d f3 bd 3e 75 3e 3e 0e 95 b0 3d cd 37 98 3d
       -0.11889094 0.18599412 0.0862218 0.07432518
000120 50 c2 76 3d 7e 2e f6 bc a2 8e 45 be bc 3c 19 3e
       0.060243905 -0.030051466 -0.19292691 0.14964575
000130 eb 73 1f 3e ac 32 0e 3e 4e 5d 9b 3d 58 ae 18 3d
       0.15571563 0.13886517 0.07586156 0.037275642
000140 ce c3 0d 3c ad d3 e3 bd dd 0e f4 3d 3b 77 6c 3e
       0.0086526405 -0.11124358 0.119168974 0.23092358
000150 3b 8b 6e bb 75 46 91 3e 9d 0e b7 3d e8 f6 42 3e
       -0.0036398906 0.28374067 0.08938334 0.190395
000160 af 4f 12 be 23 f7 ab 3d 91 c7 74 be 41 ce f5 3b
       -0.1428821 0.08396747 -0.23904254 0.007501394
000170 22 5e 82 3e 8c 0e f3 3d 36 cd 98 be aa 71 5f 3e
       0.25462443 0.11868009 -0.29844064 0.21820703
000180 af 62 1e 3b e0 97 6d 3e fc a1 dd 3c 9e dc 93 3e
       0.0024167707 0.23202467 0.02705478 0.28879255

decodernorms.0.weight f4 [100]
000000 0d 43 70 3f 5c b7 78 3f 47 7a 73 3f 85 bf 75 3f
       0.9385231 0.97154784 0.95108455 0.9599536
000010 a9 fc 77 3f 4a 8a 75 3f 07 c7 79 3f 3e b6 6f 3f
       0.96869904 0.9591414 0.97569317 0.93637455
000020 69 0c 7e 3f 02 f3 6f 3f 8d e6 78 3f 99 35 79 3f
       0.99237686 0.93730175 0.9722679 0.9734741
000030 13 d5 72 3f ea 03 71 3f 93 06 76 3f 28 ec 76 3f
       0.94856375 0.941466 0.9610378 0.96454096
000040 3e e3 73 3f 03 49 71 3f 84 b1 75 3f 20 fd 70 3f
       0.9526862 0.9425203 0.9597399 0.9413624
000050 e3 a9 74 3f 93 57 75 3f 37 4c 78 3f 6d 9c 75 3f
       0.95571727 0.9583675 0.96991295 0.9594181
000060 17 7b 74 3f 1c e8 73 3f ad 5a 75 3f a4 58 74 3f
       0.9550032 0.95276046 0.95841485 0.95447755
000070 6a 31 75 3f 1f f7 76 3f 0d 0f 78 3f 34 73 72 3f
       0.95778525 0.96470827 0.96897966 0.94707036
000080 21 30 70 3f 7c a3 73 3f e9 47 73 3f 18 22 76 3f
       0.9382344 0.9517133 0.950316 0.9614577
000090 3a 8d 6f 3f 56 f0 76 3f 4f 32 72 3f 8f 56 74 3f
       0.9357487 0.96460474 0.94608015 0.9544458
0000a0 fa f1 74 3f 9c 70 76 3f 5a 6e 77 3f bf a0 79 3f
       0.95681727 0.9626558 0.9665276 0.97510904
0000b0 8b e5 73 3f d4 9a 75 3f 25 96 75 3f 94 cd 7e 3f
       0.9527213 0.95939374 0.9593223 0.9953244
0000c0 e1 e4 76 3f 87 c3 73 3f 68 9b 75 3f 60 93 75 3f
       0.9644299 0.95220226 0.95940256 0.95928
0000d0 9d 23 76 3f 45 ac 7a 3f ba dd 74 3f 47 e4 75 3f
       0.9614809 0.9791911 0.9565083 0.9605145
0000e0 55 ec 78 3f 5c a1 77 3f ee a3 7f 3f 9b 64 75 3f
       0.97235614 0.9673059 0.9985951 0.95856637
0000f0 6c 18 71 3f 64 12 70 3f ff 72 72 3f a0 82 73 3f
       0.9417789 0.9377806 0.9470672 0.9512119
000100 3c 66 77 3f 9f 23 72 3f 39 5b 76 3f 61 30 71 3f
       0.9664037 0.94585603 0.96232945 0.94214445
000110 c5 1e 73 3f a9 27 77 3f b3 b2 73 3f e8 64 73 3f
       0.94968826 0.9654489 0.9519455 0.95075846
000120 49 f2 7a 3f 62 92 75 3f 92 a7 72 3f 03 12 77 3f
       0.9802595 0.9592649 0.9478694 0.9651186
000130 53 13 74 3f c6 d0 75 3f f5 dc 72 3f d2 96 6f 3f
       0.95341986 0.9602169 0.94868404 0.9358951
000140 a3 1c 76 3f 1c a1 77 3f ff 16 78 3f c5 1b 76 3f
       0.96137446 0.9673021 0.9691009 0.9613612
000150 78 65 76 3f 12 43 73 3f 05 bf 6f 3f 0b 32 7a 3f
       0.9624858 0.95024216 0.9365085 0.9773261
000160 58 d9 7c 3f 1e bf 7f 3f 9e 1b 70 3f c2 1a 78 3f
       0.9876914 0.99900997 0.9379214 0.9691583
000170 48 d2 77 3f 0c 49 77 3f b6 b4 73 3f 24 77 7a 3f
       0.9680524 0.96595836 0.9519762 0.97838044
000180 12 31 6d 3f 18 02 75 3f 02 c4 74 3f d4 48 73 3f
       0.92653 0.9570632 0.95611584 0.95033

decodernorms.0.bias f4 [100]
000000 73 e6 d6 bb 72 81 ce bb b7 ff 91 3c c4 80 01 bc
       -0.0065582334 -0.006302052 0.01782213 -0.007904235
000010 7d a1 da bc fc ec da 3c 49 d9 8e 3c 12 d0 09 3c
       -0.026688332 0.026724331 0.017437594 0.008411424
000020 3a 19 16 bc 5a 8f 2f bd 9c 54 c8 3c 3e 89 ab ba
       -0.009161288 -0.04286132 0.024454407 -0.0013087166
000030 9c be 98 3c c0 da 4c 3c a0 7e 0e bc 9b c4 20 bc
       0.018645577 0.012503326 -0.008697182 -0.009812499
000040 1b d2 a8 ba 0d 6a f2 3c 1f 90 69 bb 72 a6 9b bc
       -0.0012879999 0.029591585 -0.0035638881 -0.019000266
000050 a7 1c d6 bc 1b a9 8d bc 81 c6 88 3c a6 46 35 bb
       -0.02613671 -0.01729255 0.016696217 -0.0027660518
000060 33 00 5b 3c b6 21 d3 3b 56 87 13 3c 26 ed 3a 3c
       0.013366747 0.0064432276 0.009004435 0.01140908
000070 2e 66 ea bb a3 9a ef bb aa fd 67 3a 86 41 48 3b
       -0.007153294 -0.0073121353 0.00088497496 0.0030556633
000080 46 37 d9 3c fc 6e 08 bb 07 f9 a0 3c 81 3a 01 3d
       0.026515614 -0.0020818105 0.019649995 0.031549934
000090 77 cc ec 3b a4 1b 5f bc db 9c 2e bd 61 51 a8 bc
       0.0072265225 -0.01361743 -0.042630058 -0.020546617
0000a0 d6 ba 0f 3c 9b 24 e2 bc db 2f 29 3c 5a 16 c3 3b
       0.0087725725 -0.027605345 0.010326351 0.0059535922
0000b0 f0 6a 06 bd d3 d6 aa bb 20 ed c0 bc 1a 6d e3 bb
       -0.032816827 -0.0052135973 -0.02355057 -0.006940496
0000c0 5c 0e db bc 43 0e cd 3c 93 49 6f bc a0 f2 60 3c
       -0.026740246 0.025031215 -0.014604944 0.013729721
0000d0 89 9e 61 3b 36 46 12 3c 89 44 61 bc 9a 2c 27 bc
       0.003442677 0.008927872 -0.01374925 -0.010203505
0000e0 05 4e 85 3c 12 6e 0a 3d 40 c5 11 bd 59 72 9f bc
       0.016272554 0.033796377 -0.035588503 -0.019463705
0000f0 3d 2c a0 bc 94 ee 98 bc c5 74 e0 3b fb 8d 83 3b
       -0.019552344 -0.01866845 0.0068498575 0.004014728
000100 76 0e e6 bc 8e d3 8e 3c 10 00 9e 3b b6 74 70 3c
       -0.028083067 0.017434862 0.004821785 0.014676264
000110 eb d1 a8 bb 6f 1a 5b 3c e9 b1 3c 3c b6 a9 e1 bb
       -0.0051519773 0.0133730015 0.011517026 -0.006886686
000120 e1 92 02 b9 da 9a e0 3a 12 f5 46 bc 84 b5 cc 3b
       -0.00012452483 0.0017135993 -0.01214339 0.0062472243
000130 d8 fd 03 3d 3f 08 b4 3b 6a 36 82 bb c4 19 9c bc
       0.032224506 0.005494147 -0.003973772 -0.019055255
000140 df a8 c6 3c 70 21 df bb 5c 03 15 bc 92 7c ac bc
       0.024250446 -0.006809406 -0.009095039 -0.021055494
000150 cc 80 fb 3b c3 6b 03 bd b0 c8 11 3d 77 cd 16 bc
       0.007675266 -0.03208519 0.03559178 -0.00920426
000160 88 fb fb bb 8a 35 5d ba ba d2 3a 3c 04 cf af bb
       -0.007689897 -0.0008438459 0.01140278 -0.0053652544
000170 85 ce ce 3c 64 a3 15 3c 60 70 89 ba 41 8c e2 bc
       0.02524496 0.009133194 -0.0010485761 -0.027654769
000180 d3 56 c6 bc 63 77 92 3b 36 d2 63 bc 28 f0 3a bc
       -0.024211323 0.0044697984 -0.013905099 -0.011409797

decodernorms.0.running_mean f4 [100]
000000 00 0e 2d 3f 08 2e a2 3e 3d 82 0b 3f a3 7d 21 3f
       0.6759949 0.31675744 0.544956 0.6308233
000010 1b 36 a5 3e 5f 3d a3 3e 70 14 be 3e b7 bd ae 3e
       0.32267842 0.3188276 0.37124968 0.34129116
000020 46 a4 03 3f b3 7e be 3e 9b 24 17 3f 6b 62 bb 3e
       0.51422536 0.3720604 0.5904023 0.36598524
000030 6d 38 ae 3e 55 bf 5a 3e 7d e2 b2 3e 30 64 ea 3e
       0.34027424 0.2136205 0.34938422 0.45779562
000040 72 18 a9 3e 69 5d 17 3f db 22 e3 3e 19 56 14 3f
       0.33026463 0.5912691 0.4436253 0.57943875
000050 d1 8a d5 3e 35 5b c5 3e 31 07 d5 3e 59 73 44 3e
       0.4170747 0.38546148 0.4160705 0.19184627
000060 70 ed 0a 3f 1b b5 e4 3e 55 e4 5f 3e 1a fa 71 3e
       0.5426855 0.44669423 0.21864446 0.23630562
000070 46 08 a3 3e e9 16 87 3e 4c a6 0f 3f 90 57 ae 3e
       0.3184225 0.26384667 0.56113124 0.3405118
000080 ca 11 ea 3e 35 ad c8 3e 50 e6 ac 3e 8e 6d 19 3f
       0.45716697 0.39194646 0.33769464 0.5993279
000090 aa b5 1b 3e 2f ee 00 3f 12 cf c9 3e 49 b8 13 3f
       0.15206018 0.5036344 0.39415795 0.5770307
0000a0 15 cd a9 3e 0d bf f8 3e 40 b1 d2 3e b6 f6 d3 3e
       0.33164278 0.4858326 0.41150856 0.41399163
0000b0 ec 58 93 3e 90 7f bf 3e aa 2b 11 3f c8 29 c2 3e
       0.2877878 0.3740201 0.5670725 0.37922502
0000c0 c9 70 17 3f d0 d3 f5 3e a2 9a c2 3e 88 fb b5 3e
       0.5915647 0.48013163 0.380086 0.35543466
0000d0 52 73 1b 3f 45 01 a5 3e 3d a3 d5 3e 96 2d d1 3e
       0.6072284 0.3222753 0.41726103 0.40855092
0000e0 6e 64 06 3f 18 74 c7 3e 8e 50 1b 3f 64 71 c6 3e
       0.52496994 0.3895576 0.6066979 0.38758385
0000f0 b0 4a b0 3e 05 11 92 3e 7d 18 99 3e e8 44 b3 3e
       0.34431982 0.2852861 0.29901496 0.3501351
000100 51 42 95 3e b4 d5 9d 3e 59 5c fe 3e 85 99 d7 3e
       0.29152158 0.30827105 0.4967983 0.42109314
000110 a9 cb d9 3e 72 54 f4 3e 89 48 f7 3e 14 15 d8 3e
       0.42538193 0.47720677 0.48297527 0.4220358
000120 58 d2 a6 3e 61 f3 92 3e 5f 78 a0 3e 49 c3 e7 3e
       0.32582355 0.28701308 0.31341836 0.45266178
000130 dd 93 e4 3e a5 95 c7 3e 51 c2 ee 3e 8a a9 02 3f
       0.4464406 0.38981357 0.46632627 0.51039946
000140 0c 83 99 3e 27 50 a4 3e 94 49 df 3e 70 cb 11 3f
       0.29982793 0.320924 0.43610823 0.56951046
000150 09 a6 6f 3e 7d 00 15 3f 58 5e a9 3e 5d 89 e8 3e
       0.23403181 0.5820387 0.3307979 0.454173
000160 13 10 be 3e 83 e5 09 3f 80 26 81 3e c6 e1 a8 3e
       0.3712164 0.5386583 0.25224686 0.3298475
000170 ae c4 11 3f 2e 6f d4 3e ed 8b 71 3e 5a 73 07 3f
       0.56940734 0.41491073 0.23588534 0.5291039
000180 b9 5e 9a 3e 49 b0 16 3f f2 fd c7 3e 71 2d 00 3f
       0.30150393 0.5886274 0.39060932 0.5006934

decodernorms.0.running_var f4 [100]
000000 91 3b 55 3f b2 18 76 3e 19 98 34 3f 0f ba 1a 3f
       0.83294016 0.24032858 0.7054458 0.6044015
000010 c3 1b 96 3e 70 e6 9c 3e 37 9b 8a 3e e1 33 d7 3e
       0.29318056 0.3064456 0.27071545 0.42031768
000020 47 5b e9 3e 97 e7 bc 3e 6a b4 40 3f d3 e8 86 3e
       0.45577452 0.3689544 0.7527529 0.26349506
000030 e2 f6 ae 3e f1 41 25 3e 3c ba c6 3e 59 f4 03 3f
       0.34172732 0.16138436 0.3881396 0.5154472
000040 5e 06 9c 3e cc 2b 5e 3f 29 f3 1a 3f 6c 24 37 3f
       0.30473608 0.8678558 0.6052728 0.7153995
000050 0d cb 02 3f bd 5b b1 3e 3c 02 0d 3f 8f f0 03 3e
       0.5109108 0.34640303 0.55081534 0.12884735
000060 16 91 f9 3e 11 d1 7f 3e 57 5c 19 3e e7 3f 4c 3e
       0.48743504 0.24982096 0.14976631 0.19946252
000070 24 ba 7a 3e 0b ec 93 3e 9d 8b 27 3f 1c 02 b6 3e
       0.2448507 0.28891024 0.6544741 0.35548484
000080 6b 5b e9 3e dc fb ab 3e 14 fb d0 3e 3e e2 44 3f
       0.4557756 0.3359059 0.40816557 0.7690772
000090 c2 71 da 3d 54 ac 13 3f 14 29 86 3e 99 35 0b 3f
       0.10666229 0.57684827 0.26203215 0.5437866
0000a0 e5 a8 c8 3e 87 1c 0c 3f 01 40 b8 3e 2e aa db 3e
       0.39191356 0.5473103 0.3598633 0.42903274
0000b0 68 93 6c 3e c7 69 a1 3e fa fc 44 3f cf d1 c9 3e
       0.23103106 0.31526014 0.7694851 0.39417884
0000c0 ef d9 3b 3f a3 3f d1 3e 17 eb c1 3e 05 2d 99 3e
       0.73379415 0.40868863 0.37874672 0.2991716
0000d0 13 49 3c 3f 4d 56 9b 3e cb 8d a2 3e e3 b2 df 3e
       0.73549 0.3033928 0.31748804 0.43691167
0000e0 b0 f8 ec 3e da 33 cb 3e b9 b3 45 3f d7 dd e2 3e
       0.46283484 0.39687997 0.7722736 0.44309875
0000f0 51 8c bc 3e c4 1e 7e 3e 98 25 2a 3e 4f 43 88 3e
       0.36825803 0.24816424 0.16615903 0.26613852
000100 f5 87 a7 3e 04 72 8a 3e c6 a4 ed 3e 44 e6 a9 3e
       0.32720914 0.27040112 0.46414775 0.3318349
000110 87 16 e7 3e 87 a7 f3 3e 4f 4d 00 3f 0b f4 d2 3e
       0.45134374 0.4758875 0.50117964 0.41201815
000120 37 6f 81 3e 21 69 36 3e ec 16 b4 3e 75 a1 23 3f
       0.25280163 0.17813541 0.35173738 0.6391824
000130 6c f2 dd 3e 2a d5 b6 3e 66 3d 1a 3f 04 d4 24 3f
       0.43349016 0.35709506 0.60249937 0.6438601
000140 bd 5d 49 3e 63 9a a5 3e 54 df d7 3e cb 1f 28 3f
       0.19664665 0.3234435 0.42162573 0.6567351
000150 2f a7 1c 3e 9c ad f5 3e 97 3b 8e 3e b0 c9 fc 3e
       0.1529815 0.47984016 0.27779838 0.49372625
000160 f0 0c f2 3e c2 9b 3c 3f 4e c1 9f 3e a4 87 9e 3e
       0.47275496 0.7367517 0.31202167 0.3096286
000170 7c b0 13 3f 9d 67 ca 3e 4c b4 7b 3e 40 d1 08 3f
       0.5769117 0.39532176 0.24580497 0.5344429
000180 8c 03 82 3e bf 80 31 3f 5c fc b2 3e a9 cc b8 3e
       0.2539333 0.69337076 0.3495816 0.36093643

mu.weight f4 [10, 100]
000000 f6 6c ae bd 48 65 fd bc 22 0e c2 bc 37 86 36 3d
       -0.085168764 -0.030932084 -0.02368838 0.04456159
000010 1f d2 bc 3d 77 1d 3a bd 2f 32 58 3d bb 12 b0 bb
       0.09219765 -0.045438256 0.052782234 -0.0053733266
000020 d2 a3 f9 bd b9 64 d1 3d 6e 3f f7 bd 1a 5f db 3d
       -0.12189449 0.102242894 -0.12072645 0.107114986
000030 ac e2 b0 3d b5 ee 93 3d 0a 1c 51 3d dc a4 01 3d
       0.08636984 0.07223264 0.05105213 0.031651363
000040 9a ae 9a 3d 00 9c c1 bd e3 3c d0 b8 59 26 c7 bd
       0.07552834 -0.09453583 -9.929554e-05 -0.09724111
000050 51 44 85 bc 23 a7 9b 3d c0 48 da 3d d1 5f 4e 3d
       -0.016267927 0.07600238 0.10658407 0.050384346
000060 97 bc 75 3d 77 5d 09 3e 14 33 7f bc d7 26 c2 bc
       0.059994306 0.1341456 -0.015576143 -0.02370016
000070 db 00 ac bc c6 2d 01 be 0b 79 cd 3d ad 8c de 3d
       -0.020996502 -0.12615117 0.10032853 0.108666755
000080 a0 db 6e 3d e6 97 02 bd fb 6d 64 3d 04 a9 b9 3d
       0.05831492 -0.031883143 0.055768948 0.0906544
000090 3d d2 4b 3c 45 2a c2 3d bf db a6 bd 96 2b 9e 3c
       0.012440261 0.094807185 -0.08147382 0.019307893
0000a0 34 ad 70 3d 8a 1c e7 3d 06 2b 92 3c 54 2a 05 3e
       0.05875893 0.1128474 0.01784278 0.13004428
0000b0 ae 52 c9 3d f3 6b fa bd c0 8d 35 bd e7 a3 11 bd
       0.09830223 -0.12227621 -0.044324636 -0.0355567
0000c0 32 33 3e 3d 61 d1 1d bd 0a fa 0c bd cb 70 18 bd
       0.046435542 -0.038529757 -0.034418143 -0.037216943
0000d0 51 e0 69 bd 58 e5 f4 3d ba 8d 81 bd 47 2e 99 3d
       -0.05709869 0.11957806 -0.0632586 0.0747953
0000e0 06 58 94 bd 5e 18 6d 3d d9 1a 04 bd 33 64 b1 3d
       -0.07243352 0.057884566 -0.032252166 0.086616896
0000f0 36 2c ba 3d cd 05 a1 b9 08 6a 65 3d ad 59 f6 bb
       0.09090464 -0.00030712635 0.056009322 -0.0075180144
000100 e8 84 29 3d 88 bf c7 bc 55 27 ca bc c7 d2 54 3c
       0.041386515 -0.024383321 -0.024676958 0.012989706
000110 c1 82 89 3b 7d 45 d5 bd 69 c0 61 3c 82 87 79 3c
       0.0041964953 -0.104136445 0.013778784 0.0152300615
000120 30 91 01 3e 55 b5 7b 3d dc b2 f0 3b aa 1d 87 bd
       0.12653041 0.06145223 0.0073455404 -0.06597455
000130 ff 51 ef 3d 72 97 e4 3c 2d de a6 3b 63 dc 13 3d
       0.116855614 0.027904246 0.0050924034 0.03609885
000140 36 48 27 bd c6 ba e7 3c 1f 05 04 be f4 6f d0 3d
       -0.04084035 0.028287303 -0.12892579 0.10177603
000150 84 94 e5 3d b1 e3 f6 bc f8 be 0b bd 97 69 24 3d
       0.11209968 -0.030137869 -0.03411767 0.04013976
000160 b3 d0 65 bd df ae d0 bc 07 a7 4f bc 03 59 b9 bd
       -0.056107234 -0.02547401 -0.0126741 -0.09050181
000170 3b 4d 5c bd 03 8a 29 3d e3 15 5e bc 09 5d 82 3d
       -0.05378459 0.041391384 -0.013555023 0.06365401
000180 33 99 b7 bd 82 b0 01 bd d9 9c 18 bd 23 4f 0b be
       -0.08964767 -0.03166247 -0.037258957 -0.13604407
000190 fe ac 52 bd 97 55 6f 3d 0a 7d d8 bd 36 d3 b6 3d
       -0.05143451 0.058431234 -0.10570724 0.08927004
0001a0 5c 91 92 3b e0 77 65 3d 52 55 37 bd 0e 74 f1 3d
       0.0044728946 0.056022525 -0.044759102 0.11789714
0001b0 20 0e 93 bc 78 22 aa 3d 0c 6b ac bd ab 33 ba bd
       -0.017951071 0.08307356 -0.08418855 -0.09091886
0001c0 d9 d1 d2 3d d9 64 2c 3c 6b b4 7d bc f2 db 94 3c
       0.102939315 0.010522091 -0.0154849095 0.018171284
0001d0 b6 19 2a bd fa 47 54 3c 1c c5 5b bd 48 d3 97 3c
       -0.041528426 0.012956614 -0.053654775 0.018533364
0001e0 bf 3f ad bb 89 7a 54 bc 07 ac 91 bd b6 36 bb bd
       -0.00528714 -0.012968668 -0.0711289 -0.09141295
0001f0 5b 85 26 bd 92 dd 8c bd 8b 17 19 bd 06 fb d2 3c
       -0.04065452 -0.06878199 -0.037375968 0.025754463
000200 23 74 b5 bd 3b ad c5 3d 0e b2 5e bc 4d 00 c6 3d
       -0.08860042 0.09652182 -0.013592256 0.09668026
000210 ef 36 a3 3d 46 e7 1d 3c f2 ed 57 bd 11 33 ae 3d
       0.07969462 0.009637659 -0.052717157 0.08505834
000220 9d 6c 93 bd c3 77 02 3c e5 f8 bd bd 74 ae ed 3d
       -0.07198451 0.007963124 -0.092759885 0.1160554
000230 25 61 6d bd 46 0c b9 bd 84 2b c5 bd c1 77 c3 bd
       -0.057953972 -0.09035544 -0.096274406 -0.095443256
000240 ac 7b 8e bb 0e 83 c9 bd 75 cf 25 bd 86 65 4c bd
       -0.004348239 -0.0983945 -0.04048105 -0.049901508
000250 ed ad 63 3d 88 68 a3 3c 1c 17 93 3c be 65 26 3d
       0.05558579 0.019947305 0.017955355 0.040624373
000260 6f d0 50 3d 59 35 d5 3d 1e f7 c3 3d d0 d6 ed bd
       0.050980028 0.10410566 0.09568618 -0.11613238
000270 80 81 6a 3d e5 49 b2 3d 55 8c 26 3d a4 15 0f be
       0.057252407 0.087055005 0.040661175 -0.13973099
000280 80 6e d2 bd 95 07 9a 3d da 51 b7 3d 7b 07 3b 3b
       -0.102749825 0.075209774 0.08951159 0.0028538394
000290 f2 52 47 3d e1 36 5f bc b2 3e 52 3d 75 b5 5b bd
       0.048663087 -0.013623924 0.051329322 -0.053639848
0002a0 c0 57 5c bc c9 73 2a 3b cc 66 2e 3d 6a 3b a9 3d
       -0.013448656 0.0026008955 0.042578503 0.082632855
0002b0 a1 42 db 3d d1 e8 7b bd ab df 0c 3e 0e 80 91 bd
       0.10706068 -0.061501328 0.13757198 -0.071045026
0002c0 e9 b7 04 be ea a9 b4 3d 7b f9 03 3e 59 d7 f7 bd
       -0.12960781 0.08821471 0.12888138 -0.12101621
0002d0 e5 d2 cb bd a9 ad 47 3c 8b 01 3f 3d bb 38 ca bd
       -0.09952334 0.0121874 0.04663233 -0.09874102
0002e0 a6 7d 91 bd 88 29 2f bd af 08 7c bd 85 7a 6b 3d
       -0.07104044 -0.042764217 -0.06153172 0.05748989
0002f0 52 97 ce bc ee 99 27 bc d1 c9 6a bd 25 c6 9d 3d
       -0.02521864 -0.010229571 -0.057321373 0.07703809
000300 3a 87 9c bd 8a f8 a3 bd 54 ab a6 bd 8d 43 9e 3c
       -0.0764298 -0.080063894 -0.08138147 0.01931932
000310 7c b7 40 be db 99 b9 3d 3c 8e f5 bd 1e 1d ee bd
       -0.18819994 0.09062549 -0.1199002 -0.116266474
000320 ee a9 c2 bd 13 f0 9a bd f1 36 ca 3c dd 66 d0 bc
       -0.09505068 -0.07565322 0.024684401 -0.025439674
000330 97 72 ce bc ea 0b 03 be 28 ce 93 3d d9 2e ce 3d
       -0.025201125 -0.12797514 0.072170556 0.10067529
000340 15 b6 96 3d fa 82 1c bd a5 8a 2f bd 56 8c 84 3c
       0.07358948 -0.038210846 -0.04285683 0.016180199
000350 6a 94 b0 bc cf b1 f1 bd 43 5d c0 3d d9 5c 9b 3b
       -0.021555144 -0.118014924 0.09392788 0.004741293
000360 c0 c3 63 3d b8 14 80 bd d2 f7 d5 3c 0b 33 6f bd
       0.055606604 -0.06253952 0.026119146 -0.058398288
000370 cd 52 9f bd 7f bd 79 bd 0c d7 da bc c8 c6 e9 bd
       -0.07779465 -0.060971733 -0.02671387 -0.11414868
000380 d0 4c f0 3c 71 71 4d bd 8a d8 2c bd a5 ab f5 bd
       0.029333502 -0.050157014 -0.042198695 -0.11995629
000390 2d ca e9 3d 01 4b 16 3c ae 08 bc bc b9 8b 86 3d
       0.11415515 0.009173156 -0.022953358 0.06569619
0003a0 1b 38 55 3d bb 27 ff 3d 30 a9 88 bc 11 48 d6 3c
       0.05205546 0.1245875 -0.016682237 0.02615741
0003b0 8e bd fa bd 94 3b ad bd 97 9a 5c 3c 61 12 06 bd
       -0.12243186 -0.08458629 0.0134645915 -0.03273237
0003c0 0d 94 a5 bc 79 c1 8a 3d 5a 11 ca bd a7 d9 a1 3d
       -0.020212198 0.06775183 -0.09866591 0.07902842
0003d0 65 73 97 3d 08 1a ae 3c 61 79 6a bd e5 f7 a1 bb
       0.07395057 0.021252647 -0.057244662 -0.0049428814
0003e0 66 df ac 3c 27 5c de bd 1a f1 4c 3c 8c 1e b8 bd
       0.021102618 -0.108574204 0.012508655 -0.08990201
0003f0 87 53 9e 3d d4 b2 08 3e af 34 07 3d 65 4b b5 bd
       0.07730775 0.13349468 0.033009227 -0.08852271

mu.bias f4 [10]
000000 ae e0 7d 3d eb d4 86 bd 64 61 c5 bd 95 8c e8 3d
       0.06198185 -0.0658358 -0.096377164 0.11354939
000010 be 39 1e bd 83 a9 28 bd 4f 00 93 bd f7 1f 27 3d
       -0.038629286 -0.041177284 -0.07177793 0.04080197
000020 c7 39 9b bd 9f b3 6c bd
       -0.075793795 -0.057788488
