tutorial/interim_data_test/models/model_10_15.pt (torch, 78273 bytes, 18 tensors)

encoderlayers.0.weight f4 [100, 70]
000000 9c 16 08 be af 1e 22 3d 45 b1 47 bd b9 90 ce 3b
       -0.13289875 0.039580043 -0.04875304 0.0063038734
000010 70 0c ce 3d 38 c4 c8 bd ac 97 9b 3d 7b f5 23 bd
       0.10060966 -0.09803051 0.075972885 -0.04002903
000020 13 1f fd bd 69 0a 0d 3e 42 96 22 bc 3b 7b 23 bd
       -0.123594426 0.13773502 -0.00992352 -0.039912444
000030 69 52 55 3c 96 ed 12 bd ff cb f7 3d 16 4b 87 3d
       0.013020136 -0.03587111 0.12099456 0.066061184
000040 f3 b9 a4 bc 7a 78 a5 bd 8b 78 84 3d 8b 2c a5 bd
       -0.020108199 -0.0807962 0.06468304 -0.080651365
000050 ba c0 95 3d 49 0f 04 bd cf 9d 89 bd ab 1f 0c bb
       0.0731215 -0.03224114 -0.06719553 -0.002138118
000060 f5 fe c5 bb 70 37 c4 bd f8 37 78 bd 2f 82 e0 bc
       -0.006042356 -0.09580886 -0.06060025 -0.027405826
000070 c5 e5 53 bd 87 0c 36 bd 73 18 ee 3c 93 ed c0 bd
       -0.051732797 -0.04444554 0.029064393 -0.09420314
000080 23 9d 55 3d a9 c3 26 bd ee a7 6a ba 7d 04 bb bd
       0.05215181 -0.04071394 -0.0008951415 -0.091317154
000090 ff 6a 9f bd 2c a6 fc 3d cb 42 d5 3d 90 28 cd ba
       -0.0778408 0.12336382 0.104131304 -0.0015652347
0000a0 27 86 56 3d 63 b3 f5 3d 8e 3a 9f 3d 51 0d b4 bd
       0.05237403 0.11997106 0.0777484 -0.087916024
0000b0 b1 8a 3b 3d 7e fe a6 bd e7 3c 5f bd 7e a7 ce bc
       0.045786563 -0.08154009 -0.05450144 -0.02522635
0000c0 68 03 5b bd 7a 99 9b 3c 91 da 9d bc 9b 06 c7 3a
       -0.053470045 0.018994082 -0.01926926 0.0015184464
0000d0 e0 fa c8 bc da 2d 92 bc c6 10 c6 bd eb f7 6b bd
       -0.024533689 -0.01784413 -0.09671168 -0.05760948
0000e0 4a 6c 67 3d 87 69 ac 3d 73 a8 18 bd e6 53 91 bd
       0.056499757 0.08418565 -0.03727002 -0.070960805
0000f0 d9 f5 46 3d 34 dc da 3d 1a 88 4f 3d 14 53 c9 3d
       0.048574302 0.10686532 0.050666906 0.09830299
000100 f0 9d 94 bc 7d 0a 35 bd ee 3a 0b 3c 82 43 97 bd
       -0.018141717 -0.044199456 0.008497937 -0.07385923
000110 0c 75 e9 bc d9 a0 a3 3d 3e 3f b5 3d 51 23 87 3d
       -0.028498195 0.07989664 0.08849953 0.06598533
000120 26 b9 7a bd 62 32 a1 bd 78 db 1e bd c3 e4 16 3d
       -0.061211728 -0.07870938 -0.03878352 0.036839258
000130 0e e3 99 3d 88 24 72 bd b0 e6 8e bc cf 47 b3 3d
       0.0751401 -0.05911687 -0.017443985 0.08753931
000140 ce 94 32 3c 34 ce 51 3d 46 ef 1a 3d cc 93 c5 bd
       0.010899736 0.05122204 0.037825845 -0.09647331
000150 07 57 03 3d a8 33 dd 3d f7 4d 97 bb b6 25 41 3d
       0.032065418 0.10800868 -0.0046174484 0.047155105
000160 11 75 09 3d 97 b3 2d 3d f5 45 e4 bd da 38 dd bd
       0.03355891 0.0424076 -0.11146156 -0.10801859
000170 7c a1 a9 3d 03 71 81 bd 97 d8 a0 bd 44 9c b6 bd
       0.08282754 -0.063203834 -0.07853811 -0.08916524
000180 4d 92 06 be c9 3b c0 bd 24 e8 89 bc d9 44 d0 3d
       -0.13141747 -0.09386403 -0.016834326 0.10169382
000190 5d 92 83 3d 85 db d6 3d 7e 34 b4 bd 37 4b 41 bd
       0.06424401 0.10491089 -0.087990746 -0.04719087
0001a0 a6 7a b0 3d 06 32 94 bc eb 78 3a bd f9 35 dc 3d
       0.08617143 -0.01809026 -0.045525473 0.10752482
0001b0 27 3c 8b 3d 5a 1e e7 3d 63 a8 08 bd 37 65 b2 bd
       0.067985825 0.11285086 -0.03336371 -0.087107114
0001c0 ca f7 ea 3c 65 d6 8f bd fe e9 f5 3d 10 61 e1 3d
       0.028682608 -0.070233144 0.12007521 0.11004841
0001d0 de 64 03 be 38 7d c8 bd a1 3a 83 bd e7 3b 7a 3c
       -0.12831447 -0.097895086 -0.06407667 0.015273071
0001e0 7b 10 ff 3c b1 2e a4 bd df 7c ba bd 09 ef ce 3d
       0.031135788 -0.08016718 -0.091058485 0.10104186
0001f0 c3 a2 59 3d 43 f1 1c 3c d3 6d 56 bd a0 8b e0 bd
       0.053133737 0.009579006 -0.05235083 -0.10964131
000200 56 9a e2 bc fd 7a 99 3d f3 d0 3c 3d c4 9f b1 3d
       -0.027661484 0.07494161 0.046097707 0.08673051
000210 8d 02 15 3d 1e 64 a2 3d b1 0a d3 39 50 d2 99 3d
       0.036379386 0.07929252 0.00040253022 0.07510817
000220 74 60 57 bd 41 0d dc bd 3d 94 af 3a 6f 44 2e 3d
       -0.05258222 -0.107447155 0.0013395619 0.042545732
000230 24 da ba bd 25 bb 35 3c 22 a5 43 bb 24 5b 94 3d
       -0.09123638 0.011091982 -0.0029853065 0.07243946
000240 17 84 7f 3d 2c dc df 3d c7 a0 ae 3d 70 2e 18 be
       0.06238183 0.10930666 0.085267596 -0.14861465
000250 46 79 d3 bd 28 c4 5d ba f5 1f 64 bc be 99 b7 3c
       -0.103258654 -0.00084597105 -0.013923635 0.022412177
000260 fd b7 52 bd 5c a9 f9 bc de b9 a0 3d 8e 3d 17 3c
       -0.051444996 -0.030476265 0.07847951 0.009230984
000270 e5 f2 84 bc ec d4 aa 3d 03 1f c8 3d d1 1d 32 bd
       -0.016229102 0.08341393 0.0977154 -0.043485466
000280 c5 09 56 3d b9 dd 1f bd df 10 49 3c f1 5d b0 bb
       0.05225541 -0.03902981 0.012272089 -0.0053822924
000290 a1 be b4 bd 2b fc ec bd c3 6d 13 bd d0 07 8f 3c
       -0.08825422 -0.11571535 -0.03599335 0.01745978
0002a0 37 48 86 bd a8 c2 63 3d ac 54 b0 3d 0b 0d c7 3d
       -0.06556743 0.05560556 0.086099 0.097192846
0002b0 e7 78 c6 3c 1a 9d 8a 3c f8 25 28 3d a2 43 d4 bc
       0.024227573 0.016920615 0.041051835 -0.025911156
0002c0 40 5f be 3d d5 13 b1 3c 34 3a cb 3d f4 4b a8 3d
       0.09295511 0.021615902 0.09923211 0.08217612
0002d0 8f 68 18 3d 7b 55 bb bd fa 70 91 bd db 63 8a bd
       0.03720909 -0.091471635 -0.07101627 -0.06757327
0002e0 41 b2 97 3b 53 68 8f bd 95 d5 9e bc df 4c f2 3c
       0.004629404 -0.0700232 -0.019388953 0.02957767
0002f0 f2 44 b1 3d 83 b6 c6 bd db ec 93 3d d2 e2 2c 3d
       0.086557284 -0.0970278 0.07222911 0.0422085
000300 21 08 ba 3b 05 eb 39 bd 0a df 05 3d a9 1a 77 3c
       0.0056772386 -0.045390148 0.03268341 0.01508204
000310 6d 49 12 bd 86 f7 37 bc f4 19 c8 3d 5d b4 a9 bb
       -0.035714556 -0.011228448 0.09770575 -0.0051789717
000320 c0 8a ae 3c 53 cb 16 3c ad 51 01 3d e8 7d d6 bc
       0.021306396 0.00920375 0.031572033 -0.026183084
000330 50 30 1a bd b1 8f b7 bd 48 f5 fb 3a e3 69 3f bd
       -0.03764373 -0.08962954 0.001922288 -0.04673184
000340 cb 9c a0 bd b0 64 58 bd 2b bb 0f bd 51 f3 87 bd
       -0.07842406 -0.052830398 -0.035090607 -0.06638206
000350 0d 63 62 3d 91 fe de bc 54 3c 4a 3c 92 aa ab 3d
       0.055270243 -0.027220996 0.012343485 0.08382143
000360 00 aa eb 3c d8 0f 14 bc 62 5d e7 bd 84 43 6a 3d
       0.028767586 -0.009036981 -0.11297108 0.057193294
000370 54 b8 a6 3d 4a 55 8b bc 74 ce f1 bb de d8 de 3d
       0.081406265 -0.017008442 -0.0073793475 0.10881208
000380 38 2e 73 3d 21 49 a4 3d 9a 67 7f 3b 92 ad 12 3d
       0.05937025 0.08021761 0.0038971663 0.03581006
000390 e0 a3 4e 3d 55 ad 7b 3d c5 ae 9a bd 27 88 3b 3d
       0.050449252 0.0614446 -0.07552866 0.045784142
0003a0 03 b6 b9 bc 80 36 b3 bd fb ae ce 3d 10 7e ea bd
       -0.022669798 -0.087506294 0.100919686 -0.11449826
0003b0 40 7a a6 bd 33 3f ec bb fc 2b f2 3b f0 f3 99 ba
       -0.08128786 -0.0072096824 0.0073904973 -0.0011745673
0003c0 97 e6 09 3a ed ec 04 bd 75 8b 98 3d 9a 6b 8a 3b
       0.0005260496 -0.032452513 0.07448474 0.004224253
0003d0 4b 2e 83 3d b1 a8 81 3d 4e 84 a1 bd 73 46 8a bd
       0.06405314 0.063310035 -0.07886563 -0.06751718
0003e0 63 93 c6 3d 44 9f 96 bd 12 66 7f bd 1b 94 4a 3d
       0.096960805 -0.07354596 -0.0623532 0.04945765
0003f0 13 8b 64 3d f5 3a 09 be c9 67 9f 3d 04 1e 02 3d
       0.055796694 -0.13401397 0.07783467 0.031766906

encoderlayers.0.bias f4 [100]
000000 98 ae aa 3d b8 16 c5 bd f8 e6 98 3d 99 7e 60 3d
       0.08334082 -0.09623474 0.07465929 0.054808233
000010 91 3d 48 3d 02 5f 20 bd 4c e5 8e 3d df 9a b1 bd
       0.04888684 -0.039153107 0.06977329 -0.086721174
000020 3a 1d 8b bd ab 74 bd 3c 88 fb de bd 15 ee cf 3c
       -0.06792684 0.02312692 -0.108878195 0.025382081
000030 36 2c de 3d 24 4e a8 bd 72 2f be bc 18 2c 88 3d
       0.10848276 -0.08218029 -0.023215983 0.06649035
000040 94 4e 83 3d 10 04 3f bd 46 76 ac 3d f7 95 2e 3d
       0.06411472 -0.046634734 0.08420996 0.042623486
000050 77 13 c6 3c e4 5a 54 3d 29 5f e8 bd e7 a7 07 3e
       0.024179203 0.051844493 -0.11346275 0.13247643
000060 7e a1 d1 bd 87 56 86 3d 6a e1 54 3d 0a 07 9a bd
       -0.1023588 0.065594725 0.051972784 -0.07520874
000070 2b b0 5f bd f9 af e1 3d ac c2 2e 3c 20 1f cd 3d
       -0.054611366 0.11019892 0.010666531 0.10015702
000080 a2 63 6f 3d b1 49 32 3d f2 b8 30 3c ae 90 2b bd
       0.058444627 0.04352731 0.010786282 -0.041886024
000090 b3 e9 a6 3c 93 bd 59 bc 99 80 2d 3d 45 cc 8b 3d
       0.020375108 -0.013289827 0.04235897 0.06826071
0000a0 56 68 8a 3c a9 49 62 3d d6 41 b8 3d 3d bd f8 3d
       0.016895454 0.05524603 0.08996932 0.12145469
0000b0 c6 8c 13 bd cd 01 51 3d 14 7a ba bd ad 36 3d 3d
       -0.036022924 0.051027108 -0.09105316 0.04619472
0000c0 90 09 dc 3c 27 0c a2 bb 56 45 ff 3c 82 d2 b6 bd
       0.026860029 -0.0049452963 0.031160992 -0.0892687
0000d0 d1 f9 f2 3d 3e 8c c7 3d 9e 1c 91 3d e7 ca 8c bd
       0.11864055 0.09743546 0.070855364 -0.06874638
0000e0 4e 26 93 3d 76 10 ba 3c cd 62 b7 3d 25 3b de 3d
       0.071850404 0.022712927 0.08954392 0.10851125
0000f0 a9 ef 39 3c 51 bb 24 bd 2e 27 e2 3d 2b 64 7c bd
       0.011348643 -0.0402177 0.11042629 -0.061618965
000100 69 3e a0 bd de 8e 27 bd 71 1f f3 3c bb a1 e4 3d
       -0.07824404 -0.040907733 0.029678078 0.1116366
000110 79 3a ed bd 3e 42 39 bd 1d 1a a3 3d 86 13 50 3d
       -0.115834184 -0.04522919 0.07963965 0.05079987
000120 7b cf fe 3d 03 a1 c8 3d fa 77 6f bd 64 fe e5 3c
       0.124419175 0.097963355 -0.058464028 0.028075404
000130 b2 36 43 bc ee 66 e2 bc 68 2c e9 3d ce 24 b0 bc
       -0.011914896 -0.027636971 0.11385423 -0.021501925
000140 05 db ae bd d6 03 0c 3e 4d c0 aa 3d 40 85 82 bd
       -0.085378684 0.13673338 0.0833746 -0.06373072
000150 f3 28 14 bd 62 e8 4b 3d 16 4a 8b bc 6b 4f c3 bd
       -0.036171865 0.049782164 -0.0170031 -0.09536632
000160 ce 63 9c 3d fd 1b 0a bd af 67 f3 bc f7 19 58 bc
       0.07636224 -0.033718098 -0.029712526 -0.013189784
000170 c6 84 5f 3c 20 d3 3e 3d 03 d6 cc bd c1 b6 8d 3d
       0.0136424955 0.046588063 -0.10001757 0.06919623
000180 6e d4 85 bd d0 d2 bd 3d de 48 e8 bc 46 e7 0c bd
       -0.06534658 0.09268725 -0.028355058 -0.034400247

encodernorms.0.weight f4 [100]
000000 8f 0b 86 3f 60 61 86 3f 6d 78 85 3f 7f 86 85 3f
       1.0472277 1.0498466 1.0427376 1.043167
000010 12 a6 86 3f 39 d6 82 3f 8c ac 81 3f d3 1d 87 3f
       1.0519431 1.0221626 1.0130782 1.0555977
000020 b7 f3 81 3f f3 50 82 3f 01 10 86 3f 5f 72 7f 3f
       1.0152501 1.0180954 1.0473634 0.9978389
000030 8b cf 83 3f 49 6d 83 3f 56 2a 83 3f 9f 0d 83 3f
       1.0297712 1.0267726 1.0247295 1.0238532
000040 79 32 82 3f 63 b9 85 3f 60 10 86 3f c4 e9 81 3f
       1.0171653 1.04472 1.0473747 1.0149465
000050 3f 75 80 3f b8 0e 8a 3f 6e 0b 80 3f e2 b5 82 3f
       1.0035781 1.0785742 1.0003488 1.0211756
000060 d7 de 85 3f d4 fe 83 3f 06 49 82 3f 01 cf 81 3f
       1.045863 1.0312142 1.0178535 1.0141298
000070 07 e1 87 3f c3 e4 84 3f b0 f4 84 3f dc 7d 83 3f
       1.0615548 1.0382313 1.0387173 1.0272784
000080 65 43 83 3f af 54 82 3f 47 c0 82 3f 2a 10 89 3f
       1.0254942 1.0182093 1.0214928 1.0708058
000090 a4 33 85 3f fb af 83 3f c5 92 81 3f a8 d4 87 3f
       1.0406384 1.028808 1.0122916 1.0611773
0000a0 ca f5 84 3f f8 11 82 3f 71 53 83 3f f4 43 83 3f
       1.0387509 1.0161734 1.0259839 1.0255113
0000b0 ad 6e 85 3f d9 fa 85 3f cb e3 87 3f 95 c6 83 3f
       1.04244 1.0467178 1.0616392 1.0294977
0000c0 cd c5 83 3f 30 de 85 3f 41 b5 80 3f 16 a0 81 3f
       1.0294739 1.0458431 1.0055314 1.0126979
0000d0 82 ed 84 3f cc 3d 86 3f e2 95 80 3f 47 3a 85 3f
       1.0384982 1.0487609 1.0045741 1.040841
0000e0 a5 5f 84 3f 5a 3f 86 3f 2f 9b 84 3f df 2d 87 3f
       1.0341688 1.0488083 1.0359858 1.0560874
0000f0 70 ec 81 3f ef 4f 82 3f df a9 84 3f 89 1e 87 3f
       1.015028 1.0180644 1.036434 1.0556194
000100 96 75 87 3f 31 c2 82 3f b4 ff 84 3f 0d 7b 83 3f
       1.0582759 1.0215513 1.0390534 1.0271927
000110 ae 9c 88 3f 8f 02 84 3f 02 85 81 3f 5a f7 83 3f
       1.0672815 1.0313281 1.0118716 1.0309861
000120 6d 2d 81 3f 68 09 88 3f 40 a2 85 3f 2d ad 84 3f
       1.0091988 1.062787 1.044014 1.0365349
000130 a4 2d 83 3f ed d2 84 3f f9 a2 82 3f 66 cf 85 3f
       1.0248303 1.037687 1.0205985 1.0453918
000140 9c e7 81 3f 92 67 88 3f 02 f8 86 3f 34 f4 85 3f
       1.0148807 1.0656607 1.0544436 1.046515
000150 8e 05 87 3f 65 26 85 3f f2 e1 85 3f 13 ae 87 3f
       1.054857 1.0402342 1.0459578 1.0599998
000160 49 d2 84 3f 2e 9c 81 3f a4 2a 82 3f b8 19 86 3f
       1.0376674 1.0125787 1.0169263 1.0476599
000170 c8 e3 85 3f 0f d3 86 3f 76 89 7e 3f df a1 86 3f
       1.0460138 1.053316 0.994285 1.0518149
000180 f3 51 84 3f ef 43 86 3f fd 4f 85 3f 0b 41 80 3f
       1.0337509 1.0489482 1.0415035 1.001985

encodernorms.0.bias f4 [100]
000000 2b 2e 99 bd 95 c1 14 bd a8 9c 09 bd 77 5d 8f bd
       -0.07479509 -0.036317427 -0.033596665 -0.07000249
000010 48 67 17 3d 89 a8 70 3c 81 46 81 bd e9 a9 03 bd
       0.03696373 0.014688619 -0.06312276 -0.03214446
000020 5e 9d 8f bd ab ea 76 3d bc 22 5a 3d 98 13 08 bd
       -0.07012437 0.06028239 0.05325578 -0.03322181
000030 e7 0a b6 3c 7f 02 3d 3b 10 b6 80 bd 2c 8e 3e bc
       0.022221996 0.00288406 -0.06284726 -0.011630576
000040 1f 8e 92 3b 30 43 c0 3c 46 96 f4 3b 1c 41 9d bd
       0.0044725086 0.023469537 0.007464203 -0.07678434
000050 db 44 96 3d 5d 72 a4 3d d3 09 d5 bd 39 45 5c bb
       0.07337352 0.080296256 -0.104022644 -0.0033610596
000060 00 66 61 3b 67 3e 34 3d 39 36 43 3d b7 78 a7 3d
       0.0034393072 0.044004824 0.047659133 0.081773214
000070 23 04 84 3c e0 bc 29 3b f3 eb 08 3d f1 f5 18 bd
       0.016115254 0.0025899932 0.033428144 -0.037343923
000080 c2 63 23 3d 47 2b 3b bd 94 72 e4 3b 91 78 a7 bd
       0.03989006 -0.04569557 0.0069716666 -0.08177293
000090 12 55 bb bd c8 37 bc bd 70 33 2d bd 8d 52 9d 3b
       -0.09147085 -0.09190327 -0.042285383 0.0048011006
0000a0 ca 2c a4 bd d6 72 36 3d 40 b1 9b bc af 29 a0 bc
       -0.08016355 0.04454311 -0.019005418 -0.019551126
0000b0 f1 ae aa bd ac ea 95 bd 15 2c 3b 3d 6a 54 eb 3c
       -0.08334149 -0.07320151 0.045696337 0.028726775
0000c0 da dd a8 3d 12 75 38 3d a8 37 c4 3c fc 54 4b 3d
       0.0824544 0.045033522 0.02395232 0.049641594
0000d0 6e f1 08 3c 35 9a 64 3c 0d 58 08 3d ac 47 f1 3c
       0.008358343 0.013952781 0.033287097 0.029453121
0000e0 8a 0f 3d bd 52 2a b0 3d b2 47 a6 bc 18 06 b8 bb
       -0.046157397 0.08601822 -0.020297859 -0.005615961
0000f0 4d 95 e1 bd 42 ee 94 bd a6 a0 8e bb 4a d9 c2 bb
       -0.11014805 -0.072720066 -0.004352647 -0.005946313
000100 14 20 28 3c 2b f3 b6 3c d5 ef 74 3c 0f 58 44 3d
       0.010261554 0.022332748 0.014949759 0.04793554
000110 33 bc 52 3d e4 b6 c5 bd 04 67 11 3d 71 3b 25 3c
       0.051449012 -0.09654024 0.035498634 0.010084973
000120 04 4a 3d 3d a3 3d 67 3d 14 ec 99 3d 96 b4 3e bd
       0.046213165 0.056455266 0.075157315 -0.04655894
000130 e1 2e c4 bc 88 dc 0a bd 7d 53 c0 bc 60 7c 2a bd
       -0.023948135 -0.03390172 -0.02347731 -0.04162252
000140 9d 0e 28 3d 45 3e 28 3d 96 aa 4a bd 6f 83 29 3c
       0.04102956 0.04107501 -0.04947909 0.010346278
000150 1b 9d 5c 3d 77 cf 8b bb 86 6c 60 bc a8 52 c1 bd
       0.053860765 -0.004266675 -0.013697749 -0.094395936
000160 58 58 60 bd 96 d4 41 bd c6 2d a2 bc fa 70 8d 3d
       -0.05477175 -0.04732188 -0.019797217 0.06906314
000170 9c a2 d0 bd a7 64 16 bc ba 28 86 bb f0 0c 61 3d
       -0.10187265 -0.009179271 -0.0040942105 0.05494398
000180 21 27 bc 3c a3 c9 fb ba 3c 5d 64 3c 01 b1 13 bd
       0.022967877 -0.0019209873 0.013938244 -0.036057476

encodernorms.0.running_mean f4 [100]
000000 eb 7c dd 3d c3 93 d8 3d c8 cf 82 3e c6 4d ca 3e
       0.10814842 0.10575058 0.2554915 0.3951246
000010 17 32 d4 3e df 0f 78 3d 0c ff a1 3c 01 0d 9f 3d
       0.41444466 0.06056201 0.019774936 0.07766152
000020 26 06 3f bb 05 bb a1 3d 53 2f 91 3e de d2 61 bb
       -0.0029147952 0.07896999 0.28356418 -0.0034457962
000030 a5 b6 31 3e 3d 1b 59 3e fa 38 1c 3e 85 ac 9e 3e
       0.1735483 0.21201797 0.1525611 0.30990997
000040 e5 35 43 3d 09 66 80 3e 3c 5b a6 3e 77 15 8e 3d
       0.04765882 0.25077847 0.3249148 0.06937688
000050 f0 f1 fa 3d 88 c6 77 3e bc a3 13 3e 9d 43 9d 3e
       0.12253177 0.24196827 0.14417928 0.30715647
000060 d4 0e c7 3d 70 1d ab 3e 54 1d 44 3e 2f 51 b0 3c
       0.09719625 0.33420897 0.19151813 0.021523086
000070 ef 58 bb 3d 40 d1 1a 3e d8 87 31 3e 64 ef 6f 3e
       0.09147822 0.15118885 0.17336977 0.23431164
000080 32 79 26 3e 68 46 e2 3e b8 a0 28 3c e9 b4 94 3e
       0.1625717 0.4419434 0.010292225 0.29044273
000090 d8 87 90 3e 5a 3a 01 3d 73 ff fd 3d 56 1c cc 3e
       0.2822864 0.03154979 0.12402239 0.3986537
0000a0 99 84 9f 3d e0 06 03 3e f3 20 d5 3d b6 e6 0b 3e
       0.07788963 0.12795591 0.10406675 0.13662228
0000b0 f9 49 6c 3e 6f 32 4d 3e e6 4c b0 3b 19 17 f3 3d
       0.23075093 0.2003877 0.0053802608 0.1186964
0000c0 62 b1 0d 3e ec bb 72 3e f2 98 94 3e fe 7a d0 3e
       0.13837197 0.23704499 0.29022938 0.40718836
0000d0 ac bb 9d 3d a7 76 e9 3e 08 04 1d 3d fd c3 30 3e
       0.07701811 0.45598337 0.038333923 0.17262264
0000e0 90 b6 00 3f 4c 03 b6 3e ff 60 51 3e 1e 42 8a 3e
       0.5027857 0.3554939 0.20447157 0.27003568
0000f0 4c b7 83 3e a4 0c 68 3e 0d b7 b1 3e fc 55 9c 3d
       0.25725782 0.22661072 0.3470997 0.07633588
000100 d0 ac bb 3e 32 72 b2 3e 89 92 2f 3e c6 f4 31 3e
       0.36655283 0.3485275 0.17145742 0.1737853
000110 ab 60 5e 3c 23 2b b9 3e 73 f7 8a 3e e1 21 e1 3c
       0.013572852 0.36165723 0.27141914 0.027481975
000120 ca 25 c5 3e e3 a9 c5 3e 3e f6 58 3e 14 ac 9a 3d
       0.38505393 0.38606176 0.21187684 0.075523525
000130 75 9a 01 3f 12 b5 a1 3e 69 2b b2 3e 2c 3a a8 3e
       0.5062631 0.31583458 0.34798744 0.32856882
000140 47 c7 3f 3d 8b 2a 94 3e c7 5d 9e 3e e4 e1 7b 3e
       0.046820905 0.28938708 0.3093092 0.24597889
000150 4b 86 b2 3e a0 9b 66 3e fc 60 44 3e db 8a ca 3e
       0.34868082 0.22520304 0.19177622 0.39559063
000160 e8 16 f9 3d bd b1 09 3e 39 08 ae 3d 21 3f af 3e
       0.12162572 0.13446708 0.08497662 0.3422785
000170 4e ca d5 3e 23 1c 39 3e 70 21 62 3d 25 8d 9b 3e
       0.4175591 0.1807714 0.05520767 0.30381122
000180 b1 ce cb bb ab 0b b8 3e 71 cc 8f 3e 02 72 15 3e
       -0.006219708 0.35946402 0.28085664 0.14594272

encodernorms.0.running_var f4 [100]
000000 02 17 34 3d 22 f3 17 3d d6 d1 7f 3d 5b 32 29 3e
       0.043967254 0.037097104 0.062455975 0.16523115
000010 cc 98 ec 3d 7a 54 b7 3c 03 b8 18 3c 97 c9 e6 3c
       0.11552581 0.022379149 0.009321216 0.028172297
000020 8f eb 9c 3a 8b 12 fd 3c 1b f7 14 3e 6a 4e 29 3a
       0.0011972057 0.030892631 0.14547388 0.0006458523
000030 10 6f 95 3d 58 57 99 3d c1 0e 30 3d 6d 6c cd 3d
       0.07296574 0.074873626 0.04298282 0.10030446
000040 e4 3e a2 3c 34 ff cf 3d d2 c2 c1 3d 6a 99 de 3c
       0.01980538 0.10156098 0.09460987 0.027172763
000050 68 00 31 3d 7f 9a bc 3d d7 2a 44 3d b3 07 f1 3d
       0.043213278 0.09209155 0.047892418 0.11769047
000060 61 99 57 3d 92 64 d5 3d 24 03 bb 3d 9d e4 10 3c
       0.052636508 0.10419573 0.091314584 0.008843568
000070 42 d1 10 3d c3 27 6f 3d 4f 47 67 3d b0 78 b4 3d
       0.035355814 0.05838753 0.05646449 0.08812082
000080 85 3e 64 3d 4f 2e 12 3e 72 a9 9a 3b 4e ab e2 3d
       0.055723686 0.14275478 0.0047199065 0.1106783
000090 84 61 09 3e 75 6f 66 3c c6 a9 1f 3d 3b b9 e6 3d
       0.13416106 0.014064659 0.038980268 0.11265799
0000a0 93 57 d8 3c 20 3b 62 3d 9b f7 23 3d 7e bb 65 3d
       0.026408946 0.055232167 0.040031057 0.05608701
0000b0 88 20 ae 3d ac f9 86 3d f5 96 9c 3b 15 2f 6c 3d
       0.085022986 0.0659059 0.0047787377 0.05766209
0000c0 42 f8 7c 3d d4 6a b4 3d d6 af d5 3d 29 d6 12 3e
       0.061760195 0.08809438 0.10433929 0.14339508
0000d0 ad 9e 0c 3d 24 22 0d 3e 2c 6d 47 3c ae 2f 8a 3d
       0.034331013 0.13782555 0.012172025 0.067473754
0000e0 e9 87 33 3e bc 2e 07 3e 5a 33 89 3d ff f9 d8 3d
       0.17532314 0.13201421 0.06699248 0.10594558
0000f0 d5 72 c2 3d e3 f8 b2 3d 49 8f dd 3d 95 fd 0f 3d
       0.09494559 0.087388776 0.10818345 0.035153944
000100 bd 23 f1 3d dd fd c5 3d 80 b0 9b 3d 0b bd 7c 3d
       0.11774395 0.09667561 0.07602024 0.061703723
000110 23 53 0b 3c 9e 4d 18 3e 5f 6c f4 3d 94 3c 3b 3c
       0.008503708 0.14873359 0.11934733 0.011428017
000120 8a 04 04 3e 71 d2 1c 3e ea f9 c6 3d 7e 55 1c 3d
       0.12892357 0.15314652 0.09715636 0.03816747
000130 d1 e1 21 3e cf 71 d4 3d 14 1d f1 3d ef e3 d4 3d
       0.15808798 0.1037327 0.11773124 0.103950374
000140 ae 37 9b 3c fd c9 bb 3d d0 ee ca 3d ab 70 e2 3d
       0.018947449 0.091693856 0.09908831 0.11056646
000150 03 64 00 3e 50 5a 95 3d 76 13 a1 3d e0 c0 f6 3d
       0.12538151 0.07292616 0.0786504 0.12048507
000160 ae ab 5a 3d b4 df 53 3d b8 1e 13 3d 20 81 ee 3d
       0.053386383 0.05172701 0.035917968 0.116457224
000170 f5 22 2d 3e c6 23 89 3d 02 8a c5 3c f2 c9 db 3d
       0.16907866 0.06696276 0.024113659 0.107318774
000180 ad 4d 62 3a dc 6a f5 3d 6d 53 c1 3d b3 32 74 3d
       0.00086327904 0.119832724 0.0943974 0.059618663

decoderlayers.0.weight f4 [100, 10]
000000 6c 9c 9c 3e 0c 4c ae 3d 70 28 c5 bd 26 3e 0a 3e
       0.3058809 0.085105985 -0.096268535 0.1350027
000010 9e 59 b1 bd 6f 03 90 be ac bd 25 be e8 52 1c be
       -0.08659671 -0.2812762 -0.16185635 -0.15266001
000020 5a 49 31 3e cf 7a b7 bd e9 4a b1 3d 3a 3a c7 bd
       0.17313138 -0.08958971 0.08656866 -0.09727903
000030 57 29 90 bd 88 c5 7c be e3 8d 37 bd 52 fe 3d be
       -0.07039135 -0.24684727 -0.044813048 -0.18554047
000040 3f 6c 55 be ac f4 8c be 14 37 3a be e8 1a b8 3d
       -0.20842074 -0.2753042 -0.18185073 0.08989507
000050 20 56 95 3e e0 65 8f 3e c8 af 81 3e c3 69 bd bd
       0.2916727 0.28007412 0.25329423 -0.09248688
000060 6a 25 95 be 26 5a 30 3e 07 97 1f be 81 f1 6a 3a
       -0.29130107 0.17221889 -0.15584956 0.00089623785
000070 26 a2 5a be 7d 30 f8 3d af 2b 90 bd b0 91 31 3e
       -0.21350917 0.121186234 -0.07039582 0.17340732
000080 3e b8 03 3d 11 37 15 3e ea a1 5e 3e 3d 0d 88 3e
       0.03215813 0.14571787 0.21741453 0.265726
000090 bf ba 45 3e 00 1a 73 be 8a 2f 61 3e d8 a2 57 3e
       0.19309519 -0.23740387 0.21990791 0.21058214
0000a0 d2 a9 44 bc 86 07 87 be 61 08 e9 bd 13 f3 19 bb
       -0.012003379 -0.26372927 -0.11378551 -0.002349083
0000b0 45 a0 47 3e aa 99 78 be 7b 87 71 be 1f 5b 82 bd
       0.19494732 -0.24277368 -0.23586838 -0.06365036
0000c0 25 c9 96 3e 0e de e0 bd 78 83 22 be 30 59 05 3d
       0.29450336 -0.109798536 -0.15870464 0.03255576
0000d0 d9 5c 42 be 1b b6 ac 3d 00 a6 1a be 71 70 0e 3e
       -0.18980731 0.08433171 -0.15102386 0.1391008
0000e0 0a 98 99 3c 68 f4 1a 3e 13 7a 0f be a3 15 a8 be
       0.018749256 0.15132296 -0.14011411 -0.32829008
0000f0 e7 be 9b 3e 31 52 ab bd 6b 0a 6a be 2a a8 98 3d
       0.30419084 -0.08365286 -0.22855537 0.0745395
000100 ed 33 9c be fe ac 8d be 14 b4 95 3d f5 38 25 be
       -0.30508366 -0.27671045 0.07309738 -0.16135009
000110 07 31 61 be 85 f4 85 be 7c d7 5f be af 80 13 be
       -0.21991359 -0.26163116 -0.21859545 -0.14404558
000120 2b 18 a3 bd 64 31 80 3d 56 a1 a1 bc 58 d0 72 3e
       -0.07963594 0.062594205 -0.019730251 0.2371229
000130 db ad 35 be 06 eb a9 3e fe 04 f3 3c e7 40 6c 3c
       -0.17742102 0.3318712 0.029665466 0.014419771
000140 ad 0e 89 bd 69 b4 fa bd 81 5b 59 bc 68 1e 6b bd
       -0.06692252 -0.12241442 -0.013266445 -0.057402045
000150 1c 6e af bc 38 ee 61 3e b8 4e 34 be 23 93 23 3e
       -0.021414809 0.2206353 -0.17608154 0.15974097
000160 6f 67 9e be 12 d2 a2 be df 1c 9c bc 78 22 02 be
       -0.3093829 -0.31800896 -0.019056736 -0.12708461
000170 ca f8 8c 3e e9 3c 96 3e 8e 38 75 3e fd 62 88 3d
       0.2753356 0.29343346 0.23947355 0.066595055
000180 84 0f 89 bc c1 35 b7 bd 92 76 19 be 25 ae a0 be
       -0.016731031 -0.089457996 -0.14986637 -0.31382862
000190 fd 66 fb bc 83 05 8f be 95 3a 28 3b 26 71 6f be
       -0.030688757 -0.27933893 0.0025669683 -0.23383006
0001a0 33 b3 8e be 19 cb 47 3b c3 71 69 3e 76 3e 81 be
       -0.27871093 0.0030486046 0.22797303 -0.25242966
0001b0 9a eb 07 3e e8 42 a0 be 95 57 8c be ad 0c b9 3d
       0.13273469 -0.31301045 -0.2741057 0.09035621
0001c0 8b d6 a4 3e 97 18 59 be d0 ef 0a be 6f 21 59 3e
       0.32194933 -0.21200787 -0.13568044 0.2120416
0001d0 91 4c 33 be 92 11 40 bd ca f4 24 3e 1b 5a 39 3e
       -0.17509677 -0.046891756 0.16109005 0.18100779
0001e0 52 09 9e bc 2b c0 f4 bd a5 67 fa 3d 6a 76 4c 3e
       -0.019291554 -0.11950716 0.122268 0.19967046
0001f0 a3 f7 4b be 07 0c 37 be 59 35 90 3e 36 80 31 3d
       -0.19918685 -0.17875682 0.281657 0.043335162
000200 21 02 9d 3d 0a 1e 9d bd 30 f9 16 b9 13 f9 8d 3e
       0.07666422 -0.07671745 -0.00014397944 0.2772909
000210 93 d5 26 3e e8 75 78 be 5d fa ad 3d 62 e1 5a 3e
       0.1629241 -0.24263728 0.08495019 0.21375039
000220 8d 37 3b be 6d 9d 39 be 2e c0 66 3d 72 75 45 be
       -0.1828291 -0.1812646 0.05633562 -0.19283083
000230 49 f1 89 be fd 1e 83 be db b1 72 bc d7 f0 55 3e
       -0.26941898 -0.2560958 -0.014812912 0.20892654
000240 5c 5d 3c bd bc 2b 2e bc 41 a5 f8 3d 1c a5 79 be
       -0.045987472 -0.010630544 0.12140895 -0.2437939
000250 51 cc 0e 3c 9c 04 ff bd bf 04 7b 3d 80 99 7c bd
       0.008715705 -0.12452051 0.061283823 -0.061669827
000260 b9 6e aa bc 3a 82 09 3e f1 f4 53 be 5e 56 85 3d
       -0.02080475 0.13428584 -0.20698906 0.06510614
000270 88 97 96 be e2 48 0b bd 8e 6b 1d 3b f5 2b 3c be
       -0.29412484 -0.034005053 0.0024020406 -0.18376143
000280 d2 d0 82 be 2b 99 83 3e f0 9f 91 be c0 ab 44 be
       -0.25549942 0.25702795 -0.28442335 -0.19206142
000290 1f 6d d7 bd dc 0f 92 3e 13 7a 5b be cc bc c5 3d
       -0.1051886 0.28527725 -0.21433286 0.09655151
0002a0 4d cb 60 be 62 31 9f 3d 3c a9 52 bd 7d b8 00 be
       -0.21952553 0.07773091 -0.051430926 -0.12570377
0002b0 27 5f 78 3d 22 f4 93 bc 8d cc 8e be 78 98 86 3e
       0.06063762 -0.018060748 -0.27890435 0.262882
0002c0 3d 71 6d 3e d4 03 ac bd e7 f6 2a bd 26 3e 96 be
       0.23187728 -0.08399168 -0.04173937 -0.2934429
0002d0 4f b4 75 be 1c f6 43 be de c2 da 3d b7 bd 9c be
       -0.23994564 -0.19136852 0.10681699 -0.3061349
0002e0 74 fd 9a be 20 af 8b 3e f0 f3 93 be b1 52 45 3e
       -0.30271494 0.27282047 -0.28897047 0.19269826
0002f0 9d 60 b0 bd dd 6a 49 3e ee 7d 5b bd 92 21 92 3e
       -0.086121775 0.19669671 -0.053586893 0.28541237
000300 98 5f 08 be fb d1 0f 3e bc 75 0b 3e 1a 49 be bc
       -0.13317716 0.14044945 0.13619131 -0.023228217
000310 33 b8 ae bd f3 b8 03 be 6e a0 3d 3e 8a 67 40 3e
       -0.08531227 -0.12863521 0.1851823 0.18789497
000320 5d 9d 70 bd 76 3a 9a 3e 78 76 00 3e 63 8f 5e be
       -0.058743823 0.30122727 0.12545192 -0.21734385
000330 40 df 65 3c d1 90 aa 3d 6d 0c ce 3d e9 df 83 bd
       0.014030278 0.08328403 0.10060964 -0.06439192
000340 90 d5 58 bd c9 80 8d bc d0 fa e2 3d 70 78 82 be
       -0.052938044 -0.017273324 0.11082995 -0.25482512
000350 46 15 26 be d4 31 df bd 27 6f 57 be 3e ec 8c bc
       -0.16219053 -0.10898176 -0.21038495 -0.017202493
000360 2a b7 7d be 3d b5 5a 3e 8e 11 0b be be 4c 6e bc
       -0.24776903 0.213582 -0.13580915 -0.014544664
000370 46 3b 73 3d 07 55 65 3d d9 82 27 3e 9b 27 90 3e
       0.0593827 0.05598929 0.16358508 0.28155217
000380 7b a7 80 3e e9 d6 f9 bd f0 a4 00 3d 06 af 18 bd
       0.25127777 -0.12199194 0.031407297 -0.03727629
000390 79 07 e5 bd 59 e0 57 be 8e 61 24 be b6 04 9d 3e
       -0.11183066 -0.21081676 -0.16052839 0.30667657
0003a0 ee f9 17 3e 38 c2 9c bd fc 65 56 3e a0 6e 8f 3e
       0.14841434 -0.07654232 0.20937341 0.28014088
0003b0 6e 3d 6c 3e 90 04 b0 3d 15 0a 8d be b6 0b 40 be
       0.23070309 0.0859462 -0.27546754 -0.18754467
0003c0 02 bf 03 3e 5c 12 0f bd 42 c4 30 be b8 8b 20 3e
       0.12865832 -0.03492962 -0.17262366 0.15678298
0003d0 ff 80 13 3e e3 01 d3 3d 7f 62 60 3d fe 08 1d 3e
       0.14404677 0.10303094 0.054781433 0.15335461
0003e0 82 1b 93 3e 3c 3d 79 be ca 3d 14 be 90 64 90 be
       0.28731924 -0.24339765 -0.14476696 -0.28201723
0003f0 15 cc 37 3e 48 2c 2a 3e 89 96 73 be 40 57 14 3e
       0.17948945 0.16618454 -0.23787893 0.14486408

decoderlayers.0.bias f4 [100]
000000 cc 10 45 bd 78 11 d4 3d 4a a2 58 3e 4e 0a 7c be
       -0.048111722 0.103548944 0.21155658 -0.24613306
000010 aa 82 b4 3c b2 42 7e bc a7 4c 19 3e 43 2e 9b bc
       0.022034962 -0.015518831 0.14970647 -0.018942958
000020 02 21 8d be 72 fc 8e be bd 51 1e be ae 58 1f 39
       -0.27564245 -0.27926975 -0.15460868 0.00015196457
000030 5a b1 8a bd e4 8f 50 3e 29 50 8e be 4b 9e 8e be
       -0.067721084 0.2036739 -0.27795532 -0.27855143
000040 3c 1e d2 3d 92 7e 0e 3e ae 6d 98 bc 37 61 a1 bd
       0.10259673 0.1391547 -0.018606987 -0.078798704
000050 8d 84 b8 3d 04 de bc 3d 52 58 8d bd 3f 3f 40 be
       0.09009657 0.092220336 -0.069016114 -0.18774126
000060 36 18 2f 3e b8 1e 29 3e ed ff 2f 3e 5e 9e 9a be
       0.1709908 0.16515625 0.17187472 -0.3019895
000070 51 a0 83 bd df ec 57 be 04 dc 1c be 7f 9f 82 bd
       -0.06427062 -0.21086453 -0.15318304 -0.06378078
000080 fb 93 3c 3e 03 2d d9 3d 85 f0 ec bd b7 8b 9f 3d
       0.18415825 0.106042884 -0.11569313 0.0779032
000090 ee 03 98 bd f7 a4 e0 3d fc 9e 23 3e 96 49 5b be
       -0.074226245 0.109689645 0.15978616 -0.2141479
0000a0 b0 2a 1b be f1 f8 e3 bc 8e 56 41 be 46 d1 03 3e
       -0.15153003 -0.027828665 -0.18880674 0.128728
0000b0 a5 b5 4c be 9a 94 f0 bb c2 85 cf bc 0f dc 72 3e
       -0.19991167 -0.0073419334 -0.025332335 0.23716758
0000c0 04 78 36 be 34 77 56 be f7 7d ab bd 58 1b c5 bd
       -0.1781922 -0.2094391 -0.08373635 -0.09624356
0000d0 cc 41 22 bd 63 5f 2f be ae 53 58 be 77 80 21 be
       -0.03961353 -0.17126231 -0.21125671 -0.15771662
0000e0 52 dd a8 bc 51 e6 41 be bc e3 5b bd ed a4 97 be
       -0.020613346 -0.18935515 -0.05368398 -0.29618016
0000f0 27 d7 22 3e 55 f3 34 be 96 a2 3b be 8a 70 84 be
       0.15902387 -0.17670949 -0.1832374 -0.2586711
000100 d4 71 1d bd 26 3c 23 be 6f ed 4e 3e 16 cc 3c 3e
       -0.038438633 -0.15940914 0.20207761 0.18437228
000110 a1 ff e8 3d b0 ce f0 3c df 9d b6 bd 45 3d 96 3d
       0.11376882 0.029395431 -0.0891683 0.07335905
000120 da 57 b0 3d ac c4 12 bd ef f8 c1 3d 11 c3 87 3e
       0.08610506 -0.035832092 0.094713084 0.2651601
000130 86 8d 7e 3e b0 76 2d be a7 04 8a 3e fb 6b 84 3c
       0.24858674 -0.16939807 0.26956674 0.01616477
000140 e8 17 0a be 21 26 63 be 8a 72 91 bc 73 e5 3f 3d
       -0.13485682 -0.22182514 -0.017754812 0.04684968
000150 b3 28 8f 3d 84 5e 66 be e4 5d 51 bd 59 3e 05 be
       0.06990185 -0.22496992 -0.05111493 -0.13012065
000160 33 d7 a1 3b 64 06 8f 3e 2b d3 ff bc 56 e3 98 be
       0.004938984 0.27934563 -0.031228622 -0.29860944
000170 c7 c8 06 3e e2 45 3d 3e 99 94 85 be 93 42 a5 3c
       0.13162528 0.1848369 -0.26089934 0.020173347
000180 7f 90 64 3e 15 19 93 3e d7 0c 0d 3d c5 c7 02 3e
       0.22320746 0.28730074 0.034436073 0.12771519

decodernorms.0.weight f4 [100]
000000 eb 21 7a 3f ea df 74 3f 33 c1 71 3f 2f 8c 71 3f
       0.97708005 0.95654166 0.94435424 0.9435453
000010 b6 6a 75 3f d5 49 72 3f 0a 2b 7c 3f 21 86 70 3f
       0.9586595 0.9464391 0.9850317 0.93954664
000020 c7 86 73 3f fa 57 6c 3f b4 5f 72 3f 3c 38 73 3f
       0.9512753 0.9232174 0.9467728 0.9500768
000030 e3 15 71 3f 2f 34 75 3f 3c 44 76 3f 15 f1 6f 3f
       0.9417402 0.9578275 0.9619787 0.93727237
000040 ac 64 7b 3f 28 0e 73 3f 26 9f 77 3f 01 37 76 3f
       0.9820049 0.94943476 0.96727216 0.9617768
000050 70 c5 77 3f fd 9e 76 3f 06 41 74 3f 93 6a 70 3f
       0.9678564 0.96336347 0.9541172 0.9391262
000060 d1 3a 7c 3f a1 f2 72 3f 0d 50 7b 3f fc e2 73 3f
       0.98527247 0.9490147 0.9816902 0.95268226
000070 2a da 7b 3f 6b 1c 74 3f 96 52 71 3f 46 38 76 3f
       0.98379767 0.9535586 0.9426664 0.96179616
000080 41 d0 74 3f 41 5e 76 3f 8b b1 74 3f 43 73 70 3f
       0.9563027 0.9623757 0.9558341 0.93925875
000090 79 33 74 3f 09 0e 6f 3f 88 3f 73 3f 99 f1 76 3f
       0.9539104 0.9338079 0.95018816 0.964624
0000a0 f7 d2 6d 3f a2 93 78 3f 4d e3 6f 3f 68 02 77 3f
       0.9290003 0.9710027 0.9370621 0.96488047
0000b0 02 35 72 3f 48 28 79 3f d0 61 6a 3f c7 b9 77 3f
       0.94612134 0.9732709 0.915555 0.9676785
0000c0 88 73 79 3f eb 71 75 3f c1 22 78 3f 59 3d 73 3f
       0.9744191 0.9587695 0.9692803 0.95015484
0000d0 ae a9 6e 3f 75 98 6d 3f 01 57 75 3f aa ba 74 3f
       0.9322766 0.92810756 0.9583588 0.95597327
0000e0 8f 04 76 3f 3a 2d 75 3f 2e a2 76 3f 2c f2 75 3f
       0.96100706 0.95772135 0.96341217 0.9607265
0000f0 ac 45 75 3f 44 90 75 3f 05 60 78 3f 10 df 73 3f
       0.95809436 0.95923257 0.97021514 0.9526224
000100 4e 15 6e 3f b4 38 71 3f 59 fb 76 3f 40 49 71 3f
       0.9300126 0.9422715 0.96477276 0.94252396
000110 5f 2d 74 3f 95 38 7a 3f 2d e8 73 3f ed 52 70 3f
       0.9538173 0.9774259 0.9527615 0.93876535
000120 7c c7 73 3f 10 e3 7a 3f 72 1e 74 3f bb 2b 73 3f
       0.95226264 0.9800272 0.95358956 0.949886
000130 ff 48 76 3f cd 82 73 3f f5 62 79 3f e9 6e 79 3f
       0.96205133 0.9512146 0.9741662 0.9743486
000140 1a 5a 74 3f 21 88 71 3f 1c 5d 6c 3f d6 d5 77 3f
       0.95449984 0.9434834 0.92329574 0.9681066
000150 87 12 77 3f f2 af 76 3f ba e1 71 3f 7c f0 75 3f
       0.96512645 0.9636222 0.94485056 0.96070075
000160 32 24 71 3f 41 bd 75 3f 12 b7 71 3f 43 d6 6e 3f
       0.94195855 0.95991904 0.9441997 0.9329569
000170 4d 38 6f 3f f8 49 70 3f 02 28 71 3f f6 11 75 3f
       0.93445283 0.9386287 0.9420167 0.9573053
000180 cf 34 6e 3f 43 40 76 3f 80 f0 72 3f 5a 4b 78 3f
       0.9304933 0.96191806 0.94898224 0.9698998

decodernorms.0.bias f4 [100]
000000 24 0a fd 3c 13 e5 0f bb 82 70 cc bc 16 c0 d6 bc
       0.030888624 -0.0021956607 -0.024955992 -0.02621464
000010 bd ff be bc cd 1a 09 bc 15 e0 0c 3c 35 ad 2f ba
       -0.023315305 -0.008368206 0.008598347 -0.000670153
000020 19 0b 92 bb b8 0c d8 3c 16 9f 8b bc 10 74 3b 3d
       -0.0044568893 0.026373252 -0.017043632 0.045764983
000030 36 3c c8 3b 9a 64 cf 3c 7d 47 8a bc 8c ce d7 3c
       0.0061106933 0.025316525 -0.016879791 0.026343606
000040 25 ad bc bc 7a c8 d6 bc 0e 7e f1 3a 59 f5 15 3c
       -0.02303178 -0.026218642 0.0018424408 0.009152734
000050 cb 8e 1d bc 8b 27 20 bc 31 82 cf 3c 77 8a 9a 3b
       -0.009616564 -0.009775053 0.025330635 0.0047162133
000060 d2 f7 56 bc fc 33 a2 3c f5 ed 63 3c 2b ad 0f bc
       -0.013120608 0.019800179 0.013911714 -0.008769314
000070 98 bf 31 3c a0 4a b9 3b cf 52 1e bd bb 66 85 3c
       0.010848902 0.005654648 -0.03865319 0.016284337
000080 c6 41 97 bc 3e 45 a8 3c eb 5a b5 bc 0c c3 97 39
       -0.01846398 0.02054083 -0.02213808 0.00028946286
000090 07 cd f2 bc 00 0d bf 3c 51 00 0e bd 18 d0 1f 3d
       -0.02963878 0.023321629 -0.03466827 0.039016813
0000a0 b6 b7 44 3c 15 a9 9c bc b4 a5 22 bc 18 d3 94 3c
       0.012006691 -0.019123593 -0.009927202 0.018167064
0000b0 0d 80 5e bb f6 ca a7 3b 40 84 81 3c 35 23 9e 3b
       -0.0033950836 0.0051206304 0.015810132 0.0048259743
0000c0 bf ca 92 bc c9 9c d3 bc 30 56 ed 3b 3d de d0 bb
       -0.017918942 -0.025831597 0.0072429404 -0.006374149
0000d0 99 28 62 bc 93 37 9e 3b 2f f4 43 3c d2 f3 6a 3c
       -0.013803625 0.0048284023 0.011960073 0.014340358
0000e0 9d c9 41 bb 41 9c 76 3c 8f e0 22 3a 2d 5a 1e 3c
       -0.0029569634 0.015051902 0.00062132714 0.009665054
0000f0 af 80 ff 3c 5c d1 4c 3b fe 35 07 3c 51 ba 8e 3c
       0.03118929 0.0031252718 0.008252619 0.017422827
000100 11 fd c7 3c 25 ec da bc 0e 7a 9f bc aa 7d 05 3c
       0.024412664 -0.02672393 -0.01946738 0.008147636
000110 97 0d 89 3a 23 e6 8e 3c 26 1e b9 3c c5 4d ff 3b
       0.0010456321 0.017443722 0.022597384 0.0077912533
000120 34 4b 0d 3d 50 a4 c7 3c 99 94 a4 bb 24 78 01 bc
       0.034495547 0.024370342 -0.005022597 -0.007902179
000130 06 0f bd 3c cd 56 c9 3c e4 ae 89 bc 6f 8d 44 3d
       0.023078453 0.024577523 -0.016807027 0.047986444
000140 20 c8 15 bc 2b d0 11 bd f9 7b 7c bc 41 3d f6 bc
       -0.009141952 -0.035598915 -0.015410417 -0.030058505
000150 55 9c 8d bc 7a 92 0f bd 57 b8 82 3c e5 5f 64 3c
       -0.017286459 -0.0350518 0.01595704 0.013938879
000160 64 ca 1c 3c d5 94 c9 b9 59 d7 e4 bb 92 97 9d ba
       0.009569738 -0.00038448596 -0.0069836793 -0.0012023321
000170 f6 38 c0 3c b4 73 89 3c ed d3 cc 3b 9c d0 80 3c
       0.023464661 0.016778804 0.0062508495 0.015724473
000180 75 dc d0 ba 76 5b 59 bc 9c b7 9a 3c eb a5 dd 3b
       -0.0015934842 -0.013266435 0.01888638 0.0067641637

decodernorms.0.running_mean f4 [100]
000000 b1 6f 96 3e 10 3f ad 3e a8 bf f9 3e d8 b8 a5 3e
       0.2938209 0.33837175 0.48779035 0.32367587
000010 7b be a9 3e 34 0b 9c 3e 11 4f e7 3e eb 2e cb 3e
       0.33153138 0.30477297 0.4517751 0.39684233
000020 d0 7b 50 3e 44 9b 87 3e d0 7a 92 3e 17 42 01 3f
       0.2035973 0.26485646 0.28609324 0.5049147
000030 d5 75 84 3e 50 6b 00 3f 53 9c 55 3e da 73 04 3e
       0.2587115 0.50163746 0.20860414 0.12934819
000040 6b 51 1d 3f 30 dd b7 3e f5 56 ef 3e b0 ab a2 3e
       0.6145236 0.3591094 0.4674603 0.31771612
000050 1b 51 9b 3e cc 50 9d 3e df a6 92 3e 5a 82 86 3e
       0.30335316 0.30725706 0.28642938 0.26271325
000060 a4 0c fa 3e ec 62 0c 3f d4 52 ef 3e 27 6f 2a 3e
       0.4883777 0.5483844 0.4674288 0.16643964
000070 02 53 db 3e 29 e3 69 3e 5e ac bc 3e b6 29 af 3e
       0.42836767 0.22840561 0.36850256 0.3421151
000080 8f a6 fc 3e 12 57 05 3f 2d 1a c3 3e 37 b5 a4 3e
       0.49345824 0.52085984 0.38105908 0.32169506
000090 fd b0 c8 3e 66 24 a8 3e 14 8c 9b 3e c7 fd 6b 3e
       0.3919753 0.3284027 0.3038031 0.23046027
0000a0 e3 50 67 3e 5a e1 90 3e 5e fc 65 3e 05 e2 d9 3e
       0.2258945 0.2829693 0.22459552 0.42555252
0000b0 c9 4b 9e 3e 5b 89 a4 3e de 6a 87 3e ed 94 f8 3e
       0.30917194 0.32136044 0.2644872 0.4855112
0000c0 5f 92 5f 3e bd a2 94 3e fc fa bc 3e 34 44 90 3e
       0.2183318 0.2903041 0.36910236 0.28177035
0000d0 30 02 6c 3e 84 86 98 3e c4 88 bd 3e 5f 52 ac 3e
       0.2304771 0.29790127 0.37018406 0.33656594
0000e0 57 2c bc 3e de 91 6a 3e f5 15 a9 3e 10 fa 91 3e
       0.3675258 0.22907206 0.33024564 0.28511095
0000f0 d8 90 d7 3e bc ee 8d 3e 54 5d 9c 3e 04 74 89 3e
       0.42102695 0.27721202 0.30539954 0.26846325
000100 0d 2a 93 3e 87 7d 9f 3e d1 dd 0b 3f f5 a4 c5 3e
       0.2874302 0.31150457 0.5463534 0.38602415
000110 21 63 ff 3e 90 75 b5 3e a3 27 8e 3e 9e 58 d7 3e
       0.49880317 0.35441256 0.27764615 0.42059797
000120 4a 44 e0 3e 3f 5e c4 3e 91 3a 09 3f 94 88 25 3f
       0.438021 0.38353154 0.5360499 0.64661527
000130 8c 07 08 3f b5 4e a2 3e 65 b4 05 3f d2 fb be 3e
       0.53136516 0.31700674 0.52228385 0.373015
000140 55 ed b1 3e 5e 66 b3 3e d8 8e c4 3e f1 20 b4 3e
       0.34751382 0.35039037 0.3839023 0.35181382
000150 98 e6 f7 3e 72 e1 89 3e 30 e5 db 3e 74 f3 a2 3e
       0.48418117 0.26929814 0.42948294 0.31826365
000160 3b 1f a6 3e ff 94 fb 3e 4e 1f 8b 3e 4e 34 81 3e
       0.32445702 0.49137112 0.2717232 0.25235218
000170 82 9a d4 3e 98 40 0c 3f 3f c1 75 3e 80 99 72 3e
       0.4152413 0.5478606 0.23999499 0.23691368
000180 1e a1 ba 3e 08 0e b0 3e 10 c6 b8 3e 30 60 fd 3e
       0.36451048 0.34385705 0.3608861 0.49487448

decodernorms.0.running_var f4 [100]
000000 5f 04 7d 3e d2 3a 8f 3e 0b e0 e0 3e 4e c2 a5 3e
       0.24708699 0.27974564 0.4392093 0.32374805
000010 43 d3 a1 3e fb c9 5f 3e 89 ee 01 3f c2 83 cc 3e
       0.31606492 0.21854393 0.507546 0.39944273
000020 5c c5 33 3e e4 c0 a0 3e d6 86 b4 3e 4f 8b 1c 3f
       0.17555755 0.31397164 0.35259122 0.6115007
000030 cb 37 6e 3e 2f a2 00 3f 29 1b 38 3e 21 09 c9 3d
       0.23263471 0.5024747 0.17979111 0.09816194
000040 47 3b 57 3f 90 14 c8 3e 0d 9f 26 3f f2 6b 87 3e
       0.84074825 0.39078188 0.6508644 0.26449543
000050 90 88 46 3e ca ea 7c 3e fa 38 93 3e a6 d5 6f 3e
       0.19388032 0.2469894 0.28754407 0.23421344
000060 8a 8e dc 3e c6 5a 14 3f b3 65 fc 3e a1 f3 0e 3e
       0.430775 0.5795101 0.4929634 0.13960125
000070 74 8b 1d 3f 60 a3 22 3e 5e ed bc 3e 0c db 8f 3e
       0.61540914 0.15882635 0.36899847 0.28096807
000080 1f f5 0b 3f 8f ad 10 3f b0 5b d7 3e 06 95 80 3e
       0.546709 0.5651483 0.4206214 0.25113696
000090 06 16 f5 3e de d2 53 3e cb 3f 6a 3e 9b 58 49 3e
       0.47868365 0.20685908 0.22875898 0.19662707
0000a0 66 4f 3d 3e 8e 02 5f 3e 72 c6 41 3e 7b d2 e2 3e
       0.1848732 0.21778318 0.18923357 0.4430121
0000b0 26 aa b9 3e f0 46 62 3e d0 38 3c 3e d5 f6 03 3f
       0.36262625 0.22097373 0.18381047 0.5154851
0000c0 36 51 66 3e 6b c5 92 3e f9 bc b8 3e 85 61 68 3e
       0.22491917 0.28666243 0.36081675 0.22693451
0000d0 30 51 67 3e 26 65 a9 3e b9 d9 ee 3e c9 83 b9 3e
       0.22589564 0.33084983 0.46650484 0.36233357
0000e0 cc c1 bd 3e 9e a3 35 3e 03 ad 9c 3e 75 95 98 3e
       0.37061918 0.17738196 0.30600747 0.29801527
0000f0 82 d6 c9 3e e5 69 87 3e 14 fe 98 3e 32 68 81 3e
       0.3942147 0.2644798 0.29881346 0.25274807
000100 dd 10 8e 3e c0 06 aa 3e e2 a8 14 3f da ad bf 3e
       0.2774724 0.33208275 0.58070195 0.37437326
000110 65 70 14 3f 33 b4 91 3e 1e 21 58 3e fa 3c ca 3e
       0.57984 0.28457794 0.21106383 0.39499646
000120 e3 d6 da 3e 06 61 01 3f cd aa 37 3f d6 4d 1a 3f
       0.4274207 0.5053867 0.71744996 0.6027502
000130 a5 16 05 3f 44 6a a0 3e cc 52 de 3e 57 a1 b2 3e
       0.5198768 0.31331074 0.43422544 0.34888718
000140 d6 e5 b0 3e d5 ae d5 3e 3f 87 a8 3e e9 fb 90 3e
       0.3455035 0.4173495 0.32915685 0.28317192
000150 ea 6d f5 3e b0 8d 64 3e 1e c8 f9 3e b7 6c a4 3e
       0.4793542 0.22319674 0.4878549 0.32114193
000160 a3 61 c5 3e 99 5f cf 3e e5 41 5a 3e 73 29 51 3e
       0.38551053 0.40502623 0.213142 0.20425968
000170 83 6e a0 3e f1 7d 02 3f 9a 13 43 3e 0b 42 00 3e
       0.31334314 0.5097342 0.19050446 0.12525193
000180 78 10 43 3e 57 2d 2b 3e cd 74 ba 3e 1d 0c f0 3e
       0.19049251 0.16716515 0.36417237 0.46884242

mu.weight f4 [10, 100]
000000 01 ef d9 bd 0c f6 c8 3d 6d fd 30 3d 64 3a 61 3c
       -0.106412895 0.09812555 0.043210436 0.013746832
000010 28 44 b4 bd 18 69 8a 3d 46 4e 68 bc e4 a3 bc bd
       -0.08802062 0.06758326 -0.014178818 -0.09210947
000020 a4 24 2e bd 81 58 b5 3c 9d 73 c0 bc b2 6d 49 3d
       -0.042515412 0.022136929 -0.023492629 0.04917688
000030 2d 98 d5 3d b4 04 17 3d c9 05 d0 3d 16 8e cc bd
       0.10429416 0.03686972 0.101573534 -0.09988038
000040 14 04 92 3d 96 d1 9c bd 75 97 79 3b a6 14 4e bc
       0.07129684 -0.07657163 0.003808466 -0.012578165
000050 74 04 91 bb 2d d4 0d be 77 3b 7c bd c6 e1 37 bd
       -0.0044255797 -0.1385047 -0.061580148 -0.04489305
000060 6d 17 43 3c d7 6c 50 bc 29 90 38 bd a2 2c 9d 3c
       0.011907441 -0.012721262 -0.045059357 0.019186322
000070 f5 dc b4 bd 95 fe d0 3d 27 b2 ab 3c 45 85 cc bd
       -0.08831207 0.10204808 0.020958973 -0.09986357
000080 68 57 db bd c7 be 8a bd b2 1d 14 3d 19 11 86 bc
       -0.10710031 -0.06774669 0.036161132 -0.016365575
000090 9e 57 05 be 92 89 f7 bb 59 3f f5 3d d6 a1 17 be
       -0.13021705 -0.0075542415 0.11974973 -0.1480783
0000a0 23 94 1c bd 2a 07 19 bd ef 4f f1 3d 2e 4b 0e bd
       -0.03822721 -0.037360348 0.11782824 -0.034739666
0000b0 8f 5b 06 bc e3 3f ed bc 1d e8 8e 3d 0d 94 8d 3c
       -0.00820054 -0.028961128 0.06977866 0.01728251
0000c0 81 c7 70 bd cf d9 95 bd 81 e3 80 3d 9f d8 c2 bd
       -0.05878401 -0.07316934 0.06293393 -0.095139734
0000d0 ec a9 90 3d 87 5e d0 bd b4 31 b1 bc ef b0 5f 3d
       0.0706366 -0.1017428 -0.021630146 0.054612096
0000e0 fa b5 d7 3c c7 c0 94 bc 04 3e 68 bd c3 ec 16 3e
       0.02633189 -0.01815833 -0.056699768 0.14738755
0000f0 a7 b4 75 bd c2 ed d0 bd 93 59 a9 3d 09 a1 ee bd
       -0.059986737 -0.10201599 0.08269038 -0.11651809
000100 bf 6f f6 bd ef 29 e6 3d c0 9d a7 bc b3 85 e4 bc
       -0.120330326 0.11238467 -0.020460963 -0.027895784
000110 83 00 d2 bb 6c 34 75 3d a5 6b a0 bd fb 47 84 bd
       -0.0064087524 0.059864447 -0.078330316 -0.06459042
000120 58 e8 fd 3c d5 1d d2 3c 82 c4 06 3a 52 9d 92 bd
       0.03099458 0.02564899 0.0005140976 -0.07158913
000130 6a 30 51 3d 38 03 f0 3d 37 23 b8 3d 57 10 a4 bd
       0.051071562 0.11719364 0.08991092 -0.08010929
000140 cc b3 0a be 36 2a c6 bd 5c 3d d9 bd 16 36 d2 bb
       -0.1354515 -0.0967602 -0.106074065 -0.006415139
000150 9b 2e 2d 3e 3c b0 99 bd d2 7b 3b bd 93 f6 dd 3d
       0.1691231 -0.07504317 -0.04577238 0.10838046
000160 7e 38 59 3d 0e 00 bb bd 3d 19 90 3d 9c 81 6c 3d
       0.05303239 -0.0913087 0.07036064 0.057740793
000170 5a 6b bf 3d 90 aa 17 be 52 0d bb 3c 11 76 e6 bd
       0.093466476 -0.14811158 0.0228335 -0.11252988
000180 28 32 c3 bc dc fa c6 3c 1c 40 01 be f9 52 3e 3d
       -0.023827627 0.024289541 -0.12622112 0.046465848
000190 cf 87 a1 bd c5 25 f3 3c 65 78 cb 3d d2 57 12 3d
       -0.078872316 0.029681096 0.09935073 0.035728283
0001a0 49 41 c0 bd 00 6a af bd 15 61 92 bc 33 59 ca bd
       -0.09387452 -0.0856514 -0.017868558 -0.09880295
0001b0 ce 06 d7 bc 1d 4a b2 bd 4c 33 d7 bd 20 01 22 bd
       -0.026248362 -0.08705542 -0.10507831 -0.039551854
0001c0 1e 36 28 3d 9a 9a c7 3d f6 de 8c 3d 4d 03 0c 3d
       0.041067235 0.09746285 0.06878464 0.034182835
0001d0 79 e7 f6 3d d4 ed d8 3d c5 3b 9b 3d 32 0d e6 3d
       0.12055869 0.10592237 0.075797595 0.112329856
0001e0 d6 64 97 bd 26 49 d8 3d 15 36 22 3c 1c 24 9f bd
       -0.0739228 0.10560827 0.0099005895 -0.07770559
0001f0 70 f2 fe bd 5a 59 ad 3c 4a c5 b2 bd cb 0e 30 3c
       -0.12448585 0.02116077 -0.08729036 0.010745714
000200 ce dc da 3d be 80 95 bd 70 fb e8 bd e8 5f d0 3b
       0.106866464 -0.07299946 -0.11376083 0.006359089
000210 17 62 08 3e c3 8a d5 bd 85 9f a5 3c 7b 49 10 be
       0.13318668 -0.10426857 0.020217666 -0.1409053
000220 34 cc 65 bb 23 90 04 bd 78 74 91 3d 04 76 bb 3d
       -0.0035064342 -0.032364022 0.07102293 0.09153369
000230 69 17 db bd 88 1d 96 3d bb 49 31 bd 17 7f f2 bd
       -0.106978245 0.073298514 -0.043283205 -0.11840647
000240 d2 66 db 3d ff d0 7c bc 71 09 91 bc 7e 84 aa bd
       0.10712971 -0.015430688 -0.017704697 -0.08326052
000250 c6 93 76 3d d3 f3 18 3e 43 d5 6c bc 82 90 ce bd
       0.06019952 0.14936762 -0.014455142 -0.100861564
000260 4a a6 69 bd 6b f9 5c 3d 4a ca b5 3c cd 63 13 3d
       -0.05704335 0.0539488 0.022191186 0.03598385
000270 66 44 e9 bd 5a ec 2a 3e 2f 43 06 3c a9 c2 1c 3d
       -0.11389999 0.16691723 0.008194729 0.03827158
000280 30 c5 56 3c 9a 24 2c bd 3c 07 6b bc 53 e3 df 3d
       0.013108537 -0.042027093 -0.0143449865 0.109320305
000290 87 6a 8a bd a9 43 e5 3d 3d 72 d4 3d cd 92 ae 39
       -0.067586 0.11194546 0.10373352 0.0003329724
0002a0 fe f5 88 bd 59 57 b0 bc 81 6a a8 3d ee 35 ae bc
       -0.06687544 -0.021526026 0.08223439 -0.02126595
0002b0 54 bf 93 3c 93 e0 46 3d 00 d8 04 3d 13 0e 08 be
       0.018035568 0.048554014 0.032432556 -0.13286619
0002c0 34 1c c4 3d 11 80 a6 3d c6 84 83 3d b2 88 6c bc
       0.09575692 0.081298955 0.06421809 -0.014436888
0002d0 47 24 7f bd 8f bd 34 3b 2f 38 ff 3c 0f d1 fd 3d
       -0.062290456 0.0027578806 0.03115472 0.123933904
0002e0 df 69 a6 3d 5a f5 48 bd 80 cc 0b be 2f 5a 93 bd
       0.08125662 -0.04906211 -0.1365223 -0.071949355
0002f0 c8 04 a4 bd c3 22 c2 3c e2 e7 15 bc f1 0f c4 bc
       -0.080087245 0.023698216 -0.009149523 -0.023933383
000300 bf 5a 90 bc 4a aa 0f bc a7 b8 23 bd 14 70 45 bb
       -0.017621396 -0.008768627 -0.03997102 -0.0030126618
000310 23 60 d7 3d 74 62 88 bd 89 c2 8a 3d fe 11 66 bd
       0.105163835 -0.066594034 0.06775386 -0.056169502
000320 4c e7 a0 3d 5b 6b 48 bd e7 1f 3e bd 21 2f ad bd
       0.078566164 -0.048930507 -0.046417143 -0.08456255
000330 42 96 e8 3d 90 ea ae bd ee ff 19 3c 24 0d 2f bd
       0.113567844 -0.08540833 0.009399397 -0.04273714
000340 8e 46 a0 3d 31 3f a6 bd 17 1d 1b 3c b8 73 a7 3d
       0.07825957 -0.081175216 0.009467385 0.081763685
000350 98 5e 07 3d ff f9 d3 3d a6 ec fd bd f8 34 62 3d
       0.033049196 0.10350417 -0.12398653 0.055226296
000360 3a e1 7c bd 2d cb 98 3d 71 84 8f 3d a8 6f b7 3b
       -0.06173823 0.07460628 0.07007683 0.0055980273
000370 a9 48 c9 bd f3 85 4e bd 3e 8b 44 3d ba 61 67 3d
       -0.09828312 -0.050420713 0.047984354 0.056489684
000380 0e a2 d5 ba 48 10 ab 3d 59 76 9a bd 62 86 56 bd
       -0.0016298906 0.08352715 -0.07542104 -0.05237425
000390 a5 50 13 bb 1c 91 b5 bb d3 59 9d 3d 12 94 be ba
       -0.0022478488 -0.00554098 0.07683148 -0.0014539978
0003a0 9e da 9e ba bf 22 cf 3d 03 f3 f0 bd 5a 42 f3 3d
       -0.0012119596 0.10114049 -0.11765101 0.1187789
0003b0 c8 4d 21 bc 9a 0f 00 be aa b3 73 3d 03 5c 07 bb
       -0.009845205 -0.12505952 0.059497513 -0.0020654208
0003c0 da 49 da 3d 57 40 b5 39 b5 db 08 be b9 d1 9c 3d
       0.10658617 0.00034570947 -0.13365062 0.07657189
0003d0 9c aa d3 3d 46 f0 15 3d 5e 55 b3 3d 2f 87 02 3e
       0.103352755 0.036606096 0.08756517 0.12746881
0003e0 e9 5a f3 bd 37 c0 30 3d e4 7a d1 3c db 89 ae 3c
       -0.11882574 0.04315206 0.025571294 0.021305969
0003f0 b6 a5 bb 3d a3 c4 b5 bd 05 55 f7 3c 3d 72 85 3d
       0.09162466 -0.08875396 0.030191908 0.0651593

mu.bias f4 [10]
000000 89 90 01 bd c3 fe 61 3d 70 39 75 3d b8 0d 3b 3d
       -0.03163198 0.0551746 0.05986923 0.04566738
000010 e5 9d 0d bd e5 bb 93 3d 48 13 a6 3c 91 d8 82 bd
       -0.034574408 0.072135724 0.020272866 -0.06388963
000020 73 83 27 3d a9 4d 7f 3d
       0.040896844 0.062329922
