tutorial/interim_data_test/models/model_10_14.pt (torch, 78273 bytes, 18 tensors)

encoderlayers.0.weight f4 [100, 70]
-0.05623499 0.031375017 -0.022197817 0.045556527 0.09424661 -0.1318346 -0.094803505 0.111530036
-0.11652561 0.010892226 -0.021646842 0.097557925 0.014435887 -0.11085823 -0.002873046 0.027120857
0.12930222 0.088048846 0.12376005 0.08846384 0.054923113 -0.03790693 -0.03909984 -0.011369744
-0.052092776 -0.08886327 0.0040655746 0.023626743 0.0106344605 -0.08647505 0.0014976525 0.09039982
0.01826965 0.10333927 -0.035752606 0.035942625 0.03523824 -0.083598204 0.078786515 0.009433289
0.04035454 -0.01024694 0.039695308 0.0039738417 -0.017057586 0.10712975 0.08542257 0.05291637
-0.044736233 0.047720432 0.115975104 -0.07222297 0.09069656 0.02591501 0.019611325 -0.040298235
-0.030153247 -0.019863315 -0.08893181 -0.038312916 0.121697344 -0.039011903 -0.047466967 -0.053880233
0.07160148 0.09073664 0.011572697 -0.08204504 -0.031124458 -0.03225973 -0.11955043 -0.0804701
-0.0490066 -0.06943337 -0.044605084 0.038216602 0.07671274 0.11692065 -0.13889407 0.0047709555
-0.107021786 -0.034020685 0.0051882504 0.09597969 -0.060662687 -0.053878807 0.046065148 0.082413204
0.051165584 0.0078049228 0.027939698 -0.027331123 -0.06332467 0.067022026 0.043759007 0.09710257
8.448037e-05 -0.014565739 0.080052175 0.1195706 -0.00230521 -0.014137897 0.06758349 0.01464822
0.032434184 -0.062847085 0.022799006 0.050991572 0.0015748333 -0.07107856 -0.044905473 -0.048703842
0.12332571 -0.037940998 -0.008363047 0.008114915 -0.011972393 0.09856571 0.095991805 -0.014233091
0.023411844 -0.061334115 0.09819711 0.03754599 -0.010075833 -0.10849205 0.13206674 -0.022619557
-0.05789501 0.11548452 -0.049523227 0.008508415 -0.10965909 0.040603627 0.04988293 0.039888218
-0.10187041 -0.07211465 0.07057422 0.002045241 -0.08107842 -0.063526705 -0.010522182 0.0762073
0.12416885 0.06791834 -0.11973322 0.030473715 -0.05836469 -0.08806267 0.099944636 0.027378993
0.049166236 -0.01462909 -0.013478702 -0.031911306 -0.07348219 0.02262974 -0.07106241 0.012542002
-0.11280292 -0.07706801 0.067856446 -0.020383164 0.01457117 -0.009026675 -0.050497398 0.016352916
0.0869149 -0.012979004 0.07618377 -0.097155124 -0.048844274 -0.08590175 0.014040279 0.0694717
0.101228476 -0.07760054 -0.04796236 0.02639548 -0.11134186 -0.0023156686 -0.09988274 0.106088646
-0.12597682 0.020478176 -0.011242039 -0.1138615 -0.06769422 -0.11830393 -0.124999784 -0.04025053
-0.02352716 0.04924629 0.09290938 0.088240325 -0.02417435 -0.0059359027 0.10047965 0.008001126
0.017664552 -0.09769969 0.10891184 0.05214736 0.070932046 -0.0039986 0.02310633 0.05702188
0.079288974 0.056890603 0.08735986 -0.043127514 0.108567014 0.08120207 -0.048199542 -0.081229456
-0.08730101 -0.059900146 -0.01955391 -0.07982331 0.0253029 -0.008904956 -0.102970876 -0.07384585
-0.040271062 0.09596534 0.11914559 0.062940605 -0.09383503 -0.10515941 0.09339011 0.06593041
-0.12745634 -0.07984236 -0.059886992 0.122571014 -0.007568203 -0.032884326 -0.06555081 0.012823742
0.006439512 0.11761143 0.029276606 -0.10954079 0.083646245 0.11623032 0.111513466 0.03791355
-0.031140348 0.10394955 0.116589256 -0.10189974 0.073321804 0.07050637 0.08053687 -0.11737921
00000000: a956 66bd 1783 003d 32d8 b5bc 7b99 3a3d
00000010: 5e04 c13d a6ff 06be 5728 c2bd dc69 e43d
00000020: fba4 eebd 4f75 323c b854 b1bc 73cc c73d
00000030: 8084 6c3c a409 e3bd b749 3cbb 8f2c de3c
00000040: cd67 043e f452 b43d e975 fd3d 882c b53d
00000050: 0ff7 603d 4c44 1bbd 2727 20bd 2a48 3abc
00000060: 3c5f 55bd f2fd b5bd 8338 853b df8c c13c
00000070: 293c 2e3c d519 b1bd e14c c43a 8a23 b93d
00000080: 3caa 953c 8aa3 d33d 5371 12bd 9338 133d
00000090: f955 103d 8935 abbd d35a a13d 158e 1a3c
000000a0: cd4a 253d c8e2 27bc 8c97 223d 0037 823b
000000b0: 5abc 8bbc d866 db3d 07f2 ae3d d6be 583d
000000c0: 573d 37bd 8076 433d 5b84 ed3d a3e9 93bd
000000d0: 1ebf b93d b74b d43c eea7 a03c c30f 25bd
000000e0: f103 f7bc 64b8 a2bc e121 b6bd 01ee 1cbd
000000f0: 753c f93d f2ca 1fbd b96c 42bd 85b1 5cbd
00000100: cca3 923d 22d4 b93d 699b 3d3c 3b07 a8bd
00000110: b8f8 febc c722 04bd dbd6 f4bd 82cd a4bd
00000120: 25bb 48bd 1533 8ebd d2b3 36bd 0389 1c3d
00000130: 921b 9d3d 1874 ef3d 3f3a 0ebe ad55 9c3b
00000140: 3d2e dbbd 4659 0bbd 3302 aa3b 0091 c43d
00000150: 7079 78bd 06b0 5cbd cfae 3c3d 41c8 a83d
00000160: 0193 513d 70c0 ff3b cbe1 e43c 85e5 dfbc
00000170: 5db0 81bd d842 893d a53c 333d b6dd c63d
00000180: 0e2b b138 23a5 6ebc 65f2 a33d 6ee1 f43d
00000190: 0213 17bb a3a2 67bc 3669 8a3d 16ff 6f3c
000001a0: b5d9 043d f9b5 80bd fbc4 ba3c 8adc 503d
000001b0: a36a ce3a a391 91bd cdee 37bd ae7d 47bd
000001c0: 3192 fc3d 0568 1bbd 2905 09bc 6cf4 043c
000001d0: db27 44bc d2dc c93d 5a97 c43d e931 69bc
000001e0: 32ca bf3c 7b39 7bbd 911b c93d d3c9 193d
000001f0: 1b15 25bc 1431 debd 813c 073e a64c b9bc
00000200: 5123 6dbd 2683 ec3d ded8 4abd e166 0b3c
00000210: f294 e0bd fd4f 263d 0b52 4c3d d461 233d
00000220: 6fa1 d0bd d8b0 93bd 3789 903d 7309 063b
00000230: 710c a6bd 4a1a 82bd 3b65 2cbc 9312 9c3d
00000240: 3d4c fe3d c518 8b3d b136 f5bd 03a4 f93c
00000250: d00f 6fbd 335a b4bd c6af cc3d e949 e03c
00000260: 8962 493d daae 6fbc c6d5 5cbc 6eb5 02bd
00000270: d57d 96bd 0162 b93c 2b89 91bd f87c 4d3c
00000280: 3805 e7bd d5d5 9dbd 52f8 8a3d 98fa a6bc
00000290: ebbb 6e3c 9ee4 13bc 5cd6 4ebd 8df6 853c
000002a0: 7000 b23d e3a5 54bc 3d06 9c3d 44f9 c6bd
000002b0: ef10 48bd 42ed afbd 3309 663c 2e47 8e3d
000002c0: e050 cf3d 08ed 9ebd 2e74 44bd 553b d83c
000002d0: 3307 e4bd 79c2 17bb 528f ccbd 0145 d93d
000002e0: 1100 01be d9c1 a73c 8730 38bc 3830 e9bd
000002f0: 44a3 8abd 5549 f2bd e3ff ffbd bddd 24bd
00000300: 08bc c0bc 7ab6 493d 4647 be3d 58b7 b43d
00000310: 4909 c6bc f681 c2bb 46c8 cd3d 2817 033c
00000320: 40b5 903c c616 c8bd 2c0d df3d 7898 553d
00000330: d244 913d b006 83bb 7c49 bd3c c68f 693d
00000340: 4262 a23d 1f06 693d bae9 b23d 7aa6 30bd
00000350: 6258 de3d 454d a63d e26c 45bd a15b a6bd
00000360: dfca b2bd db59 75bd 852f a0bc 677a a3bd
00000370: 0748 cf3c 18e6 11bc 65e2 d2bd 7e3c 97bd
00000380: 45f3 24bd 7a89 c43d 9a02 f43d 01e7 803d
00000390: 952c c0bd d15d d7bd 5043 bf3d 8606 873d
000003a0: ea83 02be 6484 a3bd 104c 75bd 8306 fb3d
000003b0: b0fe f7bb b7b1 06bd 813f 86bd ac1a 523c
000003c0: 8b02 d33b 43de f03d 7ed5 ef3c ec56 e0bd
000003d0: b94e ab3d 290a ee3d 2c61 e43d 3d4b 1b3d
000003e0: 0b1a ffbc 80e3 d43d 59c6 ee3d d0b0 d0bd
000003f0: be29 963d a565 903d 84f0 a43d 8364 f0bd

encoderlayers.0.bias f4 [100]
0.028096115 -0.10873581 0.10736527 0.02860545 0.0343677 -0.060582433 -0.022571402 -0.053085115
0.11055379 0.013582709 0.08510655 0.08947653 0.033701204 -0.019235084 0.076975875 0.022833867
-0.065825336 -0.05737053 0.069699995 -0.070980966 -0.041517768 -0.08992835 0.03929867 -0.022117162
0.07501171 -0.083331786 0.0025995197 0.0024229984 -0.013824861 -0.05963979 0.065158494 0.10029903
0.0918801 0.021884346 0.026012214 -0.100899994 0.07952937 0.04665279 0.066682614 0.07277515
-0.059657574 0.040768623 0.03597574 0.0300908 0.11388095 0.093189694 0.054149035 -0.023028752
0.009591773 -0.10139728 -0.08569835 -0.021091929 0.017440986 0.10144865 0.12268862 0.05249082
0.014750935 0.0021357436 0.05388366 0.012846426 0.12792587 -0.0615147 -0.10569804 -0.09144422
0.08475965 0.018275045 -0.101743706 0.0044298973 -0.06422808 -0.043115795 0.06531062 -0.07163821
-0.0500583 -0.063322276 -0.10180906 0.074583285 -0.015486286 0.04455732 0.11733143 -0.0014015944
0.02138926 0.048854724 -0.038762216 -0.058358524 0.08290649 0.121625 0.052032754 0.03714989
-0.08582341 -0.074145205 0.08875985 -0.10658007 0.12181785 -0.0037883422 0.082142025 0.0009087228
-0.05199469 0.109718256 0.09555759 -0.03648476
00000000: d329 e63c e1b0 debd 53e2 db3d fa55 ea3c
00000010: 25c5 0c3d 4925 78bd a9e7 b8bc c76f 59bd
00000020: 076a e23d 038a 5e3c 584c ae3d 793f b73d
00000030: 460a 0a3d e592 9dbc 87a5 9d3d 170e bb3c
00000040: 6fcf 86bd 5cfd 6abd dfbe 8e3d 785e 91bd
00000050: 890e 2abd 5b2c b8bd a4f7 203d 0d2f b5bc
00000060: bd9f 993d dba9 aabd b45c 2a3b 2bcb 1e3b
00000070: ab81 62bc da48 74bd d171 853d 9469 cd3d
00000080: a22b bc3d cd46 b33c 9117 d53c a8a4 cebd
00000090: 4be0 a23d ff16 3f3d e590 883d 230b 953d
000000a0: 805b 74bd 00fd 263d 4c5b 133d fb80 f63c
000000b0: 6a3a e93d 3dda be3d 61cb 5d3d cba6 bcbc
000000c0: d026 1d3c 61a9 cfbd 9e82 afbd fbc8 acbc
000000d0: 66e0 8e3c 4fc4 cf3d 2c44 fb3d 9d00 573d
000000e0: e8ad 713c d5f7 0b3b 1db5 5c3d d179 523c
000000f0: 00ff 023e d7f6 7bbd 3778 d8bd 1b47 bbbd
00000100: 7896 ad3d 8cb5 953c 015f d0bd ac28 913b
00000110: 038a 83bd 309a 30bd 93c1 853d 0eb7 92bd
00000120: ef09 4dbd 1caf 81bd 4581 d0bd 1fbf 983d
00000130: 31ba 7dbc bd81 363d 764b f03d b4b5 b7ba
00000140: 8838 af3c e41b 483d 21c5 1ebd 5909 6fbd
00000150: e1ca a93d 8716 f93d 4c20 553d 7c2a 183d
00000160: 2fc4 afbd 71d9 97bd b9c7 b53d a746 dabd
00000170: a37b f93d d645 78bb 143a a83d 5b37 6e3a
00000180: 62f8 54bd f7b3 e03d b3b3 c33d 0b71 15bd

encodernorms.0.weight f4 [100]
1.0599408 1.039946 1.0132163 1.0196812 1.0057342 1.0239067 1.0167804 1.0196456
1.048155 0.99441105 1.055585 0.9980199 1.0320222 1.0263757 1.0714846 1.0103928
1.0588909 1.047179 1.0292089 1.0156447 1.0530503 1.0306236 1.0711238 1.0725111
1.0413119 1.0695528 1.0539032 1.0381613 1.0163611 1.0028954 1.0123028 1.0541074
1.0774004 1.0841757 1.0415882 1.0674281 1.001304 1.0648842 0.99655885 1.0452402
1.0479944 1.0554148 1.0135069 1.0259867 1.0702381 1.047237 1.050246 1.0275388
1.045524 1.0069547 1.0326746 1.0361241 1.0187565 1.0164407 1.0617825 1.0316361
1.0473617 1.050907 1.048635 1.02254 1.0322045 1.0494633 1.0073315 1.020482
1.0522983 0.99176514 0.9833213 1.0398097 1.0302122 1.0169389 1.061873 1.0721141
1.0634985 1.0254383 1.0235455 0.99282897 1.022457 1.0438077 1.0168649 1.0410377
1.0353014 1.0283127 1.0413266 1.050126 1.0495313 1.0319726 1.0373898 1.0646356
1.04386 1.0373635 1.0317668 1.025762 1.0221528 1.0404936 1.026433 1.0117936
1.0483621 1.0328736 1.050592 1.0733272
00000000: 24ac 873f f31c 853f 12b1 813f ea84 823f
00000010: e6bb 803f 600f 833f dc25 823f bf83 823f
00000020: f129 863f b991 7e3f 691d 873f 3b7e 7f3f
00000030: 4e19 843f 4760 833f 6826 893f 8d54 813f
00000040: bd89 873f f609 863f 1ebd 833f a500 823f
00000050: 5aca 863f 79eb 833f 961a 893f 0b48 893f
00000060: b549 853f 1be7 883f 4de6 863f 78e2 843f
00000070: 1f18 823f e05e 803f 2393 813f feec 863f
00000080: 42e8 893f 45c6 8a3f c352 853f 7ca1 883f
00000090: bb2a 803f 204e 883f 7b1e 7f3f 6eca 853f
000000a0: ae24 863f d517 873f 98ba 813f 8853 833f
000000b0: 90fd 883f dd0b 863f 766e 863f 6486 833f
000000c0: bbd3 853f e4e3 803f ae2e 843f b79f 843f
000000d0: 9d66 823f bb1a 823f 7de8 873f a70c 843f
000000e0: f30f 863f 1f84 863f ac39 863f 97e2 823f
000000f0: 471f 843f d054 863f 3df0 803f 279f 823f
00000100: b6b1 863f 52e4 7d3f f2ba 7b3f 7c18 853f
00000110: fedd 833f 0e2b 823f 74eb 873f 093b 893f
00000120: b820 883f 9041 833f 8a03 833f 0a2a 7e3f
00000130: dfdf 823f 7e9b 853f a128 823f b940 853f
00000140: c284 843f c09f 833f 314a 853f 876a 863f
00000150: 0b57 863f ae17 843f 30c9 843f fb45 883f
00000160: 349d 853f 54c8 843f ef10 843f 2b4c 833f
00000170: e7d5 823f e52e 853f 2862 833f 7482 813f
00000180: bb30 863f 3435 843f cc79 863f c962 893f

encodernorms.0.bias f4 [100]
0.082522824 -0.013390785 0.1240103 -0.07467359 -0.061875824 -0.027784819 0.07328092 -0.050756186
-0.07394437 0.046595827 0.10022345 0.019747078 -0.014261445 -0.066472284 -0.008520677 -0.037708547
0.044103518 0.05668963 -0.084346324 -0.11811005 -0.016217584 -0.04222485 0.008441317 0.013291338
0.065284535 -0.057180468 0.091586754 0.06899084 -0.036076132 0.09224367 0.03018716 0.059372135
-0.04772929 0.009789466 -0.00822922 -0.08176425 0.11567684 -0.020857573 -0.0139191495 0.026975501
-0.027983712 0.081352554 0.041675285 -0.07267364 0.05002021 0.0798819 -0.022358214 0.04195776
-0.0749435 0.05193093 -0.01954354 -0.014369013 -0.022241112 0.051553953 -0.05741615 0.051138587
-0.0038057987 -0.030255055 0.05985165 0.043500766 -0.10087344 -0.03446473 0.09182532 0.019389745
-0.045752775 0.08180357 0.10362571 0.061393566 -0.10068919 0.0061124377 0.029518692 0.051118065
0.0061586425 -0.024189612 -0.056862783 0.009942909 0.045325834 0.021328636 -0.002720452 -0.085041374
-0.0071812235 0.051195476 -0.029409999 0.035803225 0.016365923 -0.04484235 0.032948006 -0.018827075
0.032983422 -0.09073959 -0.03520207 0.015880506 -0.022795888 -0.05297523 -0.020858523 0.051993314
-0.016576836 0.094201654 -0.06406086 -0.09200269
00000000: ba01 a93d 0665 5bbc 1df9 fd3d 78ee 98bd
00000010: 8171 7dbd fd9c e3bc 4f14 963d b8e5 4fbd
00000020: 2570 97bd 44db 3e3d f441 cd3d a0c4 a13c
00000030: d6a8 69bc 9f22 88bd 4f9a 0bbc 4774 1abd
00000040: e4a5 343d 6333 683d c4bd acbd afe3 f1bd
00000050: bdda 84bc f7f3 2cbd 734d 0a3c eac3 593c
00000060: e6b3 853d 1136 6abd d691 bb3d 124b 8d3d
00000070: 91c4 13bd 40ea bc3d 104b f73c 3230 733d
00000080: ca7f 43bd ff63 203c dad3 06bc 0474 a7bd
00000090: fbe7 ec3d 80dd aabc 250d 64bc bafb dc3c
000000a0: 193e e5bc 2b9c a63d b4b3 2a3d ebd5 94bd
000000b0: fee1 4c3d 1f99 a33d 9328 b7bc e6db 2b3d
000000c0: fa7b 99bd 87b5 543d c619 a0bc 026c 6bbc
000000d0: fe32 b6bc 3d2a 533d 322d 6bbd b276 513d
000000e0: b56a 79bb 73d9 f7bc 0127 753d dc2d 323d
000000f0: bc96 cebd e42a 0dbd ea0e bc3d 3ed7 9e3c
00000100: 4367 3bbd a188 a73d b739 d43d d277 7b3d
00000110: 2236 cebd d84a c83b 2fd1 f13c 2d61 513d
00000120: 70ce c93b 4b29 c6bc f3e8 68bd 95e7 223c
00000130: 95a7 393d 64b9 ae3c 9c49 32bb 2c2a aebd
00000140: 7850 ebbb 59b2 513d 3ded f0bc 67a6 123d
00000150: d411 863c 9dac 37bd 7df4 063d 3d3b 9abc
00000160: a019 073d aed5 b9bd 0c30 10bd d617 823c
00000170: 71be babc 8efc 58bd 7edf aabc f1f6 543d
00000180: 25cc 87bc ccec c03d 5732 83bd e86b bcbd

encodernorms.0.running_mean f4 [100]
0.39952388 0.1701452 0.03527926 0.18560046 0.13893591 0.17329013 0.12523119 0.029520579
0.31033412 0.04904008 0.30969793 0.09603876 0.057253532 0.0728831 0.30178824 0.42956176
0.2965091 0.1956844 0.33968854 0.22027786 0.31172997 0.23985478 0.37454018 0.27914125
0.27379864 0.3783336 0.30411947 0.095870554 0.11842189 0.046483733 0.22847241 0.27776617
0.5173431 0.35987648 0.0977808 0.35025844 0.0074528097 0.24617901 0.018233977 0.42151588
0.051827364 0.17685688 0.037561543 0.05055474 0.33345938 0.26341936 0.17703077 0.21719699
0.23512033 0.0017848017 0.3177855 0.30472672 0.049873542 0.2991294 0.20474373 0.26279157
0.19306292 0.23814473 0.21851489 0.038494967 0.26160246 0.081480905 0.15873842 0.22214018
0.008044984 0.0077517536 0.07703555 0.4309272 0.020521488 0.13948503 0.30323416 0.33560196
0.30083296 -0.005569092 0.25081125 0.04926763 0.10094859 0.2574535 0.068128414 0.11391346
0.19719988 0.15152504 0.000234743 0.24099495 0.21779962 0.39955014 0.13184553 0.35594156
0.084019534 0.383647 0.28096205 0.019483637 0.2120468 0.1952528 0.17188835 0.093994424
0.23581478 0.26416647 0.2837984 0.302258
00000000: 658e cc3e 8b3a 2e3e fc80 103d 0c0e 3e3e
00000010: 3745 0e3e f872 313e 9b3c 003e 24d5 f13c
00000020: 1de4 9e3e 40de 483d ba90 9e3e f8af c43d
00000030: ae82 6a3d bc43 953d fd83 9a3e 85ef db3e
00000040: 0ad0 973e 7e61 483e a8eb ad3e 8590 613e
00000050: 129b 9f3e 7e9c 753e bbc3 bf3e 9aeb 8e3e
00000060: 562f 8c3e f1b4 c13e 8cb5 9b3e c857 c43d
00000070: 2d87 f23d ba65 3e3d acf4 693e 5e37 8e3e
00000080: 9970 043f bb41 b83e 4d41 c83d 1355 b33e
00000090: b336 f43b 5a16 7c3e 6c5f 953c eed0 d73e
000000a0: ee48 543d f819 353e 22da 193d 7d12 4f3d
000000b0: 30bb aa3e e7de 863e 8e47 353e e368 5e3e
000000c0: 62c3 703e 02f0 e93a c8b4 a23e 2405 9c3e
000000d0: 3348 4c3d 7d27 993e 57a8 513e 9e8c 863e
000000e0: 49b2 453e 36dc 733e 5ec2 5f3e e6ac 1d3d
000000f0: c2f0 853e 76df a63d 538c 223e b778 633e
00000100: 1ccf 033c 6c02 fe3b d0c4 9d3d 7da2 dc3e
00000110: ae1c a83c 2ad5 0e3e 8241 9b3e 05d4 ab3e
00000120: c706 9a3e ee7c b6bb 556a 803e dbcc 493d
00000130: 22be ce3d f2d0 833e e986 8b3d 764b e93d
00000140: c4ee 493e 6129 1b3e 5825 7639 61c7 763e
00000150: dd06 5f3e d691 cc3e 8402 073e f93d b63e
00000160: 6f12 ac3d 616d c43e 42da 8f3e 269c 9f3c
00000170: cc22 593e 5af0 473e 8003 303e 2680 c03d
00000180: 6e79 713e d440 873e 064e 913e 90c1 9a3e

encodernorms.0.running_var f4 [100]
0.108661845 0.059491236 0.01095409 0.07922161 0.052285373 0.06734678 0.037135795 0.008734668
0.114251204 0.0193853 0.11045253 0.042350512 0.022636805 0.032377418 0.13256405 0.1293163
0.09448972 0.080072604 0.11281128 0.084881924 0.12547009 0.09015586 0.11088325 0.09906258
0.09664559 0.13394816 0.09698291 0.045553077 0.056386784 0.020582553 0.0753543 0.09377488
0.1840965 0.11937013 0.03685754 0.15565628 0.003720648 0.10832111 0.0036354486 0.16536584
0.017290551 0.06817319 0.027987488 0.018210359 0.1387634 0.12977646 0.06533008 0.08622427
0.08799767 0.001428064 0.098718956 0.119341016 0.020364318 0.117172144 0.07935923 0.07487483
0.06801341 0.09376599 0.07297227 0.014590094 0.08162578 0.03553417 0.05882977 0.08519018
0.004727227 0.005248388 0.039958764 0.11760863 0.008015807 0.05858839 0.11208618 0.096254475
0.10131564 0.00016299769 0.09677155 0.024887461 0.03690131 0.08418904 0.025023501 0.05235812
0.06655534 0.057337187 0.0016064015 0.083234444 0.09862077 0.14885452 0.05159832 0.12756337
0.025531571 0.12042908 0.107804425 0.006474009 0.08931764 0.0767922 0.065387286 0.03777302
0.07802876 0.093471624 0.099619545 0.11845694
00000000: 1a8a de3d 15ad 733d c978 333c f13e a23d
00000010: 3029 563d 1ced 893d b41b 183d da1b 0f3c
00000020: 89fc e93d eccd 9e3c f034 e23d bb77 2d3d
00000030: d270 b93c 2f9e 043d dfbe 073e 7e6b 043e
00000040: d483 c13d 1bfd a33d 9a09 e73d 93d6 ad3d
00000050: 3b7b 003e a3a3 b83d c216 e33d 52e1 ca3d
00000060: 20ee c53d b529 093e fa9e c63d dd95 3a3d
00000070: d4f5 663d be9c a83c 5b53 9a3d 0b0d c03d
00000080: cb83 3c3e 5478 f43d eff7 163d 5c64 1f3e
00000090: 1dd6 733b 75d7 dd3d b540 6e3b aa55 293e
000000a0: eaa4 8d3c 639e 8b3d 0446 e53c e42d 953c
000000b0: fe17 0e3e 1fe4 043e c7cb 853d 5a96 b03d
000000c0: 1f38 b43d e02d bb3a 2a2d ca3d 1069 f43d
000000d0: 12d3 a63c f3f7 ef3d 1887 a23d fa57 993d
000000e0: 9d4a 8b3d 6208 c03d 7c72 953d 4a0b 6f3c
000000f0: 6b2b a73d 478c 113d 7cf7 703d 3078 ae3d
00000100: dbe6 9a3b abfa ab3b cdab 233d cbdc f03d
00000110: bb54 033c 61fa 6f3d 708d e53d 1121 c53d
00000120: 937e cf3d 5cea 2a39 2a30 c63d cae0 cb3c
00000130: d425 173d 4e6b ac3d 16fe cc3c 7875 563d
00000140: 2b4e 883d 66da 6a3d e48d d23a d276 aa3d
00000150: b0f9 c93d 526d 183e c358 533d f99f 023e
00000160: 9627 d13c 86a3 f63d 91c8 dc3d ec23 d43b
00000170: 2bec b63d 3b45 9d3d c5e9 853d e2b7 1a3d
00000180: 8bcd 9f3d 0d6e bf3d 5505 cc3d 8d99 f23d

decoderlayers.0.weight f4 [100, 10]
0.008382104 0.10233004 0.0026566014 -0.24393654 -0.13474907 -0.002874025 0.14381345 0.22313178
-0.17090264 -0.29838723 0.015847733 -0.18493152 -0.21184108 0.24526851 -0.3218288 0.21114886
-0.27176955 -0.029903946 0.13032082 0.16716261 0.17953384 0.027796233 0.004061363 0.05905981
0.0446423 -0.18176246 -0.28463838 0.2779472 -0.25845715 -0.05597387 0.1436509 -0.08278011
-0.14822672 0.18827674 -0.02950193 -0.08178052 -0.06168334 -0.12538195 0.07962222 -0.28428963
0.2749026 0.033138655 0.2175639 -0.18793903 0.15977922 -0.15763038 0.22143212 -0.18363373
-0.0072503644 -0.2578319 -0.09267999 -0.25366554 -0.0066052545 0.074961014 0.29105946 0.17586787
-0.072420016 0.22836752 0.09095525 0.08404829 0.07199968 -0.10275093 0.23376492 -0.10789556
-0.18636037 0.050761007 0.19280027 -0.013680602 0.1803527 0.22284651 0.2602415 0.16561712
-0.12104953 0.16263293 -0.24109498 -0.06439163 -0.04476706 -0.030554656 -0.15751186 -0.3044756
-0.17990327 -0.16558115 0.28982127 -0.059693098 -0.15236045 0.24389836 0.31535038 0.1644859
0.11863423 -0.26604602 0.30322385 -0.2177264 -0.2366681 -0.0018087081 0.15341549 0.17663938
0.14320838 0.0757497 0.22215626 -0.25765127 0.109529525 0.0680868 0.29284003 0.028107315
0.1771427 0.13615532 -0.13800797 -0.22047633 -0.27347317 -0.29553643 -0.23140323 0.07443661
0.08310423 0.1781408 -0.18019392 -0.1742397 0.15312079 -0.017480396 0.002845271 0.26896736
0.09594322 -0.2057276 -0.034803793 -0.030321352 0.042907935 0.004596574 0.0030402883 0.26438686
-0.01150066 -0.078503594 -0.18113996 0.064077884 0.21088372 -0.00945087 -0.08252692 -0.0024351485
-0.28761297 -0.14261065 0.12805891 0.045711994 0.018387778 -0.30978793 -0.18524544 0.193189
0.18531248 -0.032222982 -0.12282355 0.31871703 -0.060765818 0.3050337 0.25187036 0.15523708
0.28953013 -0.16471285 -0.0288288 -0.22183967 0.13317002 0.2562087 -0.0006884454 0.119248174
-0.2731448 -0.28749493 -0.2726599 0.13724296 -0.26253492 -0.025559573 -0.112139925 -0.025712615
0.22244596 -0.2784727 0.25198847 -0.05737484 -0.10046438 -0.17338412 -0.012903703 0.07644349
0.30046758 -0.32086262 -0.23976032 0.034548983 0.17562775 0.060273264 -0.032988187 -0.26064584
-0.18679662 0.23903933 -0.22322918 0.0033684445 0.034390345 0.09725015 -0.26138923 -0.20434867
-0.21661727 -0.109119974 0.07530562 0.09775592 0.07057718 0.2228808 -0.17034803 0.2864066
-0.11215559 0.15437342 -0.18857992 -0.044227242 0.21445838 -0.2851365 -0.12424679 -0.31204265
-0.25986162 -0.040678892 0.08645408 0.060135055 0.0050680093 -0.2659286 -0.18285081 -0.2545977
-0.03854114 -0.21797805 -0.17248161 -0.07467815 0.016165929 0.11036492 -0.12085497 -0.12866965
0.035203863 -0.11828249 0.23170277 -0.21961883 0.041924108 -0.088473015 0.2674237 -0.028712243
0.060351618 -0.27023095 -0.08036721 -0.18688785 -0.11053702 -0.080230094 -0.26152495 0.2164074
0.18593293 0.08454323 0.30233955 0.28882492 -0.19819306 0.2615308 -0.0077682063 -0.25572443
-0.2390564 -0.012884136 0.27471903 -0.18739644 0.1924574 0.1626372 0.14030665 -0.13924684
00000000: 1855 093c 6992 d13d 601a 2e3b 80ca 79be
00000010: a9fb 09be 235a 3cbb d543 133e a87c 643e
00000020: 1a01 2fbe 36c6 98be 1bd3 813c b05e 3dbe
00000030: deec 58be ab27 7b3e bfc6 a4be 6837 583e
00000040: 6125 8bbe 1ff9 f4bc d272 053e ad2c 2b3e
00000050: b8d7 373e edb4 e33c 2f15 853b b3e8 713d
00000060: d8da 363d f01f 3abe 1fbc 91be 184f 8e3e
00000070: 7f54 84be db44 65bd 3919 133e 9e88 a9bd
00000080: bfc8 17be 9ecb 403e 08ae f1bc 8c7c a7bd
00000090: aca7 7cbd 2064 00be f910 a33d 698e 91be
000000a0: 09c0 8c3e 66bc 073d 12c9 5e3e 1773 40be
000000b0: 2a9d 233e dc69 21be 1abf 623e 7b0a 3cbe
000000c0: 7794 edbb 8b02 84be 02cf bdbd 73e0 81be
000000d0: e470 d8bb 2985 993d bf05 953e b516 343e
000000e0: f250 94bd 2dd9 693e bf46 ba3d 8321 ac3d
000000f0: 9174 933d 146f d2bd 1260 6f3e 59f8 dcbd
00000100: 41d5 3ebe c6ea 4f3d 6f6d 453e 9b24 60bc
00000110: 61ae 383e e031 643e 603e 853e 8997 293e
00000120: d1e8 f7bd 3f89 263e 9ae1 76be c2df 83bd
00000130: aa5d 37bd c24d fabc ca4a 21be 3ae4 9bbe
00000140: 9038 38be 1b8e 29be 7463 943e c080 74bd
00000150: 6104 1cbe 7ec0 793e 9b75 a13e fe6e 283e
00000160: 81f6 f23d 2f37 88be 2840 9b3e abf3 5ebe
00000170: 1f59 72be 2c12 edba f318 1d3e f4e0 343e
00000180: 38a5 123e a922 9b3d ee7c 633e deea 83be
00000190: 0451 e03d 1871 8b3d 21ef 953e 5041 e63c
000001a0: e564 353e 4d6c 0b3e f651 0dbe 8cc4 61be
000001b0: ad04 8cbe 8d50 97be f8f4 6cbe 3972 983d
000001c0: 8d32 aa3d 8b6a 363e c184 38be e46b 32be
000001d0: b2cb 1c3e 0c33 8fbc ba77 3a3b 17b6 893e
000001e0: e17d c43d 42aa 52be 6c8e 0ebd 7c64 f8bc
000001f0: 3bc0 2f3d dc9e 963b 933f 473b b75d 873e
00000200: 446d 3cbc 7ec6 a0bd c17c 39be 443b 833d
00000210: e7f1 573e d2d7 1abc e003 a9bd 0397 1fbb
00000220: 0242 93be 8708 12be e021 033e 803c 3b3d
00000230: f7a1 963c 869c 9ebe fbb0 3dbe 56d3 453e
00000240: 8ec2 3d3e 3ffc 03bd ea8a fbbd e12e a33e
00000250: 94e5 78bd 612d 9c3e 27f5 803e 78f6 1e3e
00000260: 4b3d 943e 7caa 28be 602a ecbc f029 63be
00000270: b95d 083e c92d 833e ca78 34ba 6338 f43d
00000280: a3d9 8bbe 8932 93be 149a 8bbe 6b89 0c3e
00000290: fa6a 86be 4f62 d1bc 9ea9 e5bd 43a3 d2bc
000002a0: e0c8 633e f993 8ebe a204 813e e101 6bbd
000002b0: 45c0 cdbd 9b8b 31be 0e6a 53bc 688e 9c3d
000002c0: e3d6 993e 1b48 a4be bb83 75be 3c83 0d3d
000002d0: c3d7 333e 19e1 763d 9f1e 07bd 5f73 85be
000002e0: 9d47 3fbe bac6 743e 3196 64be 1fc1 5c3b
000002f0: e4dc 0c3d 162b c73d cfd4 85be c740 51be
00000300: ebd0 5dbe 4b7a dfbd d539 9a3d 4134 c83d
00000310: c58a 903d dd3a 643e b76f 2ebe e3a3 923e
00000320: d4b1 e5bd 1114 1e3e 181b 41be a027 35bd
00000330: fa9a 5b3e 69fd 91be 1a75 febd 0ec4 9fbe
00000340: 950c 85be e99e 26bd d60e b13d 2d50 763d
00000350: 8b11 a63b cb27 88be 3e3d 3bbe a15a 82be
00000360: 50dd 1dbd a335 5fbe 059f 30be dcf0 98bd
00000370: 696e 843c 0107 e23d cf82 f7bd fac1 03be
00000380: ed31 103d 173e f2bd 7e43 6d3e c2e3 60be
00000390: 9db8 2b3d 5731 b5bd c2eb 883e f035 ebbc
000003a0: 4233 773d b65b 8abe 9097 a4bd 875f 3fbe
000003b0: 3c61 e2bd ad4f a4bd 99e6 85be e799 5d3e
000003c0: 3465 3e3e 0025 ad3d 40cc 9a3e dce0 933e
000003d0: 1ff3 4abe 5de7 853e 708c febb 50ee 82be
000003e0: 33cb 74be fc17 53bc f9a7 8c3e dae4 3fbe
000003f0: 8d13 453e 5e8a 263e 8cac 0f3e b996 0ebe

decoderlayers.0.bias f4 [100]
0.03514105 -0.0604456 -0.16993707 0.24388967 -0.15031485 -0.05388621 0.29435125 0.16270617
0.16911502 -0.293099 0.19101521 0.026193934 0.1749619 -0.2516995 -0.24317576 -0.071505755
0.3096666 -0.21589458 0.33208722 0.28190598 -0.0041053607 0.08823234 -0.048414186 -0.019376202
0.1254173 -0.29777262 -0.2924765 0.0029217734 -0.08927867 0.20786986 -0.16840507 0.31668168
0.043620326 0.3213672 0.07525761 0.21603058 0.1369663 -0.2366857 -0.2133593 0.12268234
0.014191079 0.1083469 0.13155746 0.12692338 -0.19504876 0.19187719 0.008814109 0.0042736535
0.010334606 -0.02363842 0.23969214 0.046721872 0.29937384 0.054069027 0.28988394 -0.023114247
-0.037830677 -0.17043807 0.29027456 -0.139719 0.33019248 0.039060663 -0.00038623178 0.21484646
0.08121646 0.12502934 -0.14762199 -0.048110075 -0.012250378 -0.10502156 0.24147466 0.29285368
-0.09094137 -0.06835786 0.020492928 0.21283817 -0.078938186 0.19551848 0.15313704 0.11459507
-0.13763468 0.030839948 -0.194735 -0.25629187 -5.64995e-05 0.28606215 0.32858306 -0.15432586
0.17777924 -0.25758317 -0.24363741 -0.27603188 0.25146404 -0.012801955 0.092068 -0.12382878
0.03383358 0.23333454 -0.25866082 0.24169871
00000000: 10f0 0f3d ce95 77bd fc03 2ebe 37be 793e
00000010: 23ec 19be c9b7 5cbd 35b5 963e 729c 263e
00000020: 7d2c 2d3e 1211 96be 7e99 433e a994 d63c
00000030: 3629 333e c2de 80be 1103 79be 9c71 92bd
00000040: 9f8c 9e3e 7813 5dbe 5607 aa3e fb55 903e
00000050: 4386 86bb 28b3 b43d f44d 46bd d7ba 9ebc
00000060: 656d 003e a775 98be 7bbf 95be 397b 3f3b
00000070: bcd7 b6bd d6db 543e 6172 2cbe 1a24 a23e
00000080: 3aab 323d 3e8a a43e a920 9a3d 1f37 5d3e
00000090: e540 0c3e bc5d 72be dc7a 5abe e140 fb3d
000000a0: b381 683c fbe4 dd3d 00b7 063e 34f8 013e
000000b0: ddba 47be 747b 443e 0d69 103c 010a 8c3b
000000c0: 7b52 293c 5ca5 c1bc db71 753e 6f5f 3f3d
000000d0: 8747 993e 7c77 5d3d ab6b 943e 175a bdbc
000000e0: 57f4 1abd 5187 2ebe de9e 943e 7f12 0fbe
000000f0: fd0e a93e 13fe 1f3d 277f cab9 b600 5c3e
00000100: d154 a63d b107 003e 382a 17be 120f 45bd
00000110: cfb5 48bc 8b15 d7bd 2245 773e ebf0 953e
00000120: 783f babd 35ff 8bbd c9e0 a73c 40f2 593e
00000130: 58aa a1bd ff35 483e f5cf 1c3e d2b0 ea3d
00000140: 1bf0 0cbe 0fa4 fc3c 9d68 47be b038 83be
00000150: e0f9 6cb8 bd76 923e 0a3c a83e 9907 1ebe
00000160: c30b 363e f1e1 83be 167c 79be 0d54 8dbe
00000170: e5bf 803e 4bbf 51bc 268e bc3d f299 fdbd
00000180: 1495 0a3d 40ef 6e3e 316f 84be de7f 773e

decodernorms.0.weight f4 [100]
0.95795345 0.9520208 0.93567437 0.95173496 0.9600711 0.95601237 0.9587177 0.9774833
0.95114547 0.9435692 0.94041395 0.9704188 0.9470913 0.95668757 0.9510423 0.96004033
0.9605792 0.95508903 0.9402913 0.97102016 0.99150634 0.961997 0.96048653 0.9811386
0.99081296 0.9485534 0.954246 0.9688333 0.9420155 0.9566087 0.94718707 0.9689394
0.98428124 0.95870703 0.9753325 0.95516634 0.95077235 0.92774856 0.9216098 0.94556653
0.9438142 0.93319184 0.96681243 0.9424729 0.9277218 0.9419349 0.9445572 0.9639353
0.9561524 0.9523486 0.9580515 0.95730567 0.957132 0.9508389 0.9491399 0.9414691
0.96740115 0.9506917 0.9479701 0.9695513 0.93831766 0.94957495 0.9209068 0.96764547
0.9672237 0.9619691 0.9381647 0.9294797 0.9760509 0.9661596 0.96791863 0.96059316
0.9657058 0.92972505 0.96162313 0.9611888 0.94193494 0.9481318 0.96630913 0.9778494
0.9565153 0.9583157 0.9464132 0.93656725 0.9380448 0.9509112 0.9714992 0.95453715
0.9678409 0.9728574 0.954943 0.9394259 0.9548639 0.95052576 0.94585794 0.9492332
0.96009207 0.96198744 0.93993 0.9715747
00000000: 703c 753f a3b7 733f 5b88 6f3f e7a4 733f
00000010: 38c7 753f 3abd 743f 866e 753f 583c 7a3f
00000020: 457e 733f c08d 713f f8be 703f 5e6d 783f
00000030: 9374 723f 7ae9 743f 8277 733f 34c5 753f
00000040: 85e8 753f b780 743f eeb6 703f c794 783f
00000050: 5cd3 7d3f 6f45 763f 72e2 753f e62b 7b3f
00000060: eba5 7d3f 65d4 723f 7749 743f 7605 783f
00000070: ee27 713f 4fe4 743f da7a 723f 6a0c 783f
00000080: dbf9 7b3f d36d 753f 64af 793f c885 743f
00000090: d165 733f ee80 6d3f 9fee 6b3f a610 723f
000000a0: cf9d 713f a9e5 6e3f 0581 773f e745 713f
000000b0: 2d7f 6d3f a522 713f 80ce 713f 77c4 763f
000000c0: 67c6 743f 1ecd 733f dd42 753f fc11 753f
000000d0: 9a06 753f 2e6a 733f d5fa 723f 1e04 713f
000000e0: 9aa7 773f 8860 733f 2bae 723f 8434 783f
000000f0: 9635 703f 5817 733f 8cc0 6b3f 9db7 773f
00000100: f99b 773f 9b43 763f 902b 703f 62f2 6d3f
00000110: 79de 793f 3c56 773f 84c9 773f 6fe9 753f
00000120: 7f38 773f 7602 6e3f ef2c 763f 7810 763f
00000130: a622 713f c4b8 723f 0960 773f 5754 7a3f
00000140: 30de 743f 2d54 753f 2348 723f dfc2 6f3f
00000150: b423 703f eb6e 733f 2cb4 783f 8c5c 743f
00000160: 6cc4 773f 2f0d 793f 2577 743f 377e 703f
00000170: f671 743f a855 733f bf23 723f f200 733f
00000180: 98c8 753f cf44 763f 419f 703f 1fb9 783f

decodernorms.0.bias f4 [100]
-0.017129168 0.0034511846 -0.006540991 0.014237864 -0.002644098 0.036090028 0.0041515017 -0.007598808
0.02611895 -0.0009758277 -0.023544503 -0.013393212 0.041008927 0.04640974 0.010593269 0.009206553
0.051516376 0.015934838 0.0037681626 -0.0023442477 0.011153944 0.0122952815 -0.0009735874 0.0042053987
-0.0109571675 -0.010842058 0.03715041 -0.056576688 0.010532983 -0.02819016 0.0199233 0.021748353
-0.023445055 0.04284947 -0.021758853 0.017481191 0.021551378 0.026377838 -0.037474103 0.032311156
0.008262101 -0.011975333 -0.0031992914 -0.030364508 -0.03438958 -0.013252237 -0.002355859 -0.024010006
0.057443094 0.027884943 0.0017847773 0.02851051 -0.008247869 -0.043073803 -0.0136807365 0.04419459
0.0052810595 -0.036396224 0.01793986 0.024106044 0.0050038407 0.012193476 -0.017285742 0.028257746
0.0054683066 -0.0015240351 0.051484536 0.013049983 0.029957123 0.004784372 -0.004919348 -0.02632476
-0.0076813903 0.0124993585 -0.042463593 0.025499271 0.015300089 -0.020780414 5.032942e-05 -0.009383415
0.036843356 -0.008786068 0.013333003 0.029232271 0.0014697199 -0.003790347 -0.011296729 -0.0006108299
0.015243082 -0.009799001 0.007046693 0.011930169 -0.031811163 0.02229971 -0.04102826 0.001501814
-0.015922558 0.05319975 0.05259797 -0.013316937
00000000: 7852 8cbc 452d 623b cf55 d6bb ee45 693c
00000010: 9a48 2dbb 23d3 133d 5209 883b 6cff f8bb
00000020: 69f7 d53c b0ce 7fba 67e0 c0bc 346f 5bbc
00000030: faf8 273d 2418 3e3d 648f 2d3c 15d7 163c
00000040: d602 533d c789 823c 47f3 763b f3a1 19bb
00000050: 08bf 363c 2672 493c 5838 7fba 71cd 893b
00000060: b185 33bc e3a2 31bc 072b 183d f5bc 67bd
00000070: 8892 2c3c 0def e6bc 3036 a33c 9a29 b23c
00000080: d80f c0bc ed82 2f3d 9f3f b2bc b734 8f3c
00000090: 848c b03c 5616 d83c 727e 19bd b458 043d
000000a0: c35d 073c 3034 44bc 34ab 51bb fdbe f8bc
000000b0: 17dc 0cbd e91f 59bc c164 1abb a2b0 c4bc
000000c0: 7349 6b3d f76e e43c 30ef e93a e08e e93c
000000d0: 1222 07bc 286e 30bd 2b25 60bc 6305 353d
000000e0: bd0c ad3b 3514 15bd 9df6 923c 0a7a c53c
000000f0: 42f7 a33b 25c7 473c d49a 8dbc ca7c e73c
00000100: 7b2f b33b 22c2 c7ba 73e1 523d 99cf 553c
00000110: a468 f53c 39c6 9c3b 7b32 a1bb 06a7 d7bc
00000120: 2cb4 fbbb 1cca 4c3c 4eee 2dbd d9e3 d03c
00000130: 39ad 7a3c b03b aabc ce18 5338 e5bc 19bc
00000140: 0fe9 163d 71f3 0fbc ab72 5a3c 8478 ef3c
00000150: 9ea3 c03a 7867 78bb ea15 39bc 1a20 20ba
00000160: 1fbe 793c fd8b 20bc f2e7 e63b c176 433c
00000170: 6c4c 02bd e2ad b63c 400d 28bd 84d8 c43a
00000180: 0670 82bc fbe7 593d f870 573d 482f 5abc

decodernorms.0.running_mean f4 [100]
0.31358948 0.48148498 0.24244037 0.45801386 0.33963975 0.29451248 0.48464048 0.51276207
0.47574386 0.27595076 0.44654566 0.33727852 0.27313435 0.16257693 0.23296323 0.36414042
0.61573136 0.24828206 0.54891557 0.5175136 0.40884158 0.4011534 0.17894807 0.37926713
0.54665947 0.23700137 0.18786177 0.38954124 0.26975998 0.496482 0.31517753 0.39754868
0.45671076 0.50032973 0.43907747 0.3694476 0.4272589 0.26396573 0.20591755 0.3129102
0.23495032 0.38678437 0.35776317 0.5389595 0.2151002 0.5596308 0.26138481 0.2559268
0.39374018 0.33796093 0.612822 0.38730407 0.5634968 0.36412612 0.43147266 0.3304475
0.464828 0.31279364 0.57640445 0.2805714 0.5712158 0.42518914 0.34856722 0.44102466
0.51781285 0.45568413 0.28179672 0.42203918 0.3564776 0.36785057 0.67998344 0.55591077
0.4035431 0.29969406 0.50566757 0.5289196 0.28030103 0.44453543 0.4210334 0.42202705
0.39043573 0.44011378 0.23646815 0.2600856 0.37684754 0.5438072 0.66048586 0.29994172
0.49726218 0.43457907 0.26305497 0.14241241 0.4709243 0.276343 0.36753434 0.329288
0.40179756 0.4174662 0.12696175 0.4083564
00000000: cd8e a03e 3385 f63e 4a42 783e cb80 ea3e
00000010: 43e5 ad3e 57ca 963e cc22 f83e 6044 033f
00000020: b394 f33e 6b49 8d3e a2a1 e43e c5af ac3e
00000030: 44d8 8b3e 917a 263e ea8d 6e3e 9d70 ba3e
00000040: 92a0 1d3f a73d 7e3e bb85 0c3f c57b 043f
00000050: af53 d13e fa63 cd3e 2a3e 373e 4d2f c23e
00000060: e0f1 0b3f 7db0 723e d65e 403e f371 c73e
00000070: fb1d 8a3e e432 fe3e f35e a13e 808b cb3e
00000080: fed5 e93e 9c15 003f c3ce e03e 3c28 bd3e
00000090: aec1 da3e 8426 873e 0ddc 523e c435 a03e
000000a0: d196 703e 9a08 c63e bc2c b73e 40f9 093f
000000b0: 3a43 5c3e f743 0f3f 3bd4 853e d608 833e
000000c0: 5098 c93e 3709 ad3e e7e1 1c3f b84c c63e
000000d0: 5441 103f bd6e ba3e fce9 dc3e 6a30 a93e
000000e0: f0fd ed3e 7d26 a03e 3e8f 133f 0ea7 8f3e
000000f0: 333b 123f 64b2 d93e 6777 b23e fccd e13e
00000100: 628f 043f 6e4f e93e a947 903e 8515 d83e
00000110: 3b84 b63e e956 bc3e 6513 2e3f 2b50 0e3f
00000120: 349d ce3e 8071 993e 6e73 013f 4667 073f
00000130: 9e83 8f3e 269a e33e b191 d73e ee13 d83e
00000140: 31e7 c73e 9856 e13e b524 723e f129 853e
00000150: 29f2 c03e f336 0b3f 9a15 293f f691 993e
00000160: 2699 fe3e 2681 de3e 24af 863e 8fd4 113e
00000170: fd1c f13e d47c 8d3e 762d bc3e 7098 a83e
00000180: 69b8 cd3e 21be d53e 4302 023e 1714 d13e

decodernorms.0.running_var f4 [100]
0.24958438 0.6633916 0.19224377 0.34821412 0.3382369 0.28658792 0.5040366 0.5261293
0.47727743 0.31580713 0.4717121 0.2611201 0.14788891 0.12430149 0.24261034 0.4384995
0.7084211 0.19074045 0.46035033 0.51563156 0.41280735 0.30973312 0.092746325 0.35689628
0.56821644 0.23163293 0.16439094 0.38757208 0.23026519 0.38228473 0.3246508 0.3287034
0.6002413 0.3656955 0.5284223 0.31643257 0.36592868 0.29161638 0.19815844 0.20224552
0.15015256 0.30655268 0.27189225 0.63789815 0.20771246 0.5534141 0.1958402 0.18608974
0.3939867 0.34029296 0.70701474 0.35776308 0.6873597 0.35129127 0.37706414 0.3222545
0.5335264 0.33486366 0.52708703 0.2796292 0.6052427 0.43980572 0.3538194 0.43327063
0.6120364 0.41074577 0.28624806 0.50037414 0.36702764 0.40501946 1.0126586 0.6098873
0.4332745 0.2879836 0.6606309 0.5436815 0.2487607 0.37164834 0.37713772 0.41534248
0.388952 0.5512987 0.17241056 0.20991589 0.46193245 0.5661835 0.7520252 0.27922243
0.5695326 0.5714053 0.20237009 0.11184757 0.39374664 0.22249746 0.39279592 0.30913553
0.39002982 0.32182068 0.07383967 0.2653293
00000000: 0c93 7f3e 08d4 293f 8ddb 443e 1f49 b23e
00000010: 632d ad3e a7bb 923e 8b08 013f 69b0 063f
00000020: b55d f43e 79b1 a13e 4084 f13e 89b1 853e
00000030: 3170 173e c891 fe3d d86e 783e 0283 e03e
00000040: 165b 353f 7751 433e 0ab3 eb3e 6e00 043f
00000050: 7c5b d33e 5795 9e3e c9f1 bd3d 1cbb b63e
00000060: a276 113f 2f31 6d3e 1956 283e d96f c63e
00000070: a3ca 6b3e d3ba c33e a138 a63e d04b a83e
00000080: 6aa9 193f 713c bb3e af46 073f 7303 a23e
00000090: 015b bb3e be4e 953e 0cea 4a3e 7319 4f3e
000000a0: 98c1 193e 79f4 9c3e 7635 8b3e 4b4d 233f
000000b0: 93b2 543e 8cac 0d3f 558a 483e 4f8e 3e3e
000000c0: a0b8 c93e e13a ae3e ebfe 343f b92c b73e
000000d0: cef6 2f3f 73dc b33e 8d0e c13e 8bfe a43e
000000e0: 3095 083f 4073 ab3e 2def 063f 8f2b 8f3e
000000f0: 30f1 1a3f 372e e13e d127 b53e a6d5 dd3e
00000100: 6bae 1c3f 454d d23e 1b8f 923e 8518 003f
00000110: 0ceb bb3e b65e cf3e cc9e 813f 9321 1c3f
00000120: 28d6 dd3e 9672 933e 1b1f 293f b62e 0b3f
00000130: 20bb 7e3e b148 be3e 3218 c13e c5a7 d43e
00000140: b724 c73e e921 0d3f 658c 303e 31f4 563e
00000150: 6982 ec3e 67f1 103f b984 403f 3ef6 8e3e
00000160: e3cc 113f 9e47 123f 1b3a 4f3e 5710 e53d
00000170: 2999 c93e 60d6 633e 8c1c c93e 0347 9e3e
00000180: fdb1 c73e aec5 a43e 4139 973d 3ed9 873e

mu.weight f4 [10, 100]
0.053540874 -0.10561051 0.07742369 0.02305039 0.08300529 0.05395372 -0.060060956 -0.07231566
0.05491279 -0.028473724 0.06559983 0.048382938 -0.10712419 0.014169302 -0.14696713 -0.020423383
-0.05338703 0.031012664 0.026410582 -0.026596298 -0.03595761 -0.023574917 0.007068392 0.13216656
0.0032827402 -0.1486875 0.16285352 0.069942065 -0.04439879 -0.005246381 -0.09814956 0.09064783
-0.12753415 0.1746149 -0.094332285 0.061312146 -0.09982022 0.079588726 0.090478145 -0.08764054
-0.06749193 0.035715953 -0.0808198 -0.115375064 -0.08214236 -0.11535338 0.02954471 0.027963733
0.02473466 -0.02195458 0.026769629 -0.10961644 0.048018113 -0.04021264 -0.09063199 0.058909345
-0.060918164 -0.07469312 -0.08324859 -0.09452986 0.12145367 0.11787585 0.093089625 -0.06752048
-0.008105071 -0.07263395 -0.05952205 -0.09855513 -0.026872337 0.06777267 -0.0904318 -0.00042860655
-0.017681425 0.08612139 0.13198419 -0.014305838 -0.08977129 -0.09372447 -0.00012831944 -0.10954495
-0.08355605 0.11722481 -0.033196367 0.067487404 0.095315784 -0.029662566 -0.031434573 -0.07985339
-0.1272549 0.059654385 0.10111469 -0.060918037 -0.11559946 -0.03326983 0.00870783 -0.081452854
0.023706226 0.07597711 0.046354387 0.030079234 -0.009538467 -0.10045517 -0.011252313 -0.032028202
0.10148101 0.005816859 -0.047660857 0.03831796 -0.056684773 0.034305118 -0.11733296 -0.108846456
-0.08836228 0.025525566 -0.1470108 0.08886786 0.0138524575 -0.11990358 0.062269434 -0.03649814
-0.11794212 0.031498007 -0.06470234 0.067426085 -0.107497744 0.10865069 -0.06334708 0.0161431
0.024755403 -0.08294292 -0.01066245 -0.09605324 -0.09441388 -0.063212484 -0.11359707 -0.027922017
-0.028321708 -0.048195012 -0.061746713 -0.0164461 0.087620385 0.08063202 0.0774545 0.020526595
-0.035200175 0.063987 0.02722713 0.071623646 -0.02064206 0.07714767 0.030939626 0.0038429007
0.08946233 0.002434248 -0.10187161 -0.0003596453 -0.107895195 0.09862142 0.06537402 0.027713213
0.049699347 -0.03205949 -0.095377974 -0.060806103 0.018016502 -0.013710848 -0.048066713 -0.066918686
0.07202338 -0.049879745 0.14092875 0.12877963 -0.05788585 -0.08718248 -0.037015855 0.05319183
0.09424099 -0.022148907 0.06495962 -0.09890377 0.016698966 0.036833543 0.15277727 -0.07685813
-0.023490947 0.09361548 0.029502828 0.03631527 -0.029339751 0.022085398 -0.03526578 -0.029449595
-0.016887482 -0.110562876 -0.04858216 -0.030181361 0.047127295 0.03785816 0.027576106 -0.0009740003
-0.09262009 -0.121934 0.055442393 -0.095100306 -0.07291435 0.05819682 0.08920004 0.10352462
0.019321032 -0.09133639 0.07393644 -0.07562352 0.060717575 0.10977916 -0.01776889 0.10157375
0.09091857 0.016028348 -0.03237699 -0.0046814703 -0.058984734 -0.022302594 0.06826891 -0.10658558
-0.06101741 -0.08323257 -0.039426785 -0.08655472 0.023722619 -0.033262048 -0.032038644 0.051494453
0.067017056 -0.05637622 -0.092231825 0.047982864 -0.075238645 0.07248895 -0.06497651 -0.041651674
-0.072851956 -0.15527026 0.07443935 -0.076250136 -0.014442606 -0.1282926 0.030089835 0.08457603
0.0042788233 -0.044566687 -0.00156291 0.045724142 -0.077077 -0.019254439 -0.10922018 -0.051606093
00000000: ad4d 5b3d 534a d8bd 5090 9e3d 2cd4 bc3c
00000010: adfe a93d 93fe 5c3d 7a02 76bd 3c1a 94bd
00000020: 3cec 603d ba41 e9bc 3459 863d 302d 463d
00000030: ed63 dbbd 5c26 683c 8d7e 16be f04e a7bc
00000040: 5cac 5abd 450e fe3c 015b d83c 7be0 d9bc
00000050: 4948 13bd 2f20 c1bc f89d e73b ac56 073e
00000060: 3e23 573b 8941 18be 13c3 263e c93d 8f3d
00000070: 81db 35bd d5e9 abbb a302 c9bd 92a5 b93d
00000080: 5098 02be 40ce 323e 4931 c1bd 7222 7b3d
00000090: 8b6e ccbd 6aff a23d 9b4c b93d e27c b3bd
000000a0: 3639 8abd e44a 123d da84 a5bd c349 ecbd
000000b0: 413a a8bd 653e ecbd bf07 f23c 3314 e53c
000000c0: 57a0 ca3c 17da b3bc fb4b db3c 967e e0bd
000000d0: a4ae 443d 02b6 24bd 449d b9bd ed4a 713d
000000e0: 5385 79bd b5f8 98bd 3d7e aabd df98 c1bd
000000f0: b4bc f83d e568 f13d c6a5 be3d 2d48 8abd
00000100: 22cb 04bc 1cc1 94bd 65cd 73bd 46d7 c9bd
00000110: 6023 dcbc 66cc 8a3d 4f34 b9bd 99b6 e0b9
00000120: a3d8 90bc 6960 b03d dd26 073e 0963 6abc
00000130: 03da b7bd 9df2 bfbd 7d8d 06b9 1a59 e0bd
00000140: 6f1f abbd 9013 f03d eaf8 07bd d636 8a3d
00000150: ec34 c33d e9fe f2bc 8ac1 00bd 2d8a a3bd
00000160: 1c4f 02be 2858 743d 3815 cf3d 3185 79bd
00000170: 69bf ecbd f245 08bd 49ab 0e3c c1d0 a6bd
00000180: 8f33 c23c e399 9b3d 19de 3d3d ba68 f63c
00000190: 3b47 1cbc 71bb cdbd 9f5b 38bc 0130 03bd
000001a0: 47d5 cf3d 5a9b be3b 0838 43bd 4bf3 1c3d
000001b0: 4b2e 68bd 8683 0c3d 434c f0bd e4ea debd
000001c0: 48f7 b4bd fe1a d13c 008a 16be 5a00 b63d
000001d0: 6bf5 623c 0290 f5bd 3c0e 7f3d 137f 15bd
000001e0: a38b f1bd 0e04 013d a982 84bd b016 8a3d
000001f0: c727 dcbd 4184 de3d 1dbc 81bd 893e 843c
00000200: d8cb ca3c fadd a9bd 8fb1 2ebc 90b7 c4bd
00000210: 105c c1bd 8c75 81bd 95a5 e8bd b7bc e4bc
00000220: ed02 e8bc 2268 45bd 1fea 7cbd f9b9 86bc
00000230: 5172 b33d 6722 a53d 77a0 9e3d 6427 a83c
00000240: 0f2e 10bd 9e0b 833d 6e0b df3c 6baf 923d
00000250: 8a19 a9bc 99ff 9d3d 1975 fd3c 2dd9 7b3b
00000260: 0738 b73d e887 1f3b 10a2 d0bd c68e bcb9
00000270: 28f8 dcbd 07fa c93d d0e2 853d d206 e33c
00000280: 8b91 4b3d d050 03bd 8755 c3bd d20f 79bd
00000290: 5897 933c 77a3 60bc 9ae1 44bd aa0c 89bd
000002a0: fe80 933d b44e 4cbd a04f 103e cfde 033e
000002b0: b719 6dbd ba8c b2bd f09d 17bd addf 593d
000002c0: 6c01 c13d a071 b5bc 8d09 853d 0f8e cabd
000002d0: 45cc 883c c5de 163d a571 1c3e cc67 9dbd
000002e0: 1670 c0bc 79b9 bf3d eaaf f13c 52bf 143d
000002f0: eb59 f0bc 70ec b43c da72 10bd 4740 f1bc
00000300: 9e57 8abc ca6e e2bd 16fe 46bd e73e f7bc
00000310: 8d08 413d 2811 1b3d 49e7 e13c 0e54 7fba
00000320: 9aaf bdbd 88b8 f9bd 9017 633d f3c3 c2bd
00000330: 1e54 95bd ca5f 6e3d 83ae b63d b704 d43d
00000340: 2447 9e3c 930e bbbd fd6b 973d 81e0 9abd
00000350: feb2 783d e5d3 e03d 1090 91bc e605 d03d
00000360: 8433 ba3d e24d 833c bc9d 04bd 0567 99bb
00000370: fa99 71bd eeb3 b6bc 92d0 8b3d 8a49 dabd
00000380: 64ed 79bd d675 aabd fb7d 21bd 9a43 b1bd
00000390: f055 c23c c93d 08bd f43a 03bd d9eb 523d
000003a0: 3d40 893d c0ea 66bd 0ae4 bcbd ae89 443d
000003b0: b816 9abd 1675 943d 6812 85bd f29a 2abd
000003c0: 6833 95bd 2bff 1ebe a873 983d 0829 9cbd
000003d0: aea0 6cbc 235f 03be f57e f63c 3336 ad3d
000003e0: 5f35 8c3b 8f8b 36bd 8fda ccba 3d49 3b3d
000003f0: 8cda 9dbd 7cbb 9dbc d4ae dfbd e960 53bd

mu.bias f4 [10]
-0.03900863 -0.05690633 0.06378391 0.060236834 -0.027410947 0.07906776 -0.059240784 -0.101973325
-0.089075126 -0.0057059266
00000000: 83c7 1fbd 9d16 69bd 23a1 823d e6ba 763d
00000010: ec8c e0bc 47ee a13d 77a6 72bd 64d7 d0bd
00000020: 056d b6bd c8f8 babb

var.weight f4 [10, 100]
-0.06847874 -0.017305015 -0.08187715 0.04384005 0.1015958 0.011838034 0.022021137 0.08546043
0.06699845 -0.0069804485 -0.03691852 0.026428567 -0.086114176 0.09925397 0.026144182 0.069692805
-0.09348429 -0.04054138 -0.042872407 0.10115235 0.08717051 0.03388794 -0.055221952 -0.029603109
-0.08423649 0.011039348 -0.08323768 0.049674403 -0.06049093 -0.06438988 -0.033239193 -0.053401027
0.08736014 0.032881565 -0.08636212 0.036393065 -0.0024662206 0.09128013 0.017323708 -0.075637184
0.056980792 -0.004158199 -0.02214577 0.01819078 -0.06613584 0.033333085 0.0065494142 -0.03645797
0.038486697 -0.014501984 0.039517265 0.05463432 -0.013355607 -0.09373113 0.07904775 -0.0467255
-0.028821563 -0.015731493 -0.097377054 0.046232935 0.045086835 -0.052980613 0.06979101 0.05884452
0.09310369 -0.0942743 -0.063962825 -0.022420663 0.057197977 -0.008967366 0.045078192 -0.0062191575
0.033185467 -0.01547459 -0.035786804 0.088463604 -0.099813625 -0.051915143 -0.043992262 0.067704245
0.010800886 0.06456048 -0.04084053 -0.08805667 0.059851266 -0.010092994 0.023456508 0.06834188
-0.04942624 -0.0019372669 0.07570306 0.041523244 -0.063348286 0.055927977 -0.021219874 0.054046817
0.08570369 -0.015133772 -0.012668322 0.04443909 0.03849512 -0.01958302 -0.089589596 0.031596914
-0.02894224 0.0060574533 0.005960277 -0.078005396 0.052421305 0.038956884 -0.09863991 0.0029044973
0.034675334 0.0674864 -0.018600438 -0.06963229 0.016723739 -0.0944691 0.06016407 0.04919456
0.04949095 0.1056658 0.036746386 -0.09516543 0.024017155 0.07291964 -0.08560985 -0.05532754
0.04446223 0.092353255 -0.017503163 0.052569818 -0.060070973 0.01610861 -0.0795764 0.023498787
-0.06135032 -0.064628296 0.08264164 -0.06892996 0.077555805 -0.05103727 -0.04190587 0.08065191
0.03991732 0.009955856 0.04681774 0.0062276167 0.08246766 0.022751387 -0.04533019 0.005275107
0.06404023 0.005961471 -0.07205704 0.06804516 0.031312555 0.032883305 0.015061233 0.012422512
0.10583545 -0.0022237273 -0.021380607 -0.082347244 -0.015435185 0.063549794 -0.05153112 0.058258787
0.059248257 0.025624575 -0.037065364 0.06309458 0.053842835 -0.051638946 0.03318943 -0.006494569
-0.042383812 -0.055468395 0.0860568 -0.043412562 -0.041583907 0.07895495 -0.024196856 -0.03611386
0.005304677 0.06792853 -0.05291279 -0.04310598 0.049583495 0.08617247 0.06176841 0.0015395873
-0.0961005 -0.0100105 0.11127016 0.021370877 -0.051043287 0.009363716 0.0109644 0.01830409
-0.002123841 0.057119753 -0.04446661 0.04084103 0.043484688 -0.08180757 0.025424454 0.09080205
0.0049275556 -0.07965894 0.033576258 -0.019087927 0.011219951 -0.06473278 0.05613729 -0.034651708
-0.073198915 -0.0150091145 -0.064256795 0.053331617 -0.030507995 -0.009857314 -0.059164334 0.049196713
-0.021921776 -0.0343545 -0.083493754 -0.049684342 0.042260054 0.010062901 0.02781451 -0.020694219
0.041171543 -0.05519521 0.002688446 0.031601004 -0.044997443 0.01532508 0.07876431 -0.020841554
-0.004363118 -0.024680428 -0.0825881 -0.016206862 0.004716479 -0.05947163 0.09880772 0.06407392
0.004614979 0.015429115 -0.046724044 -0.05612266 0.022143887 0.0011306376 -0.03650602 0.06273317
00000000: 953e 8cbd 3fc3 8dbc 35af a7bd a091 333d
00000010: 7511 d03d 50f4 413c ac65 b43c e105 af3d
00000020: 7c36 893d 3fbc e4bb e037 17bd b980 d83c
00000030: a15c b0bd aa45 cb3d 532c d63c 1abb 8e3d
00000040: b174 bfbd b80e 26bd fa9a 2fbd f728 cf3d
00000050: 7486 b23d 15ce 0a3d 6a30 62bd 3882 f2bc
00000060: 2e84 acbd 62de 343c 8478 aabd 6377 4b3d
00000070: 56c5 77bd d7de 83bd d225 08bd 09bb 5abd
00000080: e0e9 b23d d2ae 063d a0de b0bd e510 153d
00000090: 51a0 21bb 14f1 ba3d 73ea 8d3c abe7 9abd
000000a0: b164 693d 8041 88bb 0c6b b5bc d504 953c
000000b0: 3a72 87bd 4688 083d 789c d63b f454 15bd
000000c0: 3aa4 1d3d bb99 6dbc dbdc 213d 3dc8 5f3d
000000d0: 7ad1 5abc 1bf6 bfbd c9e3 a13d 3d63 3fbd
000000e0: 331b ecbc 55df 80bc 9f6d c7bd bf5e 3d3d
000000f0: f9ac 383d 3302 59bd 97ee 8e3d f406 713d
00000100: 26ad be3d e212 c1bd f1fe 82bd 8aab b7bc
00000110: 6d48 6a3d dceb 12bc e9a3 383d 13ca cbbb
00000120: 7ced 073d 2289 7dbc 2f95 12bd 682c b53d
00000130: 166b ccbd f9a4 54bd 3b31 34bd 86a8 8a3d
00000140: 33f6 303c 4938 843d 6648 27bd 0e57 b4bd
00000150: 9a26 753d 165d 25bc dd27 c03c d4f6 8b3d
00000160: 2b73 4abd e4eb fdba 350a 9b3d 4714 2a3d
00000170: bfbc 81bd bc14 653d 4dd5 adbc 3260 5d3d
00000180: 6b85 af3d a4f3 77bc cb8e 4fbc c305 363d
00000190: 0fad 1d3d 926c a0bc c07a b7bd c46b 013d
000001a0: 4718 edbc 9a7d c63b 6d4e c33b 4bc1 9fbd
000001b0: b9b7 563d 4191 1f3d b903 cabd 6159 3e3b
000001c0: b907 0e3d 4f36 8a3d f25f 98bc 609b 8ebd
000001d0: 3900 893c 0479 c1bd 9a6e 763d 3c80 493d
000001e0: 06b7 4a3d 5067 d83d 6183 163d 18e6 c2bd
000001f0: a0bf c43c e456 953d 3854 afbd 219f 62bd
00000200: 071e 363d b423 bd3d cb62 8fbc 7353 573d
00000210: fb0c 76bd 34f6 833c f4f8 a2bd 8780 c03c
00000220: 794a 7bbd d75b 84bd 0540 a93d 272b 8dbd
00000230: 94d5 9e3d 750c 51bd 7da5 2bbd d42c a53d
00000240: 5880 233d e31d 233c f5c3 3f3d 0911 cc3b
00000250: cee4 a83d 1e61 ba3c 26ac 39bd ceda ac3b
00000260: 8627 833d 7158 c33b a492 93bd 435b 8b3d
00000270: 9841 003d a5b0 063d 64c3 763c cb87 4b3c
00000280: 42c0 d83d f4bb 11bb 6226 afbc aca5 a8bd
00000290: dce3 7cbc 6526 823d 4c12 53bd c4a0 6e3d
000002a0: 4dae 723d a1ea d13c dad1 17bd bb37 813d
000002b0: 4e8a 5c3d 5c83 53bd a4f1 073d 65d0 d4bb
000002c0: a69a 2dbd d432 63bd 8c3e b03d 5fd1 31bd
000002d0: e353 2abd 22b3 a13d 7c38 c6bc 20ec 13bd
000002e0: dbd2 ad3b 1d1e 8b3d 15bb 58bd e58f 30bd
000002f0: 1018 4b3d 317b b03d df00 7d3d facb c93a
00000300: 57d0 c4bd 1503 24bc 9ce1 e33d fa11 af3c
00000310: c412 51bd 456a 193c 07a4 333c 75f2 953c
00000320: 2430 0bbb 67f6 693d 9f22 36bd ed48 273d
00000330: 001d 323d ba8a a7bd f246 d03c 6df6 b93d
00000340: 5577 a13b 3a24 a3bd 4287 093d 495e 9cbc
00000350: e3d3 373c 9f92 84bd 37f0 653d f3ee 0dbd
00000360: 50e9 95bd cae8 75bc 1199 83bd 4172 5a3d
00000370: e7eb f9bc 9280 21bc 4d56 72bd 7e82 493d
00000380: 4c95 b3bc 4eb7 0cbd c6fe aabd cf81 4bbd
00000390: e118 2d3d dede 243c 41db e33c ec86 a9bc
000003a0: 7ea3 283d 5f14 62bd a430 303b 0e70 013d
000003b0: 3d4f 38bd 0b16 7b3c 2f4f a13d e8bb aabc
000003c0: 7df8 8ebb 9c2e cabc f323 a9bd 41c4 84bc
000003d0: b28c 9a3b 8698 73bd b45b ca3d 3039 833d
000003e0: 4039 973b 66ca 7c3c b661 3fbd e0e0 65bd
000003f0: 1967 b53c e731 943a 5687 15bd 407a 803d

var.bias f4 [10]
-0.096081726 -0.09487183 -0.14857346 -0.054568235 -0.041921597 0.013236115 -0.041465208 -0.08480632
-0.19046992 -0.15534699
00000000: 7fc6 c4bd 294c c2bd a423 18be f182 5fbd
00000010: fbb5 2bbd 4adc 583c 6cd7 29bd f0ae adbd
00000020: 8c0a 43be 4813 1fbe
