tutorial/interim_data_test/models/model_8_5.pt (torch, 14357 bytes, 18 tensors)

encoderlayers.0.weight f4 [12, 70]
000000 4f 63 f8 3d 4b 8a 9e 3d 90 e4 30 3e a0 99 dd bd
       0.121283166 0.07741221 0.1727469 -0.10820317
000010 6f a6 c6 3d ca 90 19 3c cc 55 89 bd 3f 5a c4 bd
       0.096997134 0.009372899 -0.067058176 -0.095875256
000020 e5 f8 7f be b6 26 42 3e 5c a1 f5 bc fe a8 2b bc
       -0.2499729 0.1896008 -0.029984169 -0.010477303
000030 28 0c a0 bb 35 31 e2 3c 36 ba 59 3d bf 46 34 bd
       -0.0048842616 0.027611354 0.0531561 -0.04401278
000040 47 f7 65 bd 2d f9 a6 3c 86 77 20 bd 6f 62 59 bc
       -0.056144025 0.020382488 -0.039176486 -0.013268097
000050 d7 9b 3f 3c f6 05 5e bb 2b 03 2e bc 0b c0 e4 bd
       0.01169487 -0.0033878065 -0.0106208725 -0.11169442
000060 d1 e0 a7 3d 15 f8 29 3d e8 e9 46 3c 78 d6 8b bd
       0.08197177 0.041496355 0.0121407285 -0.06828016
000070 34 11 47 3d bd 7d 87 3c bd d4 45 3d 82 7d fe 3c
       0.04860039 0.016539449 0.048298586 0.031065706
000080 6e 07 21 bc 01 8c 28 bd aa ee ea 3d 75 2e cc 3d
       -0.0098284315 -0.041149143 0.11471303 0.099697985
000090 f0 e8 1e 3d db 31 3c bd 40 d6 65 bc fe 72 97 3c
       0.038796365 -0.045945983 -0.014028132 0.01848745
0000a0 1f e7 44 3d 4f a4 b7 3c fc dc 82 3d 8d 61 b0 3d
       0.048071977 0.022417216 0.06389806 0.08612356
0000b0 f9 47 d3 bd 0f e4 81 bd bf 09 00 3d de e3 cc 3d
       -0.10316462 -0.06342327 0.031259295 0.100044
0000c0 75 43 02 bd 10 b9 ae 3c da 89 52 3d 5e 62 5b 3d
       -0.031802613 0.021328479 0.051400997 0.053560607
0000d0 ab 7b 0e 3d 04 64 ad 3d db 78 1d bd f2 58 17 bd
       0.034785908 0.08466342 -0.038445335 -0.03695006
0000e0 bd df ae bb ba 2c bc bd f8 71 9b 3b 71 e3 32 3d
       -0.0053367303 -0.091882184 0.0047438107 0.043673936
0000f0 a7 87 50 3d 28 6a d4 bc 08 fd fb 3c 01 c7 ef 3d
       0.05091062 -0.025929525 0.030760303 0.11707879
000100 eb 32 6f bd e2 f1 98 3c 9e 24 3c bc e4 16 dc bd
       -0.05839817 0.018670026 -0.01148334 -0.107465535
000110 37 16 7c 3d 5d e3 d3 bc f6 0a a2 3d 14 99 6b be
       0.061544623 -0.025865251 0.07912247 -0.23007613
000120 2c c7 10 bd d3 bc 40 3e c3 be 62 bc 84 2d 20 bd
       -0.035346195 0.1882203 -0.013839426 -0.039105907
000130 a0 18 ab bc da d3 bc bd 30 08 f7 3b 15 32 73 bd
       -0.020885766 -0.09220095 0.007538818 -0.059373934
000140 54 ce aa bc f4 30 82 3d 77 66 d6 bd 2c d5 bc 3c
       -0.020850338 0.06356993 -0.10468762 0.023050867
000150 f6 b2 da 3c 11 d0 8a bd fd cc 18 bd a2 b8 a9 3d
       0.026696663 -0.06777967 -0.037304867 0.08287169
000160 ea 21 9f 3d 84 9f b3 bd 95 dc 89 3d 9f f9 b0 3d
       0.077701405 -0.087706596 0.06731526 0.086413614
000170 c7 de c9 3c 03 93 b0 3d 20 a6 03 bd ad a4 a5 3d
       0.024642361 0.0862179 -0.03214085 0.0808805
000180 a4 ee a1 3d ba fa 53 bc 8b 9d 84 3d ae 3d 2d 3d
       0.07906845 -0.012938196 0.064753614 0.04229515
000190 2b 73 97 bd 90 4d 57 3d 0a 74 7a bd 63 c7 c5 bc
       -0.073950134 0.052564204 -0.06114582 -0.024142927
0001a0 8a 28 9e 3c be 54 38 3d bc 2b aa 3d 99 ab c1 3d
       0.01930644 0.04500269 0.08309123 0.09456558
0001b0 67 4c 44 3c 48 59 7d bd 13 9a c1 3d 2b 31 88 3d
       0.011981106 -0.061852723 0.094532155 0.06650003
0001c0 dc f9 b5 3c 8e e0 30 bd cd 15 f6 3d d1 cb 44 3d
       0.022213869 -0.043182902 0.12015877 0.048045937
0001d0 ab a2 d5 bd 2f db ab bc de f3 6b 3c a0 38 10 3d
       -0.10431417 -0.020978538 0.014401404 0.03521025
0001e0 ae 5a ab 3d 28 d4 6f bc 53 2f 98 3d c4 b9 db ba
       0.08366905 -0.014637984 0.074309014 -0.0016763736
0001f0 1d 2c 9d bd b7 3a 8f 3d 29 f8 06 3e a4 7a f5 bd
       -0.076744296 0.06993621 0.13180603 -0.119862825
000200 33 c9 a8 bd f2 0e 82 3c 5f 0c ff bd 4a 69 92 bc
       -0.08241501 0.015876267 -0.124535315 -0.017872471
000210 5f fe 2b bc 8c 58 9a 3d f0 04 dd 3c cf 99 5c bd
       -0.0104976585 0.0753642 0.026979893 -0.05385762
000220 7c af 09 bd 8f 34 8d bc 20 21 be 3d 97 96 97 ba
       -0.03361462 -0.017236976 0.09283662 -0.0011565265
000230 10 cf 0c 3d 11 5e 04 be b3 8d 9e 3d 59 85 92 3d
       0.034377158 -0.12926508 0.07741871 0.0715434
000240 66 7c b1 bc 54 50 52 3d 1e 07 1d 3d ac ef ae bd
       -0.021665763 0.051346138 0.038336866 -0.085418075
000250 3b 61 9c bb cc 98 8e 3d 48 c6 56 3c 2a fa f4 bd
       -0.004772333 0.069627374 0.013108797 -0.119617775
000260 02 de c2 3a 8a 7b 14 3d 21 1c 21 3c 29 15 8e 3c
       0.0014867189 0.03625063 0.009833367 0.017344074
000270 b3 99 c7 3d 11 84 ad 3c 90 70 d2 3d 9b bb 8b bd
       0.09746113 0.021181138 0.10275376 -0.06822892
000280 aa ab 8d 3d 35 a2 a1 bd 65 f3 0d 3d e6 f6 bb bd
       0.06917508 -0.07892267 0.034655947 -0.091779515
000290 2c 64 32 3d a5 7a ce bd b1 76 55 bd 35 5e da bd
       0.043552563 -0.10081986 -0.052115146 -0.106625
0002a0 ae e3 ba 3d af 4c 15 be 9d b1 5b bd e2 ae 2d bd
       0.09125458 -0.14580034 -0.053636182 -0.04240311
0002b0 24 32 c4 bd c8 ff cb bc bf 81 21 3c c2 09 85 3d
       -0.09579876 -0.02490224 0.009857594 0.06496002
0002c0 b4 31 39 3d 40 46 e6 bd 77 da b8 3c 2e a1 ad bd
       0.045213416 -0.11243868 0.02256511 -0.08478008
0002d0 cc 8c bf 3c d1 6d 7b 3d ce ca 37 bb eb 12 91 3d
       0.023382567 0.061384026 -0.0028044465 0.070836864
0002e0 03 88 60 bd 16 d0 e5 bd 98 16 a7 3d 39 ad 99 bc
       -0.05481721 -0.1122133 0.08158606 -0.018759357
0002f0 a7 6f 6e 39 2d 82 bd bd 90 1f c5 bd 03 f7 53 bd
       0.00022739042 -0.09253345 -0.09625161 -0.05174924
000300 48 ef fa 3d fd 3a 75 bc 8b 91 e6 3d 01 1c 92 bd
       0.122526705 -0.014967677 0.11258229 -0.071342476
000310 66 eb 8c 3c 80 31 14 bc d3 0f 2c 3d b9 a0 85 3d
       0.01720209 -0.009045005 0.04200728 0.06524796
000320 84 42 59 bd 7d 69 86 bb c3 b7 86 3d 79 70 d2 bd
       -0.05304195 -0.0041019307 0.065780185 -0.10275359
000330 89 28 41 bd aa ca 92 bd e1 d0 b5 bd 5b b5 23 be
       -0.047157798 -0.07167561 -0.08877731 -0.1598715
000340 e8 24 f0 bd 3c ed af bb 20 95 b1 3d 4f f8 e9 bd
       -0.11725789 -0.0053688567 0.086710215 -0.11424314
000350 ff 7a 8e 3d ec dc c0 bd da da 85 bc 97 d7 79 bd
       0.069570534 -0.094171375 -0.016339708 -0.060996618
000360 4a 8a 52 bc cc 10 d8 3c a6 2f 41 3c fb 9a e5 3d
       -0.0128503535 0.026375197 0.011791145 0.11211201
000370 91 37 bf bd f9 3e 9b 3d 24 14 bb bc d8 ef 81 3d
       -0.0933677 0.075803705 -0.022836752 0.06344575
000380 f5 37 3f bd d1 fa 7c 3d 7d 6e 9e 3d ed f3 bb 3d
       -0.046684224 0.061762635 0.07735918 0.091773845
000390 4f 3c 21 3b 10 2f 9b 3d e2 4a 8f 3d 3c 05 27 3c
       0.0024602597 0.07577336 0.06996705 0.010194119
0003a0 3d 5d 13 3d 76 89 3a bd f0 a7 9c bc 8c df be bd
       0.03597759 -0.04554125 -0.019123048 -0.09319982
0003b0 21 5a c3 3d aa 7c e3 3c 31 0c 9f 3d e5 63 69 3d
       0.09538675 0.027769405 0.07765997 0.056980032
0003c0 f6 b5 59 3c 09 c7 23 3d e5 b9 52 3d 4a 73 66 bd
       0.013288012 0.039984737 0.051446814 -0.056262292
0003d0 41 3b 62 3d e5 f1 89 3d b8 2f c0 bd 5f 26 7e bd
       0.05523229 0.06735591 -0.09384102 -0.062048312
0003e0 5d 51 ed bc 14 cd 08 be a5 c4 b1 ba e0 05 fd bb
       -0.028969461 -0.13359481 -0.0013562633 -0.0077216476
0003f0 f5 b6 3e 3d 72 fd 0c 3d 01 96 8f 3d 8b 3f 79 3d
       0.0465612 0.03442139 0.07011033 0.060851615

encoderlayers.0.bias f4 [12]
000000 64 8b c2 bd 1f 54 60 3d 33 74 48 bd 1c 14 42 3d
       -0.09499243 0.054767724 -0.04893894 0.04738246
000010 df bb e6 3c dc e3 52 3d 33 14 ac 3c 3f c6 ae bd
       0.028165756 0.051486835 0.021005725 -0.08533906
000020 7e f2 e3 3d 03 17 1c 3c 17 ec 02 3d 9e ef 7b bb
       0.11130236 0.009526971 0.031963434 -0.0038442384

encodernorms.0.weight f4 [12]
000000 aa 4b 92 3f 68 f2 98 3f ff c8 76 3f 82 62 8e 3f
       1.1429341 1.1948977 0.96400446 1.1123812
000010 46 18 86 3f db b9 8a 3f 9e ed 8c 3f 57 cb 8d 3f
       1.0476158 1.0837969 1.1010015 1.1077679
000020 fc f4 92 3f b7 16 80 3f 42 e8 94 3f 8b 9f 9a 3f
       1.1481013 1.0006932 1.163338 1.2079939

encodernorms.0.bias f4 [12]
000000 09 41 e9 3d 2a d7 2b bd 65 cd cb bd 45 f3 d8 3d
       0.113893576 -0.041953243 -0.09951285 0.10593275
000010 3d 30 8b 3d cd 00 b2 bd 58 92 a1 bc df 0f c9 3d
       0.0679631 -0.08691559 -0.019723102 0.0981748
000020 c4 91 c8 bb 58 79 54 bd a1 57 45 bd b0 b3 04 3e
       -0.0061208922 -0.051873535 -0.048179273 0.1295917

encodernorms.0.running_mean f4 [12]
000000 cb a5 70 3e b6 f2 bb 3e 91 a7 81 3d ca 6f ad 3e
       0.23500745 0.3670861 0.06330789 0.3387435
000010 ee 5a 7e 3e 16 8e 41 3e 11 04 3c 3e 17 ba 92 3e
       0.24839374 0.18901858 0.18360926 0.286576
000020 a2 d7 c8 3e 4e ec 42 3d 26 ae 51 3e fe 2b 81 3e
       0.39227015 0.04758864 0.20476589 0.25228876

encodernorms.0.running_var f4 [12]
000000 da 67 ba 3d dc 51 10 3e 1d a5 eb 3c 69 54 09 3e
       0.09101839 0.14093727 0.028765256 0.13411106
000010 07 e5 b8 3d 8d df ac 3d 9f 04 91 3d 5b a7 e9 3d
       0.090280585 0.084410764 0.070809595 0.11408874
000020 aa 0c fa 3d 1b dd c5 3c d5 e3 78 3d ed 7a ba 3d
       0.12209447 0.024153283 0.060764153 0.091054775

decoderlayers.0.weight f4 [12, 8]
000000 c5 03 86 be cf 21 4a be 6c fb d6 bd 9e 97 83 bd
       -0.2617475 -0.1973946 -0.10497174 -0.06425403
000010 3b 02 93 3e df 1a c1 be 08 c5 bb be 27 dd ad be
       0.2871264 -0.37715814 -0.3667376 -0.33957788
000020 66 de 30 3d 04 53 d5 bb c8 0c ca bd 5d 34 23 be
       0.043180846 -0.0065101404 -0.09865719 -0.15937944
000030 fa 6c a5 3e f3 c5 8f 3e 25 24 41 3d 0c 0d 31 bd
       0.32309705 0.2808071 0.04715361 -0.043225333
000040 2f 71 81 be 60 38 83 3c 46 b4 e9 3d da a1 83 be
       -0.25281665 0.016018093 0.114113376 -0.2570942
000050 2e d9 84 3e 1d c6 b2 be ac 46 7c be f1 8b 4b 3e
       0.25946945 -0.34916773 -0.24636334 0.19877602
000060 d2 47 d8 bb 55 b0 26 be 99 18 30 be c0 6d 9b 3e
       -0.0066003585 -0.16278203 -0.17196883 0.3035717
000070 b4 1b ae bd b3 fc 84 3c 38 04 dc bd b4 3a df be
       -0.08501378 0.016233778 -0.10742992 -0.43599474
000080 ef 7d 27 bd b8 20 fe 3d 51 ff 6f be 30 4e 7e be
       -0.040891584 0.12408584 -0.23437239 -0.24834514
000090 6e d4 16 3e 1d 59 95 be cb 3b 63 bd ce 4d bd 3e
       0.14729473 -0.2916955 -0.055476945 0.36973423
0000a0 74 60 41 3e 08 60 83 be 42 6b 33 3b f4 f0 18 be
       0.1888445 -0.25659204 0.0027377163 -0.14935666
0000b0 b6 58 21 be 49 ea 50 3e 15 0a 51 be 2d ef 81 be
       -0.15756497 0.20401873 -0.20414002 -0.2537779
0000c0 50 c0 1c 3e cd 88 80 3b b2 83 de 3d 66 f9 87 be
       0.15307736 0.003922558 0.10864963 -0.26557463
0000d0 0d e9 53 3e ff 16 9e be 72 93 b5 be 69 6a 66 3d
       0.2069437 -0.3087692 -0.35464054 0.056253824
0000e0 61 8c 81 3e 14 0f 49 be c9 89 29 be b0 13 3a 3d
       0.25302413 -0.19634658 -0.16556467 0.04542893
0000f0 72 70 01 3e b7 c3 25 bd ae 58 00 bd 5c d9 93 be
       0.1264055 -0.04046985 -0.03133457 -0.2887677
000100 da 9f 80 be 12 8e cd 3c 8c 8e 66 3d f4 c7 a9 3b
       -0.25121957 0.025092158 0.056288287 0.005181307
000110 80 ed 93 3d 7b bc f4 bc 04 f0 03 be 9f 30 90 be
       0.07223034 -0.02987503 -0.12884527 -0.28162095
000120 59 15 ab bd d0 d7 0c 3e 0d 07 b4 bc 28 9a 4f 3e
       -0.08353681 0.13754201 -0.021976018 0.2027365
000130 72 9d 94 3e 37 c6 c6 bd f4 10 58 be b7 0c ce be
       0.2902637 -0.09705775 -0.21100217 -0.40244076
000140 d6 65 84 be 49 c3 48 3d 14 f8 86 be 51 71 8c 3c
       -0.25858945 0.049014363 -0.26361144 0.017143877
000150 09 f7 f0 3d f5 68 0d be c3 29 6a 3e d8 08 7e 3d
       0.11765868 -0.13809569 0.22867493 0.062020153
000160 10 f3 a3 be 93 b4 b5 bb f4 5f 12 3e 4c 74 a7 3b
       -0.3202138 -0.0055452078 0.14294416 0.005110299
000170 6e a5 a0 3c 1b 67 9f 3e c1 22 68 be 22 31 a1 be
       0.019610133 0.3113335 -0.22669508 -0.31482798

decoderlayers.0.bias f4 [12]
000000 62 cd 89 3e 13 62 5a bc c5 89 53 be e4 71 79 3e
       0.26914507 -0.013329047 -0.20658024 0.24359852
000010 a1 6a 0c be 9f 41 81 3d d0 d5 1f 3e a1 49 16 3e
       -0.1371255 0.06311344 0.15608907 0.14676525
000020 ea 4b 4f 3e 93 66 8b 3e bb fe 31 3c 8e 56 3c be
       0.20243803 0.27226695 0.010863955 -0.18392393

decodernorms.0.weight f4 [12]
000000 f5 52 3d 3f a2 2a 47 3f a0 aa 40 3f 59 0b 45 3f
       0.7395471 0.7779943 0.75260353 0.7697044
000010 98 3a 54 3f 56 ef 4a 3f 7d d3 44 3f 41 06 4d 3f
       0.82901907 0.7927145 0.76885206 0.8008767
000020 49 07 53 3f 19 4c 51 3f 72 e5 4f 3f 3e 19 4d 3f
       0.8243299 0.8175674 0.8120948 0.8011664

decodernorms.0.bias f4 [12]
000000 a3 85 9f 3c 32 c8 80 3b 51 51 8f 3d de f4 12 3d
       0.019472903 0.003930115 0.06997932 0.035878055
000010 73 6e cd bc ff 10 a8 3c 5c f1 06 be 1e 8a 01 3d
       -0.02507708 0.020515917 -0.13178009 0.03162586
000020 18 39 1f bd de 1d cb 3c 16 90 52 3d c1 1e ca 3d
       -0.03887281 0.024794515 0.051406942 0.09869147

decodernorms.0.running_mean f4 [12]
000000 c0 c2 17 3f b4 15 87 3e ce 54 c3 3e 34 b3 03 3f
       0.5928154 0.26383746 0.38150638 0.5144532
000010 22 88 10 3f b4 89 c5 3e bc 5c f9 3e 8e c6 d2 3e
       0.5645772 0.38581622 0.48703563 0.4116711
000020 6b f9 d2 3e 27 ea f6 3e b4 c2 a4 3e 9e 70 d5 3e
       0.41205916 0.4822552 0.32179797 0.41687483

decodernorms.0.running_var f4 [12]
000000 c0 b7 1c 3f 7a 9c 46 3e a2 ed e8 3e d8 23 11 3f
       0.6121788 0.19395629 0.454938 0.5669532
000010 ed 65 4e 3f 53 b6 ba 3e 9a b4 fc 3e 22 48 db 3e
       0.80624276 0.36467227 0.49356538 0.4282847
000020 93 de a6 3e a6 38 0c 3f fc 47 91 3e e2 64 08 3f
       0.32591686 0.5477394 0.28375232 0.53278935

mu.weight f4 [8, 12]
000000 b4 47 50 3d d7 35 6a bd 2f 96 59 3e 2b b5 24 be
       0.05084963 -0.057180252 0.21248697 -0.16084735
000010 57 7e 96 3b 35 df 75 3e 06 2c bc 3e ba 76 59 be
       0.0045926976 0.24010928 0.36752337 -0.21236697
000020 71 2c 99 3e d2 9f 8a 3e 50 62 51 be 15 0b ee 3e
       0.2991672 0.27075058 -0.2044766 0.4649283
000030 45 ad 3b bd de 1d a4 bd 5e 6b 16 3d 39 06 58 be
       -0.04581954 -0.08013509 0.036723487 -0.21096124
000040 e6 b8 e4 3d 9a b1 57 be 7a d8 87 be eb c8 b2 bd
       0.11168079 -0.21063843 -0.26532346 -0.08729728
000050 49 7e 91 3e 76 20 4e 3e a6 91 c0 3d b0 11 8e be
       0.2841666 0.2012957 0.0940278 -0.2774787
000060 50 62 d1 be 22 95 e7 3e 61 ab 84 3d 06 db 25 3e
       -0.4089532 0.45230967 0.064780004 0.16196832
000070 8e 18 8c be 6f 43 83 3d b6 37 0d be b6 19 83 be
       -0.27362484 0.06409346 -0.13790783 -0.25605553
000080 d4 59 54 be c6 18 f8 bd 7f 53 ac 3e 58 79 37 be
       -0.20737392 -0.121141 0.33657452 -0.17917383
000090 a2 c1 2d bd a3 b2 50 be 0f 80 c8 3d 36 d0 1a 3e
       -0.04242099 -0.20380645 0.0979005 0.15118489
0000a0 71 3d 93 be d7 b5 db bd e0 7b 28 3d 88 e2 9b be
       -0.28757814 -0.107280426 0.04113376 -0.30446267
0000b0 09 60 2b 3e 21 81 80 3d 30 af a3 3e 37 a1 a9 bd
       0.16735853 0.062746294 0.31969595 -0.082827024
0000c0 6a c4 0d 3e b5 70 86 be dd 1a f8 3d fa eb a2 3d
       0.13844457 -0.26257864 0.12114499 0.07955165
0000d0 af b9 06 3e e5 62 bf be 57 78 5f 3e af 55 fa 3c
       0.1315677 -0.37380138 0.2182325 0.030558435
0000e0 12 15 56 3e 0e 19 50 3e d4 9e 32 3d 8c e8 cf 3e
       0.20906475 0.20322058 0.0436085 0.40607107
0000f0 01 0e 6e be 20 f2 c8 bd 39 12 a1 bd 86 29 c1 be
       -0.2324753 -0.09811807 -0.07864804 -0.37726992
000100 ec d2 64 3e 42 b7 3c 3e 8a 23 84 be be ac b2 be
       0.22346085 0.18429282 -0.25808364 -0.34897417
000110 ad 2d cf be b0 fa 8e be 11 a2 b2 3d 00 3f 82 3e
       -0.40464535 -0.27925634 0.08722318 0.2543869
000120 59 49 42 3d b1 81 d2 be f2 86 8d 3e 43 a2 c6 bb
       0.04743323 -0.41114572 0.27642018 -0.0060618236
000130 ed 67 71 3e 42 a8 f0 bd b8 18 66 be 04 61 35 be
       0.23574801 -0.11750843 -0.22470367 -0.1771279
000140 c5 2c fa bc b8 c4 40 be 6f f6 76 be c2 33 05 3d
       -0.030538926 -0.18825042 -0.24117444 0.032520063
000150 0b c1 d4 3e b3 05 27 3e 67 0b 50 3e a5 de 7e 3e
       0.4155353 0.16310768 0.2031685 0.2488962
000160 a2 80 43 3e 68 80 56 be 33 ec ac be f7 ff 77 3e
       0.19092038 -0.2094742 -0.33773956 0.24218737
000170 c1 f9 83 3e 2d 80 f3 3c 80 19 df be 94 11 9e 3d
       0.25776485 0.029724205 -0.43574142 0.077181965

mu.bias f4 [8]
000000 e9 8b 1c 3d f5 0d ac bd cf 71 0a 3e c0 09 f6 bc
       0.038219366 -0.084010996 0.13519977 -0.030033946
000010 ba b2 8f bd 29 2c 89 bd 4f b2 e0 bc eb c6 53 bd
       -0.07016511 -0.06697876 -0.027428774 -0.051703375

var.weight f4 [8, 12]
000000 6f 20 bf 3c 0f 81 ee bd cb f3 39 3d 1f 49 7a be
       0.023330895 -0.1164571 0.045398515 -0.24441956
000010 c0 a0 16 be 11 19 c7 bc ff 20 4e 3e 85 03 23 3c
       -0.14709759 -0.024303945 0.20129775 0.00994957
000020 c1 d0 e0 3d 98 70 3e 3e fd 08 23 be 00 e8 2e be
       0.10977317 0.18597639 -0.15921398 -0.17080688
000030 f1 39 5f 3e fa 60 06 3e 00 33 ec 3d 3d ca 80 3c
       0.21799447 0.13122931 0.11533165 0.015721435
000040 01 0c 1e bd 4d f5 3f 3e 21 4a 58 3e 74 16 6f be
       -0.038585667 0.18745919 0.21122028 -0.23348409
000050 7d d0 38 3e b9 7e 16 3e a7 5a 33 be 8e 1f 29 be
       0.18048282 0.14696778 -0.1751505 -0.16515943
000060 75 52 34 be 48 ac 8f bd 07 62 26 3d 4a e9 c5 3d
       -0.1760958 -0.07015282 0.04062083 0.09663637
000070 de 97 5e 3e 0e 7d 5d 3e f5 bf 1b 3e 17 e2 4d be
       0.2173762 0.21629736 0.15209945 -0.20105778
000080 c6 f9 53 be 67 03 97 bc 46 ce 21 3e f5 00 26 3e
       -0.2070075 -0.01843424 0.15801343 0.16211303
000090 dd 4f 44 be 86 1e d9 bd c4 09 71 3e a4 9a 6a 3e
       -0.1917109 -0.10601525 0.23538882 0.22910553
0000a0 13 48 4d be e6 61 b9 bb b1 14 87 3e 05 71 36 be
       -0.20047025 -0.0056574224 0.26382974 -0.17816551
0000b0 d0 7a 2d 3e af ad d1 3d 49 a3 7a 3e 95 0f 28 be
       0.1694138 0.10238206 0.24476351 -0.16412194
0000c0 f1 3b 80 be 84 d2 dd 3d c3 e7 14 bd 7d 2a cb 3d
       -0.25045732 0.10831168 -0.036353838 0.09920213
0000d0 82 76 84 be 10 eb 9e bd 60 75 c0 bc c0 dc 70 3e
       -0.25871664 -0.07759678 -0.023493469 0.2352171
0000e0 bb f5 ff 3d 63 12 54 be 29 9a 3e bd 45 c7 29 3e
       0.12498041 -0.20710139 -0.046533737 0.16579922
0000f0 62 94 80 3e af 2b 3d 3e a1 ad 1f be c4 ba 78 be
       0.25113207 0.18473695 -0.15593578 -0.24289995
000100 fc 47 95 3d ba 61 27 3e b0 98 f9 3d 33 c5 b4 3c
       0.072891206 0.16345873 0.12187326 0.022066688
000110 7b 5d 64 bd 72 3f 2f 3e c1 f3 40 3e da 00 7a be
       -0.055753212 0.17114046 0.18842985 -0.24414387
000120 9e c5 06 be a4 82 79 3e dd 92 98 3e 9e f8 47 be
       -0.13161322 0.24366242 0.29799548 -0.19528434
000130 82 8d 38 3e ee d6 63 bd e5 e9 32 be d8 10 4f bb
       0.18022731 -0.055624895 -0.17472036 -0.0031595733
000140 85 ba 01 3c 0c b8 8f 3c 85 ef ef 3d 8e 8b ad 3c
       0.007918005 0.017543815 0.117156066 0.021184709
000150 a7 2f 90 be 05 52 38 be 13 70 10 be 92 19 84 be
       -0.28161356 -0.18000038 -0.14105253 -0.2580076
000160 b4 d2 ea bd cd 1f 81 bd 1c 1d 3f be 55 fc 0e 3d
       -0.1146597 -0.06304894 -0.18663448 0.03490861
000170 4d 67 14 be 11 82 06 3e be 0a 0c be 28 1d 11 be
       -0.14492531 0.13135554 -0.13675973 -0.14171278

var.bias f4 [8]
000000 14 85 02 bc 10 53 f0 bd f4 a2 b9 be f5 1c b8 3c
       -0.007966299 -0.11734593 -0.36257136 0.022474745
000010 cc 9f be be 1e c3 c5 be b1 26 d2 3d 31 8b 8b bd
       -0.3723129 -0.38625425 0.10261286 -0.06813658

out.weight f4 [70, 12]
000000 18 38 51 3e 09 30 8d be bb 4a 53 bd 0e 07 3a be
       0.20431554 -0.2757571 -0.05158494 -0.18166754
000010 5d 9c 21 bd 34 db 13 3e 50 2c 17 3e 61 c4 ee bc
       -0.03945576 0.14439088 0.14762998 -0.029146375
000020 dc 5b b7 bd 68 f2 12 bc f1 f0 ff bc a1 d9 05 bd
       -0.08953068 -0.008968927 -0.03124282 -0.03267825
000030 5d 5d 26 3e 43 90 b0 3d 3b f5 1b 3b 10 98 19 be
       0.16246553 0.08621266 0.0023797292 -0.14999413
000040 54 13 08 3b 00 98 fa 3d fa 14 77 be e8 85 81 3e
       0.0020763474 0.12236023 -0.24129096 0.25297475
000050 ff c5 e9 3d e2 40 31 bb 69 f6 3f bd 02 a3 71 3c
       0.11414718 -0.002704673 -0.046865854 0.014748337
000060 15 db 3c 3e cc 29 2f 3e b5 e0 9f 3d 46 eb 9a bc
       0.18442948 0.17105788 0.07806531 -0.018911015
000070 cd 2b b2 3d 18 f6 46 be 08 1f df 3d d4 09 08 3e
       0.086997606 -0.19429815 0.108945906 0.13284999
000080 c1 12 3f 3e 13 cc c2 bd d0 54 65 3e 7b c0 f4 3d
       0.18659498 -0.0951158 0.22395635 0.11950775
000090 cf ee f7 3d 58 74 42 3e 70 cd 3e 3e 1b 53 61 be
       0.12106096 0.18989694 0.18633056 -0.22004358
0000a0 31 0d 0e bd d6 8e 95 3e fa 42 4a be 7e ee 1d be
       -0.03468055 0.29210538 -0.19752112 -0.15423009
0000b0 c3 90 35 3e 65 9a 02 3e 50 db 44 be 0d 74 39 3e
       0.17731003 0.1275421 -0.19224286 0.18110676
0000c0 47 9d a9 3d da 35 72 3e b5 5b 04 be f6 2b 98 be
       0.082819514 0.23653355 -0.12925608 -0.2972104
0000d0 26 95 67 3e 67 88 69 3c 31 c0 88 bd 77 52 03 be
       0.2261549 0.014253712 -0.066772826 -0.12824427
0000e0 8f 03 15 3e 73 3b 88 be 07 ff 06 bd 8a 1b 0c 3c
       0.14552139 -0.26607856 -0.032958057 0.008551488
0000f0 32 95 b3 bd 8e 27 45 3e df 66 06 3e bc 5b 66 be
       -0.08768691 0.1925337 0.1312518 -0.22495931
000100 92 e7 0a be e7 6c 16 3e 17 f7 e9 3c b3 20 15 3c
       -0.135649 0.1468998 0.028560204 0.009102034
000110 c9 6b d9 bc ba 27 b9 3d eb e0 de 3c a6 4e e8 bd
       -0.026540654 0.0904078 0.027206859 -0.11343126
000120 d5 08 56 3c 83 33 4b be e2 58 fe bd 41 43 14 bd
       0.013063629 -0.19843869 -0.12419297 -0.03619695
000130 83 c3 25 3e 9f 85 4c 3d 26 79 27 3e fd ef 35 be
       0.16187863 0.04993212 0.16354808 -0.1776733
000140 01 c6 40 3e 97 b8 da bd 3d d7 ed 3d b2 69 5b 3e
       0.18825532 -0.10679739 0.11613319 0.21427038
000150 a7 d1 2b bd b1 c4 8b bc d0 cf d8 bb 62 47 b8 bd
       -0.041947987 -0.017061563 -0.00661657 -0.0899799
000160 9a 42 bc 3c 39 50 44 bd a2 52 5b 3e c7 e7 00 3d
       0.022980977 -0.04792807 0.2141824 0.03147104
000170 47 69 4d 3d f2 2a f0 3d cb 04 13 3e 72 09 de 3d
       0.05014923 0.11726941 0.14357297 0.10841645
000180 f3 34 da bd f3 e9 65 be e6 45 33 3e fc 9c a5 3e
       -0.106546305 -0.22452526 0.17507133 0.32346332
000190 ad ed 86 be dd aa 94 bd c9 88 b1 bd ad 67 7d be
       -0.26353207 -0.07259152 -0.08668668 -0.2474658
0001a0 8f 50 4b 3e ed 33 42 3e 9b 7e e6 bd 9c 60 6b 3e
       0.1985495 0.1896512 -0.11254617 0.22986072
0001b0 70 a4 8e 3c 8e ee dd bd 5a 20 99 3d 4b 0a ae 3d
       0.017412394 -0.10836516 0.07476874 0.08498057
0001c0 23 7b 9d 3e 50 50 a1 3b f5 3a 76 3c b6 0a 0a 3e
       0.30758008 0.004922904 0.015028705 0.13480648
0001d0 f5 4e 90 be 7b f2 c3 bd f9 17 0d 3e 34 51 a8 3d
       -0.2818524 -0.09567734 0.13778676 0.08218613
0001e0 f1 3f 38 be 34 82 47 3e 4a 38 28 be b0 06 90 bd
       -0.17993142 0.19483262 -0.16427723 -0.070325255
0001f0 2e 60 ce bb 8d ac 20 be 3a c6 76 be 09 b4 41 be
       -0.0062980866 -0.15690823 -0.24099055 -0.18916334
000200 bb 1c 7b be 57 ef d7 bc 00 43 fc 3c eb c4 98 3d
       -0.24522679 -0.026359243 0.030793667 0.07459434
000210 3b f2 12 bd 55 41 4d be df b1 85 3c 95 b5 17 3e
       -0.03587554 -0.20044453 0.016320167 0.14815362
000220 a7 15 43 bd e9 28 88 3d 80 58 44 be 7e 7b 5a be
       -0.04762807 0.06648428 -0.19174385 -0.21336171
000230 65 06 55 be 6b e3 83 b6 71 0d a7 3d 48 6d 1b be
       -0.2080322 -3.930579e-06 0.081568606 -0.15178406
000240 32 8e 94 b9 b6 90 81 bd d3 c1 a4 bd c2 b7 d5 3d
       -0.00028334704 -0.063264295 -0.080447815 0.1043544
000250 f5 5b 24 3e ed 5f 1b bd 23 29 b0 bd 81 42 2e be
       0.16050704 -0.03793328 -0.08601596 -0.17017557
000260 f0 b4 e1 bd 16 5d de bd 7c 17 3c 3e ad e6 9a bb
       -0.11020839 -0.108575985 0.18368334 -0.0047272057
000270 9e a3 46 be 58 0a e9 bd f2 95 67 3d 7e 91 27 3d
       -0.19398353 -0.11378926 0.056539483 0.040910237
000280 a6 fd 96 bd 2d b4 34 be 72 1d b7 3c e5 55 22 be
       -0.07372598 -0.17646857 0.022352908 -0.15853079
000290 f9 5e d0 bc de e4 a5 bb e4 d6 ca 3b 41 23 6d be
       -0.025435911 -0.0050626835 0.0061901677 -0.2315798
0002a0 b1 c6 a4 3d a9 87 71 3e ae fc 56 3d bf db 52 be
       0.0804571 0.23586906 0.052487068 -0.20591639
0002b0 33 ce 0c 3d 10 15 8f 3d da 13 3f bd 09 73 04 be
       0.034376334 0.06986439 -0.04664979 -0.12934507
0002c0 67 94 94 3d e7 d7 8d 3e 86 bd e6 3d 3e 35 24 3e
       0.07254868 0.27703783 0.112666175 0.16035935
0002d0 c7 9d 4c 3e 1f c7 2d 3e f4 60 17 3d 27 e4 09 be
       0.19982062 0.1697049 0.036957696 -0.1346594
0002e0 42 b4 28 3e 4c 74 8c bd 8f a3 36 bd 87 5e 63 3d
       0.16475013 -0.06858119 -0.044589575 0.05551007
0002f0 12 13 7a bc 47 f7 86 3e 23 68 0f 3d df 46 22 3e
       -0.015263336 0.26360533 0.035011422 0.15847348
000300 ed fb 71 3e d7 24 63 be ca 1e 80 3e 40 69 f4 3d
       0.23631258 -0.22182022 0.2502349 0.11934137
000310 bf a7 8a 3d 1c 9f 3c bd c5 07 0b be 12 82 39 3e
       0.06770276 -0.046050176 -0.13577183 0.18116024
000320 b1 3f 84 bc 4b 8e 56 be 7d 3e 64 be a8 d2 98 bd
       -0.016143652 -0.20952718 -0.22289462 -0.074620545
000330 dc 7d 3b 3e ec c4 19 be 1c 0d 4b 3e 56 3b 05 bd
       0.1830973 -0.15016526 0.1982922 -0.03252729
000340 c9 e3 18 3e d6 c1 38 3e 3e c1 9f 3d 1e ff 7b 3d
       0.14930643 0.18042693 0.0780053 0.061522596
000350 00 9b 50 3e 82 6d a6 bd d7 7c ca bd ac d3 12 be
       0.20371628 -0.08126356 -0.098870926 -0.14338559
000360 1e bd 1c be 93 7b 82 be b2 53 bb 3d 80 3b a8 3c
       -0.15306517 -0.25484905 0.09146823 0.020536184
000370 63 22 e2 3d 43 e5 f1 3b 3e d5 cc bd c6 0c 62 bd
       0.11041715 0.0073820665 -0.1000161 -0.055187963
000380 26 b0 6a be 83 a2 b6 3d 40 a4 dd bd 96 ec 37 3e
       -0.22918758 0.089177154 -0.10822344 0.17961344
000390 76 a3 48 3e 80 73 34 be fb 80 19 bc 6d fc 42 3e
       0.19593605 -0.17622185 -0.00936913 0.19041605
0003a0 c0 1d cd bd e5 15 7b be d5 50 bc bd 48 94 57 be
       -0.1001544 -0.24520071 -0.09195105 -0.21052659
0003b0 86 3d 72 be da 48 71 3d cf 0e 75 bd 1d 52 83 bd
       -0.23656282 0.058907367 -0.059828576 -0.06412146
0003c0 b0 3d 17 bd 89 49 81 3e 84 c8 f5 3d 60 79 28 bd
       -0.036924064 0.25251415 0.12001136 -0.041131377
0003d0 4c 68 18 be 18 9f bb 3d 01 a9 87 3d 62 d8 bb 3c
       -0.14883536 0.09161204 0.06624032 0.022930328
0003e0 fb 23 09 3e 09 a7 03 be 13 00 0d 3e 0a aa c0 bd
       0.13392632 -0.12856688 0.1376956 -0.094074324
0003f0 f4 8b 60 3e c6 73 31 be 78 85 17 3d 07 95 1e bd
       0.21928388 -0.1732932 0.03699252 -0.038716342

out.bias f4 [70]
000000 43 b3 02 3c 2b c8 52 3c 6d 03 ce 3c e3 61 39 3d
       0.00797731 0.012865107 0.025148118 0.045259368
000010 ea 6f 33 be d9 53 16 be 9e dc 5c bd c5 b8 fa bd
       -0.1752316 -0.14680423 -0.053921334 -0.12242273
000020 5e 7e 09 3e 5e 25 67 3e 81 71 3e bd 3c 4e 62 3d
       0.13427112 0.22572848 -0.046494965 0.05525039
000030 b4 21 28 be 5d a9 93 3b 8e f5 39 3e 06 c9 58 3e
       -0.16419107 0.0045062737 0.18160078 0.21170434
000040 f3 58 8f bd 97 6e b6 3c df 3e b4 bd 3c 65 d8 3c
       -0.069993876 0.02226953 -0.08801054 0.02641546
000050 a0 04 8b 3e e9 b4 6a 3e 5e 72 16 be 95 d6 05 be
       0.27151966 0.22920574 -0.14692065 -0.13070138
000060 8e 86 db bd 4e d5 70 bd 66 80 22 be df b1 43 bd
       -0.10719024 -0.058797173 -0.15869293 -0.047777053
000070 51 c5 06 3d ad 82 06 3d 82 50 3b 3d f6 ea 4b 3d
       0.03290302 0.032839466 0.045731075 0.049784623
000080 b8 d6 62 3e f8 de 98 3e 37 db 0d be aa 06 0e 3d
       0.22152221 0.29857612 -0.13853155 0.034674324
000090 85 95 55 bd 17 67 36 be 5c ff 46 3e 4f bb 3f 3e
       -0.052144546 -0.17812763 0.1943335 0.18723796
0000a0 46 88 ef bb 70 47 a8 3d 7b 12 c1 3d d7 80 92 3d
       -0.007309946 0.082167506 0.09427353 0.071534805
0000b0 60 95 07 bd 12 02 74 bc 97 e7 16 be 8c e8 a3 bc
       -0.03310144 -0.014893072 -0.14736782 -0.020008348
0000c0 0b 47 09 3e 79 02 f9 3d a8 b8 73 bd 95 d3 df 3d
       0.13406007 0.12158675 -0.059502274 0.10929028
0000d0 49 7b 16 3d ba b7 40 3d 78 b5 45 bd 56 e7 29 3c
       0.036738668 0.047050215 -0.048268765 0.010370096
0000e0 e6 77 cc 3b 34 34 b9 3c a0 ff e1 3c ea 62 5b bd
       0.006239879 0.0226079 0.027587712 -0.05356113
0000f0 b0 9f 43 3d 35 2c 81 3d 8e 2a a5 b9 7a 3e 1b bd
       0.04775971 0.0630726 -0.00031502958 -0.03790138
000100 43 24 c1 3c ef cb 64 bd de 83 4b 3d 35 45 80 bd
       0.023576861 -0.05585855 0.049686305 -0.062632
000110 06 4c dc 3d 4a 35 2b 3e
       0.10756688 0.16719547
