tutorial/interim_data_test/models/model_8_11.pt (torch, 14379 bytes, 18 tensors)

encoderlayers.0.weight f4 [12, 70]
00000000: e926 143d 2cbc 363e d422 6a3e 828b e8bd
00000010: 2f2b bc3d b487 083e 2f3f 83bd 299b 0b3c
00000020: 51fe 83bd b915 743e 56ac 9abc 2908 bebd
00000030: d4ed fa3d 144b ec3d 2d27 85bc 3aaf eaba
00000040: 2645 2fbd 608f 7abd 0b48 03be 1f13 a6bd
00000050: 4623 41bc a4c3 28bd a621 273d 8c5b 17bd
00000060: 8472 6c3d 93d7 d03d b304 173b 3efb ed3b
00000070: f3c0 aebd 354c a8bd 08fc b53c 059f b5bc
00000080: c2f5 413d 62d2 0c3c e5b2 40bd 2f27 23ba
00000090: 227d 713d 83ea 2a3c 8f43 8cbd 3431 033d
000000a0: 88e0 993d 376d 8f3b 04d3 8e3c 2367 273d
000000b0: 1ebc 31bb 4baa 9fbd efa6 793d 3362 553d
000000c0: 046a 49bd d176 2b3d 3160 323d 08bf f4bb
000000d0: f55a 1a3d 31d3 1cbb b31c 393d 401c b1bc
000000e0: 2ff7 9fbd 8fa6 163d 73a9 afbc b773 253d
000000f0: b637 cc3b d15e bf3d ea65 c93c 23e2 c63c
00000100: f9e7 163b ee69 48bd 1f50 dbbc b04c 62bd
00000110: baaf 0bbe b5e3 073c 88ae b93d f43c dabd
00000120: aac9 143e b14c 92bd 886f 3b3e 4747 62bd
00000130: 736e c4bc ad0b 763d 23e2 96bd b2d8 7fbd
00000140: d7cd a3bc deb2 9d3d cbcf c13d e72e a23d
00000150: 3aa0 d7bc 1c39 92bd ebce 09bd 4c54 62bd
00000160: a11c e5bc 0b63 f73d ad6f 853d 7025 6c3c
00000170: 1911 223d 0b0f bd3d ad45 843d ae2a e53d
00000180: 32e4 3e3b eb7c 21bd b49c 663b e32c a2bd
00000190: c0c0 38bd 1326 1bbd aa5c c53d 32f8 6abd
000001a0: 9ec1 1abd c273 e93c c197 273d 85d0 903c
000001b0: 9e2e 3ebc c9dd d53c 5caf 88bd 726b 1dbd
000001c0: 6f04 b4bc b14a 6dbd 59a8 793d a1f4 d03d
000001d0: 71e3 993d effc 9b3d 031b 9bbd 8b45 913d
000001e0: a939 aa3d 1d5a 2bbd 1c6a 903d 3842 f53c
000001f0: 1af4 69bc 5dce ba3c 0d39 893d 4c5f efbd
00000200: ea4f de3c fbdb 723c f2ce 58bc 93f2 813d
00000210: 2a0a 71bd 9e42 433c ffc0 50bd 25c5 833d
00000220: 00ee 443d 495e 0dbe 2c2d 01be 8e18 553d
00000230: 2f61 71bd b2b7 313e 7145 1e3e 8ac2 0ebd
00000240: 2ca2 03be 1462 043e 35c2 2cbe 974c 523e
00000250: 8105 383d b81a 98bd 9d21 363a 5f9d 4cbc
00000260: f193 6fbd 5f0a aebd 8837 283d daae ab3d
00000270: 3944 24bc bed3 ff3c ed24 26bc 1285 433b
00000280: ca23 b33d 0022 4d3d ef60 a0bc 67b6 b3bd
00000290: ff77 70bd 0bcc 933c 6b3e c53b 3184 a3bd
000002a0: 7a62 82bd fcb2 79bd a61c a73d aff0 99bd
000002b0: c636 a9bd 4c74 50bd cdfa 8cbb 1565 193d
000002c0: 79be a33d e150 633d be3b b53c 1d21 7f3d
000002d0: ad32 0f3d 2ce0 7c3c 20c0 4b3d 0892 0a3e
000002e0: 6615 e13d 5de3 da3d ce64 88bd 0227 07bd
000002f0: 8303 a03d df1e ad3d 5fa5 e8bc abef 6cbb
00000300: 46b7 62bd 04d7 b43d 1802 9bba 51a7 a0bd
00000310: e701 04bb 3e9b 3f3d c753 a53d af6f 09bd
00000320: 7367 b63d ae99 92bc 623c 42bb 746f 0bbd
00000330: d98f 833c eda6 9ebd 3c7e 973c 8ead b6bd
00000340: b70d d83c 1ac1 c13c f225 babd fefa 0d3e
00000350: 3934 35bc 1344 2ebc ecd1 9c3d 60e5 0d3e
00000360: e2ad 0ebe 258c 77bd ec46 0abe c5ab 3d3e
00000370: eebd 643b bad9 353d 6281 6ebd 4e3a 303a
00000380: 0051 f6bb f170 823c 02b6 ea3d 8f41 d93d
00000390: f6b3 063b 8549 c63d 8971 bcbc cca6 7c3d
000003a0: 0b98 4c3d a9b2 cb3d 26b3 87bd dad9 82bd
000003b0: fd11 8bbc ea23 4ebc 064a bb3c d8f0 103d
000003c0: 5a1d c93d 084f 5b3d 29fa ddbc 3823 323d
000003d0: ec59 c2bd e14a 9ebc 3815 11bd 7a81 be3c
000003e0: 0ba9 5dbd d9b0 733d eefb b0bd d9fe be3d
000003f0: 930d 6e3d a53e 55bd f7e4 4fbd 9160 6b3d
0.03616992 0.1784522 0.22864848 -0.11354734 0.09187924 0.13333017 -0.06408536 0.00852088
-0.064449914 0.23836412 -0.018881004 -0.092789 0.12252393 0.115377575 -0.016254032 -0.0017905005
-0.042790554 -0.06117189 -0.12820451 -0.08109116 -0.011788195 -0.041202202 0.040803574 -0.03695254
0.057726398 0.101973675 0.0023043572 0.0072626164 -0.08532896 -0.0821766 0.022214904 -0.022170553
0.047353514 0.008595081 -0.047045607 -0.00062237954 0.058957227 0.0104318885 -0.06848823 0.032029346
0.07513529 0.004377033 0.017434604 0.040869843 -0.0027120183 -0.07796153 0.060950216 0.052095603
-0.04917337 0.04186136 0.043548767 -0.0074690618 0.0376844 -0.002392959 0.045193385 -0.021619916
-0.078108184 0.036779936 -0.021443104 0.040393557 0.006232227 0.09344257 0.02458473 0.024277752
0.002302645 -0.048929147 -0.026771603 -0.055248916 -0.13641253 0.008294036 0.09066492 -0.10656157
0.14530054 -0.07143534 0.18304265 -0.055243757 -0.023978448 0.06006973 -0.07367351 -0.062462516
-0.019995613 0.07700132 0.094634615 0.07919102 -0.02632152 -0.07139799 -0.033644598 -0.055256173
-0.027967753 0.12079438 0.06515441 0.014413223 0.039567087 0.09231385 0.06458602 0.11189781
0.0029127714 -0.03942577 0.0035188617 -0.07918718 -0.045105696 -0.037878107 0.09636815 -0.057365604
-0.037782304 0.02849758 0.04091621 0.017677555 -0.011607794 0.026106732 -0.06674072 -0.038432546
-0.02197477 -0.05793256 0.060951564 0.10202909 0.07514084 0.07616603 -0.075735115 0.070933424
0.08311779 -0.041833986 0.07051489 0.029938802 -0.01427939 0.02280348 0.06700335 -0.11688098
0.027137715 0.014822955 -0.013232933 0.063450955 -0.058847584 0.011917738 -0.050965305 0.06434087
0.048078537 -0.13805498 -0.12614888 0.05202537 -0.058930572 0.1735523 0.15456177 -0.034853496
-0.12854832 0.12928039 -0.16870959 0.20537029 0.044927124 -0.07426971 0.0006947758 -0.012488692
-0.058490697 -0.08498072 0.041068584 0.0838296 -0.010026031 0.031228896 -0.01014064 0.0029833955
0.087470606 0.050081253 -0.019577472 -0.08775025 -0.058708187 0.018041631 0.0060194037 -0.07984198
-0.06366439 -0.06096171 0.08159761 -0.0751661 -0.082624 -0.05089216 -0.0043023587 0.037449915
0.07995314 0.055497054 0.022123214 0.06228744 0.034960438 0.015434306 0.04974377 0.13532269
0.109904096 0.10687897 -0.06659852 -0.032996185 0.0781317 0.08453154 -0.028399168 -0.0036153595
-0.055350564 0.088300735 -0.0011826186 -0.07844413 -0.0020142735 0.04677891 0.0807262 -0.033553775
0.0890645 -0.017895546 -0.0029638042 -0.034041837 0.016059803 -0.07746682 0.01849281 -0.08919822
0.026373727 0.023651648 -0.09089269 0.13865277 -0.011059814 -0.010636347 0.07657227 0.13857031
-0.13933519 -0.060436387 -0.13503617 0.18522556 0.0034903246 0.044397093 -0.058228858 0.0006722555
-0.00751698 0.015922995 0.114604965 0.106082074 0.0020554042 0.096819915 -0.023003357 0.061682507
0.049949687 0.09946186 -0.06625967 -0.06389208 -0.01697635 -0.012581805 0.022862446 0.035385936
0.098200515 0.053542167 -0.027096825 0.04349062 -0.094898075 -0.019322814 -0.035420626 0.023255099
-0.05411629 0.059494827 -0.08641802 0.09325952 0.058118414 -0.052061696 -0.050755467 0.05746514

encoderlayers.0.bias f4 [12]
00000000: 2752 2dbd aae0 00bd 210b f7bc 0139 d6bc
00000010: e2a1 ce3d 3c67 da3c 8f76 2a3d 9163 88bd
00000020: 08c3 a1bd 005d 2b3d 2795 ccbd 5ca9 043e
-0.042314675 -0.031464256 -0.030156674 -0.026150228 0.100894704 0.026660554 0.041616973 -0.06659616
-0.078985274 0.04183674 -0.09989386 0.1295523

encodernorms.0.weight f4 [12]
00000000: c0b8 9c3f d72a 963f cdef 913f cc52 8f3f
00000010: b99c 863f 4101 863f 4068 933f 848e 813f
00000020: ed3e 963f 4b22 923f 532b 913f 8ae6 963f
1.2243881 1.1731824 1.1401306 1.1197143 1.0516578 1.0469133 1.151619 1.0121617
1.1737953 1.1416715 1.1341347 1.1789105

encodernorms.0.bias f4 [12]
00000000: 9145 dcbd df2f 05be 8519 7bbc ecf8 99bc
00000010: 4717 bebc 23de c93c 821b f7bc aca4 ddbd
00000020: 6f2c b03b fb7c 883d 7483 a93d 5191 3bbe
-0.10755456 -0.13006543 -0.015325909 -0.018795453 -0.023204459 0.024642056 -0.030164484 -0.10822424
0.0053763906 0.06664463 0.08277026 -0.18317153

encodernorms.0.running_mean f4 [12]
00000000: 0b90 9b3e 6e06 a93e 9fbe b63e b36f 893e
00000010: 5798 743e 9ae4 213e 5786 a63e b07a b33e
00000020: 3255 c43e d152 653e cd26 973e 2909 993e
0.30383334 0.33012718 0.35692307 0.26843032 0.23886238 0.15809861 0.32524368 0.3505454
0.3834625 0.22394873 0.2952179 0.298898

encodernorms.0.running_var f4 [12]
00000000: 0846 d23d 5571 0a3e 6406 fa3d 16d6 d73d
00000010: 9d4b ad3d 97ba 893d 6673 013e 51b8 003e
00000020: 7dec fe3d bfa7 aa3d a21f d53d 2af6 de3d
0.10267264 0.13519795 0.1220825 0.105388805 0.08461688 0.06725042 0.12641677 0.12570311
0.1244745 0.08332776 0.10406424 0.10886796

decoderlayers.0.weight f4 [12, 8]
00000000: b524 93be 1ff5 663e 8232 29be 0214 3b3e
00000010: 0532 42be b22b 62be 6921 ab3d 1cea 05bd
00000020: 9475 323e aa72 88be 22b4 2e3e 7053 0b3e
00000030: 5010 863e a322 503e f63a a43e 9741 6bbe
00000040: 4ac4 a63e cfde a13c c038 893d eb7f 913e
00000050: 5c2d 913d 7497 f73d dfc0 f9bd 1126 92be
00000060: d4b3 633e 705e 3f3e effc 2b3d 3f5f 3bbe
00000070: 79fb 063e 434e 06bd 8b1c b5be 65a7 9d3e
00000080: 5fdf 0fbd 5201 c33e dd7a 6dbe f540 b9bd
00000090: d98e 763e e380 09bd af8d 32bb 22d3 a8be
000000a0: 4a71 be3c 40cc 2ebd 9aab 8f3e 8580 69be
000000b0: 0f88 44be 7583 6c3e e915 a7bd 2ddc 843e
000000c0: 4663 58bd 1148 09be 309e f93d ab1c a6be
000000d0: 4aa4 b73e 9801 46be 8e55 7a3d a785 0ebe
000000e0: a196 cbbd fa61 cfbd 926a 8f3e 8c9a a1bd
000000f0: 4f06 593e 7063 b13e 518f a8be 460f a33d
00000100: 202e bfbb 0ed6 753e 9610 9a3e 4200 ffbd
00000110: 2caa 163d 4aba 253d 2afd abbe 626b 133e
00000120: 4b1e aabd 24bc a9be 434b 8ebe c22c 74bd
00000130: d594 72be 875f 5f3e 046e 02bd 4f1e ed3d
00000140: 0136 37be 618c 91be 7ccf b43e c334 5c3d
00000150: c458 353e 6dd6 fb3d fe48 c53b 764d 983e
00000160: 0c7f 933e c4c8 88be 3eef 883c 2aed 943e
00000170: 2541 123e 3eb8 94bc a353 3b3e 78ef 1c3e
-0.28738943 0.22554444 -0.16523173 0.18269351 -0.18964393 -0.22086981 0.08355982 -0.032693967
0.17427665 -0.26649982 0.17060903 0.13606048 0.2618432 0.20325713 0.32076234 -0.2297424
0.32571632 0.019759564 0.06700277 0.28417906 0.0708873 0.12089434 -0.1219499 -0.28544667
0.22236568 0.18688369 0.041989263 -0.18298052 0.13181867 -0.03278948 -0.3537334 0.30791774
-0.035125133 0.38086945 -0.231914 -0.09045593 0.2407793 -0.03357018 -0.0027245095 -0.32973582
0.02324738 -0.042675257 0.2806061 -0.22802933 -0.19192527 0.23097022 -0.08158476 0.2594923
-0.05282905 -0.13406397 0.12188375 -0.32443747 0.3586753 -0.19336545 0.061116748 -0.13918172
-0.099408396 -0.101261094 0.28010994 -0.078908056 0.21193813 0.34646177 -0.32921842 0.079618976
-0.005834356 0.24007437 0.3009078 -0.12451221 0.036783382 0.040460862 -0.33591586 0.14396432
-0.08306559 -0.33151352 -0.27791795 -0.059612997 -0.23689587 0.21813785 -0.0318432 0.115780465
-0.17891695 -0.28427413 0.35314548 0.053761255 0.17709643 0.12296758 0.0060206642 0.29746598
0.28807867 -0.26715672 0.016715642 0.29087192 0.14282663 -0.01815426 0.18293624 0.15325725

decoderlayers.0.bias f4 [12]
00000000: f3e3 a63e 3e22 873e d40e a5be 745b 9fbe
00000010: dcbf 243e 008c 0bbe dd8c 6ebd f0d4 233d
00000020: 4c83 8f3e 2981 c43e cce0 c53e eba3 b9bd
0.32595786 0.26393312 -0.32237875 -0.3112446 0.16088814 -0.13627625 -0.058239806 0.039997995
0.2802986 0.3837979 0.3864807 -0.09064468

decodernorms.0.weight f4 [12]
00000000: 5c87 453f f9cf 593f 1ad7 363f 717e 433f
00000010: 6828 523f 42af 423f 06a6 483f fa43 4b3f
00000020: 8a5b 4a3f 12f0 563f 638b 473f f326 483f
0.77159667 0.85082966 0.7142197 0.7636481 0.82092905 0.7604867 0.7837833 0.794006
0.7904593 0.8396007 0.7794706 0.7818443

decodernorms.0.bias f4 [12]
00000000: bbef 493d ce02 273d 3c24 d53d 5a1a 593d
00000010: 643e a0bd d507 4e3d 4982 61bd 9e6d 0a3d
00000020: e7ed 71bd 0864 4a3d 510c 983d ceca 963d
0.04930089 0.04077416 0.10407302 0.053003646 -0.078244 0.050300438 -0.05505589 0.033795945
-0.059064772 0.049411803 0.07424224 0.07362901

decodernorms.0.running_mean f4 [12]
00000000: 3035 ff3e cca4 043f 6118 123e f5b9 913e
00000010: 2973 eb3e 7c83 a43e a1ae c43e 4ce4 053f
00000020: e2d0 103f 94dd 2f3f 0cf9 583f 65bf 9b3e
0.49845266 0.5181396 0.14267112 0.28462186 0.45986298 0.32131565 0.3841448 0.5230148
0.5656873 0.68697476 0.84755015 0.3041946

decodernorms.0.running_var f4 [12]
00000000: f169 c63e 0258 0e3f 58ea f73d 5fdd b33e
00000010: 72dc 1c3f c62f a33e 3675 c53e f17c 023f
00000020: c52f 223f f734 4c3f 3287 803f ff01 913e
0.38752702 0.5560304 0.121052444 0.3512983 0.6127387 0.31872386 0.38565987 0.50971895
0.6335414 0.7976832 1.0041258 0.28321835

mu.weight f4 [8, 12]
00000000: ae79 8e3e b674 2c3d da16 193e 30de 8c3e
00000010: 5036 abbd 193f 7a3d d14d 69bd 2c40 36be
00000020: fba7 043c 2efc 5e3e 1d09 43be e31a 54bb
00000030: 0d32 753e 2bd0 933e f71a b4be 6ec3 e43c
00000040: d778 b83e e65a 85be f5e2 8fbe f082 673e
00000050: 087a 8e3c 7eea 643e 47d6 19be afa2 77bd
00000060: e925 a5be 2567 b0bd 3ff6 6cbe d0a6 37bd
00000070: 5093 89bd 8e6e 73bd 4eb6 a8be 2fe5 30be
00000080: 5ac5 a0bd 4860 843e 1a51 a03e d33c cb3e
00000090: 45f7 8bbe f851 903e ca7d 143e bbdd 903d
000000a0: 7482 633e 1f3c fabd 7ee3 da3d 9294 0bbe
000000b0: 51b3 7b3e e1b4 3d3c 77bf 49be 0575 283e
000000c0: 6ef9 d73e 2b4d 5bbe 3950 073e d5ff a83e
000000d0: afd2 4d3e b1c2 26bd 0a98 bdbe def8 e5bd
000000e0: 997a 78be feeb 803e c98b 233e 6a1b 4d3e
000000f0: 5f60 54be d3ef 81be b645 5a3e 7c3b 82bc
00000100: d043 66bd 11f2 82be 883a b23e 78d0 6a3e
00000110: 321e 2a3e c35c 64be bd41 67be 034b ff3c
00000120: bcb3 af3e 995d 47bc 4ac6 113e 7578 58be
00000130: 2b63 953d 4e45 293d e776 cf3d 9273 96be
00000140: 549a b33e df1c cdbe e06f 943e 5a83 623e
00000150: 192e d6be f9dd 4ebe 4830 e23c 01f7 61be
00000160: d158 0fbe 36e1 873e 2b48 093e 85a7 a7bd
00000170: da32 b1be c674 903e ce06 c3bd 83c1 a63e
0.2782721 0.04210349 0.14950123 0.27513266 -0.08359969 0.06109533 -0.056958977 -0.17797917
0.00809669 0.21775886 -0.19046445 -0.0032364659 0.23944874 0.28869757 -0.35176823 0.02792522
0.36029693 -0.26045913 -0.28102842 0.22608542 0.017392173 0.22355077 -0.15023147 -0.06045788
-0.32255486 -0.08613423 -0.2314081 -0.04483682 -0.06717551 -0.059431605 -0.32951587 -0.17274927
-0.07850142 0.25854707 0.31311876 0.39694843 -0.2733709 0.28187537 0.1450111 0.07073542
0.22217733 -0.122184984 0.10687922 -0.13630894 0.24580123 0.011578769 -0.19701944 0.1645089
0.42182487 -0.21416156 0.13214196 0.33007684 0.200999 -0.040713016 -0.3703006 -0.11229108
-0.24265517 0.25180048 0.15971293 0.20029989 -0.20739888 -0.25378284 0.21315655 -0.015897505
-0.056217015 -0.25575307 0.3481028 0.22931087 0.16613081 -0.22301011 -0.22583671 0.031163698
0.34316814 -0.0121683115 0.14235798 -0.211397 0.072943054 0.04132586 0.10130101 -0.29385048
0.3507868 -0.4006109 0.28991604 0.22120419 -0.41832045 -0.20201863 0.027610913 -0.22066881
-0.13998725 0.2653901 0.13406436 -0.08186249 -0.3460911 0.2821409 -0.09522782 0.32569513

mu.bias f4 [8]
00000000: bf36 42be 94ad 87bd e44c bcbb 02dd 333e
00000010: 2610 9c3e adae 273e 6b53 463d cbdf 723e
-0.18966196 -0.06624904 -0.0057464708 0.17564777 0.3048107 0.16375227 0.048419397 0.23718183

var.weight f4 [8, 12]
00000000: c1df bb3d 9c76 043e 8dd3 0b3d 1cdd c2bd
00000010: af60 8cbe b0fd fa3c 57c3 e7bd 7718 b1bd
00000020: 6d7e 4d3e 0b08 fdbc a1fb 23be 486d 083e
00000030: 8bff fc3d 6591 983c 9ce5 653e 90e4 8f3e
00000040: e4f8 863e e498 0d3e cd57 7e3e 550f 203d
00000050: 9b8f 56be 728e 663d d70f 423e f0b7 893e
00000060: 1804 f63d 40f7 f1bd 6c6e 233e eb62 58be
00000070: b839 003d ca26 67be 95ae 3d3e d764 43be
00000080: 1b66 4cbe 65a7 433e addf 84bd b3d5 d33d
00000090: 81b5 183d cca6 143e fd64 e1bd 07d7 323e
000000a0: 9a4c ddbd 17fd 243e eb10 0abe 2020 173e
000000b0: d1b5 003e 1106 76be 9489 83bd bd11 033e
000000c0: 8afc 343e ee62 cf3d d1c7 1cbe 588d d9bd
000000d0: 1075 bb3d 1e66 5abc e2bd 48bd 396c ae3d
000000e0: d851 953d 1bad 86be dd3f 80bd 56ed 063e
000000f0: 52e4 493b ff0b 273d a89f 9e3d 9d73 0f3e
00000100: 2779 a03d d128 09be af7c 02be b4bf 283e
00000110: dd38 183e 25c7 e33d bf83 2abe 1b30 453e
00000120: 7734 a1bd df25 793d 3a30 fbbd 4d6e 21be
00000130: 565d 4bbd 88be b2bd 4668 4ebe c644 e33d
00000140: a141 4ebd e0a1 c8bc b292 84be e3ec 683e
00000150: e469 983d 6923 bd3d 442b 3bbc 1da7 363e
00000160: dce4 36be 9c44 c03d 01c7 893e a468 f43d
00000170: 8b4c 2cbe 7311 85bd b046 783e 7476 a53c
0.09173537 0.12935871 0.034137297 -0.095148295 -0.27417514 0.030638546 -0.11316555 -0.086472444
0.20067759 -0.030887624 -0.16013958 0.13322937 0.123534285 0.018624017 0.2245087 0.28104067
0.26361763 0.13827854 0.24838181 0.03907712 -0.20953219 0.05628819 0.18951355 0.26898146
0.120124996 -0.11814737 0.15960091 -0.21131484 0.031305045 -0.2257339 0.18523629 -0.19081436
-0.19960825 0.19106825 -0.06487975 0.10343494 0.03728247 0.14516753 -0.1100559 0.17464839
-0.10805626 0.16112171 -0.13483016 0.14758348 0.12569357 -0.24025752 -0.06422725 0.12799735
0.17674461 0.10126291 -0.15310599 -0.10622662 0.09153187 -0.013330011 -0.04900921 0.085167356
0.07291001 -0.26303944 -0.06262181 0.13176474 0.0030806256 0.040782925 0.07745296 0.14008947
0.07835608 -0.13394476 -0.12742876 0.16479379 0.14865442 0.11121968 -0.1665182 0.19256632
-0.07871335 0.060827132 -0.12265058 -0.15764733 -0.04964956 -0.08727747 -0.20156965 0.11097102
-0.050355557 -0.02449125 -0.2589317 0.22746615 0.07442072 0.092352696 -0.01142389 0.17837186
-0.1786074 0.09388086 0.2690964 0.11934021 -0.16826074 -0.06497469 0.24245715 0.020198084

var.bias f4 [8]
00000000: f063 643c 5f37 133e 5142 d13d 1599 d03d
00000010: af1c 2dbe a7cf 913d 1842 0abd 5d48 b63d
0.013939843 0.14376591 0.10217727 0.10185448 -0.16905473 0.07119685 -0.03375444 0.08900521

out.weight f4 [70, 12]
00000000: 115e 39bd 2227 18be 9c2c 8a3d 640e 2e3c
00000010: 5337 9abd e1a5 f13d c535 b43d e300 79be
00000020: f93e 433e 18e8 44bd 3b3a 73be 79f8 48be
00000030: fceb 4fbc c317 873e f0dd 01be 55ef 80bd
00000040: 5fff 453e 28d6 2d3d 35be 603e 1d05 6bbb
00000050: 5b32 263e 441b 14be 0a9c ffbd d4ce 443e
00000060: f184 59be 0749 c43d a2b1 9d3c 3290 82bd
00000070: dd94 3c3e 997a 443e 85af a3bd 13d3 9bbe
00000080: f63e 70be 0c89 883e 6ff1 823d 146c cb3d
00000090: c353 94be 7812 e8bd 3060 b93b be34 e83d
000000a0: da0f 38be d8df 2e3e ef47 97bd 68b2 493c
000000b0: 9b48 67bc 693e 373e 0e48 643e 1851 b8bd
000000c0: b4a2 183e 239f 65be fe0a 243e 575a 60be
000000d0: 63b1 3dbe 7542 0f3e fad7 0e3e c609 6d3e
000000e0: 5fdf 383c 0ffa 4f3d 1b6b 65bd c32e b03d
000000f0: 06bd 41be d4c7 b7bd 4e53 593d 0a4b 50be
00000100: 3464 00be 3512 ea3d 1e75 973d d3a4 013e
00000110: 4b88 10be c46d 763e 229b 4bbc e2d0 b73d
00000120: e806 1c3e 250d 1ebe c251 a33d 6c86 3dbe
00000130: bc08 6abc 6313 2a3e 42c8 523d 4a24 dfbd
00000140: e4eb 0d3e f871 433e b54e 7c3c c068 24be
00000150: 7207 133e 97fc c83b 5ef2 bcbc 74b1 4c3e
00000160: 67fd f1bc a5e8 463c b869 40be 72b1 413d
00000170: 908c 1dbe 569f 393e ced4 24be 09e5 d63d
00000180: 3479 e63d b166 5b3e c9d4 283c 4acb 143e
00000190: 3e16 7dbe 97b7 8a3e 3e26 fc3b d3ec 60be
000001a0: bc5f 6abe 3730 903e 13e2 8b3d 3776 58be
000001b0: 706b 1dbe c581 313e f333 efbd dabd 823e
000001c0: 6ebc 3a3e d3df d0bd bdd4 6d3e 25ea 39be
000001d0: db6d 5b3e b893 71bd 657e 2dbe 8414 2b3d
000001e0: 0a90 31bc ec8c 3b3c 953b 8d3d b24d a9bd
000001f0: 2559 be3d e6f1 0a3e 306a 9ebd 9102 933d
00000200: d0d1 5dbd 5975 4dbd a739 9bbd c75a 963d
00000210: 9689 803e 3280 61bd 02ed e83c c5ab 063d
00000220: c880 c23d 1e7d 543e c9d3 073e 41bb b33d
00000230: 82ff fc3d e64f 133e 126f 7b3a 84ba 873e
00000240: 1d45 fdbd 70af cfbd bd18 cfbd f485 19be
00000250: 7a54 cdbd d990 393e 8f0b 433e dc24 4d3e
00000260: 08fb 5a3e 8ad3 183e 1cda 96be d2e8 b5bd
00000270: e9d3 cb3d 03f0 593e 1270 6cbe d257 193e
00000280: bdff 3bbe 75ab 5c3e 56b2 6a3e d490 4f3e
00000290: 838b 0b3e df6a 203e c65a 5ebe b6d3 a3bd
000002a0: 8a39 e0bc cc1b 19be 6ff6 013e 879c ca3d
000002b0: 5afe 81be 54e0 36be 5435 55be 4b1a b0bc
000002c0: 7374 f43c 5b8d b2bd 225c ea3d e9fe 233c
000002d0: b8d3 b1bd 9d0f 713d 9880 90bd 5b18 0cbd
000002e0: d656 6abe 4a0a 9dbe f341 74be 01a4 533d
000002f0: c092 3f3e 9bb0 46bd c444 623c a8d1 dd3c
00000300: 1fe4 9b3e 0aec 8fbe ea92 d63d d8b0 01be
00000310: d070 11be cf59 06be a05c 64be 9f77 c03c
00000320: 25ad 24be efe4 9a3d 44f6 8abd 72e9 05be
00000330: a6ed 3f3e cd78 4cbe 3b31 6f3d 32f0 7d3d
00000340: 4e32 99be 6ef0 4bbd bbd3 23be 1bd4 f1bd
00000350: 3acb 7c3c 03e7 2f3d 13ed 2d3a 1d08 be3c
00000360: 09c6 0abe 7c81 753e 15a9 343e b604 62be
00000370: 4867 603e edfc 093d 0162 6abc dcab 063e
00000380: eb77 31be fc31 9e3b ac90 203e 09e7 5b3d
00000390: a3b5 79be c0ce 803e a905 953e da59 2fbe
000003a0: 2eeb 063e 6409 31be 7ec2 0a3e 310e a93c
000003b0: bd11 85be 83ee 6ebd b5f9 fbbd 42ff 1a3d
000003c0: 8cfe edbd 894d 98bd 0d8c 80bd e3e3 4a3e
000003d0: 5e42 cbbd 93cb 433d 2e2e a73d 49c3 1d3e
000003e0: b533 2ebc 5496 ddbd fe31 7abd 160a b6bd
000003f0: 9726 dbbd b615 21be 31ef 9fbc d149 823e
-0.045255724 -0.14858678 0.0674679 0.010623548 -0.075300835 0.11799217 0.08799318 -0.24316745
0.19066991 -0.048072904 -0.23752682 -0.19626035 -0.01269054 0.26385316 -0.12682319 -0.06295649
0.19335698 0.042440563 0.21947558 -0.0035861202 0.16230147 -0.14463526 -0.12480934 0.19219524
-0.2124212 0.09584241 0.019249741 -0.06375159 0.18416162 0.19187392 -0.07992462 -0.30434474
-0.23461518 0.26667058 0.06393706 0.09932724 -0.28970155 -0.11331648 0.0056572184 0.11338185
-0.17974797 0.17077577 -0.07386767 0.012310602 -0.014116432 0.17894901 0.22293112 -0.089998424
0.14905816 -0.22423987 0.16019818 -0.21909462 -0.18524699 0.13990195 0.13949576 0.2314826
0.011283725 0.050775584 -0.056010347 0.08602669 -0.18919763 -0.08973661 0.05305796 -0.20341125
-0.12538224 0.11429254 0.07395385 0.12660532 -0.14114492 0.2406531 -0.012427123 0.08975388
0.1523701 -0.15434702 0.079745784 -0.18508309 -0.014284309 0.16608958 0.051460512 -0.108955935
0.13859516 0.19086444 0.015399625 -0.16055584 0.14358309 0.0061336267 -0.023064788 0.19989568
-0.029539777 0.012140428 -0.18790329 0.047288366 -0.15385652 0.18127188 -0.16096804 0.10492904
0.112535864 0.21425892 0.010304638 0.14530674 -0.24715516 0.27093193 0.0076949885 -0.21965341
-0.22888082 0.28161785 0.068302296 -0.21138845 -0.15373015 0.1733466 -0.116798304 0.2553547
0.18235943 -0.10198941 0.23225684 -0.18155725 0.21428625 -0.058978766 -0.16942747 0.041767612
-0.010837564 0.011447173 0.0689613 -0.08266772 0.09294347 0.1356884 -0.077350974 0.07178224
-0.05415517 -0.05016074 -0.07579356 0.07341533 0.2510497 -0.055053897 0.028433327 0.032878656
0.09497219 0.20750853 0.13264383 0.0877595 0.12353422 0.14385948 0.0009591441 0.26509488
-0.12366698 -0.10140884 -0.1011214 -0.14992505 -0.10025878 0.18121661 0.19047378 0.20033592
0.21384823 0.14924446 -0.2946328 -0.088822976 0.09952528 0.21282963 -0.23089626 0.14974907
-0.18359275 0.2154978 0.22919592 0.20270091 0.13627438 0.15665768 -0.21714315 -0.07999365
-0.027371187 -0.1495201 0.12691663 0.098931365 -0.25389367 -0.17859012 -0.20821124 -0.021496912
0.029840684 -0.08718368 0.11443354 0.010009506 -0.0868296 0.05885278 -0.07055777 -0.034202915
-0.22884688 -0.30671912 -0.23853283 0.05167008 0.18708324 -0.048508268 0.01381034 0.027077511
0.3044748 -0.2810977 0.104772404 -0.12665117 -0.14203191 -0.13120197 -0.22300959 0.02349454
-0.16081674 0.07563197 -0.06785253 -0.13077334 0.18743 -0.19967957 0.05839656 0.061996646
-0.29921192 -0.04978984 -0.15998738 -0.11808034 0.015429312 0.04294492 0.0006634753 0.023197228
-0.13552107 0.23975176 0.17642625 -0.2207211 0.21914399 0.033688474 -0.0143055925 0.13151497
-0.17330901 0.004827736 0.15680188 0.05368713 -0.24385695 0.25157738 0.2910588 -0.1712412
0.13175651 -0.17288738 0.13550755 0.02063665 -0.25990096 -0.05833293 -0.12303487 0.03784109
-0.116208166 -0.07436664 -0.062767126 0.19813494 -0.09924768 0.047801565 0.08163105 0.15406527
-0.010632445 -0.108196884 -0.061082833 -0.088886425 -0.1070072 -0.15730938 -0.019523235 0.25446942

out.bias f4 [70]
00000000: c7af 87be 83c8 0dbe 0ff6 b63d 95a2 b2bd
00000010: 9e72 f73d 2f66 ad3d c7c3 94bd 46f0 32be
00000020: 24cc 423d e9b3 403e 64e9 5fbd f732 8abd
00000030: aef5 86be 96df 3ebe a1f1 12be 85f9 66bc
00000040: 8e9e dc3d c4bd 79bc 4a50 5e3d 46e3 213e
00000050: b102 de3d 478a b03d a166 973d 6fc6 ef3c
00000060: bbc9 95bd be5a 5bbe b3fd 88bd 2430 d9bd
00000070: 4f9e 62bd 208a d4bd 3d8b b9bd b64f 2abd
00000080: 34c2 123d 3897 9fba 9d50 da3d 789d b93d
00000090: 411a ea3d abb2 c43d 7633 2fbe 5283 7fbe
000000a0: 9f8d a4bc 5ea5 25bc 7db2 6f3d 7414 2d3d
000000b0: 7e96 043e 5dbf 4f3e c343 9cbd 5d14 0bbc
000000c0: ef2b 2c3e 9fad d23b 76ba 343d 8ed0 7bbd
000000d0: 0508 17bc b55f 8abd 90d7 c73d ab34 a2bb
000000e0: 7dcf bcbd c23b 3a3d 6c79 273d e5c5 11bd
000000f0: 1d49 aebd 5351 7e3d 4340 91bd 6ffb ad3a
00000100: 594a 05bd 1d0d 6d3b 60aa 4cbd 37d4 a43d
00000110: 6927 9d3d d893 0f3d
-0.26501295 -0.1384602 0.08933651 -0.08722416 0.12082408 0.084667556 -0.07263904 -0.1747447
0.047557965 0.1881863 -0.054665938 -0.06748002 -0.26359314 -0.18639979 -0.14349987 -0.014097576
0.107724294 -0.015242998 0.05427579 0.15809354 0.10840357 0.08620124 0.07392622 0.029269425
-0.07313868 -0.21421334 -0.06689014 -0.10604885 -0.055326756 -0.10377908 -0.09059761 -0.041579925
0.035829738 -0.0012175804 0.10659907 0.09063238 0.11430789 0.09604391 -0.17109475 -0.24952438
-0.020087061 -0.010110227 0.05851983 0.042255834 0.12948033 0.20287843 -0.07630112 -0.008488742
0.16813634 0.0064293887 0.044123136 -0.06147819 -0.009218221 -0.06756536 0.09757912 -0.004950126
-0.09219263 0.045467146 0.04088728 -0.035589118 -0.08510039 0.062089276 -0.07092335 0.0013273786
-0.032541607 0.0036171146 -0.04996717 0.08048289 0.076735325 0.035053104
