tutorial/interim_data_test/models/model_8_24.pt (torch, 14379 bytes, 18 tensors)

encoderlayers.0.weight f4 [12, 70]
000000 08 1c 0e 3e 75 4d 40 bd 8f 0b 16 be 02 06 a0 3d
       0.1387788 -0.04694887 -0.14652847 0.07813646
000010 aa 43 0a 3e 51 7b 39 bd d4 ad 31 3e ce a9 dd bc
       0.13502374 -0.04528362 0.17351466 -0.027058508
000020 0c b7 f4 bd 33 e5 e9 3d ca 87 a3 3b 5c 52 2e 3d
       -0.11948976 0.114206694 0.0049905526 0.042559013
000030 18 3a 99 3c 89 bf 55 3d d5 e3 8d 39 41 05 7b 3c
       0.01870446 0.052184615 0.00027063364 0.015321077
000040 d0 0e 59 bd 55 bf 46 3d b5 5c 1f bd e3 15 6e 3c
       -0.052992642 0.048522312 -0.03890677 0.014531585
000050 33 a5 47 3b d7 71 97 bd e7 97 c8 bc 6a da 4c 3c
       0.0030463457 -0.0739476 -0.024486495 0.012503246
000060 1e ab 59 bd fc 4b 63 bd 64 6e 13 bd 86 2d 8a bd
       -0.053141706 -0.055492386 -0.03599395 -0.06746964
000070 ea 0e c8 3b 41 73 d3 bc c1 b5 2a 3d 7d f2 e9 3d
       0.0061052935 -0.025811793 0.04167724 0.11423204
000080 59 ee 4a 3d f0 8a 56 bd 9a bd 10 3d 2f 9b 1e 3d
       0.049543712 -0.052378595 0.03533707 0.038722213
000090 ad 66 c2 3d 3d 0b 94 3d cf 8e f9 3c 2f dc 56 bd
       0.0949224 0.07228706 0.030463604 -0.052456077
0000a0 73 d8 76 3d f5 da f0 3a c7 f2 8d 3c e5 8a ca 3b
       0.060265016 0.0018375801 0.01732768 0.0061811083
0000b0 73 22 a5 3c fa 28 ce 3c 9c e0 da 3c 43 61 d4 bc
       0.020158028 0.025166024 0.02671843 -0.025925284
0000c0 b4 fd 45 3d e8 56 44 bd 88 83 89 bd fe 5d d3 bd
       0.048337653 -0.047934443 -0.06714541 -0.10320662
0000d0 3f 36 d1 bc ca 11 46 3d dd 9d a3 3c df 1b 61 bc
       -0.025538562 0.04835681 0.019972736 -0.013739555
0000e0 c9 56 56 bc b1 0f dd bd 89 87 92 bc 13 3c 0d 3d
       -0.013082215 -0.107940085 -0.017886894 0.03448112
0000f0 9a cb 96 bd f7 08 c6 3d 67 f6 f3 bc 9b 64 83 3d
       -0.07363053 0.09669679 -0.02978058 0.06415673
000100 95 05 93 bd 2a bf a8 3d a7 22 04 3d e6 4a f2 ba
       -0.07178799 0.08239587 0.03225961 -0.0018485456
000110 ea 58 e2 bc 7a f0 42 3d 7e 75 2c 3d a5 5d 2b bc
       -0.027630288 0.047592618 0.042104237 -0.010459338
000120 96 27 97 bd 92 7a 5f 3d 53 e0 52 be 1f fc 02 3e
       -0.07380597 0.05456025 -0.20593385 0.12791489
000130 20 b1 05 3b f7 c3 a3 3d 7e 56 f3 3d 2e bb 1f bd
       0.0020399764 0.07996362 0.118817315 -0.038996868
000140 3e c8 6d 3d 39 d0 8d b9 23 b6 fc bc f4 5e 3b 3d
       0.058052294 -0.00027048754 -0.030848568 0.04574485
000150 de 35 eb bc 3e d1 0f bd df 43 35 bd c0 23 a3 3b
       -0.02871221 -0.03511166 -0.04425418 0.004978627
000160 0e 0b 9c bc a3 dd 3c 3b d7 3b 2a 3d 73 fc ca 3d
       -0.01904824 0.002881863 0.041560974 0.09911432
000170 d0 02 82 bd e9 c2 55 3d 78 18 93 3d 4e c5 c9 3d
       -0.06348193 0.052187834 0.071824014 0.09852086
000180 d7 24 88 bd e5 f2 7c bd 05 cc 0c 3d 29 05 7f bc
       -0.06647652 -0.06175508 0.034374256 -0.015565195
000190 ee ad 42 3d b6 6c de 3d 75 0e 52 bd 3d 93 b8 3d
       0.047529154 0.10860579 -0.05128332 0.090124585
0001a0 f6 2a 2e bd 3c 7e 56 3d 0d 82 be 3c ca 12 c5 bd
       -0.04252144 0.05236648 0.023255372 -0.09622724
0001b0 52 b2 75 bd 24 ea 15 3d 1a 1b 4c 3d d7 47 44 bd
       -0.059984513 0.036600247 0.049830534 -0.047920074
0001c0 f3 df 83 3d 2a e7 19 3d 61 33 c4 3b ad 09 eb bd
       0.06439199 0.03757397 0.00598757 -0.11476455
0001d0 5e 26 09 3c 89 76 86 3d 3e 83 2f bd e8 c6 72 3d
       0.008370964 0.065655775 -0.04284977 0.059271723
0001e0 b9 f3 90 3d a7 0d c9 3d 46 67 60 3d 16 7c 5a 3d
       0.070777364 0.09817057 0.05478599 0.053340994
0001f0 8f 57 38 3d 4f f7 0c 3c ca 96 b1 bd ea e0 88 3d
       0.045005377 0.008603885 -0.08671339 0.06683524
000200 e6 c3 a8 bd 35 ff e6 3a 6e 30 e4 bc ea a9 5c bc
       -0.0824049 0.0017623665 -0.027855124 -0.013468245
000210 4d 11 20 bd a4 b2 80 bd bd 36 ac 3d 3e dc 85 3c
       -0.039079 -0.06284073 0.08408878 0.016340371
000220 5b ac fe bc e5 ea fb 3c 53 c2 dc bd 0c a2 d4 3b
       -0.031088045 0.030751655 -0.10779252 0.006489044
000230 7d 0c 5b 3c 9e 2f 50 3d d8 49 6f 3e 51 b1 0b be
       0.013369677 0.05082666 0.23368013 -0.1364186
000240 77 b7 78 3e 07 e9 4f be 05 d8 c4 3c 0e 0e 8a bd
       0.24288736 -0.20303737 0.024028787 -0.06740962
000250 27 bf b0 3c bb a2 07 3d 63 ed 58 bd e7 61 91 bd
       0.021575524 0.033114176 -0.052960765 -0.070987515
000260 87 36 2e 3d c4 1f 8e 3d c7 3c a1 3d ed 29 95 3d
       0.04253247 0.069396526 0.078729205 0.07283387
000270 7d 9b 14 3d 79 c4 62 bd 1a e7 4d bd 01 c1 ed 3c
       0.036281098 -0.055363152 -0.050269224 0.029022695
000280 cd 34 66 bd 27 76 a3 bd d2 b4 ac bc 25 26 94 bc
       -0.0562027 -0.0798152 -0.021082316 -0.018084595
000290 09 ff b5 3c 59 76 84 3d 5c 09 8d bc 8d f6 12 bc
       0.022216337 0.064678855 -0.017216377 -0.008969915
0002a0 70 ce 11 bd e1 88 02 3d fc be 0a bc 8a 8b 86 3d
       -0.035597265 0.03186882 -0.008468386 0.06569584
0002b0 af 58 2a bd a7 d3 29 bc 26 23 55 bd 6d 1b bc bc
       -0.04158848 -0.010365403 -0.052035473 -0.022962296
0002c0 fc d0 99 3d db dc 23 bc 57 be c1 3d 4d c9 55 3d
       0.07510564 -0.0100013865 0.094601326 0.05219393
0002d0 6f 83 ab 3d 4c f1 8c 3d 64 52 ac bc b2 92 ec 3c
       0.08374678 0.06881961 -0.02103538 0.028878544
0002e0 f1 52 9e bd 0d 3f 1e 3d 73 ca b0 bb bf 72 e3 3d
       -0.077306636 0.03863435 -0.0053952276 0.111058705
0002f0 16 99 d4 3b 3f 84 3e 3d dd 76 30 3b a6 4b cd bd
       0.006487976 0.04651284 0.0026926317 -0.100241944
000300 3b 84 92 bd 7a 9b 01 bd 0a 24 b2 bd df d4 f8 ba
       -0.07154127 -0.031642415 -0.0869828 -0.0018984339
000310 06 76 97 3d df e9 c0 3c c9 e2 f3 bc 5b 10 79 3a
       0.07395558 0.023549018 -0.029771226 0.00095010333
000320 5f dd 98 3c f4 10 cf bd d5 c0 e9 3c 14 d6 00 bd
       0.018660245 -0.101106554 0.028534332 -0.03145416
000330 dd e4 aa bd 73 1b fc bc e4 c6 40 3d 2d a5 49 bd
       -0.083444335 -0.030774808 0.047064677 -0.04922979
000340 6c 3f e1 3d 55 ec 24 bd ee 17 18 bd 71 db 8f 3d
       0.10998425 -0.040264446 -0.037132196 0.07024277
000350 cc ae 6d 3d df 21 f9 bd 50 18 c2 3c 66 8b 71 3d
       0.058028027 -0.121646635 0.023693234 0.05897083
000360 92 ba d7 3d 3b b3 91 3d bd b9 88 bd 8b 8b 99 3c
       0.10533632 0.071142636 -0.06676052 0.018743297
000370 26 da 04 3d f2 16 36 3d 23 9d 7b 3b f5 78 95 3c
       0.032434605 0.044455476 0.0038393221 0.018246153
000380 1b 9b 20 3c cf 7f 30 3d fc 7d 81 bd 68 66 d4 3b
       0.009802605 0.043090638 -0.06322858 0.0064819343
000390 a5 e5 b2 bc 74 a3 57 3d 29 1f b6 bc 4b f4 99 3c
       -0.021838019 0.052646115 -0.022231655 0.018793246
0003a0 ab 09 0e bd d2 c2 6f bd b6 90 47 3c 2d 85 c3 bd
       -0.03467719 -0.058535405 0.012180498 -0.09546886
0003b0 81 2a 0c bb c6 3a 9d 3d 7f 15 94 3d dc 19 9d bc
       -0.002138764 0.07677226 0.072306626 -0.01917737
0003c0 17 35 8b 3d 9b c2 94 3d 11 8f f0 3c f7 2a e0 3c
       0.067972355 0.072636805 0.029365094 0.027364237
0003d0 de ec aa 3d 3d ce 88 bd 73 85 3a bd 90 a4 41 3d
       0.0834596 -0.06679962 -0.045537423 0.04727608
0003e0 e6 76 40 bd b8 ca c4 bd ec 8d 9b 3d 3f 1d 3f bd
       -0.04698839 -0.09608978 0.07595429 -0.04665875
0003f0 1f 11 f6 3c 99 48 22 3e 63 4e dd 3d 2a 4b a8 3c
       0.03003746 0.15848006 0.10805967 0.020543654

encoderlayers.0.bias f4 [12]
000000 b5 2f 47 bc f2 38 b1 3c a0 86 92 bd 39 5c 55 3d
       -0.01215737 0.021633599 -0.07154584 0.052089904
000010 04 2b e3 bc 42 97 f3 bd df c6 95 3d cc b8 f2 3c
       -0.027730472 -0.118940845 0.07313322 0.029629134
000020 16 31 79 3d 65 77 09 3c 8d a8 f1 3b 60 fe 7d bc
       0.060837828 0.008390282 0.007374829 -0.015502542

encodernorms.0.weight f4 [12]
000000 ca 63 94 3f 5e 39 91 3f 8d 3d 8f 3f ec d7 89 3f
       1.1592953 1.1345632 1.1190659 1.0769019
000010 00 d4 94 3f 6e 2c 94 3f 63 9a 93 3f 65 bd 98 3f
       1.1627197 1.1576059 1.153149 1.1932799
000020 40 08 95 3f ee 44 98 3f c8 05 95 3f a9 9d 94 3f
       1.1643143 1.1896036 1.1642389 1.1610614

encodernorms.0.bias f4 [12]
000000 c2 5b 07 be d7 ab 4e 3d a7 e2 b2 bd ff b0 16 be
       -0.13218597 0.050456848 -0.08734637 -0.14715956
000010 3e 09 46 bb 2e ac f2 3d e0 b7 f8 bd 5b 23 11 bd
       -0.003021791 0.11849247 -0.121444464 -0.03543411
000020 e0 84 be 3d d9 49 fd b8 0b 3b 07 3c 8f 64 ec bc
       0.09302688 -0.00012077735 0.008253823 -0.028856544

encodernorms.0.running_mean f4 [12]
000000 c4 de 9b 3e 6c ce 97 3e 0d 29 a4 3e 65 1b f8 3e
       0.30443394 0.29649675 0.3206257 0.484584
000010 f7 2d a0 3e 0b 4c 47 bb 77 8b b6 3e db d9 af 3e
       0.31285068 -0.0030410315 0.35653278 0.34345898
000020 70 6d ce 3e ee b7 af 3e 96 ee b3 3e c8 ee b2 3e
       0.4031787 0.34320015 0.35142964 0.349478

encodernorms.0.running_var f4 [12]
000000 af e7 d0 3d 67 8d d3 3d 6a d8 06 3e ab ec 44 3e
       0.1020044 0.10329705 0.13168493 0.19230907
000010 28 4b eb 3d 97 20 40 3a 2c 14 d5 3d c1 de db 3d
       0.11488944 0.0007329075 0.10404238 0.10735846
000020 cb e5 2c 3e 8d 30 d1 3d ad 96 ed 3d fc 09 03 3e
       0.16884534 0.102143385 0.11601005 0.12796777

decoderlayers.0.weight f4 [12, 8]
000000 bf 5f b4 be 69 c4 5a be 19 d5 83 3e e4 47 0a 3c
       -0.35229298 -0.21363987 0.25748518 0.008439992
000010 f1 af 7c 3c 8b c4 b3 3e 27 4a e7 bd 93 69 3c 3e
       0.015422807 0.35110888 -0.1129344 0.18399648
000020 02 f0 bb be 40 7f e7 bd 6c 9b 8d 3e 1e 06 3f be
       -0.3670655 -0.11303568 0.2765764 -0.18654677
000030 5f 54 08 3e 6b c9 9f bd c8 cd a1 3e b7 3e 40 3e
       0.13313435 -0.07802089 0.3160231 0.18773924
000040 bc b5 35 be 17 4a f7 bd 91 76 b8 3e a3 49 c1 3e
       -0.17745107 -0.120746784 0.3602796 0.37751493
000050 37 a4 50 be 5c 3f 3d 3e 82 a2 e1 bd fc 88 e8 3c
       -0.20375143 0.18481201 -0.11017324 0.028385632
000060 69 41 2e be 89 43 ea 3d fb 37 8d be 41 5f ae bc
       -0.1701714 0.114386626 -0.27581772 -0.021285655
000070 2c 22 93 be 1e e5 97 bc b5 ce e4 bd a3 cd 79 bd
       -0.2873701 -0.018541869 -0.11172239 -0.060987126
000080 1a d0 49 3e 2e 9e 55 3e d8 28 98 3e 1d 91 c5 3d
       0.1970829 0.20861122 0.2971866 0.09646819
000090 05 25 27 be b3 c8 07 3e c4 f6 c7 3d d9 56 98 be
       -0.16322716 0.13260154 0.09763864 -0.2975376
0000a0 d7 b9 3e 3e 76 c7 48 3e ff 97 d7 3d 30 7c 8c be
       0.1862558 0.19607338 0.10527038 -0.27438498
0000b0 1c 65 1d 3d c1 42 d0 bd 0e 49 11 3d d4 f4 85 3e
       0.038426504 -0.10168982 0.03547006 0.26163352
0000c0 fb 1e 80 bd 6b c4 93 be c6 f6 74 be 52 5b 56 bd
       -0.06255909 -0.28860793 -0.23922262 -0.052333184
0000d0 37 1b 59 3d 99 88 27 3d 47 ba b7 be 97 4e 89 be
       0.05300447 0.040901754 -0.35884306 -0.26817772
0000e0 6f c8 c2 3e d0 85 80 be 3a cf 5e bd 4e 6c 6d be
       0.38043544 -0.2510209 -0.054396845 -0.23185846
0000f0 53 49 f1 3d 6a 56 94 3e e0 c1 79 3c 26 15 4f be
       0.117815636 0.2897218 0.015243977 -0.20222911
000100 e2 99 d3 bc 50 e5 a6 3e 32 60 8d 3e 3e 6d bd 3d
       -0.025830213 0.32596827 0.27612454 0.09249352
000110 94 db 36 3d 30 5c 9e 3e 50 41 e9 bd 92 ca 09 be
       0.044643 0.30929708 -0.113894105 -0.1345618
000120 29 15 9c 3d 09 73 a2 3e 38 fb 41 3e 0b 01 f5 3b
       0.076212235 0.3172839 0.18943489 0.007476931
000130 6d af 4c be a1 ce b1 bc 44 81 42 3e c9 e3 60 be
       -0.19988795 -0.021704974 0.18994623 -0.21961893
000140 65 1d 8b 3e 5a 9c b1 be 44 88 78 be 77 e9 5a 3e
       0.27170864 -0.346896 -0.24270731 0.21378122
000150 c1 08 70 bd b4 83 af 3d 54 a4 76 3d b9 73 4b be
       -0.0586021 0.08570042 0.06021531 -0.19868363
000160 e1 f1 d9 3d be 65 6b 3c 12 7f ab bd 79 f0 8d be
       0.10641838 0.014367519 -0.08373846 -0.2772253
000170 3e 4e 92 3e b2 8c 5c bd c9 43 8a 3d 17 2c 70 3e
       0.2857532 -0.053845115 0.0675121 0.23454319

decoderlayers.0.bias f4 [12]
000000 ba a2 93 bc eb 0f 44 3e c1 ea 4d be a8 35 39 3e
       -0.01802193 0.19146697 -0.20109083 0.18086874
000010 a2 5b 7f 3e 99 a1 18 be 24 17 ea bd 95 d8 e4 3d
       0.24937299 -0.14905395 -0.11430195 0.11174122
000020 cd 64 31 be b0 26 ad 3c 83 99 2b 3c 4e b1 2a bd
       -0.17323609 0.021136612 0.010473612 -0.041672997

decodernorms.0.weight f4 [12]
000000 ed 87 45 3f 37 c4 47 3f a1 bd 46 3f 04 00 4b 3f
       0.7716053 0.78033775 0.776331 0.792969
000010 d5 30 56 3f e0 fd 40 3f 70 17 44 3f 9e d1 4f 3f
       0.8366826 0.7538738 0.7659826 0.81179225
000020 cc c5 5f 3f 65 0d 52 3f 26 86 4a 3f a9 89 51 3f
       0.8741119 0.8205169 0.79110944 0.8185068

decodernorms.0.bias f4 [12]
000000 6c af 79 3d df 6a 29 bd b3 05 85 3c af 3b b8 3d
       0.06095831 -0.041361686 0.01623807 0.08995759
000010 1b 74 c4 3d 29 e2 01 3d e6 f1 7a 3c 9c fb 82 bc
       0.09592458 0.031709824 0.015316462 -0.015989117
000020 a5 e4 eb bc 67 17 03 bd 77 72 b2 bd 0a fe 6b 3d
       -0.02879555 -0.03200474 -0.08713239 0.057615317

decodernorms.0.running_mean f4 [12]
000000 ac 14 b3 3e 65 87 01 3f b6 29 a0 3e 3e a2 be 3e
       0.3497671 0.5059722 0.31281823 0.37233156
000010 e5 c0 1f 3f 1e 78 6c 3e 93 83 a1 3e c8 66 0d 3f
       0.6240371 0.23092696 0.31545696 0.55234957
000020 f8 7e f4 3e 00 9a 01 3f db 20 dd 3e 53 f9 99 3e
       0.4775312 0.5062561 0.4318913 0.30073032

decodernorms.0.running_var f4 [12]
000000 a4 e9 b8 3e 96 28 fa 3e c6 c4 c5 3e 20 e4 80 3e
       0.36115754 0.4885909 0.3862669 0.25174046
000010 8e d7 1f 3f 88 04 39 3e ab 72 a5 3e 28 af 38 3f
       0.62438285 0.18068135 0.32314047 0.7214227
000020 49 ca ec 3e c8 71 f5 3e 7e 37 01 3f 74 24 83 3e
       0.4624808 0.4793837 0.504753 0.2561375

mu.weight f4 [8, 12]
000000 a5 b6 20 be f1 8e 5e be 49 9e 5e 3e af 73 af 3e
       -0.15694673 -0.21734215 0.21740068 0.34267947
000010 76 11 78 3e 54 65 7f be 0d 3e 8e 3e 1a 3f 8f 3d
       0.24225411 -0.24940997 0.27781716 0.069944575
000020 71 3f 7a be cc ae 95 be 2e 26 46 3e 1e 62 b6 be
       -0.24438263 -0.29234922 0.19350502 -0.35621732
000030 5e 1f 8d bd c3 08 8d 3e 7a 4a c0 be 3e a2 14 be
       -0.068907484 0.27545747 -0.3755682 -0.14515015
000040 4c 2c 9b be c6 f8 d4 3e 35 94 cb bc c7 0f a2 be
       -0.30307233 0.4159605 -0.024850944 -0.31652662
000050 69 40 ca be 3e 73 a5 3e 86 34 3a 3e c5 99 e1 bd
       -0.39502266 0.32314485 0.18184099 -0.11015657
000060 59 32 9a be 1e ee b5 3e 55 47 07 be 1b 84 03 3e
       -0.30116537 0.35533231 -0.13210805 0.12843363
000070 a5 be 86 bc a9 c3 29 bd 71 9d cc bc 6e 86 58 be
       -0.016448328 -0.04144636 -0.024977418 -0.21145031
000080 20 8e 66 bd 3e 9b 5b bd 3c 5b d0 3e 29 96 d2 3e
       -0.056287885 -0.053614847 0.40694606 0.41130188
000090 e4 41 96 be 8f 18 40 3d 64 dd 6e 3d 32 15 52 bd
       -0.29347146 0.04689842 0.058316603 -0.051289745
0000a0 e0 9c db be 52 45 a2 be a6 03 7a 3e 28 eb 4c 3e
       -0.42893124 -0.31693512 0.24415454 0.2001158
0000b0 e5 85 95 bc 64 a0 53 bc 06 fe 61 3d 5c c4 96 3e
       -0.018252322 -0.012916658 0.055173896 0.29446685
0000c0 80 21 e5 bd b4 a9 f5 bd de 92 4d 3e 64 b8 a8 be
       -0.1118803 -0.11995259 0.20075557 -0.3295318
0000d0 f7 ee 28 3e e1 fb 5f bd 77 9c 44 3d 37 b9 9e 3e
       0.16497408 -0.05468357 0.04800078 0.31000683
0000e0 cb ba b4 3e 93 b6 ce 3d ee 5c db 3e c6 f9 48 be
       0.35298762 0.10093417 0.42844337 -0.19626531
0000f0 cc 7a ba be b6 10 2d 3e 07 fe 1b be d7 fd 00 bd
       -0.36421812 0.16900906 -0.15233622 -0.03149208
000100 20 f4 be bc 23 0b c5 bd 8d dc 2a 3e e6 00 b8 3e
       -0.023309767 -0.09621265 0.16685696 0.35938185
000110 95 44 7d 3e 2c 80 87 3e 5d 8c 39 3e 0e 0a b1 3c
       0.24733193 0.26464975 0.1811995 0.02161124
000120 ce 42 64 3e 8d 7f 9b 3e cc ae 8a bd 47 f4 a9 be
       0.22291109 0.3037075 -0.06771621 -0.3319418
000130 c5 4b 91 3d 8b c8 70 3e fe e9 b0 be 9f 56 46 bd
       0.0709453 0.23514001 -0.34553522 -0.048422452
000140 ae 55 19 be ba cc a8 be 57 08 a8 bd 98 da 4d be
       -0.1497409 -0.32968694 -0.08204716 -0.20102918
000150 c1 76 c5 3e d2 5c cb bd e4 4c 52 bd 26 d0 ae bd
       0.38567165 -0.099298134 -0.05134286 -0.08535795
000160 2c 7c 45 3e ce 4a c2 bd 84 5b 88 be f9 4d 4c 3e
       0.19285649 -0.09486924 -0.2663232 0.19951619
000170 e0 71 43 be a5 b9 93 3e 61 f3 c3 bb b0 19 1a 3e
       -0.19086409 0.28852573 -0.0059799408 0.15048862

mu.bias f4 [8]
000000 23 a5 4a bd 92 a5 9e 3e b8 56 33 be 70 57 2a 3e
       -0.049473893 0.30985695 -0.1751355 0.16634917
000010 5c 97 26 3e 6a d9 85 3e 71 6a 25 3e f6 5d 24 be
       0.16268677 0.26142436 0.16153885 -0.16051468

var.weight f4 [8, 12]
000000 7f e2 cf 3d 4a 06 0c 3e c7 55 30 bc 71 25 45 3e
       0.101506226 0.13674274 -0.010762638 0.19252564
000010 08 8d 73 3e 05 b3 52 bd ee 15 21 bd 57 b7 40 be
       0.23784268 -0.051440258 -0.039327554 -0.18819939
000020 3f d7 17 3d d6 96 24 3e 8c c5 93 3d 68 de 0a be
       0.03707051 0.16073164 0.072154135 -0.13561404
000030 55 c7 51 3e b9 15 45 3e d6 02 84 3e 64 4f 7e 3e
       0.20486195 0.19246568 0.25783414 0.24834973
000040 df 60 ba 3d eb ed 99 3c 4e cd b2 3d 9e 39 26 3e
       0.09100508 0.018790206 0.08730565 0.16232917
000050 ab b3 c8 bc 53 2b 82 bd 1c bb 3d be fe 13 47 3e
       -0.024499735 -0.0635592 -0.18528408 0.1944122
000060 5a 54 58 3c 74 83 40 be b3 63 0a bd b7 3a 9f bd
       0.013203705 -0.18800145 -0.033786487 -0.07774871
000070 3c 7c ca bc 36 04 ea bd ae bc fa 3d 72 59 ed bd
       -0.024717443 -0.114265844 0.12243019 -0.11589326
000080 dc 25 a9 bd bb 55 41 3e 9a d6 09 3e 19 13 00 be
       -0.08259174 0.1888036 0.1346077 -0.12507285
000090 4a 53 93 3e 2e 36 b1 3d 80 f1 c0 3d cb dc 2e 3e
       0.28774482 0.08652912 0.094210625 0.17076413
0000a0 ab 7b 39 be b7 27 25 be d4 13 49 bd 10 23 35 3d
       -0.18113582 -0.16128431 -0.049091175 0.04422289
0000b0 e3 b5 29 3d 28 dc 8b bc d9 e2 43 3e 14 06 3d 3e
       0.041433226 -0.017072752 0.19129504 0.1845935
0000c0 9b f5 8e 3b 39 0a 8f bc 7b 39 b0 bd 7a 80 17 be
       0.0043627745 -0.01746093 -0.086047135 -0.14795104
0000d0 49 f4 ed 3c 78 f5 8d bd f1 25 2f 3e fc bd 26 3e
       0.029047148 -0.06931585 0.17104317 0.16283411
0000e0 b4 86 7b bd 93 88 bf 3d f6 2d c5 bc 61 95 6f 3d
       -0.06140776 0.09352221 -0.024069767 0.05849207
0000f0 4b 24 8e bd 29 48 39 be f6 6e 88 3c 1d a7 35 3e
       -0.06940516 -0.18093933 0.016654473 0.1773953
000100 76 b4 e4 3d 87 d8 0f bd 0a 1d cf bd 8b e9 44 3e
       0.11167233 -0.035118606 -0.10112961 0.19229715
000110 67 d4 da bd 5a 2f d9 bd d2 4a 0f 3e d4 f8 1c 3e
       -0.10685044 -0.10604735 0.13993385 0.15329295
000120 d8 c9 1c be fe b6 60 be e6 44 a3 bc af 2e 35 3e
       -0.15311372 -0.21944806 -0.019930314 0.1769359
000130 7e b6 82 bd 5f d2 75 3e 0f d6 1c 3e 47 9f 3f 3d
       -0.06382464 0.24006031 0.15316032 0.046782758
000140 57 d9 46 be b0 32 60 bd a9 9a 21 3d 0a bd 0b 3e
       -0.19418846 -0.05473584 0.039454136 0.13646331
000150 85 3e 96 3d 12 04 ed bd 2b 37 56 be 44 f0 3c be
       0.073361434 -0.11573042 -0.20919482 -0.18451029
000160 ad 73 ec bd e2 df 55 be 7b 5b 07 3e e4 23 1a be
       -0.11545501 -0.20886186 0.13218491 -0.15052754
000170 c1 e5 2f be 3a 72 48 be 8a 33 1b bc f8 ef 8a be
       -0.17177488 -0.19574824 -0.009472737 -0.27136207

var.bias f4 [8]
000000 83 d6 b3 3c ac de 50 be 79 be d9 be e5 8a 75 be
       0.021952873 -0.20397443 -0.42528132 -0.23978765
000010 1b bd c4 be 71 03 ed 3d 76 37 34 be 28 d2 31 3d
       -0.38425526 0.11572922 -0.17599282 0.04341331

out.weight f4 [70, 12]
000000 2d 8b ce bd a5 2f 4a 3e 6d 24 44 3e 12 e1 de 3d
       -0.100851394 0.19744737 0.1915452 0.108827725
000010 29 74 3b be 8e 11 b3 3d ea 30 83 3e ea 35 e4 bd
       -0.1830603 0.08743583 0.25623256 -0.11143096
000020 80 c0 58 be 0f 13 1a 3b eb d8 78 3d db d2 b6 bd
       -0.21167183 0.0023509895 0.060753744 -0.08926936
000030 0a 94 18 3e 77 a9 e7 bd 20 ce 93 3e 04 c8 5f 3d
       0.14900222 -0.1131162 0.28868198 0.05463411
000040 2e de 23 be ce 14 e3 bd 46 9d 88 3e c5 5a 1e 3d
       -0.16002724 -0.110879526 0.2668249 0.038660783
000050 86 a3 57 bd 45 38 5a be 4f cb 77 bd 09 cb 64 3c
       -0.052646182 -0.21310528 -0.060496625 0.013964423
000060 ba a8 52 3e c9 a2 ac bd d8 89 69 3d c4 10 df bb
       0.20572177 -0.08429486 0.057016224 -0.0068074185
000070 3a 34 e7 bd 0a 5a 43 be f2 84 ae 3d 92 89 a2 3e
       -0.11289258 -0.19077316 0.08521451 0.31745583
000080 5e c6 45 be 28 77 7b be ec 8d 62 bc 1f a5 05 be
       -0.19313952 -0.24557173 -0.013827782 -0.1305127
000090 0e c6 eb 3d 12 42 34 3e d1 71 65 be aa b1 ab 3e
       0.11512385 0.17603329 -0.22406699 0.33533984
0000a0 21 e6 13 bc 06 5d 29 3e 0b ef 5d be 70 7b f2 3c
       -0.009027035 0.16539392 -0.21673219 0.029599875
0000b0 b5 f3 2c be 3e c8 8b 3e d0 99 b3 be d6 15 0f bd
       -0.16889842 0.2730121 -0.35078287 -0.034932934
0000c0 f3 79 04 be 2b 9d 56 be 7a 51 74 be fc 4a 67 bd
       -0.12937145 -0.20958392 -0.23859206 -0.056467995
0000d0 e7 d2 3a be 79 82 e2 3c 51 cb 49 3e 90 11 82 3d
       -0.18244515 0.027650105 0.19706465 0.06351006
0000e0 35 72 97 be a2 7d b3 be 13 83 c1 bd 0d 22 99 3e
       -0.2957932 -0.35056788 -0.094488285 0.2990879
0000f0 e4 3a 3a be 40 93 9c 3d f1 5e f6 bd 10 1e 76 3e
       -0.18186527 0.07645273 -0.120298274 0.24034905
000100 aa ff 37 3d c6 cb fa 3d 61 05 8e 3c d0 d7 51 bd
       0.044921555 0.12245898 0.01733655 -0.051231205
000110 eb 32 7f 3b dd 0d 19 be c9 eb 53 be ff 6c 89 be
       0.0038940262 -0.14946695 -0.20695414 -0.2684097
000120 ec 04 44 be d8 56 47 bd 8b be 0f be 12 f0 3b 3e
       -0.19142503 -0.048666805 -0.1403753 0.18353298
000130 d9 71 58 be 75 81 22 3e a2 e2 1a 3e 7b 86 ef 3d
       -0.2113718 0.15869696 0.15125516 0.11695572
000140 42 32 cf bd cc c1 94 3d b8 3b ec bd 0c 3f d5 bd
       -0.10117008 0.07263526 -0.11534828 -0.10412416
000150 d5 a3 eb bd 24 60 0c 3d 6c 9c 3e be e5 4c 39 3e
       -0.11505858 0.034271374 -0.18614358 0.18095739
000160 39 c9 14 3e 5a 04 80 bd f9 27 8b 3d 10 b5 16 be
       0.14529885 -0.0625083 0.067947336 -0.14717507
000170 4e 99 49 bc 90 3f ab bd 38 8d ad bd 3d 21 6d be
       -0.012304617 -0.08361733 -0.08474201 -0.2315721
000180 07 4f f0 bd e3 dc 1e be e1 19 af bc 50 59 4b 3d
       -0.11733823 -0.15513949 -0.021374645 0.049645722
000190 ae b2 94 bd 94 b2 40 be dc 55 97 bd 25 7c b5 3c
       -0.07260643 -0.18818122 -0.07389423 0.022153923
0001a0 47 8d 00 3e 45 97 60 be 07 ed 9a bd 64 f2 96 3d
       0.12553893 -0.21932705 -0.07564741 0.07370451
0001b0 fd 85 88 be d1 39 41 be ca 84 1c 3e 76 9a 71 3e
       -0.26664725 -0.18869711 0.1528503 0.23594078
0001c0 25 e1 52 bd 98 78 48 be 32 43 f4 bc f2 e5 ea 3d
       -0.051484246 -0.19577253 -0.029817197 0.1146964
0001d0 41 6f 90 be 3b 51 08 be b7 90 d6 bd bf e4 72 3e
       -0.2820988 -0.13312237 -0.10476821 0.23720072
0001e0 57 55 98 3e 4d 6e 07 bd d5 ef 82 bd 4f c8 27 be
       0.2975261 -0.033064175 -0.063934006 -0.16385005
0001f0 dc f2 9a bd b8 5a 02 3c a1 6a a4 bc ec a4 6d be
       -0.07565853 0.007956199 -0.020070376 -0.23207444
000200 a2 37 5f 3d bb f6 63 be d0 d8 77 3e 3f ea 3d be
       0.054496415 -0.22262089 0.24203801 -0.18546389
000210 73 3c 9c 3d 51 05 a8 3d 86 ad 21 3e b6 0b f0 bc
       0.07628717 0.08204139 0.1578885 -0.02930246
000220 30 39 52 be 98 25 1b be 3c 2f 77 3d b0 0e 4e be
       -0.20529628 -0.1515106 0.06034778 -0.2012279
000230 09 73 57 be 6f 21 5f 3e ef 18 5e 3e ec 96 17 be
       -0.21039976 0.21790098 0.21689199 -0.14803666
000240 b2 f6 82 3d b5 dd f7 bd 26 22 11 bd 90 8e 5e bd
       0.0639471 -0.12102834 -0.035432957 -0.054335177
000250 76 a6 c1 3d 67 24 47 3d ca 8c 7f be 31 eb 7d 3d
       0.09455578 0.0486187 -0.2495605 0.061991874
000260 b5 0e de 3d 71 a9 89 3c 5e 90 00 3e 05 90 99 bc
       0.10842649 0.016804429 0.12555072 -0.018745432
000270 bd f5 0d 3d 47 5c 0a be 1e c9 9f 3c ab 06 11 3d
       0.034658182 -0.13511764 0.01950508 0.03540675
000280 39 f0 24 3e ea 95 c0 3b 81 a9 66 be d9 e5 17 3c
       0.16107263 0.005877246 -0.22525598 0.009271109
000290 5d f0 21 3e 69 a9 14 3d 90 54 59 3e af 77 2d 3c
       0.15814348 0.036294375 0.21223664 0.010587617
0002a0 96 b7 2d be d9 66 65 3e e0 9c d1 bd 1c 57 ad 3d
       -0.16964564 0.22402515 -0.10235 0.084638804
0002b0 81 8b 5c bd 05 d1 e8 3d 3f fa 47 bd e9 17 0d 3e
       -0.05384398 0.11367992 -0.048822638 0.13778652
0002c0 61 ad 19 3e 19 8b 55 be 5b 1e 30 be 44 f6 08 bc
       0.15007545 -0.20853843 -0.1719908 -0.008359496
0002d0 d6 65 3f bd e4 bd 48 3e 47 af 66 be 30 85 41 3e
       -0.046727978 0.19603688 -0.225278 0.18898463
0002e0 21 cf bf 3d c3 78 92 bd 80 cd cd 3d 2f ad 0d be
       0.093656786 -0.0715194 0.10048962 -0.13835596
0002f0 6e c6 b9 bd 35 0f ec 3d 97 85 c0 3c d8 f0 45 3e
       -0.090710506 0.11526338 0.0235012 0.19330156
000300 7c d8 66 be 54 2f 15 be ce b6 3d bb 9b c7 85 be
       -0.2254352 -0.14568835 -0.0028948071 -0.2612885
000310 4f 51 a0 bb 18 dc 95 3c b6 ca da 3d c9 15 25 3d
       -0.0048925052 0.018293425 0.10683195 0.04030398
000320 73 a0 40 3d 94 44 07 be 1c 3d 35 be 5f 2c 0b bd
       0.047028016 -0.13209754 -0.17699093 -0.033977862
000330 54 01 7c be e0 29 06 3e 6e 8f 5b 3d 6c ea 2c 3e
       -0.24609882 0.13101912 0.053603582 0.168863
000340 f5 b1 30 3d e6 a3 0d 3e c3 04 4f bd df d8 60 3d
       0.043138463 0.13832054 -0.05054165 0.054894324
000350 ca 2f 0e 3d 38 a9 be bd de 33 32 3e a0 2a fa 3d
       0.034713544 -0.0930962 0.17402598 0.12215161
000360 73 f4 1f be 73 f2 7f 3d 55 4d a5 bd e2 e6 0d be
       -0.15620594 0.062487077 -0.080713905 -0.13857606
000370 4a 9a b0 3d 63 3a 7c bd bd 48 30 bd 3d 26 18 be
       0.08623178 -0.06157912 -0.04303812 -0.14858337
000380 2c 7c ee 3c 58 9c 7e 3d 73 11 f6 3d f1 67 30 be
       0.029111944 0.06216082 0.12015047 -0.1722715
000390 c0 12 78 39 0b 78 f7 bd 9f f4 12 be 8d 1c e8 3c
       0.00023658108 -0.12083443 -0.14351128 0.028333927
0003a0 77 52 0b 3e b9 5f 15 be fc 8a d6 3b 27 1f 94 bd
       0.13605677 -0.14587297 0.00654733 -0.07232504
0003b0 8b 0e 0b bd 17 78 24 3c a2 10 7b bc 2d 40 84 bd
       -0.033949416 0.010038397 -0.01532379 -0.06457553
0003c0 68 96 95 be 65 bb 6a 3e d9 1b 6a bd 09 19 d1 3d
       -0.29216313 0.22923048 -0.057155464 0.10209853
0003d0 08 f9 49 be 20 24 7a 3e 29 5d 9c 3d f3 15 07 3e
       -0.19723904 0.24427843 0.076349564 0.13191967
0003e0 cf 3a 8a bd c4 7e 99 bd 86 a1 7a 3e 3a 67 5b 3e
       -0.06749498 -0.07494882 0.24475679 0.21426097
0003f0 fb 5a 49 be a7 c8 23 3e a2 94 50 bc f1 75 f9 3c
       -0.19663613 0.15994512 -0.012730749 0.030451747

out.bias f4 [70]
000000 6a 61 40 be 5c d5 14 be 40 e6 4a 3d ea 0c a7 bd
       -0.1878716 -0.14534515 0.04953599 -0.0815676
000010 d3 4f 23 be a0 f5 46 be 96 0e 8d 3c a9 4d 1a 3d
       -0.1594842 -0.19429636 0.01721887 0.03767172
000020 e6 03 c6 bc 91 de 4d 3b b3 b2 0c 3c 2d 83 97 bd
       -0.02417178 0.0031413177 0.008587527 -0.07398067
000030 e2 4f 36 3e 6e 8b 86 3e 77 93 2c be 0c 6f 24 be
       0.1780391 0.2627825 -0.16853128 -0.16057986
000040 c1 22 26 be b8 cc 3d be c0 7d 9b bd 8c 02 13 be
       -0.16224195 -0.18535125 -0.07592344 -0.1435644
000050 42 7b 5a 3e 51 09 3e 3e 6f b1 2c be 38 50 a4 bd
       0.21336082 0.18558241 -0.1686456 -0.08023113
000060 9d d0 ce 3c 6e 4f a0 bd 09 aa 6f bd f4 b0 31 3d
       0.025245959 -0.0782765 -0.058511768 0.043381646
000070 e4 30 90 3d 72 64 27 3e 2e de 46 be b1 17 29 be
       0.07040575 0.1634691 -0.19420692 -0.16512944
000080 1e c9 16 be 32 d2 6b bd 8a 8f 02 be 2c 7b 78 3c
       -0.14725158 -0.057573505 -0.12750068 0.015166085
000090 1f 5f 8b bd 08 37 1a be 51 1b 1c 3e d2 96 01 3e
       -0.06805252 -0.15060055 0.15244795 0.1265519
0000a0 95 08 a2 3d bc 86 02 3e b5 20 c1 bd 9a a4 cb bd
       0.07911793 0.1274671 -0.094300665 -0.09943505
0000b0 21 22 1a 3c 55 3c b3 3d fd 95 20 3e 40 fa 7c 3e
       0.009407551 0.08751742 0.15682216 0.24704838
0000c0 8a b4 a3 3d 42 40 a8 bd 58 26 a1 3d 4c 49 c7 3c
       0.079934195 -0.08215381 0.078686416 0.024326943
0000d0 f2 47 04 3d 06 e9 03 bd d8 02 c4 bd f8 bb fc 3b
       0.032295175 -0.03220465 -0.09570855 0.0077128373
0000e0 6f a7 69 3d 56 69 18 bd 64 92 4c bd 7b fd 53 bd
       0.057044443 -0.03720983 -0.049944296 -0.05175541
0000f0 bd 5f 8f ba 05 4b 0e bd ce fa df bd 74 de 2a 3d
       -0.0010938566 -0.034739513 -0.10936509 0.041716054
000100 59 16 4b bd a3 9d 5a bb ab 78 4e 3d 5a 66 28 bc
       -0.04958186 -0.003335812 0.050408047 -0.010278309
000110 93 27 de bc 62 38 18 3e
       -0.02711848 0.14865258
