tutorial/interim_data_test/models/model_30_28.pt (torch, 358785 bytes, 18 tensors)

encoderlayers.0.weight f4 [200, 170]
0.062341698 0.039314065 -0.067983724 0.114488535 -0.0611301 -0.009401178 0.09537538 -0.0028378041
0.015759155 0.048303027 0.009167019 0.07005099 -0.043705665 -0.03161723 0.030036135 0.04388644
-0.06900065 -0.06817723 -0.0026786467 0.12382713 0.1017127 -0.023211481 0.021215694 -0.008786796
0.017288752 0.014702297 0.0028915447 0.040827475 0.025852822 -0.014250882 0.1266601 -0.038873978
0.026722439 0.018535674 0.087563895 0.05417106 -0.015408701 0.06407422 0.057339195 -0.029149529
0.037006315 0.05537774 0.007964695 -0.03191427 0.006295512 -0.053584587 0.013267501 0.020228438
-0.061662152 -0.044238612 0.0659124 -0.0071613956 0.0199431 -0.006404841 -0.053668804 0.0035268276
-0.026897188 0.009265368 0.04267585 0.058854546 0.007055036 0.08486519 -0.017705068 0.015942965
0.036902186 0.03571164 0.039601807 -0.009072007 -0.057099383 -0.055065703 -0.024995219 -0.054713786
-0.038721528 -0.07781024 -0.021993903 -0.01761634 -0.00072222436 0.0474977 -0.025299584 0.013009462
0.018870749 0.0027688574 0.016644582 0.0018065296 -0.035769034 -0.041511476 0.055632994 0.08547152
-0.028401487 -0.050904587 -0.008558243 -0.013759468 -0.02899626 0.017391039 -0.060636304 -0.018207084
-0.046131447 -0.036485985 -0.026633393 0.008690917 -0.009127258 0.0333742 0.03858794 0.016948886
0.016888278 -0.01044716 0.025190258 -0.028284818 -0.08289888 -0.021773536 0.06806998 0.041059937
0.016933389 -0.04935055 -0.010989824 0.020722559 -0.019940583 0.014977018 -0.06296991 -0.044257652
-0.03085431 0.03395647 -0.013364879 0.044945262 0.033251908 0.07460954 0.063437276 0.049270295
-0.011895185 -0.004680731 -0.057391588 -0.0041532414 -0.0014326244 -0.07514592 0.016179848 -0.05187823
3.924779e-06 0.028026888 -0.013681575 0.04938542 0.082495935 -0.0844875 -0.060807794 -0.044038232
9.470273e-05 -0.055551834 0.015462512 -0.029060373 0.036151342 0.005165559 -0.0057517574 0.06670503
0.077868894 0.11665432 -0.07041338 0.019331992 0.077824906 -0.06241559 -0.04477936 -0.042607173
0.009027255 -0.05308313 -0.017681161 0.007458484 0.0125384545 0.019754246 0.055829905 0.08374998
-0.01130392 0.036094204 -0.03687042 0.02127069 -0.03939914 0.07408288 -0.043567095 0.036948644
0.022337401 0.016921408 -0.030473989 0.041597236 -0.0227391 0.020451644 -0.025466125 0.05449816
-0.11313224 0.025615737 -0.10072662 0.100492574 0.05381988 -0.043851025 -0.06268205 -0.012891187
-0.12865677 0.07536459 0.11028508 -0.044725735 -0.04252963 -0.02358805 -0.007506645 -0.03187601
-0.046189453 0.07023196 -0.05043672 -0.025398327 0.12785728 -0.009395201 -0.08295455 0.05816749
-0.097059086 -0.0095642395 -0.021928769 -0.013341348 -0.01307379 -0.03817239 -0.05270897 0.05281267
0.0046647205 -0.03732809 -0.010119119 -0.08413505 0.0133280335 0.023423817 -0.03688436 0.053276557
-0.052249778 0.052853834 -0.0114927115 0.0068640676 0.0067073377 0.048872698 -0.018230438 0.03431456
0.065801546 -0.043504287 -0.09050205 0.006082514 -0.013131667 -0.019525468 -0.013498874 0.0134717375
0.020892236 0.06509114 0.024710007 -0.011707593 0.037765592 0.006790723 -0.042985372 -0.041393775
0.0041865427 0.040054426 -0.03199863 0.015231236 -0.03611428 0.078797914 0.020998046 0.01679762
00000000: 025a 7f3d c907 213d 0d3b 8bbd f778 ea3d
00000010: 8e63 7abd 6607 1abc 2b54 c33d 74fa 39bb
00000020: 5819 813c 65d9 453d 4431 163c e576 8f3d
00000030: b604 33bd 1281 01bd 570e f63c 45c2 333d
00000040: 3650 8dbd 81a0 8bbd 3c8c 2fbb 1499 fd3d
00000050: c04e d03d 0126 bebc 89cc ad3c 7ef6 0fbc
00000060: 24a1 8d3c e7e1 703c 1280 3d3b b63a 273d
00000070: 4cc9 d33c 887c 69bc 2fb3 013e 523a 1fbd
00000080: 04e9 da3c 20d8 973c b354 b33d 79e2 5d3d
00000090: c774 7cbc 5839 833d 81dc 6a3d feca eebc
000000a0: ef93 173d c5d3 623d 5a7e 023c 8ab8 02bd
000000b0: 954a ce3b 837b 5bbd ef5f 593c 1cb6 a53c
000000c0: 7491 7cbd 8c33 35bd 15fd 863d 24aa eabb
000000d0: b65f a33c b3df d1bb d2d3 5bbd 5922 673b
000000e0: 7e57 dcbc c5cd 173c dfcc 2e3d 7711 713d
000000f0: ee2d e73b cdcd ad3d 380a 91bc d29a 823c
00000100: bf26 173d 5e46 123d 8135 223d c1a2 14bc
00000110: 0be1 69bd 938c 61bd c6c2 ccbc 901b 60bd
00000120: 779a 1ebd fa5a 9fbd 8f2c b4bc 2550 90bc
00000130: a853 3dba f38c 423d 1341 cfbc a325 553c
00000140: d496 9a3c b875 353b 385a 883c 13c9 ec3a
00000150: 8d82 12bd f007 2abd 6cdf 633d b10b af3d
00000160: 3caa e8bc 5481 50bd df37 0cbc 646f 61bc
00000170: 9189 edbc a777 8e3c c65d 78bd 0627 95bc
00000180: 54f4 3cbd 5472 15bd 462e dabc 5964 0e3c
00000190: 7f8a 15bc 63b3 083d 630e 1e3d 64d8 8a3c
000001a0: 4959 8a3c 912a 2bbc cd5b ce3c 90b5 e7bc
000001b0: e3c6 a9bd 6a5e b2bc 4668 8b3d 772e 283d
000001c0: e4b7 8a3c cd23 4abd aa0e 34bc 5bc2 a93c
000001d0: 6f5a a3bc 2b62 753c 5ef6 80bd 8347 35bd
000001e0: 2ec2 fcbc f115 0b3d 5ef8 5abc 8618 383d
000001f0: 2733 083d e3cc 983d 67eb 813d a6cf 493d
00000200: 06e4 42bc d160 99bb 7113 6bbd ea17 88bb
00000210: e6c6 bbba 1be6 99bd 9a8b 843c 447e 54bd
00000220: 98b1 8336 a598 e53c af28 60bc 5e48 4a3d
00000230: a1f3 a83d c807 adbd 9811 79bd 6f61 34bd
00000240: 249b c638 528a 63bd 7a56 7d3c 0510 eebc
00000250: 6e13 143d d943 a93b 3d79 bcbb a69c 883d
00000260: ba79 9f3d 76e8 ee3d e434 90bd 205e 9e3c
00000270: aa62 9f3d 7da7 7fbd 906a 37bd dc84 2ebd
00000280: 0de7 133c b26d 59bd 15d8 90bc 4c66 f43b
00000290: 176e 4d3c a8d3 a13c e6ad 643d 1c85 ab3d
000002a0: 1434 39bc 84d7 133d 7005 17bd df3f ae3c
000002b0: fe60 21bd c4b8 973d 6973 32bd 7657 173d
000002c0: edfc b63c c49e 8a3c 96a4 f9bc dd61 2a3d
000002d0: 5947 babc 358a a73c 569e d0bc 7639 5f3d
000002e0: e0b1 e7bd 18d8 d13c c249 cebd 0dcf cd3d
000002f0: 3c72 5c3d 229d 33bd 725f 80bd 8f35 53bc
00000300: 9abe 03be c058 9a3d 25dd e13d 5532 37bd
00000310: 8d33 2ebd ba3b c1bc 4dfa f5bb 6b90 02bd
00000320: 2731 3dbd c6d5 8f3d bc96 4ebd 2710 d0bc
00000330: 05ed 023e 54ee 19bc 13e4 a9bd 0941 6e3d
00000340: eac6 c6bd 54b3 1cbc f6a3 b3bc ab95 5abc
00000350: 7333 56bc a75a 1cbd 5ce5 57bd 1952 583d
00000360: 83da 983b 57e5 18bd a9ca 25bc ff4e acbd
00000370: d35d 5a3c 4ee3 bf3c 0e14 17bd 8538 5a3d
00000380: dd03 56bd 437d 583d ed4b 3cbc f9eb e03b
00000390: 3ac9 db3b bd2e 483d 0058 95bc 6d8d 0c3d
000003a0: f6c2 863d 8d31 32bd 2459 b9bd d34f c73b
000003b0: 3426 57bc e0f3 9fbc 622a 5dbc 90b8 5c3c
000003c0: 3226 ab3c 814e 853d a46c ca3c 34d1 3fbc
000003d0: 18b0 1a3d b784 de3b 6e11 30bd 858c 29bd
000003e0: 442f 893b 1c10 243d ff10 03bd 6f8c 793c
000003f0: 91ec 13bd cd60 a13d 1804 ac3c 2a9b 893c

encoderlayers.0.bias f4 [200]
-0.047153775 -0.07525013 0.023867927 0.06453634 -0.06541987 0.012201604 0.064671114 -0.03691825
-0.041200593 0.018506637 0.013954804 0.06406149 0.07174113 -0.039197836 0.030027898 -0.08050373
0.0014340498 -0.009154402 0.04165572 -0.057232194 0.042370114 0.021691114 -0.07773032 0.04048395
0.023237672 0.07764897 0.06837019 -0.025439698 -0.008712488 -0.042535555 0.060495008 0.08384693
-0.019901298 0.069690526 0.021705084 0.013752251 0.027959231 -0.05709362 -0.04566632 -0.0056505934
-0.056874685 -0.072863534 0.055184085 0.028512476 -0.06510575 0.061663583 0.046772256 0.025981886
-0.040160637 0.058207043 -0.07176572 -0.014476461 -0.009925131 0.027667817 -0.054607697 0.056980915
-0.042562645 0.042192437 0.0285246 0.039567128 0.01937594 -0.052503895 -0.046916228 -0.065419205
-0.03013888 0.04746689 0.043432683 0.00389286 -0.011346704 0.052033667 -0.01838243 0.059177563
-0.020936457 0.0080237305 0.07262041 0.026148573 -0.00482877 0.037875935 0.04750661 0.039850052
0.051661763 -0.031300943 -0.040617596 -0.0547093 0.039845333 0.01704 0.018249376 -0.016791347
0.041113842 0.058054745 0.06692119 -0.041514486 0.02157201 0.020025045 0.035947155 0.0636912
-0.054304257 0.05968142 0.082741484 0.015254985 0.026899943 -0.047626615 0.0006317358 0.024060475
0.0735485 -0.045165613 0.060369205 -0.01729285 -0.011039837 -0.05394008 0.006268974 -0.042567395
0.07009152 0.013708441 -0.03290351 0.07154894 0.07947739 0.0051110527 0.08137591 0.066259585
-0.05388574 -0.019568587 0.014235604 -0.049336325 0.006932933 0.024044937 -0.067899086 0.0059468467
-0.028647004 0.046603266 0.021941358 -0.024994178 0.063709006 0.05701425 -0.060806252 0.07730024
0.0020670628 -0.0339495 -0.024116052 -0.009869163 -0.0013052331 0.08414999 0.032258745 0.06206389
0.035842862 -0.01057999 0.08909335 0.04681842 -0.069371 -0.038185168 -0.028234918 0.050248932
0.0035246992 0.07912971 -0.013125239 0.035421308 -0.0039156936 -0.017492827 0.046001304 0.06920427
0.03311685 -0.004951946 0.019370476 -0.035285734 0.086086825 0.026772358 0.033462435 0.035816066
0.05710851 0.025097225 -0.037995074 -0.040821914 -0.017637752 -0.01796442 0.040424082 -0.062718995
-0.017362064 -0.063514106 0.036515262 -0.04320856 -0.04602042 -0.041168902 0.07357875 -0.05794886
0.079371266 0.071469255 -0.04970992 0.06289353 -0.062775284 -0.0452496 0.057477355 0.06797935
-0.004465742 -0.077170804 0.04048744 0.06617515 -0.008026068 -0.034158178 0.020613542 0.056391213
00000000: 5124 41bd bd1c 9abd ac86 c33c a12b 843d
00000010: dafa 85bd 3de9 473c 4a72 843d 9737 17bd
00000020: f4c1 28bd 3b9b 973c b1a2 643c ac32 833d
00000030: 03ed 923d e98d 20bd 11fd f53c 24df a4bd
00000040: baf6 bb3a 58fc 15bc 309f 2a3d 4e6c 6abd
00000050: 498c 2d3d 90b1 b13c 1331 9fbd 80d2 253d
00000060: ee5c be3c 6c06 9f3d ac05 8c3d ea66 d0bc
00000070: d3be 0ebc c339 2ebd 9dc9 773d f0b7 ab3d
00000080: 0c08 a3bc e8b9 8e3d dcce b13c 1f51 613c
00000090: c20a e53c 00db 69bd 9b0c 3bbd 9d28 b9bb
000000a0: 6ef5 68bd 7a39 95bd b508 623d ff92 e93c
000000b0: 2a56 85bd f492 7c3d 4494 3f3d f7d7 d43c
000000c0: 7b7f 24bd 826a 6e3d e8f9 92bd ae2e 6dbc
000000d0: 049d 22bc 9ea7 e23c 52ac 5fbd d264 693d
000000e0: 2b56 2ebd fad1 2c3d 6cac e93c 2411 223d
000000f0: 4bba 9e3c 530e 57bd 3b2b 40bd 81fa 85bd
00000100: d0e5 f6bc a46c 423d 78e6 313d 5a1f 7f3b
00000110: 87e7 39bc 4121 553d c096 96bc 2c64 723d
00000120: ef82 abbc f775 033c 02ba 943d 8835 d63c
00000130: a93a 9ebb cc23 1b3d 4b96 423d cf39 233d
00000140: 499b 533d 6b35 00bd a35e 26bd dc16 60bd
00000150: dc34 233d 7897 8b3c b77f 953c 028e 89bc
00000160: fd66 283d d0ca 6d3d fa0d 893d 180b 2abd
00000170: c9b7 b03c 900b a43c 533d 133d 8870 823d
00000180: 246e 5ebd 8174 743d 5e74 a93d 0bf0 793c
00000190: 455d dc3c 2014 43bd 129b 253a 791a c53c
000001a0: 99a0 963d 94ff 38bd b345 773d bca9 8dbc
000001b0: 6fe0 34bc 46f0 5cbd f76b cd3b 265b 2ebd
000001c0: 258c 8f3d 5e99 603c d5c5 06bd 4088 923d
000001d0: 0bc5 a23d 9e7a a73b 6aa8 a63d 1bb3 873d
000001e0: 4bb7 5cbd 4d4e a0bc 733c 693c e314 4abd
000001f0: a82d e33b e3f9 c43c ad0e 8bbd c4dd c23b
00000200: 1fad eabc 11e3 3e3d 5dbe b33c 97c0 ccbc
00000210: de79 823d c687 693d fa0f 79bd 974f 9e3d
00000220: 8f77 073b a20e 0bbd 078f c5bc 45b2 21bc
00000230: 5b14 abba d456 ac3d bf21 043d b536 7e3d
00000240: f7cf 123d b257 2dbc 9376 b63d acc4 3f3d
00000250: 6212 8ebd 0d68 1cbd ea4c e7bc d3d1 4d3d
00000260: a4fe 663b c20e a23d 3e0b 57bc ef15 113d
00000270: 384f 80bb 1e4d 8fbc dd6b 3c3d f8ba 8d3d
00000280: 89a5 073d ef43 a2bb d5ae 9e3c c687 10bd
00000290: 4a4e b03d b451 db3c e80f 093d deb3 123d
000002a0: 9dea 693d b298 cd3c b9a0 1bbd e134 27bd
000002b0: 0c7d 90bc 1f2a 93bc b993 253d d172 80bd
000002c0: e33a 8ebc af13 82bd 0791 153d 76fb 30bd
000002d0: e87f 3cbd b9a0 28bd 75b0 963d c95b 6dbd
000002e0: 678d a23d 795e 923d a19c 4bbd 53ce 803d
000002f0: 5490 80bd a557 39bd 606d 6b3d c238 8b3d
00000300: 5c55 92bb ba0b 9ebd 28d6 253d d686 873d
00000310: c57f 03bc 72e9 0bbd bbdd a83c 79fa 663d

encodernorms.0.weight f4 [200]
1.0853684 1.0710946 1.1191336 1.0815415 1.1002266 1.1110084 1.1286287 1.1295497
1.010053 1.0759065 1.1333153 1.0290918 1.0779178 1.0860604 1.1114895 1.0844102
1.0935737 1.0537615 1.1436437 1.0945789 1.0843087 1.1321114 1.122723 1.0781262
1.1128528 1.104121 1.1007328 1.1108664 1.1109896 1.0940922 1.1318194 1.1271597
1.137851 1.0816269 1.1034007 1.107945 1.0996608 1.0857995 1.0315758 1.1375194
1.0527421 1.1085576 1.0237963 1.0860269 1.099191 1.1279932 1.1001962 1.0700171
1.0558821 1.0982654 1.0278012 1.0956613 1.0877614 1.0675617 1.1021554 1.1259711
1.0996753 1.1015046 1.0876899 1.1035349 1.1097193 1.0103248 1.0694752 0.9823673
1.1123568 1.1034211 1.0777483 1.0022006 1.1062753 1.104613 1.0821317 1.1415151
1.0593618 1.1287625 1.1109006 1.032564 1.1088458 1.10124 1.1080823 1.1123054
1.103819 1.1313678 1.120496 1.1216432 1.0440109 1.0854346 1.0665942 1.1173261
1.1391789 1.102596 1.080934 1.0955284 1.1140672 1.1343989 1.1083596 1.1172358
1.07257 1.1282802 1.071013 1.0882555 1.1139859 1.0105283 1.1053048 1.1015593
1.1018968 1.0076916 1.1257524 1.1114874 1.0917568 1.0840018 1.0443887 1.0910101
1.1057335 1.0905981 1.1106615 1.1150908 1.1283224 1.1119572 1.113129 1.1026702
1.1158408 1.1257714 1.1068894 1.0783645 1.0973911 1.113531 0.9932179 1.0631256
1.1029413 1.1305689 1.0949613 1.0929219 1.1120225 1.1226255 1.1549737 1.0512578
1.0644147 1.0954007 1.1070678 1.1018099 1.0859712 1.1281419 1.0459164 1.1181947
1.0649102 1.0882846 1.0688766 1.1184756 1.0838264 1.1167275 1.1048353 1.092313
1.1187575 1.0857021 1.0655714 1.0300809 1.1044687 1.05416 1.0903615 1.1136345
1.1248518 1.1152765 1.1483836 1.0855434 1.0968945 1.098364 1.1287521 1.0855694
1.1426938 1.0716823 1.0922056 1.0471891 1.1115992 1.1279298 1.1044347 1.0612432
1.022767 1.0828723 1.1162165 1.0719981 1.1156899 1.1035155 1.1065615 1.1343783
1.1343201 1.0220844 1.0968486 1.1312182 1.1094526 1.1249096 1.1788542 1.1280414
1.0782301 1.132035 1.149272 1.1565808 1.1453944 1.0442045 1.0924994 1.1534413
00000000: 5aed 8a3f a119 893f c53f 8f3f f46f 8a3f
00000010: 3ad4 8c3f 8635 8e3f e876 903f 1695 903f
00000020: 6b49 813f 4eb7 893f 7a10 913f 48b9 833f
00000030: 36f9 893f 0704 8b3f 4a45 8e3f f4cd 8a3f
00000040: 39fa 8b3f a8e1 863f eb62 923f 291b 8c3f
00000050: a1ca 8a3f 07e9 903f 63b5 8f3f 0a00 8a3f
00000060: f671 8e3f d653 8d3f d0e4 8c3f df30 8e3f
00000070: e834 8e3f 370b 8c3f 75df 903f c546 903f
00000080: 1aa5 913f c072 8a3f 3c3c 8d3f 24d1 8d3f
00000090: afc1 8c3f 7afb 8a3f ad0a 843f 3c9a 913f
000000a0: 41c0 863f 37e5 8d3f c20b 833f ee02 8b3f
000000b0: 4ab2 8c3f 1562 903f 3bd3 8c3f 52f6 883f
000000c0: 2527 873f f693 8c3f fd8e 833f a13e 8c3f
000000d0: c43b 8b3f dda5 883f 6e13 8d3f d21f 903f
000000e0: 29c2 8c3f 1afe 8c3f 6c39 8b3f a240 8d3f
000000f0: 480b 8e3f 5352 813f 90e4 883f 6c7c 7b3f
00000100: b561 8e3f e73c 8d3f a8f3 893f 1c48 803f
00000110: 6e9a 8d3f f563 8d3f 4b83 8a3f 2b1d 923f
00000120: 2b99 873f 4a7b 903f fe31 8e3f 0f2b 843f
00000130: a9ee 8d3f 6ff5 8c3f a4d5 8d3f 0660 8e3f
00000140: f149 8d3f a9d0 903f 6a6c 8f3f 0192 8f3f
00000150: 26a2 853f 85ef 8a3f 2986 883f 8b04 8f3f
00000160: 9dd0 913f de21 8d3f 0c5c 8a3f 463a 8c3f
00000170: c199 8e3f fc33 913f bade 8d3f 9501 8f3f
00000180: f949 893f 7c6b 903f f416 893f f54b 8b3f
00000190: 1797 8e3f fe58 813f a17a 8d3f e5ff 8c3f
000001a0: f40a 8d3f 0afc 803f a818 903f 3845 8e3f
000001b0: b0be 8b3f 92c0 8a3f 87ae 853f 38a6 8b3f
000001c0: ad88 8d3f b898 8b3f 282a 8e3f 4cbb 8e3f
000001d0: de6c 903f 9d54 8e3f 037b 8e3f 4c24 8d3f
000001e0: dfd3 8e3f 4719 903f 8dae 8d3f d907 8a3f
000001f0: 5077 8c3f 2f88 8e3f 8743 7e3f 8014 883f
00000200: 2e2d 8d3f 7bb6 903f b127 8c3f dde4 8b3f
00000210: c156 8e3f 31b2 8f3f 2ed6 933f 9e8f 863f
00000220: be3e 883f 1736 8c3f 66b4 8d3f 1b08 8d3f
00000230: 1b01 8b3f f466 903f 97e0 853f 0121 8f3f
00000240: fa4e 883f e94c 8b3f f3d0 883f 352a 8f3f
00000250: d3ba 8a3f edf0 8e3f 3e6b 8d3f ead0 8b3f
00000260: 7233 8f3f 49f8 8a3f a564 883f b1d9 833f
00000270: 3b5f 8d3f b7ee 863f f790 8b3f 938b 8e3f
00000280: 25fb 8f3f 61c1 8e3f 3cfe 923f 16f3 8a3f
00000290: 0a67 8c3f 3197 8c3f f37a 903f f0f3 8a3f
000002a0: ca43 923f e32c 893f 65cd 8b3f 4b0a 863f
000002b0: e248 8e3f 0160 903f 1e5e 8d3f d1d6 873f
000002c0: 07ea 823f 8f9b 8a3f 2fe0 8e3f 3c37 893f
000002d0: edce 8e3f ff3f 8d3f cfa3 8d3f 4f33 913f
000002e0: 6731 913f a9d3 823f 8965 8c3f c2cb 903f
000002f0: 8b02 8e3f 0afd 8f3f b2e4 963f a963 903f
00000300: 7203 8a3f 86e6 903f 581b 933f d70a 943f
00000310: 499c 923f 7ea8 853f 05d7 8b3f f7a3 933f

encodernorms.0.bias f4 [200]
-0.36960346 -0.45941702 -0.26788908 -0.35211766 0.44288498 -0.35428494 -0.16123351 -0.093851745
-0.3452183 -0.27180383 -0.44775185 0.43968368 -0.50703055 -0.31694978 0.34169978 0.37024355
0.3075676 -0.32406244 0.24694923 -0.3950394 -0.32037106 -0.47150484 -0.40167361 0.039395794
0.36580056 0.066599324 -0.23420264 -0.5296863 -0.5056997 0.05043119 -0.4335472 -0.23029724
0.4129478 0.45396402 0.03930692 -0.05848291 -0.34625843 0.42614317 0.43865296 -0.48544875
-0.46486944 0.47979203 -0.43129492 -0.44067368 0.10935452 0.030312955 0.40089542 -0.2429409
-0.3704185 0.48428613 0.3393376 -0.11210913 0.2428788 -0.45390686 -0.46896315 0.019922256
0.02692095 -0.33063215 -0.023267359 0.3306238 0.032782465 0.3978797 -0.42137086 -0.30011696
0.23048666 0.42825165 0.023586629 -0.34366643 -0.34682322 -0.48980328 -0.45844486 0.36580926
-0.0052576344 -0.04585251 0.044442497 0.39689764 -0.40460154 0.17923506 0.07294957 -0.47430363
-0.33228865 -0.4441367 -0.04183136 -0.49398687 -0.52765757 -0.3578854 -0.4195589 0.4482639
0.3322034 -0.4442551 0.48579788 0.47543523 -0.37789962 0.1583088 -0.18739979 -0.3390383
-0.43754056 -0.30667308 0.38667935 0.33426854 -0.13614863 -0.2609009 -0.3557225 0.3763313
0.16677965 -0.56224346 -0.19384426 -0.22461043 0.53580976 0.17981438 -0.2357162 -0.07884859
0.40369564 -0.5447776 0.026891116 0.47428417 -0.30383062 0.350166 0.09161801 0.46010402
0.388267 -0.329306 -0.15528922 0.3579335 -0.36149874 0.33134022 -0.5472439 -0.43474197
0.23321661 0.17038833 -0.42459658 -0.14794268 0.29895258 0.29359 -0.3564602 -0.11621396
-0.52814996 0.5003523 -0.27706504 -0.35140374 -0.54513353 -0.2915667 0.42894912 -0.012736898
-0.40840167 0.16642153 0.38728568 -0.110547476 -0.050169084 -0.2844397 -0.04044808 -0.42743164
0.3394894 -0.44203952 -0.5445288 0.11283842 -0.09607852 0.0025691485 -0.40015534 0.48047847
0.0871965 0.38772696 0.42267546 0.20398608 -0.28946045 0.34757584 -0.44710067 0.39393598
-0.3683209 -0.3141368 0.2530414 -0.34852213 0.46704054 0.21978955 0.47997594 0.26828623
-0.46970734 0.34138513 -0.39635536 0.3045914 -0.09408861 -0.19421916 -0.2740796 -0.42418253
0.39325345 -0.27472463 0.25418273 -0.026610157 0.4150427 -0.36054635 -0.13288999 0.4094852
-0.5054409 -0.47827378 -0.055909052 0.43359134 -0.22201204 -0.4939932 0.51624596 -0.18247817
00000000: aa3c bdbe b538 ebbe c228 89be c448 b4be
00000010: d2c1 e23e d664 b5be 661a 25be 5835 c0bd
00000020: 74c0 b0be df29 8bbe bb3f e5be 381e e13e
00000030: c1cc 01bf 3e47 a2be 46f3 ae3e 9090 bd3e
00000040: 8079 9d3e 83eb a5be 42e0 7c3e 9b42 cabe
00000050: ad07 a4be 1569 f1be 2aa8 cdbe 7c5d 213d
00000060: 364a bb3e 3a65 883d d1d2 6fbe 8599 07bf
00000070: 8975 01bf ef90 4e3d e6f9 ddbe 0ad3 6bbe
00000080: e56d d33e f96d e83e 4b00 213d c78b 6fbd
00000090: c948 b1be 702f da3e 1f97 e03e bd8c f8be
000000a0: 5e03 eebe 4da7 f53e b0d2 dcbe fb9f e1be
000000b0: 43f5 df3d e052 f83c 2a42 cd3e 80c5 78be
000000c0: 7ea7 bdbe 5af4 f73e a8bd ad3e 7999 e5bd
000000d0: 38b5 783e 7b66 e8be f01b f0be 0034 a33c
000000e0: 5389 dc3c 9e48 a9be 309b bebc 8647 a93e
000000f0: e846 063d e3b6 cb3e ecbd d7be eea8 99be
00000100: b204 6c3e cd43 db3e bf38 c13c 0cf5 afbe
00000110: d092 b1be 7fc7 fabe 49b9 eabe 5a4b bb3e
00000120: 3c48 acbb d7cf 3bbd 5609 363d 2b36 cb3e
00000130: ef27 cfbe 6589 373e 9666 953d edd7 f2be
00000140: bd21 aabe e365 e3be 5c57 2bbd d9eb fcbe
00000150: 9114 07bf c13c b7be 6dd0 d6be d982 e53e
00000160: 9016 aa3e 6875 e3be 80ba f83e 3f6c f33e
00000170: 0f7c c1be b41b 223e bbe5 3fbe 6e96 adbe
00000180: 5105 e0be 4104 9dbe d6fa c53e 3f25 ab3e
00000190: 8c6a 0bbe ce94 85be 4221 b6be 7fae c03e
000001a0: 49c8 2a3e 30ef 0fbf 1c7f 46be 4700 66be
000001b0: d42a 093f 4321 383e 965f 71be 5f7b a1bd
000001c0: 32b1 ce3e 8b76 0bbf c24a dc3c 60d5 f23e
000001d0: b08f 9bbe f548 b33e 39a2 bb3d c192 eb3e
000001e0: efca c63e cc9a a8be 2304 1fbe 0f43 b73e
000001f0: 5d16 b9be 6da5 a93e 2d18 0cbf 8096 debe
00000200: 56d0 6e3e 477a 2e3e b964 d9be 497e 17be
00000210: 5010 993e 6e51 963e f481 b6be 9601 eebd
00000220: d634 07bf 1717 003f 78db 8dbe 31eb b3be
00000230: df8d 0bbf 3b48 95be 389f db3e 6cae 50bc
00000240: 061a d1be 686a 2a3e 4f4a c63e b766 e2bd
00000250: 197e 4dbd 15a2 91be e3ac 25bd 52d8 dabe
00000260: 8ed1 ad3e 0153 e2be 3d66 0bbf d417 e73d
00000270: d1c4 c4bd 295f 283b 29e1 ccbe 4601 f63e
00000280: 1494 b23d 2684 c63e eb68 d83e bae1 503e
00000290: 2934 94be 76f5 b13e 61ea e4be fab1 c93e
000002a0: 8f94 bcbe 8ad6 a0be a48e 813e 7e71 b2be
000002b0: f01f ef3e 8310 613e 68bf f53e d05c 893e
000002c0: 7b7d f0be 08ca ae3e 17ef cabe 67f3 9b3e
000002d0: 87b1 c0bd 63e1 46be 2954 8cbe 742e d9be
000002e0: 8458 c93e b5a8 8cbe 3d24 823e 8bfd d9bc
000002f0: 7a80 d43e 8899 b8be 5014 08be 0ba8 d13e
00000300: 9364 01bf 4de0 f4be e400 65bd afff dd3e
00000310: 2057 63be adec fcbe b228 043f 8fdb 3abe

encodernorms.0.running_mean f4 [200]
0.3164363 0.30369663 0.30841964 0.2830981 0.3247983 0.250471 0.30724663 0.33198258
0.010687531 0.4004937 0.30550063 4.2346073e-05 0.32389957 0.2298043 0.21522209 0.3158886
0.24518056 -0.0063901697 0.28511235 0.40544018 0.31234086 0.27401787 0.29034358 0.30446765
0.32205352 0.32343185 0.2848993 0.34235877 0.19860423 0.29882392 0.33690923 0.31668344
0.26883802 0.32013744 0.27621195 0.2929119 0.2827142 0.32791948 -0.004414072 0.27699485
0.11579374 0.28601196 0.002661826 0.3928799 0.2818804 0.33412966 0.29663375 0.30878788
0.37250254 0.33045265 -0.0016709068 0.2706738 0.2806358 0.31751645 0.33324477 0.24531817
0.29767558 0.33553615 0.30444604 0.31062502 0.2543948 -0.004837172 0.27609202 -0.0036392587
0.36701587 0.30903557 0.3011945 -0.0038885265 0.2965346 0.27471855 0.32961679 0.26185936
0.26332924 0.2692792 0.26659045 -0.0020727606 0.28456157 0.24460624 0.35031822 0.27567717
0.35930043 0.29498154 0.29567644 0.26427346 0.29158038 0.321198 0.24272633 0.2570133
0.25974542 0.33658826 0.29700014 0.27646378 0.33934724 0.23737058 0.3714558 0.30451876
0.24344741 0.3033718 0.34056 0.27946004 0.26727235 -0.0057533626 0.31225142 0.32601112
0.3544419 0.00020361197 0.3459503 0.29922873 0.38004953 0.22774504 0.27831736 0.31537783
0.30144757 0.32821995 0.29936305 0.34303197 0.35102865 0.25876153 0.22803473 0.27956963
0.23918407 0.322219 0.37148517 0.34395075 0.28352985 0.2666248 -0.003687887 0.30572006
0.31416538 0.28181946 0.3445405 0.29422766 0.31370157 0.250631 0.33005378 0.37937304
0.26178548 0.4140396 0.26719174 0.34218168 0.31875414 0.30737373 -0.0021746275 0.3184088
0.24983346 0.21784806 0.31612602 0.3508985 0.27116114 0.2787625 0.3306104 0.3337884
0.24678534 0.30060968 0.2599373 -0.0047734394 0.37798694 0.24925454 0.31559 0.25496444
0.25392702 0.2392899 0.2791341 0.3390367 0.30393744 0.27450538 0.25590733 0.332017
0.23224705 0.35072413 0.33123925 0.25347587 0.28733948 0.33580926 0.22493824 0.0013717198
-0.0026370224 0.26039222 0.23974627 0.2991758 0.28854695 0.31784248 0.32722422 0.329648
0.2507235 -0.0057833935 0.32520533 0.27538723 0.36762547 0.30843762 0.23504913 0.3392618
0.36403972 0.3114524 0.25587118 0.30597034 0.26798847 0.00034817698 0.33904007 0.20697403
00000000: f003 a23e 207e 9b3e 2ee9 9d3e 3cf2 903e
00000010: f64b a63e bc3d 803e 6e4f 9d3e 9ff9 a93e
00000020: c11a 2f3c 830d cd3e 946a 9c3e c09c 3138
00000030: 2ad6 a53e d251 6b3e 2e63 5c3e 27bc a13e
00000040: 9d10 7b3e a164 d1bb 3ffa 913e db95 cf3e
00000050: 24eb 9f3e 124c 8c3e eaa7 943e 2fe3 9b3e
00000060: 33e4 a43e dc98 a53e 52de 913e a649 af3e
00000070: e85e 4b3e 73ff 983e 5e7f ac3e 5524 a23e
00000080: 23a5 893e 0ee9 a33e a76b 8d3e 8cf8 953e
00000090: eabf 903e 10e5 a73e eba3 90bb 45d2 8d3e
000000a0: 4525 ed3d 2970 923e 0872 2e3b 8e27 c93e
000000b0: a152 903e 0b13 ab3e 61e0 973e 7219 9e3e
000000c0: a7b8 be3e 1731 a93e 5402 dbba c295 8a3e
000000d0: 7faf 8f3e 8491 a23e 0f9f aa3e b034 7b3e
000000e0: ef68 983e 65cb ab3e 5ae0 9b3e 3e0a 9f3e
000000f0: 0940 823e 2481 9ebb ef5b 8d3e a180 6ebb
00000100: 81e9 bb3e e939 9e3e 2a36 9a3e a6d6 7ebb
00000110: 62d3 973e e9a7 8c3e 88c3 a83e 6e12 863e
00000120: 17d3 863e f7de 893e 8b7e 883e 27d7 07bb
00000130: 0eb2 913e 0f7a 7a3e e95c b33e 8f25 8d3e
00000140: 3af6 b73e d207 973e e762 973e da4e 873e
00000150: 064a 953e 1074 a43e 408d 783e 3f97 833e
00000160: 5afd 843e 4c55 ac3e 6710 983e a98c 8d3e
00000170: ecbe ad3e 4611 733e 742f be3e e2e9 9b3e
00000180: 474a 793e 8c53 9b3e e15d ae3e 6315 8f3e
00000190: ecd7 883e b486 bcbb 6bdf 9f3e eeea a63e
000001a0: 6979 b53e ac80 5539 6620 b13e 8234 993e
000001b0: da95 c23e ff35 693e 9d7f 8e3e 3479 a13e
000001c0: 5657 9a3e 720c a83e 1d46 993e e3a1 af3e
000001d0: 07ba b33e 647c 843e f081 693e c023 8f3e
000001e0: abec 743e e4f9 a43e 4e33 be3e 501a b03e
000001f0: d32a 913e 0c83 883e 7ab0 71bb 5787 9c3e
00000200: 49da a03e a44a 903e 9d67 b03e 02a5 963e
00000210: 7e9d a03e b552 803e cffc a83e 2f3d c23e
00000220: bf08 863e 00fd d33e 5bcd 883e 7032 af3e
00000230: be33 a33e 1760 9d3e 3284 0ebb 7a06 a33e
00000240: 58d4 7f3e 9013 5f3e 45db a13e f8a8 b33e
00000250: a2d5 8a3e f5b9 8e3e c445 a93e 50e6 aa3e
00000260: 4cb5 7c3e 83e9 993e 8016 853e 836a 9cbb
00000270: 8187 c13e 953c 7f3e 0395 a13e b38a 823e
00000280: b902 823e 6908 753e aaea 8e3e 3896 ad3e
00000290: b09d 9b3e f88b 8c3e 4906 833e 22fe a93e
000002a0: 2cd2 6d3e 1d92 b33e 3198 a93e 97c7 813e
000002b0: 291e 933e 31ef ab3e 3656 663e 47cb b33a
000002c0: e5d1 2cbb 2152 853e 0c80 753e 922d 993e
000002d0: 6dbc 933e 40bc a23e ef89 a73e 9fc7 a83e
000002e0: d55e 803e 9f82 bdbb 5081 a63e 8eff 8c3e
000002f0: 6839 bc3e 89eb 9d3e b8b0 703e b9b3 ad3e
00000300: 6a63 ba3e b076 9f3e 8c01 833e 25a8 9c3e
00000310: c935 893e 868b b639 a996 ad3e 00f1 533e

encodernorms.0.running_var f4 [200]
0.111420065 0.14522333 0.1328128 0.10332568 0.11748206 0.08997907 0.12833618 0.13086875
0.0050072563 0.16728304 0.10669581 0.00322368 0.12284552 0.08261115 0.081776075 0.13290206
0.079794586 0.0001512417 0.12457031 0.15703352 0.124513544 0.10918169 0.11581107 0.11901389
0.13362838 0.11192012 0.12625368 0.12935416 0.07603382 0.11615081 0.13408783 0.13379766
0.09611489 0.10202833 0.10376596 0.11805464 0.0933941 0.115269884 0.0008633808 0.10554565
0.046626423 0.118423544 0.0027640446 0.15209664 0.108719364 0.12951177 0.12141917 0.12284682
0.16878553 0.11630741 0.00068417547 0.09318583 0.10627634 0.13048136 0.13850804 0.100845754
0.11525587 0.13395432 0.13455895 0.116133764 0.09629261 0.00029116042 0.10070219 0.0007389932
0.14407738 0.10745113 0.122399956 0.00162442 0.11274033 0.1177701 0.12432047 0.11730733
0.10738632 0.096264765 0.10702231 0.00063836074 0.105958566 0.083749816 0.12362085 0.11963959
0.14791957 0.10429245 0.10594037 0.09587317 0.12153618 0.10672017 0.09365442 0.09135327
0.10313877 0.124324396 0.11292458 0.102907814 0.13919424 0.07761135 0.16833815 0.10229158
0.09644886 0.11166526 0.12716046 0.097851105 0.10553988 0.00034795384 0.1211811 0.12285015
0.13244003 0.0017830512 0.1266828 0.117365815 0.14247717 0.08458588 0.09850204 0.12331659
0.10896873 0.108883664 0.12876722 0.13042282 0.14319599 0.092054226 0.090457365 0.096702285
0.10082487 0.12746124 0.1555787 0.12506019 0.110445194 0.10780957 0.0008837107 0.12379759
0.11111909 0.10012366 0.14378497 0.12126068 0.14671175 0.1028791 0.11114463 0.15319146
0.10583117 0.1794835 0.10940677 0.14215216 0.14008532 0.10590801 0.0011549087 0.11267313
0.10007229 0.08943683 0.12190351 0.14555378 0.09889003 0.1012509 0.12121586 0.14669771
0.081981555 0.11191746 0.09523627 0.0008336226 0.14599502 0.106613904 0.11688612 0.09076705
0.086403206 0.09833078 0.10084909 0.13406195 0.09944453 0.11344556 0.095508575 0.13619019
0.093516916 0.13703844 0.104531564 0.09088188 0.10577404 0.13066523 0.07743185 0.0022199354
0.0015845888 0.116676785 0.08535065 0.11613427 0.12263749 0.13172168 0.13097592 0.12420277
0.09118377 0.00041581495 0.13259068 0.11397288 0.12644696 0.101704724 0.07409211 0.13531253
0.17807175 0.11805867 0.09722999 0.12970476 0.089281164 0.0013816322 0.13221985 0.080714986
00000000: 3430 e43d 6db5 143e 1400 083e 6a9c d33d
00000010: 6f9a f03d f246 b83d 8f6a 033e 7502 063e
00000020: e913 a43b 3f4c 2b3e 5583 da3d 6044 533b
00000030: 6f96 fb3d 0930 a93d 377a a73d 7a17 083e
00000040: 586b a33d a296 1e39 b81e ff3d 65cd 203e
00000050: f500 ff3d a69a df3d 5b2e ed3d 8ebd f33d
00000060: e1d5 083e 6036 e53d a548 013e 6b75 043e
00000070: 9fb7 9b3d 7ae0 ed3d 524e 093e 4102 093e
00000080: e2d7 c43d 3bf4 d03d 3f83 d43d a2c6 f13d
00000090: 6845 bf3d 9e12 ec3d 8154 623a 5128 d83d
000000a0: 59fb 3e3d 0b88 f23d f924 353b 39bf 1b3e
000000b0: 42a8 de3d bc9e 043e 9daa f83d 1d97 fb3d
000000c0: 1dd6 2c3e 9432 ee3d 3d5a 333a 36d8 be3d
000000d0: 69a7 d93d e89c 053e 0dd5 0d3e 3888 ce3d
000000e0: 450b ec3d 522b 093e d2c9 093e 8ad7 ed3d
000000f0: 0f35 c53d e4a6 9839 f33c ce3d ffb8 413a
00000100: 0589 133e 570f dc3d d4ac fa3d 7eea d43a
00000110: 67e4 e63d 7331 f13d bb9b fe3d d33e f03d
00000120: 5ced db3d 7626 c53d 832e db3d aa57 273a
00000130: ce00 d93d 0685 ab3d ee2c fd3d 9a05 f53d
00000140: 3a78 173e 4897 d53d 44f7 d83d 2759 c43d
00000150: f6e7 f83d 1b90 da3d e3cd bf3d 6c17 bb3d
00000160: 6b3a d33d ca9d fe3d 0145 e73d 55c1 d23d
00000170: ef88 0e3e b3f2 9e3d d660 2c3e 3f7e d13d
00000180: fb86 c53d c1b0 e43d 5a36 023e 2966 c83d
00000190: 4b25 d83d 936d b639 cc2d f83d dc98 fb3d
000001a0: 5c9e 073e 45b5 e93a 23b9 013e 7d5d f03d
000001b0: 89e5 113e 5d3b ad3d 70bb c93d 698d fc3d
000001c0: ff2a df3d 66fe de3d 8edb 033e 8f8d 053e
000001d0: f8a1 123e ed86 bc3d b641 b93d d90b c63d
000001e0: 457d ce3d 3385 023e 0650 1f3e c70f 003e
000001f0: 1731 e23d 44cb dc3d d2a8 673a 9789 fd3d
00000200: 6892 e33d a20d cd3d 5e3c 133e 8557 f83d
00000210: 9b3b 163e 47b2 d23d cc9f e33d 39de 1c3e
00000220: 03be d83d 86ca 373e a810 e03d 5690 113e
00000230: 8772 0f3e 4ce6 d83d 4e60 973a 2cc1 e63d
00000240: b3f2 cc3d a82a b73d 8ca8 f93d 0d0c 153e
00000250: db86 ca3d a25c cf3d 0540 f83d ed37 163e
00000260: f2e5 a73d fb34 e53d 3c0b c33d 7787 5a3a
00000270: b87f 153e 6458 da3d fd61 ef3d 13e4 b93d
00000280: 2af4 b03d a661 c93d f889 ce3d 8947 093e
00000290: 93a9 cb3d 2556 e83d 009a c33d 7175 0b3e
000002a0: cc85 bf3d ce53 0c3e a514 d63d 4720 ba3d
000002b0: 0fa0 d83d 1bcd 053e 9794 9e3d 567c 113b
000002c0: fab1 cf3a 3df4 ee3d 52cc ae3d ced7 ed3d
000002d0: 5d29 fb3d 0ce2 063e 8d1e 063e 065e fe3d
000002e0: 8ebe ba3d bd01 da39 dac5 073e 9d6a e93d
000002f0: 507b 013e 914a d03d 9bbd 973d 5e8f 0a3e
00000300: 7158 363e bec8 f13d 8420 c73d 53d1 043e
00000310: 0bd9 b63d e217 b53a a464 073e e64d a53d

decoderlayers.0.weight f4 [200, 30]
0.020007642 -0.18648274 -0.017746162 0.06722455 -0.03593727 0.079565294 0.04816602 -0.10177022
-0.01971251 -0.031338334 -0.010110144 -0.15111147 0.10561654 -0.114247754 0.033955973 -0.10490519
0.02799035 -0.119682565 0.095278636 -0.010394757 0.15308447 0.027806362 0.018098898 -0.19570558
-0.0405455 0.15215637 0.2217277 0.04726191 -0.0033201762 -0.008746151 0.1650977 0.13927908
-0.0061075957 -0.017762009 -0.13277774 -0.011326692 -0.015819218 -0.08175221 -0.032172624 0.034081448
-0.16349405 0.056690287 0.12610862 0.055326954 -0.13458125 -0.15936522 0.016047945 -0.039415773
-0.096857995 -0.0148557415 -0.06371285 0.12776154 0.026813293 -0.10664498 -0.1413972 -0.0018981944
0.04327596 0.1056874 -0.09405953 -0.040027287 0.13836785 0.064291626 0.018964445 -0.06419793
-0.08262619 -0.005437432 -0.1560547 0.14106801 0.015705984 -0.14908265 0.10477855 -0.15195088
-0.0023156956 0.1898701 0.17899108 -0.08655728 0.14207995 0.058785096 0.07361567 -0.09771506
-0.009234006 -0.14832744 -0.06354783 0.15772961 0.11233015 0.15442671 -0.029085647 0.071142726
0.18342261 -0.15104473 -0.18863945 0.002106426 0.012474917 -0.1595845 0.0673643 -0.07700635
-0.11858564 -0.06843716 0.0073368168 -0.03006283 -0.17062467 0.05497222 -0.05687845 -0.15892932
-0.035387 -0.14471899 -0.022976596 0.021321528 0.07035895 -0.0003059184 0.046131853 0.14370804
0.1264703 -0.08657196 0.09413533 -0.044063855 0.1428584 0.12365285 0.07686417 0.077914186
0.119422935 0.102254145 0.17036697 0.06649531 -0.12130527 0.07749658 0.002244255 -0.015741263
-0.07551507 0.15605132 0.03640941 0.13471523 0.1278032 0.015452813 0.17459065 -0.09815448
0.13052191 0.13409606 -0.0028240085 -0.12982617 -0.17262292 -0.1049317 0.042677328 -0.10984332
-0.090458184 -0.14833601 0.100840926 -0.12381402 -0.19629325 -0.12272242 -0.0325528 -0.03111433
0.07367839 -0.00037817098 -0.1094995 0.1221938 -0.02851304 -0.15070869 0.03225498 -0.08486305
-0.18204738 -0.03625479 0.19609298 0.1822523 -0.073301785 -0.016475495 -0.13105857 0.10263796
-0.13199882 0.02898818 0.026101835 0.10176381 0.060206305 -0.12643917 -0.057744674 0.006019809
0.041707356 -0.19828852 0.0039206767 -0.15966699 -0.021082988 0.07657813 0.0639943 -0.008550492
0.050130334 0.09713291 -0.032778665 -0.18053792 0.018297508 0.049583413 0.042786606 -0.114070304
-0.13228583 0.1770002 -0.05688674 -0.059319578 -0.00023894841 -0.04293601 0.042428594 -0.062492646
0.13620678 -0.15803292 -0.09478588 -0.13749915 -0.20234916 0.042852227 -0.15939179 -0.02550872
0.10105606 -0.13249528 -0.10203183 -0.1865496 -0.1374185 0.045141477 0.023429925 0.02845349
-0.13654904 0.012960788 -0.14496362 0.10526844 -0.13393585 -0.010117226 0.13866235 0.12605031
0.028138964 0.21023196 -0.10627339 0.12491844 -0.07333748 0.04757835 -0.112538524 0.010495626
0.031282622 -0.019966694 -0.096467845 0.018516652 0.066744834 -0.095760815 -0.02738228 0.08022408
0.14326559 -0.0075352043 0.010723205 0.021575715 -0.035103254 -0.1700579 0.13574658 0.16152224
-0.09564626 -0.063673735 0.15689912 0.054118786 0.038370807 -0.15571627 -0.10584075 0.06730675
00000000: 11e7 a33c 55f5 3ebe 6660 91bc 06ad 893d
00000010: f532 13bd 21f3 a23d bc49 453d e86c d0bd
00000020: 217c a1bc a05c 00bd 04a5 25bc f7bc 1abe
00000030: 7c4d d83d bafa e9bd 6b15 0b3d 88d8 d6bd
00000040: 054c e53c 221c f5bd 7221 c33d c54e 2abc
00000050: 2dc2 1c3e 2bca e33c 2444 943c 0b67 48be
00000060: 0a13 26bd e1ce 1b3e 960c 633e b495 413d
00000070: 5097 59bb 044c 0fbc 5f0f 293e 2d9f 0e3e
00000080: 3a22 c8bb a281 91bc e3f6 07be 9793 39bc
00000090: 4e97 81bc b46d a7bd 71c7 03bd fd98 0b3d
000000a0: fc6a 27be 1334 683d 9e22 013e 849e 623d
000000b0: abcf 09be a330 23be fb76 833c 6f72 21bd
000000c0: 7c5d c6bd 7f65 73bc e27b 82bd ecd3 023e
000000d0: 8da7 db3c af68 dabd 6dca 10be d6cc f8ba
000000e0: 2242 313d a372 d83d 48a2 c0bd a7f3 23bd
000000f0: 4db0 0d3e 54ab 833d 535b 9b3c 347a 83bd
00000100: eb37 a9bd 7c2c b2bb cecc 1fbe 2274 103e
00000110: d6a9 803c 1fa9 18be 2396 d63d 0399 1bbe
00000120: edc2 17bb 4f6d 423e 7049 373e f144 b1bd
00000130: 687d 113e a4c8 703d d0c3 963d d51e c8bd
00000140: 3a4a 17bc 26e3 17be 5d25 82bd df83 213e
00000150: 5a0d e63d 0922 1e3e 0645 eebc 47b3 913d
00000160: 23d3 3b3e 78ab 1abe b32a 41be f70b 0a3b
00000170: 9863 4c3c 1f6a 23be 4bf6 893d 81b5 9dbd
00000180: 07dd f2bd c828 8cbd ae69 f03b 5346 f6bc
00000190: 3cb8 2ebe 8d2a 613d 61f9 68bd 5ebe 22be
000001a0: f5f1 10bd 3731 14be 6a39 bcbc 7caa ae3c
000001b0: 5a18 903d ac63 a0b9 c1f4 3c3d 3328 133e
000001c0: 6e81 013e a44c b1bd 06ca c03d 4d7c 34bd
000001d0: 7949 123e b53d fd3d f66a 9d3d 7991 9f3d
000001e0: 0394 f43d 9f6a d13d ae74 2e3e b12e 883d
000001f0: e66e f8bd 87b6 9e3d 5a14 133b d2f3 80bc
00000200: a5a7 9abd ebcb 1f3e 0922 153d caf2 093e
00000210: d8de 023e cc2d 7d3c e4c7 323e 3705 c9bd
00000220: 89a7 053e 7a50 093e 0013 39bb 27f1 04be
00000230: 10c4 30be 6ee6 d6bd 6cce 2e3d 89f5 e0bd
00000240: 2442 b9bd 65e5 17be b085 ce3d 3492 fdbd
00000250: 1901 49be e455 fbbd 1656 05bd 7be3 febc
00000260: b2e4 963d 4045 c6b9 4641 e0bd be40 fa3d
00000270: 2e94 e9bc 6153 1abe cc1d 043d aecc adbd
00000280: a16a 3abe e77f 14bd 99cc 483e 59a0 3a3e
00000290: 3f1f 96bd 9ef7 86bc 3834 06be da33 d23d
000002a0: b32a 07be 9f78 ed3c 84d3 d53c 8b69 d03d
000002b0: e39a 763d 4579 01be ae85 6cbd d141 c53b
000002c0: 55d5 2a3d 250c 4bbe 0579 803b be7f 23be
000002d0: 3bb6 acbc ffd4 9c3d 720f 833d 5d17 0cbc
000002e0: 7755 4d3d 9eed c63d ec42 06bd efde 38be
000002f0: a8e4 953c fa17 4b3d 0241 2f3d b19d e9bd
00000300: f075 07be 8a3f 353e 1202 69bd 16f9 72bd
00000310: 3a8e 7ab9 abdd 2fbd 9bc9 2d3d 4af8 7fbd
00000320: ca79 0b3e 62d3 21be 191f c2bd 94cc 0cbe
00000330: 9e34 4fbe d185 2f3d 9a37 23be aaf7 d0bc
00000340: 7bf6 ce3d d8ac 07be 10f6 d0bd dc06 3fbe
00000350: 6fb7 0cbe 45e6 383d 1df0 bf3c 4b17 e93c
00000360: 83d3 0bbe 7c59 543c 5871 14be fb96 d73d
00000370: 7b26 09be b9c2 25bc 81fd 0d3e 5513 013e
00000380: af83 e63c 0c47 573e dda5 d9bd 3dd5 ff3d
00000390: f631 96bd 84e1 423d 997a e6bd d9f5 2b3c
000003a0: 3522 003d 3191 a3bc ef90 c5bd 3cb0 973c
000003b0: 84b1 883d 3f1e c4bd ce50 e0bc 864c a43d
000003c0: 37b4 123e e0e9 f6bb 62b0 2f3c 8ebf b03c
000003d0: 6ec8 0fbd a823 2ebe 2701 0b3e 1666 253e
000003e0: 30e2 c3bd 6067 82bd 2aaa 203e a9ab 5d3d
000003f0: b52a 1d3d 1674 1fbe 09c3 d8bd 1fd8 893d

decoderlayers.0.bias f4 [200]
0.16037786 0.01116022 0.29219654 0.052797955 0.044397756 -0.011839847 -0.025118506 0.1711878
0.0125129735 0.19444722 0.046494387 0.08799497 -0.029835075 0.08653525 0.003381688 -0.07129175
0.04274964 0.20011972 0.110944904 0.24105851 0.29211158 0.101518854 0.20541118 -0.07976444
0.0016895094 0.122267954 0.2274425 0.2429039 0.1260192 0.14077264 0.21438609 0.122252196
0.19869296 0.0076729776 0.22351082 0.10541529 0.20997365 0.13260981 0.18777832 0.12174862
0.01647108 -0.052507054 0.17942557 0.17659679 0.090642266 0.038765676 0.19225934 0.012543882
0.19106963 0.041847043 0.29547563 0.025643589 0.073307306 -0.07686084 0.11049002 -0.035608906
-0.12409389 0.2932305 0.05438379 0.11719896 -0.07644821 0.071834244 0.21390115 0.062720716
0.17607184 0.065365486 0.07396188 0.24847981 -0.030839697 0.17446652 -0.026482947 -0.056277804
0.14803098 0.15874857 -0.082677595 0.08341353 -0.07621562 0.11818007 0.083795555 0.09778191
0.1898284 -0.0466791 -0.025146056 0.049696624 0.2088874 0.11891798 0.17279688 0.13848236
0.09345888 0.058722373 0.20174564 0.006574341 -0.051229406 0.16180107 -0.055718757 -0.02405017
-0.0007825983 -0.050566696 0.083178855 0.28839323 -0.038769253 -0.013128767 0.2696887 0.24762362
0.12925534 0.1958483 -0.045121897 0.13458869 -0.015531636 0.094093435 0.07922198 0.031634767
-0.02176047 -0.012371808 0.051781107 -0.042280987 -0.057304736 -0.017531278 0.018345827 0.007366373
-0.060413904 -0.04238464 0.05852349 -0.06920517 0.22272265 0.11944042 -0.035250783 0.07921901
0.18694487 0.24540582 0.15067689 0.0037624785 -0.05358665 -0.063787766 0.32985163 0.09382667
0.039817877 0.2890032 0.11595874 0.09264897 -0.03389527 0.20795284 0.026378362 -0.053748455
0.15927386 0.14681435 -0.034617774 0.013325607 0.18787365 0.08285475 0.098453395 0.042649508
0.20555937 0.23254128 0.084182344 0.25860667 0.0011051666 -0.005842032 0.22031547 0.076906405
0.16700831 0.0419806 -0.026723802 0.28361645 0.24179065 -0.058513165 -0.046163723 0.15826018
0.13714375 0.28463227 0.06872634 0.03009753 0.32543293 -0.059771135 0.16133069 -0.0386916
0.073919155 0.22970532 0.21081235 0.16418158 0.035702717 -0.046977405 0.23246375 0.061330114
0.16731408 0.05119249 -0.067236125 0.09592966 0.25946742 0.025210861 -0.061976332 -0.052438553
0.032945193 0.12149968 0.07854934 0.2474714 0.014566871 -0.050590243 0.08112511 0.16459946
00000000: 183a 243e 5bd9 363c c99a 953e ab42 583d
00000010: 6cda 353d ebfb 41bc 53c5 cdbc db4b 2f3e
00000020: 3703 4d3c 2c1d 473e e670 3e3d b536 b43d
00000030: b068 f4bc 6539 b13d 4f9f 5d3b 6901 92bd
00000040: 3f1a 2f3d 2fec 4c3e 1537 e33d 0bd8 763e
00000050: a68f 953e 1ee9 cf3d 4f57 523e 8a5b a3bd
00000060: 8772 dd3a 9f67 fa3d b0e6 683e cdbb 783e
00000070: 2d0b 013e b426 103e 0788 5b3e 5c5f fa3d
00000080: 2b76 4b3e 9a6d fb3b 05e0 643e f9e3 d73d
00000090: 5503 573e deca 073e f648 403e 5757 f93d
000000a0: 5cee 863c a311 57bd 56bb 373e cad5 343e
000000b0: a7a2 b93d c2c8 1e3d a2df 443e db84 4d3c
000000c0: c2a7 433e ce67 2b3d 9548 973e 8112 d23c
000000d0: 2422 963d 3769 9dbd 9748 e23d a5da 11bd
000000e0: f024 febd 4f22 963e 89c1 5e3d 0206 f03d
000000f0: e190 9cbd d51d 933d e708 5b3e b873 803d
00000100: 2d4c 343e 57de 853d 5379 973d 7e71 7e3e
00000110: 88a3 fcbc 5aa7 323e c4f2 d8bc 8e83 66bd
00000120: 6f95 173e fc8e 223e df52 a9bd b6d4 aa3d
00000130: ef16 9cbd 6408 f23d 019d ab3d e241 c83d
00000140: 6062 423e 9532 3fbd 1aff cdbc b08e 4b3d
00000150: 94e6 553e 458b f33d aaf1 303e 52ce 0d3e
00000160: 5f67 bf3d df86 703d 6996 4e3e 926d d73b
00000170: edd5 51bd 2eaf 253e 5a39 64bd dd04 c5bc
00000180: 4827 4dba 061f 4fbd ad59 aa3d 47a8 933e
00000190: 82cc 1ebd 0a1a 57bc a314 8a3e 0c91 7d3e
000001a0: 835b 043e 758c 483e bdd1 38bd 9ed1 093e
000001b0: 6778 7ebc 0fb4 c03d 223f a23d 7593 013d
000001c0: 0343 b2bc 20b3 4abc 6d18 543d d42e 2dbd
000001d0: 5fb8 6abd c19d 8fbc fd49 963c 9e61 f13b
000001e0: 9274 77bd 849b 2dbd 54b6 6f3d 71bb 8dbd
000001f0: 6811 643e 2e9d f43d 2063 10bd 943d a23d
00000200: 7a6e 3f3e aa4b 7b3e 0b4b 1a3e ea93 763b
00000210: ad7d 5bbd 29a3 82bd 50e2 a83e 3228 c03d
00000220: 1218 233d 3af8 933e c77b ed3d bebe bd3d
00000230: c4d5 0abd 97f1 543e 6f17 d83c 5727 5cbd
00000240: b018 233e 8056 163e 5ecb 0dbd a653 5a3c
00000250: f361 403e c0af a93d efa1 c93d 40b1 2e3d
00000260: 287e 523e 4d1f 6e3e cb67 ac3d 1868 843e
00000270: 3ddb 903a 846e bfbb 619a 613e 1b81 9d3d
00000280: 3a04 2b3e daf3 2b3d e0eb dabc 2d36 913e
00000290: f897 773e 80ab 6fbd 2c16 3dbd f50e 223e
000002a0: 696f 0c3e 52bb 913e 65c0 8c3d 188f f63c
000002b0: 259f a63e 94d2 74bd df33 253e 157b 1ebd
000002c0: ed62 973d df37 6b3e 31df 573e 371f 283e
000002d0: 033d 123d 616b 40bd fa0a 6e3e 4935 7b3d
000002e0: 6254 2b3e 37af 513d 18b3 89bd c576 c43d
000002f0: ead8 843e 0287 ce3c e5da 7dbd cfc9 56bd
00000300: 8af1 063d d3d4 f83d 7ade a03d 2569 7d3e
00000310: e3a9 6e3c b737 4fbd ec24 a63d c38c 283e

decodernorms.0.weight f4 [200]
1.0824823 1.0310773 1.0363399 1.010208 1.0072098 0.9994153 1.0255672 1.0550917
1.032823 1.0587432 1.0307704 1.0730156 0.99806273 1.061852 1.053504 1.0374907
1.0257641 1.0646834 1.0552473 1.0259897 1.0307673 1.0255879 1.038887 1.0607859
1.0270163 1.040746 1.0202817 1.0385773 1.0404199 0.99716043 1.0506003 0.9910778
1.0697367 1.037547 1.0255705 1.0621692 1.0162423 1.0469303 1.0439315 1.0574093
1.0654336 1.0584016 1.0571982 1.0843548 1.0559585 1.0703968 1.1199231 1.0285474
1.0589509 1.0701767 1.0337182 1.0645407 1.013185 1.0437276 1.0497836 1.0469365
0.9962763 1.0515175 1.0603137 1.04451 1.0007639 1.0570627 1.0913992 0.9935232
1.0587298 0.9915629 1.0378098 1.0628326 1.0120727 1.0601501 1.0025529 1.0547136
1.0477055 1.0697255 1.032404 1.0507652 1.0640117 1.0489991 1.0732431 1.0672522
1.0487331 1.02056 1.086059 1.0886993 1.0673947 1.0155917 1.0525653 1.0574716
1.0300827 1.0591477 1.0746889 1.0301155 1.0378413 1.0328014 0.99869704 1.072907
1.0451356 1.0644298 1.0316274 1.0414611 1.0435683 1.0384995 1.08005 1.0193962
1.0212624 1.076149 1.0167505 1.0761305 0.9777057 1.0879121 1.0730646 1.0173359
0.98842055 1.0058264 1.048798 1.0295633 1.030834 1.011191 1.0103855 1.0479139
1.0229818 1.0369061 1.0251931 1.0320896 1.0807002 1.0494138 1.0783355 1.0400839
1.0542499 1.0695009 1.0450081 1.0370866 1.031569 1.0503559 0.9997671 1.0518433
1.026642 1.0581955 1.0750649 1.0236106 1.011162 1.0764059 1.017348 1.0309391
1.0681025 1.0349028 1.0615835 1.0491297 1.0392797 1.007447 1.0489205 1.0309939
1.0352242 1.0846357 1.014045 1.0891418 1.0456452 1.0386031 1.0532359 1.0285808
1.0824479 1.068677 1.0185078 1.0747334 1.0704395 0.997919 1.0682224 1.0278815
1.03671 1.0517755 1.0463784 1.0277659 1.0553828 1.0172634 1.0284975 1.048928
1.0342865 1.0449394 1.0397578 1.0544136 1.0607966 1.0484604 1.039273 1.0140052
1.0384583 1.0316137 1.0634463 1.0771523 1.0294577 1.0049651 1.0539465 1.0226216
1.0104383 0.98577654 0.9989758 1.0463938 1.0325568 1.0573788 1.0308808 1.035611
00000000: c88e 8a3f 57fa 833f c9a6 843f 7f4e 813f
00000010: 40ec 803f aed9 7f3f c945 833f 3f0d 873f
00000020: 8b33 843f e684 873f 49f0 833f 9358 893f
00000030: 0a81 7f3f c4ea 873f 38d9 863f 7fcc 843f
00000040: 3d4c 833f 8c47 883f 5812 873f a153 833f
00000050: 2ff0 833f 7746 833f 40fa 843f d5c7 873f
00000060: 4575 833f 2a37 853f 9798 823f 1af0 843f
00000070: 7b2c 853f e845 7f3f 127a 863f 46b7 7d3f
00000080: 22ed 883f 57ce 843f e545 833f 29f5 873f
00000090: 3a14 823f d001 863f 8c9f 853f 3059 873f
000000a0: 2160 883f b479 873f 4552 873f 23cc 8a3f
000000b0: a629 873f c302 893f a459 8f3f 71a7 833f
000000c0: b48b 873f 8dfb 883f e150 843f df42 883f
000000d0: 0cb0 813f de98 853f 4f5f 863f 0402 863f
000000e0: f70b 7f3f 2098 863f 5cb8 873f 81b2 853f
000000f0: 0819 803f d54d 873f f8b2 8b3f 8957 7e3f
00000100: 7584 873f 11d7 7d3f f4d6 843f e60a 883f
00000110: 998b 813f 00b3 873f a753 803f db00 873f
00000120: 371b 863f c4ec 883f d025 843f 797f 863f
00000130: 8931 883f 9a45 863f 0860 893f b89b 883f
00000140: e33c 863f b6a1 823f fb03 8b3f 805a 8b3f
00000150: 64a0 883f e9fe 813f 76ba 863f 3b5b 873f
00000160: c0d9 833f 2792 873f 688f 893f d3da 833f
00000170: fcd7 843f d632 843f 9caa 7f3f 0455 893f
00000180: 01c7 853f 3c3f 883f 5e0c 843f 994e 853f
00000190: a593 853f 8ded 843f 143f 8a3f 937b 823f
000001a0: bab8 823f 40bf 893f e124 823f a5be 893f
000001b0: ec4a 7a3f b440 8b3f 2e5a 893f 1038 823f
000001c0: 2109 7d3f ebbe 803f 033f 863f bbc8 833f
000001d0: 5ef2 833f b56e 813f 5054 813f 0b22 863f
000001e0: 11f1 823f 57b9 843f 8739 833f 831b 843f
000001f0: 6254 8a3f 3153 863f e606 8a3f 7821 853f
00000200: a9f1 863f 68e5 883f d3c2 853f 41bf 843f
00000210: 740a 843f 1072 863f bdf0 7f3f cda2 863f
00000220: 0169 833f f372 873f ba9b 893f ac05 833f
00000230: c26d 813f abc7 893f 7638 823f d0f5 833f
00000240: 95b7 883f b277 843f f8e1 873f e249 863f
00000250: 1e07 853f 06f4 803f 0743 863f 9cf7 833f
00000260: 3a82 843f 58d5 8a3f 3acc 813f 0069 8b3f
00000270: b4d7 853f f2f0 843f 6fd0 863f 89a8 833f
00000280: a78d 8a3f 68ca 883f 775e 823f dd90 893f
00000290: 2904 893f 9f77 7f3f 83bb 883f 9f91 833f
000002a0: eab2 843f 94a0 863f baef 853f d58d 833f
000002b0: c916 873f b035 823f cea5 833f 4643 863f
000002c0: 8063 843f 93c0 853f c916 853f 06f7 863f
000002d0: 2fc8 873f f333 863f e606 853f ecca 813f
000002e0: 34ec 843f eb0b 843f 021f 883f 20e0 893f
000002f0: 45c5 833f b2a2 803f b8e7 863f 44e5 823f
00000300: 0b56 813f da5b 7c3f e1bc 7f3f 3bf0 853f
00000310: d22a 843f 3058 873f e7f3 833f e78e 843f
