tutorial/interim_data_test/models/model_30_21.pt (torch, 358785 bytes, 18 tensors)

encoderlayers.0.weight f4 [200, 170]
000000 83 68 bd bc 39 d0 b1 3c c9 4b b1 bd a0 a3 87 3d
       -0.023121124 0.021705734 -0.08657033 0.06623006
000010 04 9a 4c 3c cd df 23 3d 9d 6f e2 bd d4 3f 0f 3e
       0.012487892 0.040008355 -0.11056445 0.13989192
000020 48 99 99 bd 5b 34 1b 3d c6 f4 d3 bc 77 7e ad bd
       -0.07499939 0.037891727 -0.025873553 -0.08471387
000030 39 6a 3f 3a 0a 87 1e 3d 7b 7a 1f bc 5c 5c 6c 3d
       0.00073019 0.038703002 -0.009733791 0.05770527
000040 7e 2e f5 bc 0c 33 66 bd f3 fd a6 3d fe 20 46 bc
       -0.029929396 -0.056201026 0.08153906 -0.012092827
000050 6d 1c b3 3a 57 65 80 bd 8f fb b7 bd 8a 0d f6 3c
       0.0013665088 -0.06269329 -0.08983528 0.030035753
000060 be 54 49 3d e0 46 97 3c 1b 64 83 bd 7a f1 af 3c
       0.049153082 0.018466413 -0.06415578 0.02147745
000070 87 39 86 3d de bf 09 bd a5 fa 5a bd 82 6a fd bc
       0.06553941 -0.033630244 -0.05346169 -0.030934576
000080 97 f4 81 3d 46 24 1a 3b 45 7e cf 3c b1 f5 68 bd
       0.0634548 0.0023520156 0.025328765 -0.056874935
000090 25 10 81 bd 0f e7 ea bc 07 bd 49 bd 5d a1 d5 3d
       -0.063019074 -0.02867463 -0.049252536 0.10431168
0000a0 52 39 5d bd 3b 1d 5d 3d 40 3d fc 3c db ff 60 3d
       -0.054009743 0.053982954 0.030790925 0.054931503
0000b0 f2 0d 9d bd d1 c9 f6 ba 03 65 0c 3c de 2f 06 3c
       -0.076686755 -0.0018828457 0.008569005 0.008190123
0000c0 36 58 05 3c 29 f9 8b 3d d3 0f 2c bd 93 b0 58 3d
       0.008138707 0.06834633 -0.04200728 0.05290277
0000d0 bc 96 00 3d f9 31 9a bc f6 7e 0c bd ac 6e 2a bd
       0.03139375 -0.018822657 -0.034300767 -0.04160945
0000e0 e1 a6 9c 3d f2 2b a7 bb 10 90 4b 3d 3a a1 1b bd
       0.07649017 -0.0051016742 0.049697936 -0.037995555
0000f0 c2 38 64 bd d9 53 0a 3d f6 c8 41 3c 71 e7 14 3d
       -0.05571819 0.03377137 0.011827698 0.036353532
000100 a0 9f 27 3d 7c e8 8e bd 1b 6e 81 bd a7 66 43 bc
       0.040923715 -0.069779366 -0.06319829 -0.01192633
000110 99 00 8b 3d d9 43 d3 bc a2 98 f7 3b 5f a8 8c 3d
       0.06787223 -0.025789188 0.007556037 0.06868052
000120 cd 93 fd 3c a2 da 56 bd a6 b7 20 bd b7 68 46 3d
       0.030954266 -0.0524546 -0.03923764 0.048439708
000130 81 27 29 3d f4 81 33 3d 7b e4 0f 3d 6f bd 03 3d
       0.04129744 0.043825105 0.035130005 0.03216308
000140 ab 86 a3 3d 68 7b 2b bd 8b 84 bd bb de e8 15 bd
       0.0798467 -0.041865736 -0.0057836226 -0.036599033
000150 5e cf d0 3c 2e b5 c4 bb c4 dc d4 3c 2c 21 2f bd
       0.025489505 -0.0060030436 0.025984176 -0.042756245
000160 c3 da 54 bd 96 78 f2 bc cc 66 ab bc 95 b5 9a bc
       -0.05196644 -0.029598515 -0.02092304 -0.018885413
000170 4e ad c3 bc 68 91 d0 bc 4a 4a 4d bb 4e 79 1b bd
       -0.023886349 -0.02545996 -0.0031324797 -0.037957482
000180 1b 3e 02 bc 17 f8 18 bb 20 5d 40 3d b8 5d 7b 3c
       -0.007949377 -0.0023341232 0.04696381 0.0153421685
000190 a2 b6 c9 3b 58 21 58 bd fa 9c 42 3d 93 20 e9 bc
       0.0061558047 -0.052766174 0.047512986 -0.028457915
0001a0 4d 2c e1 bc 16 13 b0 3c 52 e7 29 3d 8c a5 72 bb
       -0.027486945 0.021493476 0.04148037 -0.0037024943
0001b0 29 9f ae 3b 6e b0 44 bc 6f 09 13 bd 08 14 30 bc
       0.005329032 -0.012004955 -0.03589767 -0.010746963
0001c0 29 4c ec 3c d6 fb 03 3d 2b d2 04 3d 1b 39 44 bd
       0.02884491 0.03222259 0.032426994 -0.047906023
0001d0 a8 3e b7 3b 8f ef 28 3d b4 c8 c0 3d c0 50 14 3d
       0.005592186 0.041244086 0.09413281 0.03620982
0001e0 bd f0 8f bd 07 e6 2e 3d 3f b7 e1 38 1d ba 5c 3d
       -0.07028339 0.04269984 0.00010762968 0.05388843
0001f0 49 7c 86 3d 5a 0b 42 3d cb b6 5b 3d 9a 29 4a bd
       0.06566674 0.047374107 0.05364112 -0.04935608
000200 92 8f d4 bc af 19 b5 3c b2 95 69 bd b4 f6 72 3d
       -0.025947366 0.022106973 -0.057027526 0.059317306
000210 d0 7e 7f 3d ec 5c 54 3c 0a f8 80 3c 95 07 08 bd
       0.062376797 0.012961607 0.015743274 -0.033210356
000220 64 02 76 3d da 7e 92 3d 24 e5 5a 3d 3e 45 04 bd
       0.060060874 0.07153101 0.05344118 -0.032292597
000230 e5 a8 fe 3c 0c 54 33 3d 4a 73 d8 3c 19 28 1f 3d
       0.031086395 0.043781325 0.026422162 0.0388566
000240 54 b7 b1 3b 4f 2f 91 bc 0e 04 f5 bc b5 57 35 bd
       0.0054234657 -0.017722754 -0.02990916 -0.044273097
000250 91 d8 29 3d 5c 11 0f 3d 4e 5e 09 3d 18 0a 6c bd
       0.0414663 0.034928665 0.0335372 -0.057626814
000260 50 d1 4b 3c 83 d9 32 3d 1f 47 a2 bc 9b 20 72 bc
       0.012440041 0.043664467 -0.019809304 -0.014778282
000270 ce 49 61 3d 99 3e f4 3c 8d 76 9c 3c a4 25 45 3a
       0.055002026 0.029815005 0.019099498 0.00075205625
000280 f4 56 f7 3c 0e 05 88 bd 0c e2 20 bd d9 e9 87 3d
       0.03019283 -0.06641589 -0.039278075 0.066364
000290 3d 06 9d 3c 9c cc c7 b9 f4 be 54 bc 48 34 19 bd
       0.019168014 -0.00038108684 -0.01298498 -0.037403375
0002a0 12 20 be 3b 8a 95 a9 3c 48 0b ba 3d cd 2d 45 bc
       0.005802163 0.020701189 0.09084183 -0.012034846
0002b0 3c 6c 81 3d 23 39 92 bd b5 32 57 bd 6a cc 66 bd
       0.06319472 -0.07139804 -0.052538592 -0.05634729
0002c0 b2 40 99 3d ea f3 93 bc eb ef 60 bd 52 06 83 3d
       0.07483043 -0.018060643 -0.054916304 0.0639769
0002d0 ea ac 2b 3d 84 e3 a5 3b 0b d1 56 bd 6f 0f 0e bd
       0.04191295 0.0050625224 -0.052445453 -0.034682687
0002e0 04 04 03 3c 78 9c 2b 3b 58 d8 03 3c 29 9e 70 3b
       0.007996563 0.0026185792 0.008047186 0.0036715365
0002f0 4c 64 a8 3c 29 9d 4a bb 4e 3f 25 bd 0a 45 9d bd
       0.020555638 -0.0030916429 -0.040343575 -0.07679184
000300 40 41 01 3e ea 50 9d bd b1 52 ff 3c f6 f4 a5 bc
       0.12622547 -0.07681449 0.03116736 -0.020258408
000310 48 cb 88 bd 51 72 62 3d 27 69 c7 3c 98 23 ef 3c
       -0.06679398 0.055284802 0.024342133 0.029191777
000320 06 a1 8e 3d ef d7 06 3c b2 d7 c8 3d 33 fc 9d bc
       0.069643065 0.0082301935 0.098067656 -0.019285297
000330 e8 3d 94 3d a9 bd 84 3c ec 68 c0 3d 1d 1f f3 ba
       0.0723837 0.016203718 0.09395012 -0.0018548701
000340 e0 3a d3 bd 5e 6c e1 3c 3a 6f 61 3d da 58 a3 bc
       -0.10313964 0.027517494 0.055037715 -0.019939829
000350 f0 96 89 3d ad 64 cf 3c 29 e4 7d bd fb 10 02 3d
       0.06718242 0.02531656 -0.06198517 0.031754475
000360 9f f7 45 3d 47 b6 a1 3c b9 93 80 bd 14 53 1d bc
       0.048331853 0.019740237 -0.06278176 -0.009602327
000370 16 2b 15 3d 13 71 98 bd 9a fc bb 3d 9e f5 51 3c
       0.036418043 -0.07443442 0.09179039 0.012814907
000380 65 ef 15 3d b1 12 97 3c e2 66 90 3d 04 91 b7 bb
       0.036605258 0.01844153 0.07050873 -0.005602004
000390 8b 9d f2 bc ca 4e 84 3c 2b ce 0f 3d 4a a8 4f 3c
       -0.029616138 0.01615085 0.035108726 0.012674401
0003a0 9b f2 45 3d 4a a6 97 3c 75 88 95 3d da 95 06 bd
       0.04832707 0.01851191 0.07301418 -0.032857753
0003b0 ab c6 f5 3c 43 4e 19 3d e9 e7 9b bc 39 02 99 bb
       0.030001959 0.03742815 -0.019031482 -0.0046694544
0003c0 5c a6 88 bd ae 2c 8c bd 31 fb 21 bc d4 56 82 bc
       -0.066723555 -0.068444595 -0.009886549 -0.015910544
0003d0 b9 fd d9 bc f1 37 47 bd dd d8 59 bd 64 d5 39 bd
       -0.026610242 -0.048637334 -0.053185333 -0.04536952
0003e0 30 9d 1a 3d 2f 6d 45 3d 04 e5 c6 3c 06 6b 5f 3d
       0.037747562 0.04819983 0.024279125 0.054545425
0003f0 0b 88 b4 3c ce c0 fc 3c 2b 3b 3f 3d b8 b8 19 3d
       0.022037527 0.030853655 0.046687286 0.037529677

encoderlayers.0.bias f4 [200]
000000 13 ff 81 3c 6e 5a a4 bb 6e cd 15 3d 25 80 3d bd
       0.0158687 -0.005015663 0.036572866 -0.046264786
000010 f1 d1 1b bd bc 29 a0 bc 72 c9 bd ba 80 c7 77 bd
       -0.038042013 -0.01955115 -0.0014479591 -0.060492992
000020 85 79 80 3d 84 7f bc 3d 15 b5 ba bc ad 10 ae 3c
       0.06273178 0.09204009 -0.022791425 0.021248186
000030 ae 13 e2 3c 9b 57 05 3d f7 7d b0 3b 7a 11 1e 3d
       0.027597275 0.03255425 0.00538611 0.038590886
000040 70 8e a0 ba d9 66 59 3d c2 fb 80 bd 2a 36 bd bc
       -0.0012249481 0.0530766 -0.06298019 -0.023097117
000050 d6 c5 63 3d 52 15 8a 3d 6e 43 8d bd f1 32 23 bc
       0.055608593 0.06742348 -0.06897627 -0.009960876
000060 1f 49 93 3d 3d 18 94 3d c5 4e 8c 3a db dc 5f 3c
       0.07191681 0.072311856 0.0010704627 0.013663496
000070 8a c3 f7 bb 11 77 ee bb 68 3b e2 3c e5 86 2d 3d
       -0.007561152 -0.0072773774 0.027616218 0.042364974
000080 22 50 2a 3d 9b 45 8e bd 89 7e 69 3d 59 3f 1e 3d
       0.041580327 -0.0694687 0.05700544 0.03863463
000090 56 ab 73 bc aa 85 27 bd e8 65 72 bd 33 e7 20 bd
       -0.014872393 -0.040898956 -0.059179217 -0.03928299
0000a0 23 8f 92 3a c2 94 17 bd 26 8b d2 3c df 25 db 3c
       0.0011181574 -0.0370071 0.025701117 0.026751457
0000b0 9f 2c 20 bc e5 7d a1 3d 50 7e 47 3d 83 19 0d bd
       -0.0097762635 0.078853406 0.048704445 -0.034448158
0000c0 3b 1c 83 bd 43 31 85 3c 57 46 35 3d ea 15 74 3d
       -0.06401869 0.016258841 0.044256534 0.05959121
0000d0 ed 93 3f bc 0d 65 b5 bc c8 b4 11 bd 26 ac 53 3d
       -0.011692983 -0.022142911 -0.035572797 0.051677845
0000e0 7a 55 1d 3d 23 0c 20 3d 2e 09 1c bd e2 67 b2 bc
       0.038411595 0.039074074 -0.038094692 -0.02177805
0000f0 95 15 06 3d 92 c4 f5 bb 33 3f 40 3d 0a 53 a9 bc
       0.032735426 -0.0075002396 0.04693527 -0.020669479
000100 5c ce 5f 3d d8 74 a3 ba f7 fe 31 bd b8 1c f7 ba
       0.05464016 -0.0012470735 -0.043456044 -0.0018853163
000110 dd 3a 84 3d 51 93 78 3d c3 94 59 3d 6d bf 87 3a
       0.0645654 0.060687367 0.053120386 0.0010356732
000120 a3 0c 11 3d ff a6 95 3d 26 00 a0 bd 04 cc 54 3d
       0.035412442 0.073072426 -0.07812528 0.051952377
000130 c1 cd 24 3d cb 98 9d bb 55 c3 58 bb 77 5b 67 bd
       0.040235285 -0.004809474 -0.0033075411 -0.056483712
000140 53 3a 5d bd b9 95 83 bd 13 89 09 bb 4c 96 f1 bc
       -0.0540107 -0.06425042 -0.0020986244 -0.029490612
000150 1e 54 6b 3c 71 96 ac 3d df 78 71 3c 50 cd cf 3b
       0.014363317 0.08427132 0.014738291 0.006341614
000160 50 a3 3d bc df c1 33 3d 40 f3 81 bc 45 59 91 3d
       -0.011574581 0.04388606 -0.015863061 0.07097105
000170 cf f2 1d bd 8c 64 9a 3c e7 a9 ab 3d 9b c8 e3 3c
       -0.03856164 0.018846773 0.08382016 0.027805617
000180 b6 40 8a 3d 5b 9f 4a 3d d2 8d ae 3c b3 d1 4f bd
       0.06750624 0.04946838 0.02130786 -0.050737094
000190 ac df 0e 3a bf b8 33 3d 7c 6d 0f bd a9 54 52 bd
       0.00054502 0.04387736 -0.03501652 -0.05135027
0001a0 14 7c db bc fc 87 5d bd 4f fd 92 3c 9d e9 81 bd
       -0.026792563 -0.054084763 0.017943053 -0.06343386
0001b0 c4 2d 8a bd 39 79 8c 3d a7 6c 4e bc 96 6c 51 bc
       -0.0674701 0.06859059 -0.012599147 -0.012782237
0001c0 68 fa 75 3c 85 93 9f 3d f5 e0 d9 bc a3 fd 43 bd
       0.015013315 0.07791809 -0.026596526 -0.04784931
0001d0 fd 58 15 bd 77 c4 1c 3d 01 7d 82 bd 4e 44 ac 3c
       -0.03646182 0.0382733 -0.06371499 0.021028664
0001e0 ad 23 c2 3c 26 79 2d 3d a0 75 52 3d 54 26 82 3d
       0.023698652 0.042351864 0.051381707 0.06354967
0001f0 cc 24 5a bd fb ac 28 3d 7f 3f 73 bd 05 89 72 bd
       -0.05325775 0.041180592 -0.059386726 -0.059212703
000200 c1 7e 97 3d 92 36 49 3c db 21 d9 3c 1f 32 7c 3d
       0.07397223 0.012281077 0.026505401 0.061571237
000210 01 5d 92 3d 68 dd 2b bb 34 0a 09 bd e0 2a 83 3d
       0.07146645 -0.0026224498 -0.033456996 0.06404662
000220 02 9b 61 3d 63 f4 4f bd 01 35 01 bc 0d 89 b9 bc
       0.055079468 -0.050770175 -0.007886172 -0.022648359
000230 0d 42 8d 3c 67 fe 9b 3d e1 54 8b bd 5b 87 78 3d
       0.01724341 0.07616883 -0.06803299 0.06067596
000240 0e 60 73 3d 05 3f 3f bd 50 e7 98 bc f7 1a 6f bc
       0.059417777 -0.04669096 -0.018664986 -0.014593831
000250 2d 92 a0 3d f9 9a 0b bd f6 78 f2 bc 50 a5 ea bb
       0.07840381 -0.03408334 -0.029598694 -0.00716082
000260 94 9a 12 bd 11 5a 28 3c 45 2e 9c 3c 6d 9e 31 ba
       -0.03579195 0.01027538 0.019065032 -0.00067756214
000270 fa 74 a7 3c 8d ce 10 3d 5d 85 31 bd 97 9c c8 3c
       0.020441521 0.035353232 -0.043340076 0.02448873
000280 8c c6 3e bb 51 ea 65 3d f1 5b 5b 3d 2a 69 01 3c
       -0.0029110042 0.056131665 0.05355448 0.007898608
000290 f6 10 8f bd cc a3 1c bd 04 1e 66 bd d1 fc 49 3d
       -0.06985657 -0.038242146 -0.05618097 0.04931337
0002a0 bc 93 82 bd 9d 92 3f bd dc 35 44 3d 33 18 38 bd
       -0.06375834 -0.04677068 0.047902927 -0.044944953
0002b0 6c 6c 4d bd 14 00 dc bc 4e 2f 9d 3d 75 65 81 3c
       -0.050152227 -0.026855506 0.07675038 0.015795449
0002c0 85 1d 15 3c 33 71 00 3d ef 83 68 3d 94 6f e8 bb
       0.009101276 0.031357955 0.056766447 -0.0070933793
0002d0 c8 64 50 bd de 6e b2 bc 13 d0 dc 3c f8 8b 50 bc
       -0.050877362 -0.021781381 0.026954686 -0.012728684
0002e0 8c 29 7c bd 70 90 2e 3d 4d ee 98 3c 79 5b 65 bd
       -0.06156306 0.042618215 0.018668318 -0.05599544
0002f0 35 05 ac 39 7c fd 6b bd b0 fb 97 3d 18 a8 92 bc
       0.00032810276 -0.05761479 0.074210525 -0.017902419
000300 37 9e 5c bd 29 d4 80 3c 27 77 4d bb 34 a7 c4 bb
       -0.053861823 0.015726166 -0.0031351538 -0.0060013775
000310 0e 5d 83 3d 6e 69 9a 3d f6 90 18 3d 15 2d 8f bc
       0.06414233 0.0753964 0.03724762 -0.017477551

encodernorms.0.weight f4 [200]
000000 d7 08 89 3f 0f 7d 8c 3f 17 a0 92 3f 00 f4 8c 3f
       1.0705823 1.0975665 1.1455106 1.1011963
000010 b4 66 8e 3f 0b e4 8f 3f 64 17 8d 3f 9d cc 84 3f
       1.1125093 1.1241468 1.1022763 1.0374943
000020 96 3d 8e 3f 4e c9 87 3f 23 1c 8d 3f 92 7a 90 3f
       1.1112545 1.0608308 1.1024212 1.1287405
000030 70 9e 87 3f c3 68 8a 3f c9 a9 88 3f cd 10 8e 3f
       1.0595226 1.0813221 1.0676814 1.1098877
000040 96 93 8b 3f b0 03 8e 3f c0 b0 8c 3f f1 23 91 3f
       1.0904415 1.1094875 1.099144 1.1339093
000050 f1 fd 8e 3f 43 5e 8b 3f 86 6f 8f 3f 70 f8 8c 3f
       1.1171247 1.0888141 1.1205909 1.1013317
000060 b7 fc 8a 3f 20 b0 88 3f ec da 84 3f 0a 53 8b 3f
       1.0858372 1.0678749 1.037931 1.0884717
000070 fe 37 8f 3f 7b f0 8f 3f 41 bd 8f 3f 2e 03 91 3f
       1.1188962 1.1245264 1.1229631 1.1329095
000080 d3 3a 8d 3f 9f 74 90 3f ed 18 90 3f 29 5a 87 3f
       1.1033577 1.128559 1.1257607 1.057439
000090 d0 11 88 3f 8d e4 83 3f da 4f 8c 3f 29 63 8c 3f
       1.0630436 1.0304123 1.0961869 1.0967761
0000a0 68 31 8f 3f af 65 8d 3f 95 0c 8e 3f 97 34 89 3f
       1.1186953 1.1046656 1.109759 1.0719174
0000b0 e8 54 8c 3f d9 c3 8d 3f 1d f7 8f 3f 29 1b 8e 3f
       1.0963411 1.1075393 1.1247288 1.1102039
0000c0 05 05 8b 3f 36 0a 91 3f cf f6 8e 3f 65 6f 8b 3f
       1.0860907 1.1331241 1.116907 1.089337
0000d0 00 0a 8e 3f 92 aa 8f 3f 04 af 8b 3f ea 6a 8c 3f
       1.1096802 1.1223929 1.0912786 1.0970128
0000e0 9c 21 8b 3f 08 ad 80 3f 85 b6 8c 3f c9 cb 8d 3f
       1.0869632 1.0052805 1.09932 1.1077815
0000f0 6b d3 8b 3f c4 76 89 3f 53 0b 92 3f 5d f3 8e 3f
       1.0923895 1.0739369 1.1409706 1.1168019
000100 6d 08 91 3f 43 a2 89 3f 78 13 89 3f b7 10 8c 3f
       1.1330696 1.0752643 1.0709066 1.0942601
000110 5a f5 8d 3f 05 1f 8e 3f 8a 46 8d 3f 3a 16 8a 3f
       1.10905 1.1103216 1.1037152 1.0788033
000120 a5 0d 8a 3f 81 c3 8d 3f 98 9e 84 3f 9a 42 89 3f
       1.0785414 1.1075288 1.0360899 1.072345
000130 94 83 8e 3f 37 01 84 3f a4 49 84 3f 5b 66 87 3f
       1.1133904 1.0312871 1.0334973 1.0578111
000140 79 70 8f 3f 2e 56 91 3f d2 86 8d 3f 38 3c 85 3f
       1.1206199 1.1354425 1.1056769 1.0409002
000150 db 47 8c 3f af 57 8d 3f cf 07 8c 3f d0 94 8c 3f
       1.0959429 1.1042384 1.0939883 1.0982914
000160 80 0c 8f 3f 5e 5a 8a 3f c9 bb 8b 3f f4 69 8c 3f
       1.117569 1.0808828 1.0916682 1.0969834
000170 53 b9 90 3f 73 39 93 3f 40 c0 8c 3f f3 1a 8b 3f
       1.1306556 1.1501907 1.099617 1.0867599
000180 97 d7 8f 3f 1f 58 90 3f e5 2b 90 3f c7 d7 8e 3f
       1.1237668 1.1276892 1.1263396 1.11596
000190 28 55 95 3f 40 f4 8b 3f d3 38 8d 3f ca a7 8c 3f
       1.1666613 1.0933914 1.1032966 1.0988705
0001a0 8d 71 85 3f 74 2a 8d 3f 16 41 88 3f 41 6d 8f 3f
       1.0425278 1.1028581 1.0644863 1.1205217
0001b0 0e db 8b 3f e0 b8 8e 3f 64 e9 89 3f 98 03 8b 3f
       1.0926225 1.1150169 1.077435 1.0860472
0001c0 70 5c 8c 3f 7a df 8d 3f 6c 6e 8e 3f 41 c0 8e 3f
       1.096571 1.1083825 1.1127448 1.1152421
0001d0 ad 2e 8b 3f af 1e 90 3f db ff 85 3f d1 8b 90 3f
       1.0873619 1.1259364 1.0468706 1.1292669
0001e0 a5 5a 8f 3f 99 8f 90 3f 04 57 81 3f d1 d4 8d 3f
       1.1199538 1.1293823 1.010468 1.1080571
0001f0 65 31 88 3f f9 3a 8e 3f d6 6b 8c 3f 9e e2 84 3f
       1.0640074 1.1111747 1.0970409 1.0381658
000200 cb d1 8a 3f 97 fc 8c 3f 22 19 89 3f 98 fb 8e 3f
       1.0845274 1.1014584 1.0710795 1.117053
000210 f5 1c 8c 3f 83 83 8f 3f 9f da 89 3f fa 4a 87 3f
       1.0946337 1.1212009 1.0769843 1.0569756
000220 b8 9f 8c 3f ce ad 8d 3f 50 5a 8a 3f 9a dc 90 3f
       1.0986242 1.1068666 1.0808811 1.1317322
000230 46 21 8e 3f e3 c9 84 3f 34 bb 8c 3f 54 5a 8c 3f
       1.1103904 1.0374111 1.099463 1.0965066
000240 ef 8c 8d 3f 01 5b 8c 3f 92 92 8f 3f ce ad 91 3f
       1.1058635 1.0965272 1.1216605 1.1381166
000250 9a c7 8d 3f 1e 09 8e 3f 63 b1 8b 3f 10 7c 8b 3f
       1.1076539 1.1096532 1.0913509 1.0897236
000260 92 67 8c 3f 0a 56 8a 3f 07 fa 8a 3f 64 12 88 3f
       1.0969107 1.0807507 1.0857552 1.0630612
000270 fa 53 84 3f fd 77 84 3f 16 7c 8d 3f 27 68 8b 3f
       1.0338128 1.0349118 1.1053493 1.089116
000280 c4 cd 84 3f d2 92 8b 3f ec 97 8a 3f 27 80 91 3f
       1.0375295 1.0904181 1.0827613 1.1367234
000290 34 95 84 3f 7c 69 8f 3f 3a 7b 8b 3f 44 ae 8f 3f
       1.0358033 1.1204066 1.0896981 1.1225057
0002a0 fb 0b 8e 3f f6 17 86 3f 55 02 8e 3f 01 3a 8d 3f
       1.1097406 1.0476062 1.1094462 1.1033326
0002b0 93 6e 8f 3f 73 bd 8c 3f b8 cd 8c 3f 9c 15 8e 3f
       1.120562 1.0995315 1.100028 1.1100345
0002c0 b7 fc 8d 3f e7 56 8c 3f 5a 30 93 3f 9f 64 8e 3f
       1.1092747 1.096402 1.1499131 1.1124457
0002d0 90 e8 8c 3f 8a c8 8c 3f cb 36 8b 3f 6c 4a 90 3f
       1.1008472 1.09987 1.0876096 1.1272712
0002e0 ab f0 8b 3f ed 72 8e 3f d1 39 8b 3f 6c c8 90 3f
       1.0932821 1.1128823 1.0877019 1.1311164
0002f0 0d f7 8a 3f f3 5d 8e 3f 4b e3 8f 3f a8 83 83 3f
       1.0856644 1.1122421 1.1241239 1.0274553
000300 4d 8a 83 3f e3 67 90 3f 1a 03 81 3f fc 1a 8d 3f
       1.0276581 1.1281704 1.0079072 1.102386
000310 ec b5 8d 3f ea db 8b 3f ef 4a 8e 3f 69 38 8c 3f
       1.1071143 1.0926487 1.1116618 1.0954715

encodernorms.0.bias f4 [200]
000000 72 ee 9a 3e 70 5f 71 be 0d 45 d7 3d 71 71 bb be
       0.30260044 -0.23571563 0.10511217 -0.36609986
000010 b6 df f5 3e 70 b1 96 3e be e1 08 be e4 64 80 be
       0.4802224 0.2943225 -0.13367364 -0.25076973
000020 ce b7 dd be 12 39 e3 be 6c 27 b3 3e 91 af 40 3e
       -0.43304294 -0.4437948 0.34991014 0.18816973
000030 15 10 2d 3e a7 d0 e8 be 46 18 4e 3e 47 19 90 be
       0.16900666 -0.4547169 0.20126447 -0.28144285
000040 e5 9e 06 3f 43 9e 9d 3d 1e ab 08 bf 47 ec ba 3c
       0.52586204 0.07696202 -0.53386104 0.022817744
000050 d5 50 61 be d4 50 1d 3e 36 ea 59 be 58 54 9a be
       -0.22003491 0.15362865 -0.2128075 -0.30142474
000060 d5 0d 35 be 0a 6d 86 be 4b d1 7e be e3 50 e8 be
       -0.17681058 -0.26255065 -0.24884526 -0.45374212
000070 34 ed 93 3d ce d3 9c be 63 c4 fb 3e 10 e2 0c be
       0.07222977 -0.30630344 0.4917327 -0.13758111
000080 a9 a9 89 3e ab 5a c3 3e 52 86 c2 3e a1 95 78 3e
       0.26887253 0.38155112 0.37993103 0.24275829
000090 ef fe e7 be 32 65 04 3f 8b 96 02 bf f4 c3 c3 be
       -0.45311686 0.5171691 -0.5101096 -0.38235438
0000a0 6c c6 29 3d 16 75 e5 be 54 32 d5 3e 6e 00 91 3e
       0.041448995 -0.44815892 0.4163996 0.2832064
0000b0 dc 5a 92 3e 37 39 99 be 16 a2 58 3a 35 4d c4 be
       0.28584945 -0.29926464 0.0008263899 -0.38340154
0000c0 38 b1 05 3d 44 1b 1a bd 14 73 2e be c7 3f f6 bd
       0.032639712 -0.03762366 -0.17036086 -0.12023883
0000d0 9e 0d c8 3e 76 aa 98 be da 02 c7 be 98 d2 43 3e
       0.3907289 -0.2981755 -0.38869363 0.19123304
0000e0 00 f7 b7 3e 13 d2 eb 3e 0c 5f ff 3e c8 ff e0 3e
       0.35930634 0.4605871 0.49877203 0.43945146
0000f0 9d 40 f7 3e e5 ef 23 be 8b 6d 1b 3c ea 7d 5d 3e
       0.48291484 -0.16009481 0.009486566 0.21630064
000100 66 49 cc be c7 f6 99 be 8d c3 e6 bd b9 f2 ec 3e
       -0.3989975 -0.3007109 -0.11267767 0.46278933
000110 71 8f 69 bd 25 ec 07 bf e6 90 c2 be 15 74 05 be
       -0.057021562 -0.530947 -0.38001174 -0.13032563
000120 94 76 f2 be 12 b0 d1 be 1d 10 c9 3e 97 49 f6 3e
       -0.47356093 -0.40954643 0.39270106 0.4810302
000130 c5 ba d7 3e 38 5d 96 be 80 5d 05 bf 94 ee 10 3f
       0.4213468 -0.29367995 -0.52095795 0.5661404
000140 62 ae a9 3e 7e 85 ac be 39 1f d2 3e ea ea e3 be
       0.33140856 -0.33695596 0.41039446 -0.44515163
000150 07 e3 df be 1a 62 ec be b4 18 cf be dc 91 75 3e
       -0.43727896 -0.46168596 -0.40448534 0.23981422
000160 c7 5d 18 3e a6 f0 e5 3e 29 ff c4 3d b9 19 ca be
       0.14879523 0.44910163 0.096189804 -0.3947275
000170 24 fc c5 3d bd 22 eb be 3a 9a fe 3d fd d5 04 bf
       0.09667233 -0.4592494 0.1243176 -0.5188902
000180 7f 08 3c 3e 50 2c 08 bd ee e3 f6 3d d7 c8 c8 3c
       0.18362616 -0.033245385 0.12055193 0.02450983
000190 08 46 b9 bb d4 25 b4 3e 9b 5c 67 be c9 5f 33 3e
       -0.0056541003 0.3518511 -0.2259392 0.17517008
0001a0 a0 04 04 3f c0 15 02 bf 3d 2d 02 3f 4e 03 bc 3e
       0.5156956 -0.5081444 0.5085028 0.3672127
0001b0 1b e1 af 3e 9f 14 a1 3e bb 58 55 be 8d 91 e8 3e
       0.3435143 0.31461045 -0.20834629 0.45423546
0001c0 cf 52 55 be c9 b7 ea 3e a9 a4 00 3f 95 5d b0 be
       -0.2083237 0.45843342 0.5025125 -0.34446397
0001d0 00 5f 91 bc be ef 92 3b d4 7f ab be e6 be 7a be
       -0.017745495 0.004484146 -0.33495963 -0.24486884
0001e0 a1 37 ae be ea 4c ab be 44 71 01 bf cb 1d b9 be
       -0.34026816 -0.33457118 -0.50563455 -0.36155543
0001f0 d3 f1 92 3e 21 ad 5d be 8f 1e ac be 20 8a 07 3f
       0.28700122 -0.21648075 -0.33617064 0.5294514
000200 c8 81 ba 3e 5a d5 e1 be ca 1a 0b 3f 1a da c1 3e
       0.3642714 -0.44108087 0.5433775 0.3786171
000210 0b 07 56 be 41 5f 90 be d6 eb 8c be 2b f3 b1 3e
       -0.20901124 -0.28197673 -0.2752368 0.34755835
000220 48 99 b3 3e 28 7a eb 3e a9 cb 4b be 9a 37 c5 be
       0.35077882 0.45991635 -0.19901909 -0.38518983
000230 26 ef 28 be 4d 70 ce 3e 50 ff 8c be f4 02 d9 3e
       -0.16497478 0.40320054 -0.27538538 0.42385066
000240 11 a0 ce be 4b 4f ae 3e 32 96 ba be 53 75 c7 3e
       -0.40356496 0.3404487 -0.36442715 0.389567
000250 82 4d db be 78 a0 59 3e be fa cf 3e 5e 82 c6 3e
       -0.4283257 0.2125262 0.4062099 0.38771337
000260 63 5b b7 be 5f 23 b2 be 39 3a a8 be 94 11 01 bf
       -0.3581191 -0.3479261 -0.3285692 -0.5041745
000270 99 c1 07 3f 4e 15 39 3e 3a 51 e4 be 2b 48 00 3f
       0.5302978 0.18074533 -0.4459322 0.5011012
000280 fa d0 d0 be 1f da cd be f7 f0 ce be f0 e8 62 3e
       -0.40784436 -0.40205476 -0.40418217 0.22159171
000290 8e 58 ac 3e ef cc e5 3e d4 c5 02 bf 39 8a fb be
       0.33661312 0.44882914 -0.5108311 -0.49128893
0002a0 c0 9b c7 be 1d 85 c4 be c5 85 b4 3e 6a 6f 82 be
       -0.38986015 -0.38382807 0.35258308 -0.25475627
0002b0 f2 83 c1 3e a1 bd 9e be fc e9 df be 4c 83 a6 bd
       0.3779598 -0.3100405 -0.43733203 -0.08130512
0002c0 67 97 85 be 70 1b e8 be ec d7 bc be 11 3d f9 3d
       -0.26092073 -0.45333433 -0.36883485 0.121698506
0002d0 9d 75 96 3b 99 6e af 3e a1 17 96 be 42 ca 35 be
       0.0045916573 0.34264067 -0.29314902 -0.17752936
0002e0 df 73 c4 be cc 5a ef bd 5b ff bc be b1 42 87 3e
       -0.38369653 -0.1168724 -0.3691357 0.2641807
0002f0 33 7a b0 be 30 7e 08 be a6 74 a3 3e c5 49 ed 3d
       -0.3446823 -0.13329387 0.31924933 0.11586336
000300 db 81 47 3e 08 d5 a4 be 49 c0 ca be 0e 60 d7 be
       0.1948313 -0.3219378 -0.39599827 -0.4206547
000310 dc b1 ff 3e fe 9d c3 be 40 4f ab be c8 2e b6 3e
       0.49940383 -0.38206476 -0.334589 0.35582566

encodernorms.0.running_mean f4 [200]
000000 02 c8 97 3e c0 e0 9d 3e 4d 57 8b 3e 81 8b a5 3e
       0.2964478 0.30835533 0.27215043 0.32332996
000010 f5 86 87 3e af 14 a2 3e d0 1c 99 3e 8c 25 2b 3b
       0.26470152 0.31656405 0.29904795 0.002611491
000020 6c c8 a4 3e fc 48 74 3e 54 9b 98 3e 5f 84 8e 3e
       0.3218416 0.23855966 0.29806006 0.27835366
000030 04 df ce b9 a4 03 9a 3e e2 e1 97 3e 3f 3e a7 3e
       -0.0003945754 0.30080903 0.29664522 0.32664678
000040 1e d1 b0 3e 91 50 b1 3e 63 93 86 3e 41 d4 90 3e
       0.34534544 0.3463178 0.26284322 0.28286937
000050 e6 87 cd 3e 54 b1 9c 3e a9 3a 92 3e 9d fa b8 3e
       0.40142745 0.3060404 0.2856038 0.36128703
000060 e1 76 94 3e 06 13 d0 3e 2e 75 bb bb d7 0c 91 3e
       0.28996947 0.40639514 -0.005720756 0.2833011
000070 22 8c bf 3e 65 06 91 3e 23 dc 6d 3e 35 67 88 3e
       0.374116 0.2832519 0.23228507 0.2664124
000080 fa 45 9c 3e db f5 ac 3e 4a 53 9f 3e 96 b3 af 3e
       0.30522138 0.33781323 0.31118232 0.343167
000090 aa ef a7 3e 90 28 2b 3a e1 75 9f 3e 2a 4c ce 3e
       0.32800037 0.00065291766 0.31144622 0.40292484
0000a0 b2 85 a3 3e d0 2d 82 3e 52 49 9d 3e c0 e2 ac 3e
       0.3193794 0.25425577 0.3072 0.33766747
0000b0 42 97 88 3e 28 f0 85 3e 94 b5 ae 3e ac 28 83 3e
       0.266779 0.26159787 0.34122908 0.25616968
0000c0 1d 39 a3 3e ce d9 83 3e 6d 8e 94 3e 80 af 6c 3e
       0.3187951 0.2575211 0.29014912 0.23113823
0000d0 29 bc 98 3e d2 90 90 3e d8 82 6b 3e 90 c7 83 3e
       0.29831055 0.2823549 0.22999132 0.25738192
0000e0 9e c5 93 3e b5 29 16 bb 15 e3 cc 3e 0a 64 a9 3e
       0.28861707 -0.0022913043 0.40017 0.33084136
0000f0 ac 24 a4 3e ca 43 8c 3e 4a 80 b2 3e b5 c2 a8 3e
       0.32059228 0.2739547 0.34863502 0.3296105
000100 17 8e 86 3e f5 d8 9b 3e 5a a4 bb 3e 00 27 8f 3e
       0.2628028 0.30438963 0.36648828 0.27959442
000110 3c 10 94 3e fb 81 8a 3e db 09 5b 3e 88 31 75 3e
       0.28918636 0.27052292 0.21390478 0.23944676
000120 65 56 b5 3e 42 12 92 3e 27 fe ab bb 50 6b b9 3e
       0.35417476 0.28529555 -0.005248803 0.36214685
000130 52 68 a9 3e 78 0b b0 bb 05 b5 8d 3d ad 2f a3 3e
       0.33087403 -0.005372461 0.06919292 0.3187231
000140 e9 9a 81 3e d1 be 91 3e f6 d6 83 3e ad 6c 1f bb
       0.253135 0.28465894 0.2574994 -0.002432625
000150 a6 e8 c9 3e 65 4e 8a 3e 1c c7 9d 3e 65 50 af 3e
       0.3943531 0.27012935 0.3081597 0.34241024
000160 93 13 9e 3e 3f 36 5c 3e 0b 8d 97 3e 7f 86 97 3e
       0.3087431 0.21505068 0.29599795 0.295948
000170 20 dc 7e 3e 97 5e 9b 3e c3 02 8c 3e 94 bb a5 3e
       0.24888659 0.30345604 0.27345857 0.32369673
000180 31 8a 8e 3e 79 5a a5 3e 23 97 6c 3e ad b9 c4 3e
       0.27839807 0.32295588 0.23104529 0.3842291
000190 8c 3d 9e 3e 03 96 a9 3e 58 2e 8f 3e b4 e7 5d 3e
       0.30906332 0.33122262 0.27965045 0.21670419
0001a0 ec 3d 6f 3e 67 c5 8e 3e 3d a8 91 3e 79 06 8b 3e
       0.23363465 0.2788498 0.28448668 0.27153376
0001b0 e6 4a 90 3e b4 e2 94 3e 31 e1 b9 3e 75 86 9e 3e
       0.28182143 0.2907921 0.3630462 0.30961958
0001c0 d4 36 ca 3e 5b e3 9f 3e b3 cc 9f 3e a7 57 7f 3e
       0.39494956 0.31228146 0.3121086 0.2493578
0001d0 6a 03 8e 3e 0a 0e 90 3e 4d 1d 4a bb 8b 4b 97 3e
       0.2773698 0.2813571 -0.0030840219 0.29549822
0001e0 ce b4 8f 3e 51 cf 83 3e 8e a9 71 bb bb 26 a5 3e
       0.2806763 0.25744107 -0.0036874744 0.32256112
0001f0 15 22 8c 3e fc 6d 97 3e 5a ac 7b 3e 03 15 27 bb
       0.27369753 0.295761 0.24577466 -0.0025494702
000200 43 88 a3 3e 17 0b 8b 3e 38 9f 99 3e 80 fe cc 3e
       0.31939897 0.27156898 0.30004287 0.40037918
000210 01 a3 a8 3e 7a 7c 86 3e 0a 4b 93 3e 7d 14 c3 3e
       0.32936862 0.26266843 0.28768188 0.3810157
000220 da ef 89 3e 73 2b a5 3e 09 aa ac 3e d5 a7 80 3e
       0.26940805 0.32259712 0.33723477 0.25128046
000230 6d 02 70 3e 4c e0 b6 bb 91 c9 a5 3e 81 aa b8 3e
       0.23438425 -0.0055809375 0.32380345 0.36067584
000240 e3 f3 d2 3e 10 5a a8 3e 70 b1 9c 3e 67 93 70 3e
       0.41201696 0.32881212 0.30604124 0.2349373
000250 8c 3a a1 3e bf c7 93 3e 67 cf a8 3e cd 3e 93 3e
       0.3148998 0.28863332 0.32970735 0.2875885
000260 e0 fb a8 3e 8d 34 3e 3e 90 83 be 3e e0 67 b7 3e
       0.33004665 0.18574734 0.3720975 0.35821438
000270 47 4e 66 bb 8e c2 1b ba 81 81 95 3e 4e f3 83 3e
       -0.0035141872 -0.00059417717 0.29200366 0.25771564
000280 9d 97 54 3e 86 24 98 3e 7d d4 a9 3e 5c 43 7f 3e
       0.20760961 0.29715365 0.33169928 0.2492804
000290 9c bb 37 3b df 23 91 3e ea d9 93 3e 33 53 79 3e
       0.0028035408 0.2834768 0.28877193 0.24348144
0002a0 3e 2d ad 3e f4 5d b3 bb 5b cf 77 3e 36 b4 ab 3e
       0.3382358 -0.0054738466 0.24200194 0.33535928
0002b0 14 a5 9d 3e e9 e7 ba 3e e3 c7 b0 3e 61 db 94 3e
       0.30790007 0.36505058 0.345275 0.29073623
0002c0 8c c6 8f 3e 42 82 ac 3e 56 75 71 3e 79 da a9 3e
       0.28081167 0.3369313 0.23579916 0.33174494
0002d0 d1 0c a7 3e bd 15 ae 3e 41 1b c2 3e 66 1c a7 3e
       0.32626966 0.3400096 0.37911418 0.32638854
0002e0 f2 e2 86 3e 6f cc bc 3e b7 aa 90 3e b9 7d 8f 3e
       0.2634502 0.3687472 0.28255245 0.28025606
0002f0 e0 2a b8 3e be 99 b8 3e 2e b9 a7 3e d6 2f cd bb
       0.3597021 0.36054796 0.32758468 -0.006261806
000300 78 49 20 bb b6 5e 90 3e 17 45 bf 3e 83 79 86 3e
       -0.0024457853 0.2819726 0.373574 0.2626458
000310 df 2d 62 3e 56 e4 91 3e 95 ad c6 3e d9 78 82 3e
       0.22087811 0.2849452 0.38804308 0.25482824

encodernorms.0.running_var f4 [200]
000000 d3 e2 ea 3d b1 ef 1e 3e 27 d2 b9 3d 9e cb 00 3e
       0.114690445 0.15521123 0.090732865 0.12577674
000010 1f 42 d0 3d 6f 1c d4 3d a7 c1 e6 3d b0 ac f4 3a
       0.101688616 0.10356986 0.11267405 0.0018667188
000020 ae 02 f0 3d cd c1 c2 3d 5c 1c e9 3d 76 33 c7 3d
       0.11719261 0.09509621 0.11382362 0.09726612
000030 23 d5 c9 3a 08 37 f4 3d fe 13 e9 3d 2e 0e ef 3d
       0.0015398603 0.11924559 0.11380766 0.116726264
000040 ed 6c 0e 3e 2b a2 0f 3e d0 b3 cd 3d e2 7c c1 3d
       0.1390874 0.14026706 0.10044062 0.09447648
000050 85 bc 2f 3e eb c1 c8 3d 7a 2c bb 3d 44 81 01 3e
       0.17161758 0.09802612 0.091393426 0.12646967
000060 79 e6 dd 3d c7 bb 31 3e d5 3a 1a 3a 65 fd ca 3d
       0.10834975 0.17356788 0.00058834004 0.099116124
000070 c2 d6 1a 3e eb 5a f2 3d 78 90 8d 3d 2a fc c1 3d
       0.15120986 0.118337475 0.06912321 0.094719246
000080 8d d5 dc 3d 9e 6a 02 3e c5 b6 db 3d ed 62 14 3e
       0.10782919 0.12735984 0.1072822 0.14490862
000090 11 2f 07 3e 61 a4 4e 3b 37 05 06 3e 54 e3 27 3e
       0.13201548 0.0031531083 0.13087927 0.16395313
0000a0 83 c3 08 3e c2 cf ca 3d 9f f7 e3 3d 16 1c 09 3e
       0.13355832 0.09902908 0.11131214 0.1338962
0000b0 1d 79 bc 3d c5 0e b2 3d 57 49 14 3e 57 3a ad 3d
       0.09202788 0.08694223 0.14481102 0.08458393
0000c0 61 5f ee 3d 7f 95 bf 3d 79 04 ec 3d 27 80 ac 3d
       0.11639286 0.09354686 0.115242906 0.084228806
0000d0 b8 58 e5 3d b9 f1 ce 3d 19 d8 a2 3d 01 7f b9 3d
       0.111985624 0.10104699 0.079513736 0.09057427
0000e0 0b 1e bc 3d a8 db bb 3a a1 60 19 3e ab bf ee 3d
       0.09185418 0.001433243 0.14978267 0.116576515
0000f0 e7 6b e0 3d bf eb e0 3d da 83 02 3e 87 09 01 3e
       0.10958081 0.10982465 0.1274561 0.1260129
000100 02 26 b3 3d 95 23 f4 3d 47 b6 f3 3d 65 b9 e6 3d
       0.08747484 0.11920849 0.11900001 0.1126583
000110 b9 70 d3 3d 93 94 d5 3d f3 2e 9e 3d cf df d9 3d
       0.103242345 0.10428729 0.077237986 0.10638391
000120 58 01 12 3e fc fb de 3d ac b5 a1 39 a2 0d 23 3e
       0.14258325 0.10887906 0.0003084367 0.1592317
000130 ff 3e eb 3d 33 a5 02 3a 71 42 da 3c 3d d5 ea 3d
       0.11486625 0.0004983723 0.02664301 0.11466453
000140 13 59 c6 3d fe df de 3d b1 cb c6 3d 7c 69 d3 3a
       0.09684958 0.10882567 0.0970682 0.0016129459
000150 62 c9 14 3e f4 6a af 3d 93 1e 17 3e d5 01 07 3e
       0.14529946 0.085653216 0.14757757 0.13184293
000160 6b 73 fc 3d 54 14 92 3d 23 24 d2 3d 70 e0 ee 3d
       0.12326702 0.071327835 0.10260799 0.11663902
000170 4e da c8 3d 5f c1 e0 3d a6 93 d8 3d a1 37 f8 3d
       0.09807263 0.109743826 0.10575037 0.12119985
000180 eb 3d cf 3d 29 4c e5 3d c5 33 cb 3d 8f f2 1e 3e
       0.10119232 0.11196167 0.09921984 0.15522216
000190 8f 97 db 3d e9 30 10 3e 6d dd bc 3d 31 9c a0 3d
       0.10722267 0.14081158 0.09221921 0.07842291
0001a0 96 d8 b9 3d 31 56 e1 3d 1a c3 eb 3d b0 b5 c3 3d
       0.090745136 0.11002768 0.11511822 0.095561385
0001b0 9a 6d cb 3d c0 6d d8 3d df 66 11 3e 0d 19 c1 3d
       0.09933014 0.10567808 0.14199398 0.09428606
0001c0 d2 86 0d 3e 81 95 e7 3d 67 df df 3d 54 9a b5 3d
       0.13820961 0.113078125 0.109312825 0.088673264
0001d0 ea 1f d9 3d b7 02 cc 3d ee 59 79 3a f1 19 c8 3d
       0.1060179 0.09961455 0.0009511997 0.09770573
0001e0 e2 39 b2 3d e9 44 b3 3d 80 8c 51 3a 77 eb 06 3e
       0.087024465 0.08753378 0.00079936534 0.1317576
0001f0 77 d2 fa 3d 25 e6 f7 3d ce 34 ab 3d d2 c1 94 3a
       0.12247174 0.121044435 0.08359681 0.0011349267
000200 a6 2f 07 3e 49 1b d8 3d f9 14 f3 3d b8 9f 2b 3e
       0.1320177 0.10552079 0.118692346 0.16760147
000210 2f fc fb 3d 53 f8 ad 3d 0c f8 ce 3d e9 95 23 3e
       0.123039596 0.0849463 0.10105905 0.15975155
000220 40 f5 c8 3d 0d 67 de 3d 4a bf 01 3e 07 d2 c5 3d
       0.09812403 0.10859499 0.12670627 0.096592
000230 1a f9 a8 3d 27 d7 1f 3a bd af 08 3e b4 2f 03 3e
       0.08250637 0.0006097429 0.13348289 0.12811166
000240 fc 39 22 3e 3f 46 03 3e a9 f3 03 3e 8d b9 d2 3d
       0.15842432 0.12819766 0.12885918 0.10289297
000250 90 30 e9 3d ab a0 ca 3d df 60 0a 3e 9f 69 d4 3d
       0.11386216 0.09893926 0.13513516 0.10371708
000260 6e 28 18 3e d7 82 8a 3d d3 02 17 3e 3c 7b 1a 3e
       0.14859173 0.06763237 0.14747171 0.15086073
000270 d7 59 49 3a 95 7e ac 3a 09 09 fb 3d 53 2d da 3d
       0.00076809287 0.0013160283 0.12257583 0.10653176
000280 55 c6 8c 3d 9b 42 da 3d 0a 86 f7 3d 70 de ad 3d
       0.06873766 0.10657235 0.12086113 0.08489692
000290 98 0a 12 3b 4c f1 cf 3d b5 8f ca 3d f2 e5 bf 3d
       0.0022284146 0.101534456 0.09890691 0.093700305
0002a0 e1 e6 fe 3d e7 11 f7 39 de 4f a9 3d a0 90 d1 3d
       0.124463804 0.0004712485 0.082671866 0.10232663
0002b0 26 11 f2 3d 4b 07 13 3e 0c ef 0b 3e 6a d6 c4 3d
       0.11819677 0.14358251 0.13665408 0.09611209
0002c0 0d 7c db 3d f7 62 fc 3d f5 7b d1 3d 52 b1 f6 3d
       0.1071702 0.123235635 0.10228721 0.1204554
0002d0 be 36 0d 3e f0 de 09 3e e7 e3 1c 3e 96 0b 03 3e
       0.13790414 0.1346395 0.15321313 0.12797388
0002e0 7b 43 be 3d e0 58 05 3e a4 89 f1 3d 86 ab c9 3d
       0.09290215 0.13022184 0.11793831 0.098471686
0002f0 85 35 01 3e ca 1f 04 3e fe c7 09 3e ab 23 0a 3a
       0.12618072 0.12902752 0.13455197 0.0005269597
000300 36 2e d1 3a 87 b6 bf 3d 28 16 22 3e 14 be bb 3d
       0.0015959207 0.09360986 0.15828764 0.09167114
000310 45 90 99 3d 7f eb ca 3d 62 a3 21 3e 2c fa bb 3d
       0.0749822 0.099081986 0.15784982 0.09178576

decoderlayers.0.weight f4 [200, 30]
000000 3f 28 ae bd cf 4a b2 3d c0 be 6c 3d ad 85 3c 3e
       -0.0850377 0.08705675 0.0577991 0.18410368
000010 80 1b c6 3d c6 15 2b be 55 21 02 3e 8e 37 3b 3e
       0.09673214 -0.16707525 0.12708028 0.18282911
000020 fc ac 30 3e 75 06 da bd 73 1c c4 bd fd 89 ba 3d
       0.17253488 -0.10645763 -0.09575739 0.091083504
000030 7b ea 00 bd 87 c3 f8 3d 55 96 97 3c 58 0a 2f 3d
       -0.031473618 0.12146669 0.018504301 0.042734474
000040 52 95 19 be 26 04 ee 3d c5 f5 ca 3d 9a 63 1e be
       -0.14998367 0.11621885 0.09910158 -0.15467682
000050 46 fb a5 bd 61 ff 17 be ac b1 a2 bd 64 22 ab 3d
       -0.08104567 -0.14843513 -0.079440445 0.08356169
000060 23 b5 e2 bd dc 08 c1 bb c5 b9 ae bd 2b d9 d4 bd
       -0.11069705 -0.0058909487 -0.085315265 -0.10392984
000070 9d 8b 77 bd ba 05 12 3e 33 ec 0e bb 1a 2f ed bd
       -0.06043588 0.14259997 -0.0021808266 -0.115812495
000080 36 50 64 3e c2 60 9b bd 87 c9 58 3d 21 04 a2 bd
       0.22296223 -0.075868145 0.052926566 -0.07910944
000090 4b 7b 33 be 74 3c be 3d 89 44 38 3e f1 a9 8f bd
       -0.17527501 0.09288874 0.17994894 -0.070148356
0000a0 6c 18 f1 bd e1 24 f3 3c a5 8b 27 3d bd 37 94 bd
       -0.11772236 0.029680671 0.04090466 -0.07237194
0000b0 27 55 44 bd e2 1d ee 3d 7c a0 0a be d1 f9 14 3e
       -0.04793277 0.116267934 -0.13537782 0.14548422
0000c0 00 c5 2c 3d a0 6d 02 be 78 7f ed 3d ae 07 bc bd
       0.04218006 -0.12737131 0.11596578 -0.09181152
0000d0 51 a4 b4 bd d5 ed 01 3d 67 66 1c be 5b 12 4e bd
       -0.08820403 0.031720955 -0.15273438 -0.050310474
0000e0 ce 52 2a 3e 1d 0f cf bc 75 f4 c4 bd 8b e6 9a 3c
       0.1663315 -0.025275761 -0.09616939 0.01890876
0000f0 fc 44 b8 bd 6f 80 d2 bd 7b 55 0d be aa 73 e5 3c
       -0.08997533 -0.10278403 -0.1380214 0.028009254
000100 8b 7c 26 3e e3 f6 ae 3c 13 08 77 bd 09 65 21 3e
       0.16258447 0.02135796 -0.060310435 0.15761198
000110 fd 37 81 3d f0 b8 48 bc d1 b1 1c be 5b 2f cc bd
       0.06309507 -0.012251124 -0.15302207 -0.0996997
000120 19 8f 0b bd 35 8f 5e be 84 21 13 3e 03 da 6c bc
       -0.034072015 -0.21734317 0.14368254 -0.014456275
000130 77 d6 0e 3e b2 2a 19 be ce 2e 48 3d 19 6d b5 3d
       0.13949 -0.14957693 0.04887276 0.08858699
000140 93 98 55 bd a0 e6 e5 bd 5f e8 ec bd d2 74 d4 3d
       -0.05214746 -0.11225629 -0.11567759 0.10373844
000150 a1 39 c6 bd 64 b3 87 3c 2c a0 1a 3e 77 54 17 3e
       -0.096789606 0.016565032 0.15100163 0.14778315
000160 7a 33 be bd 60 c1 08 3e 18 68 d9 bd 65 ce a1 bd
       -0.09287162 0.13355017 -0.106155574 -0.07900695
000170 43 c9 17 be f4 14 3d 3e d4 ae 95 bd c3 7d 1e 3e
       -0.14822869 0.18465024 -0.073087364 0.15477662
000180 4f 1f 87 bd 03 cd 0c bd ee 5c 9b bd 02 09 73 3d
       -0.065977685 -0.034375202 -0.07586084 0.059334762
000190 e4 ed 4b bb c3 05 07 3e 1d 97 e6 3d d2 9d 03 be
       -0.0031117136 0.13185792 0.11259291 -0.12853172
0001a0 92 e9 cc bd 0a d1 43 3d 8f dc a7 3d 14 ac 24 3e
       -0.100054875 0.047806777 0.08196365 0.16081268
0001b0 1d 9e 4c bd a3 45 a5 bc ed e8 83 39 97 68 c6 3d
       -0.049955476 -0.020174807 0.0002515981 0.09687918
0001c0 a6 ec 15 3c c8 ab 22 3d f4 54 da 3b f0 d3 ad bd
       0.00915066 0.039714605 0.0066629592 -0.084876895
0001d0 e7 b4 52 3e e6 e5 b2 3a 5e 2d 25 be 9b d7 0f 3e
       0.20576821 0.0013648837 -0.16130587 0.1404709
0001e0 70 04 0e be 84 b1 01 3e 13 c6 5d 3c 0f e9 36 bd
       -0.1386888 0.12665373 0.013535994 -0.044655856
0001f0 da 68 0f be d0 64 9b 3c 52 dd fd bd 5b e9 cf bd
       -0.14004841 0.01896897 -0.12395729 -0.10151931
000200 1a 3b b6 bd 38 c9 47 bd 38 bc 8a 3d c4 70 00 3e
       -0.088979915 -0.04877588 0.06774181 0.12543017
000210 e5 f7 b8 bd c8 93 ca bd 16 93 19 be aa 58 b5 bd
       -0.09031657 -0.09891468 -0.14997515 -0.08854802
000220 8c 8d ab 3d 22 77 3f be 76 ff b2 3d 8b 55 ba 3d
       0.08376607 -0.1869779 0.087401316 0.09098347
000230 89 76 58 be 3b a5 1a be 83 43 8f 3d 74 af 6c bd
       -0.21138968 -0.15102093 0.06995299 -0.057784513
000240 0a f1 33 3e 0d 24 6b 3d 81 96 4d be d9 46 1b 3e
       0.17572418 0.057407428 -0.20076944 0.15163745
000250 47 fe fc 3d a3 b6 c7 bc 89 b7 c2 3d cc 47 26 3e
       0.12353187 -0.02437908 0.09507663 0.16238326
000260 1b de 0c bd 34 11 b7 3d 30 f8 8c bc 4f 91 94 bd
       -0.034391504 0.08938828 -0.017208189 -0.07254278
000270 1f 43 f2 bb 6d 4e de 3d 9c 4b 20 be ee ee b4 3d
       -0.0073932554 0.10854802 -0.15653843 0.08834635
000280 81 4d 3e be 9f d2 28 3e 12 1b 95 3d 40 f0 8e bd
       -0.18584253 0.16486596 0.07280554 -0.06979418
000290 1c 81 8f 3d a6 73 08 3c 41 bb 18 3e e8 47 5d 3e
       0.070070475 0.008328354 0.14915182 0.21609461
0002a0 4f b3 d5 3d cc 23 95 3d 6b 9c 3d bd b3 4a e3 bd
       0.10434591 0.07282218 -0.04629175 -0.11098232
0002b0 c0 c1 e6 3c 1e 24 94 bd 6a fe 29 3d 29 c2 8c 3a
       0.02816856 -0.07233451 0.041502394 0.0010739017
0002c0 10 cb dc bd de ac 14 3e 30 16 cd bd 14 3e 27 be
       -0.107809186 0.14519069 -0.100139976 -0.16332275
0002d0 cb 78 64 3c 04 b9 37 3e 02 d0 90 3c fd 50 2c 3e
       0.013944815 0.17941672 0.01767731 0.1682777
0002e0 2e f7 17 be 63 81 02 bd db 97 48 3d 48 61 75 bb
       -0.14840385 -0.031861674 0.048972946 -0.0037442017
0002f0 2f ff 11 be 14 75 e2 3d c3 b0 1b 3e 58 70 d6 bd
       -0.14257501 0.11057487 0.15204148 -0.104706466
000300 6b 9a 87 3d be 31 f6 bc 01 16 e6 bd 16 10 43 3d
       0.0662125 -0.030053016 -0.11234666 0.047622763
000310 14 25 e4 bd 6b a3 a0 3d e0 f2 9d bd 5c ce a2 3d
       -0.111398846 0.078436695 -0.0771234 0.07949516
000320 e2 52 1d 3e 24 43 24 3e 04 95 02 be 49 d3 16 be
       0.15363649 0.16041237 -0.12752157 -0.14729036
000330 fc 76 d2 3d ff 86 a9 bd 9e 7c 20 be 9f e7 ce bd
       0.10276601 -0.082777016 -0.15672538 -0.10102772
000340 a4 ce 1c 3e d7 d2 dd bc e7 48 11 3e ce 19 a6 bc
       0.15313202 -0.027078075 0.14187966 -0.020275977
000350 8d 0f 48 3d 05 16 5c be 26 af bb bd 47 b7 85 bd
       0.048842955 -0.21492775 -0.09164266 -0.06529098
000360 87 36 10 be e9 27 ac 3c 1c 7f ec 3d 0e 63 57 3d
       -0.140833 0.021015124 0.11547682 0.0525847
000370 08 ed 6a bc d0 e4 be bb 77 f9 d0 3b 97 4b be bb
       -0.014338739 -0.0058256164 0.006377395 -0.005807351
000380 1f 92 d6 3c 51 72 da 3d 4c f5 08 be 8d a6 d1 bd
       0.026192723 0.106663354 -0.13374823 -0.10236845
000390 c1 57 41 3e 47 55 69 3d ac 93 95 bd 0d 73 0e 3d
       0.18881132 0.056966092 -0.07303557 0.03477769
0003a0 8a 50 ea 3c 37 64 2d 3e fb 47 43 bd 1e c0 0e 3e
       0.028602857 0.1693276 -0.047676068 0.13940474
0003b0 40 b9 14 3e f0 79 c4 3d 3b 22 10 bd e7 bc 25 3e
       0.14523792 0.0959357 -0.035188895 0.16185342
0003c0 36 64 65 bc 06 87 ec 3d 1e f8 be 3d fc 18 18 3d
       -0.014000943 0.11549191 0.09324668 0.037133202
0003d0 60 ba 34 bd 77 a7 f1 bc b7 67 55 bd 2d 6e c3 3d
       -0.044123054 -0.029498799 -0.052100863 0.09542499
0003e0 43 b1 21 3e 4f 4b 93 3d dd bf c2 3b 8f 20 12 be
       0.15790276 0.07192098 0.005943282 -0.14270233
0003f0 de 83 eb bd 24 53 b0 3d 3a f5 37 3d 16 57 21 be
       -0.11499761 0.08609608 0.0449116 -0.15755877

decoderlayers.0.bias f4 [200]
000000 c9 d4 6e 3d 1f 70 09 3e 29 62 ab 3d c0 f2 dd 3c
       0.058308396 0.13421677 0.08368332 0.027093291
000010 98 2f 66 bd b3 d2 1a 3d d2 04 3b 3e 50 02 97 3e
       -0.056197733 0.037798595 0.18263558 0.29493952
000020 d9 b1 0b 3e 29 15 38 3d 1e 98 4d 3e 2f 16 c5 bc
       0.13642062 0.044942055 0.2007756 -0.02405843
000030 0a 3d b4 3d 6f d7 72 3d 8b fe 17 3d 90 b8 93 3c
       0.08800705 0.059287485 0.037107985 0.018032342
000040 70 a7 45 3e 0e b4 95 3d a1 b8 05 3e f9 e4 ca bb
       0.19302154 0.07309733 0.13058712 -0.0061918464
000050 49 35 86 3e c4 10 8c 3e f2 36 b6 bc 5c 11 7b 3e
       0.26212528 0.2735654 -0.022242997 0.24518341
000060 ee 2b 30 3e 88 b5 d5 3c 2e f2 9a 3d 01 6f 66 3d
       0.17204258 0.026087537 0.07565723 0.056258205
000070 df 1f 09 3d bf 1f 73 3e 21 7c c2 3c f5 7f 4d 3e
       0.03347766 0.23742579 0.02374083 0.20068343
000080 b4 83 29 3e b6 44 cb bd a7 19 cd 3d 16 bf af 3d
       0.16554147 -0.09925215 0.100146584 0.085813686
000090 ee ed 09 3e 23 9e d4 bd b4 01 f2 3d f0 11 0d 3d
       0.13469669 -0.10381725 0.11816731 0.034440935
0000a0 d6 2b 09 bc f4 e0 37 3c 80 03 d3 3c be 11 26 3c
       -0.008372268 0.011223067 0.025758505 0.010136066
0000b0 4c 0a 6e 3e f0 49 53 3e 16 75 cb 3c 77 5d 45 3c
       0.23246115 0.20633674 0.024836104 0.01204621
0000c0 7b 69 3e 3d de 77 6f 3e c1 30 d0 3d a3 ad 1a 3e
       0.046487313 0.2338557 0.10165549 0.151053
0000d0 f6 16 62 3e f9 c5 42 3e bf 39 33 bd b4 87 00 bd
       0.22079071 0.19020833 -0.043756243 -0.031379417
0000e0 de c8 dc bd 0f 89 74 3e 94 6f 76 3d 39 a4 4b 3e
       -0.107805 0.23880409 0.060165003 0.19886865
0000f0 be 0f ea 3d b6 e2 5e bd 67 44 90 3c aa ec 81 3e
       0.11428784 -0.054415427 0.017610742 0.25375873
000100 3d 01 43 3e 91 11 1d 3e 01 9b 64 3e 54 03 a6 bc
       0.19043441 0.15338732 0.22324754 -0.020265259
000110 90 69 cd 3d 7a d1 86 3e fe b3 88 3e e6 4f c6 3c
       0.100299 0.26331693 0.26699823 0.02420802
000120 be 93 84 3d e1 04 61 3e 05 5a 7c 3e 13 fa 9d bd
       0.06473492 0.21974517 0.24643715 -0.077137135
000130 9c e5 8c 3e 9e b1 4e 3e b6 ab 18 3e 8c f0 23 3e
       0.27518928 0.20184943 0.14909253 0.1600973
000140 3b 1b 5e 3e d0 84 6d 3e 2d 2e c3 3d 13 85 5d 3e
       0.21690075 0.23195195 0.09530292 0.21632795
000150 40 f0 e3 3d 2b c8 60 3d 90 48 6b 3e bc 1f 1e 3e
       0.111298084 0.054878395 0.22976899 0.15441793
000160 1c e0 01 3e 03 74 e7 3d 85 f3 e6 3d 2d f2 9f 3d
       0.12683147 0.11301424 0.112769164 0.07809863
000170 a1 7e 19 3e 2d ca 32 3e 33 ef 7a 3e 96 6e 24 3e
       0.14989711 0.17459936 0.2450531 0.1605781
000180 3d e6 3b 3e e7 be 38 bd 22 08 f3 3d ad 45 bb 3d
       0.18349548 -0.045103934 0.118667856 0.09144149
000190 e6 fd 98 bc 65 16 69 3c 41 e2 e6 3d 18 0a 60 3e
       -0.018675756 0.014226531 0.11273623 0.2187885
0001a0 17 95 6c 3d b5 41 3e 3c a5 ef 8f 3e 2a 0a 2b bc
       0.05775937 0.011612345 0.28112522 -0.010439435
0001b0 93 4a 8e 3d 7b 75 8a 3e 54 96 44 3d 2c ea 84 3e
       0.06947818 0.27042755 0.047994927 0.2595991
0001c0 f1 57 47 3e e1 7a 06 3e 62 7e 85 3e 54 35 69 3e
       0.1946714 0.13132812 0.26072985 0.2277425
0001d0 f0 a0 4c 3e 91 21 8e 3e 8c d2 e1 bb a0 62 03 3e
       0.19983268 0.27759984 -0.006891554 0.12830591
0001e0 f9 5d 80 3e f0 5c 88 bc 43 09 d9 3c 97 e6 62 3e
       0.25071695 -0.016645879 0.026493674 0.22158276
0001f0 f4 16 2e 3e a4 fb 8e 39 66 bc 30 3e 19 20 05 3e
       0.17000943 0.00027271837 0.17259368 0.13000526
000200 f7 f9 07 3e 77 c1 4a 3e f6 f6 aa 3c 96 68 00 3d
       0.13278948 0.19800363 0.020869713 0.03134974
000210 4a f6 17 3d 16 89 6e 3e 50 00 84 3e a3 56 59 3e
       0.037100114 0.23294482 0.25781488 0.21224456
000220 c5 a1 8c bd a8 dc 59 bc 37 74 0b 3e c1 f8 9d 3d
       -0.068667926 -0.013297237 0.13618551 0.07713462
000230 bd 70 97 3d 1e be 8c 3d b1 77 80 3e 13 9a 2b 3e
       0.0739455 0.068721995 0.25091317 0.16757993
000240 55 c7 a1 3e 7c 9f 31 3e c8 27 4a 3e 74 86 4c 3e
       0.3159739 0.17345995 0.19741738 0.19973165
000250 b3 63 e1 3d 05 03 14 3c 87 51 3f 3e ab 41 82 3e
       0.11005344 0.009033923 0.18683444 0.25440726
000260 56 01 89 bd 90 42 18 3e 09 3f 86 3d 05 3b 59 3d
       -0.06689708 0.14869142 0.06554992 0.0530348
000270 b5 fe 97 3d b2 00 48 bd 63 8a 8c 3d c5 a5 68 3d
       0.074216284 -0.048828788 0.06862333 0.056798715
000280 4c ea 2d bc e3 69 23 3d 6b d1 31 3e 41 4c d1 3c
       -0.010614943 0.039895903 0.17365043 0.025549056
000290 13 a8 c4 bd c0 0e e1 3d 49 b3 70 3c 7d 02 81 3e
       -0.0960237 0.109891415 0.014691182 0.2519721
0002a0 99 2b 59 3e d3 fa 0f 3d f6 1a 4a 3e e9 eb 73 3e
       0.21208037 0.035151314 0.19736847 0.23820461
0002b0 6b 76 1b 3e b5 b1 73 3e 7a b6 20 bd f4 c7 5d bd
       0.15181892 0.23798259 -0.039236523 -0.05414577
0002c0 a8 21 9c ba e8 1f 77 3e ee 64 c3 3d 86 e7 42 3d
       -0.0011911886 0.24133265 0.09540735 0.04758408
0002d0 3c 36 67 3e 26 3f 46 3e cd f4 3f 3d 56 6c 2b 3e
       0.22579283 0.19360027 0.04686432 0.16740546
0002e0 1d 01 d1 3d d2 54 a7 bd 7e b0 ce bb 99 45 7e 3e
       0.102052905 -0.08170475 -0.0063076606 0.24831237
0002f0 fd 24 5f 3e 67 c0 85 3e 9a da 03 bd d8 61 5a 3e
       0.21791454 0.26123354 -0.032190897 0.21326387
000300 88 8b 98 3d 00 8d 7f 3e 3b 10 34 3e b7 04 4b 3d
       0.074484885 0.24956131 0.17584316 0.049565043
000310 43 24 53 3e 51 d8 22 3e 86 77 42 3d 20 af 41 3e
       0.20619301 0.1590283 0.047477268 0.18914461
