tutorial/interim_data_test/models/model_30_17.pt (torch, 358785 bytes, 18 tensors)

encoderlayers.0.weight f4 [200, 170]
00000000: 2154 cbba d84f 1fbb 74ef c0bd 3750 bb3d
00000010: 39ae 083d a9df 183b 6179 013d 3da9 263d
00000020: 9f15 5c3d 15a3 0f3d ca4a 8b3c 8e8e b6bd
00000030: bb0f 2bbd 6d86 f63c c096 c23c a9a3 353d
00000040: 7155 c3bc 25ed d93a 59cb 6f3d 165e 1b3d
00000050: 25ed 71bd 37c9 da3c 04d0 a33c 9880 e93d
00000060: 1bef 693d 44d3 e13b 72bb a9bd 454f 8b3c
00000070: 1545 cd3d e89c 67bd 2098 a8bc e372 23bd
00000080: 02fb e6bb b5fb 95bd 3b46 7fbd 6029 293e
00000090: 5037 0abd a943 6ebc b878 f43c 9b9d 99bd
000000a0: 8771 8bbd 8829 07bd 1ba6 d13c e2a7 a1bc
000000b0: 848d 0d3c cafa 3f3c 836b 0c3d ae15 57bd
000000c0: dfaf 073d b67d 293d 0c09 cb3b 1f8c 853d
000000d0: 0b8a 2b3d e6fe 423d be21 54bd 2ac1 7dbd
000000e0: 4020 d8bc a610 1c3d 49cd 30bd cd72 27bd
000000f0: 3b2d 5f3d b104 66bd ad2a 973b 0114 943d
00000100: c4db c2ba eb8a 833d 2a6e 5c3c 4c5b e63c
00000110: 1535 173d aa8f 56bd b950 783d 3bdd 5c3c
00000120: fff7 5d3d 0811 a93c e0af 9ebb b62e e1bc
00000130: 1fe6 4d3d e914 23bb 079a e6bb 21aa b9bd
00000140: 6866 b5bc ed9e 05bc 1ec4 6fbc 21bb b93c
00000150: 4f71 863d fc60 0e3d edca 903d 1b93 01bd
00000160: 5ce5 aebc 0611 0abc ab83 2abd 40f6 5bbd
00000170: 49ae 603d 8cca 443d b191 693c 2907 3b3c
00000180: bd41 27bd 756b 763d 0878 883d 49d3 f1bc
00000190: b153 41bc ad88 803d 7db5 6d3d f734 0abd
000001a0: 3c32 8dbb 7b0e 6dbc 6e21 063d 3c34 2d3b
000001b0: aa1c 843d 56ca 443d 8570 213b ff9e 04bd
000001c0: fd36 d4bb 9969 113c 8c63 43bb 69a4 75bd
000001d0: 0c64 e83c fc4d 6a3d c77e b7bc 3493 6a3d
000001e0: 933e fd3b d401 fcba bd6e dcbc c571 a7b9
000001f0: 5b6b 623c d24d 1dbd 90a2 7c3b 8dc0 16bb
00000200: 7316 db3d e351 9f3b 3c0d 51bd f061 16bd
00000210: 1080 86bd b24f ff3c 3a01 2abd de93 c0bd
00000220: 597b c73c 20f5 25bd 5828 ebbc 76ab 7abd
00000230: c64f 83bb 6787 8dbd feed 5d3c 468f f1bb
00000240: c68d 71bc cfcb 82bd 04c1 a1bd 33ed 023d
00000250: fb99 eb3c 6b6e c6bc 61c8 7ebb 89e5 253d
00000260: 5f8f 42bd af9e 40bd 8eca 193c 9c89 04bd
00000270: d5c9 5dbc 9ee8 06bd 6149 653c e2b7 c13b
00000280: 28d6 6abd 423f ca3b 6a08 d2bc 5aea 43bc
00000290: 8f88 6cbd f0a3 143d 7700 bdbd 6623 c2ba
000002a0: d0d8 033d 9ebf 793c ca29 6ebc ca33 393c
000002b0: f35f 13bd aef3 81bd e3a3 ba3d ec2d 4fbd
000002c0: ed80 f83d aa3f 24bd 3144 5bbc 4991 153d
000002d0: 2db4 44bd 8af2 3f3d 57ff 92bc ed5a 943d
000002e0: edaa 6abd 5300 a73c 7637 69bd 86fb d73d
000002f0: fa14 c03c 2629 4b3d c5e9 243d 8cd2 dc3d
00000300: 2f78 81bd c561 66bc e8c8 a43c 7ced f1bc
00000310: 4951 1f3c 700c 3ebd f03f ec3d 6122 d3bd
00000320: 1e38 c43d ad00 713b f7ec d2bc 43fb 663c
00000330: a9d8 003d ee23 6d3d b030 29bd 0a2c c33d
00000340: fe61 693a b333 923d aa05 dbbb 0046 eebc
00000350: bbaa 92bc cf49 07bd cf75 fabc eaed 8fbd
00000360: ea65 b7bb 988d 47bd ef9b edbc 9d8a 9b3c
00000370: 6f91 ac3c 8588 063d 8198 16bd d779 87bc
00000380: a4ec c73c 9a57 783d 9516 85bc 669e 163d
00000390: c204 013d 74af cf3c 4d42 d9bb 71d8 183d
000003a0: 144c 41bd 6768 29bd db16 26bc b9bc babc
000003b0: c230 abbc 58b2 ebbc f3c5 303c 63e6 0e3a
000003c0: 0587 40bd 3b5e b83c f49c 20bd 981b 5dbc
000003d0: 94e1 0c3b 4a1e 10bc 1449 96bd f6a7 7bbc
000003e0: b5fb 323c 0ef9 87bd 0e7a 39bd 4753 f9bc
000003f0: beb6 febc 200a 853d 3581 043d 5951 843d
-0.0015512743 -0.0024309065 -0.09420672 0.09146159 0.033369277 0.0023326671 0.031609897 0.040688742
0.053731557 0.035067637 0.017003436 -0.08913909 -0.04176305 0.030093396 0.023753524 0.04434553
-0.023844453 0.0016626461 0.058543537 0.037931524 -0.05906405 0.026707275 0.01999665 0.114014804
0.057112794 0.00689164 -0.082877055 0.017005572 0.10022942 -0.05654612 -0.020580351 -0.039904486
-0.0070489654 -0.073234 -0.062322836 0.1651969 -0.033744156 -0.014542499 0.02984272 -0.07500764
-0.06808763 -0.03299859 0.0255919 -0.019733373 0.008639697 0.011717508 0.03428222 -0.05251091
0.033126708 0.041379653 0.006196147 0.065208666 0.041879695 0.04760637 -0.05178999 -0.061951794
-0.026382565 0.038101815 -0.043164525 -0.040880967 0.054486495 -0.056156818 0.0046132416 0.07230378
-0.0014866521 0.06422981 0.0134539995 0.028119706 0.036915857 -0.052383102 0.060623858 0.01348048
0.054191586 0.020638004 -0.0048427433 -0.027488094 0.05026829 -0.002488429 -0.0070374045 -0.09065653
-0.022143558 -0.008155567 -0.01463416 0.022672238 0.06564581 0.03476046 0.07069955 -0.03163443
-0.021349601 -0.00842691 -0.041629475 -0.05370164 0.05485371 0.048044726 0.014255927 0.011415281
-0.040834177 0.060161073 0.06663519 -0.029519694 -0.011799739 0.06276069 0.05803441 -0.033741917
-0.004308967 -0.014468784 0.032746725 0.002642884 0.0645078 0.048044525 0.0024633717 -0.032378193
-0.0064762817 0.008875274 -0.0029813973 -0.059971247 0.028368019 0.057203278 -0.02239932 0.05726929
0.0077284067 -0.0019226619 -0.026908273 -0.00031937487 0.013819541 -0.038404293 0.0038549043 -0.0023002953
0.10697641 0.0048620566 -0.051038012 -0.036714494 -0.06567395 0.031165931 -0.041505076 -0.094032034
0.024350809 -0.040516973 -0.02870576 -0.061198674 -0.0040073125 -0.069105916 0.013545511 -0.007371816
-0.014743274 -0.0638653 -0.07898143 0.031964492 0.028759947 -0.024222573 -0.003887676 0.040502105
-0.04750001 -0.047026332 0.009386672 -0.032357797 -0.01353689 -0.032936685 0.013994546 0.005911813
-0.05733314 0.0061720917 -0.025638778 -0.011957729 -0.05774742 0.036289155 -0.09228604 -0.0014811575
0.03218919 0.015243439 -0.0145363305 0.011303851 -0.035980176 -0.06345306 0.0911329 -0.050580904
0.12133966 -0.040099777 -0.013382957 0.036515508 -0.04802339 0.046862163 -0.017944021 0.07243905
-0.057291914 0.020385897 -0.056937657 0.10546021 0.023447502 0.04959979 0.040262002 0.10782346
-0.06321751 -0.014061396 0.02011533 -0.029532187 0.00972397 -0.04639858 0.115356326 -0.10309292
0.09581016 0.0036774084 -0.02574776 0.014097991 0.031456623 0.057895593 -0.041306198 0.09529884
0.00089028466 0.07138767 -0.006684025 -0.029086113 -0.017903676 -0.033029374 -0.030573754 -0.070278004
-0.005596866 -0.04871902 -0.029005019 0.018986994 0.021065442 0.03284504 -0.036766533 -0.01653759
0.024404831 0.06063042 -0.01624612 0.036772154 0.031498678 0.025352217 -0.006630218 0.03731579
-0.047191694 -0.04135933 -0.010137285 -0.022795068 -0.020897273 -0.028771564 0.010789382 0.00054512004
-0.047003765 0.02250587 -0.039212182 -0.013495348 0.002149676 -0.008796284 -0.07338157 -0.015359869
0.010924269 -0.066393 -0.045282416 -0.030435218 -0.031092998 0.06496072 0.032349784 0.06460828

encoderlayers.0.bias f4 [200]
00000000: 59aa 50bc 2a03 92bc d156 57bc 2723 d3bc
00000010: 6eed 38bd ec26 73bd b039 cc3b e442 dd3c
00000020: 4e36 41bd 5e86 1bbd e4a4 c43c 7434 4abc
00000030: 925e ba3c 48cd a23c d50e 123c 30eb aabd
00000040: 8273 03bb b6db 4dbc cd37 563c 41a7 133d
00000050: d235 9d3d fe28 87bd 8ed0 1bbd 3e60 a73d
00000060: 97c2 9ebc 5f24 ffbc a608 3c3d 7886 84ba
00000070: 1ab7 a1b9 c00c 1a3c 5cdb ad3c 25a9 813d
00000080: 4a9c af3d 006d 10bd bf65 a2bc 1110 89bd
00000090: 55ee 403d 8573 b03d 1127 9abb a7de 7abd
000000a0: 458f 0f3d d0ef 76bd 81fa 2c3d dfc0 46bd
000000b0: 6a8c 39bd d56a aa3d 91bb 1abd debf 803d
000000c0: 6883 2f3d 7a30 2abc 441d 4f3d bc75 463d
000000d0: ee92 d03c af42 ceba 202c 4fbd a9a9 f03b
000000e0: 3e5b 503c 7bc2 fd3c 0b22 0f3d 346b 79bc
000000f0: b258 88bd ce90 93bd df21 37bd c9c6 45bd
00000100: 75fa 17bd b805 14ba c2a8 ae3c 102a b9bc
00000110: 5c30 db3c d6c8 6e3c e318 d0bc 59e4 973c
00000120: 9091 733d af5c 4f3d c88b 0dbd d4b9 f9bc
00000130: 2260 153d c067 4539 0738 4d3d 10a3 833d
00000140: 5744 b3bc 29e7 543d cb14 953c fdb2 e8bc
00000150: a0c1 9bbd 78e3 4fbd 2284 a33c 2ea5 56bc
00000160: 2dea 1dbd 446c 1ebd 5068 1a3c 4a8c bf3c
00000170: d5ac 2a3d 7a11 fcbc f15b a6bc 402e 913d
00000180: 7579 0abb 7408 20bb 6977 6a3c 5cb9 1c3c
00000190: b5e5 213c e798 863c 2ee6 243d 5d64 49bd
000001a0: 9c7e 853d 358f 703d 939d ca3c be83 d83a
000001b0: 956f aabc a366 79bd b48f 19bd 23c4 1a3d
000001c0: 6909 193d f36e b03d cd54 25bc 65fb 71bd
000001d0: 93ef 083d 42af 1d3d 0dd2 e8bc b410 013d
000001e0: adb6 ce3c 2185 dabc 652f b2bb 57ff a43c
000001f0: c726 40bd 0aca b4ba 6622 0fbd 688d 993d
00000200: 8888 8b3d 14a7 ab3d a719 8b3d d7b3 31bd
00000210: 5620 7dbd 530d 0ebd 5ad2 253d 9003 7ebd
00000220: c62c 90bb 064f 8b3c e02b 223c 85a4 833d
00000230: cf72 94bc 341c 293d 73ba 48bd cbe8 803d
00000240: 3ee2 29bd b97d 513d 7b3e 213d e399 8d3d
00000250: 64af c9bc 4255 a7bc 4cb4 3abc 88bb a8bc
00000260: 760a 9eb9 4920 e0bc 9dc2 4abd 0bfe 56bd
00000270: 5694 c4bc ade4 ecbb 67e8 153d e1d6 863d
00000280: 3862 ec3c 1a0c 73bb 87f6 ddbc 885e b53d
00000290: 675b b93c 4095 f1bb 98f1 843d 943f 473d
000002a0: 0882 f03c 08bd cbbc bb7c 95bc 68c8 b53c
000002b0: 6e30 d93c 170a 7ebc bd23 333d 70ac 90bc
000002c0: 0004 723d 713a 013d 74d1 4cbd bb36 74bc
000002d0: e3a2 c1bc 90fc 653c 7086 0cbd 12bd 21bb
000002e0: 856b 263c 3671 a4bc 742c 4d3d a424 56bd
000002f0: c63c 803c a30d e7bc b2c6 a93d b0fd dbbc
00000300: 8671 97bd e11e 1cbc 3d6e 8ebd 5fe4 3a3d
00000310: 7afc 263d 60bb 4a3c e3a7 81bd 0c88 e13c
-0.012735927 -0.017823774 -0.013143257 -0.025773598 -0.045148306 -0.05936329 0.006232463 0.027009435
-0.04717093 -0.03796994 0.024004407 -0.012341607 0.022750173 0.019873276 0.008914669 -0.0834564
-0.0020057862 -0.01256459 0.013074827 0.036048178 0.07676281 -0.065996155 -0.03804069 0.081726536
-0.019379897 -0.031145273 0.045906685 -0.0010110876 -0.00030844734 0.009402454 0.021222763 0.0633109
0.08574732 -0.0352602 -0.019823907 -0.066925175 0.04710229 0.086157836 -0.004704364 -0.061247494
0.03504874 -0.060287297 0.042231087 -0.04852378 -0.045299925 0.08321158 -0.037776534 0.06286596
0.04284993 -0.010387534 0.05056502 0.048452124 0.025460687 -0.0015736426 -0.05057919 0.007344444
0.012717066 0.030976525 0.034944575 -0.015223313 -0.06657542 -0.07205354 -0.044710036 -0.04828528
-0.03710409 -0.0005646604 0.021320704 -0.022603065 0.026756458 0.01457425 -0.025402492 0.018541502
0.05946499 0.0506255 -0.034557134 -0.030484118 0.036468633 0.00018826034 0.05010226 0.06427586
-0.021883173 0.051978264 0.018198391 -0.02840566 -0.076052904 -0.05075404 0.019960467 -0.013100905
-0.038553406 -0.03867747 0.009424284 0.023382325 0.04166873 -0.030770052 -0.020307513 0.070888996
-0.0021129523 -0.00244191 0.014310696 0.0095656775 0.009881427 0.016430331 0.04025858 -0.04916798
0.065182894 0.058730323 0.02473334 0.0016518754 -0.02080516 -0.060888898 -0.03749056 0.037784707
0.03736249 0.08614912 -0.010091019 -0.05907764 0.0334316 0.038497217 -0.028420473 0.03151007
0.025233591 -0.026674809 -0.005437779 0.020141287 -0.04691198 -0.0013793122 -0.034944914 0.07497674
0.06813151 0.08381477 0.06792002 -0.0433844 -0.061798416 -0.034680676 0.04048381 -0.062015116
-0.0043998687 0.017005455 0.009898156 0.06427864 -0.018121151 0.041286662 -0.049005937 0.06294402
-0.041475527 0.05114529 0.039366227 0.06914117 -0.024619766 -0.020426396 -0.011395525 -0.020597234
-0.00030143902 -0.027359145 -0.049502004 -0.052488368 -0.023996513 -0.0072294087 0.03659859 0.06583954
0.028855428 -0.003708607 -0.027095092 0.08855921 0.022626592 -0.0073725283 0.06491393 0.048644617
0.029358879 -0.02487041 -0.018247953 0.022190288 0.02651235 -0.015505335 0.043735255 -0.01766035
0.059085846 0.031549875 -0.050004438 -0.014905627 -0.02363724 0.014037266 -0.034307897 -0.0024679345
0.010157471 -0.020073514 0.050091222 -0.052281037 0.015653979 -0.028204745 0.08289851 -0.026854366
-0.073947 -0.0095288465 -0.0695462 0.045627948 0.040768124 0.012373775 -0.0633085 0.027530693

encodernorms.0.weight f4 [200]
00000000: e977 893f cc1c 8c3f 608a 8f3f 5bbc 803f
00000010: 4ab5 903f ea6f 8d3f 2cc4 8d3f f115 8c3f
00000020: ace3 8d3f 1e2c 873f 612f 8e3f 87cf 8a3f
00000030: f08a 8c3f 65be 833f 335f 8c3f 905b 893f
00000040: 3f33 8a3f 8376 903f efbb 843f 9190 863f
00000050: 759e 8e3f 5699 8a3f 8cb2 8e3f 96d9 873f
00000060: e14a 893f 52a5 8a3f 28b2 8f3f 47f2 8c3f
00000070: f41e 8e3f 4368 893f 7ea5 8e3f c8f8 8c3f
00000080: d320 8a3f 2f84 903f a45c 923f 328c 853f
00000090: d4a2 8c3f 05a8 883f da69 8b3f ed62 8c3f
000000a0: 7037 8c3f a50b 843f 4c3b 903f b253 8a3f
000000b0: 3fa8 903f 7fce 863f 296d 8a3f 7290 8b3f
000000c0: 8844 8f3f 16d3 903f c2c6 8a3f 731f 923f
000000d0: 7133 8a3f 0c22 823f 9e2f 8d3f 6d04 8c3f
000000e0: 8f68 8a3f 6981 8d3f 699f 8b3f 5ceb 813f
000000f0: 7ff6 893f 1e7a 8c3f cf60 8f3f eee3 8d3f
00000100: 1f49 893f e480 8d3f 63b1 913f cb29 8f3f
00000110: 078f 863f 5960 8e3f c3cf 8e3f d06d 8d3f
00000120: e03b 8c3f 71a2 8b3f a841 8e3f 6bde 8b3f
00000130: 615c 8e3f f235 8c3f 865a 8c3f 1bb5 8d3f
00000140: 8b79 8d3f aa4c 8a3f f281 8a3f a9ad 923f
00000150: b3f7 8e3f 3403 8b3f 17c0 893f fb91 8d3f
00000160: 78db 8b3f 6099 8c3f eec1 8e3f 2cbc 903f
00000170: 5711 8d3f 804d 8c3f 783f 893f 519d 8b3f
00000180: 401b 8d3f 95ec 8d3f 6288 8c3f 1b5c 8a3f
00000190: f11e 8e3f 9c1d 8b3f 33b6 873f 5b0c 8d3f
000001a0: 1a53 8d3f c685 893f 3c8a 8b3f bd66 8e3f
000001b0: 9f49 8c3f dfa5 8b3f af16 8d3f e3a9 8f3f
000001c0: a0ba 8c3f fc1f 8c3f 47b5 8f3f 577d 903f
000001d0: c57f 8d3f 8be8 8d3f 9465 8a3f 84a1 8f3f
000001e0: c132 8a3f c0d1 8b3f d6c5 893f d8df 8d3f
000001f0: 1305 8a3f 96e6 803f 45f8 8b3f 1ce8 893f
00000200: a998 8d3f 18d7 8b3f 3404 8e3f dbfc 863f
00000210: 7a85 8b3f fce3 863f 8560 8c3f 424b 8e3f
00000220: 4c88 813f 3a2a 8c3f 38f7 8d3f 3e62 8c3f
00000230: a1e4 8e3f 53db 8b3f 8bf0 8a3f ffe2 903f
00000240: d51c 8d3f 58ae 7d3f 6526 8e3f 71e6 893f
00000250: c74a 8e3f b849 903f bee6 8e3f b89c 8f3f
00000260: 721d 883f 9dae 8c3f 3451 843f faae 893f
00000270: 3c13 8a3f 2186 923f 7827 8e3f 1077 903f
00000280: e0e7 8b3f 51ce 923f b0e3 893f 70f1 8f3f
00000290: 79c2 8c3f f135 8b3f 91ba 8a3f 7f60 863f
000002a0: d1eb 903f af9f 8a3f 1025 8d3f 4201 8e3f
000002b0: 3a59 8e3f ffca 8c3f 2bea 863f 8acd 893f
000002c0: 0bc5 8d3f e1f9 8b3f f78d 853f f7e2 8b3f
000002d0: 534b 883f 66ae 913f 3925 8c3f 666e 8c3f
000002e0: 028e 923f b7ca 8e3f 918e 8d3f e390 913f
000002f0: 486c 8c3f f3e9 8c3f 6a38 863f 59c1 883f
00000300: 37eb 8a3f b638 8c3f 7160 8f3f e0cd 8c3f
00000310: a297 8d3f 0a4d 8f3f 06d2 893f e421 913f
1.0739719 1.0946288 1.1214104 1.0057482 1.1305325 1.1049778 1.1075492 1.0944196
1.1085105 1.0560338 1.1108209 1.0844582 1.09799 1.0292479 1.0966552 1.0731068
1.0796889 1.1286167 1.0369853 1.0512868 1.1142107 1.0828044 1.1148238 1.0613277
1.0725976 1.0831702 1.1226244 1.1011437 1.1103196 1.0734943 1.1144254 1.1013422
1.0791267 1.1290339 1.1434522 1.0433409 1.0987191 1.0676275 1.0891678 1.096769
1.0954418 1.0316054 1.1268096 1.0806792 1.1301345 1.0531768 1.0814563 1.0903456
1.1192789 1.1314418 1.0841906 1.1415848 1.0796949 1.016664 1.1030157 1.0938851
1.0813159 1.1055118 1.0908023 1.0149951 1.077835 1.0974767 1.1201419 1.1085184
1.072544 1.1054959 1.1382259 1.1184629 1.0512398 1.1123153 1.1157154 1.1049137
1.0955772 1.0908948 1.1113787 1.0927252 1.1121942 1.0953963 1.0965126 1.1070894
1.1052717 1.0804646 1.0820906 1.1459247 1.1169342 1.0860353 1.0761746 1.1060175
1.0926352 1.0984306 1.1152933 1.1307425 1.1020917 1.0961151 1.0722494 1.0907384
1.1023941 1.1087824 1.0979121 1.0809358 1.1103193 1.0868411 1.0602478 1.1019396
1.1040986 1.074395 1.0901561 1.1125103 1.0959967 1.0909995 1.1022547 1.122372
1.0994453 1.0947261 1.1227196 1.1288251 1.1054617 1.1086591 1.0812249 1.1221166
1.0796739 1.0923386 1.07635 1.1083937 1.0782799 1.0070369 1.0935141 1.0773959
1.1062213 1.0925016 1.1095033 1.0545915 1.0900109 1.0538325 1.0966955 1.1116717
1.011972 1.0950387 1.109107 1.0967481 1.1163522 1.0926307 1.0854658 1.1319274
1.1024424 0.9909415 1.1105467 1.077345 1.111657 1.1272497 1.1164167 1.1219702
1.0633986 1.0990788 1.0337281 1.0756524 1.078712 1.1447183 1.1105795 1.1286335
1.0930138 1.1469213 1.077261 1.1245556 1.0996848 1.0875837 1.0838186 1.0498198
1.1321965 1.0829982 1.1026936 1.1094134 1.112098 1.099945 1.0540212 1.076585
1.1075758 1.0935632 1.0433949 1.0928639 1.0647987 1.1381347 1.094886 1.0971191
1.1449587 1.1155614 1.1059133 1.1372341 1.0970545 1.1008896 1.0485966 1.0684005
1.0853032 1.0954807 1.1201307 1.1000328 1.10619 1.1195385 1.0767219 1.1338468

encodernorms.0.bias f4 [200]
00000000: a3b4 d5be bcd6 b73e d3d6 9fbe 1470 403e
00000010: e723 ee3e 8042 55be a2e1 a93e ec96 a63e
00000020: eba1 dd3a 3dcd d63e 3a75 bc3e 66c4 a1be
00000030: 1c0b d7be 271c f1be c1a4 003f 2033 e53e
00000040: 6503 c6be 90e3 6ebe 1f10 ccbe 284c aebe
00000050: 6a9e b83d 3801 27bd 1fbf d4be 5d04 bdbe
00000060: f7fa d73e 2f25 963e 555e a4be cf07 c73e
00000070: 7c2b a13e 3110 a6bd 13c6 febe fe08 d23e
00000080: c1cf af3e 6bb2 253e 56d2 013e ddce 053e
00000090: 7c9c 1bbe b649 edbe 1bc6 e43d c23a cb3e
000000a0: 3343 78be c519 eebe a5d1 be3e 34e4 b6be
000000b0: 6be4 bfbe 2e96 dd3e 5a94 ccbe b4a7 d13e
000000c0: 6eda e9be 3c05 2e3e f7de c9be b13d d9be
000000d0: 0722 09bf 2713 ebbe 2e26 b1be 8f47 763d
000000e0: 894b 82be 3a75 49bc 1baf dfbe 8103 f0be
000000f0: 322e d03e ffa8 473e 6221 5abe 2c4a c8be
00000100: 0ffd fb3e ef81 783e f40b 2c3e 0eb4 fd3e
00000110: a952 afbe 984a bcbd f26c 693e 91a0 563e
00000120: 62fb f93e 403d 06be fffa fb3d 357d fb3e
00000130: 9283 86be 8be1 c2be f675 bf3e f283 babe
00000140: 5d4c a53d 7be1 debe 09c4 05bf ca43 cdbe
00000150: 5d7d edbe feea 86bd c7a6 c5be 1591 673c
00000160: 458a d1be 39ce 03bf 7551 823e 594f 20be
00000170: e349 dbbe 31f4 b0be a624 cbbe 32bd e13e
00000180: 2082 c0be 78bd c4be 7947 a33e 4599 e0be
00000190: cb71 e13e 7185 6d3e 1bef e63e e3d7 eabe
000001a0: 814d bc3e c0f4 c8be 0c24 713e 07ab d0bd
000001b0: 3980 a0be bf8c b63e 8505 913e 6247 a63d
000001c0: 93bb fe3d 7995 853e 9cee e8bd 88cd debd
000001d0: f504 a9be 042f 523e 588e 6fbd 2404 cfbe
000001e0: df07 00bd 84ba 913e 226b f0be 7d03 aabe
000001f0: ae8f f8be 46fd f73e b8ed 59be 465b 06bf
00000200: 2285 b8be 764d debe 521b 3cbe 16c2 e63e
00000210: b2f9 9e3e 09cb 9abe f80a cebe fd47 493e
00000220: af8d e53e 9a3f e1be 5389 b5be f075 11be
00000230: 84ea e7be a480 e63e 0492 fbbe 843b d8be
00000240: 59bd 923e beb2 e73e 0405 723e 856c c9be
00000250: 0215 b7be bfd0 3bbe 4cae e7be 9945 af3e
00000260: 8d68 ecbe 1ad8 cdbd 6b95 b33e f34b 04bf
00000270: 94ee 903e d9cf e3be 66c6 d7be aef5 6fbd
00000280: 3fc8 603e c8d8 863e e474 c7be e0a6 fb3e
00000290: e4d5 393d ffd1 cfbe 36e9 5dbe 8274 d63e
000002a0: 1058 ecbe 8b88 8d3e ca1a f53e 0513 33be
000002b0: b903 c7be f3e3 f7be e8f3 01bf ebfa 96be
000002c0: 0822 a23e c1d5 d63e 3524 cdbe 78ba bd3e
000002d0: 57b7 b93e 4d4c e73e 0310 fabe 31cc f4be
000002e0: 54a8 eabe 63d3 2bbe d816 143e ffc8 c2be
000002f0: 9eff b7be 3cc7 87bd 4202 c0be 5388 533e
00000300: ffa8 ae3e 7aa3 3e3e 36d4 cbbe 88a8 1e3e
00000310: 4d19 d23e e34b d9be 36b0 b3be 4c5d b83e
-0.41739377 0.35906017 -0.31218585 0.18792754 0.46511766 -0.20826149 0.33179957 0.3253702
0.0016909217 0.4195346 0.36808187 -0.31595153 -0.42000663 -0.4709179 0.50251395 0.44765568
-0.38674465 -0.23328996 -0.3985605 -0.34042478 0.0901459 -0.040772647 -0.41552064 -0.3691739
0.42183658 0.29325244 -0.3210322 0.38873145 0.31478488 -0.08108557 -0.49760494 0.41022485
0.3433819 0.16181342 0.12677893 0.13067193 -0.15196413 -0.463453 0.11170598 0.39693266
-0.24244384 -0.46504036 0.3726932 -0.3572098 -0.37478957 0.4327864 -0.39956933 0.4094826
-0.4567446 0.16994184 -0.3942792 -0.4242988 -0.53567547 -0.4591305 -0.3459944 0.060126837
-0.25448254 -0.012296015 -0.43688282 -0.46877673 0.40660244 0.1949806 -0.21301797 -0.3911909
0.49216506 0.24268316 0.16801435 0.49551433 -0.34242752 -0.09193915 0.22795466 0.20959689
0.48824602 -0.13109303 0.12303733 0.49118963 -0.26272255 -0.380627 0.37394685 -0.3642879
0.08071206 -0.43531403 -0.5225225 -0.4009078 -0.46384707 -0.0658779 -0.38603804 0.014133711
-0.40925804 -0.51486546 0.25452772 -0.15655269 -0.4282981 -0.34561303 -0.39676398 0.44089657
-0.37599277 -0.38425803 0.31890467 -0.43866935 0.4403213 0.23195435 0.45104298 -0.45867833
0.3677788 -0.3924923 0.23548907 -0.10188871 -0.31347826 0.35654256 0.28324524 0.08119084
0.12438121 0.260906 -0.11373636 -0.10879046 -0.33011594 0.20525748 -0.05848536 -0.40432847
-0.031257506 0.28462613 -0.46956736 -0.33205786 -0.4854712 0.4843542 -0.21282089 -0.5248302
-0.36039072 -0.43418473 -0.18369797 0.4506995 0.31049877 -0.3023303 -0.40242743 0.19656368
0.44834659 -0.43993837 -0.35456333 -0.14205146 -0.4529611 0.4502002 -0.4913484 -0.42232907
0.28660086 0.45253557 0.23634726 -0.39340606 -0.35758215 -0.18341349 -0.45250165 0.34232786
-0.46173516 -0.10050984 0.35074934 -0.5167839 0.2830702 -0.44494513 -0.42143553 -0.058583908
0.21951388 0.26337266 -0.38956368 0.49150753 0.045369998 -0.40589902 -0.21670994 0.41885763
-0.46160936 0.27643237 0.47872 -0.17487724 -0.38870028 -0.484161 -0.50762796 -0.2948831
0.3166659 0.41959956 -0.40066686 0.37056327 0.3627269 0.451754 -0.4884034 -0.47812036
-0.4583155 -0.16779856 0.14461839 -0.38043973 -0.35937208 -0.06629798 -0.37501723 0.20657472
0.3411331 0.18617049 -0.39810342 0.15493977 0.41034928 -0.4244071 -0.35095376 0.3600868

encodernorms.0.running_mean f4 [200]
00000000: 8013 a13e d13d 883e d234 723e 5a55 523b
00000010: da27 813e 4226 8c3e b6c6 803e 3eca 963e
00000020: da0b ae3e fc51 593e da70 7b3e c00c 853e
00000030: 8a8e 8a3e 9454 953e b8dc a03e c80a a23e
00000040: c0a4 c03e 3769 ad3e 7830 a13e 77e4 8d3e
00000050: d3c5 913e c73a 9a3e 71b1 813e f57c 7b3e
00000060: a6a8 883e 37d9 aa3e 5f8d 943e 36fe 923e
00000070: e362 8e3e b83b a43e 4e50 903e d62c a03e
00000080: 3c88 893e 9400 ae3e fee8 8f3e 70c9 63bb
00000090: ccbe 833e 4d1f a03e f6b4 9e3e 6d0b 8d3e
000000a0: 5664 7b3e e5a2 813e 4060 8f3e 9516 973e
000000b0: 22e2 983e a4dc 993e 072e 963e 6883 a23e
000000c0: a3b2 863e 61f1 9f3e f9e3 a03e d26b 993e
000000d0: f987 a63e 1745 713c b4a6 a73e e15c 953e
000000e0: fccc b43e 931b 983e 4c0f ab3e fc77 733b
000000f0: b70c 973e d32a 4e3e dbd0 993e b3ab 853e
00000100: 2373 973e 0c36 803e e6df 993e 95fb 7a3e
00000110: 0259 bc3e b66d af3e e4de 933e ba5f 9b3e
00000120: 02bb 873e 253b 933e ea12 5c3e 993c 963e
00000130: 501d 8e3e 7e69 8a3e 6a84 9c3e 2b6c a43e
00000140: a9b4 903e 3afa 873e 83c9 aa3e 237f 8b3e
00000150: 105d 7e3e dfde 973e 5d48 9d3e bea5 813e
00000160: 6e09 a43e 9b1a 903e dd04 ac3e 4832 473e
00000170: 1405 9f3e dd6d 963e f0a6 933e d2f6 883e
00000180: 1f19 b73e d44a a23e 6c60 973e 6173 463e
00000190: 6f49 913e 4f00 823e 263d 913e 05c4 a23e
000001a0: 7033 9a3e 8995 8e3e f135 813e e0f1 953e
000001b0: 8779 9d3e b92a 973e 929f 933e e17f 693e
000001c0: 1671 af3e 14ef 963e 2e8e a33e c172 aa3e
000001d0: 3e09 9a3e 7d42 b23e 5a0a 973e 2637 9e3e
000001e0: ae66 973e 1b93 b33e 4414 a13e af54 9f3e
000001f0: a278 8e3e c2ce 71bb 1405 8a3e 76b6 783e
00000200: a3e1 a43e 2abb a73e 64e9 ad3e 4089 853e
00000210: e490 853e aad8 ac3e 96a0 9c3e 6b40 8d3e
00000220: 0197 fe3b 15d3 a63e 1d1f 6d3e 5c26 a13e
00000230: 172e 993e 1b40 973e d2b0 973e 147c 973e
00000240: 5152 873e 55cb 64bb 8a8d 9c3e da9d 8f3e
00000250: bb30 8e3e d906 9d3e c312 8d3e 27d6 983e
00000260: 0e55 893e a9ea 833e 3f20 d3bb b723 a03e
00000270: f27a 993e 5386 5c3e e1b4 ae3e e95d a13e
00000280: 7d15 9e3e d293 963e 2341 753e 3da1 8f3e
00000290: b821 a03e 46c5 963e 0310 8e3e ab3e 03bb
000002a0: 6dd9 973e 9de1 a63e d9c6 653e 30ef b63e
000002b0: d93d 813e 348a 823e 98cb 983e c370 993e
000002c0: 1778 4d3e a128 8c3e 3b23 13bb 6fbd b53e
000002d0: 38cd 8d3e 3eff 873e acc4 9c3e 3caa 8c3e
000002e0: 7a1c 763e bcf8 953e d911 9e3e ec5c 933e
000002f0: fcf2 a33e cd45 9a3e b785 cd3e f35a 973e
00000300: 065b 9f3e 2edb cb3e 8fce a93e 8b66 8f3e
00000310: 75c7 943e abd4 b13e 316a 823e b652 8e3e
0.3146019 0.26609662 0.23652962 0.003209433 0.25225717 0.27372938 0.25151604 0.29451174
0.33993417 0.21222681 0.24554768 0.2598629 0.27061874 0.2916609 0.31418395 0.3164885
0.37625694 0.33869335 0.3148229 0.27713367 0.2847124 0.3012297 0.2533069 0.24559386
0.2669117 0.33368847 0.29014108 0.28709573 0.2780982 0.32076812 0.28186268 0.31284207
0.2686175 0.33984816 0.28107446 -0.0034757517 0.25731504 0.3127388 0.30997437 0.2754778
0.24549994 0.2531959 0.2800312 0.29509416 0.29860026 0.30051148 0.2933199 0.3174088
0.26308164 0.31238845 0.3142393 0.29965073 0.32525614 0.014725945 0.32744372 0.29172423
0.3531264 0.29708537 0.33410108 0.0037150374 0.29501888 0.20133524 0.30042157 0.2610756
0.2958003 0.25041234 0.30053633 0.24510033 0.36786658 0.3426339 0.2888099 0.3034647
0.26509863 0.2875606 0.2149159 0.29343107 0.2775674 0.2703361 0.30569774 0.32113776
0.28262833 0.26558095 0.33356866 0.27245435 0.24840188 0.29662225 0.3071927 0.25321764
0.32038444 0.28145298 0.3359746 0.19452775 0.31058562 0.29380694 0.288383 0.2675081
0.35761353 0.31697714 0.29565752 0.19379951 0.28376338 0.2539086 0.28366965 0.31790176
0.3011737 0.2784846 0.25236467 0.29286098 0.3075678 0.29524782 0.2883268 0.22802688
0.34265965 0.29479277 0.31944412 0.33290675 0.30085176 0.34816352 0.29500085 0.3090145
0.29570526 0.3507317 0.31460774 0.31119296 0.2782641 -0.003689692 0.26957 0.24288353
0.32203397 0.32759982 0.33967125 0.26081276 0.26087105 0.33759052 0.30591267 0.2758821
0.007769466 0.32582918 0.231564 0.31474578 0.29917976 0.29541096 0.2962709 0.29586852
0.2642999 -0.0034911234 0.30576736 0.2805012 0.27771553 0.30669287 0.27553377 0.29850885
0.26822704 0.2576497 -0.006443053 0.31277248 0.29976612 0.21535616 0.34122375 0.3151696
0.3087577 0.29409653 0.23950629 0.28052703 0.31275725 0.29447383 0.2774659 -0.0020026367
0.2965807 0.32594004 0.22439136 0.3572936 0.252425 0.25496066 0.2984283 0.29968843
0.20065342 0.27374747 -0.002245142 0.3549609 0.27695632 0.26561922 0.306188 0.2747363
0.240343 0.29291332 0.30872992 0.2878183 0.3202132 0.3013138 0.4014108 0.29561576
0.31124133 0.39815658 0.33165404 0.28007922 0.29058424 0.34732565 0.25471643 0.27797478

encodernorms.0.running_var f4 [200]
00000000: 9601 fc3d ab44 bd3d ffc4 c83d c1a8 433b
00000010: 3db1 de3d de4c d43d 0574 d53d de47 c43d
00000020: 31a9 f93d 2250 a13d 6454 bb3d 0337 b83d
00000030: d9ce a73d 15a3 e63d ccce dd3d fbc3 f63d
00000040: 5eae 233e 5a51 113e fc20 f43d d820 d83d
00000050: d276 cc3d 0619 c53d 3d76 d53d 6efe ac3d
00000060: 669d d03d 1c9f ea3d 84fd df3d fe15 fc3d
00000070: 01de e23d bc8b ec3d d61a ca3d f21d f23d
00000080: 6475 c73d 9a18 073e 8b16 e23d 4e8f 863a
00000090: dc85 b93d e1ba e13d b7a6 013e aef4 c83d
000000a0: fdf9 9f3d 5a42 e53d c023 d53d 813c 013e
000000b0: 6b8b d83d 6222 e13d 700e da3d 776a 083e
000000c0: 4f19 b33d 8dcb 093e 0bb3 ef3d ae13 fa3d
000000d0: ce95 083e a182 b63b c68f 0d3e 8d46 e53d
000000e0: 3e22 0e3e 9906 e13d b105 f53d b523 4b3b
000000f0: 2ddf e23d de3d 943d a9b8 d03d 4e7d c63d
00000100: 9f2f c83d be77 dc3d 45ce b93d ec70 af3d
00000110: ee92 2c3e a399 0b3e 311d e63d 2457 e13d
00000120: e8df c43d 4dd3 d93d b30b a33d 7236 c83d
00000130: 3cd1 cf3d 0805 d23d c6e0 043e bf99 033e
00000140: aa7d e83d 64ab d13d 2a18 ed3d d79a a63d
00000150: cf1f c63d 66e9 ca3d 3f39 ea3d dee4 cb3d
00000160: b448 f43d ba8a c53d a9a6 e53d 1c02 9c3d
00000170: f52b de3d 3a72 ee3d 0f8e ff3d 4491 d83d
00000180: 2798 0b3e ebf6 033e 1bb2 e83d 6704 9a3d
00000190: fae9 c33d 4052 d53d 3e8e c53d 57fb f83d
000001a0: 02a0 053e 1d17 e03d bde3 c13d 956c c63d
000001b0: eb59 e53d 927a d13d 5f4a e03d 6f24 c33d
000001c0: 2fb6 0b3e ce1a fe3d f580 fa3d 8cb0 f63d
000001d0: a400 c83d 6401 053e 5fe0 033e 37cb e13d
000001e0: 29f0 c73d a814 f43d b8a0 023e 06bb e63d
000001f0: 34c0 ed3d 5786 293a ea36 e23d 2189 b83d
00000200: 6246 fa3d 3710 043e 543c 083e e6bf dc3d
00000210: 0657 c03d 0d46 e23d 52ef dc3d 73eb d63d
00000220: 1b36 2f3b 1a82 003e bd71 a83d 0480 e43d
00000230: fa09 d53d c306 ed3d 018a e53d 9b5f 033e
00000240: f03e ca3d 7f91 573a 6710 fc3d 6bb0 d93d
00000250: 2f1b d63d a203 e63d ee21 fe3d 9584 eb3d
00000260: ed46 da3d 005a b43d 618e 9238 4f85 f33d
00000270: 0ad3 e53d 6908 a53d d2ec 103e 75ac e03d
00000280: ae8a 003e 44e8 dd3d 39d0 b93d 5ba2 c83d
00000290: 6a5e 023e d8e9 0e3e 9d46 fa3d a77e cc3a
000002a0: 7ecf e23d 623e 113e 5e99 b23d 945d 023e
000002b0: 2aa5 b33d a30d ba3d f5f6 f33d 53f2 d63d
000002c0: 8c25 9d3d 312a cf3d 1411 b23a 38e8 013e
000002d0: a632 fb3d dad5 ba3d 29e0 f03d 69b0 f43d
000002e0: 4e0b c13d 1bfb f23d 8d36 e03d 38d7 ee3d
000002f0: d9f8 ee3d 4043 103e e2fa 193e 8bb6 f53d
00000300: d69a e43d d156 3c3e b044 0d3e 80dd d13d
00000310: f57d c03d ae8d 163e c51c c23d ecb2 bf3d
0.1230499 0.09241613 0.09803199 0.0029855224 0.10873649 0.10366224 0.104225196 0.0958402
0.12190474 0.07876612 0.091469556 0.08994868 0.0819375 0.11261574 0.10830459 0.12049099
0.15984485 0.1419119 0.11920354 0.105531394 0.09983601 0.096239135 0.10422943 0.08446966
0.10186271 0.11456129 0.10937026 0.12308882 0.110775 0.1155009 0.098684 0.11822118
0.09739187 0.13192979 0.11039456 0.0010266097 0.09058735 0.110219724 0.12661253 0.09812294
0.07811353 0.11194296 0.104072094 0.12620737 0.10573467 0.10992886 0.10647285 0.13321863
0.087450616 0.13456555 0.117040716 0.12210785 0.13338396 0.0055697714 0.13824376 0.11195097
0.1388025 0.109875865 0.11963976 0.0030996625 0.11077724 0.07238363 0.10191471 0.09691869
0.09774708 0.107650265 0.09072546 0.0856646 0.16852924 0.13632827 0.112360366 0.11002949
0.09613019 0.106360056 0.07961216 0.097760096 0.1014733 0.10254866 0.1297637 0.12851618
0.113520935 0.10237768 0.115768746 0.08135002 0.09674036 0.099077985 0.114367 0.09955762
0.119279295 0.096456006 0.112134285 0.0761759 0.10848228 0.11642881 0.124782674 0.10574582
0.1363226 0.1288716 0.11362096 0.07520371 0.09566112 0.104160786 0.09646271 0.12157314
0.1304932 0.109419085 0.09467266 0.09688679 0.11198791 0.102284566 0.10951685 0.095284335
0.13643716 0.12407456 0.12231628 0.120453924 0.09765747 0.12988812 0.1287856 0.11025088
0.09762604 0.11918002 0.12756622 0.11266141 0.116089255 0.00064668566 0.1104563 0.0901053
0.12220456 0.1289681 0.13304263 0.10778789 0.093915984 0.110485174 0.10787834 0.10494127
0.002673513 0.1254963 0.08224819 0.111572295 0.104022935 0.11573555 0.11207963 0.1282944
0.098752856 0.000822328 0.12307816 0.10629352 0.104544036 0.11231162 0.12408815 0.114998974
0.10658059 0.08806229 6.988343e-05 0.11890661 0.11221893 0.08058245 0.1415284 0.109703936
0.12552902 0.10835317 0.090729184 0.09796592 0.12731329 0.13956392 0.122205 0.001560171
0.11074732 0.14183953 0.08720659 0.1273101 0.08771737 0.09084632 0.11912338 0.104954384
0.07673177 0.10115469 0.0013585412 0.1268624 0.1226552 0.0912282 0.11761505 0.1194771
0.09425984 0.11864301 0.10947905 0.116621435 0.11668558 0.14088154 0.1503711 0.11997708
0.11162345 0.18392493 0.13795733 0.10247326 0.093990244 0.14702484 0.094781436 0.093602985

decoderlayers.0.weight f4 [200, 30]
00000000: f4ce 24bd 1b59 e0bc 874e 033e 6bc7 5ebc
00000010: 9685 2dbe e72f 0bbe b7a2 2cbe 8beb fa3d
00000020: 60ea 8fbc 0903 8bbd 3d87 5c3c ebb8 00be
00000030: 6bcf fdbd 60f0 e93d 2f41 3bbe ab84 1f3c
00000040: eaf3 0cbd c323 0ebe eed8 243d 57ef 02be
00000050: 872a 933b cf54 c23d 5a95 033e 36a3 2f3d
00000060: e79a bd3d 82a2 363e dad0 22bc 4b3f 12be
00000070: 2349 07be 6811 9a3d 2c70 cbbd 8984 3e3e
00000080: 79f1 c2bd c18a 5fbd 12f0 fe3d 349b 693d
00000090: 4154 da3d f829 f3bd 92d8 813b 764e ad3d
000000a0: 6f95 25bd 15b2 223d ec29 abbd f039 f2bd
000000b0: 97b6 193e 7b51 963d 1855 123d 83a1 1dbe
000000c0: 1548 69bb 8fe5 1f3d b2ae 3fbe 2bd3 eb3d
000000d0: f687 553e edfa 90bb a123 b6bd f5b3 03be
000000e0: 1dc1 2bbd 964b cd3d 1bec f0bd 2c9c f6bd
000000f0: a0a1 b33d d7de 64bd d536 cb3d 7efa 993d
00000100: 4854 ab3d ae88 d53d 22ec 833d de3e c23d
00000110: cb75 acbc f0d8 93bd 8622 05be 41ac 6dbd
00000120: a372 893d a158 d6bc aeda 533e 73f8 a23c
00000130: 9a85 893d aa0a 183e fba6 08be e14e 3b3e
00000140: bdee 09be 00da 2dbe a75e 6abd ad82 b3bd
00000150: 0735 29bd 40cc 5c3d 58e7 6e3d 88d3 e53d
00000160: 4ae1 67bd a546 b0bd 12a6 17bd 0761 03be
00000170: 5db0 133e f48d 973d 025d a43d 4264 1abe
00000180: a214 8f3d 381d b83d 5a2a 293d 59f6 0fbd
00000190: 3de6 82bc 1446 ccbd 2680 0d3e a3e2 333e
000001a0: 0808 063e 79ed ce3d a677 bc3d 816f 3a3d
000001b0: abe3 25bc dff8 99bd 2863 1c3e ce68 ef3c
000001c0: 0d4a a5bc 8146 f9bd 6c31 34be 3f4d ce3d
000001d0: c476 a339 3951 dcbd e4bb a63d 7e55 6f3d
000001e0: 9f9d a1bd c9e0 4e3d 0211 81bd 2f18 193e
000001f0: 7b0a 103d 9611 013e b3ed 4dbd 2846 b83d
00000200: 5a1e 0ebc 4e39 4dbe 70ee 0dbe 8c81 143a
00000210: b306 18bd 548d 26be 52e3 c73b e33c 34be
00000220: 6de5 eabd 86e4 f7bd df9a 6dbd 2930 e73d
00000230: a85f d93d 6f2d d93d 1bac 0fbe cdf5 043b
00000240: e0fd d5bd 197e a2bd d9eb 9d3d 3166 f4bd
00000250: 91f9 19bd 39e8 86bd 7b8b 03be 3d4e 07be
00000260: ac45 1ebe 7620 1e3e 9882 9bbd 7d37 233d
00000270: 6950 3d3d 772a 16be 039f 213e 072e 453d
00000280: 257f 0d3c 484c 4d3e e1c1 05be 7482 b63d
00000290: 1d6e cfbd c8b9 f8bd 7623 a8bd 1250 27be
000002a0: 4cff 22be de37 6dbd db4a bcbd bc7a 2f3d
000002b0: 7faa 88bd cc6f 263e 8fc2 dfbd 0b08 d63d
000002c0: 16f3 40bc 86a1 9ebb 2a06 253d 927a d6bd
000002d0: f031 c8bd a47e a03d 100e bf3d 8588 2cbe
000002e0: 4762 08be e95b cebc f094 e0bc e2ad 48bd
000002f0: 0303 ee3d 2abf fd3d e1f5 ef3d 8a1d c93d
00000300: 1967 16be 1069 4ebd acde 03be 8f27 ee3c
00000310: 4dcb 34bc b65c 173e f424 3bbe ba9c abbc
00000320: 905b 133e 2e6b 80bd d045 8dbd 52b9 adbd
00000330: 7f7c cc3d 7ad2 ccbc d570 cfbd ad37 4cbd
00000340: 0e9b 0ebe 3a9f 233e 1c41 053e 8dd9 27be
00000350: c56d 213e c88a e4bd 1dfb d63c 8b28 9cbc
00000360: 33bb 95bd b2e8 003e 3ec0 ba3d af76 323d
00000370: e2eb 4e3d 0d2e 183e ca7d a7bd 1000 5eba
00000380: a1fe 5c3d 4c74 a6bd a801 2fbe c717 25bd
00000390: 6cec 78bd f3e9 5fbd a20b 48be e225 35be
000003a0: a5e3 06be a2d6 013e 3889 a2bc d40e b4bc
000003b0: 0479 8abd 3118 50be 3c18 413e 02b3 6a3d
000003c0: e3a9 febd 9692 8c3c 2350 ebbd caba 9d3d
000003d0: 7395 9d3d 0f66 25be d6b3 0ebe 40b2 6b3d
000003e0: 54fb 9abd f5f0 02bd d3a8 643e 819c c53c
000003f0: 9b82 d83d 666c 883d 7851 90bd dc6a 6d3d
-0.04023643 -0.027386239 0.12822925 -0.01359735 -0.1694549 -0.13592492 -0.16858946 0.122519575
-0.017567813 -0.06787688 0.013459978 -0.1257054 -0.123930775 0.11422801 -0.18286584 0.00973622
-0.034412302 -0.1388083 0.040245943 -0.12786613 0.0044911536 0.09488832 0.12849942 0.04288026
0.09258061 0.1783543 -0.009937489 -0.14281957 -0.13211493 0.07522851 -0.099335045 0.18605246
-0.095187135 -0.054575685 0.124481335 0.05703278 0.106606014 -0.11873239 0.003962585 0.08462231
-0.040425714 0.039720614 -0.08357605 -0.11827457 0.15011059 0.0733976 0.035725683 -0.15393643
-0.0035595943 0.039037284 -0.18718985 0.115148865 0.20852646 -0.004424444 -0.088935144 -0.12861617
-0.041932214 0.100241825 -0.117637835 -0.12041506 0.08771062 -0.05587658 0.09922568 0.07518481
0.08365685 0.1042646 0.06441523 0.09484647 -0.021052262 -0.07219112 -0.13001451 -0.058025602
0.06711318 -0.026165308 0.20688888 0.01989386 0.067149356 0.14847818 -0.13344948 0.18291809
-0.13469978 -0.16977692 -0.057219174 -0.08765159 -0.041310336 0.053905725 0.058326095 0.11221987
-0.056611337 -0.086072244 -0.03702361 -0.12829982 0.14422746 0.07400122 0.08025552 -0.15077308
0.06986357 0.08989948 0.041300155 -0.035147045 -0.015978927 -0.09974304 0.13818416 0.17566924
0.13089001 0.10103888 0.09202509 0.045516495 -0.010125081 -0.075181715 0.152722 0.02922478
-0.020176912 -0.12171651 -0.17596978 0.10073327 0.0003117827 -0.107576795 0.08141306 0.05843114
-0.07891392 0.05050734 -0.06302072 0.14950632 0.035166245 0.12604365 -0.050275516 0.08997756
-0.008674229 -0.20041391 -0.13860488 0.0005665056 -0.037115764 -0.1626485 0.0061000967 -0.17601351
-0.11469541 -0.12104134 -0.058009025 0.11288483 0.10613948 0.10604369 -0.14030497 0.002028811
-0.104488134 -0.079342075 0.07711 -0.11933554 -0.03759152 -0.06587262 -0.12846176 -0.1321344
-0.15456265 0.1544207 -0.07593268 0.03984784 0.046219263 -0.14664637 0.15783314 0.0481396
0.008636271 0.2004863 -0.1306224 0.08911601 -0.10128424 -0.1214481 -0.08209889 -0.16339138
-0.159177 -0.057914607 -0.09193965 0.042841658 -0.066731445 0.16253585 -0.10925781 0.10450753
-0.011776706 -0.0048410324 0.04028908 -0.10472597 -0.0977515 0.07836655 0.09328854 -0.16848953
-0.1331874 -0.02519031 -0.027414769 -0.048993953 0.11621668 0.12389977 0.117168196 0.09820087
-0.14687766 -0.050393164 -0.12877911 0.029071597 -0.011034799 0.1478146 -0.18275815 -0.020948756
0.14390397 -0.06270443 -0.06898081 -0.08482613 0.09984683 -0.025002707 -0.10128943 -0.049857784
-0.13926336 0.15978709 0.13013119 -0.16391583 0.1576453 -0.11159283 0.026242787 -0.019062301
-0.07311096 0.12588766 0.091186985 0.043570217 0.050517924 0.14861317 -0.08178289 -0.0008468637
0.05395377 -0.081276506 -0.17090476 -0.04030588 -0.060772344 -0.05466647 -0.19535688 -0.17690232
-0.13172777 0.12679532 -0.019840822 -0.021979727 -0.06761363 -0.20321728 0.18856901 0.05729962
-0.12434747 0.017159741 -0.11489894 0.07701643 0.07694521 -0.16152214 -0.1393579 0.05754304
-0.07567468 -0.031968076 0.22330026 0.024122478 0.10571786 0.066613 -0.07046789 0.057963237

decoderlayers.0.bias f4 [200]
00000000: 65be a83c fb30 3f3e 5c76 443e 0831 103e
00000010: 159c c03d 6003 8c3e 80f2 9b3c d0da c53d
00000020: fccf 183e 67a9 92bd 6e9d 823d 840c e33d
00000030: d6b7 093d a297 683e fc3d 6a3d 4de7 3c3e
00000040: 74da 373d 67ce a03d 312e 243e 8e8b 4e3e
00000050: f5bc e83d 3fed ac3d 65d9 6c3e 9f0b 8f3d
00000060: 9f8a 923c e969 473d a775 813e 1b75 3e3d
00000070: d594 91bd 6225 67bd a631 1a3e 45bf 843d
00000080: dfda 023e d7f8 323e 36d7 323d 21e5 203e
00000090: 488a 1a3e 6d26 123d 05b8 a7bd cef8 123e
000000a0: e37d 21bd 8153 533c 4cd6 51bb 8bf8 7a3d
000000b0: 0d42 2e3e c576 1a3e 2819 b83d 35b9 453e
000000c0: 992d 353c 6b83 773e 9f66 1a3c 764a a73d
000000d0: 3ada 3b3e da05 abbc 0d6f 8a3b d380 8fbd
000000e0: 4e78 5d3e 968b 03bd 1681 543e 3c18 573e
000000f0: 6fe2 06be 66f5 8b3d 19fb 313e aec9 133e
00000100: 8089 833d 0d5f 0dbd 27c8 2b3e b18a 113e
00000110: 713f 523b 93f3 753e c73e 003e ecc0 073d
00000120: de2d 52bd 5c6e 9f3d 2783 613e 20ec 893e
00000130: b908 b73d fa26 3c3d f8e3 d83b 06ae 973e
00000140: 7d37 023e dffa 5d3e 009f 2bbd df43 123c
00000150: 8c6d 2d3e 167b da3d c609 a73d ad02 143d
00000160: c05a df3d c6c7 5fbd a37e 113e a2ba 3bbd
00000170: 2aa6 3b3d bb34 f03d 342b c0bd d9dd be3b
00000180: c362 36bd c032 323d 5ed7 093e 16d4 ab3d
00000190: 4a79 143e 3a82 df3c 39f8 833c 8ad3 133e
000001a0: fca7 4a3e fa70 93bd cd2b 403e 7820 313c
000001b0: 502a c0bc 74cf fc3d 6ab5 a6bc 56f3 f63b
000001c0: ce05 033e 51c1 72bd 8420 a0bc 0665 8b3d
000001d0: 1a52 4abd cfb0 883e 1446 bfbc 6a77 6dbd
000001e0: 0d1a 7fbc 7e06 243e cf58 d73d 1e88 753e
000001f0: 42d0 613e 8bcf b13d 45f0 47bd 1e1e 3c3e
00000200: 53da b6bb 8f88 253e bc98 0d3d f99a 6e3e
00000210: 1c50 cc3d 00b9 123e b0a1 893e f205 15bc
00000220: 16d8 933d e7b4 febb e315 23bd 88e8 a73d
00000230: c984 adbd ec02 72bd 0206 323e 3b49 a33d
00000240: e643 d43c ae4f 3f3e a6f4 443e 3332 f73d
00000250: 1ac3 263e c91c 4bbd 104c 1d3d 8891 bf3c
00000260: 71eb c4bc 2910 943d 799a 57bd 6fe3 a4bd
00000270: 885d 583e e3e0 c03b 8531 9d3d f9c0 c6bd
00000280: 58f9 7f3c fc5a 7a3d ffdc d4bc d8d7 1d3e
00000290: 26c9 2b3e 2d23 f03d face 4d3e 30f6 b0bc
000002a0: 85f0 7e3e c20a 37bb 87ad 343e 4cf5 ef3d
000002b0: 65e6 233e 248f 6f3e d1ed 91bd c77d 613e
000002c0: b80b 383b a74a 823d 0694 16bd 3609 7e3d
000002d0: 1c8f 273e 804b 093e 0a97 d0bc 8dbc 33bc
000002e0: 49fb 073d c3dc 623e 89c9 b3bc 6dfd bbbd
000002f0: fb5f 413e abe7 183e 4d44 573e 531e 233e
00000300: 5f59 833e 39f0 64bc dd23 d1bc c58a 783e
00000310: ccd1 cf3d 1257 e13d 26d9 59bd f06e 193e
0.0205986 0.18671028 0.19185776 0.14081204 0.0940477 0.27346325 0.019036531 0.09660876
0.1492309 -0.07161217 0.063776836 0.110863715 0.033622585 0.22714093 0.05718802 0.18447609
0.044886068 0.07851868 0.16033246 0.20170423 0.11364166 0.084436886 0.23129804 0.069846384
0.017888365 0.04868499 0.25285074 0.0464984 -0.071084656 -0.056432135 0.15058002 0.06481794
0.12778805 0.17477737 0.043662272 0.15712406 0.15091813 0.035681177 -0.08189396 0.14352724
-0.039426696 0.012898327 -0.00320186 0.061272185 0.17017384 0.1508437 0.08989173 0.19308932
0.011058235 0.24171226 0.009423881 0.08168499 0.18344966 -0.020876814 0.004224664 -0.07006993
0.21627924 -0.03211554 0.20752367 0.21005338 -0.13172315 0.068339154 0.17380942 0.14432403
0.064227104 -0.034514476 0.16775571 0.14213063 0.003208127 0.24018697 0.12523948 0.03314297
-0.051313274 0.07784721 0.22022687 0.26937962 0.089372106 0.04593561 0.006618973 0.29624957
0.1271648 0.21677731 -0.04189968 0.008927315 0.1693632 0.10668008 0.08156161 0.036135364
0.10905981 -0.05463388 0.14208464 -0.045832284 0.045812763 0.117288075 -0.0938324 0.005824786
-0.04452778 0.04350543 0.13461062 0.083900616 0.14499393 0.027283777 0.016109573 0.14436164
0.19790643 -0.07199283 0.18766709 0.010810964 -0.023457676 0.12344256 -0.020350177 0.007536332
0.12795183 -0.059266392 -0.019546755 0.06806378 -0.049394704 0.26697394 -0.023348846 -0.05797521
-0.015570176 0.16018102 0.10514986 0.23977706 0.220521 0.08682164 -0.048813123 0.18370864
-0.0055802255 0.16165374 0.034569487 0.23301305 0.09976217 0.14328384 0.2688117 -0.009095656
0.072189495 -0.00777303 -0.039815795 0.08198649 -0.084725924 -0.059084818 0.17385104 0.07972952
0.025911283 0.18682739 0.19233951 0.120701216 0.16285363 -0.049588 0.038402617 0.023384824
-0.024038048 0.07229645 -0.05263755 -0.08051192 0.2112943 0.0058861836 0.07675461 -0.09704775
0.015623413 0.061121926 -0.025984285 0.15414369 0.16775951 0.11725459 0.20098487 -0.021601766
0.24896438 -0.0027929996 0.1764432 0.117167085 0.16005857 0.23394448 -0.07125438 0.22020636
0.0028083157 0.06361895 -0.03676226 0.062020503 0.16363186 0.13407707 -0.025462646 -0.010970247
0.03319863 0.22154526 -0.021946685 -0.091791965 0.1888427 0.14932124 0.21022148 0.15929537
0.25654122 -0.013973289 -0.025529796 0.24271686 0.101474375 0.110029355 -0.053185605 0.14983726

decodernorms.0.weight f4 [200]
00000000: 632e 843f e0d6 863f a436 863f 07d0 813f
00000010: 158d 823f ac23 883f 295d 893f 96f1 843f
00000020: a47c 8b3f 0da7 853f cef8 853f 2381 893f
00000030: ba82 863f 418f 843f 0b3a 813f d7e9 853f
00000040: 24fc 843f 3d43 863f 580d 843f a72c 863f
00000050: e5e9 8c3f 352d 853f 2971 823f e043 853f
00000060: 5955 7b3f f93e 813f a1cb 813f a067 883f
00000070: f59e 843f ae31 853f ed5e 883f 1773 833f
00000080: dc40 833f e969 883f 3b67 833f b2d5 853f
00000090: f0ca 843f 3ac4 863f e0dc 863f 4ae5 833f
000000a0: 4ee9 823f c6a2 833f a8e9 833f aa65 823f
000000b0: 6c36 853f 940d 813f 6c7f 883f 4bc3 833f
000000c0: 2eed 7f3f 78f2 843f 789d 823f 4eaf 813f
000000d0: a52c 8a3f 7ac3 823f ce17 873f 61f4 823f
000000e0: dec7 893f 14e8 8b3f caad 8a3f d164 893f
000000f0: aec5 843f cd13 873f 1fb5 803f 0eb3 863f
00000100: 016c 873f 83d6 833f 6a12 873f 460b 873f
00000110: ebff 803f c7a2 853f 839f 883f d06f 843f
00000120: 3f34 883f 8ab8 863f 397a 853f c2d0 8a3f
00000130: b677 863f a190 843f 5f97 853f ab39 873f
00000140: acfa 873f aca4 873f 2d9b 873f 5039 873f
00000150: b0f2 843f 2da2 873f 8360 853f b3ae 833f
00000160: 20eb 883f a9d1 843f ef62 863f 7c14 813f
00000170: 1523 863f 17f6 8d3f 19e2 883f 4341 813f
00000180: a890 833f f692 843f d544 823f 18bc 833f
00000190: ea44 843f 8f78 7d3f 9f04 863f 8f4b 863f
000001a0: 6ef9 803f 8bba 823f 0f86 803f 3f17 8a3f
000001b0: 67c0 7f3f 5df4 833f bff4 853f 91d5 873f
000001c0: 9a88 853f 6e8d 823f 9ad2 8a3f 8e89 843f
000001d0: 7dca 853f 3938 833f 4e8a 873f f48e 803f
000001e0: 6ea8 853f 389f 7f3f 6890 863f aa3d 853f
000001f0: 48fe 823f 6670 843f c90f 883f b509 8c3f
00000200: e781 803f 69e0 863f a63f 833f 0c0e 853f
00000210: 1abe 833f e22c 873f b286 873f 7e97 873f
00000220: 7f75 883f 5019 883f 8cb0 863f ac8a 873f
00000230: b2f0 813f 4f68 833f f895 863f 249e 873f
00000240: 5ce0 883f 8ab6 833f e05a 8b3f 6212 8a3f
00000250: 00ac 8a3f d985 873f 135e 873f 34e9 863f
00000260: 7e41 853f d726 833f c79d 863f ba43 843f
00000270: 6094 813f a9c9 813f c1ae 823f 893d 853f
00000280: 9423 823f 8088 893f d9c7 833f 150b 893f
00000290: e02d 833f e347 893f 9038 843f 5aa5 803f
000002a0: d5bf 863f e682 833f cddc 8a3f cc79 8b3f
000002b0: 6392 873f ce1f 823f 2d12 883f 5c64 853f
000002c0: 4673 873f faaa 893f df59 843f 140c 883f
000002d0: 21bd 823f c19f 853f 1b48 823f dfda 833f
000002e0: d0de 883f 28d0 8b3f 4ec9 813f 7cbf 863f
000002f0: 7fe8 883f 7c6b 883f 6a4f 833f 642c 853f
00000300: 06cd 863f 2f94 883f a556 793f 62ce 813f
00000310: cb6e 843f 4183 883f 2bbc 833f ca4c 8c3f
1.0326656 1.0534325 1.0485425 1.014161 1.0199305 1.0635886 1.0731555 1.0386226
1.0897412 1.0441605 1.0466554 1.0742534 1.0508645 1.0356218 1.0095838 1.0461987
1.0389447 1.048927 1.0316572 1.0482377 1.1008879 1.0404421 1.0190784 1.0411339
0.98177105 1.0097343 1.0140268 1.0656624 1.036101 1.0405786 1.0653969 1.0269498
1.0254169 1.0657321 1.0265878 1.045584 1.0374432 1.0528634 1.0536156 1.0304348
1.0227449 1.028405 1.0305681 1.0187275 1.0407233 1.0082269 1.0663886 1.0293974
0.9997128 1.0386496 1.0204306 1.0131624 1.0794874 1.0215905 1.055414 1.0230829
1.076412 1.09302 1.0834286 1.0733892 1.0372827 1.0552918 1.0055274 1.0523393
1.0579835 1.0299839 1.0552495 1.0550315 1.00781 1.0440301 1.0673679 1.0346622
1.0640944 1.0525067 1.0427924 1.0844958 1.0505283 1.0356637 1.043682 1.0564474
1.0623374 1.0597129 1.0594231 1.0564365 1.0386562 1.0596367 1.0420078 1.0287689
1.0696754 1.0376483 1.0498942 1.0084376 1.0479456 1.1090726 1.0694 1.0098041
1.027852 1.0357349 1.0177256 1.0291777 1.0333531 0.9901208 1.047016 1.0491809
1.007612 1.0213178 1.0040911 1.0788344 0.9990296 1.0308949 1.0465316 1.061205
1.0432312 1.0199411 1.084552 1.0354478 1.045242 1.0251533 1.0589082 1.0043626
1.0442026 0.99852324 1.0512819 1.0409443 1.023385 1.0346801 1.0629817 1.0940462
1.0039643 1.0537235 1.0253799 1.0394912 1.0292389 1.0560572 1.0587981 1.0593107
1.0660857 1.0632725 1.0522628 1.0589194 1.0151579 1.0266207 1.0514517 1.0595136
1.0693469 1.0290082 1.0887108 1.078686 1.083374 1.0587722 1.0575584 1.0539918
1.0410612 1.0246228 1.05169 1.0333169 1.0123405 1.0139667 1.0209581 1.0409404
1.0167108 1.0744781 1.0295364 1.0706507 1.0248375 1.0725063 1.0329762 1.0050461
1.0527292 1.0274322 1.0848633 1.0896544 1.0591549 1.0165956 1.0630547 1.0421252
1.0582054 1.0755303 1.0339926 1.0628686 1.0213968 1.0439378 1.0178255 1.0301169
1.0692997 1.0922899 1.0139558 1.0527186 1.0695952 1.0657802 1.025861 1.0404172
1.0531318 1.0670222 0.97397834 1.0141108 1.0346311 1.0665056 1.0291799 1.0960934
