tutorial/interim_data_test/models/model_8_0.pt (torch, 14357 bytes, 18 tensors)

encoderlayers.0.weight f4 [12, 70]
000000 63 df b9 bc 10 7e 30 3e b6 47 d8 3a 9a 64 3c bd
       -0.022689527 0.17235589 0.0016500864 -0.04599438
000010 d1 a1 2b 3d 75 05 c1 3c 95 e9 0a 3e ce d0 39 be
       0.041902367 0.023562172 0.13565667 -0.18146059
000020 c0 71 11 bd 26 40 bc bd c8 31 91 bd 02 53 8c 3b
       -0.03550887 -0.09191923 -0.07089573 0.0042823562
000030 82 47 99 3d 1a 7e e6 3d 49 37 ca 3d c5 99 48 3d
       0.07484342 0.11254521 0.09873826 0.04897477
000040 28 7d 7e 3b fe ea 40 3d 25 59 a9 3d e6 5b c8 3c
       0.0038831923 0.047099106 0.08268956 0.024457883
000050 30 38 e3 bd fa 33 75 bd 32 c1 8f 3d 0d 7a 88 bc
       -0.11094701 -0.05986402 0.07019271 -0.01665976
000060 bb 86 de 3d 62 97 3e bd 64 20 8f ba dd dc 69 3d
       0.108655415 -0.04653109 -0.0010919687 0.057095397
000070 7c 3d df 3d 0d 90 dc 3d b2 e3 4b 3d 1c d1 58 bd
       0.10900399 0.10769663 0.049777694 -0.052933797
000080 b7 4b 81 bd 57 f6 24 3c 93 aa e7 3d c7 70 9d bd
       -0.063132696 0.010068498 0.11311831 -0.07687526
000090 e1 6e 5b bc 21 1b af 3d 35 fc c5 bd 6e 42 8a bb
       -0.013393135 0.08550096 -0.09667245 -0.004219345
0000a0 b7 74 88 bd ce c8 bd 3d 63 96 2b bc 0f ab 83 bd
       -0.066628866 0.09266816 -0.010472867 -0.06429111
0000b0 5f ca 9b bd 81 d9 2f bd bd 57 81 3d 85 14 82 bd
       -0.076069586 -0.042932037 0.06315563 -0.0635157
0000c0 4c 3a e8 bd ee b3 1d 3c ea 5f a7 bd 2d c1 2a 3d
       -0.11339244 0.009625418 -0.08172591 0.041688133
0000d0 6f 66 78 bd a9 d1 b1 bd e3 84 70 bd 41 3c 8c bd
       -0.060644563 -0.086825676 -0.05872048 -0.0684743
0000e0 de 1a 5e 3d 8b 7e 90 3a 61 c5 ea 3c 48 27 aa 3d
       0.05422484 0.0011024041 0.02865857 0.083082736
0000f0 55 da b3 bd 50 72 a1 3d d1 89 04 3d 78 7a b8 3d
       -0.08781878 0.078831315 0.032357994 0.09007734
000100 0c 9b b1 bd 05 58 39 bc 77 0f e8 bd ee 93 37 3d
       -0.08672151 -0.011312489 -0.11331075 0.04481881
000110 7a 21 07 3d e0 3f 65 bd e8 2a b7 3d 46 c0 a0 3d
       0.03299091 -0.05596912 0.089437306 0.07849173
000120 45 3f fe bd c9 52 23 3d 26 bf e7 bc 82 03 de 3d
       -0.124144115 0.039873872 -0.028289389 0.10840513
000130 6f c8 55 3e 81 9f 77 3c 34 e7 8c 3d 7c 36 e5 bd
       0.2087724 0.015113712 0.06880036 -0.11192033
000140 a4 9c 97 bd 17 76 48 bc 69 04 80 3d 07 26 c9 3d
       -0.07402924 -0.012235186 0.06250841 0.09821706
000150 54 12 ae bb 04 8b 4a 3a dd 13 80 3d 66 cb a5 3d
       -0.0053122435 0.00077264034 0.062537886 0.08095436
000160 91 a6 b8 3d c4 14 93 3b 0a 5f 07 bd 1f 29 3c 3d
       0.09016145 0.0044885594 -0.03304962 0.045937654
000170 6c fb 9b bd 10 0b d5 3c 0a ee f6 3c eb cd 1d bb
       -0.07616314 0.026006252 0.030142803 -0.0024079036
000180 70 5c 11 3d 6c 67 b2 3c 8a 38 3f 3d 34 10 d6 bb
       0.035488546 0.021777831 0.04668478 -0.0065326933
000190 0a a1 72 bb 7d b7 6a 3d 80 5a d3 3b 44 2a 04 3d
       -0.0037022256 0.057303894 0.0064499974 0.03226687
0001a0 f4 92 10 bd bd 97 b6 3d da 7b 99 3d 7c 34 73 3d
       -0.035296395 0.089156605 0.07494326 0.059376225
0001b0 ba d5 9e bd d4 8e dc bd 15 10 90 3d 11 7d 2c bd
       -0.07755609 -0.1076943 0.070343174 -0.04211146
0001c0 d9 9f 5e bc 31 44 e8 bd a4 de aa bd 4b 03 d8 bd
       -0.013587915 -0.113411315 -0.083432466 -0.10547503
0001d0 29 db 07 3b 4f e9 77 3c 58 e5 29 3c 48 f0 13 3d
       0.0020729995 0.015131309 0.010369621 0.036117822
0001e0 d1 9e 67 3c de ac 0c 3d 16 b3 30 bd 61 17 0f bd
       0.014136986 0.034344546 -0.04313954 -0.034934405
0001f0 1c 98 46 3d 87 10 c4 3b 23 50 0f be 45 39 81 3c
       0.048484907 0.0059834155 -0.13995413 0.015774379
000200 92 d4 96 3d fb e2 70 bd 58 cf 08 be 2c e2 10 3d
       0.07364763 -0.058810215 -0.13360345 0.035371944
000210 fb 60 90 3d ad b2 d4 3b 51 b3 42 3d 19 4c 9d 3c
       0.070497476 0.0064910264 0.04753429 0.019201325
000220 ce a3 59 3d 69 12 d3 bd 8c de 94 3b 31 c7 bd bc
       0.053134732 -0.10306246 0.004543131 -0.02316627
000230 12 04 da bb 33 90 df 3d 12 10 7d 3d 86 7f 9f bd
       -0.0066533173 0.10916176 0.061782904 -0.07787995
000240 67 d2 c5 bd 55 47 17 3d ce c0 50 3e 9b a0 2e be
       -0.09659272 0.036933262 0.20386049 -0.17053454
000250 bc 90 65 3e 59 80 a2 bd 8a a7 cd 3b a6 d9 8c 3d
       0.22418493 -0.079346366 0.0062760757 0.06877451
000260 f4 98 3c 3d 2d 0f cb bb 5e 27 f2 3d 01 7d d2 3d
       0.046044305 -0.0061968775 0.11823915 0.10277749
000270 2b 50 84 bc 23 48 8e 3b 3b c6 4b 3d 10 a9 04 3c
       -0.016151508 0.0043420955 0.049749594 0.008096948
000280 45 5d 62 3c 0b 47 6b 3d ec ff a7 bd b9 b1 70 bc
       0.0138161825 0.0574408 -0.0820311 -0.01469081
000290 fc d3 2b 3d e9 31 7c 3d d7 28 8f 3d fb e7 2f bd
       0.04195021 0.061571036 0.069902115 -0.042945843
0002a0 ed e3 9b bd 09 cc 73 3b 27 89 41 3b 8c 15 c8 3d
       -0.07611833 0.0037200472 0.0029531212 0.09769735
0002b0 fe 2f 59 bd 64 61 25 bd ea 8c aa bd 19 61 8e bd
       -0.053024285 -0.040376082 -0.083276585 -0.06952114
0002c0 e9 b2 8a 3d 23 fa 4c 3d 1e 1f 32 bd ef e4 68 3c
       0.06772406 0.050043236 -0.043486707 0.014214738
0002d0 c5 75 5f 3d ff a5 fa 3d f9 84 9f bd f5 9c 90 3c
       0.054555673 0.122386925 -0.077890344 0.017652968
0002e0 7b a4 bc 3b 5d a5 a7 bd 2c 47 b7 3d 39 1d 1e 3d
       0.0057569123 -0.081858374 0.08949122 0.038602088
0002f0 e5 b3 c1 bd 21 9c 61 3c b8 85 bb bd f2 ab 3e 3d
       -0.0945814 0.013770134 -0.09156364 0.0465507
000300 e3 ec cb bc dc fd e0 3b 6c b9 bb bc d3 2a f3 3c
       -0.02489323 0.0068662 -0.022915564 0.029683506
000310 30 30 f3 3c 29 67 80 bc d7 0e 85 bd c5 0a 5f 3c
       0.029686064 -0.01567419 -0.06496971 0.0136134075
000320 2b b2 28 3d 55 99 05 3d a1 28 7f bd 61 cf a1 bd
       0.04118554 0.032616932 -0.062294606 -0.079008825
000330 0c 91 90 bd c7 48 3f 3d 39 c7 65 3d 4f ba 3a 3a
       -0.070589155 0.046700265 0.056098197 0.0007123099
000340 11 fe ee bd d7 59 fd 3c b0 13 14 3d 55 30 ee 3c
       -0.11669553 0.030926628 0.036151588 0.02907578
000350 03 f6 72 bd 78 57 65 3d 4b 65 d7 3d 3b cb 11 3e
       -0.059316646 0.05599162 0.10517367 0.14237683
000360 5f 84 d0 3d 2f 72 4c be 02 95 bd 3d c3 fd 40 bd
       0.10181498 -0.19965433 0.092569366 -0.047117006
000370 7b 5f 61 bd fd 72 e1 bc 12 ed 8f bd 75 29 c2 3d
       -0.055022698 -0.027520651 -0.070276394 0.094805636
000380 59 35 58 3c 63 a8 17 bd 20 4b 58 bc 1b 76 b5 bd
       0.013196313 -0.03702582 -0.013201505 -0.088604175
000390 8a f6 fe 3c 4b 60 9e ba d8 dc 79 3d aa 6a 81 bd
       0.031123418 -0.0012083141 0.06100163 -0.06319173
0003a0 f7 57 c4 3c 1a d2 ee 3d 9b 6c 5a bc 89 55 d1 3c
       0.023967726 0.116611674 -0.013331558 0.025553482
0003b0 43 b7 60 3d 99 55 06 bd d7 f5 84 bd 5b 62 09 3d
       0.054862272 -0.032796476 -0.06492203 0.033541065
0003c0 8b 66 33 3d eb ad e0 bc bf f6 ba 3b 03 43 a6 bd
       0.043798964 -0.02742668 0.005705684 -0.0811825
0003d0 eb 25 0e 3e 6e 3c cd bc ec 3e e8 bc 25 92 8b 3a
       0.13881652 -0.02505323 -0.028350316 0.0010648413
0003e0 eb f6 63 3c 6f a4 94 bd ab 23 91 3d 5d 50 c5 3c
       0.01391385 -0.07257926 0.07086881 0.024086172
0003f0 39 68 de bc cc e7 9d bc 18 98 01 3e 15 a4 31 3d
       -0.027149307 -0.019275568 0.12655675 0.04336937

encoderlayers.0.bias f4 [12]
000000 f7 68 8f 3d 67 28 7e bd fd e2 3c 3d f9 00 37 3d
       0.07002442 -0.06205025 0.04611491 0.044678662
000010 0e c3 a6 3d ba 99 00 bd 1d 2f be bd 3b 96 da 3c
       0.081426725 -0.031396605 -0.0928633 0.026682964
000020 d0 f7 73 ba 7e a8 83 3d b6 2b c0 3c 61 cc c6 bd
       -0.00093066413 0.06428622 0.023458343 -0.09706951

encodernorms.0.weight f4 [12]
000000 69 7f 91 3f ca 0b 96 3f 17 84 9b 3f 52 21 94 3f
       1.1367007 1.1722348 1.2149686 1.1572669
000010 f8 9e 89 3f 6a ea 95 3f 08 84 84 3f 5f 65 9a 3f
       1.0751638 1.1712162 1.0352793 1.2062186
000020 d8 2f 91 3f 81 26 97 3f 0c 15 97 3f c1 62 76 3f
       1.1342726 1.1808625 1.1803298 0.96244437

encodernorms.0.bias f4 [12]
000000 f9 18 a1 bd 85 0c 87 3b ec 01 60 3d 71 3e 8c bc
       -0.07866091 0.0041213655 0.054689333 -0.017119618
000010 1f b0 f2 bd 24 b5 55 be 16 f6 01 be 0d 9d c4 bd
       -0.11849999 -0.20869881 -0.1269153 -0.096002676
000020 d2 93 8c bd 20 7b 96 bd 0e a3 fc bd a4 56 2c 3d
       -0.06864132 -0.07347703 -0.12335788 0.042074814

encodernorms.0.running_mean f4 [12]
000000 5f 53 a0 3e ca 02 92 3e 94 10 d4 3e 2a ff c4 3e
       0.31313607 0.28517753 0.41418898 0.38475925
000010 69 54 9d 3d a2 8d d1 3e 83 5e 1a 3e 7b a7 a7 3e
       0.076821156 0.4092837 0.15075116 0.32744965
000020 bf 80 c5 3e 37 c3 f4 3e a2 cc 93 3e 0e 16 02 3d
       0.38574788 0.47805187 0.2886706 0.031759314

encodernorms.0.running_var f4 [12]
000000 8d 39 06 3e 48 b6 e5 3d 0e a3 0b 3e f8 0c 22 3e
       0.13107891 0.11216408 0.13636419 0.1582526
000010 45 66 09 3d 3f 44 1d 3e 44 ef 7d 3d 28 91 07 3e
       0.033544797 0.15358065 0.06199576 0.13238966
000020 62 1b 0e 3e a9 9e 1f 3e cd 4c f4 3d 97 cc 80 3c
       0.13877633 0.15587868 0.11928711 0.015722556

decoderlayers.0.weight f4 [12, 8]
000000 e3 37 8c be 9b 5c 9f 3e fe 95 02 3e 27 cb a1 3d
       -0.27386388 0.3112534 0.1275253 0.07900076
000010 ce 0b 70 be bd 52 36 3e e0 bd 83 be a4 7e 21 3d
       -0.23442003 0.17805 -0.257308 0.039427415
000020 18 49 bb 3e 32 51 2c be fe 60 cb 3d 6a c7 3f be
       0.36579204 -0.16827849 0.09930609 -0.18728414
000030 8b ba 77 be 7b 38 bb 3e fc 81 e9 bd da 35 77 be
       -0.24192254 0.3656653 -0.11401746 -0.24141636
000040 85 88 fc 3d 43 ee 91 be f0 4b 21 be 7a bf 9d be
       0.123307265 -0.28502092 -0.15751624 -0.30810148
000050 c0 a4 87 be e4 c3 69 3e 4d bb 8e be 63 3b e9 3c
       -0.26492882 0.22828633 -0.27877274 0.0284707
000060 2e 41 79 be f1 45 fa 3d d0 77 92 3e ad 6c 95 be
       -0.2434127 0.122203715 0.28607035 -0.29184476
000070 c0 26 ef 3c 45 21 3c 3d b9 ac 02 3e fe 2d 89 3e
       0.029193282 0.045930166 0.12761201 0.26792902
000080 f7 28 f0 3d 04 e7 61 be 8a 56 e1 bd 10 cc 1d 3e
       0.117265634 -0.22060782 -0.11002834 0.15409875
000090 07 f3 8e bd 36 02 72 bd 8e da 5f be c3 e0 50 3e
       -0.069799475 -0.05908414 -0.21860716 0.2039824
0000a0 c3 5f 28 be df da 5e 3e 33 77 b4 3e 83 a2 38 3e
       -0.1644278 0.2176318 0.35247192 0.18030743
0000b0 ba cf 98 bd 5a 46 2f 3e d0 02 4e 3e ee 78 08 be
       -0.07461496 0.1711668 0.2011826 -0.13327381
0000c0 fc 10 28 be 57 77 4b bd ca a4 8e 3e 2d de 55 be
       -0.16412729 -0.04967436 0.278601 -0.20885535
0000d0 1b 4e 57 be b2 26 89 be 88 2e 2e 3e eb 8f e2 bd
       -0.21025889 -0.26787335 0.17009938 -0.110626064
0000e0 6c 9b 9d 3d a8 d5 03 be 9d e9 98 be 5f 59 74 be
       0.0769566 -0.12874472 -0.29865733 -0.23862217
0000f0 56 b2 a6 be 23 43 31 3e 3c 28 49 3e 78 5c 6a 3e
       -0.32557935 0.17310767 0.19644254 0.22886837
000100 b8 2c 86 be 76 c1 85 bd 68 dd 49 be 58 a6 df be
       -0.26205993 -0.0653104 -0.19713366 -0.43681598
000110 75 a2 1c 3e b3 12 66 3e 90 a4 fd bd 02 af c6 3d
       0.15296347 0.2246807 -0.123849034 0.09701349
000120 76 96 37 3e 6e 63 1e bd 1e f0 ee bd 22 e6 4e 3d
       0.1792849 -0.038669042 -0.116668925 0.05051244
000130 b6 18 12 3e 86 f5 85 be bf 22 65 3e 2b d8 4e be
       0.14267239 -0.26163882 0.22376536 -0.20199649
000140 59 b3 2f be b1 b0 18 be 25 13 88 be 8c be 8d 3d
       -0.1715826 -0.14911152 -0.26577106 0.069211096
000150 1c a3 98 be ba b4 98 bd 38 ce a2 3e 37 10 0e 3c
       -0.29811943 -0.07456346 0.31797957 0.008670858
000160 ec 9f 8d 3c 9f 59 06 be 94 2a 57 be 0c 87 a4 3e
       0.01728817 -0.13120125 -0.21012336 0.32134283
000170 19 f5 22 be d1 6d c9 be 21 97 a1 3d bb 7f c3 bd
       -0.1591381 -0.39341596 0.07890154 -0.09545847

decoderlayers.0.bias f4 [12]
000000 6a e9 96 3e a9 43 ea 3d f2 52 cc 3d 0c f3 2b be
       0.29474956 0.114386864 0.09976758 -0.16791934
000010 18 60 b0 3e b7 73 ce 3d 8d 3a dc 3d 39 f9 3d 3e
       0.34448314 0.100806646 0.10753355 0.18552102
000020 a8 66 28 3e cf 4f 65 be 81 f4 19 3e 6f 17 12 bd
       0.1644541 -0.22393726 0.15034677 -0.03566688

decodernorms.0.weight f4 [12]
000000 44 ae 48 3f 8c 46 3f 3f b4 4e 45 3f 7b 82 50 3f
       0.7839091 0.7471702 0.77073216 0.814491
000010 a3 c1 50 3f c6 24 47 3f ce 18 4d 3f 38 bd 4c 3f
       0.81545466 0.77790487 0.80115974 0.79976225
000020 bc ad 5e 3f d6 ff 40 3f 4b 5d 53 3f fe 61 54 3f
       0.8698385 0.75390375 0.8256423 0.82962024

decodernorms.0.bias f4 [12]
000000 b9 e9 f0 3d ad 0e c4 bd ba e8 a3 3d 6d 80 bf bd
       0.11763329 -0.09573112 0.080033734 -0.09350667
000010 9b 3d 4c bc 71 df eb bc aa 2d 9a bc 87 58 30 bc
       -0.01246586 -0.028793069 -0.018820602 -0.010763294
000020 aa 90 84 bd 52 d5 2d 3e 91 94 25 bd d0 a1 72 bc
       -0.06472905 0.16975906 -0.040424887 -0.014809087

decodernorms.0.running_mean f4 [12]
000000 d1 e3 1a 3f 4e 77 b4 3e 5a 15 1b 3f ae 67 1b 3f
       0.6050387 0.35247272 0.60579455 0.6070508
000010 53 ce 1d 3f ca b0 db 3e a0 e7 f1 3e 49 e4 07 3f
       0.6164295 0.42908317 0.47247028 0.5308271
000020 b3 3f 37 3f 8d 92 8f 3e bd 10 dc 3e ce 4f e4 3e
       0.7158157 0.28041497 0.4298152 0.44592136

decodernorms.0.running_var f4 [12]
000000 2d 69 08 3f 3a a0 b1 3e 21 6c 2f 3f f6 85 3d 3f
       0.53285486 0.34692556 0.68524367 0.74032533
000010 67 25 27 3f 6b 77 e9 3e 96 52 c6 3e 42 a8 17 3f
       0.65291446 0.4559892 0.38734883 0.59241116
000020 08 10 4c 3f 82 df a2 3e fb ca ec 3e 99 d4 0f 3f
       0.7971196 0.31811148 0.46248612 0.56183773

mu.weight f4 [8, 12]
000000 f6 c0 86 3e 22 5e a6 3c 7f d8 c3 3e ba 6a 9d 3e
       0.26319093 0.020308558 0.3825111 0.30745488
000010 77 46 93 3e 07 20 96 3d 0b ce 1b 3e ad 67 6e be
       0.28764698 0.073303275 0.15215318 -0.23281737
000020 76 ff 7f be 74 46 bf 3e b4 53 85 3c 7c 25 a7 be
       -0.24999794 0.3735844 0.016275264 -0.32645786
000030 21 b0 3d be 6d 86 d0 be 4d bd 49 bd 36 cb 21 be
       -0.18524219 -0.4072756 -0.049252797 -0.15800175
000040 c7 39 a4 be 6d 11 7b 3e 50 03 b6 be 60 fe aa 3e
       -0.3207533 0.24518366 -0.35549402 0.33397198
000050 be e8 22 3e 39 43 99 3d bd de 90 bd 01 65 37 3e
       0.15909097 0.07483525 -0.07073734 0.17909624
000060 4a c2 a4 3b e5 79 d6 be 0a d4 77 bb c7 28 54 be
       0.005028044 -0.41889873 -0.0037815594 -0.2071868
000070 57 a7 31 be fd d9 89 bd cd 39 f6 bd f3 a0 e7 3e
       -0.17348991 -0.06731031 -0.120227434 0.45239982
000080 35 b9 0d 3d 4d 78 c8 bd e3 80 b9 be 40 1e e1 3d
       0.034600455 -0.097885706 -0.36231145 0.10992098
000090 70 70 04 3e f4 19 52 3e dc 5f eb 3e 0a 97 9a 3e
       0.12933517 0.20517713 0.45971572 0.3019336
0000a0 a5 86 31 3e 96 f7 6f 3e 29 37 01 3e 63 9b 2c bd
       0.17336519 0.2343429 0.12618698 -0.042140376
0000b0 12 2c 46 3e 6b e1 ab 3e a4 32 8d 3d ef fc d7 3d
       0.19352749 0.33570418 0.068944246 0.1054629
0000c0 7c 02 cb bd 8b 00 af be 5f fa a5 be 13 04 c8 3d
       -0.09912583 -0.34180102 -0.3241758 0.09766402
0000d0 85 b5 33 bd f8 c3 cd 3e 82 00 57 3e 72 41 d5 bd
       -0.043874282 0.40188575 0.20996287 -0.10412873
0000e0 9f 7c 8a 3e 59 9a 90 3d 64 65 58 3c 99 29 ff 3d
       0.27048203 0.070606895 0.013207767 0.12459106
0000f0 42 bc d3 be b1 36 29 3e be b2 08 be 16 30 b4 be
       -0.41354567 0.1652477 -0.13349435 -0.35192937
000100 36 02 3b 3e f1 4d 80 3e e3 66 e8 3d 5e bf 56 3d
       0.18262562 0.25059465 0.11347749 0.052428596
000110 a6 8b 76 be 2d 6a 8f be 19 db 88 bc 6d 25 65 be
       -0.24076709 -0.28010693 -0.016706036 -0.22377558
000120 2e d6 41 be 82 7e cc 3e 04 27 c7 be d2 31 ad 3e
       -0.1892936 0.39940268 -0.38896954 0.33827072
000130 c9 69 ea 3d a1 c7 39 3d 14 9e 98 be 01 d6 3d 3e
       0.11445958 0.045356397 -0.29808104 0.18538667
000140 1f 2a c7 3e 55 78 db 3c 47 63 a2 be ba 80 bd 3d
       0.38899323 0.026790777 -0.31716368 0.09253068
000150 d0 85 da be 9a e1 2b be 8f 6f 9a bc 1c 6f f8 bd
       -0.42680216 -0.16785279 -0.018852023 -0.121305674
000160 1b df 37 3e 51 c8 cc be ef f6 23 be 0b 04 7f be
       0.17956202 -0.3999658 -0.16012166 -0.24903886
000170 5b 97 8c bd 82 56 80 be 3e 88 82 3e 1f c3 38 3d
       -0.06864806 -0.25066 0.2549457 0.045107957

mu.bias f4 [8]
000000 ef 06 97 be d5 1d 7b be 89 cb 02 3d 0c 85 ec bd
       -0.29497477 -0.24523099 0.031932388 -0.11548814
000010 ca 7f eb 3d 6a 8e fe bd fa 8d e0 bd d4 74 24 3e
       0.11498983 -0.12429507 -0.1096458 0.16060191

var.weight f4 [8, 12]
000000 ab 26 27 3e 13 f8 24 be db f5 40 3e ba c6 e9 3d
       0.16323344 -0.16110258 0.18843786 0.11414857
000010 88 22 9a 3e f8 fd 0c be 9e 95 28 3e f3 0d 1d 3e
       0.3010447 -0.13768756 0.16463324 0.15337352
000020 36 ac 44 3e 45 fb 65 3e e0 88 1a 3e b5 a3 50 3d
       0.19206318 0.22459133 0.15091276 0.050937373
000030 2f 1c 84 bc 94 0f c8 bd f1 6e 5a 3d 22 5f ac bd
       -0.01612672 -0.09768596 0.05332846 -0.08416583
000040 2d 71 cc bd 48 f7 54 be c8 21 8d 3d cc cd 01 be
       -0.09982524 -0.20797455 0.06891209 -0.12676162
000050 0a 2d 44 3e 9d e3 6f 3e 37 94 cf 3c 43 b3 c1 3d
       0.19157806 0.23426671 0.025339229 0.094580196
000060 f1 a6 44 3d 78 f3 16 be aa d1 0f be 1b 19 60 bd
       0.04801077 -0.14741313 -0.14044824 -0.054711442
000070 8a cf 2b be 40 91 ab 3d 99 03 b1 bd 96 3b a9 3d
       -0.16778389 0.083773136 -0.08643264 0.08263318
000080 ba bd 4a be 5e 91 9b 3d 20 f3 fb bc 28 64 49 3c
       -0.19798937 0.07596086 -0.03075558 0.0122919455
000090 b3 7a 73 3d bd 9b 41 3e 57 f4 3f bd 13 65 7c 3d
       0.059443187 0.18907066 -0.04686388 0.06161983
0000a0 bd cc d6 3c 74 27 19 3e 2c db 1f bd f7 0b 17 bd
       0.026220674 0.14956456 -0.039027378 -0.036876645
0000b0 70 5e 1b be b7 b5 59 be 2d 9e 0b 3e 70 35 59 bd
       -0.15172744 -0.21260725 0.13634558 -0.053029478
0000c0 52 a8 b9 bd 40 0c a2 3d 08 83 39 3d 11 ce d4 3d
       -0.09065308 0.07912493 0.045290977 0.103908665
0000d0 72 ee c5 3d d3 ce ee 3d 8d 47 d0 3c 16 05 bf bd
       0.096646205 0.11660542 0.025424743 -0.09327142
0000e0 6f c1 ec 3d 1e 40 25 be f3 b1 c6 bd a2 9b fd bd
       0.11560332 -0.1613774 -0.0970191 -0.123832
0000f0 de 58 7d bd 18 ac ab 3d 04 ea 0d 3d 5b 3f 5e be
       -0.06185233 0.08382434 0.034647003 -0.21703856
000100 e9 89 43 3d 4e 9a 4e 3e 28 c0 4b 3e 89 af 51 3e
       0.047738943 0.2017605 0.1989752 0.20477118
000110 75 f3 d9 3d 5d 2a ab bd e1 fb 56 be 15 52 f9 bd
       0.10642139 -0.083576895 -0.20994522 -0.12173859
000120 94 b5 bf 3b b5 48 6f 3e 01 e5 51 bd 59 a7 ef bc
       0.005850503 0.2336758 -0.051243786 -0.029254602
000130 31 76 b7 3d 99 91 6b 3e 89 e8 81 3e a5 da 09 3e
       0.0895809 0.2300476 0.25372723 0.13462313
000140 f1 5c 57 3d 30 ed 36 3d 47 ca 00 3e 5f 95 9b bd
       0.05257887 0.044659793 0.12577163 -0.0759685
000150 13 e7 2a 3e dd f5 af bc a6 25 62 be 8e 29 b0 3d
       0.1668971 -0.021479541 -0.22084674 0.08601676
000160 ac f9 f2 3d 5f 3c ef 3d 00 d0 45 be e6 da 05 3e
       0.118640274 0.11681437 -0.19317627 0.13071784
000170 19 7f 9c 3d 99 ee f5 3d cb be f7 3d 1d 3e ed 3c
       0.076414295 0.120083995 0.12096938 0.028960282

var.bias f4 [8]
000000 af b3 41 3d 82 3d b0 be c2 2c c9 be 60 ab 81 be
       0.0472905 -0.34421927 -0.3929196 -0.2532606
000010 aa 2a 55 be e0 d2 cf be b6 c4 35 be df 6d aa 3c
       -0.20817056 -0.40590572 -0.1775082 0.020804344

out.weight f4 [70, 12]
000000 bf 40 64 bd 74 ca 49 be 25 a4 58 bc c2 f9 00 3d
       -0.05572581 -0.19706136 -0.013222729 0.031488188
000010 f1 fe 28 3e cf ab d5 3a 34 b3 40 3e d7 1b 2f be
       0.16503502 0.0016301813 0.1881836 -0.17100464
000020 13 4a e5 bc a4 11 21 3e 72 4b ab 3d f2 64 7c be
       -0.027989423 0.15729386 0.083639994 -0.24647883
000030 c8 0f 51 be fb 3c b4 3d 90 40 f5 bc 76 2a 40 be
       -0.20416176 0.088006936 -0.029938012 -0.18766198
000040 06 8d 0d 3e 94 14 ed 3d 4b fa ad 3d f2 d8 b0 bd
       0.13823327 0.115761906 0.08495005 -0.08635129
000050 76 f3 14 3d 75 f2 ae 3d b6 7f 51 be 87 df 57 3d
       0.036364995 0.08542339 -0.20458874 0.052703407
000060 2b 5a a7 3e 0e fe 51 3e 5e e6 31 be ca 1c 94 bd
       0.3268598 0.2050707 -0.17373034 -0.072320536
000070 0d 25 fe 3d ed 81 b7 3c e2 3b 4f 3e 6b 5d 85 bd
       0.124094106 0.02240082 0.20237687 -0.06511959
000080 ae a4 dc 3d 10 fd 2c 3e 01 9e 66 be e8 a8 31 be
       0.10773598 0.1689341 -0.22521211 -0.17349589
000090 fe 95 e8 3d 45 87 4f 3e 61 4a 46 be 62 61 55 3d
       0.11356734 0.20266445 -0.19364311 0.052094825
0000a0 17 aa 37 3e 6f 02 cc 3d c6 2a a2 bd 6d 1c 0e 3e
       0.17935978 0.09961402 -0.07918315 0.13878031
0000b0 99 3c 90 3e b0 70 21 3e 0e b7 97 bd 17 e7 94 bc
       0.28171232 0.15765643 -0.07407962 -0.018176598
0000c0 32 fd 4d be a5 23 1f 3e 95 05 93 bd 9c 11 3f be
       -0.20116118 0.15540941 -0.07178799 -0.18659061
0000d0 ab 25 ec bd c0 ea 92 3c bd 32 08 be fe 07 00 be
       -0.11530622 0.017934203 -0.13300605 -0.12503049
0000e0 ca 93 2f 3e 9d de 56 bb b9 73 f5 bd da a2 cb 3c
       0.17146221 -0.0032786496 -0.11984963 0.024857927
0000f0 19 73 4b be 53 dc 12 bc 01 16 55 3e 05 d4 8e be
       -0.19868125 -0.008963662 0.20809175 -0.27896133
000100 37 ea 26 3e 78 97 f6 bd 3b 32 28 be 1f 18 05 3e
       0.16300283 -0.12040609 -0.16425411 0.12997483
000110 fc 6f fd 3d 6d e1 39 3d 57 7c 4f bd fd 5a 11 3c
       0.12374875 0.045381 -0.05065569 0.008871791
000120 e7 92 6c be 5b 5d ab 38 b8 e7 10 be bb 01 9e be
       -0.23102914 8.171304e-05 -0.14150894 -0.30860695
000130 c7 d7 f0 bd 03 8e 8b 3d 2d 3e 43 be 10 25 49 be
       -0.11759906 0.06814196 -0.19066687 -0.19643044
000140 e3 4b 2b be 77 91 9c 3e da d2 33 3e a4 63 81 3e
       -0.16728167 0.3057973 0.17560902 0.25271332
000150 24 a6 32 bd be e0 72 be 62 12 32 be 94 f2 91 3d
       -0.043615475 -0.23718545 -0.17389825 0.07126346
000160 56 f1 4b 3d cf c7 ad bd bd 85 6c 3e 66 7e ed 3d
       0.049790703 -0.08485376 0.23097892 0.11596374
000170 f8 5e 92 3e 51 a6 51 3d f1 49 8d 3d ed 45 60 be
       0.2858808 0.051184002 0.06898869 -0.21901675
000180 d2 5a 43 bc 9c 93 fa bc 5b de 4a 3e 4a c7 86 3d
       -0.011923509 -0.030587964 0.19811384 0.0658098
000190 67 03 88 3e 75 7e 4e be b1 2f 78 be 5c 6a 28 3e
       0.26565096 -0.20165427 -0.24236943 0.16446823
0001a0 08 74 c4 bc 96 23 c9 3d 6f a5 55 3e d0 81 14 3d
       -0.02398111 0.098212406 0.20863889 0.03625661
0001b0 bc 06 25 3d 65 1c 49 3d 66 d3 10 3e e3 98 8f 3e
       0.040289626 0.049099345 0.14143142 0.2804633
0001c0 5e 79 4c be 29 9d 62 3e ad 95 30 3d 68 ed bd 3d
       -0.19968173 0.22130264 0.043111492 0.09273797
0001d0 bf c1 25 3e cf 15 e9 3b e3 14 c4 3b 16 5a 77 3c
       0.1618719 0.0071131955 0.005983935 0.015097162
0001e0 81 bf 0c 3e 87 6f fb bd 59 96 46 bd 0c 45 85 3d
       0.13744928 -0.122771315 -0.048483226 0.0650731
0001f0 c7 85 6c 3e 97 4b 46 3e 65 a1 23 be b5 06 b0 bd
       0.23097907 0.19364773 -0.15979536 -0.08595029
000200 8e 45 18 be 1d 55 24 3d 4e 1a 0f bc 4a e2 e2 bd
       -0.14870283 0.040120233 -0.008734299 -0.110783175
000210 44 dd 49 3d 96 1a 05 3d 0c e1 b8 3d ed a9 42 be
       0.04928328 0.032496057 0.09027299 -0.19010134
000220 8c 89 b8 3d b4 31 04 3e 74 5a 1c be 16 a7 6b be
       0.0901061 0.12909585 -0.1526888 -0.23012957
000230 a9 4b 7f be b7 b5 47 be 09 2c 14 3e 5f d2 38 bd
       -0.24931206 -0.19502912 0.14469923 -0.0451225
000240 2e 2c ce bd 39 c8 b5 3c a5 d7 77 3e 6b 17 a2 3d
       -0.1006702 0.0221902 0.24203356 0.07914623
000250 2b 83 07 3e a7 59 98 3e 6f ce c7 bc 1c dc 13 bd
       0.1323363 0.297559 -0.024390427 -0.036098585
000260 04 7c 32 3e 7c 11 ae bd 1f 7a 22 3d e6 59 69 be
       0.1743012 -0.08499429 0.039667245 -0.227882
000270 74 66 9e 3c 5b 28 e4 3d 81 25 3a 3e 9a da b9 bd
       0.019335963 0.1114051 0.18178369 -0.09074898
000280 d9 56 d3 bd dd 97 00 3d 21 c5 1e 3e 21 29 c4 3d
       -0.10319299 0.031394828 0.15504886 0.09578157
000290 2b 2c 5f 3e 26 2b 31 3d 73 4e 0e 3e a9 c8 6f be
       0.21794192 0.04325404 0.13897114 -0.2341639
0002a0 e3 12 01 be b5 d5 fd 3d dc f5 54 bd 2c 92 5b 3d
       -0.12604861 0.12394277 -0.051992282 0.053606197
0002b0 15 d3 40 3d 29 7d 61 bc 6c e0 85 3d 76 87 3d bd
       0.047076304 -0.013762751 0.06536946 -0.046271764
0002c0 c7 04 e7 bd ff 4a 4f bc 49 82 33 bc 87 c4 10 bd
       -0.11280208 -0.012652158 -0.010956355 -0.035343673
0002d0 e6 63 30 be 93 6f 10 be e7 72 b2 bc 1e 1d 48 bb
       -0.17225608 -0.14105062 -0.021783305 -0.0030534933
0002e0 f7 43 98 3d 82 71 4e 3d ee b4 b8 3d 6e 8e 37 3e
       0.07434838 0.05040122 0.090188846 0.17925426
0002f0 7e 1d 5f be 06 4c 90 3d 45 4f 04 be 55 e9 51 be
       -0.21788594 0.0704575 -0.12920864 -0.20499165
000300 b6 7b 10 be 31 a5 7d be 91 d6 f6 bd d4 fe f6 bd
       -0.14109692 -0.24770047 -0.12052644 -0.12060323
000310 bc 95 ef bd 02 b9 42 3d f8 39 9c 3d 23 79 ef bd
       -0.116984814 0.04753972 0.07628244 -0.11693027
000320 0d 13 e8 3d 9e 1f 6b bd 66 29 86 3d 52 9b 1a bd
       0.11331759 -0.0574032 0.06550865 -0.03774578
000330 ea 55 b6 3d 3c 48 06 be 92 08 0c bd cd 64 42 3d
       0.089031056 -0.13113493 -0.03418786 0.047459412
000340 c6 69 07 3e 7c 9e 4a be 62 09 81 3e c2 b0 1c be
       0.13223943 -0.1978702 0.2520247 -0.15301803
000350 58 98 31 3c 7b 81 1d bd 0a 20 19 3e 41 a0 22 bd
       0.010839544 -0.03845356 0.14953628 -0.03970361
000360 ac dd 3c 3e ac 56 06 3d 2e 1f 94 3d 76 bb 0f 3e
       0.18443936 0.0327975 0.072325096 0.14036354
000370 ed 94 11 3e fc 84 07 3e ee f1 6c 3d 24 18 69 3d
       0.14216967 0.13234323 0.05784791 0.056907788
000380 ec 0f 3a 3e 29 66 44 3e 7e e0 db 3d fe 67 4a be
       0.18170136 0.19179596 0.10736178 -0.19766232
000390 d8 a1 77 3e 90 45 bd bd 43 8c d2 bd f5 e7 22 3e
       0.24182832 -0.092417836 -0.10280659 0.15908797
0003a0 6a 58 23 bd 4f 70 bf 3d e3 3d 43 3e 5f fb 30 3e
       -0.03987924 0.09347593 0.19066577 0.1728339
0003b0 43 b7 94 3e 3e 12 37 3e 31 d4 4c be 01 b3 93 bd
       0.29046068 0.17878053 -0.2000282 -0.07211877
0003c0 8f 6b 17 be 02 2c 85 bb b0 9b 22 be 32 f4 0a 3d
       -0.14787124 -0.004064084 -0.15879703 0.03392429
0003d0 e0 4a 07 be ba 2a 0a 3e 08 81 cc bd 53 5b 4c 3d
       -0.13212156 0.13492861 -0.09985548 0.04989178
0003e0 98 66 d8 bd df 14 65 3d 94 a1 db 3d 28 26 3f 3e
       -0.10566443 0.055928107 0.10724178 0.18666899
0003f0 31 20 00 be 4c ee 79 3d 2e 27 26 bc 9d bb 35 be
       -0.1251228 0.061018273 -0.010141177 -0.1774735

out.bias f4 [70]
000000 62 22 37 be 17 c1 9c bb 48 9d a3 38 80 43 2b 3d
       -0.1788421 -0.0047837603 7.8017416e-05 0.04181242
000010 8b 46 81 bd 15 ea bd bd ce ca 27 bc 95 38 11 3e
       -0.06312283 -0.09273163 -0.0102412235 0.1418174
000020 50 7d 7b be b2 bd e0 bd 8c fd 2d be 48 05 31 be
       -0.24559522 -0.109736815 -0.16991252 -0.17287171
000030 22 66 82 3d c8 cf f2 3d bf 7c 11 be 03 f1 00 be
       0.063671365 0.118560374 -0.14207743 -0.12591939
000040 5d e3 0b be 6d 87 76 be 6b 55 cc 3b e4 bd 49 bd
       -0.13660951 -0.24075098 0.0062357686 -0.04925336
000050 71 74 03 3e 78 1c be bc b4 f4 f9 bd e0 69 33 bd
       0.12837388 -0.023206934 -0.122048765 -0.043802142
000060 aa 9d a5 3e 73 a6 41 3e 50 b4 59 bd 9e 78 62 bc
       0.3234685 0.18911152 -0.053150475 -0.013822703
000070 34 6b 93 bd 58 37 4c 3d c5 8f 18 3d f7 5e b3 bc
       -0.07198182 0.049857467 0.037246484 -0.021895869
000080 95 9f 90 be 14 ab 83 be 61 7e 01 be 31 26 8e 3d
       -0.2824675 -0.2571646 -0.12645866 0.06940878
000090 1e 91 b2 3d a8 ba 0e bd 44 eb 6d 3e 68 ff 5d 3e
       0.08719085 -0.034845978 0.23234278 0.21679461
0000a0 e7 aa 26 3e 6c d1 d4 3d 83 fe 5d bd d8 da 5f bd
       0.16276132 0.103915066 -0.0541978 -0.054652065
0000b0 a0 62 95 bc aa dd e5 3c 31 58 30 be 1b 8a 23 be
       -0.018235505 0.0280598 -0.17221142 -0.15970652
0000c0 b2 d0 bd bc b6 c7 92 bc 48 62 6c bd e1 88 05 bd
       -0.023170803 -0.017917495 -0.057710916 -0.03260124
0000d0 4c b3 b2 3d f3 8c b6 bd a3 c6 c7 3d a3 22 90 bd
       0.087256044 -0.08913603 0.09754684 -0.070378564
0000e0 ec 03 af bd f2 03 2a 3d ae 06 b2 3d 9b 53 9f bc
       -0.0854567 0.04150767 0.0869268 -0.019449046
0000f0 69 ac ab 3c 1d a4 65 bd 10 ef e1 3c 98 34 85 bd
       0.020956235 -0.056064714 0.027579814 -0.06504172
000100 72 da c2 3b 66 48 d9 ba 49 e3 1f 3d 14 ed 37 bd
       0.005946451 -0.0016577363 0.039035115 -0.04490383
000110 b2 1c 32 bc 60 7e 82 3c
       -0.010871099 0.0159294
