tutorial/interim_data_test/models/model_30_18.pt (torch, 358785 bytes, 18 tensors)

encoderlayers.0.weight f4 [200, 170]
-0.09376327 0.07952373 0.05694975 0.006489148 0.0025019515 0.029917408 0.012551873 -0.009500532
0.08825565 -0.010180578 0.0060018664 -0.07409819 0.027423576 -0.04806033 -0.04430004 -0.036997817
-0.040219594 -0.0063483054 -0.061757028 -0.012762785 -0.023475047 0.0023044057 0.009765729 -0.059921414
-0.020860083 0.0076769036 -0.08315027 -0.049366396 -0.018715387 0.017673634 0.0807414 -0.022605855
-0.008122639 -0.07023346 0.036350958 7.397017e-06 -0.040085148 0.003983244 0.034812737 -0.061060987
0.066409715 0.06430956 -0.046086475 -0.021269359 0.06854913 -0.009683654 0.015968082 -0.022934733
0.028728943 -0.032004904 -0.08112958 0.037346445 -0.07598396 0.033288904 -0.062300898 -0.0001892297
-0.05446116 -0.030953346 -0.07105717 0.06963137 0.0500485 0.04078413 0.01628755 0.019252663
0.040864974 -0.015161564 -0.030258585 -0.036323488 -0.011635756 0.026981952 -0.07884207 -0.027694331
0.023790661 0.035391517 -0.0133165205 0.0021961383 -0.048545964 0.05618927 -0.06850819 6.450994e-05
-0.07349378 -0.0641745 0.015300167 0.0463116 0.070337646 0.046177827 -0.034726184 -0.066935636
0.010443402 -0.014601022 -0.03791611 0.020471923 -0.04219348 -0.04865071 -0.06046838 -0.07361853
-0.0027978069 0.006840427 -0.052465234 -0.062251717 0.042362336 -0.070786685 -0.018186022 -0.0731351
-0.06258242 0.03709044 0.046410847 -0.0040607126 -0.08132865 0.043096676 -0.0025853124 -0.020393267
-0.038443133 -0.06776268 -0.06027425 -0.055538405 0.017283918 0.008877841 -0.018931838 -0.049953576
-0.024934469 -0.059335098 0.04951156 0.013490715 -0.035215203 -0.010025299 0.05952598 -0.03874139
-0.027964158 0.009008773 -0.044101603 -0.014082583 -0.0037949353 0.009212571 0.00048186156 0.05268775
0.000375698 0.009883064 -0.033672124 -0.022835976 -0.006328528 -0.038392678 0.074245885 -0.049583558
0.026037842 0.075447835 0.06003179 -0.058395367 0.04128951 0.011528578 -0.012442421 -0.03796312
-0.012829637 -0.07337244 0.10344996 -0.04781645 0.009483196 0.040968884 -0.026963787 -0.08567331
0.054016665 0.014527661 -0.00191484 -0.027543103 0.056472473 -0.027869703 -0.0004100388 -0.016872978
-0.015680177 -0.028587505 -0.15646042 0.099318 0.06752028 -0.043810926 0.079191275 -0.06831161
0.026770988 0.07679139 -0.029361635 -0.05849325 -0.041610897 -0.06276344 -0.05702675 0.011243187
-0.041730724 0.015959715 -0.0971739 0.001542186 -0.0074905925 0.009484975 0.038173534 -0.043150775
0.07532575 -0.028718894 0.062134225 -0.1126027 -0.02924294 0.057503957 0.0022879294 0.016978888
-0.05662724 -0.00810975 -0.08036245 -0.037632313 -0.0024423471 0.01674215 -0.03833524 -0.036308732
-0.06735839 0.059413157 -0.029207477 -0.030847773 -0.021667253 0.08959983 -0.020238597 0.04255987
-0.022052143 0.012841434 -0.03369322 0.065347135 0.025272207 -0.020363435 -0.0519432 -0.029837105
-0.0037943826 -0.045696978 -0.0150298225 -0.0037799852 -0.072826125 -0.05715273 -0.082218826 0.031066163
-0.036135916 -0.06286773 -0.06728247 -0.0070438627 -0.011652217 -0.01807588 -0.024143627 -0.020436531
0.055986427 -0.058189563 0.0075020194 0.004966926 -0.03674743 -0.00826823 -0.040137507 -0.07058303
0.014987142 -0.027471242 -0.03282591 -0.06022938 0.03141743 0.03752417 -0.057992127 0.0355763
00000000: f506 c0bd 56dd a23d 2444 693d eba2 d43b
00000010: c8f7 233b 5a15 f53c 5fa6 4d3c 1fa8 1bbc
00000020: 61bf b43d 70cc 26bc 4eab c43b cbc0 97bd
00000030: 68a7 e03c e9da 44bd f573 35bd 068b 17bd
00000040: 4dbd 24bd 7205 d0bb f0f4 7cbd 001b 51bc
00000050: be4e c0bc 8305 173b 7000 203c 2870 75bd
00000060: c4e2 aabc 898e fb3b b04a aabd 6b34 4abd
00000070: 0351 99bc 4cc8 903c bf5b a53d ea2f b9bc
00000080: d114 05bc 8fd6 8fbd bee4 143d e433 f836
00000090: 5330 24bd df85 823b cd97 0e3d 161b 7abd
000000a0: d101 883d bbb4 833d 2cc5 3cbd 143d aebc
000000b0: 7c63 8c3d 30a8 1ebc 7fcf 823c 9fe1 bbbc
000000c0: f658 eb3c 9317 03bd 4427 a6bd 96f8 183d
000000d0: 7a9d 9bbd f259 083d 3a2f 7fbd f66b 46b9
000000e0: aa12 5fbd df91 fdbc 6c86 91bd e49a 8e3d
000000f0: a8ff 4c3d 430d 273d 786d 853c c3b7 9d3c
00000100: 0862 273d 3568 78bc dae0 f7bc f0c7 14bd
00000110: e6a3 3ebc 4109 dd3c f477 a1bd 39df e2bc
00000120: a2e4 c23c b2f6 103d 892d 5abc 16ed 0f3b
00000130: 22d8 46bd b826 663d 064e 8cbd 8349 8738
00000140: e883 96bd ec6d 83bd 8dad 7a3c 3bb1 3d3d
00000150: 2f0d 903d f624 3d3d 0b3d 0ebd 8d15 89bd
00000160: ce1a 2b3c 2039 6fbc ec4d 1bbd bcb4 a73c
00000170: 12d3 2cbd f845 47bd b1ad 77bd 50c5 96bd
00000180: 695b 37bb a925 e03b c9e5 56bd a8fb 7ebd
00000190: 2184 2d3d 9cf8 90bd dafa 94bc dbc7 95bd
000001a0: 362b 80bd 25ec 173d 4d19 3e3d ba0f 85bb
000001b0: a38f a6bd 2486 303d 586e 29bb c80f a7bc
000001c0: 8c76 1dbd 29c7 8abd 22e2 76bd 3d7c 63bd
000001d0: 0197 8d3c 5d74 113c f116 9bbc 1f9c 4cbd
000001e0: 5f43 ccbc 5c09 73bd a2cc 4a3d 2908 5d3c
000001f0: d13d 10bd 2741 24bc 84d1 733d 4baf 1ebd
00000200: 1715 e5bc 8899 133c e2a3 34bd a2ba 66bc
00000210: 73b4 78bb 53f0 163c 5da2 fc39 1ccf 573d
00000220: 55f9 c439 93ec 213c c8eb 09bd 8312 bbbc
00000230: 8a5f cfbb a441 1dbd 3a0e 983d 2118 4bbd
00000240: 504d d53c 6584 9a3d e5e3 753d fb2f 6fbd
00000250: 301f 293d 5ce2 3c3c 4cdb 4bbc 377f 1bbd
00000260: 6633 52bc 4a44 96bd 93dd d33d 2fdb 43bd
00000270: 685f 1b3c fdce 273d 29e3 dcbc 7d75 afbd
00000280: 9440 5d3d 6d05 6e3c 5efb faba 13a2 e1bc
00000290: ae4f 673d 014f e4bc 7afa d6b9 3339 8abc
000002a0: b773 80bc 5830 eabc 2937 20be 3c67 cb3d
000002b0: 1348 8a3d 1673 33bd 092f a23d f5e6 8bbd
000002c0: d54e db3c ce44 9d3d d087 f0bc 9e96 6fbd
000002d0: 3070 2abd 1e8a 80bd e294 69bd 5835 383c
000002e0: d6ed 2abd f3bd 823c 1c03 c7bd 2d23 ca3a
000002f0: a573 f5bb de66 1b3c da5b 1c3d debe 30bd
00000300: 6344 9a3d e343 ebbc 7580 7e3d 3f9c e6bd
00000310: e48e efbc 4589 6b3d 16f1 153b 4f17 8b3c
00000320: f7f1 67bd c2de 04bc 1195 a4bd 5724 1abd
00000330: c90f 20bb d526 893c 6a05 1dbd 77b8 14bd
00000340: 32f3 89bd 365b 733d 8544 efbc 78b4 fcbc
00000350: 867f b1bc 1e80 b73d 6acb a5bc 4253 2e3d
00000360: b2a6 b4bc e164 523c e701 0abd b8d4 853d
00000370: a907 cf3c 38d1 a6bc 65c2 54bd f26c f4bc
00000380: 2dab 78bb c12c 3bbd a53f 76bc a1b9 77bb
00000390: dd25 95bd fb18 6abd 5862 a8bd 777e fe3c
000003a0: 4103 14bd ccc0 80bd 64cb 89bd 34d0 e6bb
000003b0: f1e8 3ebc de13 94bc dbc8 c5bc 836a a7bc
000003c0: 0652 653d 2e58 6ebd 80d3 f53b 98c1 a23b
000003d0: 7984 16bd 7877 07bc 3a67 24bd d68d 90bd
000003e0: a18c 753c 5f0b e1bc 7674 06bd 15b3 76bd
000003f0: 90af 003d f2b2 193d 2789 6dbd 74b8 113d

encoderlayers.0.bias f4 [200]
0.069187336 0.016567087 0.047746684 -0.0029538213 0.06221414 0.007268698 0.041270874 -0.028243018
0.01890047 0.013124726 -0.054251313 0.04362301 -0.01318357 0.026346643 -0.022081098 -0.032234836
0.015446917 -0.07094543 -0.050064523 -0.03630818 0.029879475 0.0746761 -0.039237063 0.028706957
-0.04600671 -0.03977346 0.030279443 0.029898137 0.052979317 -0.013850127 -0.02184811 -0.0100543285
0.024527019 -0.079718545 -0.054231614 0.01198183 0.066638224 -0.029104585 0.0035682083 -0.018922301
-0.041910715 -0.070332415 0.040388394 -0.058770087 0.066954635 -0.04148782 0.010052849 0.06473561
0.021919092 0.072467774 -0.051544648 -0.028112859 0.022379978 -0.008175954 0.0707627 0.0034239166
0.0061400463 0.016598705 -0.030142512 0.012556199 -0.027190795 0.077074 0.03439942 0.050358962
-0.012165534 -0.011842684 0.067708835 0.0045412765 -0.018283661 -0.04634455 -0.060147114 0.08185896
0.038623024 -0.0649509 0.015214418 -0.08174714 -0.013643346 0.015869314 0.034996863 0.023176506
-0.032664698 0.041803762 -0.0059911 0.07518107 0.03933755 -0.07297069 -0.013413753 -0.04937333
0.060068186 0.06652729 0.06727064 -0.05586119 -0.023038829 0.046531927 0.013418492 0.0489163
-0.011037584 -0.05585916 -0.027867686 0.017488018 0.013506714 0.06903135 -0.060198233 -0.022705557
-0.028848985 -0.04804466 -0.01705439 -0.056924533 0.07632236 -0.055202868 -0.012859401 -0.0102515025
-0.017378848 0.017763052 0.0063858577 -0.028259635 0.0024322285 0.060202707 0.060685575 -0.054953363
-0.072068594 -0.08063186 -0.03371919 -0.06652224 -0.042360883 0.031557914 0.053432666 -0.01501521
-0.03773691 0.041866314 -0.064346105 -0.044651538 0.0093814405 -0.057380147 0.07571977 -0.075473756
0.038440216 0.05884744 0.08532049 -0.06517324 0.057690606 -0.008781635 -0.012204021 -0.015633557
-0.008223034 -0.0047469833 0.01982053 0.01635376 0.018340234 0.051664345 0.042657215 0.016615298
0.040591437 -0.028338077 -0.027751321 -0.0034470689 0.028223129 0.019375147 0.05939803 -0.017304063
0.017478852 -0.019725692 -0.06618697 -0.03186894 0.08634443 0.06003335 -0.0007754537 -0.0545593
-0.061941117 -0.0042684036 -0.02617397 -0.05028318 -0.013177576 -0.06584801 -0.026707217 0.035952043
-0.05778149 0.0067684473 -0.069989644 -0.060138043 -0.080020644 -0.057507794 -0.037375905 0.05904136
-0.021287955 0.038494814 -0.044142004 0.0587081 -0.011673917 -0.00035252905 0.027314136 -0.007319638
0.06417004 0.0325837 -0.008567677 0.017540976 0.044608407 0.042979453 -0.038757842 -0.027621202
00000000: 17b2 8d3d b3b7 873c 0792 433d e694 41bb
00000010: 41d4 7e3d 422e ee3b a60b 293d e75d e7bc
00000020: 29d5 9a3c 1709 573c a036 5ebd 0bae 323d
00000030: e6ff 57bc ead4 d73c 6be3 b4bc ad08 04bd
00000040: 1115 7d3c d64b 91bd 7510 4dbd e3b7 14bd
00000050: cdc5 f43c c8ef 983d 0bb7 20bd da2a eb3c
00000060: 8871 3cbd 7fe9 22bd 980c f83c f0ec f43c
00000070: d700 593d a5eb 62bc cffa b2bc e9ba 24bc
00000080: e3ec c83c 7a43 a3bd f821 5ebd 704f 443c
00000090: 9f79 883d bd6c eebc 9ad8 693b f102 9bbc
000000a0: 92aa 2bbd 710a 90bd 4d6e 253d e7b8 70bd
000000b0: 831f 893d 22ef 29bd b4b4 243c 1a94 843d
000000c0: ab8f b33c fc69 943d 7b20 53bd f04c e6bc
000000d0: 3756 b73c 70f4 05bc 09ec 903d ca63 603b
000000e0: 7132 c93b 02fa 873c 6eed f6bc 84b8 4d3c
000000f0: 3bbf debc f9d8 9d3d 68e6 0c3d 3345 4e3d
00000100: f351 47bc d107 42bc eeaa 8a3d fdce 943b
00000110: 9ec7 95bc c8d3 3dbd d25c 76bd aca5 a73d
00000120: 2d33 1e3d fa04 85bd e545 793c 0b6b a7bd
00000130: 5788 5fbc 5d00 823c df58 0f3d a8dc bd3c
00000140: 6bcb 05bd 6c3a 2b3d fd50 c4bb 88f8 993d
00000150: 6920 213d a871 95bd 5cc5 5bbc b03b 4abd
00000160: 0f0a 763d 763f 883d 30c5 893d b4ce 64bd
00000170: edbb bcbc 4398 3e3d 3cd9 5b3c 755c 483d
00000180: fcd6 34bc 93cc 64bd c64a e4bc 0843 8f3c
00000190: 444b 5d3c 4f60 8d3d 6c92 76bd 0101 babc
000001a0: b554 ecbc 7aca 44bd a6b5 8bbc b329 69bd
000001b0: e64e 9c3d 671c 62bd 3db0 52bc ebf5 27bc
000001c0: 165e 8ebc d283 913c 7540 d13b c080 e7bc
000001d0: 0666 1f3b 1d97 763d 7091 783d c716 61bd
000001e0: b398 93bd 5122 a5bd 221d 0abd d03c 88bd
000001f0: 9b82 2dbd df42 013d 36dc 5a3d 5b02 76bc
00000200: 0592 1abd 037c 2b3d e4c7 83bd 88e4 36bd
00000210: 9db4 193c 7207 6bbd f712 9b3d fc91 9abd
00000220: 7d73 1d3d 030a 713d 82bc ae3d 8c79 85bd
00000230: fc4c 6c3d d9e0 0fbc 60f3 47bc f211 80bc
00000240: e8b9 06bc 958c 9bbb aa5e a23c 52f8 853c
00000250: 423e 963c fe9d 533d 55b9 2e3d ce1c 883c
00000260: 3543 263d 4125 e8bc bd56 e3bc 38e8 61bb
00000270: 3134 e73c a1b8 9e3c 594b 733d 40c1 8dbc
00000280: cf2f 8f3c c697 a1bc 098d 87bd 0189 02bd
00000290: 59d5 b03d 88e5 753d d147 4bba 9379 5fbd
000002a0: f8b5 7dbd f7dd 8bbb cb6a d6bc bcf5 4dbd
000002b0: c2e6 57bc 52db 86bd 18c9 dabc 7342 133d
000002c0: 49ac 6cbd dac9 dd3b bb56 8fbd 4f53 76bd
000002d0: dde1 a3bd 4b8d 6bbd 7a17 19bd 5ad5 713d
000002e0: 1464 aebc bdac 1d3d 3fce 34bd e877 703d
000002f0: f543 3fbc a6d3 b8b9 e5c1 df3c 93d9 efbb
00000300: 956b 833d 7c76 053d 715f 0cbc 18b2 8f3c
00000310: 4eb7 363d 390b 303d 8bc0 1ebd dc45 e2bc

encodernorms.0.weight f4 [200]
1.0417007 1.0189052 1.1149877 1.1297909 1.0934899 1.1326736 1.1154672 1.0835607
1.088268 1.0856642 1.1190046 1.1287729 1.1028733 1.1028767 1.1240494 1.124035
1.1026272 1.1137518 1.0986025 1.0836642 1.0671479 1.1295102 1.13259 1.1255841
1.1019744 0.9941735 1.0986619 1.1137929 1.095516 1.1392996 1.1017191 1.1062281
1.1337732 1.0870405 1.0955297 1.0531702 1.137669 1.0970945 1.094236 1.060805
1.1230971 1.1445831 1.1020366 1.1429569 1.0975981 1.0366095 1.107885 1.098183
1.1336396 1.0901644 1.0876517 1.1120195 1.1003454 1.1046737 1.1060529 1.0519687
1.0351077 1.1071746 1.1232548 1.0761037 1.0991596 1.1203988 1.0892892 1.0691305
1.0812193 1.1412835 1.1420873 1.1007652 1.1107459 1.108614 1.1025562 1.0697782
1.100827 1.1184042 1.1088817 1.0982287 1.1069871 1.0504894 1.0996133 1.1140189
1.0778142 1.1179384 1.0930632 1.0934317 1.0811875 1.1227549 1.1038415 1.1266024
1.0992997 1.0807222 1.091882 1.1350042 1.0505764 1.0712801 1.1077479 1.0566003
1.1195115 1.0860127 1.1294543 1.1201768 1.11404 1.1148798 1.023031 1.1355656
1.1181343 1.0873094 1.1271758 1.0546705 1.0547715 0.9902156 1.1342008 1.0903319
1.1370122 1.1182982 1.0371379 1.1187397 1.106893 1.0745301 1.0361049 1.0967028
1.1024446 1.0067072 1.0868305 1.1005759 1.0820274 1.066146 1.0953355 1.0720793
1.0421957 1.092732 1.0852768 1.1018769 1.0102645 1.1131927 1.1302654 1.0074427
1.0746893 1.1074373 1.0857944 1.103819 1.0983814 1.0916896 1.0963144 1.1151305
1.1041023 1.1145369 1.1365968 1.1267818 1.1028118 0.9982365 1.078673 1.1011761
1.0675762 1.0975969 1.0778824 1.1014173 1.0951934 1.0102292 1.093749 1.083905
1.0413073 1.1035362 1.0770686 1.1047492 1.0610937 1.1179469 1.1077912 1.0979259
1.0906713 1.1056252 1.069105 1.1334586 1.1172298 1.060344 1.0304493 1.0893874
1.1025844 1.0855452 1.0087229 1.0925268 1.1014417 1.0905507 1.1435742 1.0976464
1.0582012 1.0968581 1.0443715 1.1315055 1.1240804 1.1103923 1.1026633 1.0795503
1.1260982 1.0774274 1.1204169 1.0167519 1.1014403 1.101847 1.1048785 1.0070308
00000000: 7356 853f 7c6b 823f ebb7 8e3f fd9c 903f
00000010: 7af7 8b3f 73fb 903f a1c7 8e3f 1eb2 8a3f
00000020: 5e4c 8b3f 0bf7 8a3f 8b3b 8f3f a17b 903f
00000030: f42a 8d3f 102b 8d3f dae0 8f3f 61e0 8f3f
00000040: e322 8d3f 6b8f 8e3f 029f 8c3f 82b5 8a3f
00000050: 4d98 883f ca93 903f b6f8 903f 2413 903f
00000060: 7f0d 8d3f 2882 7e3f f4a0 8c3f c490 8e3f
00000070: de39 8c3f 92d4 913f 2205 8d3f e298 8d3f
00000080: 7b1f 913f 2524 8b3f 513a 8c3f 48ce 863f
00000090: 239f 913f 986d 8c3f ed0f 8c3f 75c8 873f
000000a0: a5c1 8f3f b381 923f 890f 8d3f 694c 923f
000000b0: 187e 8c3f 9faf 843f 2dcf 8d3f 4391 8c3f
000000c0: 1a1b 913f 828a 8b3f 2c38 8b3f a856 8e3f
000000d0: 1ed8 8c3f f365 8d3f 2493 8d3f e9a6 863f
000000e0: 697e 843f e6b7 8d3f d0c6 8f3f c4bd 893f
000000f0: 43b1 8c3f 3a69 8f3f d46d 8b3f 45d9 883f
00000100: 6565 8a3f 9415 923f eb2f 923f e0e5 8c3f
00000110: ec2c 8e3f 10e7 8d3f 9020 8d3f 7eee 883f
00000120: e6e7 8c3f de27 8f3f d6ef 8d3f c292 8c3f
00000130: c1b1 8d3f 7076 863f 21c0 8c3f 2c98 8e3f
00000140: d1f5 893f 9b18 8f3f 7fe9 8b3f 92f5 8b3f
00000150: 5a64 8a3f 6fb6 8f3f ae4a 8d3f 8234 903f
00000160: dab5 8c3f 1b55 8a3f cac2 8b3f d147 913f
00000170: 4a79 863f b51f 893f afca 8d3f ae3e 873f
00000180: 274c 8f3f 7702 8b3f f591 903f f461 8f3f
00000190: dd98 8e3f 62b4 8e3f aef2 823f 375a 913f
000001a0: 061f 8f3f f42c 8b3f 4c47 903f 71ff 863f
000001b0: c102 873f c57e 7d3f 7e2d 913f ff8f 8b3f
000001c0: 9e89 913f 6524 8f3f efc0 843f dd32 8f3f
000001d0: abae 8d3f 348a 893f 169f 843f c260 8c3f
000001e0: e81c 8d3f c8db 803f 431d 8b3f acdf 8c3f
000001f0: e07f 8a3f 7977 883f f433 8c3f e539 893f
00000200: ab66 853f a4de 8b3f 5aea 8a3f 4d0a 8d3f
00000210: 5950 813f 197d 8e3f 89ac 903f e2f3 803f
00000220: 6b8f 893f 81c0 8d3f 50fb 8a3f f149 8d3f
00000230: c397 8c3f 7cbc 8b3f 0854 8c3f 99bc 8e3f
00000240: 3953 8d3f 25a9 8e3f 017c 913f 633a 903f
00000250: f028 8d3f 6d8c 7f3f f511 8a3f 57f3 8c3f
00000260: 56a6 883f 0e7e 8c3f 0df8 893f 3efb 8c3f
00000270: 4c2f 8c3f 314f 813f f8ff 8b3f 66bd 8a3f
00000280: 8f49 853f ad40 8d3f 62dd 893f 6c68 8d3f
00000290: ebd1 873f e218 8f3f 1acc 8d3f d688 8c3f
000002a0: 1e9b 8b3f 2085 8d3f 6fd8 883f 2c15 913f
000002b0: 6301 8f3f 5ab9 873f c3e5 833f 0c71 8b3f
000002c0: 7c21 8d3f 25f3 8a3f d51d 813f ebd7 8b3f
000002d0: 0bfc 8c3f 2a97 8b3f a460 923f ad7f 8c3f
000002e0: 2373 873f d965 8c3f f7ad 853f 2cd5 903f
000002f0: dee1 8f3f 5621 8e3f 1224 8d3f b42e 8a3f
00000300: fc23 903f 24e9 893f d269 8f3f ed24 823f
00000310: fffb 8c3f 5309 8d3f a96c 8d3f 63e6 803f

encodernorms.0.bias f4 [200]
0.35502127 -0.39551505 0.29458874 -0.096467584 -0.45417184 -0.40520766 -0.39454672 0.30987203
0.48292372 0.07215318 -0.47686636 -0.28904653 0.04818985 -0.47990546 0.37945426 -0.074851215
-0.46421963 0.057125468 -0.3469079 0.24332964 0.31187415 0.37373668 0.11453942 0.030678127
0.49100414 -0.48193586 -0.44616792 -0.38780206 -0.12911001 0.17439751 0.453932 0.36902308
0.29939026 0.45552427 0.4433249 0.37739947 0.3884622 -0.081808195 0.41635522 -0.37307298
-0.10724405 -0.30074897 -0.3584184 -0.35276985 0.21862605 -0.22339089 -0.3513257 -0.12017774
-0.15817438 -0.3789003 0.4964337 0.40996116 0.24281429 0.3162675 0.3944674 -0.40726715
-0.5026111 -0.3696316 0.25110602 0.5166818 0.13027625 -0.41409245 0.48334143 0.4565172
-0.07093029 -0.39933452 -0.14302525 -0.20258494 -0.49578786 0.19188704 -0.19743893 0.4439547
-0.43078995 -0.2881087 0.28189084 -0.0989803 -0.02283368 -0.2647649 0.50036466 0.036615472
-0.41260898 0.48729157 -0.24403219 -0.40786606 0.18409975 -0.2831581 0.18258427 -0.15405297
-0.28144243 0.20872523 -0.38383713 0.3363732 0.5004605 0.07576618 -0.34531546 0.3597413
-0.32356912 0.46476853 -0.24886368 -0.42853415 -0.45726702 -0.43098482 -0.4785573 -0.24621905
-0.42627585 -0.529805 0.35368514 -0.42176864 -0.51256716 0.041191544 -0.4666596 -0.33017722
-0.46120787 0.3645126 -0.5310038 0.23354462 -0.37606716 -0.0341884 0.25897416 0.39691398
-0.22013816 -0.43899027 0.45877147 0.21855628 -0.33555904 -0.21359877 -0.33535662 -0.40180147
-0.44867966 -0.43799978 0.35254234 0.27529716 -0.41051364 0.5031879 -0.3320592 -0.51389045
0.14947854 0.40176594 0.51670897 0.2624812 0.19615732 0.08209823 0.065621495 -0.1430089
0.31279925 0.068683416 -0.48934627 -0.44725585 -0.4451319 0.38617596 0.04784026 -0.09154461
-0.40828562 0.48167798 0.11327248 -0.51594085 0.4804298 0.42698476 -0.41932064 -0.5175533
-0.39022744 0.27215916 -0.28287983 -0.51560944 -0.36428562 0.28045252 -0.2946351 -0.31117573
0.16476864 0.35522687 0.3799365 0.037709527 -0.25588086 -0.46711877 0.10215715 0.42550883
-0.054893505 0.38333607 -0.40457204 0.3113904 -0.45498088 0.49844834 -0.23986274 0.33893567
-0.31990033 -0.29268938 -0.5318103 0.12010661 0.33450973 0.24502642 0.24953164 0.17049778
-0.33382753 0.40904462 0.17689466 0.44895524 0.4348915 0.101113826 0.41347346 -0.36365774
00000000: 59c5 b53e f380 cabe 56d4 963e cc90 c5bd
00000010: 3689 e8be 6177 cfbe 0702 cabe 8ca7 9e3e
00000020: c741 f73e 0cc5 933d d427 f4be e8fd 93be
00000030: b862 453d 2bb6 f5be d447 c23e 984b 99bd
00000040: 32ae edbe 65fc 693d ea9d b1be 682b 793e
00000050: f8ad 9f3e 6a5a bf3e a593 ea3d b250 fb3c
00000060: e564 fb3e 4cc0 f6be 1f70 e4be fe8d c6be
00000070: 6a35 04be 4395 323e c669 e83e 98f0 bc3e
00000080: ae49 993e 7a3a e93e 7bfb e23e 813a c13e
00000090: 84e4 c63e 0e8b a7bd 832c d53e 6c03 bfbe
000000a0: c5a2 dbbd c5fb 99be 9e82 b7be 409e b4be
000000b0: 82df 5f3e 95c0 64be f6e0 b3be bf1f f6bd
000000c0: 77f8 21be 38ff c1be 8f2c fe3e 6ee6 d13e
000000d0: 4fa4 783e d0ed a13e a2f7 c93e 5285 d0be
000000e0: 1fab 00bf 5a40 bdbe f890 803e 4245 043f
000000f0: 2367 053e ed03 d4be 8778 f73e 9fbc e93e
00000100: e643 91bd 9375 ccbe 3675 12be 6d72 4fbe
00000110: e8d7 fdbe 097e 443e 6e2d 4abe 084e e33e
00000120: 8090 dcbe fc82 93be ff53 903e 2fb6 cabd
00000130: b30d bbbc 448f 87be e617 003f 1bfa 153d
00000140: 7c41 d3be 487e f93e 93e3 79be d2d3 d0be
00000150: a584 3c3e 19fa 90be 5ff7 3a3e 10c0 1dbe
00000160: 3919 90be 11bc 553e 4d86 c4be 1c39 ac3e
00000170: 2e1e 003f 4d2b 9b3d 30cd b0be 0330 b83e
00000180: daaa a5be 24f6 ed3e 1fd6 7ebe d468 dbbe
00000190: e71e eabe 0baa dcbe 7605 f5be d920 7cbe
000001a0: d440 dabe 4da1 07bf 3816 b53e 0ff2 d7be
000001b0: 9a37 03bf 77b8 283d 02ee eebe fd0c a9be
000001c0: 7023 ecbe 65a1 ba3e ddef 07bf 5226 6f3e
000001d0: e08b c0be 2309 0cbd 4398 843e 4f38 cb3e
000001e0: e66b 61be 55c3 e0be 18e4 ea3e 38cd 5f3e
000001f0: 65ce abbe a3b9 5abe ddb3 abbe ecb8 cdbe
00000200: 57b9 e5be 8241 e0be 6e80 b43e c0f3 8c3e
00000210: d82e d2be ecd0 003f aa03 aabe 538e 03bf
00000220: e710 193e 44b4 cd3e 0a47 043f f063 863e
00000230: 77dd 483e 1e23 a83d 9064 863d ed70 12be
00000240: 3927 a03e e4a9 8c3d 988b fabe b8fe e4be
00000250: 54e8 e3be dbb8 c53e 26f4 433d be7b bbbd
00000260: d00a d1be 7f9e f63e 67fb e73d b314 04bf
00000270: e5fa f53e bf9d da3e 32b1 d6be 607e 04bf
00000280: e4cb c7be 7258 8b3e a0d5 90be fbfe 03bf
00000290: a583 babe 7997 8f3e 69da 96be 6d52 9fbe
000002a0: 1cb9 283e 4ce0 b53e 0987 c23e 4e75 1a3d
000002b0: d102 83be 312a efbe c537 d13d 4bdc d93e
000002c0: 03d8 60bd a044 c43e 1124 cfbe 906e 9f3e
000002d0: 41f3 e8be 9f34 ff3e 949e 75be fa88 ad3e
000002e0: fac9 a3be 62db 95be b824 08bf 74fa f53d
000002f0: dc44 ab3e 35e8 7a3e 3985 7f3e f896 2e3e
00000300: 71eb aabe 4c6e d13e e023 353e 76dd e53e
00000310: 19aa de3e c414 cf3d cbb2 d33e 5931 babe

encodernorms.0.running_mean f4 [200]
-0.0038657668 -0.0015053949 0.31615555 0.17856596 0.3318424 0.2935815 0.29386678 0.2774115
0.2693996 0.24966419 0.2739052 0.30359554 0.2696045 0.19288126 0.3322977 0.34514636
0.24995986 0.29414767 0.36106655 0.40480754 0.35043818 0.2780789 0.2915812 0.28236547
0.24702996 -0.0049571213 0.33498952 0.296116 0.2981229 0.20079008 0.3318779 0.28413248
0.303754 0.21322379 0.3489232 0.31093234 0.3325068 0.22180876 0.32710505 0.2909611
0.2539838 0.27344415 0.33038512 0.2621545 0.39393437 -0.004239538 0.28517675 0.2621046
0.24716151 0.26995128 0.26821023 0.22069682 0.30239093 0.294952 0.3272047 0.27909493
-0.0053275162 0.31263843 0.28898925 0.31464782 0.25727913 0.297181 0.2591358 0.3675901
0.3026663 0.31887886 0.2976948 0.32883507 0.28566638 0.24765255 0.29133096 0.23691458
0.21588835 0.2809738 0.27028388 0.22711778 0.22583462 0.0011121503 0.28986305 0.2888606
0.32549265 0.3111441 0.28440127 0.22663999 0.22764775 0.30541 0.25851157 0.32192707
0.29698864 0.25139475 0.29646593 0.316645 0.32926577 0.32627764 0.301441 -0.003429956
0.29354945 0.28746912 0.27723777 0.27162144 0.2720682 0.3487784 0.24653275 0.29122117
0.21829368 0.35595417 0.3306081 0.22772886 0.25507775 0.0013126603 0.34815013 0.30902806
0.313631 0.26316857 0.00024138525 0.31286544 0.31814873 0.24109232 0.059358697 0.31273174
0.2908671 -0.0052833715 0.27019978 0.31193128 0.22792126 0.23995152 0.38493308 0.38692412
0.24232474 0.35347554 0.33276847 0.27353168 0.059352975 0.3000095 0.30750126 -0.0019450901
0.28026277 0.33526433 0.27803746 0.27696735 0.31171444 0.301526 0.35792288 0.2679638
0.20243296 0.24584721 0.33274406 0.2792838 0.37731883 -3.7383405e-05 0.3657811 0.33627766
0.37760147 0.31738317 0.35411015 0.25706348 0.2876486 -0.003756967 0.35591865 0.30987343
0.29268497 0.23537686 0.39467537 0.28550497 0.31167248 0.25005698 0.28040364 0.262765
0.2179182 0.24117239 0.2805081 0.24927767 0.33026925 0.28647202 -0.0006966655 0.3218796
0.2734654 0.30430248 0.0009965769 0.27348763 0.30729082 0.32787824 0.2844224 0.32509014
-0.0028698351 0.27322325 0.2680748 0.31263033 0.3002898 0.29334545 0.27255967 0.26110524
0.32641745 0.35150313 0.37720665 -0.0016884089 0.34164223 0.23772565 0.28879833 -0.0028450363
00000000: ce58 7dbb ac50 c5ba 24df a13e ffd9 363e
00000010: 3fe7 a93e 5050 963e b575 963e e108 8e3e
00000020: bfee 893e f8a7 7f3e 4d3d 8c3e e070 9b3e
00000030: 9a09 8a3e aa82 453e ed22 aa3e 06b7 b03e
00000040: 7af5 7f3e 869a 963e b7dd b83e ef42 cf3e
00000050: a26c b33e 5c60 8e3e 224a 953e 3592 903e
00000060: 6cf5 7c3e 596f a2bb bf83 ab3e 849c 973e
00000070: 91a3 983e ea9b 4d3e e6eb a93e d079 913e
00000080: a585 9b3e 5657 5a3e 10a6 b23e 8632 9f3e
00000090: 553e aa3e d621 633e 507a a73e daf8 943e
000000a0: 2a0a 823e df00 8c3e 3d28 a93e 1d39 863e
000000b0: c4b1 c93e d3eb 8abb b002 923e 9332 863e
000000c0: e817 7d3e 0e37 8a3e da52 893e 59fe 613e
000000d0: fcd2 9a3e f303 973e 6087 a73e 88e5 8e3e
000000e0: 7292 aebb 2512 a03e 66f6 933e 8519 a13e
000000f0: 17ba 833e 1c28 983e 73ad 843e c534 bc3e
00000100: 14f7 9a3e 1744 a33e 746b 983e 125d a83e
00000110: dd42 923e a198 7d3e 5529 953e bc99 723e
00000120: d611 5d3e ccdb 8f3e a662 8a3e 9091 683e
00000130: 3141 673e 92c5 913a ee68 943e 89e5 933e
00000140: f9a6 a63e 484e 9f3e 0b9d 913e 5014 683e
00000150: 7e1c 693e b35e 9c3e a15b 843e a0d3 a43e
00000160: e50e 983e d0b6 803e 62ca 973e 4b1f a23e
00000170: 8695 a83e dd0d a73e 7a56 9a3e 1dc9 60bb
00000180: 1d4c 963e 272f 933e 1cf2 8d3e f711 8b3e
00000190: 864c 8b3e 1593 b23e 1573 7c3e f11a 953e
000001a0: 6188 5f3e a03f b63e 7745 a93e c131 693e
000001b0: 8d99 823e 920d ac3a bc40 b23e ed38 9e3e
000001c0: 3e94 a03e 08be 863e 5c1c 7d39 e62f a03e
000001d0: 64e4 a23e e8e0 763e 1b22 733d 601e a03e
000001e0: 88ec 943e 2220 adbb a057 8a3e 75b5 9f3e
000001f0: 3164 693e dab5 753e f315 c53e eb1a c63e
00000200: fa23 783e bffa b43e a160 aa3e 580c 8c3e
00000210: 1b1c 733d d89a 993e ce70 9d3e 65f2 feba
00000220: 9a7e 8f3e c4a7 ab3e ed5a 8e3e aace 8d3e
00000230: 0999 9f3e 9e61 9a3e ab41 b73e 8d32 893e
00000240: 964a 4f3e 5fbf 7b3e 6e5d aa3e 49fe 8e3e
00000250: ef2f c13e 20cc 1cb8 a947 bb3e 962c ac3e
00000260: fb54 c13e 0c80 a23e ed4d b53e d39d 833e
00000270: ad46 933e 7237 76bb f83a b63e bba7 9e3e
00000280: ceda 953e a206 713e e412 ca3e b52d 923e
00000290: 8993 9f3e 7807 803e 1191 8f3e 2289 863e
000002a0: f325 5f3e e5f5 763e c29e 8f3e a542 7f3e
000002b0: 0d19 a93e 76ac 923e 6ea0 36ba 67cd a43e
000002c0: a803 8c3e 89cd 9b3e 929f 823a 9206 8c3e
000002d0: 3955 9d3e a8df a73e d09f 913e 3772 a63e
000002e0: d813 3cbb ebe3 8b3e 1a41 893e 1511 a03e
000002f0: 96bf 993e 6031 963e f18c 8b3e 96af 853e
00000300: 3020 a73e 38f8 b33e 3b21 c13e 9a4d ddba
00000310: bbeb ae3e 5a6e 733e 60dd 933e ca73 3abb

encodernorms.0.running_var f4 [200]
0.00080733676 0.0018517422 0.13916308 0.06305313 0.124879606 0.10497929 0.11585333 0.11198751
0.11142294 0.093685 0.10392016 0.10505354 0.08832006 0.079104595 0.13584654 0.10858676
0.0961868 0.121099226 0.13229078 0.15257414 0.1468824 0.1040848 0.10307844 0.103118375
0.10966022 0.0006571924 0.13316572 0.112805344 0.12579307 0.06986778 0.13168679 0.10181474
0.11128299 0.07495274 0.15045224 0.10168988 0.11688417 0.08749276 0.12893137 0.11196151
0.09428156 0.10073381 0.12326541 0.10727969 0.16188249 0.0006840153 0.09071986 0.10150566
0.08665744 0.102635585 0.096048854 0.078524604 0.10544156 0.106909946 0.11395237 0.1115675
0.0006480608 0.115396045 0.11663002 0.11501407 0.10186887 0.11956273 0.09155704 0.13333291
0.11058691 0.13305442 0.1079077 0.12394861 0.10871935 0.0997328 0.11535376 0.08482415
0.07660453 0.09996605 0.09796578 0.09637703 0.085307345 0.0034453603 0.111691974 0.09822315
0.10373504 0.12197536 0.09878787 0.08479426 0.099043585 0.11612546 0.09700012 0.1155847
0.11556128 0.0979547 0.14036533 0.14514711 0.11963836 0.116771586 0.13052475 0.0010021597
0.09264584 0.11687263 0.10449491 0.11022435 0.102933235 0.1456994 0.1028949 0.09785152
0.08211179 0.13725102 0.12353948 0.08411399 0.094366185 0.0025411283 0.11433705 0.12676072
0.112059586 0.112013735 0.001868086 0.118609615 0.117653035 0.09266154 0.024414133 0.12853505
0.10014334 0.00048002152 0.097765714 0.1296395 0.0844967 0.091096416 0.1340054 0.12182407
0.1054166 0.11532011 0.13943617 0.0986892 0.02088791 0.100065656 0.10677462 0.0011561795
0.11078593 0.12180897 0.10074542 0.10904373 0.12416892 0.12973592 0.14814281 0.10305736
0.092546344 0.09490369 0.13326311 0.10992108 0.15364577 0.0014684367 0.15799764 0.1531162
0.1567229 0.10155761 0.12241772 0.087391436 0.0906647 0.0008138063 0.12665449 0.14603917
0.11952615 0.09450326 0.1678615 0.10013504 0.1086134 0.08678083 0.1110081 0.09465774
0.08233582 0.085685916 0.11266226 0.08663593 0.12827751 0.13159882 0.0014038665 0.13337637
0.08169688 0.10960415 0.0023335824 0.10220098 0.13690193 0.11086088 0.096943565 0.1330711
0.002098456 0.10339659 0.10652456 0.11223351 0.11005006 0.11058734 0.10864691 0.11103989
0.13639049 0.120045066 0.14134786 0.0029559657 0.13659443 0.09914869 0.11547139 0.0008657783
00000000: 74a3 533a 28b6 f23a c480 0e3e 0022 813d
00000010: e1c0 ff3d 62ff d63d 8344 ed3d b559 e53d
00000020: b631 e43d ecdd bf3d 18d4 d43d 4f26 d73d
00000030: 26e1 b43d 9701 a23d 5b1b 0b3e bc62 de3d
00000040: 96fd c43d df02 f83d 3c77 073e 653c 1c3e
00000050: 5768 163e 692a d53d ca1a d33d ba2f d33d
00000060: 8a95 e03d 6f47 2c3a 985c 083e 7d06 e73d
00000070: e6cf 003e d716 8f3d e7d8 063e 3f84 d03d
00000080: 56e8 e33d d280 993d 2710 1a3e c942 d03d
00000090: f860 ef3d 672f b33d 9606 043e 134c e53d
000000a0: b116 c13d 874d ce3d 9372 fc3d 74b5 db3d
000000b0: 86c4 253e 7d4f 333a 55cb b93d 33e2 cf3d
000000c0: 7579 b13d 9b32 d23d 43b5 c43d 82d1 a03d
000000d0: bff1 d73d 9af3 da3d dc5f e93d 807d e43d
000000e0: a0e2 293a c354 ec3d b8db ee3d 7f8c eb3d
000000f0: a0a0 d03d 4edd f43d 4282 bb3d 6c88 083e
00000100: 647b e23d 6b3f 083e b6fe dc3d c5d8 fd3d
00000110: 40a8 de3d b640 cc3d 983e ec3d 49b8 ad3d
00000120: d6e2 9c3d 00bb cc3d 48a2 c83d 5261 c53d
00000130: 9eb5 ae3d 8ecb 613b c3be e43d 3829 c93d
00000140: 0973 d43d 38ce f93d 4b51 ca3d 9da8 ad3d
00000150: 5dd7 ca3d 2fd3 ed3d 00a8 c63d acb7 ec3d
00000160: 64ab ec3d 799c c83d eebb 0f3e 72a1 143e
00000170: f504 f53d f125 ef3d 48a8 053e e65a 833a
00000180: 1abd bd3d eb5a ef3d 6d01 d63d 4ebd e13d
00000190: a9ce d23d 3932 153e 90ba d23d 6166 c83d
000001a0: 3a2a a83d 888b 0c3e 4402 fd3d f543 ac3d
000001b0: 0f43 c13d 0f89 263b 8b29 ea3d 90cd 013e
000001c0: 7f7f e53d 7567 e53d 91da f43a 99e9 f23d
000001d0: 13f4 f03d 55c5 bd3d 2600 c83c b19e 033e
000001e0: f417 cd3d 66ab fb39 6439 c83d 38c0 043e
000001f0: 9b0c ad3d c290 ba3d b638 093e e67e f93d
00000200: a9e4 d73d f32c ec3d 5bc8 0e3e 901d ca3d
00000210: 1f1d ab3c 39ef cc3d a7ac da3d f28a 973a
00000220: bce3 e23d fb76 f93d 9d53 ce3d 5252 df3d
00000230: 464c fe3d 7ed9 043e c0b2 173e bd0f d33d
00000240: f088 bd3d de5c c23d 2076 083e 4e1e e13d
00000250: 5155 1d3e 8f78 c03a 22ca 213e 7eca 1c3e
00000260: f87b 203e 70fd cf3d 24b6 fa3d 48fa b23d
00000270: 6aae b93d 9e55 553a b7b1 013e 4b8b 153e
00000280: 20ca f43d ed8a c13d e3e3 2b3e 9a13 cd3d
00000290: b470 de3d 26ba b13d 3758 e33d ebdb c13d
000002a0: af9f a83d 197c af3d 79bb e63d 2e6e b13d
000002b0: 2e5b 033e d7c1 063e f101 b83a d193 083e
000002c0: b250 a73d 2478 e03d 04ef 183b bf4e d13d
000002d0: 0530 0c3e 070b e33d 598a c63d ca43 083e
000002e0: 4086 093b 97c1 d33d 8c29 da3d afda e53d
000002f0: ed61 e13d 9e7b e23d 4582 de3d e268 e33d
00000300: f3a9 0b3e 30da f53d 7ebd 103e e0b8 413b
00000310: 69df 0b3e 780e cb3d 447c ec3d 66f5 623a

decoderlayers.0.weight f4 [200, 30]
0.063171424 -0.105586715 0.17977005 -0.09962219 -0.11724807 0.06024212 -0.1259413 -0.013193943
0.1890151 0.08691106 -0.10079898 0.10421508 0.022336602 0.0028619685 -0.021832678 -0.0056153317
0.018279348 0.14121549 0.11291406 -0.118110314 0.08812504 0.116250254 -0.060914513 0.17384109
0.1741278 -0.12623805 0.03989388 -0.18878624 0.10901384 0.14703952 0.13764583 0.1481936
-0.024455726 -0.01100627 0.1637627 -0.035086464 0.103290975 0.045762695 0.09129551 -0.19717655
-0.15017025 0.024548603 0.0008325067 0.030811695 0.09099866 -0.016524427 -0.006923639 0.13479738
-0.018137999 -0.051453866 -0.047377985 -0.027389206 -0.11350921 -0.19100833 -0.1252272 -0.07684658
0.005490867 0.08258173 0.037416104 0.10972615 0.12898779 -0.10743517 -0.078676626 0.07302295
0.096484326 0.086953305 0.039363366 0.2297844 -0.07222753 -0.01488724 0.08852359 -0.06777952
0.12539203 0.04226609 0.16764215 -0.033173725 -0.088205226 0.09908792 -0.08367784 -0.16579719
0.10226611 0.0486351 0.10203501 -0.101973586 0.097335815 0.03967812 -0.1464033 0.03708235
0.055193618 0.21504194 -0.0016928798 -0.03765522 -0.12235057 -0.06344257 0.05227689 -0.086682655
-0.13144848 -0.06082309 0.064136736 -0.19916588 0.1675265 -0.016618654 -0.17564961 0.009699874
0.06760416 -0.028574344 0.05559109 -0.14933155 0.096608005 -0.024587968 0.13746087 -0.121512346
-0.09854146 -0.084069766 0.19432092 0.0855535 0.010149731 -0.11706386 0.046515726 0.18841016
0.1776767 -0.083966345 -0.01799203 0.07158667 -0.14442918 0.05276259 0.024743166 0.009688996
0.1640239 -0.05431186 -0.15373993 -0.15137413 0.012326745 -0.12875897 0.19764762 0.048709903
-0.09693977 0.0324105 0.0028099448 0.021629179 0.01096832 -0.08542345 -0.14818856 0.10617703
-0.13893585 0.013547632 -0.1408175 0.13293166 -0.010163511 0.10234399 -0.13588871 -0.18024512
0.18066293 -0.116497755 -0.037721764 -0.12598997 0.065104686 -0.104558855 0.07900728 -0.11015351
-0.075273976 -0.056755733 -0.02186902 -0.16148376 -0.17148638 -0.06426578 -0.07222189 0.062242027
-0.1483195 -0.15771793 0.081608124 -0.06719231 -0.019682696 -0.046502948 0.13637182 0.037527326
0.041057315 -0.15938403 0.047113776 -0.13910306 -0.05025392 0.12506652 0.06533819 0.14478974
0.12737194 0.15129739 0.0722235 -0.14249603 0.036889803 0.0011042603 0.12311388 -0.11784227
0.11020562 -0.006450112 -0.10039773 0.03457688 -0.04536089 0.01836582 -0.029722406 -0.21597952
0.0080248965 -0.04854808 0.1157841 0.15453067 0.015772697 -0.13804787 0.11338006 -0.14802848
-0.14493598 0.028355204 0.008461725 -0.059072446 0.14359166 -0.06374981 -0.06617434 0.026123406
0.016668158 0.08067422 -0.11364279 0.037720956 -0.07599202 -0.10713076 0.10253628 -0.14164457
-0.23711604 0.19116604 -0.039676253 -0.0680141 0.12219524 0.06431353 0.17107566 -0.077968456
-0.09476762 0.08652445 -0.18560523 0.15846363 -0.12885526 -0.12274513 -0.027717534 -0.070734665
0.12352064 -0.025459854 0.024177307 0.053591143 -0.14196165 0.029848523 -0.08665032 0.010338394
0.15838863 -0.17855152 0.04848796 0.041582484 0.09280151 -0.09200775 -0.08350477 0.08052393
00000000: 0560 813d d93d d8bd a415 383e b806 ccbd
00000010: c21f f0bd 71c0 763d c2f6 00be 682b 58bc
00000020: 2d8d 413e 6dfe b13d b26f cebd b76e d53d
00000030: 40fb b63c dd8f 3b3b 72da b2bc d100 b8bb
00000040: 92be 953c cb9a 103e 7d3f e73d d2e3 f1bd
00000050: e77a b43d 9d14 ee3d 7f81 79bd 6603 323e
00000060: 8f4e 323e 8c44 01be c467 233d 2e51 41be
00000070: a642 df3d 8791 163e 07f3 0c3e 10c0 173e
00000080: 6057 c8bc a453 34bc 69b1 273e d3b6 0fbd
00000090: 388a d33d aa71 3b3d 24f9 ba3d a6e8 49be
000000a0: 3bc6 19be 271a c93c 943c 5a3a cf68 fc3c
000000b0: 815d ba3d 3c5e 87bc b2df e2bb 5308 0a3e
000000c0: 2496 94bc 4ac1 52bd 6b0f 42bd 545f e0bc
000000d0: 8477 e8bd b097 43be 8f3b 00be bd61 9dbd
000000e0: bbec b33b 9c20 a93d a141 193d 1bb8 e03d
000000f0: 6015 043e f806 dcbd 3621 a1bd 0e8d 953d
00000100: 9399 c53d 9314 b23d 7b3b 213d 9a4c 6b3e
00000110: 07ec 93bd 9ce9 73bc db4b b53d fdcf 8abd
00000120: c566 003e 351f 2d3d 62aa 2b3e 2ce1 07bd
00000130: f1a4 b4bd 9bee ca3d 4a5f abbd bdc6 29be
00000140: e570 d13d 9935 473d bbf7 d03d 87d7 d0bd
00000150: 0058 c73d 8685 223d bfea 15be aae3 173d
00000160: b412 623d f433 5c3e 9fe3 ddba 5c3c 1abd
00000170: f092 fabd 2eee 81bd 4b20 563d ad86 b1bd
00000180: 6e9a 06be a221 79bd 1f5a 833d 24f2 4bbe
00000190: 118c 2b3e d823 88bc 7edd 33be 38ec 1e3c
000001a0: 0d74 8a3d be14 eabc 7cb3 633d 5fea 18be
000001b0: 6bda c53d b56c c9bc 8bc2 0c3e 77db f8bd
000001c0: 1bd0 c9bd c52c acbd 10fc 463e ac36 af3d
000001d0: 0f4b 263c 2dbf efbd 4687 3e3d 98ee 403e
000001e0: e1f0 353e 8cf6 abbd 0664 93bc 089c 923d
000001f0: 3ee5 13be 961d 583d 2eb2 ca3c 98be 1e3c
00000200: e2f5 273e 1d76 5ebd 006e 1dbe d201 1bbe
00000210: 1ef6 493c 64d9 03be 2364 4a3e 0984 473d
00000220: 5c88 c6bd dfc0 043d 0d27 383b ad2f b13c
00000230: 78b4 333c 7df2 aebd bebe 17be 5873 d93d
00000240: 3345 0ebe e3f6 5d3c 7632 10be 3d1f 083e
00000250: db84 26bc ba99 d13d 6926 0bbe 2d92 38be
00000260: b4ff 383e 6096 eebd 2382 1abd 8403 01be
00000270: 9b55 853d f422 d6bd 92ce a13d 2a98 e1bd
00000280: 3e29 9abd b378 68bd a926 b3bc 005c 25be
00000290: 209a 2fbe c79d 83bd 12e9 93bd 7ff1 7e3d
000002a0: 11e1 17be cf80 21be 2922 a73d 1f9c 89bd
000002b0: 9b3d a1bc e079 3ebd 0ea5 0b3e 41b6 193d
000002c0: b72b 283d 9135 23be 60fa 403d 0871 0ebe
000002d0: 0ed7 4dbd 7011 003e 07d0 853d c343 143e
000002e0: ca6d 023e b4ed 1a3e eae9 933d 7bea 11be
000002f0: c319 173d d4bc 903a 2123 fc3d 4a57 f1bd
00000300: 7cb3 e13d 765b d3bb 539d cdbd 7da0 0d3d
00000310: 57cc 39bd eb73 963c 677c f3bc bc29 5dbe
00000320: db7a 033c 5ada 46bd 3720 ed3d 4a3d 1e3e
00000330: be35 813c 6c5c 0dbe ce33 e83d c794 17be
00000340: 196a 14be 2c49 e83c 0ca3 0a3c f3f5 71bd
00000350: b109 133e 438f 82bd 6a86 87bd c100 d63c
00000360: a98b 883c 8738 a53d 8dbd e8bd 4a81 1a3d
00000370: b4a1 9bbd 5f67 dbbd 8bfe d13d 460b 11be
00000380: 8cce 72be 08c1 433e 9183 22bd fa4a 8bbd
00000390: 7f41 fa3d d0b6 833d 752e 2f3e edad 9fbd
000003a0: 8715 c2bd bb33 b13d 4c0f 3ebe 4a44 223e
000003b0: a2f2 03be cc61 fbbd e20f e3bc 56dd 90bd
000003c0: 64f8 fc3d 2f91 d0bc 7d0f c63c 6382 5b3d
000003d0: 655e 11be e484 f43c b975 b1bd 5e62 293c
000003e0: a130 223e 36d6 36be 509b 463d 6552 2a3d
000003f0: b80e be3d 8f6e bcbd 8d04 abbd bbe9 a43d

decoderlayers.0.bias f4 [200]
-0.06047911 0.19122876 0.03197651 -0.022719985 0.12681398 0.0930596 0.0765031 0.19911344
-0.035123587 0.0011183788 0.008788381 -0.082427755 0.2684083 0.25560585 0.16893066 0.1973976
0.05144592 0.01791259 0.1261747 0.16110191 -0.076029755 0.20555936 0.17342502 -0.0068267863
0.038938485 0.073995255 -0.04240288 0.18986587 -0.03304852 -0.11916758 0.0021024384 0.14320226
0.09162886 0.11003014 0.21050088 0.17732173 0.03601005 0.1711178 0.024584467 0.076977745
0.29019728 0.14666672 -0.006002314 -0.12222296 0.21289593 0.08028357 -0.03572008 0.19444303
0.059489157 -0.0054012933 0.20907082 0.16376187 0.27328295 0.28450286 0.15539326 0.23079543
0.27707663 0.07013235 0.102455325 0.025638428 0.060732562 0.2459265 0.18008542 0.1870925
-0.026186164 0.11670954 0.064153306 -0.019664584 0.22444652 0.2242371 0.15017474 0.23547009
0.22130525 -0.109194756 0.007682246 -0.06399098 0.11503719 0.05576133 0.3025481 0.2591172
0.007633889 0.20100196 0.17497267 0.04728923 -0.02850032 0.055168506 0.09353544 0.22221176
0.07371465 0.121857844 0.019222474 -0.038016006 0.040773258 0.18697588 0.25002372 0.2210541
0.1185669 0.22542569 0.024272546 0.05840023 0.2563047 -0.0305516 0.24556091 0.12139262
0.06504777 0.15785965 0.29531378 -0.084405735 0.2754562 0.19060273 0.11719237 -0.011269877
-0.040907703 -0.028954567 -0.018561313 0.15913253 0.18399039 0.1968141 0.12066757 0.016214447
0.13473056 0.19825296 0.10961353 0.27984786 -0.022618925 0.2074627 0.11806751 0.2097101
0.012215407 0.24488497 0.2739326 0.23369434 0.18687312 0.14105538 0.004521516 0.24095765
-0.07726429 -0.041409396 -0.096357316 0.0997128 0.27910686 0.07215056 0.037858617 0.0141419
0.30846214 0.06179737 0.092457846 0.09219601 0.021042582 -0.045945067 0.21895559 0.25996396
0.22367918 0.14987496 -0.05071056 0.104551375 0.17648941 0.23416658 0.057758544 -0.050704524
0.05331968 0.21398889 0.13454868 0.260475 0.21655264 -0.06792349 0.189089 0.10940615
0.16528693 0.08398324 -0.00026271556 0.08615142 0.031556513 0.103670165 -0.07449824 0.07141451
0.14489743 0.15953857 0.2756007 0.037032474 0.13190234 0.05733386 0.08281083 0.21813993
0.034952447 -0.07117551 -0.04470335 0.17408341 0.22875042 0.18200953 0.06339329 0.16635264
0.13154036 0.26972923 0.09222137 0.15907246 0.21396554 0.17290835 0.12046579 0.02657538
00000000: f1b8 77bd 79d1 433e cdf9 023d 431f babc
00000010: 86db 013e 0896 be3d a8ad 9c3d 65e4 4b3e
00000020: c0dd 0fbd 9196 923a 24fd 0f3c e2cf a8bd
00000030: d06c 893e c5de 823e 29fc 2c3e 9922 4a3e
00000040: f5b8 523d 6dbd 923c f133 013e e6f7 243e
00000050: 7db5 9bbd 277e 523e 5496 313e 3cb3 dfbb
00000060: f67d 1f3d d38a 973d a4ae 2dbd 336c 423e
00000070: e35d 07bd 220e f4bd 10c9 093b 9da3 123e
00000080: e9a7 bb3d 7b57 e13d 8b8d 573e d493 353e
00000090: 467f 133d 8139 2f3e 5d65 c93c 82a6 9d3d
000000a0: bd94 943e cd2f 163e 0faf c4bb 0850 fabd
000000b0: 6401 5a3e b66b a43d 384f 12bd 131c 473e
000000c0: e7aa 733d 55fd b0bb a916 563e 31b1 273e
000000d0: beeb 8b3e 5caa 913e 691f 1f3e a355 6c3e
000000e0: fddc 8d3e 8da1 8f3d 19d4 d13d ae07 d23c
000000f0: b5c2 783d 28d4 7b3e 5068 383e 2d95 3f3e
00000100: 5e84 d6bc 6905 ef3d cf62 833d 9f17 a1bc
00000110: 4fd5 653e 699e 653e 68c7 193e 121f 713e
00000120: d89d 623e 80a1 dfbd 5abb fb3b b40d 83bd
00000130: 9e98 eb3d fe65 643d 96e7 9a3e 02ab 843e
00000140: b425 fa3b 75d3 4d3e 092c 333e 5ab2 413d
00000150: 8179 e9bc 5ff8 613d 828f bf3d 7b8b 633e
00000160: b5f7 963d 9b90 f93d 7378 9d3c acb6 1bbd
00000170: dc01 273d 9b76 3f3e 1c03 803e 025c 623e
00000180: 34d3 f23d fed5 663e 38d7 c63c 1435 6f3d
00000190: 5f3a 833e 5947 fabc 5274 7b3e b29c f83d
000001a0: c437 853d f6a5 213e 5e33 973e eadc acbd
000001b0: 9808 8d3e 5d2d 433e 8e02 f03d 4aa5 38bc
000001c0: d68e 27bd 2132 edbc e50d 98bc a3f3 223e
000001d0: fa67 3c3e a389 493e 8f20 f73d 29d4 843c
000001e0: cff6 093e d302 4b3e 0f7d e03d 3848 8f3e
000001f0: 534b b9bc 1a71 543e 61cd f13d 3fbe 563e
00000200: 2123 483c 20c3 7a3e e540 8c3e 924d 6f3e
00000210: ab5b 3f3e d270 103e 3a29 943b 9abd 763e
00000220: bd3c 9ebd e69c 29bd fc56 c5bd 3936 cc3d
00000230: 18e7 8e3e acc3 933d a311 1b3d 6eb3 673c
00000240: c0ee 9d3e 3d1f 7d3d 8a5a bd3d 43d1 bc3d
00000250: 7e61 ac3c e530 3cbd e535 603e ff19 853e
00000260: 280c 653e d278 193e e0b5 4fbd 081f d63d
00000270: a4b9 343e 5dc9 6f3e 3994 6c3d 8caf 4fbd
00000280: bd65 5a3d e71f 5b3e 21c7 093e fb5c 853e
00000290: fabf 5d3e 791b 8bbd 8ca0 413e 5510 e03d
000002a0: fa40 293e 68ff ab3d 16bd 89b9 2870 b03d
000002b0: 6741 013d 0651 d43d 8992 98bd c541 923d
000002c0: fe5f 143e 145e 233e 891b 8d3e 5daf 173d
000002d0: 6811 073e e9d6 6a3d b998 a93d 1360 5f3e
000002e0: 4c2a 0f3d 77c4 91bd dc1a 37bd ec42 323e
000002f0: 8d3d 6a3e b560 3a3e 57d4 813d 5958 2a3e
00000300: 84b2 063e f319 8a3e 8fde bc3d e4e3 223e
00000310: c819 5b3e e30e 313e c5b6 f63d 9cb4 d93c

decodernorms.0.weight f4 [200]
1.0525724 1.0341725 1.0205963 1.081805 0.98836523 1.0459696 1.040707 1.0726333
1.0405701 1.0273054 1.0030802 1.0741916 1.0208771 1.0938237 1.0389428 1.0512042
1.0712769 1.0433518 1.0521903 1.0618778 1.0619615 1.0493084 1.0269029 1.0166168
1.0502439 1.0725718 1.0134078 1.0702626 1.0049092 1.0308117 1.0314059 1.0317688
1.055277 1.0210762 1.065912 1.0150065 1.0725598 1.0347618 1.046963 1.0478079
1.0187498 1.0033567 1.0409335 1.0330982 1.0706514 1.0355337 1.0295751 1.0469213
1.0605013 1.0363771 1.0365905 1.0528669 1.0743394 1.0404624 1.0139025 1.0540068
1.0610975 1.0425463 1.0347971 1.0167286 1.0481037 1.0440711 1.0472323 1.018461
1.0539281 1.0216168 1.0415068 1.0402601 1.0588493 1.0353491 1.0612789 1.0718863
0.9978129 0.9965792 1.0324644 1.0371242 1.0491915 1.0593336 1.0233966 1.0582366
1.0283715 1.023072 1.049267 1.0692153 1.002032 1.019204 1.0087163 1.0170006
1.0805287 1.0586854 1.0796617 1.0536324 0.9730555 1.0671116 1.0411788 1.0344255
1.0747 1.0873237 1.0794706 1.0510906 1.0438352 0.97929424 1.0380818 1.051147
0.9964491 1.0177596 1.0528096 1.0563366 1.1048213 1.0528473 1.0237354 0.99753225
1.050613 1.0398808 1.0828314 1.0489562 1.0202014 1.0682287 1.0110279 1.0227375
1.0131418 1.0911968 1.0411222 1.0816396 1.0280868 1.053964 1.0374662 1.0671258
1.0462484 1.0970336 1.0525371 0.9899823 1.0871716 1.0542127 1.0455755 1.0426415
1.0332457 1.0476367 0.99842596 1.0407135 1.0499914 1.027168 1.0752059 1.0292046
1.0364891 1.0336759 1.045098 1.0643015 1.0680621 1.0457901 1.0733371 1.044396
1.0506325 1.0276468 1.0273097 1.0667968 1.0484084 1.042488 1.0514139 1.0201373
1.0284632 1.0403745 1.0446926 1.0482055 1.0706781 1.0111153 1.0508039 1.0425204
1.0691842 1.0713186 1.0357828 1.0933267 1.0577525 1.038367 1.0323713 1.0397449
0.99680865 1.0525067 1.0285805 0.99801105 1.0157299 1.025484 1.0381038 1.0746883
1.0222749 1.0447167 1.0477026 1.0415455 1.0648904 1.0589505 1.0353428 1.0929791
1.0407223 1.0140576 1.0567861 1.0375437 1.0265502 1.0633332 1.0544633 1.0155944
00000000: b1ba 863f c45f 843f e6a2 823f 9678 8a3f
00000010: 8105 7d3f 55e2 853f e335 853f 0c4c 893f
00000020: 6731 853f be7e 833f ef64 803f 1c7f 893f
00000030: 1aac 823f 6a02 8c3f 14fc 843f dc8d 863f
00000040: 9a1f 893f 8d8c 853f 2cae 863f 9deb 873f
00000050: 5bee 873f bd4f 863f 8e71 833f 8020 823f
00000060: 646e 863f 084a 893f 59b7 813f 5dfe 883f
00000070: dda0 803f a3f1 833f 1c05 843f 0011 843f
00000080: 5113 873f a0b2 823f ce6f 883f bceb 813f
00000090: a449 893f 1373 843f e202 863f 921e 863f
000000a0: 6566 823f fe6d 803f 4f3d 853f 903c 843f
000000b0: 1b0b 893f 5e8c 843f 1ec9 833f 8401 863f
000000c0: 82be 873f 01a8 843f ffae 843f 58c4 863f
000000d0: f483 893f df2d 853f 8fc7 813f b2e9 863f
000000e0: 0bd2 873f 2872 853f 3b74 843f 2a24 823f
000000f0: 4328 863f 1fa4 853f b50b 863f ee5c 823f
00000100: 1ee7 863f 57c4 823f 1850 853f 3e27 853f
00000110: 6088 873f 5286 843f fdd7 873f 9233 893f
00000120: ab70 7f3f d01f 7f3f cb27 843f 7cc0 843f
00000130: e84b 863f 3e98 873f a9fe 823f 4c74 873f
00000140: ada1 833f 06f4 823f 624e 863f 0cdc 883f
00000150: 9642 803f 4775 823f 9e1d 813f 132d 823f
00000160: c44e 8a3f 0183 873f 5b32 8a3f 6ddd 863f
00000170: 2a1a 793f 1d97 883f 5945 853f 0e68 843f
00000180: c58f 893f 6c2d 8b3f 182c 8a3f 238a 863f
00000190: 649c 853f 07b3 7a3f dddf 843f fc8b 863f
000001a0: 4a17 7f3f f245 823f 77c2 863f 0a36 873f
000001b0: c96a 8d3f b3c3 863f c309 833f 465e 7f3f
000001c0: 7d7a 863f d01a 853f 389a 8a3f 3244 863f
000001d0: f695 823f b8bb 883f 5d69 813f 10e9 823f
000001e0: a1ae 813f 56ac 8b3f 7e43 853f 2b73 8a3f
000001f0: 5998 833f 4be8 863f b1cb 843f 9497 883f
00000200: 78eb 853f 996b 8c3f 89b9 863f 7b6f 7d3f
00000210: 7028 8b3f 71f0 863f 6bd5 853f 4775 853f
00000220: 6541 843f f618 863f d898 7f3f 1a36 853f
00000230: 1e66 863f 3e7a 833f 59a0 893f fabc 833f
00000240: adab 843f 7e4f 843f c5c5 853f 083b 883f
00000250: 42b6 883f 73dc 853f 1c63 893f c5ae 853f
00000260: 207b 863f ee89 833f e27e 833f cc8c 883f
00000270: 3f32 863f 3f70 853f bb94 863f dc93 823f
00000280: afa4 833f fe2a 853f 7db8 853f 992b 863f
00000290: fb0b 893f 3a6c 813f be80 863f 4f71 853f
000002a0: 07db 883f f820 893f 8894 843f 21f2 8b3f
000002b0: 6f64 873f 36e9 843f be24 843f 5c16 853f
000002c0: da2e 7f3f 8ab8 863f 87a8 833f a77d 7f3f
000002d0: 7003 823f 0f43 833f 96e0 843f 638f 893f
000002e0: e7d9 823f 47b9 853f 1e1b 863f 5d51 853f
000002f0: 544e 883f b18b 873f 1d86 843f bde6 8b3f
00000300: 6336 853f a4cc 813f c444 873f 3bce 843f
00000310: ff65 833f 4d1b 883f a7f8 863f fffe 813f
