tutorial/results_test/latent_space/model.pt (torch, 358333 bytes, 18 tensors)

encoderlayers.0.weight f4 [200, 170]
0	0x3ce4c136	0.027924161
1	0xbd755a3b	-0.059900504
2	0xbc77fa8f	-0.015135421
3	0xbd3694e8	-0.0445756
4	0x3d24acfa	0.040204026
5	0xbd0c1226	-0.034196995
6	0x3d9477f2	0.0724944
7	0xbd3af091	-0.04563958
8	0x3d0fba93	0.03509004
9	0xbd889ee6	-0.066709325
10	0xbd5d687a	-0.054054715
11	0x3d805ebf	0.062680714
12	0x3c03bbef	0.008040412
13	0x3cef1b75	0.029187897
14	0xbd9aefbc	-0.07565257
15	0xbc8ea590	-0.01741293
16	0xbd093f27	-0.033507492
17	0xbdac17ae	-0.08402954
18	0xbdbc1995	-0.09184567
19	0x3de5c068	0.11218339
20	0xbbc367de	-0.0059633097
21	0x3d997137	0.07492297
22	0x3c6b29ae	0.014353199
23	0x3caf6ae6	0.021413278
24	0x3c8ccde0	0.017188013
25	0xbd9c3ff3	-0.07629385
26	0xbaa11917	-0.0012290803
27	0xbbe95719	-0.0071209786
28	0x3dc2363d	0.094830014
29	0xbdf67a37	-0.120350294
30	0x3cde6422	0.027147356
31	0x3d86154f	0.06547033
32	0xbd311a6d	-0.043238092
33	0x3d0b9b58	0.034083694
34	0x3bd53aae	0.0065072393
35	0x3c88c209	0.016694086
36	0x3d8fbec3	0.07018807
37	0xbc3bd2a3	-0.011463794
38	0x3daa8076	0.08325283
39	0xbd9f6ddd	-0.07784627
40	0xbbb43d51	-0.0055004735
41	0x3b7f571f	0.003896184
42	0xbd0fc069	-0.035095606
43	0xbd3da895	-0.04630335
44	0xbc32a9de	-0.010904757
45	0x3ba579e7	0.0050499323
46	0x3d367f24	0.044554844
47	0xbcb1e7ee	-0.021717038
48	0x3cfd2f72	0.030906413
49	0xbd38f386	-0.045154117
50	0xbd9a7f15	-0.0754377
51	0x3d6c8879	0.057747338
52	0x3c9a8791	0.018863471
53	0x3cfae1b2	0.030625198
54	0x3d2e89ee	0.04261201
55	0xbc74136b	-0.014897208
56	0xbce934e8	-0.02846761
57	0xbc52259e	-0.012826351
58	0xbcc7a980	-0.024372816
59	0xbc8ba1eb	-0.017044982
60	0xbd063185	-0.03276207
61	0x3dbc2a9f	0.09187817
62	0x3d25d0b6	0.040482245
63	0xbcf169e7	-0.029469443
64	0x3d3f1308	0.04664901
65	0xbc253005	-0.0100822495
66	0x3d97a03e	0.07403611
67	0x3d775517	0.060383882
68	0xbd3c053d	-0.045903433
69	0x3d0ad470	0.033894002
70	0xbd801b3e	-0.06255196
71	0x3d90bfe3	0.070678495
72	0x3d627753	0.055289578
73	0xbcc8e9d1	-0.024525555
74	0xbd511b4c	-0.051051423
75	0xbc075b97	-0.008261583
76	0x3cf8976c	0.030345641
77	0x3d8fc0de	0.07019208
78	0x3d0552e4	0.032549754
79	0xbc82a858	-0.015949413
80	0x3c2365f8	0.009973042
81	0xbcabc3f3	-0.02096746
82	0x3cc4dff3	0.024032569
83	0x3c996f53	0.018729841
84	0x3d2ca82f	0.04215258
85	0xbd3103d2	-0.043216534
86	0x3d808e59	0.06277151
87	0x3d4bfdb0	0.049802482
88	0xbca296c5	-0.019847283
89	0x3dc16484	0.09443
90	0xbd469640	-0.048483133
91	0x3d543f25	0.05181803
92	0xbcf51242	-0.029915933
93	0xbd135ab2	-0.035975166
94	0x3d0a683c	0.033790812
95	0xbd0b61a7	-0.034028675
96	0x3cf97704	0.030452259
97	0x3c56287b	0.013071175
98	0x3d3fd67b	0.046835404
99	0x3d12d6ef	0.035849508
100	0xbbeeb8f7	-0.007285233
101	0x3db9c783	0.09071257
102	0xbb64b9a3	-0.0034900687
103	0x3bfbc55d	0.0076834396
104	0xbcf4410f	-0.029816179
105	0x3c4ea3c5	0.012612288
106	0xbd345030	-0.044021785
107	0xbd6281f1	-0.055299703
108	0x3d6ec633	0.058294486
109	0x3c9029d8	0.017598078
110	0x3d67d8c3	0.056603204
111	0x3ce7c755	0.028293291
112	0xbbca2dbd	-0.006170003
113	0x3d38d6a7	0.045126583
114	0x3cd3fb01	0.025876524
115	0xbc06e02f	-0.0082321605
116	0xbc1599eb	-0.009130935
117	0xb940f9f6	-0.00018403665
118	0x3d076be6	0.033061884
119	0x3c674ca3	0.014117393
120	0xbd25fe13	-0.040525507
121	0xbd231d57	-0.039822903
122	0xbd8649db	-0.065570556
123	0xbd09d316	-0.033648573
124	0xbd197624	-0.037466183
125	0xbc8f23d4	-0.017473139
126	0xbd2b788f	-0.04186302
127	0xbb5b4029	-0.003345499
128	0x3c8a9675	0.016917447
129	0xbb5b29d0	-0.003344167
130	0xbb820b06	-0.0039685993
131	0x3bff5ce6	0.007793057
132	0xbcc393aa	-0.023874123
133	0xbb1f9441	-0.002434984
134	0x3d38b70c	0.045096442
135	0xbd1922fb	-0.037386876
136	0xbd4219b5	-0.047387797
137	0xbc2e946d	-0.010655505
138	0xbce045d5	-0.027377049
139	0xbc069563	-0.0082143275
140	0xbd1d4f4c	-0.0384057
141	0xbd1dd19f	-0.03852999
142	0xbba9fb81	-0.0051874523
143	0x3ce5412a	0.027985174
144	0x3bc6260f	0.0060470174
145	0xbdbd3dc7	-0.09240299
146	0xbd470bda	-0.048595287
147	0xbcf4884f	-0.029850153
148	0x3cfdb409	0.030969637
149	0xbd6fa327	-0.058505204
150	0xbd939f13	-0.072080754
151	0x3c465199	0.012104415
152	0xbd7bf7d2	-0.061515637
153	0x3d6f0aa3	0.058359753
154	0x3c4ab827	0.012373007
155	0x3d9b06ab	0.07569631
156	0x3ce72b67	0.028218938
157	0xbd0536f4	-0.03252311
158	0xbd65c74d	-0.05609827
159	0x3d1b1e1f	0.037870523
160	0x3d68beb7	0.056822505
161	0xbd325c62	-0.043545134
162	0x3db3deca	0.08782728
163	0xbd3afa98	-0.04564914
164	0xbbe65fdd	-0.0070304708
165	0x3d1c9bfd	0.0382347
166	0xbd68b405	-0.056812305
167	0x3d170863	0.036873233
168	0xbd3b29e8	-0.04569426
169	0x3be0c72b	0.00685968
170	0xbd68e4f9	-0.05685899
171	0x3d886844	0.06660512
172	0x3d707ac7	0.05871084
173	0xbcf8065e	-0.030276474
174	0x3d6e4987	0.05817559
175	0xbb90cedf	-0.004419192
176	0x3d38551a	0.045003034
177	0x3cfa05d3	0.030520355
178	0x3ba8b62c	0.0051486697
179	0xbd88a320	-0.066717386
180	0xbdfb63cd	-0.12274895
181	0x3cdcc0ea	0.026947457
182	0x3dae988a	0.08525188
183	0xbb4db349	-0.003138738
184	0x3c30d658	0.010793291
185	0xbd87f024	-0.066376
186	0xbd6670e1	-0.056259993
187	0x3d472874	0.048622563
188	0xbd0fc792	-0.035102434
189	0x3dcd9dd8	0.10039872
190	0x3d8e0e25	0.069362916
191	0xbdaf5d3f	-0.08562707
192	0xbc531359	-0.012883031
193	0x3dca254b	0.09870394
194	0x3d138729	0.03601757
195	0xbae97835	-0.0017812314
196	0x3d596451	0.053074185
197	0xbd8b587f	-0.06803989
198	0xbc613a3a	-0.013746792
199	0x3e036dcd	0.12834854
200	0x3e0380b4	0.12842065
201	0xbd64628d	-0.055758048
202	0x3ce4ed8d	0.027945304
203	0xbcb20f9a	-0.021735955
204	0xbda8bad0	-0.08238757
205	0xbcff6408	-0.031175628
206	0x3d9a7341	0.07541514
207	0x3d6268ea	0.055275835
208	0xbdf15501	-0.11783791
209	0x3d65d234	0.05610867
210	0xbce8de2a	-0.028426249
211	0x3d206d0b	0.03916649
212	0xbaa8e99b	-0.0012887003
213	0xbcfa9d81	-0.030592682
214	0xbd8f6c1c	-0.07003042
215	0x3d239285	0.039934654
216	0x3d33f124	0.04393114
217	0xbc7ba49b	-0.015359069
218	0x3c014248	0.007889338
219	0x3d0b6f19	0.034041498
220	0x3ce456b0	0.027873367
221	0xbd8c5027	-0.06851225
222	0x3d06cbbc	0.03290914
223	0xbcbb86b0	-0.022891372
224	0xbc9084d2	-0.017641459
225	0xbc18bd43	-0.009322467
226	0x3d5af7a5	0.05345883
227	0x3d04a265	0.032381434
228	0xbb8964c4	-0.0041929204
229	0x3cd2c6d9	0.025729584
230	0x3d47bb6f	0.048762735
231	0xbd7217f0	-0.05910486
232	0xbcbba1cf	-0.022904305
233	0xbd660ba9	-0.056163464
234	0xbb448b47	-0.0029990242
235	0xbd263580	-0.040578365
236	0x3b91d1c6	0.004450056
237	0x3d3b036c	0.04565756
238	0x3d8e3ec8	0.06945568
239	0xbc9b4da0	-0.018957913
240	0x3ca30d60	0.019903839
241	0xbc5bb836	-0.0134106185
242	0x3c3e826c	0.011627775
243	0x3bc3db59	0.005977076
244	0x3d42c97e	0.04755544
245	0x3c35514d	0.011066747
246	0x3ccbac0a	0.024862308
247	0xbd868369	-0.06568033
248	0x3cf383b7	0.029725892
249	0xbbf741f7	-0.0075457054
250	0x3cc678d2	0.024227533
251	0xbbba8ccc	-0.005693054
252	0xbd4818ed	-0.048851896
253	0x3cbfc8b2	0.023411129
254	0x3b350fe7	0.0027627887
255	0xbceb0d75	-0.02869294

encoderlayers.0.bias f4 [200]
0	0xbd6120d6	-0.054962955
1	0xbd2e2e8e	-0.042524867
2	0x3d828d5d	0.06374619
3	0x3ccc3a76	0.02493022
4	0x3d74e6c5	0.05979039
5	0x3d2d36d0	0.0422886
6	0x3cf8d58b	0.030375263
7	0xbd52e53c	-0.051488146
8	0x3cca2491	0.02467564
9	0x3cedfdbd	0.029051656
10	0xbd276a6f	-0.040872987
11	0x3d9e17b2	0.07719363
12	0xbc313ae2	-0.010817261
13	0x3d057cb0	0.032589614
14	0xbcac9222	-0.021065775
15	0x3c431c0f	0.011908545
16	0xbcec4e53	-0.028845942
17	0x3d4ffc72	0.05077786
18	0x3d07e5e1	0.033178214
19	0x3d24c870	0.040230215
20	0x3d32f697	0.043692198
21	0x3d5dd1bb	0.054155093
22	0x3d8bb014	0.068206936
23	0x3d9f13e9	0.077674694
24	0x3d922754	0.071364075
25	0xbc890c8d	-0.016729617
26	0x3bc5866d	0.0060279877
27	0x3c1550be	0.009113489
28	0xbc19dfd5	-0.009391745
29	0x3d987d2a	0.07445748
30	0x3cf1f745	0.029536853
31	0xbbeb57b6	-0.007182087
32	0xbc183940	-0.009290993
33	0x3d212a55	0.03934701
34	0x3d604203	0.054750454
35	0xbd5a2c9e	-0.053265207
36	0x3cef057b	0.029177418
37	0xbd8433c7	-0.06455188
38	0x3bfe23e7	0.0077557447
39	0xbd7ef3b3	-0.06224413
40	0x3cd49374	0.025949217
41	0xbd802904	-0.06257823
42	0x3d4909d9	0.049081657
43	0x3d008d24	0.031384602
44	0xbd426eac	-0.047468826
45	0xbc850bdb	-0.016241005
46	0xbce21273	-0.027596688
47	0xbd93ca44	-0.072163135
48	0x3c979c0f	0.018507032
49	0xbd3249d1	-0.043527428
50	0x3c2a655c	0.0104001425
51	0x3d91e6dc	0.07124111
52	0xbcaa30cd	-0.020775223
53	0x3d42de34	0.04757519
54	0xbcf22034	-0.029556371
55	0xbd7f4650	-0.062322915
56	0x3c2d822c	0.010590117
57	0xbd71692c	-0.05893819
58	0xbc47d55d	-0.012196866
59	0x3bd81b1d	0.006595029
60	0x3cc50819	0.024051713
61	0xbd60467a	-0.05475471
62	0x3c8cfd93	0.017210757
63	0xbd2f554c	-0.042805955
64	0x3d33dbc0	0.04391074
65	0xbbd79f67	-0.0065802815
66	0xba922396	-0.0011149521
67	0x3d39c941	0.045357946
68	0xbd114b64	-0.03547229
69	0xbd819910	-0.063280225
70	0xbd1d892e	-0.038460903
71	0x3cfe2a40	0.031026006
72	0xbcec6a19	-0.028859185
73	0xbd7b4607	-0.06134608
74	0x3ca32d78	0.019919142
75	0x398894ad	0.00026050713
76	0xbccaf9e2	-0.024777357
77	0xbd802aeb	-0.06258186
78	0xbcac7c5e	-0.021055397
79	0x3d8dd8be	0.06926106
80	0xbd94ce02	-0.07265855
81	0x3d1bd28e	0.038042597
82	0x3c60b38d	0.013714683
83	0x3d332012	0.043731757
84	0xbd4c5819	-0.049888704
85	0xbac92864	-0.001534712
86	0xbcdda6e0	-0.027057111
87	0x3c6d7a4e	0.014494492
88	0x3d770e69	0.060316477
89	0xbca4af87	-0.02010323
90	0x3ce3d361	0.027810754
91	0x3d697feb	0.057006758
92	0x3d86ec24	0.06588009
93	0xbd61849e	-0.055058114
94	0xbd31762b	-0.043325584
95	0x3d7433a5	0.059619565
96	0xbd575f71	-0.052581254
97	0xbd8097b5	-0.06278936
98	0x3cad3da6	0.02114756
99	0xbd064d58	-0.032788604
100	0xbd78645b	-0.06064258
101	0x3caa455d	0.020785028
102	0xbd0eb9c1	-0.034845117
103	0x3bdeb046	0.006795916
104	0xbd19d54e	-0.03755694
105	0x3ce80db4	0.028326847
106	0xbd3441e7	-0.044008162
107	0xbcb791b0	-0.022408336
108	0x3d0de395	0.034640867
109	0x3be96492	0.0071225846
110	0xbd88f78d	-0.066878416
111	0xbcfc7054	-0.030815281
112	0x3c215281	0.009846331
113	0xbd0264e4	-0.031834498
114	0xbdb271f8	-0.08713144
115	0x3d9cbb7f	0.076529495
116	0xbc6811da	-0.014164412
117	0x3c4c4628	0.012467898
118	0x3b83bd03	0.0040203347
119	0x3bb55498	0.005533766
120	0x3d0eda85	0.034876365
121	0x3d511858	0.051048607
122	0x3cc6e815	0.024280587
123	0x3ca59843	0.020214206
124	0x3d68dbfd	0.056850422
125	0x3d48d01a	0.049026586
126	0xbccb24d6	-0.024797838
127	0x3d928605	0.071544684
128	0x3cde1e20	0.027113974
129	0x3a8327ca	0.0010006365
130	0xbd719041	-0.058975462
131	0xbbe9b892	-0.007132598
132	0x3c536af6	0.012903919
133	0xbc80c45d	-0.015718633
134	0x3cd8376d	0.026393617
135	0xbcf8e96c	-0.030384742
136	0xbd918ad7	-0.0710656
137	0xbd3f82b2	-0.0467555
138	0x3d90a92e	0.070635185
139	0x3cb6e85a	0.02232759
140	0xbcb88a45	-0.02252687
141	0x3ce50fc8	0.027961627
142	0x3cf00391	0.029298576
143	0xbcb46140	-0.022019029
144	0xbc69033f	-0.014221965
145	0xbd41d1e0	-0.047319293
146	0xbcf3dff4	-0.029769875
147	0x3b26802d	0.0025405989
148	0x3d3bff2c	0.045897648
149	0x3d3abcaa	0.04559008
150	0xbd143d7c	-0.03619145
151	0x3d929e7d	0.071591355
152	0xbd779a6f	-0.060450014
153	0x3d75dc03	0.060024273
154	0xbd0a865c	-0.03381954
155	0xbc4fc3db	-0.012680973
156	0x3d6bbc99	0.057552908
157	0x3d9793d2	0.07401241
158	0xbd92ac4c	-0.07161769
159	0xbd54dc0b	-0.05196766
160	0xbd331ffe	-0.043731682
161	0xbd549cd7	-0.051907387
162	0x3d9c16ee	0.07621561
163	0x3d6d1035	0.057876784
164	0x3ad450b4	0.0016198368
165	0x3c0a4129	0.008438387
166	0x3d92f1c3	0.07175019
167	0xbcec9eba	-0.02888428
168	0x3c466c4c	0.012110781
169	0x3d683267	0.056688692
170	0x3c921aec	0.017835103
171	0x3d1b4ee3	0.03791703
172	0x3dae40a5	0.08508424
173	0xbd1ed76f	-0.038779672
174	0xbd824dc3	-0.06362488
175	0x3d01dcae	0.031704597
176	0x3d6fded1	0.058562104
177	0xbd0cc876	-0.034370862
178	0xbd16b644	-0.036794916
179	0xbd7606e7	-0.060065176
180	0x3bd76323	0.0065730973
181	0x3beddb8f	0.0072588394
182	0x3ce9444c	0.02847495
183	0xbd419660	-0.04726255
184	0xbd04fbce	-0.032466702
185	0x3ce11b36	0.027478795
186	0x3ccf36a0	0.025294602
187	0xb6f47420	-7.2852854e-06
188	0xbc357773	-0.011075842
189	0xbda69a5d	-0.08134911
190	0x3d465768	0.0484232
191	0xbb875cf9	-0.0041309563
192	0xbd1ebeaa	-0.03875605
193	0xbd9143d8	-0.07093018
194	0x3b3cbcfc	0.0028799167
195	0x3c56231c	0.013069894
196	0x3d007bb3	0.03136797
197	0xbced6ed1	-0.028983505
198	0xbc7d5d91	-0.0154642025
199	0x3da72d1c	0.08162901

encodernorms.0.weight f4 [200]
0	0x3f71edc4	0.94503427
1	0x3f7421b2	0.95363915
2	0x3f7422d6	0.95365655
3	0x3f74f782	0.95690167
4	0x3f5a3c8e	0.8524865
5	0x3f6fc8bd	0.9366568
6	0x3f736a9d	0.95084554
7	0x3f760b5a	0.9611107
8	0x3f7b24df	0.98103136
9	0x3f78dc4e	0.9721116
10	0x3f7887a8	0.97081995
11	0x3f7234de	0.9461192
12	0x3f7a0f28	0.97679377
13	0x3f7ccd09	0.9875036
14	0x3f7c0326	0.98442304
15	0x3f80b594	1.0055413
16	0x3f7323c9	0.9497648
17	0x3f7c310c	0.9851234
18	0x3f7fdecf	0.99949354
19	0x3f783bee	0.96966445
20	0x3f736858	0.9508109
21	0x3f76a14e	0.9633988
22	0x3f75b5c0	0.95980453
23	0x3f7c1131	0.9846373
24	0x3f7d01be	0.98830783
25	0x3f75c114	0.9599774
26	0x3f717ef5	0.94334346
27	0x3f76da0a	0.9642645
28	0x3f7d1ae3	0.9886915
29	0x3f777315	0.96659976
30	0x3f76ad56	0.9635824
31	0x3f77072d	0.96495324
32	0x3f7bb202	0.98318493
33	0x3f70ad68	0.94014597
34	0x3f7325e4	0.9497969
35	0x3f761e88	0.96140337
36	0x3f555559	0.83333355
37	0x3f807ed1	1.0038701
38	0x3f74bc4c	0.9559982
39	0x3f74819d	0.95510274
40	0x3f75a306	0.9595188
41	0x3f7aaf87	0.97924083
42	0x3f784802	0.96984875
43	0x3f75dd49	0.9604078
44	0x3f71b92c	0.94423175
45	0x3f7bb92d	0.9832943
46	0x3f49945d	0.7874201
47	0x3f54e8e9	0.8316789
48	0x3f5d2b21	0.86393934
49	0x3f7ba116	0.9829267
50	0x3f7456dc	0.95445037
51	0x3f831ddf	1.0243491
52	0x3f79a7aa	0.9752146
53	0x3f75b95a	0.9598595
54	0x3f74dd05	0.9564975
55	0x3f7a9e72	0.9789802
56	0x3f7c2c08	0.98504686
57	0x3f7c6c66	0.986029
58	0x3f734ef1	0.9504233
59	0x3f7cc03b	0.9873082
60	0x3f7b6ed3	0.9821598
61	0x3f7b3e99	0.9814239
62	0x3f72846f	0.9473333
63	0x3f746109	0.95460564
64	0x3f772ffe	0.96557605
65	0x3f5830a6	0.8444923
66	0x3f58187a	0.8441235
67	0x3f733a8d	0.95011216
68	0x3f5dfc1a	0.867128
69	0x3f75437f	0.95806116
70	0x3f7b0227	0.9805016
71	0x3f709dc8	0.93990755
72	0x3f7667e7	0.9625229
73	0x3f728922	0.947405
74	0x3f79ae30	0.97531414
75	0x3f7cac03	0.9869997
76	0x3f77aad3	0.9674503
77	0x3f79c65d	0.97568303
78	0x3f7e847c	0.99420905
79	0x3f73e89d	0.95276815
80	0x3f774633	0.9659149
81	0x3f752dc2	0.95772946
82	0x3f735a2d	0.9505947
83	0x3f7ac0ff	0.9795074
84	0x3f5a4fa0	0.8527775
85	0x3f7414d9	0.9534431
86	0x3f75063f	0.95712656
87	0x3f7b4af0	0.9816122
88	0x3f7c9fcb	0.98681325
89	0x3f7965cd	0.9742096
90	0x3f650d0f	0.8947305
91	0x3f736eeb	0.9509112
92	0x3f61dbb2	0.88225853
93	0x3f758c9f	0.95917696
94	0x3f7b730b	0.98222417
95	0x3f7aa5c3	0.9790918
96	0x3f5e6238	0.8686862
97	0x3f7aca3f	0.97964853
98	0x3f767364	0.9626982
99	0x3f743a7f	0.9540176
100	0x3f79cab8	0.9757495
101	0x3f73adfd	0.9518736
102	0x3f72a37a	0.94780695
103	0x3f724445	0.9463542
104	0x3f7321a2	0.94973195
105	0x3f717016	0.94311655
106	0x3f6ec229	0.93265015
107	0x3f77feca	0.9687315
108	0x3f80065e	1.0001943
109	0x3f737a13	0.95108145
110	0x3f771e67	0.96530765
111	0x3f71da21	0.94473463
112	0x3f570a41	0.8400002
113	0x3f747b4a	0.95500624
114	0x3f7894a4	0.9710181
115	0x3f75b041	0.9597207
116	0x3f77c6e0	0.96787834
117	0x3f7d6e41	0.9899636
118	0x3f7a1cf5	0.97700435
119	0x3f79994b	0.9749953
120	0x3f7294ef	0.94758505
121	0x3f7d89d5	0.9903844
122	0x3f788a0f	0.9708566
123	0x3f7b963e	0.98276126
124	0x3f7461f7	0.9546198
125	0x3f7a88af	0.9786481
126	0x3f75d88e	0.9603356
127	0x3f711f92	0.941888
128	0x3f77413b	0.9658391
129	0x3f784067	0.9697327
130	0x3f6cb6f1	0.92466646
131	0x3f5ba92f	0.8580503
132	0x3f7c74e0	0.9861584
133	0x3f7a498a	0.9776846
134	0x3f77b444	0.9675944
135	0x3f716d4a	0.94307387
136	0x3f7b73d0	0.9822359
137	0x3f76730f	0.96269315
138	0x3f5b7a8a	0.85733855
139	0x3f6da96f	0.9283666
140	0x3f6e1856	0.93005884
141	0x3f8040c1	1.0019761
142	0x3f76bd62	0.96382725
143	0x3f7bc07c	0.9834058
144	0x3f7c8433	0.9863922
145	0x3f7942bb	0.9736745
146	0x3f762e3d	0.96164304
147	0x3f5a4340	0.85258865
148	0x3f7bed36	0.9840883
149	0x3f7946e4	0.97373796
150	0x3f77b23b	0.96756333
151	0x3f7aa0ed	0.97901803
152	0x3f77ab65	0.967459
153	0x3f7762bf	0.9663505
154	0x3f7c4945	0.985493
155	0x3f7c91cf	0.98659986
156	0x3f79ee41	0.9762917
157	0x3f7a4501	0.9776154
158	0x3f7bcddc	0.9836099
159	0x3f534315	0.82524234
160	0x3f7a18e7	0.9769425
161	0x3f796476	0.97418916
162	0x3f751f9d	0.95751363
163	0x3f774a8e	0.96598136
164	0x3f771ad2	0.965253
165	0x3f769af7	0.9633021
166	0x3f789f7f	0.9711837
167	0x3f76d344	0.96416116
168	0x3f70eca8	0.9411111
169	0x3f7cebe1	0.9879742
170	0x3f791e7d	0.97312146
171	0x3f4f328e	0.80936515
172	0x3f6e8e08	0.9318547
173	0x3f769af5	0.96330196
174	0x3f708dd2	0.939664
175	0x3f7a5d45	0.9779857
176	0x3f806b82	1.0032809
177	0x3f7fab2b	0.99870557
178	0x3f7e7003	0.99389666
179	0x3f7aa151	0.979024
180	0x3f7626b3	0.961528
181	0x3f770c39	0.96503025
182	0x3f76b6a1	0.9637242
183	0x3f814ded	1.0101906
184	0x3f73f625	0.9529746
185	0x3f7d86f2	0.99034035
186	0x3f7a04f7	0.97663826
187	0x3f7cdb1c	0.98771834
188	0x3f729e6a	0.9477297
189	0x3f77a130	0.9673033
190	0x3f7455c6	0.9544338
191	0x3f746f38	0.95482206
192	0x3f790bd5	0.9728368
193	0x3f802b68	1.0013247
194	0x3f76209c	0.9614351
195	0x3f7927f0	0.97326565
196	0x3f799189	0.97487694
197	0x3f79c3e5	0.97564536
198	0x3f66373c	0.8992803
199	0x3f76b861	0.9637509

encodernorms.0.bias f4 [200]
0	0xbe46a319	-0.19398154
1	0xbea09805	-0.31365982
2	0xbf06b7a8	-0.5262399
3	0xbda89fd1	-0.082336076
4	0xbe886b20	-0.2664423
5	0xbddddb6f	-0.10832869
6	0xbee3448b	-0.44388232
7	0x3e841ce5	0.25803295
8	0xbdd1406f	-0.10217368
9	0xbce4a70a	-0.027911682
10	0x3da1a9af	0.07893693
11	0xbef74bae	-0.48299927
12	0xbe293267	-0.16523133
13	0xbea628ff	-0.32453153
14	0x3eaad597	0.3336608
15	0x3ef8c833	0.4859024
16	0x3f1a6495	0.60309726
17	0x3e15ff59	0.14648189
18	0x3eff5e5c	0.49876678
19	0xbe8b6198	-0.27222896
20	0xbf12da39	-0.5736423
21	0xbbfbadad	-0.007680616
22	0x3ebbdc7c	0.36691654
23	0x3ea8f9b1	0.33003
24	0xbe54197c	-0.20712847
25	0xbe75c101	-0.23999406
26	0xbe6a7f04	-0.22900015
27	0xbf12fcd7	-0.57417053
28	0x3ec356fb	0.38152298
29	0xbf08531c	-0.53251815
30	0x3f0b6616	0.54452646
31	0x3ebf3fca	0.37353355
32	0x3dae83a6	0.08521204
33	0xbeb405bc	-0.35160625
34	0xbea62c9e	-0.32455915
35	0x3eeeae45	0.46617332
36	0xbf20384e	-0.62585914
37	0x3dab710d	0.08371172
38	0x3ed5b3ef	0.4173884
39	0xbf0a7030	-0.54077435
40	0xbf10b7da	-0.56530535
41	0x3f12a59c	0.5728395
42	0xbe9aba32	-0.3022018
43	0xbe934f5c	-0.28771484
44	0x3eea68e6	0.45783156
45	0xbf00a6f7	-0.5025477
46	0xbf33915f	-0.70143694
47	0xbf2a8f4f	-0.6662492
48	0xbe458ee7	-0.19292794
49	0xbeede93c	-0.46467006
50	0xbee171ff	-0.44032285
51	0xbd740bc2	-0.059581526
52	0x3ef24437	0.4731767
53	0x3edd2165	0.4318954
54	0x3ef006dc	0.46880233
55	0xbed0f9c3	-0.40815553
56	0xbf16777e	-0.5877608
57	0x3d96360b	0.07334527
58	0x3f0927ce	0.5357636
59	0x3e2476dd	0.16060968
60	0xbf167e91	-0.58786875
61	0xbf19db12	-0.600999
62	0x3ef7ff1c	0.4843682
63	0xbf0d2158	-0.55129004
64	0xbe1d6373	-0.15369968
65	0xbeffd008	-0.49963403
66	0xbed46be8	-0.41488576
67	0x3d995c60	0.07488322
68	0x3f26f3a7	0.65215534
69	0xbef3e082	-0.47632223
70	0xbe3085eb	-0.17238586
71	0xbf04e2a3	-0.5190832
72	0xbcfe1683	-0.031016594
73	0xbeaab26b	-0.33339247
74	0xbebc18a8	-0.3673756
75	0xbe2462be	-0.16053292
76	0x3e15a624	0.14614159
77	0xbe4fb409	-0.20283522
78	0xbee780c6	-0.45215434
79	0xbeccee20	-0.40025425
80	0x3d5f0492	0.054447718
81	0x3ec072d7	0.37587616
82	0xbea61a7f	-0.3244209
83	0x3e81299b	0.25227055
84	0xbf1434f9	-0.5789333
85	0xbef3ee2c	-0.47642648
86	0x3ec1b50a	0.37833434
87	0x3e7b505d	0.24542375
88	0xbf188e5d	-0.5959223
89	0x3bd8a2cf	0.006611205
90	0x3f0b612f	0.54445165
91	0xbec8f368	-0.39248204
92	0xbef769c2	-0.48322874
93	0xbf195b50	-0.59904957
94	0x3eb720b1	0.3576713
95	0xbf1e3ef9	-0.6181484
96	0xbea0bc92	-0.31393868
97	0xbe2058b3	-0.15658836
98	0x3eaeafba	0.34118444
99	0x3e17fac5	0.14841755
100	0xbead1638	-0.33806014
101	0x3e7173cc	0.23579329
102	0x3f17254f	0.59041303
103	0x3e2b8b39	0.16752328
104	0xbea3ecb4	-0.32016528
105	0x3efb1666	0.49040526
106	0x3ed49526	0.4152004
107	0x3f0a1868	0.5394349
108	0x3ed16772	0.40899235
109	0xbeff9279	-0.49916437
110	0x3edf8146	0.43653315
111	0x3ec4b40a	0.3841861
112	0x3f2ff50c	0.68733287
113	0xbec3ef21	-0.38268378
114	0xbf1d315f	-0.6140346
115	0xbf0e60b0	-0.55616283
116	0x3db8aa7e	0.09016894
117	0xbed5b9c3	-0.41743287
118	0xbe94c0f5	-0.29053465
119	0xbf08952b	-0.5335261
120	0x3ef285f0	0.4736781
121	0x3eeed815	0.46649233
122	0x3ec9d185	0.39417663
123	0xbc4f75a3	-0.012662324
124	0x3ef22e07	0.4730074
125	0x3daf9f3f	0.08575296
126	0x3eba19db	0.3634785
127	0xbf012562	-0.50447667
128	0xbecb91af	-0.39759585
129	0x3e5fb268	0.218454
130	0xbee7293b	-0.45148644
131	0x3edd85aa	0.4326604
132	0xbeaf589a	-0.34247285
133	0x3e587c42	0.2114115
134	0x3e3fada9	0.1871859
135	0x3f14e59a	0.58162844
136	0xbedb99f2	-0.42890888
137	0xbeebcde1	-0.4605551
138	0xbe6bdc8c	-0.2303335
139	0xbf041087	-0.5158772
140	0xbf010988	-0.5040517
141	0x3e299452	0.16560486
142	0x3f01e8f8	0.5074611
143	0xbef57099	-0.47937468
144	0x3c45314b	0.012035678
145	0xbe2cf5f8	-0.16890705
146	0xbf19208e	-0.598153
147	0xbe417485	-0.18892105
148	0x3e3b4154	0.1828664
149	0x3f0535da	0.52035296
150	0xbe45b6de	-0.1930804
151	0x3e29c840	0.16580296
152	0xbd94e081	-0.07269383
153	0xbeaaa768	-0.33330846
154	0x3d849766	0.064741895
155	0x3c908267	0.017640306
156	0x3e83fb5a	0.25777704
157	0x3d719748	0.058982164
158	0x3effb26e	0.4994082
159	0xbf167e9d	-0.58786947
160	0x3e37d39b	0.17951815
161	0x3e702a90	0.23453736
162	0x3f0053a7	0.50127643
163	0xbf089351	-0.53349787
164	0x3ea49b98	0.3214996
165	0x3eb68927	0.35651514
166	0xbf049746	-0.51793325
167	0xbeb2989e	-0.34882063
168	0xbd9a3639	-0.075298734
169	0x3de65ba3	0.11247947
170	0xbe35efa9	-0.17767204
171	0xbf2fbc52	-0.6864673
172	0xbeff9e10	-0.4992528
173	0x3edc8c39	0.4307573
174	0xbf076109	-0.5288244
175	0xbe8f0327	-0.27932093
176	0x3f08d09e	0.53443325
177	0xbf00d7e8	-0.50329447
178	0x3e63982f	0.22226022
179	0x3d0d0917	0.034432497
180	0xbe2c3848	-0.16818345
181	0xbe619303	-0.22028737
182	0xbef58c85	-0.4795877
183	0x3ead21d9	0.33814886
184	0xbe74260e	-0.23842642
185	0x3e672461	0.22572471
186	0x3e1832df	0.14863156
187	0xbe51b459	-0.20478953
188	0xbf19de0f	-0.6010446
189	0xbf073027	-0.5280785
190	0x3ea43fee	0.32080024
191	0xbe9b96d8	-0.30388522
192	0xbf03e77b	-0.51525086
193	0xbe4a4ece	-0.19756624
194	0xbf2171c1	-0.630642
195	0x3ee6c478	0.4507177
196	0x3f1a785a	0.6033989
197	0xbeae88c0	-0.34088707
198	0xbf2a8a21	-0.6661702
199	0x3ef6e9e6	0.48225325

encodernorms.0.running_mean f4 [200]
0	0x3e5fb43c	0.21846098
1	0x3e2e3065	0.17010649
2	0x3e8c9a0c	0.27461278
3	0x3e6484cb	0.22316281
4	0xbba47f12	-0.005020031
5	0x3e9189a0	0.28425312
6	0x3e8d32d1	0.27577832
7	0x3e734f1e	0.2376065
8	0x3e431b1d	0.19053312
9	0x3e5af0ef	0.21380971
10	0x3e76e57e	0.24110982
11	0x3e6ffd2b	0.2343642
12	0x3e45d90e	0.19321081
13	0x3e54425a	0.20728436
14	0x3e2afe27	0.16698514
15	0x3e8618d1	0.26190808
16	0x3e72ffc9	0.23730387
17	0x3e520ad6	0.20511946
18	0x3e519094	0.20465308
19	0x3e403578	0.18770397
20	0x3e6562b8	0.2240094
21	0x3e99ce36	0.3004014
22	0x3e5ef3cd	0.2177269
23	0x3e5c6174	0.2152155
24	0x3e57757f	0.21040915
25	0x3e7d9639	0.24764337
26	0x3e72b513	0.23701887
27	0x3e60818b	0.21924417
28	0x3e709ea3	0.23498015
29	0x3e7b22a1	0.24524929
30	0x3e719c8e	0.23594877
31	0x3e8dbf6b	0.27685103
32	0x3e43894f	0.19095348
33	0x3e5a6e78	0.21331203
34	0x3e4b9639	0.19881524
35	0x3e831b7f	0.25606915
36	0xbba1ddfc	-0.0049397927
37	0x3e1a738b	0.15083139
38	0x3e722481	0.23646738
39	0x3e61c2cc	0.22046965
40	0x3e81c1bb	0.25343117
41	0x3e6ae3d4	0.22938472
42	0x3e44e63b	0.19228451
43	0x3e82067b	0.2539557
44	0x3e431481	0.1905079
45	0x3e774647	0.24147902
46	0xbb9a47ea	-0.00470828
47	0xbbb7c506	-0.005608204
48	0xbba8cf9d	-0.0051517026
49	0x3e59f7c1	0.21285917
50	0x3e4fac11	0.20280482
51	0x3e009a58	0.12558877
52	0x3e4368c4	0.19082934
53	0x3e70051d	0.2343945
54	0x3e43f382	0.1913586
55	0x3e64c1e9	0.22339596
56	0x3e72ff03	0.23730092
57	0x3e3fe8d2	0.18741158
58	0x3e6b9ba6	0.23008594
59	0x3e5c3ac1	0.21506788
60	0x3e56b6a7	0.20968114
61	0x3e79db4c	0.24400061
62	0x3e302cb6	0.17204556
63	0x3e54abdc	0.20768684
64	0x3e87f854	0.26556647
65	0x3c88f532	0.01671848
66	0xbb091b51	-0.0020920823
67	0x3e9d49e6	0.30720443
68	0xbb8adf4a	-0.004238044
69	0x3e67d806	0.22641
70	0x3e77154c	0.24129218
71	0x3e798e1a	0.24370614
72	0x3e697df7	0.22801958
73	0x3e7a59de	0.24448344
74	0x3e68f78a	0.22750679
75	0x3e653f3a	0.223874
76	0x3e5a96f0	0.2134664
77	0x3e3fabb0	0.18717837
78	0x3e655de3	0.22399096
79	0x3e77122f	0.2412803
80	0x3e39f367	0.18159257
81	0x3e6e2ac8	0.23258507
82	0x3e7a40e6	0.2443882
83	0x3e824ea6	0.2545063
84	0xbb9b55b0	-0.0047404394
85	0x3e97046b	0.29495558
86	0x3e5f1b36	0.21787724
87	0x3e6f8e61	0.23394157
88	0x3e5616bd	0.20907111
89	0x3e5edcf6	0.21763977
90	0x3e12b11e	0.14325377
91	0x3e800b0a	0.25008422
92	0xbaa89459	-0.0012861594
93	0x3e4fa3c8	0.20277321
94	0x3e79c523	0.24391608
95	0x3e7fd3f7	0.24983202
96	0xbb807a47	-0.0039208266
97	0x3e765855	0.24057133
98	0x3e73867d	0.23781772
99	0x3e5dc483	0.21656995
100	0x3e3ca729	0.18423142
101	0x3e5bfb17	0.21482502
102	0x3e80ea49	0.25178745
103	0x3e71dbfb	0.23619072
104	0x3e80306b	0.2503694
105	0x3e72a46f	0.23695539
106	0x3e8a5be4	0.27023232
107	0x3e386be4	0.18009907
108	0x3e6b5fa6	0.22985706
109	0x3e5e1395	0.21687157
110	0x3e5268d1	0.20547797
111	0x3e8a2c28	0.26986814
112	0xbbc2af5d	-0.005941315
113	0x3e83e143	0.257578
114	0x3e5101a5	0.20410784
115	0x3e88213c	0.26587856
116	0x3e7eec1f	0.2489476
117	0x3e475353	0.1946538
118	0x3e79a4f6	0.24379334
119	0x3e61730a	0.2201654
120	0x3e42c509	0.19020475
121	0x3e527821	0.20553638
122	0x3e462eac	0.19353741
123	0x3e6829ab	0.22672145
124	0x3e7a1dba	0.24425402
125	0x3e76d4f3	0.24104671
126	0x3e2e4138	0.17017066
127	0x3e9df1c1	0.30848506
128	0x3e656cee	0.22404835
129	0x3e60b8bc	0.2194547
130	0x3e83a4db	0.25711712
131	0xbb68672d	-0.0035461888
132	0x3e8a81bc	0.27052104
133	0x3e3a3b8e	0.18186781
134	0x3e70e734	0.23525697
135	0x3e4a6b98	0.19767606
136	0x3e59f6d4	0.21285564
137	0x3e5d1c54	0.21592838
138	0xbb980538	-0.004639294
139	0x3e95ca6c	0.29255998
140	0x3e65a44b	0.22425954
141	0x3e4e5e0c	0.20153064
142	0x3e81bebb	0.25340828
143	0x3e347dbc	0.17626089
144	0x3e6285e0	0.22121382
145	0x3e385eda	0.18004933
146	0x3e5149a0	0.20438242
147	0xbb065f42	-0.0020503555
148	0x3e850622	0.2598124
149	0x3e4cf92a	0.20016924
150	0x3e38a13b	0.18030255
151	0x3e4f98c4	0.20273119
152	0x3e6c16c8	0.23055565
153	0x3e5bbf13	0.21459608
154	0x3e301bc0	0.17198086
155	0x3e69951c	0.22810787
156	0x3e6a8c38	0.22905052
157	0x3e467ba8	0.19383109
158	0x3e4b453f	0.19850634
159	0xbb9a3513	-0.004706034
160	0x3e871954	0.2638651
161	0x3e61bf8b	0.22045724
162	0x3e49af95	0.19695885
163	0x3e768d82	0.24077418
164	0x3e7d361a	0.2472767
165	0x3e8ad1a8	0.2711308
166	0x3e53b48a	0.20674339
167	0x3e86047e	0.26175302
168	0x3e5ed6bf	0.21761607
169	0x3e63abf1	0.22233559
170	0x3e72dc58	0.23716867
171	0xbba6aea3	-0.0050867363
172	0x3e737764	0.23776013
173	0x3e809f27	0.25121424
174	0x3e5532e1	0.2082019
175	0x3e2ddcba	0.16978732
176	0x3e5f4c72	0.21806505
177	0x3e277707	0.16353999
178	0x3e7b38d0	0.24533391
179	0x3e712cf6	0.23552307
180	0x3e820e06	0.25401324
181	0x3e69376c	0.22775048
182	0x3e892665	0.26787105
183	0x3e5a2b3f	0.2130556
184	0x3e2ffd15	0.17186387
185	0x3e8f9250	0.28041315
186	0x3e5fb6d1	0.21847083
187	0x3e69c9eb	0.22830932
188	0x3e8d8002	0.27636725
189	0x3e626a85	0.22110946
190	0x3e500eac	0.20318097
191	0x3e7ec004	0.24877936
192	0x3e45d635	0.19319995
193	0x3e5a91d9	0.21344699
194	0x3e3aa4cc	0.18226928
195	0x3e4ab219	0.19794501
196	0x3e604247	0.21900283
197	0x3e4b1052	0.19830444
198	0x3e3fd4cc	0.1873352
199	0x3e3d6926	0.18497142

encodernorms.0.running_var f4 [200]
0	0x3dd03ec8	0.101682246
1	0x3d8a7d1a	0.067621425
2	0x3dfc40d5	0.12317053
3	0x3db57da6	0.08861856
4	0x39053ed7	0.00012707278
5	0x3deba991	0.115069516
6	0x3e05f0ec	0.13080186
7	0x3dbac986	0.09120469
8	0x3da6d5e4	0.08146265
9	0x3db48018	0.088134944
10	0x3dc16a06	0.094440505
11	0x3db1557c	0.08658883
12	0x3d9a9cc9	0.07549436
13	0x3db845f8	0.089977205
14	0x3d813546	0.06308989
15	0x3df67cf2	0.1203555
16	0x3dc779f8	0.097400606
17	0x3d9f0076	0.0776376
18	0x3d9a6369	0.07538492
19	0x3d9da2cd	0.076970674
20	0x3db6691a	0.08906765
21	0x3e0bebf8	0.13664234
22	0x3db244f1	0.08704556
23	0x3da07ec4	0.078366786
24	0x3dba32c8	0.09091717
25	0x3ddbe644	0.10737279
26	0x3db1a4c6	0.08674006
27	0x3db71006	0.08938603
28	0x3dc29f9f	0.095031016
29	0x3dcb1c55	0.09917513
30	0x3dc67f52	0.09692253
31	0x3df16073	0.11785974
32	0x3dace160	0.08441424
33	0x3d9d2df0	0.076747775
34	0x3d93ca9c	0.07216379
35	0x3dd49e1a	0.10381718
36	0x3887390d	6.447928e-05
37	0x3d6f7bcd	0.058467675
38	0x3dd12d33	0.10213699
39	0x3db7ebbb	0.08980509
40	0x3dd8ab78	0.1057958
41	0x3dd9c6d8	0.106336296
42	0x3da3e4d7	0.08002632
43	0x3df29478	0.118447244
44	0x3daee9bb	0.08540674
45	0x3dcc8b7f	0.09987544
46	0x39c79eb5	0.00038074484
47	0x394a7248	0.00019306794
48	0x3957fbe4	0.00020597834
49	0x3dbe9fcf	0.09307825
50	0x3db889c3	0.09010651
51	0x3d5e8711	0.054328028
52	0x3d985395	0.07437817
53	0x3dcc6cb6	0.099816725
54	0x3d8f1043	0.069855236
55	0x3dbeb479	0.09311766
56	0x3de6c0af	0.1126722
57	0x3d9f8bed	0.077903606
58	0x3dd0b6be	0.10191105
59	0x3dbfae5f	0.093594305
60	0x3db950e8	0.09048635
61	0x3dd5535a	0.10416289
62	0x3d8c83d4	0.06861082
63	0x3db7f06c	0.08981404
64	0x3e05ddd9	0.1307291
65	0x3bd4eb84	0.006497802
66	0x3a21aed4	0.0006167714
67	0x3e02413f	0.12720202
68	0x39a08736	0.00030618318
69	0x3dc56afb	0.096395455
70	0x3dcb2e65	0.099209584
71	0x3dccffa1	0.10009695
72	0x3db0c5a5	0.08631448
73	0x3de60442	0.11231281
74	0x3db8cabb	0.09023043
75	0x3dd5aad3	0.10432973
76	0x3db18876	0.08668606
77	0x3d9f7985	0.0778685
78	0x3dbe38f5	0.092882074
79	0x3dccb8fb	0.0999622
80	0x3db3ce5b	0.087795936
81	0x3dba5413	0.09098067
82	0x3de13ec9	0.109983034
83	0x3de22251	0.110417016
84	0x391edebb	0.00015151028
85	0x3e1026fe	0.14077374
86	0x3dc25542	0.09488918
87	0x3dba9950	0.09111273
88	0x3da8e299	0.08246345
89	0x3d9b6a0f	0.075885884
90	0x3d845d2d	0.06463084
91	0x3e013478	0.12617671
92	0x3a494e7b	0.0007679236
93	0x3dcdde0e	0.10052119
94	0x3dd7a93f	0.10530328
95	0x3de46791	0.11152566
96	0x39441861	0.00018701098
97	0x3dcc2348	0.09967667
98	0x3dd23086	0.10263161
99	0x3dd3bf0c	0.10339174
100	0x3d9e63be	0.07733868
101	0x3dadc1f7	0.084842615
102	0x3df12838	0.11775249
103	0x3deeaa48	0.11653572
104	0x3dc3eeac	0.095670074
105	0x3dd22d23	0.102625154
106	0x3de3fd2a	0.111322716
107	0x3d9fc736	0.07801668
108	0x3dc86ade	0.09786008
109	0x3daa5d21	0.08318544
110	0x3db2f457	0.087380104
111	0x3ddb6732	0.10713042
112	0x388dcb2d	6.7612484e-05
113	0x3dd9458f	0.106089704
114	0x3dc5b220	0.09653115
115	0x3de1d564	0.11027029
116	0x3dc3d68f	0.09562408
117	0x3dba099e	0.090838656
118	0x3dc1caae	0.09462486
119	0x3db33333	0.0875
120	0x3da6665b	0.081249915
121	0x3da4a553	0.080393456
122	0x3da71527	0.08158331
123	0x3dd3ed7d	0.10348032
124	0x3dc9841c	0.09839651
125	0x3dd7677c	0.10517785
126	0x3d965cd1	0.07341922
127	0x3e0f8a86	0.14017686
128	0x3dc1c30d	0.09461031
129	0x3db90d49	0.09035737
130	0x3de1f451	0.11032928
131	0x3a66933a	0.0008795742
132	0x3e00fd52	0.12596634
133	0x3d8ab840	0.06773424
134	0x3dd7fd07	0.10546308
135	0x3da591e9	0.08084471
136	0x3db7f414	0.08982101
137	0x3dd9da4d	0.10637341
138	0x3a2602a7	0.00063327927
139	0x3dfed837	0.124435835
140	0x3dce4c16	0.10073106
141	0x3dbaed61	0.09127308
142	0x3dd42497	0.103585415
143	0x3d9505c9	0.07276494
144	0x3dc57ecf	0.096433274
145	0x3d967557	0.073465995
146	0x3db4c2ca	0.088262156
147	0x3a34582e	0.0006879595
148	0x3dee4421	0.11634088
149	0x3d9f9a5d	0.07793114
150	0x3d9739b9	0.073840566
151	0x3da552be	0.080724224
152	0x3db85a25	0.09001569
153	0x3dcf8eb2	0.10134639
154	0x3d916cc1	0.07100821
155	0x3dc42e76	0.09579174
156	0x3dc6f374	0.09714404
157	0x3db721f0	0.0894202
158	0x3d9e0301	0.07715417
159	0x3a0dbfa1	0.0005407278
160	0x3df5a7a9	0.11994869
161	0x3db6536d	0.08902631
162	0x3d985da2	0.07439734
163	0x3dd25620	0.10270333
164	0x3dea4a9c	0.11440012
165	0x3df3762d	0.118877746
166	0x3da74360	0.08167148
167	0x3e051b70	0.12998748
168	0x3dc52bb1	0.09627474
169	0x3daab757	0.083357506
170	0x3dc693c6	0.09696154
171	0x39080f3b	0.00012975644
172	0x3dea222c	0.11432299
173	0x3dc846e2	0.09779145
174	0x3db7ee7f	0.089810364
175	0x3d8195d8	0.063274086
176	0x3dc628a3	0.096757196
177	0x3d93522d	0.07193408
178	0x3ddc84cf	0.10767519
179	0x3dc637e0	0.09678626
180	0x3ddd592a	0.10808022
181	0x3dcb063d	0.09913299
182	0x3df4c897	0.11952322
183	0x3dc59d7b	0.09649178
184	0x3d821fba	0.063537076
185	0x3de824cc	0.113351434
186	0x3db53fd7	0.08850067
187	0x3dd933d1	0.10605586
188	0x3deeb182	0.11654951
189	0x3db0a30a	0.08624847
190	0x3dbe8053	0.0930182
191	0x3ddb124a	0.10696848
192	0x3db5f486	0.0888453
193	0x3db38073	0.08764734
194	0x3d947124	0.07248142
195	0x3dbaeffb	0.09127804
196	0x3ddbc246	0.10730414
197	0x3d8c672b	0.06855615
198	0x3dabd735	0.08390657
199	0x3db47ffc	0.088134736

decoderlayers.0.weight f4 [200, 30]
0	0xbd9ed5df	-0.077556364
1	0xbce915b3	-0.02845273
2	0xbd9f1d00	-0.07769203
3	0xbda40897	-0.08009451
4	0x3e0dc3d1	0.1384423
5	0xbdc8adb5	-0.09798757
6	0xbd95bf20	-0.07311845
7	0xbddf2a21	-0.10896707
8	0x3da7be81	0.081906326
9	0x3e35434b	0.17701451
10	0x3e2024a3	0.15638976
11	0xbde2746e	-0.110573635
12	0x3d1232ae	0.035692863
13	0x3a862e33	0.0010237157
14	0xbc948738	-0.018130884
15	0xbd7f85c7	-0.06238344
16	0xbe164176	-0.14673409
17	0x3e146a7d	0.14493747
18	0xbe456cdb	-0.19279806
19	0x3dbf05c8	0.093272746
20	0xbd9abf33	-0.075559996
21	0xbe35374e	-0.17696878
22	0xbd4a977b	-0.04946087
23	0xbdc9cb89	-0.098532744
24	0x3de798fd	0.11308477
25	0xbd044167	-0.032288935
26	0x3cc0da77	0.023541672
27	0xbcd86ca2	-0.026418988
28	0x3d8a2f70	0.06747329
29	0x3e0bc934	0.13650972
30	0xbdcf0fba	-0.101104215
31	0xbc039c80	-0.008032918
32	0xbd528136	-0.051392756
33	0xbd5de75d	-0.054175723
34	0xbd084ccc	-0.033276364
35	0xbdae9ce5	-0.08526019
36	0x3e4820a5	0.19543703
37	0xbcab23ea	-0.020891149
38	0x3e2a4398	0.16627347
39	0x3d832488	0.06403452
40	0x3d854515	0.06507317
41	0x3b994ce6	0.0046783565
42	0x3da32552	0.07966103
43	0x3e366d3e	0.1781511
44	0xbe060352	-0.13087204
45	0xbd80cbc0	-0.06288862
46	0x3e0cb83f	0.1374216
47	0xbd8ab592	-0.06772913
48	0x3e06db82	0.13169673
49	0x3d8df0a0	0.06930661
50	0x3d42bff3	0.04754634
51	0x3b3d7328	0.002890775
52	0xbd8da627	-0.06916457
53	0xbda3c9f1	-0.07997502
54	0x3c809f00	0.015700817
55	0x3ddc7040	0.107635975
56	0xbde8af4b	-0.113615595
57	0x3d6ed16d	0.058305193
58	0x3af3bf3a	0.0018596419
59	0xbdfaa000	-0.12237549
60	0x3dd4c92c	0.10389933
61	0x3bcc4ff8	0.006235119
62	0xbbbfc781	-0.00585264
63	0x3e37050a	0.17873016
64	0xbdfb403f	-0.12268113
65	0x3e0cced8	0.1375078
66	0xbd76fdf5	-0.060300786
67	0xbde75708	-0.11295897
68	0xbe27fcd5	-0.16405042
69	0xbe0dc43e	-0.13844392
70	0x3dd30b8c	0.10304937
71	0xbe0ed542	-0.13948539
72	0xbdb37f39	-0.087645
73	0x3d1c7127	0.038193848
74	0x3db11f79	0.08648581
75	0x3d558a8d	0.052134085
76	0xbe28b1e4	-0.1647411
77	0x3da01868	0.07817155
78	0x3e070024	0.13183647
79	0xbc89ea33	-0.016835308
80	0x3d1cbf52	0.038268395
81	0x3d3701ae	0.044679336
82	0xbd9d05e4	-0.07667139
83	0xbdc247c1	-0.09486342
84	0xbe203e5f	-0.15648793
85	0xbe2a4549	-0.16627993
86	0x3e364fdf	0.17803906
87	0x3d3b6069	0.04574624
88	0x3e3063ee	0.1722562
89	0xbc089a4b	-0.008337568
90	0x3dadccdb	0.08486339
91	0x3daf47e7	0.08558636
92	0xbda8efb8	-0.08248848
93	0xbe0d146d	-0.13777323
94	0xbe00d0b5	-0.12579615
95	0x3b82f73f	0.003996759
96	0xbcad181f	-0.021129666
97	0xbe1220aa	-0.14270273
98	0x3e0b3ac4	0.13596636
99	0xbd1b6eb8	-0.037947387
100	0xbe3310cb	-0.17486875
101	0xbd64a08e	-0.05581718
102	0xbdc2441a	-0.094856456
103	0x3dc6689c	0.096879214
104	0x3d957647	0.0729795
105	0x3daed283	0.08536246
106	0x3e00529b	0.12531511
107	0xbcedfa6a	-0.02905007
108	0x3e551d30	0.20811915
109	0xbe172be3	-0.14762835
110	0xbe2ae316	-0.16688189
111	0xbde20287	-0.11035638
112	0xbb83189a	-0.0040007355
113	0x3c17cb03	0.00926471
114	0x3dd4af55	0.103850044
115	0xbdf00d5d	-0.11721299
116	0xbe2884be	-0.16456887
117	0xbb4599ec	-0.003015156
118	0xbc9b212a	-0.018936712
119	0xbe4e5286	-0.20148668
120	0x3c2eba09	0.010664471
121	0xbdffdc98	-0.12493247
122	0x3d194917	0.03742322
123	0xbc962948	-0.018330231
124	0xbd96077a	-0.07325645
125	0xbd1b03f6	-0.037845574
126	0xbe54b215	-0.20771058
127	0xbc0cfc14	-0.008605022
128	0x3ddf11f1	0.10892094
129	0x3dce929d	0.10086558
130	0xbd6bed87	-0.05759957
131	0x3d803899	0.06260795
132	0xbe1cccb2	-0.1531246
133	0x3db34f70	0.08755386
134	0x3d8661d2	0.065616265
135	0xbe6d5814	-0.2317813
136	0x3e24a75d	0.16079469
137	0xbe14fbb8	-0.14549148
138	0xbbf42bd8	-0.0074515156
139	0x3d174702	0.036932953
140	0x3d7b236c	0.061313078
141	0x3d94b851	0.07261718
142	0xbe26b722	-0.16280797
143	0xbe2bbad3	-0.16770487
144	0x3db8b5f1	0.090190776
145	0xbe017424	-0.1264196
146	0xbdaf8f15	-0.085722126
147	0x3d3b7942	0.045769937
148	0xbc156963	-0.009119364
149	0x3e08df3f	0.13366412
150	0xbb0ed9c2	-0.0021797274
151	0x3e688ee2	0.22710755
152	0x3d18dbe8	0.037319094
153	0x3e0c2b62	0.13688424
154	0xbda4dad5	-0.080495514
155	0xbe2770dd	-0.16351648
156	0x3db66ac1	0.089070804
157	0x3dcb5394	0.09928051
158	0x3cb2c67d	0.021823162
159	0x3e59cf9a	0.212706
160	0xbd9f0c8b	-0.07766064
161	0x3dd741b0	0.10510576
162	0x3ceeaaaa	0.029134113
163	0xbdc3b632	-0.095562354
164	0xbd4b28e6	-0.04959955
165	0xbe167b35	-0.14695437
166	0xbc2584bc	-0.010102447
167	0xbe857289	-0.26063946
168	0xbcc7b6eb	-0.024379214
169	0xbd2607f5	-0.040534932
170	0xbc668425	-0.014069592
171	0xbca6f48c	-0.02038028
172	0x3c8a39cb	0.016873261
173	0xbb1deeb1	-0.002409857
174	0x3d41da98	0.047327608
175	0xbd684c04	-0.05671312
176	0xbd426504	-0.047459617
177	0x3d9fa57b	0.07795235
178	0x3cee91b4	0.029122211
179	0x3d0cd88d	0.034386206
180	0x3dfb675b	0.12275573
181	0xbe029974	-0.1275385
182	0x3e20b866	0.15695342
183	0xbdffe1d8	-0.12494248
184	0x3d1727a8	0.036903054
185	0xbddd3d6c	-0.10802731
186	0x3d07e860	0.033180594
187	0xbe054ad8	-0.13016832
188	0x3e013b83	0.12620358
189	0xbdd70634	-0.1049923
190	0xbd87d0ba	-0.06631608
191	0x3ce20f0e	0.02759507
192	0x3da1189e	0.078660235
193	0xbd5dad2d	-0.05412023
194	0x3d2373b1	0.039905254
195	0x3e0b8de9	0.13628353
196	0xbd9b4756	-0.075819656
197	0x3e62cbab	0.22148006
198	0x3de35965	0.11101035
199	0x3dfe5b1b	0.12419721
200	0x3dbe09ad	0.09279189
201	0x3d2097c0	0.03920722
202	0x3da54fc7	0.08071857
203	0x3d7e5690	0.06209427
204	0xbd17eedf	-0.03709304
205	0x3b861f4b	0.004093086
206	0x3c22d2b3	0.00993793
207	0xbdd3a28a	-0.10333736
208	0x3db37ff0	0.087646365
209	0x3e18ecf6	0.14934143
210	0xbd55f61d	-0.052236665
211	0xbe0016df	-0.12508725
212	0xbdec79eb	-0.115466915
213	0xbb886615	-0.0041625598
214	0xbe11da29	-0.14243378
215	0xbe086395	-0.13319238
216	0x3d80565a	0.0626647
217	0xbd1c64fe	-0.03818225
218	0x3e369724	0.17831093
219	0xbd6466e3	-0.055762183
220	0xbdf05fe8	-0.11737043
221	0x3e0294ce	0.12752077
222	0xbcb469fb	-0.022023192
223	0x3c94f950	0.018185288
224	0x3ddfe6ba	0.109326795
225	0x3da37ba2	0.079825655
226	0xbe318a4e	-0.17337915
227	0xbe279b01	-0.16367723
228	0xbca09532	-0.019602392
229	0xbe1695ab	-0.14705531
230	0xbe0e49c4	-0.13895327
231	0x3c02ab9e	0.007975487
232	0x3e0ac9ba	0.13553515
233	0x3e410fd1	0.1885369
234	0xbe1bbaa2	-0.15207914
235	0xbda5a8df	-0.0808885
236	0xbe449f00	-0.19201279
237	0xbe0c5f93	-0.13708334
238	0x3e02aa51	0.12760283
239	0x3c9c6fa2	0.0190962
240	0xbda37c5a	-0.079827026
241	0xbe57c054	-0.21069461
242	0xbcdd4ea0	-0.02701503
243	0xbdb075b9	-0.08616204
244	0x3e2101ad	0.15723296
245	0x3d9f4657	0.07777088
246	0xbda5aa0a	-0.08089073
247	0xbdec2d29	-0.11532051
248	0x3c39d82b	0.011343042
249	0xbcd49073	-0.025947785
250	0x3dc458a0	0.095872164
251	0xbe584217	-0.21118961
252	0x3d9265ab	0.07148298
253	0x3d866a73	0.06563272
254	0x3db3d4d2	0.08780827
255	0x3d154d9e	0.036450975

decoderlayers.0.bias f4 [200]
0	0xbd98ab1c	-0.074545115
1	0xbd32440c	-0.043521926
2	0x3c42222d	0.011848968
3	0xbe19d5a4	-0.15022904
4	0x3dd63e72	0.10461129
5	0x3d02e1a6	0.031953476
6	0xbd0f5846	-0.034996293
7	0x3c821b9e	0.01588231
8	0xbe0b4b42	-0.13602927
9	0xbd4ea99b	-0.050454717
10	0x3e4e097f	0.2012081
11	0xbddceb48	-0.10787064
12	0x3daf0c84	0.08547309
13	0xbd5620b2	-0.052277274
14	0x3e15db55	0.1463445
15	0xbdc60964	-0.0966976
16	0xbdccd2a1	-0.10001112
17	0x3e06aa37	0.1315087
18	0xbd6f550c	-0.058430716
19	0xbd331853	-0.04372437
20	0x3d186622	0.037206776
21	0x3d25bd07	0.040463474
22	0xbd491e1a	-0.049100973
23	0xbc70d7df	-0.014699905
24	0x3e3597c5	0.17733677
25	0x3d8bbf80	0.06823635
26	0xbcde3960	-0.027126968
27	0x3b6f752c	0.0036538346
28	0x3d34f6e0	0.04418075
29	0xbd375b3f	-0.044764753
30	0x3c2e484f	0.010637357
31	0xbbeb5133	-0.0071813106
32	0x3dd6b2dd	0.10483334
33	0xbd98c5f6	-0.07459633
34	0xbba8aced	-0.0051475675
35	0xbc799883	-0.0152341155
36	0x3d2ce8a3	0.042214047
37	0x3cb05a47	0.021527423
38	0x3c1d1218	0.009586833
39	0x3e02d3e6	0.12776145
40	0xbce9fc5c	-0.028562717
41	0xbc9bd58a	-0.019022722
42	0xbc6c5382	-0.014424207
43	0xbd894aac	-0.06703696
44	0xbd0f01ee	-0.03491395
45	0xbcfb7474	-0.030695178
46	0x3d2cfb3c	0.042231783
47	0xbd92ee68	-0.07174379
48	0x3de5617d	0.11200235
49	0xbdcf0f1e	-0.10110305
50	0x3e0a133d	0.13483901
51	0xbdc5ff07	-0.09667783
52	0x3b9f1ed7	0.0048559713
53	0x3e41d0b1	0.18927266
54	0x3ceae5ec	0.028674088
55	0x3c937daa	0.018004257
56	0xbda7fe49	-0.08202798
57	0x3e0d9827	0.13827573
58	0xbdaa764f	-0.08323347
59	0x3d929468	0.071572125
60	0xbda369e6	-0.07979183
61	0x3d9c825a	0.0764205
62	0x3d840b9e	0.06447528
63	0xbd7f9bf1	-0.062404577
64	0x3d961c9b	0.07329675
65	0x3e0891dc	0.13336891
66	0x3e2679aa	0.16257349
67	0xbdf0d283	-0.11758902
68	0x3d8039b1	0.06261004
69	0xbdc32cf3	-0.09530058
70	0x3cb0ea42	0.021596078
71	0x3d3c92d2	0.046038456
72	0xbdb4a350	-0.08820212
73	0xbd9c2e7e	-0.07626055
74	0x3e316ba2	0.17326215
75	0x3c170715	0.009217997
76	0xbdfd1454	-0.12357393
77	0x3da402bc	0.08008334
78	0xbcb98875	-0.022648076
79	0x3b5fcc91	0.003414903
80	0xbcc5fd0b	-0.024168512
81	0xbd170caa	-0.03687731
82	0x3d0eb400	0.03483963
83	0x3dc8402b	0.09777864
84	0xbdacfe21	-0.08446909
85	0x3d927ba5	0.071524896
86	0x3d849071	0.064728625
87	0x3e277385	0.16352661
88	0xbd6eed2c	-0.058331653
89	0x3dee9c35	0.11650888
90	0xbd9e744e	-0.07737027
91	0x3d4bf935	0.04979821
92	0xbdba73c7	-0.09104114
93	0x3e0f9a8c	0.14023799
94	0x3dafdbff	0.08586883
95	0xbd303c65	-0.043026347
96	0xbde8a8f6	-0.11360352
97	0x3daa05f7	0.08301919
98	0xbd671e60	-0.056425452
99	0x3d3f3f7e	0.04669141
100	0x3dd2beb7	0.10290282
101	0x3d922cf4	0.071374804
102	0xbc7cf35f	-0.015438884
103	0x3d19610f	0.037446078
104	0x3ddc08d7	0.107438736
105	0x3d3de99b	0.04636536
106	0xbe038d19	-0.12846793
107	0xbd8c3e69	-0.06847841
108	0xbd74aec0	-0.059736967
109	0x3dda18d2	0.10649265
110	0x3d06cce2	0.032910235
111	0x3e0a79f0	0.13523078
112	0xbdd52885	-0.10408119
113	0xbc1f99fe	-0.009741304
114	0x3d88eced	0.06685815
115	0xbcf08b6c	-0.029363357
116	0xbd6ec7c9	-0.058296
117	0x3e0870ea	0.13324323
118	0xbd4358c4	-0.047692075
119	0x3d840b28	0.064474404
120	0x3d0dc986	0.034616016
121	0x3c3f0939	0.011659914
122	0x3d7fc2f3	0.062441777
123	0xbd0a4354	-0.033755615
124	0x3e0779d0	0.13230062
125	0x3cbf3c82	0.023344282
126	0xbdc8af28	-0.097990334
127	0x3ca5be06	0.020232212
128	0x3dfa145c	0.122109145
129	0x3dcc1aca	0.09966047
130	0x3c881eb4	0.016616203
131	0x3d630d91	0.05543286
132	0xbd8549cc	-0.06508216
133	0x3dc8c5ce	0.09803353
134	0x3e450c98	0.19243085
135	0x3c078d38	0.008273415
136	0x3cc764bd	0.024340028
137	0xb9ff6b0d	-0.0004871715
138	0x3c6e866b	0.014558415
139	0x3dbb1b3d	0.09136055
140	0x3e1f0046	0.15527448
141	0x3d5015c2	0.050802
142	0x3d1d26ff	0.038367268
143	0xbd1eb6f2	-0.03874869
144	0x3b1af3b1	0.0023643787
145	0x3d906db9	0.07052178
146	0xbd9166ad	-0.07099662
147	0x3e13ff59	0.14452876
148	0xbd046bba	-0.0323293
149	0x3d3827c7	0.04495981
150	0x3c67e75a	0.01415428
151	0xbe08c2ec	-0.13355607
152	0x3e028aa7	0.12748204
153	0x3d88306c	0.06649861
154	0xbe0a6df3	-0.13518505
155	0x3de6fe16	0.11278932
156	0xbda35d5a	-0.0797679
157	0x3c54c2df	0.012985914
158	0x3d470189	0.04858545
159	0xbc151ae5	-0.00910065
160	0xbd71bc6f	-0.059017595
161	0xbd3ef5aa	-0.046621002
162	0x3e0444f4	0.12916929
163	0x3c41cf5c	0.0118292235
164	0x3d932add	0.0718591
165	0x3e157bdb	0.14598028
166	0x3dbb3c35	0.09142343
167	0xbdce7342	-0.100805774
168	0xbe6e2420	-0.23255968
169	0x3d6ad90c	0.0573359
170	0x3ca5581d	0.020183617
171	0xbcfbbdda	-0.030730177
172	0xbd19645c	-0.037449226
173	0x3e110ae9	0.14164318
174	0xbc72b594	-0.014813799
175	0x3daa31f9	0.08310313
176	0xbe0e50d8	-0.13898027
177	0x3d7adf1b	0.061247926
178	0xbde550ad	-0.11197028
179	0x3cf3aa25	0.029744217
180	0x3deb782f	0.114975326
181	0x3ced9af3	0.02900455
182	0xbdb68d67	-0.08913689
183	0xbd2c8d3b	-0.042126875
184	0x3e1fea30	0.15616679
185	0x3e120103	0.14258198
186	0xbdd9fd4f	-0.10644018
187	0xbd475ad1	-0.048670594
188	0x3c0db356	0.008648714
189	0x3d830a54	0.06398454
190	0xbd933a0e	-0.071888074
191	0xbc7b4fa4	-0.015338812
192	0x3dc734e5	0.09726886
193	0xbd319f86	-0.043365024
194	0x3daed962	0.08537556
195	0xbbc46480	-0.005993426
196	0x3cd75c39	0.026289092
197	0x3d843a59	0.064564414
198	0x3d497210	0.049181044
199	0xbdab3995	-0.08360592

decodernorms.0.weight f4 [200]
0	0x3f97f5e7	1.1871918
1	0x3f9dfb44	1.2342305
2	0x3f8d5e77	1.1044453
3	0x3f9ad37b	1.2095789
4	0x3f904d1a	1.127353
5	0x3f979500	1.1842346
6	0x3f9599d1	1.1687566
7	0x3f961fc6	1.1728446
8	0x3f996e1c	1.1986728
9	0x3f9b2ad0	1.212244
10	0x3f9d92f0	1.2310467
11	0x3f9ba775	1.2160479
12	0x3f9b6471	1.2140027
13	0x3f940736	1.1564701
14	0x3f993134	1.1968141
15	0x3f9cb506	1.2242744
16	0x3f95e795	1.1711298
17	0x3f971ac2	1.1805041
18	0x3f99a007	1.2001961
19	0x3f968679	1.1759788
20	0x3f99db78	1.2020102
21	0x3f96aa82	1.1770785
22	0x3f8fe0f9	1.1240531
23	0x3f90f16c	1.1323676
24	0x3f94e8dd	1.1633564
25	0x3f983620	1.1891518
26	0x3f93bf7d	1.1542813
27	0x3f948203	1.1602176
28	0x3f977153	1.1831459
29	0x3f9c2fd8	1.2202101
30	0x3f9d9097	1.230975
31	0x3f9c81a5	1.2227064
32	0x3f98f396	1.1949337
33	0x3f974ba4	1.1819959
34	0x3f8fd3fe	1.123657
35	0x3f99b7ab	1.2009176
36	0x3f98c749	1.1935817
37	0x3f9ccceb	1.2250036
38	0x3fa23248	1.2671595
39	0x3f9ac6bb	1.2091898
40	0x3f97a315	1.1846644
41	0x3f9521d2	1.1650946
42	0x3f8d8def	1.105894
43	0x3f947fec	1.1601539
44	0x3f938fbd	1.152824
45	0x3f992368	1.196393
46	0x3f989ff4	1.1923814
47	0x3f9dccb0	1.2328091
48	0x3f9b553f	1.213539
49	0x3f991ab3	1.1961273
50	0x3f943ee2	1.158169
51	0x3f987732	1.1911376
52	0x3f979f8c	1.1845565
53	0x3f983633	1.189154
54	0x3f94b036	1.1616275
55	0x3f9a5221	1.2056314
56	0x3f946992	1.1594718
57	0x3f93be36	1.1542423
58	0x3f938c49	1.1527187
59	0x3f955099	1.1665221
60	0x3f972c44	1.1810384
61	0x3f92a9c6	1.1458061
62	0x3f966c39	1.1751777
63	0x3f98e14d	1.1943756
64	0x3f9746c8	1.1818476
65	0x3f941a2c	1.1570487
66	0x3f9bde26	1.2177169
67	0x3f9aa066	1.20802
68	0x3f9ab929	1.2087756
69	0x3f9b61ce	1.2139223
70	0x3f941b36	1.1570804
71	0x3f9c53b3	1.2213043
72	0x3f95a9df	1.1692466
73	0x3f965cde	1.1747091
74	0x3f971ff3	1.1806625
75	0x3f92a7d3	1.1457466
76	0x3f9c2c61	1.2201043
77	0x3f9442f5	1.1582934
78	0x3f9c2bfd	1.2200924
79	0x3f9ac509	1.209138
80	0x3f9c16a2	1.2194407
81	0x3f97f2d8	1.1870985
82	0x3f93e0da	1.1552994
83	0x3f9b67f1	1.2141095
84	0x3f9b78be	1.2146223
85	0x3f9b6641	1.214058
86	0x3f96082c	1.1721244
87	0x3f9751ee	1.1821878
88	0x3f9963d7	1.1983594
89	0x3f98c8cb	1.1936277
90	0x3f978f05	1.1840521
91	0x3f9d9599	1.2311279
92	0x3f96ca4a	1.1780484
93	0x3f93d455	1.1549174
94	0x3f9a70d2	1.206568
95	0x3f9aa75f	1.2082328
96	0x3f8e2616	1.1105373
97	0x3f9c1c7a	1.219619
98	0x3f989734	1.1921144
99	0x3f96aaef	1.1770915
100	0x3f9d8b3e	1.2308118
101	0x3f943d7c	1.1581264
102	0x3f961cfa	1.1727593
103	0x3f9791ee	1.1841409
104	0x3f9e1f2c	1.2353263
105	0x3f988566	1.191571
106	0x3f91b2d8	1.1382704
107	0x3f97e156	1.1865642
108	0x3f986ff5	1.1909167
109	0x3f9b6d79	1.2142783
110	0x3f97d4dd	1.1861836
111	0x3f9855d5	1.1901194
112	0x3f9807a5	1.1877333
113	0x3f91a222	1.1377604
114	0x3f96a548	1.176919
115	0x3f972e2b	1.1810964
116	0x3f96c10c	1.1777663
117	0x3f90828c	1.128984
118	0x3f9c7633	1.2223572
119	0x3f9c8e16	1.2230861
120	0x3f968979	1.1760703
121	0x3f9a2c6c	1.2044806
122	0x3f9c63d4	1.2217965
123	0x3f977d15	1.1835047
124	0x3f95f044	1.1713948
125	0x3f95bfa2	1.1699107
126	0x3f96b37c	1.1773524
127	0x3f96c5a8	1.177907
128	0x3f96ec07	1.179078
129	0x3f973fe9	1.1816379
130	0x3f995a12	1.1980612
131	0x3f9311c9	1.1489803
132	0x3f934828	1.1506395
133	0x3f940474	1.1563859
134	0x3f98d80c	1.1940932
135	0x3f9c010f	1.2187823
136	0x3f960ab9	1.1722022
137	0x3f8daacb	1.1067747
138	0x3f9b18e0	1.2116966
139	0x3f968b4f	1.1761264
140	0x3f94012e	1.156286
141	0x3f9ac641	1.2091752
142	0x3f9419d4	1.1570382
143	0x3f9af39e	1.2105596
144	0x3f97322e	1.1812189
145	0x3f991d29	1.1962024
146	0x3f933cfc	1.1502986
147	0x3f9a2cdb	1.2044939
148	0x3f92b6ab	1.1461996
149	0x3f9437e0	1.1579552
150	0x3f925c71	1.1434461
151	0x3f93f96a	1.156049
152	0x3f9bb01e	1.2163122
153	0x3f962d97	1.1732663
154	0x3f9b5c24	1.2137494
155	0x3f96a55f	1.1769217
156	0x3f9597b7	1.1686925
157	0x3f9ffe0f	1.2499408
158	0x3f980351	1.1876012
159	0x3f95f74e	1.1716096
160	0x3f8f3ff4	1.1191392
161	0x3f96bf35	1.1777102
162	0x3f920b24	1.140965
163	0x3f97cf96	1.1860225
164	0x3f973e40	1.1815872
165	0x3f95c025	1.1699263
166	0x3f99c861	1.2014276
167	0x3f93d3e6	1.1549041
168	0x3f9923ab	1.196401
169	0x3f980677	1.1876973
170	0x3f99560d	1.1979386
171	0x3f9c4e92	1.2211478
172	0x3f94bf58	1.1620893
173	0x3f97bd2f	1.1854609
174	0x3f9552e1	1.1665918
175	0x3f99fb32	1.2029784
176	0x3f9b39df	1.2127036
177	0x3f9b5ed6	1.2138317
178	0x3f9b8cb2	1.2152312
179	0x3f99a0ea	1.2002232
180	0x3f9b911b	1.2153658
181	0x3f9f73ad	1.2457176
182	0x3f9580e3	1.1679958
183	0x3f99ed45	1.2025534
184	0x3f9413b3	1.1568512
185	0x3f98352e	1.1891229
186	0x3f963f7e	1.1738126
187	0x3f99d249	1.2017299
188	0x3fa24c04	1.2679448
189	0x3f982b1b	1.1888155
190	0x3f95b796	1.1696651
191	0x3f93640f	1.151491
192	0x3f96a713	1.1769737
193	0x3f9c5232	1.2212584
194	0x3f919fc0	1.1376877
195	0x3f996d8c	1.1986556
196	0x3f98c6ab	1.1935629
197	0x3f9414e5	1.1568877
198	0x3f954289	1.166093
199	0x3f98cf07	1.193818
