tutorial/data/test_small/results_test/latent_space/model.pt (torch, 14077 bytes, 18 tensors)

encoderlayers.0.weight f4 [12, 70]
0	0xbdeecf52	-0.11660637
1	0x3e01507f	0.12628363
2	0x3dc6f72e	0.097151145
3	0x3da35874	0.079758555
4	0x3e033afe	0.12815472
5	0xbe294ce3	-0.16533236
6	0x3df25097	0.118317775
7	0xbe0bff34	-0.13671571
8	0x3cfa5552	0.030558262
9	0xbe18218f	-0.14856552
10	0x3cf8c460	0.030367076
11	0xbcf511da	-0.029915739
12	0x3dab271a	0.083570674
13	0x3d690c74	0.05689664
14	0x3d0a8837	0.03382131
15	0xbbe963bc	-0.007122485
16	0x3baf8e94	0.005357573
17	0xbd043c94	-0.032284334
18	0x3db0cf0d	0.08633242
19	0x3dcb8b65	0.09938697
20	0x3d915074	0.07095423
21	0x3d3a4e6b	0.04548494
22	0x3d0ea927	0.034829285
23	0x3c15ee95	0.009151121
24	0x3d8910a7	0.06692629
25	0xbd96a8bd	-0.07356403
26	0xbd7fa136	-0.062409602
27	0x3dd1379b	0.10215684
28	0xbc89e5b6	-0.016833168
29	0x3d816afe	0.06319235
30	0xbdb26a20	-0.08711648
31	0xbccf68b7	-0.025318487
32	0xbd58d2af	-0.0529353
33	0xbd5287a7	-0.0513989
34	0x3d5cac67	0.053875353
35	0x3d983b22	0.07433154
36	0xbd264c9a	-0.040600397
37	0x3d1132b6	0.035448752
38	0xbd5cdedd	-0.053923476
39	0xbc8e8021	-0.017395081
40	0x3cd1fd2b	0.025633415
41	0x3d140c89	0.036144767
42	0x3db4b52e	0.0882362
43	0xbd8c2161	-0.06842304
44	0xbdbd7d9f	-0.09252476
45	0xbada92eb	-0.0016675865
46	0xbc572b3e	-0.013132868
47	0x3d446b52	0.04795391
48	0x3d5e5e0d	0.054288913
49	0xbd4da5e9	-0.050207052
50	0xbd6ffcaf	-0.058590587
51	0x3d523b0e	0.05132585
52	0x3cc644d0	0.024202734
53	0xbdc6ef1f	-0.097135775
54	0x3c841164	0.016121574
55	0xbd09e5e7	-0.033666518
56	0x3d18275b	0.037146907
57	0xbd9ddd55	-0.07708231
58	0xbd9ab3a1	-0.07553793
59	0x3d518c4a	0.05115918
60	0xbdb69e41	-0.08916903
61	0xbd5ac109	-0.05340675
62	0x3ab08521	0.001346741
63	0xbc225b19	-0.009909415
64	0x3e353f8d	0.17700024
65	0x3d0d9f34	0.034575656
66	0x3d47d8d8	0.048790783
67	0xbde7002a	-0.11279328
68	0x3d8844be	0.066537365
69	0x3c06d07d	0.008228418
70	0x3dc2103a	0.09475751
71	0xbe2214e3	-0.1582828
72	0xbd7791fe	-0.060441963
73	0x3c0ce573	0.008599627
74	0xbda3b1e0	-0.07992911
75	0xbe3929fe	-0.18082425
76	0x3da0b52f	0.07847058
77	0xbdc28804	-0.09498599
78	0xbe4ef61f	-0.20211075
79	0x3c2a214e	0.010383917
80	0xbd753c50	-0.05987197
81	0xbb70ba47	-0.0036732124
82	0xbdc49903	-0.09599497
83	0xbe09ee42	-0.13469794
84	0x3d0b7998	0.034051508
85	0xbc26e580	-0.010186553
86	0xbd217a4a	-0.039423265
87	0xbc0c845b	-0.008576478
88	0xbd5948b9	-0.05304787
89	0xbdf24feb	-0.118316494
90	0x3d247167	0.04014721
91	0xbdb45ad6	-0.08806388
92	0xbd16d079	-0.03681991
93	0xbd54d205	-0.051958103
94	0xbd46088f	-0.048348006
95	0xbc566cd9	-0.013087475
96	0xbc7cc499	-0.015427732
97	0xbdbef6cf	-0.09324419
98	0xbd6adcd4	-0.057339504
99	0xbd111593	-0.035420965
100	0xbd732b52	-0.059367485
101	0xbc5e4433	-0.013566065
102	0x3da7c036	0.08190958
103	0x3d49c096	0.04925593
104	0xbce38160	-0.027771652
105	0x3d98387f	0.07432651
106	0x3cc0e2f2	0.023545716
107	0x3d82c98b	0.063860975
108	0xbd426c50	-0.047466576
109	0xbdc8f34a	-0.09812029
110	0xbd36a464	-0.04459037
111	0xbdbd2182	-0.09234907
112	0x3dc0f89c	0.094224185
113	0xbd64bff9	-0.055847142
114	0xbd2039c4	-0.03911759
115	0xbe09d797	-0.13461147
116	0x3d063ce0	0.0327729
117	0xbdd352d3	-0.10318532
118	0x3b1b4c78	0.0023696702
119	0xbaff9fa3	-0.0019502532
120	0xbb9ab0d5	-0.004720787
121	0xbdd7f3a5	-0.105445184
122	0x3c5b4b7b	0.013384695
123	0xbda29032	-0.07937659
124	0xbd12d0c0	-0.03584361
125	0x3ddf73cb	0.10910758
126	0xbd9babc5	-0.07601122
127	0xbd31c960	-0.043404937
128	0xbd23c31a	-0.039980985
129	0x3c9e3116	0.019310515
130	0x3de93855	0.113876976
131	0xbdab10f7	-0.08352845
132	0xbd744d93	-0.059644293
133	0xbd0dc765	-0.034613986
134	0xbda72422	-0.08161189
135	0xbe1c1827	-0.15243588
136	0xbd69891a	-0.057015516
137	0x3dc1e5be	0.09467648
138	0xbc47311b	-0.012157704
139	0xbc0b3794	-0.008497138
140	0x3d8a1263	0.06741788
141	0xbda2f74e	-0.07957326
142	0x3cfc2a55	0.030781904
143	0xbc922980	-0.017842054
144	0xbe80e675	-0.25175825
145	0x3cf611fc	0.030037872
146	0x3de12d6a	0.1099499
147	0xbe04d855	-0.12973149
148	0xbe7403ab	-0.23829524
149	0x3eadb9e7	0.33930895
150	0x3d890531	0.06690443
151	0x3d6bf880	0.057610035
152	0x3c52fcff	0.012877702
153	0xbb84ba31	-0.004050516
154	0xbc190a0a	-0.009340772
155	0x3d7216cf	0.059103783
156	0x3b249021	0.0025110322
157	0x3a6a5dd9	0.0008940376
158	0x3c542d7e	0.012950299
159	0xbd223e75	-0.039610345
160	0xbca6bd77	-0.020354016
161	0xbd397ec8	-0.045286924
162	0xbd4f8d3b	-0.050671797
163	0xbd7d3e59	-0.061827037
164	0xbd2574d5	-0.040394623
165	0xbd05be5b	-0.03265224
166	0x3c7d8658	0.015473925
167	0x3cfe242c	0.031023107
168	0x3d5fc039	0.054626677
169	0x3da8f000	0.08248901
170	0x3c085901	0.008322001
171	0xbc2ab86f	-0.010419949
172	0x3c7648b6	0.015031984
173	0x3d0ae233	0.033907127
174	0x3da474a9	0.08030064
175	0x3de6b281	0.11264516
176	0x3cd60245	0.02612413
177	0xbc507ac9	-0.012724587
178	0xbc9205e6	-0.017825078
179	0xbd0e9896	-0.034813486
180	0x3dcb4c4c	0.09926662
181	0x3dbc9818	0.09208697
182	0x3d277fa4	0.040893212
183	0x3d5b44e8	0.05353251
184	0x3ad0a975	0.0015919643
185	0xbc84b84d	-0.016201163
186	0xbda9d5de	-0.08292745
187	0xbdb5a2bd	-0.088689305
188	0x3d8bfd23	0.06835391
189	0x3d7318a1	0.05934966
190	0xbb49dd3a	-0.0030802027
191	0xbd27f396	-0.041003786
192	0x3d477a6a	0.048700728
193	0xbb68e93d	-0.0035539411
194	0x3c733676	0.0148445275
195	0x3aafb6af	0.0013405884
196	0xbd182999	-0.037149046
197	0x3c6aac96	0.014323374
198	0x3c426395	0.0118645625
199	0xbbf3df81	-0.007442415
200	0x3d1514a3	0.036396634
201	0x3c413cd6	0.01179429
202	0xbcbc7dcb	-0.023009202
203	0x3c956a7b	0.01823925
204	0xbbb81383	-0.0056175604
205	0xbda4c9f6	-0.080463335
206	0xbcb32398	-0.021867558
207	0x3d361ba1	0.044459943
208	0xbd05542d	-0.03255098
209	0xbc8e29f7	-0.017353995
210	0xbe570226	-0.20996913
211	0x3e93fbe2	0.2890311
212	0xbded3df2	-0.11584081
213	0x3dab13d6	0.08353393
214	0x3deff24b	0.117161356
215	0x3db01153	0.08597054
216	0xbd8333a8	-0.06406337
217	0x3e2a6729	0.16640915
218	0xbe259fb5	-0.16174205
219	0x3d894b50	0.06703818
220	0xbd95037c	-0.07276055
221	0xbdd62f1d	-0.10458205
222	0x3d4c8403	0.049930584
223	0x3da66632	0.08124961
224	0xbd27fddd	-0.041013587
225	0xbd6f933a	-0.058490016
226	0xbd0f7596	-0.035024248
227	0xbd6beaff	-0.057597157
228	0xbca18949	-0.019718783
229	0xbc4cfbb3	-0.012511182
230	0xbc899940	-0.016796708
231	0xbd0b37b8	-0.033988684
232	0xbcbe8c2f	-0.023260204
233	0xbbbd4d78	-0.0057770573
234	0x3b5a4157	0.0033303106
235	0xbd0ab5c0	-0.033864737
236	0x3d6f4f96	0.05842551
237	0x3da5cb02	0.08095361
238	0x3db48df6	0.088161394
239	0x3db8059b	0.08985444
240	0xbc9c36dc	-0.019069128
241	0xbc8df553	-0.017328894
242	0x3d4fa66c	0.05069582
243	0x3d5916a9	0.053000126
244	0x3d36bfc6	0.044616483
245	0x3cabae57	0.020957155
246	0x3c63b8e7	0.013899065
247	0x3b2c594a	0.0026298338
248	0x3d776be6	0.060405634
249	0x3d1bb62f	0.03801554
250	0xbd145385	-0.036212463
251	0xbcd41e06	-0.025893223
252	0xbdd12eaa	-0.102139786
253	0xbdf447c1	-0.119277485
254	0x3d9f42d1	0.07776416
255	0x3dd23212	0.102634564

encoderlayers.0.bias f4 [12]
0	0x3d4d52d7	0.05012783
1	0x3c7b2fd4	0.015331227
2	0x3dae62f3	0.08514967
3	0xbc78e357	-0.015190921
4	0x3d995f8e	0.07488929
5	0x3d954e65	0.07290343
6	0xbb0e8936	-0.0021749265
7	0xba398970	-0.000707767
8	0x3e054f56	0.13018546
9	0xbd7185c6	-0.058965467
10	0xbd441fd3	-0.047881912
11	0xbd2e05cc	-0.042485997

encodernorms.0.weight f4 [12]
0	0x3f8978d6	1.0740001
1	0x3f9a5eae	1.2060144
2	0x3fa9b922	1.3259623
3	0x3fb1f693	1.3903373
4	0x3fb17f10	1.3866901
5	0x3fa9dfd7	1.3271435
6	0x3f996741	1.1984636
7	0x3fa10144	1.2578511
8	0x3fb17995	1.3865229
9	0x3fa425f7	1.2824086
10	0x3fada8e0	1.3567162
11	0x3fb9662d	1.4484307

encodernorms.0.bias f4 [12]
0	0x3ecb1449	0.39663914
1	0x3e291f61	0.16515876
2	0x3edc3e83	0.43016443
3	0xbddda1e4	-0.10821894
4	0x3dc662d0	0.09686816
5	0x3ec9dbdd	0.39425555
6	0xbebc438f	-0.36770293
7	0xbef710d1	-0.48255017
8	0x3ec34495	0.3813826
9	0x3e7af35d	0.24506898
10	0xbe537052	-0.20648316
11	0x3e6a986a	0.22909704

encodernorms.0.running_mean f4 [12]
0	0x3eb36af7	0.35042545
1	0xbbf4ea44	-0.0074742157
2	0x3eacb627	0.3373272
3	0x3eb0e95b	0.34553036
4	0x3e97236b	0.2951921
5	0x3ea523b4	0.32253802
6	0x3e968d5e	0.2940473
7	0x3e9bf52e	0.30460495
8	0x3ea71102	0.32630163
9	0xbbfa2562	-0.007633851
10	0x3ebb9ab2	0.3664146
11	0x3e997d0d	0.2997822

encodernorms.0.running_var f4 [12]
0	0x3e0dbe7a	0.13842192
1	0x3a0c1c29	0.00053447724
2	0x3e074781	0.1321087
3	0x3de73c48	0.112907946
4	0x3dd0b161	0.10190082
5	0x3e06a2a3	0.13147978
6	0x3e0b2e8b	0.13591973
7	0x3dfca656	0.123364136
8	0x3dfcb361	0.12338901
9	0x38a30f8f	7.775344e-05
10	0x3e28f055	0.1649793
11	0x3de5acfe	0.11214636

decoderlayers.0.weight f4 [12, 8]
0	0x3e3aa87b	0.18228333
1	0x3ea18116	0.31543797
2	0x3e8222aa	0.25417072
3	0xbe335428	-0.17512572
4	0x3e85a3f9	0.26101664
5	0xbe45cec2	-0.19317153
6	0xbebc9351	-0.36831143
7	0xbe6ef6bd	-0.2333631
8	0x3d6e1b76	0.058131658
9	0x3cb2eb50	0.021840721
10	0xbdc9acb7	-0.09847396
11	0xbe142ba3	-0.14469771
12	0x3dbc866c	0.092053264
13	0x3e6e92c0	0.23298168
14	0xbe51fbb2	-0.2050617
15	0xbdec3120	-0.11532807
16	0xbee21793	-0.4415861
17	0xbde68faf	-0.11257874
18	0xbe83365e	-0.25627416
19	0x3d0bc927	0.03412738
20	0x3e9bd39f	0.30434892
21	0x3e5fa6d2	0.2184098
22	0x3e630f4f	0.22173809
23	0xbe71eea3	-0.23626189
24	0x3ea19138	0.31556106
25	0xbe2762a3	-0.1634622
26	0xbe7b0b54	-0.2451604
27	0xbe7a18e2	-0.24423555
28	0xbe2a4aca	-0.16630092
29	0xbe620274	-0.22071248
30	0xbdae8ce2	-0.08522965
31	0xbe44a481	-0.19203378
32	0x3e2826a2	0.16420987
33	0xbe1a6bf1	-0.15080239
34	0x3e5ab12e	0.21356651
35	0x3e15a4da	0.14613667
36	0x3ea25405	0.31704727
37	0x3dca43f6	0.09876244
38	0xbee7740d	-0.45205727
39	0x3cbc1df5	0.022963503
40	0xbdac3a20	-0.08409524
41	0x3daf2c56	0.08553378
42	0xbe17f98a	-0.14841285
43	0x3e36ba2a	0.17844453
44	0xbd0f9783	-0.035056602
45	0xbea2a033	-0.31762847
46	0xbdc4f093	-0.096161984
47	0xbca22fb8	-0.019798145
48	0xbd806ccc	-0.06270751
49	0x3dd2a6f1	0.10285748
50	0x3e6d2c9a	0.23161545
51	0xbe1e6a6e	-0.15470287
52	0xbe333714	-0.1750148
53	0xbd4c8ced	-0.049939085
54	0x3e3fbe09	0.18724836
55	0xbe5c16df	-0.214931
56	0xbdcf51f9	-0.10123057
57	0xbd0c8338	-0.034304827
58	0x3d659d0c	0.056057975
59	0xbd7d9fba	-0.061919905
60	0x3e1f536f	0.15559171
61	0xbe4311c6	-0.19049749
62	0xbe26aac7	-0.16276084
63	0xbe0c3ae8	-0.13694346
64	0xbe8778cf	-0.26459357
65	0x3e5314f0	0.20613456
66	0xbe78b429	-0.24287476
67	0xbd8954f3	-0.06705656
68	0x3e635368	0.22199786
69	0x3e705758	0.23470819
70	0x3dc6ea72	0.09712686
71	0xbe8eb96f	-0.2787585
72	0xbd556482	-0.052097805
73	0xbe266cba	-0.16252413
74	0xbd48d63a	-0.049032427
75	0x3e679320	0.22614717
76	0xbdf3dfd1	-0.11907924
77	0x3eedb9b9	0.46430758
78	0xbe7c8bd1	-0.2466271
79	0x3e9a6e0c	0.30162084
80	0xbe48075d	-0.19534059
81	0xbe6f6b07	-0.23380671
82	0x3cd69480	0.026193857
83	0x3edc2192	0.42994362
84	0x3e983abd	0.29732314
85	0x3e2b6f9d	0.16741796
86	0x3c87afd6	0.016563337
87	0xbcc5368d	-0.024073863
88	0x3d7546ab	0.059881847
89	0x3e8e8f34	0.2784363
90	0x3e92c569	0.28666237
91	0xbd368ca8	-0.044567734
92	0x3e82573f	0.25457188
93	0x3e43adcd	0.19109268
94	0xbdafe688	-0.08588892
95	0xbd328a98	-0.043589205

decoderlayers.0.bias f4 [12]
0	0x3e976528	0.29569364
1	0x3e73c71e	0.23806426
2	0x3ee21341	0.44155315
3	0x3e6573ae	0.2240741
4	0xbd81d89a	-0.063401416
5	0x3e4a9fb9	0.19787492
6	0x3e897e14	0.26854002
7	0x3dee7c8e	0.11644851
8	0x3e860dcf	0.2618241
9	0xbe085541	-0.13313772
10	0x3e7ef11f	0.24896668
11	0x3e509923	0.20370917

decodernorms.0.weight f4 [12]
0	0x3f6b9718	0.92027426
1	0x3f895223	1.0728191
2	0x3f79f1a3	0.97634333
3	0x3f7594a8	0.95929956
4	0x3f6967b5	0.9117387
5	0x3f76f56a	0.9646822
6	0x3f72108a	0.94556487
7	0x3f6cba11	0.92471415
8	0x3f655493	0.89582175
9	0x3f5b2c48	0.8561444
10	0x3f6a3e39	0.91501194
11	0x3f751c12	0.95745957

decodernorms.0.bias f4 [12]
0	0xbe091c67	-0.13389741
1	0xbc55b569	-0.01304374
2	0x3cf8324d	0.030297423
3	0xbdb77639	-0.08958096
4	0x3e2002a0	0.15626001
5	0xbdacdedf	-0.08440947
6	0xbca3588d	-0.019939685
7	0x3db21e77	0.08697217
8	0x3cc942cc	0.024567984
9	0x3daf1903	0.085496925
10	0xbe540e0c	-0.20708483
11	0x3c0d703b	0.008632715

decodernorms.0.running_mean f4 [12]
0	0x3fab37c4	1.3376393
1	0x3f4569f2	0.77114785
2	0x3f9f509b	1.2446474
3	0x3f3d4f28	0.7394891
4	0x3f6981dc	0.91213775
5	0x3f121249	0.5705915
6	0x3f090d89	0.5353628
7	0x3f2a6113	0.66554374
8	0x3f90d549	1.131509
9	0x3f0b9fad	0.5454052
10	0x3f6a1a79	0.91446644
11	0x3f5cd0f1	0.8625632

decodernorms.0.running_var f4 [12]
0	0x401f166d	2.4857438
1	0x3f505f93	0.81395835
2	0x401dbaf7	2.4645364
3	0x3f776b8a	0.96648467
4	0x3fc316be	1.5241315
5	0x3f0dc595	0.5537961
6	0x3f166b90	0.5875788
7	0x3f0e4197	0.5556883
8	0x3fe5d614	1.7955956
9	0x3f798897	0.97474045
10	0x3fb72eed	1.4311196
11	0x3f6a0c4e	0.91425025

mu.weight f4 [8, 12]
0	0x3d845236	0.06460993
1	0x3e04d66d	0.12972422
2	0x3d814e06	0.0631371
3	0xbee38019	-0.44433668
4	0xbd2f4dc7	-0.042798784
5	0x3e93b993	0.2885252
6	0x3e4362b6	0.19080624
7	0x3dc7d0f5	0.09756652
8	0xbe908af0	-0.28231
9	0x3e98d218	0.2984779
10	0x3e84391a	0.25824815
11	0xbf1005f6	-0.56259096
12	0xbe970c11	-0.29501393
13	0xbeb12ef6	-0.3460614
14	0xbef715b4	-0.48258746
15	0xbd47a63a	-0.04874251
16	0x3f0ab25d	0.5417841
17	0xbdc9dc1e	-0.09856437
18	0xbe775c6a	-0.24156347
19	0x3d727bb2	0.059199996
20	0x3e110657	0.14162575
21	0x3ea3271c	0.31865776
22	0xbdc36aa3	-0.09541824
23	0x3dab1bd4	0.08354917
24	0x3eb64c35	0.35605016
25	0xbee4a350	-0.44655848
26	0xbf182da0	-0.5944462
27	0x3d622122	0.05520738
28	0x3e8c562d	0.27409497
29	0xbe888c50	-0.2666955
30	0x3d23d017	0.03999337
31	0xbebcc519	-0.36869124
32	0x3ecbefe2	0.39831454
33	0x3d41f40a	0.047351874
34	0xbea53d47	-0.32273313
35	0xbf15ab96	-0.58464944
36	0x3e97abf6	0.29623383
37	0xbcf4fce4	-0.029905744
38	0x3ad554cd	0.0016275883
39	0x3ecd7536	0.40128487
40	0xbea78db2	-0.32725292
41	0xbbbd2218	-0.0057718866
42	0x3e40c83d	0.18826385
43	0x3f0664e7	0.52497715
44	0x3eabfdf3	0.33592185
45	0xbf061a1d	-0.52383596
46	0xbf132509	-0.57478386
47	0xbdc2656c	-0.09492001
48	0x3ca253fb	0.019815436
49	0x3e3824e6	0.17982826
50	0xbe9d525e	-0.30726904
51	0x3e7e5c82	0.24839976
52	0xbd4e6189	-0.050385986
53	0x3ed6e3ba	0.41970617
54	0xbde76c50	-0.11299956
55	0xbe7ed4e9	-0.24885906
56	0x3f11a5cc	0.5689361
57	0xbdaae901	-0.08345223
58	0xbedb67b8	-0.4285257
59	0x3e6ba124	0.23010689
60	0x3e66d9b2	0.22543982
61	0xbe937897	-0.2880294
62	0xbe9db072	-0.3079868
63	0x3e9f2671	0.31084016
64	0xbe8ac110	-0.2710042
65	0x3f22334f	0.6335954
66	0x3ecc0a35	0.39851537
67	0xbebe4eb0	-0.3716941
68	0xbefbb4ee	-0.49161476
69	0x3e66b97e	0.22531697
70	0x3ec627e6	0.38702315
71	0x3ea0f0ae	0.31433624
72	0xbd5919f6	-0.053003274
73	0xbe9eb51b	-0.30997548
74	0x3e27cf48	0.16387665
75	0x3f0ab6a3	0.5418493
76	0x3f0e42fd	0.55570966
77	0xbf08f2ee	-0.5349568
78	0x3e28a624	0.16469628
79	0x3e614a03	0.2200089
80	0xbf00bb02	-0.5028535
81	0x3d24fde0	0.040281177
82	0xbe489ba9	-0.1959063
83	0x3ed25791	0.41082433
84	0x3e7fc627	0.24977933
85	0xbd9e36ea	-0.07725318
86	0xbd6f836e	-0.05847495
87	0x3e0ba0a2	0.13635495
88	0xbf05d9a2	-0.52285206
89	0xbe6feddc	-0.2343058
90	0x3f00b766	0.50279844
91	0x3e61ff49	0.2207004
92	0xbe8f8429	-0.28030518
93	0xbe586ebf	-0.21135996
94	0x3e982652	0.29716736
95	0xbf026852	-0.5094043

mu.bias f4 [8]
0	0xbdac1223	-0.08401897
1	0x3e1c910c	0.15289706
2	0xbe4fdcb2	-0.20299032
3	0xbc85a4f9	-0.016314017
4	0x3ef8cab3	0.48592147
5	0x3d9074e0	0.07053542
6	0xbe790a94	-0.24320441
7	0xbed09b88	-0.4074366

var.weight f4 [8, 12]
0	0xbe7a81ac	-0.24463528
1	0xbdc6bdf5	-0.097042
2	0xbe01bf81	-0.12670709
3	0x3e02efc1	0.12786771
4	0xbca7b9c6	-0.020474326
5	0xbbc34d3a	-0.005960134
6	0x3e08687e	0.1332111
7	0x3e330967	0.17484055
8	0xbd1775d1	-0.036977593
9	0xbd453432	-0.04814548
10	0x3e1b5dfb	0.1517257
11	0xbe154729	-0.14577927
12	0xbe854d23	-0.26035413
13	0xbe5b85ba	-0.21437731
14	0xbd749100	-0.059708595
15	0xbcd6ffd0	-0.026245028
16	0xbc457a9d	-0.012053159
17	0xbdf93a3b	-0.1216931
18	0xbd51864d	-0.05115347
19	0x3e618258	0.22022378
20	0xbe05ce22	-0.13066915
21	0xbe0345d7	-0.1281961
22	0xbcb04c26	-0.021520685
23	0xbe34d7db	-0.17660467
24	0xbe2e10bd	-0.16998573
25	0x3deb3597	0.11484831
26	0xbdfa816b	-0.12231716
27	0x3e7120ac	0.2354762
28	0xbd910279	-0.0708055
29	0xbda5c31f	-0.08093857
30	0xbd300638	-0.04297468
31	0x3e996bf1	0.29965165
32	0xbe0eea25	-0.13956507
33	0xbe01a997	-0.1266235
34	0x3e87456a	0.26420146
35	0xbdd562bb	-0.10419222
36	0xbe8d7ee2	-0.27635866
37	0xbe304988	-0.1721555
38	0xbe1f052a	-0.15529314
39	0x3e218b20	0.15775728
40	0xbe1f052f	-0.15529321
41	0xbe223230	-0.15839458
42	0x3e0c207d	0.13684268
43	0xba94319d	-0.001130629
44	0x3d593f67	0.05303898
45	0x3b5f0c06	0.0034034266
46	0x3d5bf818	0.053703398
47	0xbd9ed70c	-0.07755861
48	0xbe084323	-0.1330686
49	0xbd9b5004	-0.07583621
50	0xbe30fa7d	-0.17283054
51	0x3d47a2bf	0.04873919
52	0x3d60e229	0.054903183
53	0xbe390297	-0.18067394
54	0x3e658d3e	0.22417161
55	0x3e3a8c1c	0.1821751
56	0xbdd66564	-0.104685575
57	0x3baa491a	0.0051967027
58	0xbbee287a	-0.007268009
59	0xbd7c88cc	-0.061653897
60	0xbe3788fd	-0.1792335
61	0x3dba307e	0.090912804
62	0xbeb9151a	-0.36148912
63	0xbd99d19c	-0.07510683
64	0x3ddbdb85	0.107352294
65	0xbdc52d3e	-0.0962777
66	0x3e7cd149	0.24689211
67	0x3e96a05c	0.2941922
68	0xbe82f922	-0.25580698
69	0xbe5dbab3	-0.21653251
70	0x3d0b0e84	0.03394939
71	0xbd4cad46	-0.049969934
72	0xbe4d0192	-0.2002013
73	0x3de5a209	0.112125464
74	0xbe5d4925	-0.21609934
75	0x3c26aae9	0.010172584
76	0xbdd08ca6	-0.101830766
77	0xbdd1b64f	-0.10239851
78	0x39f85960	0.00047368836
79	0x3d98a9ab	0.074542366
80	0xbe1c2b4f	-0.15250896
81	0xbe01df5b	-0.1268286
82	0x3d9d1d79	0.07671637
83	0x3c6411c7	0.013920254
84	0x3d62ea92	0.055399485
85	0xbe0adb9d	-0.13560338
86	0xbe39d8be	-0.18149087
87	0xbe3bb87c	-0.18332094
88	0xbd91b43e	-0.071144566
89	0xbe616459	-0.22010936
90	0x3e9abcea	0.30222255
91	0x3e872e99	0.2640274
92	0xbd5d412c	-0.05401723
93	0x3df67d97	0.12035673
94	0xbd6a9de1	-0.05727947
95	0x3d82b01e	0.06381248

var.bias f4 [8]
0	0xbf40f5d6	-0.75375116
1	0xbe111346	-0.14167508
2	0xbe81fb24	-0.25386918
3	0xbe935f1f	-0.2878351
4	0xbea9dabb	-0.3317469
5	0xbf08b7d9	-0.5340553
6	0xbf091d57	-0.53560394
7	0xbe614943	-0.22000603

out.weight f4 [70, 12]
0	0x3eb5fe77	0.35545704
1	0xbe753dc6	-0.23949346
2	0xbea2e17e	-0.31812662
3	0x3e717d7d	0.23583026
4	0x3e042112	0.1290324
5	0x3e9a2a24	0.30110276
6	0x3d0485b9	0.03235409
7	0x3c4fe468	0.012688734
8	0xbd584fdb	-0.05281053
9	0xbde1517c	-0.1100187
10	0xbcca17b0	-0.024669498
11	0x3da023c2	0.0781932
12	0xbe540a54	-0.20707065
13	0xbcae4718	-0.021274135
14	0x3eb4c4ae	0.35306305
15	0xbe6584d1	-0.22413947
16	0x3e2c1a3f	0.16806887
17	0xbe2f8715	-0.17141373
18	0xbd97c9b8	-0.07411522
19	0xbeb762a2	-0.35817438
20	0x3eafbb5a	0.34322625
21	0x3e0aa7f1	0.13540627
22	0x3e908c2b	0.2823194
23	0x3e18e618	0.14931524
24	0xbbb5c8bc	-0.005547611
25	0xbe40b614	-0.18819457
26	0xbd7e11f5	-0.062028844
27	0x3e2cf98d	0.16892071
28	0xbdcfcec8	-0.10146862
29	0xbdf99525	-0.1218665
30	0x3dd27114	0.10275474
31	0x3d23d445	0.039997358
32	0xbea709cb	-0.3262466
33	0x3c5af4c4	0.013364021
34	0xbe54be4d	-0.20775719
35	0x3e4e5a83	0.20151715
36	0xbd4feb83	-0.05076171
37	0x3e0e058a	0.138693
38	0x3ec3deb1	0.38255838
39	0x3cc9fcea	0.024656732
40	0x3dc511d4	0.09622541
41	0xbdba4157	-0.09094494
42	0xbddc5f31	-0.10760344
43	0xba153340	-0.0005691536
44	0xbd53166c	-0.051535055
45	0x3d0c0898	0.034187883
46	0x3e824f7a	0.2545126
47	0x3dfcdd76	0.12346928
48	0x3e65b1b0	0.22431064
49	0xbc3948a7	-0.011308826
50	0xbdaa96bc	-0.083295316
51	0xbd2c3ba3	-0.04204906
52	0x3eb15d78	0.34641623
53	0x3eb60659	0.35551718
54	0xbe350d8e	-0.17680952
55	0x3ec8ffdd	0.39257708
56	0xbeacbd3a	-0.33738118
57	0xbd57c606	-0.052679084
58	0xbc9551c7	-0.018227471
59	0x3e4bf5b6	0.1991795
60	0xbe190b07	-0.14945613
61	0x3e51da5f	0.20493458
62	0xbdcf05ec	-0.101085514
63	0x3eb4d6a1	0.3532
64	0xbead9f29	-0.33910492
65	0xbe2a9e0c	-0.16661853
66	0x3d50c4aa	0.050968803
67	0xbe90d039	-0.2828386
68	0xbe204cea	-0.1565434
69	0xbc52ad9b	-0.012858774
70	0xbedfcf60	-0.43712902
71	0xbe52f293	-0.20600347
72	0x3c6568d7	0.014002047
73	0x3e0c8621	0.13723041
74	0xbec7958b	-0.3898128
75	0x3ece5a7f	0.40303418
76	0x3dc4f866	0.09617691
77	0xbe1c40d3	-0.15259103
78	0xbebf1a55	-0.37324777
79	0xbeb74ce2	-0.35800844
80	0xbe973398	-0.2953155
81	0x3ecb68d3	0.39728412
82	0xbe3b2052	-0.18274048
83	0xbe06fdc2	-0.13182738
84	0x3ecdf2f5	0.40224424
85	0xbeaa0ae1	-0.33211425
86	0x3edc912a	0.430795
87	0xbe0077d2	-0.12545708
88	0xbebf39e1	-0.37348846
89	0xbd0441ec	-0.03228943
90	0x3f106ae6	0.56413114
91	0x3e9737ba	0.29534703
92	0x3eda6e3a	0.4266222
93	0xbea71aa1	-0.32637504
94	0x3bc88f45	0.0061205947
95	0x3e9697cf	0.29412696
96	0x3ead0105	0.3378984
97	0x3ed7c67c	0.4214362
98	0xbe27fe47	-0.16405593
99	0x3da75371	0.08170212
100	0x3e7770d0	0.24164128
101	0xbed5cb60	-0.41756725
102	0x3c9fe750	0.019519478
103	0xbe5e4dd3	-0.21709375
104	0xbcb53368	-0.022119239
105	0x3e9931c9	0.29920796
106	0xbdd97232	-0.10617484
107	0x3e7b1f3c	0.24523634
108	0xbe1fbc84	-0.15599257
109	0xbf065008	-0.5246587
110	0x3e3096aa	0.17244974
111	0x3e5409e7	0.20706902
112	0xbecad2e0	-0.3961401
113	0x3eae287b	0.3401526
114	0xbe3be6d0	-0.18349767
115	0xbe2839b8	-0.16428268
116	0x3d11bec1	0.035582308
117	0x3dbdec3a	0.09273572
118	0x3e44aaac	0.19205731
119	0xbee9e6bf	-0.45683858
120	0x3e4125b5	0.1886204
121	0x3cb3cc2b	0.02194794
122	0xbdb3fe73	-0.08788767
123	0x3c931958	0.01795642
124	0xbde1fe38	-0.110348165
125	0xbdbfd21a	-0.093662456
126	0x3e5b5368	0.21418536
127	0x3d7871a1	0.06065524
128	0x3cc3479e	0.02383786
129	0xbd87a764	-0.06623724
130	0x3e150be5	0.14555319
131	0x3e13cc89	0.14433493
132	0x3e32c21f	0.17456864
133	0x3e3ca81d	0.18423505
134	0x3d05a6e5	0.032629866
135	0xbda8c32d	-0.08240352
136	0xbd8723cd	-0.06598625
137	0xbd9116ab	-0.07084402
138	0x3e0c361f	0.1369252
139	0x3e0be75b	0.13662474
140	0xbd3f956a	-0.04677335
141	0xbe8f2418	-0.27957225
142	0xbdaee668	-0.0854004
143	0xbd55db53	-0.052211117
144	0x3daeb756	0.08531062
145	0xbe7aef61	-0.24505378
146	0xbd0540c3	-0.032532465
147	0xbd2f86fb	-0.042853337
148	0xbe35cf5e	-0.17754886
149	0x3c05050c	0.008118879
150	0xbe7d4edd	-0.24737115
151	0x3e1d3f71	0.15356232
152	0xbd89f6d2	-0.0673653
153	0x3c19dab5	0.009390523
154	0x3c96f7c4	0.01842869
155	0xbdf6003f	-0.12011766
156	0xbd8731f1	-0.066013224
157	0xbe471b7e	-0.19444081
158	0x3d1f6566	0.03891506
159	0xbb7c6911	-0.0038514773
160	0x3c830c5e	0.015997108
161	0x3dbb5dcc	0.0914875
162	0xbdd1f1e0	-0.10251212
163	0x3c2f8b92	0.0107144285
164	0xbde4ac5a	-0.11165686
165	0xbc5d0b58	-0.013491474
166	0x3df35f32	0.118833914
167	0xbc0f2b84	-0.008738402
168	0x3d49873c	0.049201235
169	0x3e241758	0.1602453
170	0x3b0092a5	0.0019618657
171	0xbe21ffc4	-0.15820223
172	0xbc7d3e8c	-0.015456807
173	0x3e317f30	0.17333674
174	0xbc6f0f8f	-0.014591112
175	0xbda43aff	-0.08019065
176	0x3dc7a71b	0.0974867
177	0x3df7093e	0.1206231
178	0xbe5b538f	-0.21418594
179	0xbd3d457a	-0.046208836
180	0x3d80bae1	0.06285644
181	0x3e3b4923	0.18289618
182	0xbd0d55e0	-0.034505725
183	0x3d92e002	0.07171632
184	0xbc9b8f85	-0.018989334
185	0x3e8f136d	0.27944508
186	0x3d1a92e1	0.03773773
187	0xbe01bde7	-0.12670098
188	0xbbd55d85	-0.0065113925
189	0x3d69fe8a	0.057127513
190	0xbe34b509	-0.17647184
191	0x3c503226	0.012707269
192	0xbd490f72	-0.049086995
193	0x3e32b768	0.17452776
194	0xbe35f3c7	-0.17768775
195	0x3d5ab843	0.053398382
196	0x3d7c22dd	0.061556686
197	0x3d823bea	0.06359084
198	0x3e0f232d	0.13978262
199	0xbdb90ade	-0.09035276
200	0x3d1e0717	0.03858098
201	0x3e4db854	0.20089847
202	0xbe305ccb	-0.17222898
203	0xbe363b6e	-0.17796108
204	0xbe0c9e5a	-0.13732281
205	0x3eaa43dd	0.332549
206	0xbdc4f8ba	-0.09617753
207	0x3dc593ee	0.09647356
208	0x3de3db84	0.11125854
209	0x3e053939	0.1301011
210	0xbd7f7be0	-0.062373996
211	0xbbc32965	-0.0059558623
212	0x3e49185f	0.19638203
213	0x3e2d0698	0.16897047
214	0xbde8e98e	-0.11372672
215	0xbe7934cc	-0.24336547
216	0x3e25c527	0.16188489
217	0x3e913ec5	0.28368202
218	0x3ca7592e	0.020428266
219	0x3c3f1d1a	0.011664653
220	0x3dfe0116	0.12402551
221	0x3de383ba	0.11109109
222	0xbe2ed13f	-0.17072009
223	0x3d70a9e6	0.058755778
224	0xbe5552fd	-0.20832439
225	0xbe65a5ca	-0.22426525
226	0xbe4c9b0f	-0.19981025
227	0x3d093640	0.033499002
228	0x3d60ebe5	0.054912467
229	0x3e24c8ff	0.16092299
230	0xbd8b484d	-0.068009
231	0xbe41642c	-0.18885869
232	0xbd820e89	-0.063504286
233	0x3e5b54fd	0.21419139
234	0x3d96fa2f	0.073719375
235	0xbd48fef2	-0.04907126
236	0xbe96344a	-0.29336768
237	0xbe5e3aa7	-0.21702062
238	0xbe374d24	-0.1790052
239	0x3ddb114f	0.10696661
240	0x3e49fe0e	0.1972582
241	0x3d855df1	0.065120585
242	0xbd8dd20f	-0.06924831
243	0x3d616368	0.05502644
244	0xbdf66265	-0.12030486
245	0xbe3bc747	-0.18337737
246	0xbda73ee0	-0.08166289
247	0x3d6d76e1	0.0579747
248	0x3bdb4ee1	0.0066927527
249	0x3e66172e	0.2246978
250	0xbe15648e	-0.1458914
251	0xbe0b6fc1	-0.1361685
252	0x3e5ebc97	0.21751629
253	0x3d4002d9	0.046877716
254	0xbdaff3dd	-0.08591435
255	0xbab045a4	-0.0013448489

out.bias f4 [70]
0	0x3db357f7	0.08757012
1	0x3e24bb93	0.16087179
2	0xbcbfbb52	-0.023404751
3	0x3d7c2e3e	0.061567537
4	0x3d5663dd	0.05234133
5	0x3d841f01	0.06451226
6	0x3cc42922	0.023945395
7	0x3e3b5e20	0.18297625
8	0xbe2523df	-0.16126965
9	0xbcba79fb	-0.022763243
10	0x3e86a28c	0.26295888
11	0x3e319504	0.17342001
12	0xbd9fb9af	-0.07799088
13	0x3d554da8	0.052076012
14	0xbd99fb89	-0.0751868
15	0x3d43acec	0.047772333
16	0x3dfa4be2	0.12221505
17	0x3d6ea686	0.058264278
18	0xbc646c4c	-0.013941836
19	0x3d9cb8d2	0.07652439
20	0x3e209953	0.15683489
21	0x3e14822f	0.14502786
22	0x3e39d36f	0.18147062
23	0x3ea7c474	0.3276707
24	0x3ce2519b	0.027626803
25	0xbd8d51cf	-0.069003694
26	0xbd0629c4	-0.032754675
27	0x3d45f0eb	0.04832546
28	0x3da30188	0.079592764
29	0x3de7a170	0.11310089
30	0xbd8d153a	-0.06888814
31	0xbd24301d	-0.040084947
32	0x3b3c6e34	0.002875221
33	0x3d8a09e9	0.067401715
34	0x3da249f0	0.07924259
35	0x3e8aba94	0.27095473
36	0x3e000fb6	0.12505993
37	0x3d7216d3	0.059103798
38	0xbcb2c5e1	-0.021822872
39	0xbdea8b49	-0.11452348
40	0x3c6b1ed4	0.014350612
41	0x3e2a1512	0.166096
42	0xbb4f7687	-0.003165634
43	0x3dd3228e	0.10309325
44	0x3e028951	0.12747695
45	0x3e46e24d	0.19422264
46	0x3c8dac29	0.017294006
47	0x3d5f1a91	0.054468695
48	0x3ea2aba7	0.31771585
49	0x3e212768	0.15737689
50	0x3d549254	0.051897362
51	0x3d76d00e	0.06025701
52	0x3d495a08	0.049158126
53	0xbc2b09e9	-0.0104393745
54	0x3cd20f1b	0.025641968
55	0x3d2f90ca	0.04286269
56	0xbc812c36	-0.015768152
57	0xbc6388dc	-0.01388761
58	0xbd1d3c80	-0.038387775
59	0xbd6e9e18	-0.05825624
60	0x3cbd43e6	0.023103666
61	0xbd3753be	-0.044757597
62	0xbc636a33	-0.0138803
63	0x3d43282b	0.04764573
64	0x3ceb6957	0.028736753
65	0x3d5b5ef9	0.05355737
66	0xbc2862d9	-0.010277473
67	0x3ce5df3a	0.028060544
68	0xbc5e8284	-0.013580922
69	0xbe3a8fdc	-0.1821894
