tutorial/data/test_small/interim_data_test/models/model_8_27.pt (torch, 14379 bytes, 18 tensors)

encoderlayers.0.weight f4 [12, 70]
-0.059472572 0.18708226 -0.08114946 0.01797017 -0.01788614 -0.047977276 -0.007086362 0.055084065
-0.009859963 -0.074747995 -0.08028407 -0.05087942 0.054799963 0.07877642 0.09811851 -0.0669099
-0.1027925 0.081040084 -0.014589796 -0.040506545 0.07710651 0.007972407 0.07404519 -0.021065233
0.09552929 -0.05423143 0.021264704 0.11109953 0.01745159 0.016611315 -0.017753702 -0.071626514
-0.044708718 -0.037402716 0.013293371 0.03250908 -0.032077353 -0.055180304 0.02035662 0.0781625
-0.062730156 -0.0005252044 -0.016107218 -0.06845993 0.08607767 0.11401818 0.0929808 -0.05539051
0.04047072 0.098995514 0.0050278204 -0.012883226 -0.061611455 0.040031783 -0.07119746 0.115278356
-0.038173836 0.025442036 -0.026386691 0.05396373 -0.15241198 -0.03472551 0.12677154 0.10106637
0.106376775 -0.0691888 0.004447557 -0.031068597 0.10979052 0.06311673 0.0280336 -0.011301337
0.03051665 0.117635675 -0.10737515 0.12875989 0.025765745 -0.030342635 -0.16001278 -0.051795356
0.07291684 0.024053872 0.07609381 0.01105945 -0.001494682 -0.091088876 0.012802534 0.024525594
0.10611905 0.13287768 -0.04731441 0.075796224 -0.08686067 0.09207774 -0.017722482 0.054914527
0.07887066 -0.10752518 0.08246141 0.11277791 0.0018969378 -0.013290806 0.041607417 0.021570615
-0.085570686 0.010939294 -0.024754189 0.1252753 -0.027336903 -0.08742262 -0.08064484 0.04335511
0.09548185 0.05237432 -0.04105964 0.03245191 -0.0034308082 0.021431578 -0.05141678 -0.0035736612
0.08511898 -0.07857181 0.0488905 -0.06518113 0.07525243 -0.0050337124 -0.11423722 -0.04134114
-0.050545715 0.022116004 -0.048514113 0.11311445 -0.05260705 0.0689039 -0.023275906 0.08768409
-0.11994798 0.022564232 -0.006316908 0.035449073 0.0853535 0.029479269 0.07742314 -0.16884108
-0.07800376 0.027589455 -0.07129666 -0.04351693 -0.056180105 0.1257582 -0.044395335 -0.010936694
-0.085413136 0.06258137 -0.0801069 0.02001406 0.0773171 0.03664931 0.077316634 0.019538948
-0.06919824 0.044450544 -0.041868582 0.041373786 -0.040517557 0.07451739 0.039766386 0.13763279
0.06359637 0.06888349 -0.10495344 0.107502595 0.010309734 0.06854727 0.06181585 -0.047647953
0.094618954 0.0696548 -0.055285007 -0.05708019 0.029472753 -0.07081632 0.09149591 0.04966745
0.1257887 0.043499634 -0.09010435 -0.025559155 -0.01770466 0.0069320695 0.03076351 -0.067187525
-0.115242206 -0.021158116 0.13584019 0.034993153 -0.05187573 -0.044369005 -0.00046401395 0.007295796
0.1050832 0.082721114 0.008964779 -0.06798796 -0.036613077 0.04003949 -0.00588518 -0.11428915
-0.010154062 -0.046431225 0.14006093 -0.08186774 0.17226954 -0.045464452 -0.07383849 0.1703189
-0.09112983 -0.065131456 -0.15143442 0.06868087 0.1391798 0.09068209 -0.049525667 -0.0067407866
-0.007919291 0.043839686 -0.010573789 0.028857378 -0.052917633 -0.041061323 -0.05130149 0.051737964
-0.028221175 -0.02772186 -0.009134794 -0.024942698 -0.09336239 0.004017002 -0.07584551 -0.11002383
-0.044191282 0.029074073 -0.001382641 0.059684515 0.03950439 0.035228346 0.0074461373 0.02792385
-0.019216578 -0.0013550846 -0.058427278 0.020570803 0.02754766 0.04709178 0.0097055165 -0.036186535
00000000: 8399 73bd 7e92 3f3e b031 a6bd 2e36 933c
00000010: f485 92bc d283 44bd b734 e8bb d49f 613d
00000020: af8b 21bc 7a15 99bd f96b a4bd f066 50bd
00000030: ed75 603d 8855 a13d 5bf2 c83d 0f08 89bd
00000040: e084 d2bd 58f8 a53d 0a0a 6fbc 31ea 25bd
00000050: 05ea 9d3d b39e 023c 01a5 973d ff90 acbc
00000060: dca4 c33d c721 5ebd 5133 ae3c 2688 e33d
00000070: a3f6 8e3c 7414 883c 3670 91bc ecb0 92bd
00000080: 7d20 37bd 9733 19bd 70cc 593c 3e28 053d
00000090: 8b63 03bd be04 62bd edc2 a63c a913 a03d
000000a0: ab78 80bd dfad 09ba 49f3 83bc b834 8cbd
000000b0: 7d49 b03d 5d82 e93d b86c be3d 29e1 62bd
000000c0: a0c4 253d 29be ca3d 6ac0 a43b 2b14 53bc
000000d0: 4b5c 7cbd 5ef8 233d f9cf 91bd 0f17 ec3d
000000e0: 2b5c 1cbd d16b d03c e728 d8bc 1209 5d3d
000000f0: e311 1cbe 563c 0ebd 66d0 013e e3fb ce3d
00000100: 11dc d93d dcb2 8dbd d0bc 913b 9283 febc
00000110: dad9 e03d 5843 813d b8a6 e53c 3e29 39bc
00000120: 0efe f93c f9ea f03d 81e7 dbbd a2d9 033e
00000130: af12 d33c 1e91 f8bc 64da 23be 5e27 54bd
00000140: 6d55 953d a00c c53c 12d7 9b3d b232 353c
00000150: 35e9 c3ba ce8c babd b8c1 513c e6e9 c83c
00000160: f254 d93d 1611 083e c1cc 41bd 0d3b 9b3d
00000170: 02e4 b1bd 4193 bc3d bd2e 91bc 0eee 603d
00000180: f186 a13d 2936 dcbd 87e1 a83d 1bf8 e63d
00000190: aca2 f83a aec1 59bc 8a6c 2a3d dcb4 b03c
000001a0: af3f afbd b93a 333c 4cc9 cabc 2b48 003e
000001b0: a4f1 dfbc a10a b3bd 1f29 a5bd 2195 313d
000001c0: fd8b c33d 7486 563d 272e 28bd 4bec 043d
000001d0: 69d7 60bb 4791 af3c 679a 52bd 1634 6abb
000001e0: dc52 ae3d 42ea a0bd 6841 483d af7d 85bd
000001f0: f21d 9a3d d7f1 a4bb 34f5 e9bd 5455 29bd
00000200: 0609 4fbd 9f2c b53c bcb6 46bd 8ca8 e73d
00000210: 7d7a 57bd 7d1d 8d3d 1dad bebc b793 b33d
00000220: 49a7 f5bd a0d8 b83c 11fe cebb 0c33 113d
00000230: d1cd ae3d 827e f13c 0690 9e3d ade4 2cbe
00000240: 6fc0 9fbd 4803 e23c fc03 92bd cf3e 32bd
00000250: 1c1d 66bd c2c6 003e e2d7 35bd d22f 33bc
00000260: 15ed aebd a92a 803d 160f a4bd 87f4 a33c
00000270: 6d58 9e3d 961d 163d 2f58 9e3d 2510 a03c
00000280: cfb7 8dbd c611 363d 647e 2bbd 8f77 293d
00000290: bdf5 25bd 939c 983d 14e2 223d 9cef 0c3e
000002a0: d03e 823d ca12 8d3d d4f1 d6bd 522a dc3d
000002b0: 29ea 283c 8362 8c3d 9e32 7d3d 802a 43bd
000002c0: 95c7 c13d 2da7 8e3d 8872 62bd ebcc 69bd
000002d0: d870 f13c 2608 91bd 3562 bb3d 1970 4b3d
000002e0: c1ce 003e ac2c 323d a188 b8bd 6f61 d1bc
000002f0: 5d09 91bc 6a26 e33b c203 fc3c 9d99 89bd
00000300: 1b04 ecbd c953 adbc b119 0b3e fb54 0f3d
00000310: a57b 54bd 46bc 35bd e646 f3b9 9311 ef3b
00000320: dc35 d73d b069 a93d 02e1 123c 463d 8bbd
00000330: 98f7 15bd 7300 243d 78d8 c0bb 6e10 eabd
00000340: 395d 26bc ab2e 3ebd 226c 0f3e 46aa a7bd
00000350: 6d67 303e ef38 3abd a238 97bd 1468 2e3e
00000360: 47a2 babd a463 85bd a011 1bbe 8ea8 8c3d
00000370: 2685 0e3e 88b7 b93d 6ddb 4abd d1e1 dcbb
00000380: eabf 01bc 3e91 333d af3d 2dbc 4f66 ec3c
00000390: 29c0 58bd eb2f 28bd 8321 52bd 30eb 533d
000003a0: 1830 e7bc f418 e3bc 1aaa 15bc a154 ccbc
000003b0: c834 bfbd 0ea1 833b e454 9bbd 2c54 e1bd
000003c0: eb01 35bd c02c ee3c bc39 b5ba c077 743d
000003d0: 5bcf 213d 994b 103d bafe f33b 8fc0 e43c
000003e0: 166c 9dbc 189d b1ba 7151 6fbd 1a84 a83c
000003f0: a1ab e13c 4fe3 403d e303 1f3c 5538 14bd

encoderlayers.0.bias f4 [12]
-0.0123752775 -0.07825429 -0.0686724 -0.011453605 -0.04347863 -0.031515893 0.017657202 0.09499106
0.10011848 0.014001585 -0.02162141 0.004951056
00000000: adc1 4abc c943 a0bd 1ea4 8cbd e7a7 3bbc
00000010: a616 32bd cf16 01bd d6a5 903c ac8a c23d
00000020: eb0a cd3d e766 653c 621f b1bc 783c a23b

encodernorms.0.weight f4 [12]
1.1199045 1.1367005 1.0783466 1.2139287 1.0985302 1.180037 1.0653826 1.1231555
1.0966818 1.1728594 1.1960359 1.1382076
00000000: 0859 8f3f 677f 913f 4307 8a3f 0462 9b3f
00000010: a39c 8c3f 740b 973f 755e 883f 8fc3 8f3f
00000020: 1260 8c3f 4220 963f b417 993f c9b0 913f

encodernorms.0.bias f4 [12]
-0.11886809 -0.050827056 0.22178602 -0.07179078 -0.12811202 -0.0357762 0.013550401 0.05142511
0.20754485 -0.11708331 -0.16169527 -0.056912296
00000000: 1d71 f3bd 0830 50bd e01b 633e 0b07 93bd
00000010: cc2f 03be 118a 12bd 8002 5e3c 23a3 523d
00000020: a386 543e 60c9 efbd 7293 25be de1c 69bd

encodernorms.0.running_mean f4 [12]
0.26567838 0.28774258 0.31755537 0.21193442 0.3616844 0.2543014 0.23169087 0.22627707
0.21593367 0.25392607 0.31291598 0.16728048
00000000: ff06 883e ff52 933e 9e96 a23e 5605 593e
00000010: b32e b93e cb33 823e 5f40 6d3e 2db5 673e
00000020: b71d 5d3e 9902 823e 8636 a03e 934b 2b3e

encodernorms.0.running_var f4 [12]
0.10457891 0.097460866 0.12874955 0.07419317 0.15163267 0.08614724 0.10100501 0.091260165
0.09458777 0.08249972 0.11662417 0.063551836
00000000: 782d d63d 9099 c73d ecd6 033e 97f2 973d
00000010: 9845 1b3e f76d b03d b7db ce3d 9ce6 ba3d
00000020: 3cb7 c13d 9df5 a83d a7d8 ee3d 7727 823d

decoderlayers.0.weight f4 [12, 8]
-0.025256313 0.25159565 -0.06204945 0.3342198 0.25511122 0.0075239744 -0.19557728 -0.21283007
0.1439101 -0.20159775 -0.09657089 -0.106772855 -0.13921289 0.2451175 0.16807938 0.2525383
0.29704148 -0.19317126 -0.049151145 -0.026530711 0.011149272 0.21573396 0.21831293 0.33918667
-0.10292799 0.036515635 0.0030723813 0.22445609 -0.027037622 0.07662494 -0.0071185217 0.061716393
0.03077719 0.09933437 -0.12450963 -0.3426675 -0.3113799 -0.1469644 0.07691745 0.1776806
0.26844588 0.019098252 0.32360756 -0.016041612 0.25708398 -0.2878722 -0.3052504 -0.2592155
0.08354277 0.28471825 0.24165018 -0.0223485 -0.08716613 -0.23437679 -0.17734851 0.251643
0.22214437 -0.32605833 -0.21513698 -0.21127622 -0.13185889 -0.10520087 0.24994804 -0.16222358
-0.2948463 -0.025124686 0.25687024 -0.1383097 -0.034397688 0.2656261 -0.35062823 -0.2916989
-0.056898743 0.1623106 -0.08998727 0.15146247 0.122089855 0.39734802 -0.11236242 -0.1545383
0.027424376 0.24186693 0.32959852 -0.17152472 -0.01485553 0.2216133 0.06615018 0.19090843
-0.19821933 0.27874967 -0.2786424 0.17479143 0.09561302 -0.08208921 0.012141057 -0.16325827
00000000: 54e6 cebc 25d1 803e 9027 7ebd dc1e ab3e
00000010: f09d 823e ac8b f63b 6945 48be 20f0 59be
00000020: 2b5d 133e a46f 4ebe f5c6 c5bd baab dabd
00000030: d38d 0ebe 1500 7b3e 001d 2c3e b34c 813e
00000040: d215 983e b0ce 45be b652 49bd ef56 d9bc
00000050: 70ab 363c 5de9 5c3e 6d8d 5f3e e0a9 ad3e
00000060: e9cb d2bd 6b91 153d 015a 493b d1d7 653e
00000070: 017e ddbc 89ed 9c3d 7d42 e9bb 54ca 7c3d
00000080: 7220 fc3c d16f cb3d e8fe febd 1d72 afbe
00000090: 306d 9fbe d67d 16be e586 9d3d e7f1 353e
000000a0: bd71 893e f073 9c3c e4af a53e b369 83bc
000000b0: 83a0 833e fc63 93be c849 9cbe e5b7 84be
000000c0: 7918 ab3d 97c6 913e 2573 773e 3414 b7bc
000000d0: 2884 b2bd 7800 70be d99a 35be 5ad7 803e
000000e0: d079 633e 1ef1 a6be de4c 5cbe cb58 58be
000000f0: 0406 07be 8e73 d7bd 61f2 7f3e f01d 26be
00000100: 18f6 96be 49d2 cdbc 7f84 833e 0fa1 0dbe
00000110: 97e4 0cbd 2500 883e 8b85 b3be 8f59 95be
00000120: a80e 69bd c034 263e 3f4b b8bd fa18 1b3e
00000130: 3f0a fa3d 3371 cb3e 451e e6bd 4a3f 1ebe
00000140: 16a9 e03c f7ab 773e 23c1 a83e 2da4 2fbe
00000150: 9c64 73bc 99ee 623e bf79 873d 807d 433e
00000160: 02fa 4abe 47b8 8e3e 37aa 8ebe 86fc 323e
00000170: c2d0 c33d 631e a8bd 49eb 463c 2d2d 27be

decoderlayers.0.bias f4 [12]
0.23123227 0.00641348 0.082852095 0.24228601 0.049342178 0.029484998 0.25337586 0.30682865
-0.16847128 0.13935313 -0.20109195 0.13722196
00000000: 27c8 6c3e 2b28 d23b 5cae a93d d319 783e
00000010: 061b 4a3d 868a f13c 7bba 813e a518 9d3e
00000020: bc83 2cbe 96b2 0e3e 0ceb 4dbe ea83 0c3e

decodernorms.0.weight f4 [12]
0.8371573 0.7799021 0.817513 0.8359549 0.8170874 0.7771547 0.78545296 0.8276851
0.7848662 0.8616689 0.8079709 0.75016844
00000000: f14f 563f aaa7 473f 8848 513f 2401 563f
00000010: a42c 513f 9cf3 463f 7213 493f 2ce3 533f
00000020: feec 483f 5596 5c3f 2ed7 4e3f 0a0b 403f

decodernorms.0.bias f4 [12]
-0.027897872 -0.047573127 -0.03896289 -0.010544524 0.09600674 -0.022323532 -0.10388029 0.15425713
-0.019726958 -0.032294735 0.05015758 0.10423063
00000000: 148a e4bc 0adc 42bd 8d97 1fbd f0c2 2cbc
00000010: 2f9f c43d d7df b6bc 31bf d4bd 95f5 1d3e
00000020: 6e9a a1bc 7c47 04bd 0972 4d3d de76 d53d

decodernorms.0.running_mean f4 [12]
0.5778135 0.431612 0.5255419 0.30834526 0.5462016 0.3762967 0.57897717 0.64130294
0.37219602 0.47597992 0.25805318 0.38742426
00000000: 96eb 133f 40fc dc3e ea89 063f 6edf 9d3e
00000010: ded3 0b3f f6a9 c03e d937 143f 6e2c 243f
00000020: 7a90 be3e a4b3 f33e 8c1f 843e 795c c63e

decodernorms.0.running_var f4 [12]
0.83320427 0.39012906 0.5672962 0.12109349 0.5022673 0.43566343 0.54112476 0.74742514
0.45920223 0.64345485 0.28722808 0.40141627
00000000: e04c 553f ffbe c73e 533a 113f ddff f73d
00000010: 9794 003f 470f df3e 2787 0a3f 4157 3f3f
00000020: 8e1c eb3e 75b9 243f 8f0f 933e 6f86 cd3e

mu.weight f4 [8, 12]
-0.21076389 0.31236038 0.16248076 0.1901823 0.39556006 0.064343475 -0.032676157 0.32482213
-0.31787854 -0.28931203 0.067731015 -0.00038899883 -0.2565625 -0.05860354 -0.062025297 0.13706651
-0.23799054 0.32177278 0.3018068 -0.27893856 0.29837912 0.426686 -0.14632747 0.21374054
-0.009974343 0.12584287 0.03580851 0.3693939 0.036900315 -0.13817789 0.41078234 0.1649924
0.27867013 0.00927349 0.18545115 -0.06768597 -0.3148171 0.027281003 0.024368035 -0.29592162
-0.25837237 0.40718886 0.17459288 0.21597761 -0.18028331 0.20748919 0.41587108 0.048054136
-0.010749831 0.37890667 0.045333497 0.11839128 -0.1457526 0.37120342 0.31796977 -0.11428163
0.007362153 -0.23675781 0.410207 -0.103032395 0.06227617 -0.25184098 0.14765944 0.29022357
0.06270239 0.1891531 0.12112679 0.028350364 0.14852385 -0.26684842 0.41052976 0.39313585
0.110958956 0.052802563 0.079646274 0.09252169 -0.11489706 -0.2830019 -0.22494635 0.3525664
-0.32366952 -0.17899811 -0.080286846 -0.29433134 -0.33086106 -0.08455203 0.3260031 0.39426646
0.15460356 -0.4333204 -0.072079405 -0.3025223 -0.25992405 0.23069921 -0.090442896 -0.35045907
00000000: 7dd2 57be b3ed 9f3e 5b61 263e 26bf 423e
00000010: d986 ca3e 83c6 833d 6fd7 05bd 164f a63e
00000020: fac0 a2be b520 94be 8fb6 8a3d 8af2 cbb9
00000030: 295c 83be 440a 70bd 3d0e 7ebd 2a5b 0c3e
00000040: cbb3 73be 67bf a43e 6c86 9a3e 09d1 8ebe
00000050: 26c5 983e 9676 da3e ded6 15be cdde 5a3e
00000060: 6d6b 23bc f4dc 003e f2ab 123d 3221 bd3e
00000070: c924 173d 817e 0dbe 1052 d23e c5f3 283e
00000080: daad 8e3e d6ef 173c e8e6 3d3e f19e 8abd
00000090: b52f a1be 697c df3c 799f c73c 0a83 97be
000000a0: 6249 84be 0f7b d03e 7ac8 323e 3c29 5d3e
000000b0: 309c 38be 0c78 543e 0eed d43e 6ad4 443d
000000c0: 0f20 30bc 0e00 c23e 9eaf 393d 2177 f23d
000000d0: 2b40 15be 600e be3e efcc a23e 7d0c eabd
000000e0: 373e f13b a470 72be a706 d23e a602 d3bd
000000f0: 4c15 7f3d 4df1 80be 0934 173e 2f98 943e
00000100: 1c6a 803d 5ab1 413e 5311 f83d 063f e83c
00000110: a316 183e 5ba0 88be f530 d23e 1a49 c93e
00000120: 733e e33d 8047 583d 961d a33d 037c bd3d
00000130: 264f ebbd a0e5 90be 5658 66be 9583 b43e
00000140: 03b8 a5be 484b 37be 6e6d a4bd 99b2 96be
00000150: 9f66 a9be 9d29 adbd e1e9 a63e 4bdd c93e
00000160: 6550 1e3e 2cdc ddbe 5e9e 93bd 34e4 9abe
00000170: c414 85be 6a3c 6c3e 203a b9bd 5f6f b3be

mu.bias f4 [8]
0.22642806 0.030236138 -0.009969475 -0.18870413 -0.058787387 0.10301286 -0.22289819 0.18175358
00000000: c2dc 673e c7b1 f73c 0257 23bc a83b 41be
00000010: 0bcb 70bd 68f8 d23d 6c3f 64be 9c1d 3a3e

var.weight f4 [8, 12]
0.12202157 0.20523049 -0.18124142 -0.08448036 -0.19291142 -0.08264981 -0.022406092 0.050352313
-0.23725711 0.15363933 0.23988193 0.008015177 0.1308541 -0.14068511 -0.08809995 0.008461587
-0.013530479 -0.040754735 0.14268231 -0.021661863 -0.26203838 0.2030891 0.14797522 0.20808111
-0.1207367 0.10278653 0.01165521 -0.10132391 0.12445229 0.044342417 0.16555333 -0.05722107
-0.21223722 0.2205786 0.13375421 0.18424875 0.07510036 -0.03359019 -0.24286833 0.08516449
0.1468321 -0.16548307 -0.11719052 0.10519329 -0.06016469 0.059802197 -0.102549404 -0.09387367
-0.09113819 0.014941733 -0.091535494 0.07607054 0.09616734 0.19990027 0.08797194 -0.21586926
-0.16799276 -0.21358748 0.17074874 -0.04928908 -0.09228724 -0.014855142 -0.12391139 0.08514466
0.26054588 0.19240178 -0.0053218077 -0.22945355 -0.07044142 0.09074073 0.059255734 -0.13469914
0.21743177 0.056692775 0.05950709 0.24396154 0.19646607 -0.1283736 -0.12201162 -0.10783642
-0.25991836 0.11428648 -0.04428994 0.18014193 0.18696155 -0.056617536 -0.15624514 0.19378048
0.020978523 0.2643298 -0.18716632 0.16778626 -0.15576944 -0.032796167 0.1394188 0.24938704
00000000: 72e6 f93d f127 523e 5a97 39be 0a04 adbd
00000010: 928a 45be 4e44 a9bd fb8c b7bc 3a3e 4e3d
00000020: 87f3 72be a153 1d3e 9ca3 753e 1752 033c
00000030: 9efe 053e c20f 10be bf6d b4bd 78a2 0a3c
00000040: f1ae 5dbc 70ee 26bd 501b 123e 3874 b1bc
00000050: e529 86be 97f6 4f3e d186 173e 3713 553e
00000060: ce44 f7bd bf81 d23d 7ef5 3e3c e982 cfbd
00000070: d8e0 fe3d 65a0 353d d086 293e a460 6abd
00000080: b754 59be 5bdf 613e ddf6 083e b4ab 3c3e
00000090: 38ce 993d de95 09bd 7ab2 78be b86a ae3d
000000a0: 275b 163e 6574 29be 9501 f0bd 946f d73d
000000b0: 406f 76bd 26f3 743d 6c05 d2bd d740 c0bd
000000c0: a9a6 babd 2cce 743c f676 bbbd dfca 9b3d
000000d0: 62f3 c43d a8b2 4c3e a22a b43d d50c 5dbe
000000e0: 4b06 2cbe adb6 5abe c2d8 2e3e 59e3 49bd
000000f0: 1801 bdbd fb62 73bc 41c5 fdbd 5360 ae3d
00000100: 4566 853e f904 453e 8f62 aebb dff5 6abe
00000110: 9743 90bd 47d6 b93d 24b6 723d 92ee 09be
00000120: 6fa6 5e3e af36 683d b5bd 733d 0ed1 793e
00000130: 672e 493e 5e74 03be 3ae1 f9bd 57d9 dcbd
00000140: 0514 85be 080f ea3d 5e69 35bd 2077 383e
00000150: d972 3f3e cae7 67bd bafe 1fbe 646e 463e
00000160: 27db ab3c 3c56 873e 87a8 3fbe 29d0 2b3e
00000170: 0682 1fbe 4655 06bd cdc3 0e3e 515f 7f3e

var.bias f4 [8]
0.021038376 -0.1540609 -0.17656708 -0.41465095 0.062273048 0.052538488 0.14837068 -0.16978899
00000000: ac58 ac3c 24c2 1dbe 00ce 34be 214d d4be
00000010: 0612 7f3d 9932 573d 7cee 173e 2add 2dbe

out.weight f4 [70, 12]
0.34502012 0.18583474 -0.17018868 0.116467275 -0.36306208 0.15765338 -0.12686785 -0.20135395
0.10277278 0.36896688 0.30229032 -0.054458886 -0.12175752 0.13182834 -0.19073582 -0.072100006
0.012669039 -0.127878 -0.184861 0.16906086 -0.013913485 -0.03517696 -0.106212355 -0.17500919
-0.042982828 -0.17297287 0.03866263 -0.12335926 0.108947195 0.09964807 0.06884188 -0.11727518
0.052237146 -0.21043727 -0.1086154 -0.2473084 0.1637453 -0.00353452 -0.20766394 -0.1500573
-0.23382209 0.2614042 -0.21248454 -0.14122523 0.21622697 -0.12943022 -0.298929 -0.14208929
-0.093440145 -0.16128796 0.16049914 0.12868792 0.008279622 0.038721062 0.14154436 -0.24426568
0.098269016 -0.016063554 0.013428829 0.04497843 -0.2104661 -0.05721206 0.30405232 0.023290772
-0.1666132 0.16840985 0.2640034 -0.24085449 0.10947532 -0.2945837 0.24476953 -0.06980308
-0.15496427 -0.22301301 -0.10831821 0.13589829 -0.07088407 0.2654391 0.0023037042 -0.13760912
-0.0379509 -0.117640615 -0.080152325 0.24360046 0.07916059 0.20448989 -0.12453749 -0.085329354
-0.20032385 0.20307589 -0.086510554 0.109539114 0.15535602 -0.11034482 -0.09263659 0.1464033
0.20784336 -0.13849796 -0.13851067 0.277629 -0.19780025 -0.17478955 0.003820488 0.15377037
0.11857994 -0.18856773 -0.018402707 0.23769923 0.04000496 -0.16858009 0.11571701 0.16649143
0.07014983 0.124991916 -0.0019937577 -0.15711217 0.13096072 -0.1896541 0.2687391 0.22139966
-0.14039163 0.14868891 -0.042669795 0.05654886 -0.106092714 0.0033991789 0.23869912 -0.03547283
-0.02761379 -0.023638174 0.07280581 -0.14570764 -0.13669322 0.22101283 -0.18264763 -0.08284499
-0.009758568 -0.07607569 0.2964422 -0.056847293 -0.022928176 0.16996306 0.102543116 -0.009837541
0.042023573 0.14800324 -0.044787858 0.1503567 -0.15307409 -0.06342013 -0.17697522 -0.025031509
0.22266993 -0.18047315 0.1399686 0.09510441 0.17089805 0.21488155 -0.19018047 0.22410455
-0.031718913 -0.19114633 -0.05205273 0.17127149 0.2886603 -0.19458218 0.22262156 -0.17027071
0.07081033 0.012231651 0.19674838 -0.17302716 -0.1398264 0.119914524 -0.039665055 -0.18544647
0.117367744 -0.09478644 -0.12010964 -0.0962029 -0.12923081 0.12421051 0.14960507 0.01677448
-0.20306446 -0.09908733 0.23019153 0.01645985 0.16001399 0.082978055 0.12240499 0.013537601
0.22838867 -0.07693974 0.11774061 0.10601448 -0.044711433 -0.13678601 0.1246261 -0.015004339
0.030100986 -0.13698259 0.027841153 0.19600606 0.19942486 -0.12710641 -0.088419326 -0.12155422
-0.20407079 -0.22085373 0.18994819 0.2378359 0.1930605 -0.060865615 0.038883734 0.11765193
0.10966491 -0.22442679 0.12105046 0.039938334 -0.15772529 -0.14539813 -0.06258561 0.090425335
-0.047299415 -0.04996298 0.14045112 0.044636182 0.03412816 -0.21489607 -0.06699207 -0.21353896
0.022619374 -0.15857008 0.007871153 8.0491984e-05 0.07741208 -0.08343185 0.27229014 0.18047243
0.1083708 -0.088075556 -0.2794207 0.08130128 0.056250338 0.025624704 0.09953713 0.08454232
0.11189019 0.17581217 0.046750862 0.23954873 0.056043714 -0.048474208 -0.15771733 -0.009178482
00000000: 7aa6 b03e 764b 3e3e f145 2ebe 6586 ee3d
00000010: 46e3 b9be e36f 213e a5e9 01be bb2f 4ebe
00000020: 897a d23d 3ae9 bc3e ccc5 9a3e 4810 5fbd
00000030: 025c f9bd 02fe 063e 4050 43be 2ba9 93bd
00000040: cd91 4f3c 73f2 02be 344c 3dbe 4a1e 2d3e
00000050: 63f5 63bc b715 10bd dd85 d9bd 9c35 33be
00000060: c30e 30bd cd1f 31be b55c 1e3d c8a3 fcbd
00000070: b51f df3d 4a14 cc3d f9fc 8c3d f82d f0bd
00000080: 9ef6 553d de7c 57be c071 debd 6a3e 7dbe
00000090: d9ac 273e 68a3 67bb dba5 54be 9fa8 19be
000000a0: 0f6f 6fbe c5d6 853e 8c95 59be 599d 10be
000000b0: 9a6a 5d3e 5b89 04be 390d 99be db7f 11be
000000c0: 8c5d bfbd ac28 25be e359 243e c4c6 033e
000000d0: 40a7 073c fa99 1e3d 01f1 103e c820 7abe
000000e0: 4441 c93d b797 83bc 9704 5c3c 4d3b 383d
000000f0: 6d84 57be 3157 6abd bfac 9b3e 4acc be3c
00000100: a79c 2abe a273 2c3e 742b 873e 8fa2 76be
00000110: 9934 e03d add3 96be dda4 7a3e ebf4 8ebd
00000120: f4ae 1ebe 865d 64be f0d5 ddbd ec28 0b3e
00000130: ab2b 91bd a2e7 873e bef9 163b 68e9 0cbe
00000140: 6772 1bbd 90ed f0bd e726 a4bd 6672 793e
00000150: f31e a23d cc65 513e 830d ffbd 28c1 aebd
00000160: b221 4dbe 20f3 4f3e 722c b1bd 0b56 e03d
00000170: a615 1f3e 77fc e1bd 41b8 bdbd bfea 153e
00000180: e4d4 543e 69d2 0dbe bed5 0dbe 6325 8e3e
00000190: 268c 4abe 08fc 32be 2761 7a3b fb75 1d3e
000001a0: 0ada f23d e617 41be 46c1 96bc 6d67 733e
000001b0: 3edc 233d 42a0 2cbe 0afd ec3d bb7c 2a3e
000001c0: b7aa 8f3d c3fb ff3d b4a9 02bb 03e2 20be
000001d0: 911a 063e af34 42be 2c98 893e 98b6 623e
000001e0: d3c2 0fbe e841 183e 86c6 2ebd c79f 673d
000001f0: 2347 d9bd c2c4 5e3b 8b6d 743e f54b 11bd
00000200: 5136 e2bc d8a4 c1bc 361b 953d 6234 15be
00000210: 4ff9 0bbe 3051 623e fb07 3bbe a2aa a9bd
00000220: 67e2 1fbc 92cd 9bbd 46c7 973e b5d8 68bd
00000230: dfd3 bbbc cc0a 2e3e 2002 d23d a32d 21bc
00000240: e920 2c3d 298e 173e 7973 37bd 1bf7 193e
00000250: 74bf 1cbe 6ae2 81bd fe38 35be e10e cdbc
00000260: 9603 643e f4cd 38be ee53 0f3e 1ac6 c23d
00000270: e6ff 2e3e e909 5c3e abbe 42be aa7b 653e
00000280: b1eb 01bd ddbb 43be 3e35 55bd cb61 2f3e
00000290: 48cb 933e 8d40 47be e8f6 633e 725b 2ebe
000002a0: 0205 913d 4367 483c 6878 493e 082e 31be
000002b0: a72e 0fbe bf95 f53d d377 22bd aee5 3dbe
000002c0: 805e f03d 651f c2bd 0bfc f5bd 0706 c5bd
000002d0: 1555 04be 1462 fe3d 1232 193e a26a 893c
000002e0: 21f0 4fbe 4cee cabd 54b7 6b3e cfd6 863c
000002f0: b5da 233e 66f0 a93d 78af fa3d d0cc 5d3c
00000300: b8de 693e 9592 9dbd fd21 f13d 1f1e d93d
00000310: 5623 37bd a211 0cbe f83b ff3d c2d4 75bc
00000320: 5896 f63c 2a45 0cbe 2113 e43c d0b5 483e
00000330: 0836 4c3e 2f28 02be 3115 b5bd 6bf1 f8bd
00000340: eff7 50be 7b27 62be c781 423e 418b 733e
00000350: a7b1 453e 394e 79bd 8d44 1f3d 7ff3 f03d
00000360: ff97 e03d 23d0 65be 4ee9 f73d 6196 233d
00000370: bd82 21be 3fe3 14be e22c 80bd eb30 b93d
00000380: 08bd 41bd fba5 4cbd 6bd2 0f3e 6ed4 363d
00000390: f8c9 0b3d b70d 5cbe 2333 89bd f5a9 5abe
000003a0: 444c b93c 3260 22be 02f6 003c cecd a838
000003b0: 398a 9e3d 51de aabd 9d69 8b3e c4cd 383e
000003c0: 83f1 dd3d f560 b4bd 3b10 8fbe 4981 a63d
000003d0: c166 663d e6ea d13c 1fda cb3d 8624 ad3d
000003e0: af26 e53d 1b08 343e d57d 3f3d 434c 753e
000003f0: 188e 653d e48c 46bd a780 21be 5861 16bc

out.bias f4 [70]
-0.18573536 -0.17298464 0.11341376 0.16103007 -0.1834106 -0.14860213 -0.016864764 -0.10880139
0.11744587 0.16846745 0.26337028 0.21330668 -0.20886333 -0.1732738 -0.22223243 -0.15491265
0.04838759 -0.083026625 -0.017844277 -0.07537166 -0.06747277 -0.055217534 -0.1783405 -0.12019049
0.04724961 0.06334526 -0.07720851 0.08214485 -0.15821347 -0.17094749 0.071425855 0.06713095
-0.059530627 0.007642361 -0.28734386 -0.19163565 0.10912027 0.17491202 -0.18227306 -0.23818202
0.1154585 0.13030808 -0.16762297 -0.03546723 -0.26487982 -0.18859144 -0.09940652 -0.12159314
0.19628902 0.080381736 -0.10927728 0.039951254 0.06818102 -0.05513057 0.0032613527 0.07976094
-0.070526615 -0.083021715 -0.09089953 -0.08099405 0.027569126 0.10300096 -0.039572574 0.07973464
-0.040596697 0.036337867 -0.043038245 -0.08297256 0.024223493 0.15226322
00000000: 6931 3ebe e322 31be 7945 e83d 11e5 243e
00000010: fdcf 3bbe 282b 18be f927 8abc 43d3 debd
00000020: 7687 f03d bb82 2c3e 78d8 863e 116d 5a3e
00000030: 45e0 55be b06e 31be e690 63be 6ca1 1ebe
00000040: 1132 463d dd09 aabd 292e 92bc 755c 9abd
00000050: 2a2f 8abd c82b 62bd e49e 36be 6e26 f6bd
00000060: cf88 413d 29bb 813d 7f1f 9ebd 8f3b a83d
00000070: b602 22be dc0c 2fbe b847 923d f47b 893d
00000080: 63d6 73bd c56c fa3b bc1e 93be 233c 44be
00000090: 737a df3d 231c 333e caa5 3abe fde5 73be
000000a0: 8275 ec3d 7b6f 053e 5ba5 2bbe 1646 11bd
000000b0: 549e 87be 1d1e 41be a595 cbbd d305 f9bd
000000c0: fdff 483e 2e9f a43d c4cc dfbd eda3 233d
000000d0: 7ea2 8b3d 98d0 61bd 6bbc 553b b459 a33d
000000e0: 4270 90bd 4a07 aabd 8829 babd 35e0 a5bd
000000f0: a6d8 e13c 2bf2 d23d da16 22bd ea4b a33d
00000100: b948 26bd 04d7 143d df48 30bd 84ed a9bd
00000110: 5970 c63c e4ea 1b3e
