tutorial/data/test_small/interim_data_test/models/model_8_14.pt (torch, 14379 bytes, 18 tensors)

encoderlayers.0.weight f4 [12, 70]
00000000: 089d ae3d cbeb 40bd 0800 a53b 4de9 1f3e
00000010: 2734 aebc 4940 bbbd ca58 dfbc 4e13 9f3d
00000020: 4a3d dbbd 8b4c 113e b0ec 24bd be08 4dbd
00000030: dc39 353c f4a6 9abd e147 f03c 5dee 053d
00000040: 78a5 043b 7979 6f3c ef82 7c3d 0581 203d
00000050: 4ed0 53bd bbfd 91bd e6ec 1b3d 3f07 943b
00000060: fa36 3a3d 6d4d 6fbd 144c 9b3d e92b 163d
00000070: 35c1 bdbd f025 bebc 0d73 79bd 515d 94bd
00000080: 0147 293d ac87 a4bc c9a2 73bd 68e4 8d3d
00000090: 7dca b33b f3bf 8e3d be6d 323d 7b6b 60bc
000000a0: e69c 4ebd 085f c8bd bed5 71bd 3d74 85bd
000000b0: a064 2d3d 3bcc 303d 4722 c73d 038f b43d
000000c0: b4b2 48bc ba15 6f3d e1e4 0fbc bcd8 a2bd
000000d0: c00f 943d cce7 603b 84c7 c63d cff8 bf3d
000000e0: ac5e 0fbe 9a45 cdbd 0f0a ce3d e895 dbbd
000000f0: 4603 083d 31b0 c63c 4599 a33d 48b9 b5bd
00000100: 571c 9fbc 5748 8b3d 59eb f4bc b1ff 2abd
00000110: d831 a0bd 741f 22bc 3903 7abd c553 013e
00000120: eead ddbd 32b8 1a3d 188e 253d bb98 163d
00000130: b094 40bd 823e 51bb c1c1 1dbe ccd1 d9bc
00000140: d257 573d 2d04 85bd c195 9d3d ee14 d5bd
00000150: ff66 47bc a40b d0bd 97a6 fbbd e43a 0d3c
00000160: b9f2 f0bc 2c1b 6abd ecca efbc 258b 43bc
00000170: f38b 80bc 6f12 53bd 7275 8c3c a188 b43d
00000180: 4e2a fd3d 2227 5cbb ee52 05be 0cc6 683d
00000190: 67a4 363c e9ab 05ba 5088 93bb 168f 8cbc
000001a0: 3887 b0bc 8026 0cbd b583 64bd 3f4e 323d
000001b0: 2b0f 11bd 7d4e 18bb b8c6 773d 0257 a53c
000001c0: 1172 bc3d 96c8 2e3d 8971 4a3d b686 d0bd
000001d0: ba49 e3bd 54a5 2c3d 4182 a43c 9d20 2cbd
000001e0: 35cd 8f3d a95f ac3c 43ee 9bbd dc6b 043e
000001f0: 136b ea3c 1a84 a1bd 9174 9c3c b1cd 5ebd
00000200: 0278 a1bc 077b 94bc 7e05 043d 5a7d bbbd
00000210: 8522 b5bd 9c14 4d3d 4b3f b13d cf35 b7bb
00000220: 8e3d 08bc e687 8bbd ed5b e33b 7689 273d
00000230: de1a 663d 8273 dabd 21f0 ad3d 7b32 bebd
00000240: 2aac 23bd 3ed2 88bd 8aec 2fbd 482c b93d
00000250: 62ad 89bd c9d0 12bd edfe 31bd 522f 90bd
00000260: e1ad cc3d 46bc 4bbd b856 953c 7837 22bd
00000270: b83e 3a3c d4ea c43c 6328 d1bd 9e1b 9b3d
00000280: f3ce f2bd 5431 f43d 3d74 4d3c a9fe 913d
00000290: 52dc 9d3d 5e05 2fbd 7351 ba3d 9680 92bd
000002a0: cc1f b33d 1452 37bd 68b8 a2bd 3a6d f6bd
000002b0: f2a0 c23d 196e ca3d 0d15 e9bb b4c3 f6bc
000002c0: 2b01 3ebc b564 883c 2ae9 d33d bfbb b3bd
000002d0: 9c1c 03be 9975 9bbd a225 973d 524d b83d
000002e0: cfe3 4f3d bf8c 9dbd 78d7 bfbd 6f7c e3bd
000002f0: 224a 983d c684 5f3c 4dc7 cb3d 4c39 613c
00000300: 2d06 e63c e5e4 b93d aceb 3c3d ffd6 923d
00000310: 6d23 c63d abbb 91bd 26bc 07bd 8ccc c2bc
00000320: 0816 793d 9f1b f83b 05e6 b8bc 8c08 8d3c
00000330: c9ea 59bd bbbc 6b3d 6642 6d3d 2ca4 d43c
00000340: baf6 603d 60e2 94bd 6544 1a3b 136a d63c
00000350: cc2d 4b3e 17d5 8dbc 4e67 ddbd 6f02 d23d
00000360: cd36 ac3d 64d0 29bd 5ec9 243e 7c00 f2bd
00000370: dbdd 34bd ea0a 62bd 8f6f 44bd e3bc a2bc
00000380: d184 2dbd 4bab a6bd ea81 e03d 97c7 87bd
00000390: 5648 6ebd 9566 803d 96ef a8bc 57fa 9c3d
000003a0: 753b 21bd a8a0 9f3c a181 7fbd cce6 93bd
000003b0: cacb 5f3d d98e 043d 9bcc af3d 6f7d 26bd
000003c0: d750 75bc b88d 61bc cb9e 70bd 3f35 b0bd
000003d0: 2af3 6f3d d520 5abd 5bcb b63d 0bb9 0fbd
000003e0: aabd 3ebd 65f1 a5bd fcd7 c73d 4554 fb3d
000003f0: 0ac6 c43d 6e6d 173e ab39 123e a612 e43d
0.08526045 -0.04709987 0.005035404 0.15616341 -0.021265103 -0.09143121 -0.027264018 0.07767354
-0.10705049 0.14189355 -0.040264785 -0.050057165 0.011061158 -0.07551375 0.02933115 0.032698024
0.0020240229 0.014616364 0.061648306 0.039185543 -0.051712327 -0.07128473 0.03806772 0.0045174654
0.045462586 -0.05842345 0.0758287 0.03666297 -0.09265367 -0.02321145 -0.060900737 -0.07244361
0.04132748 -0.020084225 -0.059481416 0.06928331 0.005486785 0.06970205 0.04356169 -0.0136975
-0.0504426 -0.09783751 -0.05904173 -0.06516311 0.04233229 0.04316352 0.09723335 0.0881634
-0.012249637 0.05837033 -0.008782596 -0.07951495 0.072295666 0.003431785 0.09706023 0.09373628
-0.14000958 -0.10023041 0.10060512 -0.10721952 0.033206247 0.024253936 0.07988218 -0.0887323
-0.019422693 0.06800907 -0.029897379 -0.041747753 -0.07822007 -0.009895194 -0.06103823 0.12629612
-0.1082419 0.03777332 0.040418714 0.03676675 -0.0470168 -0.0031928127 -0.15405942 -0.026589297
0.052573986 -0.06494937 0.07694579 -0.10404383 -0.012170552 -0.1015847 -0.12287634 0.008619998
-0.029412614 -0.05715482 -0.029271565 -0.01193503 -0.015691733 -0.05153125 0.017145846 0.088151224
0.123615846 -0.003359266 -0.13019916 0.056829497 0.011147595 -0.0005099164 -0.0045023337 -0.017158072
-0.021548852 -0.034216404 -0.055789668 0.043531653 -0.035414856 -0.0023240142 0.060492247 0.02018309
0.09201444 0.042671762 0.04942468 -0.10181944 -0.110980466 0.042149857 0.020081641 -0.04202329
0.07021562 0.021041708 -0.07613804 0.1293177 0.02861551 -0.078865245 0.019098552 -0.05439538
-0.019710544 -0.01812507 0.0322318 -0.09154768 -0.08844475 0.050068483 0.0865465 -0.0055911313
-0.008315457 -0.0681303 0.0069384486 0.040902577 0.056177966 -0.106665626 0.084930666 -0.09286972
-0.03995911 -0.066807255 -0.04295019 0.09041649 -0.06722523 -0.035843644 -0.043456007 -0.07040276
0.09994102 -0.0497401 0.018229827 -0.03960368 0.011367492 0.024037756 -0.10212781 0.07573627
-0.11855879 0.11923471 0.01253992 0.07128651 0.077080384 -0.042729728 0.090975665 -0.07153432
0.08746299 -0.04475601 -0.07945329 -0.12032552 0.09503354 0.09884281 -0.007113105 -0.030122615
-0.011596958 0.016649583 0.10347207 -0.08776044 -0.12803882 -0.07590789 0.07380225 0.08999123
0.050754365 -0.07692861 -0.09367269 -0.11107718 0.07436015 0.0136424955 0.09950123 0.013746571
0.028079117 0.09076861 0.04612319 0.071699135 0.09674726 -0.07115873 -0.033138417 -0.023779176
0.060812026 0.007571652 -0.02257062 0.01721599 -0.053202424 0.057553034 0.05792465 0.02595719
0.054922797 -0.0726974 0.0023539301 0.026173627 0.19841689 -0.017313523 -0.108107194 0.102543704
0.0840889 -0.041458502 0.1609244 -0.11816499 -0.04415689 -0.05518619 -0.047957953 -0.019865459
-0.04236299 -0.0813814 0.10962279 -0.066298656 -0.058174454 0.06269566 -0.020622056 0.07664936
-0.039363343 0.019485787 -0.062379483 -0.072217554 0.054637708 0.032362793 0.08583947 -0.040646967
-0.014972887 -0.013766699 -0.058745187 -0.08603906 0.05858151 -0.053253967 0.08925506 -0.03508858
-0.046567596 -0.08102683 0.097579926 0.122719325 0.096080855 0.14787838 0.14279811 0.111363694

encoderlayers.0.bias f4 [12]
00000000: 3837 763d ec0b d6bd 811b 69bd 3ae6 803d
00000010: 205a 663d 074b 0d3d c21a 7fbc 6d68 d43d
00000020: a674 e63c f4bd 3e3d f1e5 cd3d fbc0 a73d
0.060111254 -0.10451493 -0.056910995 0.06293912 0.056238294 0.03449538 -0.015570344 0.1037148
0.028131794 0.046567872 0.100536235 0.08191105

encodernorms.0.weight f4 [12]
00000000: 5f08 953f 47bc 773f 4ac2 863f ecdb 953f
00000010: 76cf 913f 1839 8f3f d2df 963f 825b 883f
00000020: d560 863f a016 913f 1a96 8f3f ad2f 8d3f
1.164318 0.96771663 1.0528042 1.170774 1.1391437 1.1189299 1.1787055 1.0652926
1.0498301 1.133503 1.1217682 1.1030174

encodernorms.0.bias f4 [12]
00000000: ed0f eb3d 1d43 76bd d837 113b c3a4 1a3c
00000010: 749e d9bd 971a 853d 1a43 553d 030a 4a3e
00000020: 9b26 a6bd ce87 7f3d db03 f0bc 2cea 263c
0.11477647 -0.060122598 0.002215853 0.009438696 -0.10625926 0.06499212 0.052065946 0.19730382
-0.08112832 0.062385373 -0.029298713 0.010187667

encodernorms.0.running_mean f4 [12]
00000000: a778 673e ad4c f03c b4f8 5a3d a620 b33e
00000010: 37c8 b43e e5f3 823e 279d be3e 152e 5a3e
00000020: a893 b43e 5be5 c13e 763a aa3e 2258 a73e
0.22604619 0.029333437 0.053459838 0.34985846 0.35309002 0.25576702 0.37229273 0.21306641
0.35268903 0.37870297 0.33247727 0.32684427

encodernorms.0.running_var f4 [12]
00000000: a1a5 b43d 2ed2 613c 607c a03c 9ca4 f73d
00000010: 2d47 f53d 2b71 ab3d f5a0 273e 3f82 9c3d
00000020: 5fc7 f13d 128a 003e ce96 fc3d 398b ef3d
0.08820654 0.013783021 0.019590557 0.120919436 0.11976466 0.083711945 0.16369994 0.0764203
0.11805605 0.1255267 0.12333451 0.116964765

decoderlayers.0.weight f4 [12, 8]
00000000: ca00 dcbd 51c9 a03e 77c5 24be f21a 763c
00000010: 1169 8c3e e2eb 123c 4170 b9bd 8925 86be
00000020: d46e 473e b5f6 32be 319e 943e e402 9d3e
00000030: bdac 413e 7349 683d 7118 eabd 17cd 333d
00000040: 7881 6a3e c2bf 5f3e e72c 40be aef4 a8be
00000050: 5760 883e cc14 57be 9280 efbd 83e5 6f3d
00000060: e81a acbe 36ae abbe 5e39 fabd 481a 30be
00000070: 965b 823d 51b5 f73d 2708 873e 3a8c 4e3e
00000080: 0e38 e43c a324 083e 6a0f 9bbe 8630 27be
00000090: fc16 a4be cd8d 9ebe 7df8 53be bcf9 493d
000000a0: 9e18 b3be f751 73be cda1 713e 1b10 06be
000000b0: f701 6a3d cb1c 45bc c9f9 55be 5a9a c13d
000000c0: 9285 083e 6c61 013e f11f 2cbd d2a4 cb3d
000000d0: 97e2 98be c0ee 71be 0e3a 8d3e ade1 13bc
000000e0: 2b07 7dbe 5760 9abe 1141 0dbb 66ae 2fbe
000000f0: 3bde 9a3e 986b b23d 624f 443e ddda b33e
00000100: 2e38 223e 3afa 913e 76c5 7d3e 3dfd 043e
00000110: db93 81be ca8b a9be 0c87 6b3e 65df 733e
00000120: edf6 853d 9f36 0abd d537 7bbe d20e eb3d
00000130: 8c8b 883e f59c 3e3e 05c4 293e d580 c5be
00000140: 4790 5cbd ebc2 1fbe f347 8f3e 67d5 17bd
00000150: a71f 883e 67d8 6d3d 8a0a 4dbc 0c41 943b
00000160: a337 27bd c89a 24bd 6a28 0f3d 980f 18bd
00000170: a2e7 5b3e 432e 0ebe 33b8 983c 9e17 503e
-0.10742338 0.31403592 -0.16090952 0.015021073 0.2742391 0.008967372 -0.09054614 -0.26200512
0.19475871 -0.17476924 0.2902694 0.30666268 0.1891355 0.05671067 -0.11430443 0.04389676
0.22900951 0.21850494 -0.18767129 -0.32999176 0.26636 -0.21004027 -0.11694445 0.05856849
-0.33614278 -0.3353135 -0.12217973 -0.17197526 0.06365125 0.1209513 0.26373407 0.2017068
0.02785876 0.13295226 -0.30285197 -0.16327104 -0.32048786 -0.3096756 -0.2070026 0.04931043
-0.3497972 -0.23761736 0.23596878 -0.13092081 0.05713078 -0.012030791 -0.20896067 0.09453268
0.13332203 0.1263482 -0.04202265 0.09943546 -0.29860374 -0.23626232 0.27583355 -0.009025973
-0.24709766 -0.30151626 -0.0021553675 -0.17156371 0.30247673 0.08711928 0.19170907 0.35127917
0.15841743 0.2851122 0.24782357 0.12987228 -0.25308117 -0.33114463 0.23000735 0.23815687
0.06541238 -0.033743497 -0.24533017 0.11477436 0.26668966 0.18614562 0.16578682 -0.38574854
-0.05384853 -0.15601699 0.2798458 -0.03706875 0.2658665 0.058067705 -0.01251472 0.0045243558
-0.040824544 -0.040186673 0.03495065 -0.037124246 0.2147508 -0.13884835 0.01864252 0.20321509

decoderlayers.0.bias f4 [12]
00000000: 94d4 9abd 6a94 99bd 53c6 b2bd ee21 c9bd
00000010: 553b fdbc 8d91 c73e fa00 673e 061a 0c3e
00000020: 7421 80be eb4b afbc 4d23 b33e 99f5 39bd
-0.07560077 -0.07499011 -0.087292336 -0.09820925 -0.03091208 0.38978234 0.22558966 0.13681802
-0.25025523 -0.021398505 0.3498787 -0.045400236

decodernorms.0.weight f4 [12]
00000000: c19e 473f 8e3c 3e3f 4d8b 523f bcb9 4a3f
00000010: 50a2 463f 1da9 4a3f 5d23 433f 7c13 543f
00000020: c576 4b3f 307b 423f 7a7b 573f 2b0d 383f
0.77976614 0.7431115 0.82243806 0.7918966 0.7759142 0.79164296 0.76225835 0.8284223
0.794781 0.7596922 0.84172785 0.7189509

decodernorms.0.bias f4 [12]
00000000: e7d7 7cbd 5bad 273c e26b 9d3d bab6 153d
00000010: 84ef 69bd 671b 0d3e 4ea0 58bd 9090 9abd
00000020: d6f9 9839 98cb a9bd dd1a cdbd 4d55 e6bd
-0.061729338 0.010234202 0.07686593 0.036551215 -0.057113186 0.13779984 -0.052887253 -0.07547104
0.00029177841 -0.082907856 -0.100148894 -0.112467386

decodernorms.0.running_mean f4 [12]
00000000: ae5d b43e 78ad 753e 5141 de3e 0e2a d63e
00000010: e00f 043f 4817 273f 4974 0a3f 4c4a 143f
00000020: 98bd af3e 241d b63e 00e5 0e3f 02d4 2f3e
0.35227722 0.23991954 0.43409207 0.4182896 0.51586723 0.652699 0.5408369 0.5792587
0.34324336 0.35569108 0.55818176 0.17170718

decodernorms.0.running_var f4 [12]
00000000: 3410 953e 92f9 433e a4e1 ff3e 2045 083f
00000010: 31c4 0d3f f8f5 323f d141 023f e280 4d3f
00000020: 7c45 df3e 8357 8e3e 2dfd 093f 5764 b33d
0.29113925 0.19138172 0.49976838 0.53230476 0.5537749 0.6990657 0.5088168 0.80274785
0.436077 0.2780114 0.5390194 0.08759373

mu.weight f4 [8, 12]
00000000: b77a 9b3e 4bf1 1cbe f039 283e 12fd 54bd
00000010: b90d 853d 30e6 c6bd dc63 6ebe 0b8e aebd
00000020: 4b7b dc3d ca2a 533e 9806 7e3d 12d9 d0be
00000030: c82a 4d3e 2c36 753e c50a 1ebe 60c4 c3be
00000040: ae08 c93e 0f4b ccbe ff6c babe 6897 2b3e
00000050: e3c9 683e f933 c23e 2254 a93e 896c 88bd
00000060: dc1a dabd ee74 4cbc ed34 5fbe 4a45 87be
00000070: 07b3 943e b880 a03e c9d9 a53e b17d 903e
00000080: 5a42 0d3e d317 3cbe e2f9 c1be 65b8 873e
00000090: fb91 a8be 26ac db3d 4427 643e e30f 873e
000000a0: ac92 a83e 0a51 9d3e d804 453c 7af9 103e
000000b0: fe18 b43d 5880 783e eb88 2bbe d607 9fbc
000000c0: 5f12 ae3e bbb7 283c 7ccb 57be 0d99 8cbe
000000d0: be68 49be 6d6f 6f3d 7bee d23e 642e 5b3d
000000e0: 1d17 9bbe 73fd cdbb 4107 8cbe 2376 3b3e
000000f0: 62d2 e7bc eabb 3e3d 67b7 67be 7d39 6bbd
00000100: 622d edbd 6b44 a83e b654 fd3d 9fb1 c7bd
00000110: c97c 0e3e 4177 26be 75ee b43d 4c9d 1fbe
00000120: 0653 09be 0d79 133d a910 5a3e e0ee 1a3e
00000130: 102a e3bd 94a5 ccbb 742c fbbd a6c7 b53d
00000140: 8887 8ebe 3be1 563e df4a 8fbe 92aa 903e
00000150: d937 2abe c788 643d 4825 1bbd 6d70 313e
00000160: 2e38 293e c8df 503e 403c cebd 193c 20be
00000170: 5cab 533e 8e2b 163e 985d b9be d8c4 f53d
0.30367061 -0.15326421 0.16428351 -0.05199916 0.06496758 -0.097118735 -0.23280281 -0.08523186
0.10765704 0.20621791 0.062018007 -0.40790612 0.20035851 0.23946446 -0.15433796 -0.3823576
0.39264435 -0.39901015 -0.36411282 0.16756976 0.22733264 0.37930277 0.33072 -0.066613264
-0.10649654 -0.01247905 -0.21797533 -0.2642005 0.29042837 0.31348205 0.3239272 0.28220895
0.13794842 -0.18368463 -0.37885958 0.2650787 -0.32923874 0.10726194 0.22280604 0.26379308
0.32924402 0.3072589 0.012025081 0.14157668 0.087938294 0.2426771 -0.16751449 -0.019412916
0.3399839 0.010297711 -0.21073717 -0.27460518 -0.19668862 0.058455873 0.4119757 0.05351104
-0.30291072 -0.006286317 -0.27349284 0.18306784 -0.02829856 0.046565928 -0.22628556 -0.057427872
-0.11580922 0.328647 0.12369673 -0.097506754 0.1391479 -0.1625643 0.088345446 -0.15587348
-0.13410577 0.036004115 0.21295418 0.15130186 -0.11092007 -0.0062453244 -0.12264338 0.088759705
-0.27837777 0.20984356 -0.2798681 0.28255135 -0.16622867 0.055794504 -0.03787735 0.17328043
0.16525337 0.20397866 -0.100700855 -0.15647925 0.20670837 0.14665052 -0.3620422 0.120004356

mu.bias f4 [8]
00000000: da69 f9bd ceae 053d 80ba 23bd 67ee 31be
00000010: 99ec 16be 9ec9 23be 1548 363e fc8c 53be
-0.12178393 0.03263741 -0.039972782 -0.173761 -0.14738692 -0.1599488 0.17800935 -0.2065925

var.weight f4 [8, 12]
00000000: 3dec 09be d5e2 33be 1f76 41bd bfdd 73bd
00000010: 1d3c 84bd 2de2 09be 812e 78bd 6140 4dbe
00000020: abcb 613e 67cf bfbd 3a02 54bd b861 f23c
00000030: c486 fdbd 9a39 543e 6ba4 4cbe cbfa 183e
00000040: 1129 273e cb6d 60bd df30 0abe e01f 1abd
00000050: 1f48 08be c1b4 33be 554e 143e d35c e43d
00000060: 753c 80be 80c1 5e3e 44fc 7b3b 322a 81be
00000070: 8856 f73c 79a2 d5bd 81ee 593d 53d7 4fbe
00000080: 9d57 533e d3c6 10be b9fe 8dbd 1442 51bd
00000090: dcf4 3fbc 7534 14be de60 d8bc 3f49 07be
000000a0: a82f 1f3e 3947 07be f5e3 29be 2d20 eb3d
000000b0: 78d0 8b3d f51f 113e 61fa 203e e9b0 c43d
000000c0: 92ed f8bc dba3 173e f62d be3d 21ba 263d
000000d0: e8ba 51bc b786 2fbe 98cc 293e 0b0c 6fbe
000000e0: f407 12be eb66 ce3b 5cf1 62be 3ba9 a93a
000000f0: e14f 773d b439 f33d 3403 6b3e 2452 243d
00000100: 77dc 733e 237e 16be 7bdd 6ebe dec7 04bd
00000110: 1a30 5f3e e731 91bd e2e4 31be 0d09 77be
00000120: efbd 943c a6c8 8bbd b991 b0bd 8652 c3bd
00000130: 4b7e b23d 34e9 803e 66be bd3c 57c5 80be
00000140: 16ef 39be 0255 653e dce1 7e3d d755 893e
00000150: 7471 d63d e50f 0cbe cea9 c13d 29ab 4c3e
00000160: 8dc0 8d3e 02dc f13b 0621 903e b38b f7bd
00000170: c932 723c 2e67 ecbd 5bdd 97bc aaa8 883e
-0.13469024 -0.17566998 -0.04723179 -0.059537645 -0.06456778 -0.13465185 -0.060591225 -0.2004409
0.2205035 -0.09365731 -0.051759936 0.029587612 -0.1237922 0.20725098 -0.19984595 0.1493942
0.1632426 -0.054792207 -0.13495205 -0.037628055 -0.13308762 -0.17549421 0.14483006 0.11150517
-0.25046125 0.21753502 0.0038449923 -0.25227505 0.030192629 -0.1043138 0.05320597 -0.20296983
0.2063889 -0.14138345 -0.0693335 -0.051088408 -0.011716094 -0.14473136 -0.026413377 -0.13211535
0.15545523 -0.13210763 -0.16590865 0.114807464 0.06826872 0.14172347 0.15720512 0.096040554
-0.03038672 0.148086 0.0928611 0.04070485 -0.01280091 -0.17141233 0.16581953 -0.23344438
-0.14260846 0.00629889 -0.22162384 0.0012944111 0.060378913 0.118762404 0.2295044 0.040117398
0.2381457 -0.14696555 -0.23326676 -0.03241717 0.21795693 -0.07089596 -0.17372468 -0.24124546
0.018156974 -0.0682538 -0.086215444 -0.095372245 0.08715495 0.2517792 0.023162078 -0.25150558
-0.1815761 0.22395709 0.062227115 0.26823303 0.10470858 -0.13677938 0.09456216 0.19987167
0.27685967 0.0073809633 0.28150195 -0.120871924 0.014782616 -0.115431175 -0.018538168 0.2669118

var.bias f4 [8]
00000000: 2ce7 adbd 3c60 b3be 18ce 99be 1067 f83d
00000010: 2217 a2be 881e 7e3d cd84 d7bc 1cb5 373e
-0.08491358 -0.35034359 -0.3004005 0.121290326 -0.31658274 0.062040836 -0.026308442 0.17940181

out.weight f4 [70, 12]
00000000: 6b3d 3b3e 4aaf 7c3d 6789 913e 92e8 313e
00000010: f273 953e 66ec 883c 39f6 673d 67a6 193d
00000020: 1d6a fbbd e56a 673e f7d4 3ebe 835c 20bc
00000030: afeb 843e 9ed1 98bd 7a3e 2f3d be06 213e
00000040: 283f c03d 9f89 8dbd 61e1 05bd 3f47 383e
00000050: df19 35bd 802e f43d 1200 033e f1c6 b73d
00000060: 56c8 23be 0e83 3b3d 591e 9d3d 77ad 843c
00000070: aa1b 103e ae21 093b 620f de3c 3b64 50bd
00000080: 2206 6f3e 020f 3ebe c2c5 30bd 016a 2ebe
00000090: a8d6 013e 29a6 153e 4337 3f3e 5045 dcbd
000000a0: 5db6 72bd 7ce0 c63d f1f2 003d 0547 a53d
000000b0: f074 8cbd 43c7 8cbe 5ce2 da3d 4579 33be
000000c0: 1c67 fa3d c6fd 69be 2ed5 fe3c f221 50be
000000d0: 8ded 413d 12bb 94be daaa 563e 39e9 6dbe
000000e0: 5e6f 093d da8d bf3c a800 34be 9170 42be
000000f0: 098f 15bd 2f1c a03d a509 5cbe d8c8 3b3e
00000100: 4325 113e 6cc3 1cbe f2c3 aa3d 2aa2 efbd
00000110: 2282 47be a036 1e3e 0496 d0bc f1ab 7a3d
00000120: f824 483e 0c17 2fbe 65bc 71bd b13f 793e
00000130: 58b7 20be 93eb 0e3e b304 073e 4634 303e
00000140: ac77 593d d9ba ffbc 8399 1abe 59e3 73bd
00000150: 0940 39bc f89c 9abe 265f 88bc df30 873e
00000160: 33cc 83bd 1c03 05bd d846 c1bd 22ef 973d
00000170: 138c bc3d a3c0 533e 1276 b63d 5120 a53d
00000180: 1006 69be 0c73 023e 8339 e0bd 1ed2 e03d
00000190: 1a99 e83d a55a da3d 4912 133d 5a41 593e
000001a0: dbc9 e1bd edbd 083e 1cf7 d9bc 7903 19be
000001b0: 5c1a 4b3e 5578 38be 1068 053e f9ed 47bd
000001c0: 2af9 393e 45b8 61be 4c3f e9bc 6c25 b9bd
000001d0: 8ed0 9b3d a875 673c f6dc 40be 403b 923d
000001e0: 2e82 a1bd 7342 4e3d 378c 01bc 46f5 77be
000001f0: 68c6 033e c7ee 083e 7fe8 15be e473 3fbd
00000200: ac0d 873b cfa0 fe3c 2f8f 47be 289a e83c
00000210: ff80 043d 3d7f 9cbd 9f4c 2b3e f4d1 01be
00000220: a7b1 d4bd 3256 aeb9 27f1 27bd 4d3d 74bd
00000230: 2602 5cbe 9301 bd3d 68ab c3bd 537d dcbc
00000240: 1869 703e 0403 2cbd 4631 043e 043d 49be
00000250: ec3f 7cbe fc1b 033e b51d 443e 3c68 6abd
00000260: f685 5c3e 731e 983c 6d4c f8bd 7934 16be
00000270: 4f00 fe3c cedf 193e ba6a 0f3e e1f7 97be
00000280: 2524 43bc 5139 863e b59d dd3c 4d42 933d
00000290: d0e8 acbd cff4 e03c b3dc 42be 96e1 9bbe
000002a0: b90e 44be e9a0 333c a8ac d3ba 1408 84be
000002b0: 6d2a 55bd 8ef1 f8bd bd55 a73d cad1 693e
000002c0: 11aa dbbc bbd4 1dbe 3e3f d53d cbab 30be
000002d0: c838 3dbe 8b6b 1ebe d8b7 5abd ed10 05be
000002e0: 2ff7 71bd cc44 813d e0d3 ed3b 087c 8cbe
000002f0: 201e a0bd 54a7 f0bd 9d9e 5e3d fb40 0f3e
00000300: f648 ae3c 32da 013e 61a9 22bd c9ab 933e
00000310: 3be1 d53d d3a9 263c 52a8 3c3e 3603 5cbe
00000320: 1743 193e 90e5 963c 2641 0d3d 77ba 183e
00000330: 3e95 583e aea7 5e3b 56ad c0bd 9350 083e
00000340: c71b 683e dfbf 65be c4ff 2bbc c146 503e
00000350: 54d2 523e 627d 2cbe 52b9 8c3e 5626 703c
00000360: 4ce7 87bc b74f a1bd 1a98 d6bd f6ae ae3c
00000370: c663 c73d 7ef4 883d 06eb 20bd 5df9 923b
00000380: 1779 24be 4437 4abe 252a 993d 5781 673e
00000390: 47c8 03be 6b45 33bd 68a3 26be bd4d 263e
000003a0: 309d 05be 92e2 55bd e52b ea3d ee90 8ebd
000003b0: 9440 39be 77e9 8bbe 1373 50bd 3130 8b3e
000003c0: c9b1 7d3e b6c6 983d 63c8 56be 5c5a 7dbe
000003d0: 8283 06be febe 003e cd6e 26be 197f a83d
000003e0: ff10 25bc 9590 c3bd 44bf 203e 928e 623d
000003f0: 53da a5bd e22d f53d 8713 62be f50b 49be
0.18285148 0.061690606 0.28425142 0.17373875 0.29190022 0.016714286 0.0566313 0.03751221
-0.12276099 0.22599371 -0.18635927 -0.0097876815 0.25961062 -0.07461856 0.04278419 0.15725228
0.09387046 -0.06911015 -0.03268564 0.17995928 -0.044214126 0.11922932 0.12792996 0.08973492
-0.15994391 0.04577928 0.07671804 0.016195996 0.14073053 0.0020924616 0.027106944 -0.050876837
0.23342183 -0.18560413 -0.043157347 -0.17032625 0.12679541 0.14614166 0.18673424 -0.10755408
-0.059255946 0.09710786 0.031481687 0.080701865 -0.068582416 -0.27495775 0.10687706 -0.1752673
0.12226698 -0.22850713 0.031107511 -0.20325449 0.047345687 -0.29048973 0.20963612 -0.23233499
0.033553474 0.02338307 -0.17578375 -0.18988253 -0.036513362 0.078178756 -0.21488054 0.18338335
0.1417437 -0.15308923 0.08338155 -0.11700852 -0.19483235 0.15450525 -0.025462158 0.061199132
0.19545352 -0.17098635 -0.059017558 0.24340703 -0.1569494 0.13957052 0.13185386 0.1720744
0.053092644 -0.031217026 -0.15097623 -0.059542987 -0.011306771 -0.30197883 -0.016646933 0.26404473
-0.06435432 -0.03247367 -0.094373405 0.07418658 0.092064045 0.20678954 0.08909239 0.080628045
-0.22756219 0.127392 -0.109484695 0.10977577 0.11357327 0.1066182 0.03590611 0.21216336
-0.11024829 0.13353701 -0.026607089 -0.14942731 0.19834274 -0.18014653 0.13027978 -0.048810933
0.18161455 -0.2204295 -0.028472565 -0.09040341 0.07608138 0.0141271725 -0.1883429 0.07140207
-0.07886158 0.05035634 -0.007906965 -0.24214658 0.12868655 0.13372336 -0.14639471 -0.04674138
0.004121503 0.031082539 -0.19488214 0.02839382 0.032349583 -0.07641456 0.16728447 -0.12677747
-0.10385447 -0.00033252087 -0.041001465 -0.059628773 -0.21485195 0.09228816 -0.095541775 -0.026915228
0.2347759 -0.041995063 0.12909421 -0.19652182 -0.2463376 0.12803644 0.19151957 -0.057228312
0.21535477 0.018569207 -0.12123952 -0.14668454 0.031006007 0.15026781 0.14005557 -0.29681304
-0.011910473 0.26215604 0.02705274 0.0719038 -0.08442843 0.027460484 -0.19029503 -0.30445546
-0.19146241 0.010963657 -0.0016149478 -0.25787413 -0.052042414 -0.12155448 0.0817065 0.22833934
-0.026814492 -0.15413181 0.10412453 -0.17253034 -0.18478692 -0.15470712 -0.053397983 -0.12994738
-0.059073623 0.0631195 0.0072579235 -0.27438378 -0.07818246 -0.11750665 0.054350484 0.13989632
0.021275025 0.12680891 -0.039712314 0.28842 0.1044335 0.010172325 0.18423584 -0.214856
0.14966999 0.01842001 0.03448596 0.1491488 0.21150681 0.0033974457 -0.09408061 0.13311987
0.22666846 -0.22436474 -0.010497991 0.2033949 0.20588046 -0.16844705 0.27485138 0.0146575775
-0.016589783 -0.078765325 -0.1047823 0.021323662 0.09735827 0.06687258 -0.039286636 0.004485293
-0.16061817 -0.19747645 0.074787416 0.22607933 -0.12869368 -0.043767374 -0.16273272 0.16240592
-0.13048244 -0.052218027 0.114341535 -0.06961237 -0.18091041 -0.27326557 -0.050890993 0.27185205
0.24774851 0.07459776 -0.20974879 -0.247415 -0.13136104 0.12572858 -0.16253205 0.08227367
-0.010074853 -0.09549061 0.15697962 0.055311747 -0.08098283 0.11971642 -0.22077762 -0.19633467

out.bias f4 [70]
00000000: 5c5b 97bd 4430 e13d 86d2 7c3e 8faa 6d3e
00000010: 59dd b7bd 7e6a 60bb 07f6 dabd bbc2 18bd
00000020: 071f c4bd 9ed2 fe3c 4cee 183e b822 423e
00000030: b594 383d 8da2 81bd 9a22 2c3e 4cd7 823e
00000040: cf43 a6bd 044e 223d 24db 563d afe7 8fbd
00000050: 9a6e 13be 5200 b8bd 4c38 f13d a522 6d3e
00000060: 741e 663c 471c 97bd ba8e 893d 2353 fb3d
00000070: 547a edbd c439 f3bd fc95 4a3e d921 153e
00000080: 53b3 6dbe e208 3cbe 57dd 42be 26ef 38bc
00000090: 1643 4bbd 238f f53c 48d5 373e 99ef 183e
000000a0: 3726 f73d e9ad 4c3e 53d9 0f3e 67b3 2e3e
000000b0: 931f 353e 80e9 283e 3e88 2cbd 7714 0dbd
000000c0: f316 61b8 ba1b 613d 727b f73c b1fc 733d
000000d0: 082e 40bd 7a80 b73d 952a bf3c daab 54bd
000000e0: f068 d6bd 72b3 033d 63ee babc 6d54 0fbd
000000f0: 891d 2bbd 93b5 463d 9eba 8e3d 40ce ae3d
00000100: 2ec3 e7bd cd3a e23d 7a4b 34b9 8792 94bc
00000110: 5e5c 833d 3035 d13d
-0.07390472 0.10995534 0.24689683 0.23209594 -0.089777656 -0.0034243162 -0.10691457 -0.037295084
-0.095762305 0.03110629 0.14934653 0.18958557 0.045063693 -0.06329832 0.16810074 0.25554883
-0.08118402 0.039625183 0.052455083 -0.07026612 -0.1439766 -0.08984436 0.11778316 0.23157747
0.0140453465 -0.0737844 0.06716676 0.122717164 -0.11595598 -0.11876252 0.19783777 0.14563693
-0.23212938 -0.18362764 -0.19029747 -0.011287486 -0.049624525 0.02997548 0.17952454 0.14935149
0.12067836 0.19988216 0.14047746 0.17060624 0.17687826 0.16495323 -0.04212212 -0.034443345
-5.3665553e-05 0.054958083 0.03021023 0.059567157 -0.0469189 0.08960052 0.023335734 -0.051921703
-0.10469234 0.032153554 -0.02281875 -0.034992624 -0.041776214 0.048513006 0.06969188 0.08535433
-0.113165244 0.110463716 -0.00017194255 -0.018136276 0.06414102 0.10215223
