tutorial/data/test_small/interim_data_test/models/model_10_2.pt (torch, 78251 bytes, 18 tensors)

encoderlayers.0.weight f4 [100, 70]
-0.029874537 -0.035141326 -0.0099272 -0.025015023 -0.02135117 -0.08921995 -0.043100845 0.097435
-0.0799271 -0.06702449 0.103048585 0.031959716 -0.023301411 -0.03193234 0.12151889 -0.07194006
-0.082759656 0.034505688 0.038436875 0.01043511 -0.025102964 0.09870448 0.022291673 0.08965764
-0.0423234 0.08008889 -0.09409474 0.034217265 -0.019248797 -0.10186211 -0.093563214 -0.119702674
0.034376077 0.10598137 -0.022928962 -0.0962025 0.03356389 0.08727897 0.093078874 0.044492785
-0.029394595 0.1019845 -0.065559275 0.08600165 -0.020898683 0.073832825 0.09810316 -0.023867877
0.10751372 0.11899131 0.04204742 -0.08076478 -0.05813074 -0.0689135 0.0663647 -0.009541699
-0.060317487 0.07478233 0.025091931 -0.08293358 -0.07081273 0.10630584 -0.07853305 0.013513792
0.037542593 0.11290869 -0.04861931 0.011239532 0.12902948 -0.0021323918 0.13969596 -0.059530668
-0.011244707 0.17868486 -0.07290349 0.11999713 -0.087204814 -0.041886207 -0.09536248 -0.03496686
0.070135415 0.008365325 0.09800381 0.029677624 -0.082656704 0.04880472 -0.100675605 -0.076672465
0.12226747 0.030695371 -0.060533773 0.05126713 0.10286688 0.04086764 0.022586327 -0.11291863
-0.03977875 0.07876886 0.07721203 0.06946619 0.10538668 0.014584899 0.10419617 -0.08900668
0.022074042 0.0056793955 0.009258076 0.032299835 0.06526939 0.046219237 -0.022749957 0.05841266
0.03136159 -0.099566124 0.105935484 0.07728853 -0.111227214 -0.06957976 0.03373344 0.08430913
0.01168482 -0.03077044 0.115601316 0.07900126 0.008259812 0.08632708 -0.0660844 -0.0006126536
0.013656807 -0.094970964 -0.11040275 0.103145555 0.0069193286 0.009960267 -0.010758517 0.01850731
-0.123332575 0.07467492 -0.047246944 0.0005601706 -0.06491443 -0.09309178 -0.11263359 0.062117968
-0.059811782 0.062401135 -0.106276006 0.019241838 -0.0028736212 0.050415207 0.069003105 0.032507148
0.056150552 0.12827757 0.12363092 -0.10306535 -0.038700666 -0.025187068 -0.07660409 -0.016580187
0.015264288 -0.04675228 0.06689891 -0.08455087 0.06464162 -0.09484472 0.042837247 -0.08044981
0.088375784 0.07687653 0.044348497 0.10346667 -0.01491792 -0.0626961 -0.054692723 -0.07552
0.10903325 0.06611164 -0.06275993 -0.05104091 0.031386394 0.13616624 0.07286702 0.014859418
-0.09598776 -0.02220156 0.013677455 0.010287742 -0.09704895 0.030897344 -0.02687173 -0.04113219
0.04214767 -0.09633772 -0.093669705 -0.0055377977 0.01959738 0.018977229 0.014630557 -0.028469339
-0.10100175 0.028067846 -0.048106726 -0.054606505 -0.032437585 0.026054366 0.05542437 -0.07308747
0.085892715 0.00169898 0.08286932 -0.07082237 0.061854523 -0.031322464 0.05513824 0.12969656
0.018059133 -0.0054704365 -0.028411038 -0.06296174 -0.09396351 0.063915156 -0.043903854 -0.08603854
0.08907892 -0.03595818 -0.060040265 0.07144574 0.092579015 0.040775824 -0.013287421 0.06071117
-0.08038904 -0.06587387 -0.033434004 -0.12159976 0.030280385 0.11497206 -0.0078588445 0.043594986
0.07557926 0.10875657 0.006119529 0.020689074 -0.08965655 -0.07027123 0.01931996 -0.10529735
-0.11466609 0.08339262 0.10675772 -0.047009714 -0.06172571 0.08618226 -0.010584023 -0.06377239
00000000: 72bb f4bc 5af0 0fbd b2a5 22bc 4eec ccbc
00000010: a6e8 aebc f3b8 b6bd 838a 30bd 008c c73d
00000020: d2b0 a3bd 2344 89bd 230b d33d 31e8 023d
00000030: 9ae2 bebc 7ccb 02bd e5de f83d 4f55 93bd
00000040: e57d a9bd d655 0d3d fc6f 1d3d 06f8 2a3c
00000050: bba4 cdbc 9325 ca3d 079d b63c 6d9e b73d
00000060: 4d5b 2dbd a505 a43d beb4 c0bd 6727 0c3d
00000070: a7af 9dbc 159d d0bd 129e bfbd ad26 f5bd
00000080: eecd 0c3d c30c d93d 85d5 bbbc d105 c5bd
00000090: 4a7a 093d 51bf b23d 23a0 be3d 113e 363d
000000a0: efcc f0bc 40dd d03d f143 86bd a221 b03d
000000b0: b733 abbc aa35 973d 4fea c83d 9186 c3bc
000000c0: 2730 dc3d b7b1 f33d ea39 2c3d 0168 a5bd
000000d0: 801a 6ebd 8522 8dbd 37ea 873d c954 1cbc
000000e0: 780f 77bd 7a27 993d 988d cd3c 15d9 a9bd
000000f0: 4406 91bd e0b6 d93d f0d5 a0bd f468 5d3c
00000100: 43c6 193d ac3c e73d 0b25 47bd 0426 383c
00000110: 4e20 043e 99bf 0bbb 750c 0f3e 6ed6 73bd
00000120: b83b 38bc 2af9 363e 6d4e 95bd 0ec1 f53d
00000130: 7098 b2bd df90 2bbd 674d c3bd 6939 0fbd
00000140: 28a3 8f3d b70e 093c 39b6 c83d 7d1e f33c
00000150: eb47 a9bd 75e7 473d 032f cebd 7406 9dbd
00000160: 5e67 fa3d dc74 fb3c 43f2 77bd 7bfd 513d
00000170: dfab d23d d464 273d f606 b93c e241 e7bd
00000180: 0bef 22bd 9151 a13d 5721 9e3d 4a44 8e3d
00000190: f9d4 d73d 80f5 6e3c cd64 d53d 2249 b6bd
000001a0: 9fd4 b43c 391a ba3b 2faf 173c d54c 043d
000001b0: f5ab 853d 6250 3d3d 1e5e babc 1d42 6f3d
000001c0: 0375 003d 53e9 cbbd b4f4 d83d 7349 9e3d
000001d0: 18cb e3bd d57f 8ebd 132c 0a3d 44aa ac3d
000001e0: b071 3f3c 4a12 fcbc 62c0 ec3d 6acb a13d
000001f0: 2a54 073c 41cc b03d 4257 87bd 7d9a 20ba
00000200: cdc0 5f3c 2380 c2bd d61a e2bd fa3d d33d
00000210: 89bb e23b 6330 233c 7e44 30bc a49c 973c
00000220: ca95 fcbd 2aef 983d 0386 41bd 6ad8 123a
00000230: dbf1 84bd e7a6 bebd 71ac e6bd 696f 7e3d
00000240: 33fd 74bd 5598 7f3d 3ca7 d9bd 0fa1 9d3c
00000250: 5d53 3cbb 2d80 4e3d 8051 8d3d 3726 053d
00000260: 1ffe 653d 325b 033e 3532 fd3d ed13 d3bd
00000270: 9784 1ebd 1c55 cebc 9be2 9cbd 2cd3 87bc
00000280: 1017 7a3c 527f 3fbd 4c02 893d 0229 adbd
00000290: d362 843d f33d c2bd 1c76 2f3d dfc2 a4bd
000002a0: 5dfe b43d 7171 9d3d c5a6 353d 55e6 d33d
000002b0: 4b6a 74bc d066 80bd 7a05 60bd 3baa 9abd
000002c0: d34c df3d 8a65 873d 4788 80bd 4610 51bd
000002d0: 058f 003d 2a6f 0b3e 4e3b 953d eb74 733c
000002e0: 3b95 c4bd 0ce0 b5bc 6717 603c eb8d 283c
000002f0: 9ac1 c6bd 6d1c fd3c 1a22 dcbc 3a7a 28bd
00000300: 09a3 2c3d b64c c5bd e7d5 bfbd 6a76 b5bb
00000310: af8a a03c 2276 9b3c 01b5 6f3c 8838 e9bc
00000320: 01da cebd 8aee e53c 8f0b 45bd 12ab 5fbd
00000330: 46dd 04bd f76f d53c aa04 633d e2ae 95bd
00000340: 85e8 af3d 4fb0 de3a 64b7 a93d 520b 91bd
00000350: 2b5b 7d3d fc4b 00bd a3d8 613d 2dcf 043e
00000360: bff0 933c 5941 b3bb 44be e8bc 16f2 80bd
00000370: f16f c0bd f3e5 823d 87d4 33bd f934 b0bd
00000380: 026f b63d e248 13bd c8ec 75bd 2552 923d
00000390: 119a bd3d 8d04 273d 7cb3 59bc 47ac 783d
000003a0: 02a3 a4bd e1e8 86bd 18f2 08bd 4c09 f9bd
000003b0: 920e f83c 7976 eb3d 62c2 00bc a890 323d
000003c0: 4dc9 9a3d c4bb de3d 5486 c83b 227c a93c
000003d0: da9d b7bd 5dea 8fbd e544 9e3c 23a6 d7bd
000003e0: 0ed6 eabd c0c9 aa3d cba3 da3d 428d 40bd
000003f0: 19d4 7cbd 5380 b03d 9c68 2dbc 199b 82bd

encoderlayers.0.bias f4 [100]
0.0065776175 0.013341865 -0.06124832 0.13232028 -0.025878439 0.027932158 0.01927524 0.048323385
-0.09234474 -0.012641722 0.030651981 0.05038287 -0.053270426 0.047446202 0.083708696 0.051649213
0.03869551 -0.07592806 -0.054620557 0.12265556 -0.03513884 0.013174781 -0.002079223 0.035657216
0.09459354 -0.07974206 -0.10578002 0.10121929 -0.013150578 0.103216074 0.033157527 0.059594903
-0.10800708 -0.07001193 -0.09729685 -0.060231194 -0.0673859 -0.09578292 0.053769425 0.09996943
-0.11079777 -0.06240127 0.024786104 -0.047596604 -0.025740668 -0.05810625 0.06330969 0.07148314
0.113567516 -0.007505163 -0.046342306 -0.06270832 0.11819795 0.03739219 0.090864286 0.0925607
-0.045306817 -0.025026059 0.015626492 0.105293125 0.07505061 0.054943014 0.08108829 -0.09572019
-0.10637791 0.11119457 0.019862225 0.095436074 0.019870011 0.056666892 0.087704346 -0.10353302
0.027897047 0.11893732 -0.04240756 0.00097030704 0.1094646 -0.08548691 0.08697916 0.08860244
0.07558578 0.12970261 0.117415786 -0.05437119 -0.052733574 0.026885562 -0.009036719 0.0041014436
-0.09037242 0.07857378 0.056580793 0.029846614 0.022452937 -0.087632775 -0.0044547194 0.10488235
0.11850474 -0.051448345 0.073565625 0.029452827
00000000: 0e89 d73b d697 5a3c 85df 7abd f87e 073e
00000010: 05ff d3bc fbd1 e43c 1ce7 9d3c beee 453d
00000020: 3d1f bdbd 3a1f 4fbc dd19 fb3c 455e 4e3d
00000030: 1732 5abd f356 423d 776f ab3d 208e 533d
00000040: 2f7f 1e3d 2c80 9bbd ceb9 5fbd d732 fb3d
00000050: bfed 0fbd 09db 573c 9343 08bb 4d0d 123d
00000060: 42ba c13d ce4f a3bd 32a3 d8bd 0f4c cf3d
00000070: 8675 57bc f362 d33d 30d0 073d c919 743d
00000080: d132 ddbd 6a62 8fbd 9243 c7bd fcb4 76bd
00000090: 9e01 8abd d629 c4bd 543d 5c3d c6bc cc3d
000000a0: f1e9 e2bd 7998 7fbd 3a0c cb3c a8f4 42bd
000000b0: 18de d2bc d200 6ebd 83a8 813d c165 923d
000000c0: 1696 e83d dfed f5bb 6ed1 3dbd 386d 80bd
000000d0: c411 f23d 8e28 193d 0e17 ba3d 7790 bd3d
000000e0: a493 39bd 7303 cdbc 2103 803c eca3 d73d
000000f0: 22b4 993d ed0b 613d 9e11 a63d f208 c4bd
00000100: a9dc d9bd fbb9 e33d 1bb6 a23c fd73 c33d
00000110: 6fc6 a23c 8b1b 683d 569e b33d 1f09 d4bd
00000120: 5988 e43c 6995 f33d 8db3 2dbd 345c 7e3a
00000130: fa2e e03d c313 afbd 2122 b23d 3275 b53d
00000140: b8cc 9a3d c3d0 043e b077 f03d 53b4 5ebd
00000150: 29ff 57bd 1c3f dc3c bf0e 14bc 6765 863b
00000160: 2d15 b9bd 4aeb a03d 43c1 673d e380 f43c
00000170: 39ef b73c d078 b3bd e5f8 91bb 8fcc d63d
00000180: 9db2 f23d 80bb 52bd 93a9 963d 0e47 f13c

encodernorms.0.weight f4 [100]
1.0617931 1.0499557 1.039906 1.0036192 1.0308708 1.0659488 1.0427194 1.0338488
1.0047902 1.0428355 1.0510317 1.0433158 1.0524207 1.0135505 1.0332754 1.0380819
1.0380825 1.044299 1.0541844 1.0301619 1.018456 1.0636736 1.0023946 1.0236925
1.032482 1.0160667 1.0539795 1.0766969 1.0685588 1.0583485 1.0463215 1.0077535
1.0197524 1.0525868 1.02825 1.0327452 1.0408688 1.0026478 1.0483136 1.0857601
1.0113701 1.0170369 1.0404665 1.0202805 1.0243169 1.0316778 1.0615848 1.0617465
1.0114229 1.019521 1.045005 1.026144 1.07387 1.0523175 0.9981776 1.0897584
1.0018789 1.0718079 1.0211959 1.0443192 1.0364083 1.0487117 1.0661621 0.99511373
1.007878 1.0026233 1.0316643 0.9982821 1.0303988 1.0537254 1.0178188 1.0723503
1.0534389 1.055647 1.0302099 1.0353544 1.0563445 1.0135791 1.0759352 1.0499556
1.016795 1.0310793 1.0325023 1.0324792 0.98789275 1.018928 1.0278941 1.025522
1.0121158 1.0414356 1.0254347 1.0635511 1.0160689 1.0251427 1.0409896 1.0376652
1.0167013 1.0016347 1.0255408 1.0584419
00000000: d6e8 873f f364 863f a41b 853f 9876 803f
00000010: 93f3 833f 0371 883f d477 853f 2855 843f
00000020: f79c 803f a27b 853f 3588 863f 5f8b 853f
00000030: b9b5 863f 06bc 813f 5e42 843f dedf 843f
00000040: e3df 843f 97ab 853f 84ef 863f 58dc 833f
00000050: c45c 823f 7526 883f 774e 803f 5b08 833f
00000060: 5f28 843f 790e 823f cde8 863f 34d1 893f
00000070: 89c6 883f f777 873f dded 853f 11fe 803f
00000080: 3f87 823f 2abb 863f b29d 833f ff30 843f
00000090: 303b 853f c356 803f 242f 863f 30fa 8a3f
000000a0: 9374 813f 442e 823f 022e 853f 8d98 823f
000000b0: d11c 833f 050e 843f 03e2 873f 4fe7 873f
000000c0: 4e76 813f aa7f 823f b9c2 853f b058 833f
000000d0: 9274 893f 57b2 863f 9188 7f3f 347d 8b3f
000000e0: 913d 803f 0031 893f 8cb6 823f 40ac 853f
000000f0: 07a9 843f 2f3c 863f 0078 883f c6bf 7e3f
00000100: 2502 813f f655 803f 930d 843f 6a8f 7f3f
00000110: 1ce4 833f 79e0 863f e347 823f c642 893f
00000120: 16d7 863f 711f 873f ebdd 833f 7e86 843f
00000130: 4c36 873f f6bc 813f 3fb8 893f f264 863f
00000140: 5726 823f 68fa 833f 0929 843f 4728 843f
00000150: 8ae6 7c3f 3c6c 823f 0992 833f 4e44 833f
00000160: 038d 813f c34d 853f 7241 833f 7122 883f
00000170: 8c0e 823f e037 833f 263f 853f 37d2 843f
00000180: 4523 823f 9135 803f ec44 833f 067b 873f

encodernorms.0.bias f4 [100]
-0.108029194 0.039246485 -0.09288482 0.04317716 0.08385493 -0.05800465 -0.05788949 -0.01705271
0.10256246 0.00029738623 -0.00529287 0.023324655 -0.07654224 0.073107615 0.04530828 -0.04786027
-0.056801796 0.04894633 0.083703585 0.07915324 -0.018487033 0.009750478 -0.047716293 -0.11281203
0.034101054 -0.06439735 0.056420617 -0.0085681705 -0.03260722 -0.022808814 0.054492693 -0.013332246
0.017920185 0.072848916 0.03684146 -0.06187444 -0.009497274 0.0031202997 0.09178681 -0.118622765
0.07491956 -0.04436722 -0.019739218 -0.020802075 0.08706748 0.035717536 0.071411066 -0.074390106
-0.075397186 -0.04331314 -0.018888935 -0.038220976 -0.07607804 0.019201862 0.06471054 -0.021501804
0.09162693 0.0798043 0.054071534 0.028484477 -0.07148123 0.014779522 0.034882978 -0.10783452
0.017992474 0.084480494 0.05847901 0.10091911 0.07315184 -0.013920294 -0.093635045 0.07599668
-0.044057623 -0.011581824 -0.025786804 -0.08290039 0.017407592 0.0908948 -0.017493876 0.019941367
0.02093559 -0.098670356 -0.02416192 0.055206846 -0.041202776 0.032908387 0.056649096 -0.003271212
0.06345076 -0.058472995 0.077614784 0.047676355 -0.007907368 -0.06726783 0.0797327 -0.018624797
-0.038183626 0.09878221 0.07372684 -0.016319958
00000000: 693e ddbd ecc0 203d 663a bebd 89da 303d
00000010: 22bc ab3d 4996 6dbd 881d 6dbd 20b2 8bbc
00000020: 440c d23d 81ea 9b39 d06f adbb 5913 bf3c
00000030: 2ec2 9cbd 72b9 953d 2d95 393d 2109 44bd
00000040: 00a9 68bd f27b 483d c96c ab3d 181b a23d
00000050: 1e72 97bc 78c0 1f3c 2972 43bd fe09 e7bd
00000060: 8cad 0b3d c2e2 83bd 4e19 673d 8361 0cbc
00000070: 268f 05bd 8dd9 babc bb33 5f3d 7e6f 5abc
00000080: 5acd 923c d031 953d 12e7 163d 0e70 7dbd
00000090: 749a 1bbc f17d 4c3b b9fa bb3d 7ef0 f2bd
000000a0: 6d6f 993d 67ba 35bd 24b4 a1bc 1d69 aabc
000000b0: 6f50 b23d 8d4c 123d f73f 923d d759 98bd
000000c0: d769 9abd 1e69 31bd f8bc 9abc 998d 1cbd
000000d0: cece 9bbd 394d 9d3c f686 843d 8d24 b0bc
000000e0: e6a6 bb3d 7070 a33d 1d7a 5d3d 4758 e93c
000000f0: c064 92bd cf25 723c 74e1 0e3d 58d8 dcbd
00000100: f464 933c 1c04 ad3d b087 6f3d aeae ce3d
00000110: a2d0 953d f211 64bc bbc3 bfbd 26a4 9b3d
00000120: c475 34bd b1c1 3dbc d93e d3bc aec7 a9bd
00000130: 5e9a 8e3c 0e27 ba3d 514f 8fbc 145c a33c
00000140: 1d81 ab3c af13 cabd 38ef c5bc 9320 623d
00000150: 3ec4 28bd f2ca 063d e208 683d d561 56bb
00000160: 79f2 813d 6181 6fbd 80f4 9e3d 4848 433d
00000170: e88d 01bc b7c3 89bd e64a a33d 0893 98bc
00000180: 6f66 1cbd 544e ca3d 19fe 963d 6fb1 85bc

encodernorms.0.running_mean f4 [100]
0.24095733 0.43166575 0.11393182 0.17587318 0.45252633 0.11662909 0.6408629 0.10217796
0.100974835 0.20893292 0.16673055 0.097219296 0.014531391 0.1128053 0.28802907 0.19186991
0.26757514 0.21927223 0.5045042 0.18218228 0.09121108 0.38382098 0.0389187 0.34629416
0.35943174 0.21108909 0.36122105 0.30089805 0.32386237 0.25211918 0.18575384 0.081912324
0.12256016 0.20305288 0.18735127 0.26398683 0.18627487 0.04802701 0.27047607 0.20670703
0.12877062 0.29301208 0.20267986 0.07294923 0.07362237 0.05689978 0.23273529 0.27845606
0.2472402 0.09151539 0.24585868 0.13373487 0.26744223 0.17355637 0.061309427 0.2785412
-0.00036395446 0.4702177 0.32477623 0.12438628 0.21323828 0.2654204 0.3458902 0.031554915
0.0073766815 0.27789128 0.19168648 0.11539547 0.19893996 0.31798816 0.2730189 0.07772113
0.16201179 0.31660768 0.13777518 0.33168092 0.35346758 0.15459932 0.43051615 0.31296176
0.24553533 0.22748238 0.3861011 0.16443186 0.025167903 0.171415 0.009649889 0.1739287
0.44178048 0.45060575 0.17155983 0.33827645 0.055272363 0.20329286 0.00016604742 0.40376198
0.034076974 0.46348885 0.28963208 0.4557703
00000000: 85bd 763e 4b03 dd3e 1655 e93d 1918 343e
00000010: 88b1 e73e 3bdb ee3d 970f 243f ae42 d13d
00000020: e5cb ce3d 83f2 553e 6abb 2a3e e91a c73d
00000030: 1215 6e3c 7706 e73d 8c78 933e 8c79 443e
00000040: 9cff 883e e688 603e 3027 013f fe8d 3a3e
00000050: e0cc ba3d 2f84 c43e 3769 1f3d 784d b13e
00000060: 7007 b83e bd27 583e f7f1 b83e 4f0f 9a3e
00000070: 4ad1 a53e c415 813e 4136 3e3e a6c1 a73d
00000080: d200 fb3d 18ed 4f3e 03d9 3f3e 4829 873e
00000090: d7be 3e3e f8b7 443d d77b 8a3e 02ab 533e
000000a0: 72dc 033e ae05 963e 4f8b 4f3e 6866 953d
000000b0: 53c7 963d be0f 693d 2952 6e3e cb91 8e3e
000000c0: 892c 7d3e 6c6c bb3d 61c2 7b3e cbf1 083e
000000d0: 30ee 883e c3b8 313e 981f 7b3d f49c 8e3e
000000e0: 24d1 beb9 60c0 f03e 1249 a63e 3cbe fe3d
000000f0: 235b 5a3e 2fe5 873e 8518 b13e ba3f 013d
00000100: 17b8 f13b c447 8e3e 7649 443e 7654 ec3d
00000110: ebb6 4b3e 58cf a23e 22c9 8b3e 412c 9f3d
00000120: 6be6 253e 671a a23e f014 0d3e 15d2 a93e
00000130: b4f9 b43e 494f 1e3e 9d6c dc3e 863c a03e
00000140: 9d6d 7b3e 24f1 683e 0baf c53e d360 283e
00000150: eb2c ce3c 6a87 2f3e 911a 1e3c 5d1a 323e
00000160: 0d31 e23e ccb5 e63e 61ad 2f3e 9232 ad3e
00000170: 4665 623d 012c 503e 041d 2e39 e4b9 ce3e
00000180: 4c94 0b3d 694e ed3e a84a 943e ba5a e93e

encodernorms.0.running_var f4 [100]
0.07694251 0.14091256 0.0446137 0.0723469 0.16555235 0.045177635 0.21367231 0.030273177
0.03954846 0.06770897 0.055508073 0.042224336 0.0050573656 0.044208266 0.10850401 0.06970783
0.10142454 0.09262425 0.16035731 0.064201415 0.039246634 0.12703604 0.015041483 0.10896435
0.11291888 0.08336731 0.1227916 0.07685525 0.10733918 0.08423979 0.07273615 0.04843096
0.04487142 0.07035684 0.06709815 0.10764524 0.07418996 0.024235548 0.10424739 0.06994402
0.086196035 0.112631194 0.08928261 0.028365253 0.026029542 0.022329124 0.07870678 0.087423205
0.07580613 0.038537864 0.09859918 0.041026823 0.13397169 0.049080465 0.030024113 0.095310755
0.0010136021 0.122936 0.12021905 0.06437307 0.10065029 0.094091125 0.13119638 0.011779786
0.0036787943 0.09956397 0.07243438 0.03970916 0.06411977 0.12676758 0.09659131 0.030251248
0.058727752 0.095108464 0.05967279 0.12575914 0.11821154 0.068722 0.14722383 0.117732614
0.10386162 0.09386454 0.13333589 0.056552477 0.008790134 0.06765875 0.010553385 0.061691076
0.12690684 0.1682151 0.06792148 0.112048015 0.020709664 0.0660381 0.001616798 0.10891671
0.011795006 0.16637643 0.08741445 0.16737905
00000000: 0994 9d3d 624b 103e dbbc 363d 9d2a 943d
00000010: 8e86 293e 2f0c 393d eacc 5a3e 74ff f73c
00000020: 91fd 213d 00ab 8a3d 6f5c 633d 6df3 2c3d
00000030: 42b8 a53b ba13 353d 5a37 de3d fbc2 8e3d
00000040: abb7 cf3d c8b1 bd3d b534 243e 087c 833d
00000050: 14c1 203d bc15 023e 8d70 763c b328 df3d
00000060: 0442 e73d 7bbc aa3d 2a7a fb3d 4966 9d3d
00000070: a5d4 db3d e985 ac3d b1f6 943d 8b5f 463d
00000080: 18cb 373d 3f17 903d c16a 893d 1c75 dc3d
00000090: e8f0 973d a189 c63c a87f d53d cf3e 8f3d
000000a0: 8c87 b03d 2fab e63d cdd9 b63d 3f5e e83c
000000b0: e83b d53c 91eb b63c 0531 a13d f00a b33d
000000c0: 3f40 9b3d e1d9 1d3d 5eee c93d be0b 283d
000000d0: e02f 093e 9908 493d 21f5 f53c 4932 c33d
000000e0: d8da 843a dfc5 fb3d 6835 f63d 07d6 833d
000000f0: bd21 ce3d d9b2 c03d 5858 063e 0100 413c
00000100: ed17 713b 32e8 cb3d 7a58 943d 12a6 223d
00000110: 3a51 833d 5ccf 013e aad1 c53d 77d1 f73c
00000120: 838c 703d 3ac8 c23d 756b 743d 01c7 003e
00000130: e418 f23d 1fbe 8c3d d8c1 163e cc1d f13d
00000140: 67b5 d43d 0d3c c03d 3489 083e 92a3 673d
00000150: 7f04 103c ac90 8a3d 1be8 2c3c c8af 7c3d
00000160: def3 013e 9440 2c3e 6b1a 8b3d 6e79 e53d
00000170: 50a7 a93c fc3e 873d bdea d33a b90f df3d
00000180: d73f 413c 955e 2a3e 5906 b33d 6a65 2b3e

decoderlayers.0.weight f4 [100, 10]
-0.25907576 -0.30761015 -0.117716916 0.04253679 0.084711954 -0.30416957 -0.05975424 -0.24505423
0.23563382 -0.19895649 0.11998948 -0.22036807 0.13143978 0.04373092 0.16819486 -0.27645814
-0.21355672 -0.2792685 -0.027246598 0.16322762 -0.13602743 -0.2101193 -0.16422312 -0.10773991
-0.15229191 -0.2718503 -0.29821286 0.093507536 0.27017987 0.048822276 0.13798621 0.08892043
-0.2845518 -0.08397912 -0.018442523 0.027362462 -0.20520043 -0.11718845 -0.15782982 -0.2878179
0.0021849093 0.091683574 0.2406865 -0.07988878 -0.16802675 0.24643943 -0.21971408 0.2138403
-0.20697236 0.263717 0.2089074 -0.010738241 0.18692006 0.19273397 0.12899268 -0.005255147
-0.023948146 -0.14233905 0.11421951 -0.1356102 -0.0021069963 -0.2123654 0.20753162 -0.25254366
-0.08431286 0.0078995265 -0.16888815 -0.31946132 0.2650617 -0.19300513 0.11600927 0.09468687
0.2149852 0.20670108 -0.11422581 -0.15453158 0.22963598 -0.06319395 0.053090733 0.14387168
-0.053193085 -0.16662247 0.030737765 0.12793235 -0.04219369 0.14823978 0.10832374 -0.1075149
-0.119487576 -0.24230295 0.032739017 -0.12023029 0.27442628 -0.33075744 0.028811859 -0.10022105
-0.22246343 0.14374381 -0.14224438 -0.16241191 -0.08961002 0.032923758 -0.044462454 0.28313482
-0.09412025 0.11792287 -0.25345567 -0.059969183 -0.106155016 -0.21802606 0.26256663 0.025554817
0.0006527034 -0.22772583 0.15262425 0.13632831 0.18741773 -0.26142523 0.27569684 -0.13822508
-0.29946697 0.01162204 0.059231546 -0.119791836 0.21901393 -0.22167669 -0.1952145 -0.2243868
0.24225272 0.13818955 0.124634564 -0.10189416 -0.09178113 -0.22376122 0.187395 -0.21340448
0.25972047 -0.094627 -0.20254588 0.24834828 0.2554708 0.10380214 0.26552537 -0.06201043
-0.07978019 -0.04045843 0.25242683 0.18593399 -0.1396482 0.07572553 0.071686774 -0.2092182
0.24001947 0.288486 -0.06326505 0.29339126 -0.0721116 -0.23663472 0.25171518 -0.15990001
0.26819658 -0.08419009 -0.19965966 -0.2747733 0.22314198 -0.22012784 0.24698068 -0.17570657
0.0066799414 -0.085348345 0.10270797 0.24524486 0.15163188 -0.17836602 -0.16438624 -0.31622908
0.038302742 0.14998919 0.21073458 -0.026562627 -0.11217415 0.15748961 0.04160129 -0.08318462
0.05221787 -0.30763978 0.13080345 0.3017793 -0.22247502 -0.17014144 0.04605914 -0.04723352
0.124388896 0.16243452 0.0004578297 -0.05903538 0.21899198 -0.25158367 -0.15789306 -0.2983667
0.17018788 0.09296759 -0.14767952 -0.21208538 -0.23366882 -0.19178744 0.2532571 0.03865392
-0.3010089 0.06975563 0.19847211 0.23004067 0.30375525 0.20806234 0.1298962 -0.0927039
0.26510784 0.26437154 0.061687075 -0.3123091 -0.18374893 -0.26957518 0.20991407 -0.21375006
0.11253535 -0.05380615 0.19397616 -0.21156305 -0.23241454 -0.11223219 -0.12298629 -0.032903045
-0.13433881 -0.17350599 -0.3127729 0.2583813 -0.09941873 0.30391222 0.092127934 -0.25717565
-0.24908644 -0.3002781 -0.05751327 -0.15084586 0.09851757 0.313303 0.2583571 0.055497102
0.23768122 0.2530745 0.18954001 -0.3039787 -0.25883368 0.12065484 0.19477287 -0.3097938
00000000: 94a5 84be 147f 9dbe 9115 f1bd 0f3b 2e3d
00000010: 767d ad3d 1dbc 9bbe ddc0 74bd 7fef 7abe
00000020: fe49 713e 40bb 4bbe 0bbd f53d 2ba8 61be
00000030: 2698 063e 311f 333d 463b 2c3e ec8b 8dbe
00000040: 9dae 5abe 48fc 8ebe 4234 dfbc 2425 273e
00000050: c64a 0bbe 8429 57be 1b2a 28be bea6 dcbd
00000060: 69f2 1bbe f62f 8bbe 5baf 98be e180 bf3d
00000070: 0455 8a3e def9 473d 424c 0d3e ea1b b63d
00000080: c6b0 91be 3ffd abbd c614 97bc 3e27 e03c
00000090: 1020 52be 8000 f0bd 249e 21be de5c 93be
000000a0: b230 0f3b 99c4 bb3d 8676 763e bb9c a3bd
000000b0: 340f 2cbe 9e5a 7c3e bafc 60be f4f8 5a3e
000000c0: 90f0 53be ea05 873e d2eb 553e 72ef 2fbc
000000d0: f967 3f3e 0e5c 453e a816 043e 5e33 acbb
000000e0: e72e c4bc 54c1 11be ebeb e93d 66dd 0abe
000000f0: 8815 0abb 5176 59be 2b83 543e 674d 81be
00000100: 39ac acbd 046d 013c 04f1 2cbe 6f90 a3be
00000110: 2bb6 873e 23a3 45be 4596 ed3d 31eb c13d
00000120: 1525 5c3e 73a9 533e 39ef e9bd 873d 1ebe
00000130: b225 6b3e d46b 81bd ab75 593d 1953 133e
00000140: fee0 59bd 159f 2abe c4cd fb3c b300 033e
00000150: 4ad3 2cbd 2bcc 173e d6d8 dd3d c630 dcbd
00000160: e7b5 f4bd 441e 78be 5919 063d 4c3b f6bd
00000170: 9a81 8c3e 0a59 a9be d906 ec3c b240 cdbd
00000180: 74cd 63be 9431 133e 83a8 11be 4f4f 26be
00000190: 7585 b7bd 10db 063d 431e 36bd 0cf7 903e
000001a0: 1ec2 c0bd 8c81 f13d f1c4 81be 3fa2 75bd
000001b0: cd67 d9bd 3942 5fbe 226f 863e 5658 d13c
000001c0: 2f1a 2b3a f630 69be 8849 1c3e a699 0b3e
000001d0: 6fea 3f3e 87d9 85be 2328 8d3e e08a 0dbe
000001e0: bc53 99be 5e6a 3e3c c79c 723d 6c55 f5bd
000001f0: 3045 603e 37ff 62be 4fe6 47be a7c5 65be
00000200: 1911 783e 9081 0d3e 6840 ff3d e3ad d0bd
00000210: bff7 bbbd a921 65be 7ae4 3f3e b486 5abe
00000220: 15fa 843e cdcb c1bd 3068 4fbe 034f 7e3e
00000230: 12cd 823e 3796 d43d f1f2 873e a6fe 7dbd
00000240: cc63 a3bd bdb7 25bd 173e 813e 7b65 3e3e
00000250: f0ff 0ebe fd15 9b3d 84d0 923d 4c3d 56be
00000260: aac7 753e 70b4 933e 1b91 81bd 6137 963e
00000270: 3faf 93bd 5f50 72be d0e0 803e d4bc 23be
00000280: 1051 893e db6b acbd 9573 4cbe 16af 8cbe
00000290: 557f 643e 3169 61be 81e8 7c3e 6cec 33be
000002a0: 69e3 da3b 1dcb aebd 8e58 d23d 7821 7b3e
000002b0: 6345 1b3e 95a5 36be de54 28be c7e8 a1be
000002c0: 56e3 1c3d c496 193e ceca 573e de99 d9bc
000002d0: 90bb e5bd f544 213e 1d66 2a3d b35c aabd
000002e0: 68e2 553d f682 9dbe 57f1 053e d182 9a3e
000002f0: 7ed0 63be 8f39 2ebe 82a8 3c3d ef77 41bd
00000300: 9bbf fe3d 3c55 263e dd08 f039 15cf 71bd
00000310: 6f3f 603e 93cf 80be b8ae 21be 85c3 98be
00000320: bb45 2e3e cb65 be3d 4d39 17be e92c 59be
00000330: e146 6fbe ed63 44be eaaa 813e 9353 1e3d
00000340: d71d 9abe 0adc 8e3d 463c 4b3e c88f 6b3e
00000350: cf85 9b3e 4b0e 553e 8203 053e 8bdb bdbd
00000360: 37bc 873e b55b 873e 96ab 7c3d fae6 9fbe
00000370: ae28 3cbe c205 8abe b7f3 563e 4ce1 5abe
00000380: ef78 e63d d663 5cbd b0a1 463e fca3 58be
00000390: 14fe 6dbe fed9 e5bd 3ce0 fbbd 58c5 06bd
000003a0: 1d90 09be 8eab 31be c523 a0be 8e4a 843e
000003b0: 0c9c cbbd 629a 9b3e 92ad bc3d 87ac 83be
000003c0: 8410 7fbe 0dbe 99be 0993 6bbd 5677 1abe
000003d0: 94c3 c93d 4069 a03e 6247 843e ee50 633d
000003e0: b562 733e fb92 813e c716 423e 19a3 9bbe
000003f0: d985 84be e219 f73d 8a72 473e 4b9d 9ebe

decoderlayers.0.bias f4 [100]
0.02825309 -0.0067949877 0.0673073 0.21577387 0.19584826 -0.16706982 -0.021829069 0.2795316
0.039312012 0.117863394 0.02700073 -0.123252064 -0.26392004 0.09728845 0.29865822 0.23902643
0.038819022 0.18559954 0.14160605 -0.2270471 -0.07163359 -0.0629476 -0.13300654 -0.25632602
0.17523885 -0.20616192 -0.24077916 0.02889019 0.10588368 -0.060171757 -0.025153989 -0.26087093
0.20414673 -0.0772562 0.07793952 0.02772942 -0.17499746 0.0191385 0.24834698 -0.19223706
-0.17394978 -0.21587937 -0.10647686 -0.036689423 -0.18211561 -0.117752716 0.25976187 0.13542415
-0.0030820824 0.16595542 -0.043180324 0.19884743 -0.004373536 -0.041801855 -0.22442628 0.31599972
0.305934 0.27210087 0.15107292 -0.1907232 -0.2966789 0.21971096 0.15269706 0.025164558
0.23996647 -0.07298841 -0.17229588 0.05571497 -0.14894024 -0.13399212 0.16518965 -0.0057772044
0.31215256 0.23274012 0.14342356 -0.017652066 -0.23065014 -0.082067996 0.23108926 -0.18376093
-0.09563284 -0.031719573 -0.07904078 0.28357366 0.017565997 0.14229801 0.17547527 -0.2935999
0.22170702 -0.19449002 -0.06571595 0.00515275 0.2745169 -0.013948645 -0.034210797 0.26532593
0.05480545 -0.050505128 0.18718813 0.17052038
00000000: 0673 e73c 7da8 debb 69d8 893d d3f3 5c3e
00000010: 728c 483e 5a14 2bbe e0d2 b2bc c41e 8f3e
00000020: a205 213d 5d62 f13d a330 dd3c 946b fcbd
00000030: 8720 87be 2b3f c73d bbe9 983e 58c3 743e
00000040: b200 1f3d ce0d 3e3e 2d01 113e 097f 68be
00000050: a2b4 92bd acea 80bd de32 08be 2a3d 83be
00000060: d071 333e 1c1c 53be d08e 76be 1fab ec3c
00000070: 8bd9 d83d a976 76bd bd0f cebc e090 85be
00000080: d70b 513e 8038 9ebd c19e 9f3d cf28 e33c
00000090: 8932 33be 58c8 9c3c ac4e 7e3e cbd9 44be
000000a0: e41f 32be 7b0f 5dbe 8a10 dabd a647 16bd
000000b0: 847c 3abe 5628 f1bd 82ff 843e a1ac 0a3e
000000c0: c3fc 49bb 38f0 293e dadd 30bd a99e 4b3e
000000d0: e14f 8fbb 6c38 2bbd 01d0 65be b7ca a13e
000000e0: 62a3 9c3e ce50 8b3e dcb2 1a3e f14c 43be
000000f0: 4ce6 97be e9fb 603e 9e5c 1c3e e725 ce3c
00000100: c5b9 753e f37a 95bd 556e 30be 6135 643d
00000110: ca83 18be 3b35 09be 7a27 293e b44e bdbb
00000120: 76d2 9f3e 6d53 6e3e a0dd 123e 119b 90bc
00000130: 8d2f 6cbe 4413 a8bd aaa2 6c3e d32b 3cbe
00000140: 27db c3bd 62ec 01bd 22e0 a1bd 9130 913e
00000150: 91e6 8f3c 92b6 113e caaf 333e ba52 96be
00000160: 2a07 633e 6428 47be 1696 86bd 66d8 a83b
00000170: 7b8d 8c3e dc88 64bc 9f20 0cbd cdd8 873e
00000180: ae7b 603d 77de 4ebd 3fae 3f3e e59c 2e3e

decodernorms.0.weight f4 [100]
0.94069606 0.9555633 0.981427 0.9451352 0.9676022 0.94548684 0.9540457 0.95928514
0.95576817 0.95841116 0.95507497 0.95745885 0.9505057 0.9702814 0.954962 0.9460543
0.96067315 0.958846 0.95215654 0.9542573 0.9508784 0.93118703 0.9456742 0.95663023
0.9476807 0.95870465 0.9332746 0.942956 0.94594043 0.9461391 0.95282173 0.93190974
0.9653673 0.9700938 0.93031675 0.991574 0.9344413 0.98310536 0.94197196 0.9605523
0.96986943 0.9695949 0.9567998 0.9473775 0.9282597 0.9471303 0.9646918 0.9554041
0.9457972 0.9389709 0.9313986 0.9661087 0.9546042 0.9338721 0.9830994 0.95883054
0.98984736 0.9814412 0.9798176 0.9399168 0.9646198 0.9527561 0.9614195 0.9679469
0.94550055 0.96283543 0.9748673 0.9383155 0.94259036 0.9511698 0.95173305 0.9431718
0.93879104 0.9452602 0.9545531 0.9593836 0.956804 0.93387127 0.9468238 0.93667233
0.935423 0.9353878 0.9711522 0.9590618 0.9378682 0.9765642 0.98253715 0.9226272
0.9619895 0.94845384 0.96301705 0.9489485 0.9783075 0.9817443 0.94300514 0.9387597
0.95739985 0.9476693 0.964358 0.9491074
00000000: 75d1 703f cc9f 743f cd3e 7b3f 61f4 713f
00000010: c7b4 773f 6d0b 723f 573c 743f b693 753f
00000020: 39ad 743f 6f5a 753f cb7f 743f 061c 753f
00000030: 5754 733f 5d64 783f 6478 743f 9d30 723f
00000040: adee 753f ee76 753f 88c0 733f 354a 743f
00000050: c46c 733f 4662 6e3f b417 723f b8e5 743f
00000060: 349b 723f ab6d 753f 16eb 6e3f 9065 713f
00000070: 2729 723f 2c36 723f 20ec 733f a391 6e3f
00000080: 5022 773f 1158 783f 3d29 6e3f cbd7 7d3f
00000090: 8c37 6f3f cbac 7b3f 1325 713f c1e6 753f
000000a0: 5d49 783f 5f37 783f d5f0 743f 5587 723f
000000b0: 6da2 6d3f 2277 723f 0bf6 763f 5d95 743f
000000c0: c41f 723f 6660 703f 2370 6e3f e652 773f
000000d0: f160 743f 3e12 6f3f 67ac 7b3f eb75 753f
000000e0: a366 7d3f bb3f 7b3f 54d5 7a3f 639e 703f
000000f0: 53f1 763f d3e7 733f 971f 763f 5ecb 773f
00000100: 530c 723f 627c 763f e790 793f 7235 703f
00000110: 9a4d 713f dd7f 733f c7a4 733f b573 713f
00000120: 9c54 703f 93fc 713f 985d 743f 2a9a 753f
00000130: 1bf1 743f 3012 6f3f 0b63 723f c2c9 6f3f
00000140: e277 6f3f 9375 6f3f 6e9d 783f 1385 753f
00000150: 2118 703f 1d00 7a3f 8e87 7b3f 4c31 6c3f
00000160: f244 763f dfcd 723f 4988 763f 4aee 723f
00000170: 5c72 7a3f 9853 7b3f c968 713f 8e52 703f
00000180: 2818 753f 759a 723f 2ae0 763f b4f8 723f

decodernorms.0.bias f4 [100]
0.018444827 0.009236158 0.0029686429 0.006388242 -0.013240929 -0.02486496 -0.026929718 0.026706757
0.0022084436 -0.011667616 -0.0023570468 -0.0014623895 0.017521452 -0.051717672 0.011916295 0.023151852
0.01052792 0.003362767 0.03650742 -0.016367612 0.02129753 -0.022138597 0.021075146 -0.002271133
0.0011802672 -0.020275326 0.017392183 -0.007717683 0.013323549 -0.002956691 -0.0070058303 0.009968624
-0.036299262 0.019349976 0.00059181097 0.003981393 -0.0074409023 0.019007044 0.0047250986 0.0024872185
0.03389421 -0.0046201022 0.034330647 0.024017464 0.0029688561 0.015375609 0.016788477 -0.04675213
0.0075941607 -0.013277196 -0.012102029 0.025445893 0.025742816 -0.03638132 -0.0046827174 -0.016220795
-0.02439558 0.0016776863 -0.02922814 -0.017202761 -0.009059473 0.005131284 0.00331399 0.035051454
0.0049010757 -0.005596523 0.02997929 -0.026863972 -0.036638506 -0.0025897364 -0.0068879863 0.025967615
-0.016605774 -0.055996552 -0.004501936 -0.0013111021 -0.029797036 -0.018624542 0.0032156757 0.016074423
-0.017871235 -0.022398826 -0.013496844 -0.011043688 0.018586429 0.016301164 -0.0022142949 -0.025430629
-0.02391783 0.0033187133 0.0065404302 -0.015887653 0.002874707 0.011308422 -0.0013465676 0.010993188
-0.009506044 -0.019173402 -0.029393753 0.017659096
00000000: 9b19 973c 4153 173c 908d 423b 7554 d13b
00000010: 7bf0 58bc 9ab1 cbbc b69b dcbc 21c8 da3c
00000020: 89bb 103b 8729 3fbc af78 1abb a6ad bfba
00000030: 2689 8f3c e9d5 53bd 903c 433c f4a8 bd3c
00000040: 4c7d 2c3c de61 5c3b ce88 153d 5f15 86bc
00000050: 2878 ae3c 015c b5bc c9a5 ac3c 4ad7 14bb
00000060: 32b3 9a3a 7118 a6bc 0d7a 8e3c 9ee4 fcbb
00000070: 044b 5a3c 0bc5 41bb 2a91 e5bb 7153 233c
00000080: 89ae 14bd d783 9e3c c323 1b3a 5876 823b
00000090: d0d2 f3bb a9b4 9b3c 00d5 9a3b 9a00 233b
000000a0: a8d4 0a3d 3a64 97bb 4b9e 0c3d 46c0 c43c
000000b0: 2491 423b fae9 7b3c fd87 893c 297f 3fbd
000000c0: 70d8 f83b 9988 59bc 9747 46bc e873 d03c
000000d0: 99e2 d23c 9404 15bd 7b71 99bb 79e1 84bc
000000e0: 3dd9 c7bc d0e5 db3a da6f efbc ceec 8cbc
000000f0: 2f6e 14bc 5424 a83b 872f 593b 1d92 0f3d
00000100: 3499 a03b 0a63 b7bb 2197 f53c d511 dcbc
00000110: 4212 16bd 91b8 29bb 9eb4 e1bb 09ba d43c
00000120: d508 88bc a45c 65bd fa84 93bb 49d9 abba
00000130: ea18 f4bc 7f92 98bc 16be 523b 82ae 833c
00000140: b266 92bc be7d b7bc de21 5dbc 96f0 34bc
00000150: 9142 983c 058a 853c b41d 11bb e553 d0bc
00000160: 53ef c3bc c57e 593b 1b51 d63b d326 82bc
00000170: 9565 3c3b f646 393c 507f b0ba c61c 343c
00000180: 3dbf 1bbc 8a11 9dbc 2bcb f0bc cfa9 903c

decodernorms.0.running_mean f4 [100]
0.47248062 0.34701574 0.46925116 0.4914372 0.53828615 0.18708968 0.4264959 0.42245677
0.26955613 0.525396 0.35567504 0.28261486 0.27882445 0.35658792 0.46081522 0.57125825
0.4136212 0.5323885 0.42605168 0.26093888 0.35009375 0.3134909 0.37535512 0.28799298
0.5552642 0.41187087 0.29608715 0.43919796 0.5021032 0.44356167 0.3317253 0.25025174
0.6090253 0.47007042 0.3011406 0.39026123 0.2999083 0.35610548 0.46599606 0.24741273
0.2798482 0.25310814 0.32043594 0.39102188 0.25247818 0.3002509 0.643588 0.33615205
0.33094245 0.57278776 0.3887531 0.6944195 0.37890238 0.40413395 0.14025362 0.50529927
0.6212331 0.4683911 0.38786107 0.23287049 0.20547515 0.65686965 0.35926348 0.5600012
0.46306542 0.22578208 0.2714883 0.3478775 0.3387752 0.37366343 0.48099095 0.3392729
0.46252313 0.5188782 0.33786297 0.41270068 0.22264089 0.49618074 0.43134317 0.34002215
0.2493519 0.38690627 0.42727414 0.6247947 0.39461532 0.49608564 0.340434 0.16050331
0.6275022 0.30748087 0.2736017 0.33588016 0.45409852 0.41826496 0.34833694 0.4240547
0.3407263 0.2717173 0.5149069 0.58340275
00000000: fbe8 f13e 0cac b13e b041 f03e a89d fb3e
00000010: 1fcd 093f 7094 3f3e ac5d da3e 414c d83e
00000020: 4303 8a3e 5a80 063f 0a1b b63e e5b2 903e
00000030: 14c2 8e3e b192 b63e f9ef eb3e fb3d 123f
00000040: 28c6 d33e 9d4a 083f 7223 da3e c899 853e
00000050: 7d3f b33e e181 a03e 8c2e c03e d173 933e
00000060: cb25 0e3f bde0 d23e bc98 973e 8ede e03e
00000070: d689 003f 841a e33e e6d7 a93e ff20 803e
00000080: 15e9 1b3f 12ad f03e 1a2f 9a3e 52d0 c73e
00000090: 958d 993e 7553 b63e 0997 ee3e c359 7d3e
000000a0: 4348 8f3e 6497 813e 2e10 a43e 0534 c83e
000000b0: d244 813e 7cba 993e 2fc2 243f 1f1c ac3e
000000c0: 4a71 a93e 38a2 123f a50a c73e 7ac5 313f
000000d0: 7eff c13e a5ea ce3e a59e 0f3e 4b5b 013f
000000e0: 2209 1f3f f5d0 ef3e ba95 c63e 9a75 6e3e
000000f0: 1468 523e 9c28 283f 62f1 b73e 3d5c 0f3f
00000100: e916 ed3e 6b33 673e 8400 8b3e 001d b23e
00000110: f173 ad3e d050 bf3e 7244 f63e 2db5 ad3e
00000120: d5cf ec3e 34d5 043f 60fc ac3e 814d d33e
00000130: f9fb 633e 670b fe3e 03d9 dc3e 6217 ae3e
00000140: 1b56 7f3e 9418 c63e adc3 da3e 8cf2 1f3f
00000150: 050b ca3e f0fe fd3e 5e4d ae3e fb5a 243e
00000160: fca3 203f 226e 9d3e 8615 8c3e 7cf8 ab3e
00000170: 9a7f e83e d326 d63e 3859 b23e b31d d93e
00000180: ad73 ae3e 881e 8b3e f0d0 033f e259 153f

decodernorms.0.running_var f4 [100]
0.56433505 0.3263772 0.49963838 0.4449942 0.589887 0.17923617 0.41372314 0.30233338
0.19872868 0.48827276 0.3336099 0.29125983 0.2296606 0.36405662 0.39094988 0.7835309
0.4653229 0.47149527 0.37811905 0.29170159 0.33567363 0.3101752 0.36444712 0.34640214
0.7511475 0.5312015 0.2593057 0.5400568 0.5905455 0.5094709 0.28799996 0.20928715
0.949707 0.63157296 0.23417394 0.3350656 0.30622026 0.3183761 0.41634378 0.1962876
0.25089425 0.1999916 0.34050137 0.39682832 0.26281062 0.29283264 0.67126113 0.22348216
0.3127061 0.66244984 0.42979205 0.9175258 0.3817635 0.3671823 0.093062036 0.42298612
0.64867944 0.3412119 0.37915018 0.19024545 0.17555018 0.84960055 0.2664393 0.6996763
0.4220454 0.15741518 0.17735587 0.3475645 0.30453172 0.39522606 0.45223585 0.2778812
0.36779025 0.77240944 0.3138889 0.46029812 0.24823219 0.61404663 0.3865713 0.32348344
0.15258504 0.45342332 0.54041004 0.7720948 0.4979303 0.50619626 0.226595 0.1073769
0.7629333 0.30623403 0.30972493 0.26855534 0.46962866 0.48840532 0.4772884 0.42085752
0.31669372 0.25300062 0.5673002 0.6982657
00000000: 4378 103f ea1a a73e 9ad0 ff3e 48d6 e33e
00000010: d602 173f b089 373e 85d3 d33e 71cb 9a3e
00000020: 887f 4b3e e3fe f93e ebce aa3e 0220 953e
00000030: 262c 6b3e a165 ba3e 952a c83e 7b95 483f
00000040: ce3e ee3e d467 f13e d298 c13e e959 953e
00000050: 6add ab3e 49cf 9e3e d098 ba3e 9f5b b13e
00000060: 344b 403f d2fc 073f b7c3 843e 2a41 0a3f
00000070: fd2d 173f af6c 023f bb74 933e 5f4f 563e
00000080: ff1f 733f c4ae 213f 4bcb 6f3e b88d ab3e
00000090: e7c8 9c3e 3102 a33e 032b d53e 9eff 483e
000000a0: 3675 803e 99ca 4c3e 3256 ae3e 152d cb3e
000000b0: 1d8f 863e 29ee 953e c5d7 2b3f 82d8 643e
000000c0: 041b a03e 5096 293f b40d dc3e f9e2 6a3f
000000d0: 8176 c33e 52ff bb3e 4f97 be3d a391 d83e
000000e0: db0f 263f 53b3 ae3e f91f c23e b4cf 423e
000000f0: 6dc3 333e 6c7f 593f bb6a 883e fc1d 333f
00000100: 5616 d83e 7231 213e c79c 353e f9f3 b13e
00000110: 95eb 9b3e 125b ca3e 758b e73e 7246 8e3e
00000120: 014f bc3e a0bc 453f 0cb6 a03e 32ac eb3e
00000130: 9430 7e3e 2932 1d3f acec c53e 9f9f a53e
00000140: 413f 1c3e 1a27 e83e 5058 0a3f 01a8 453f
00000150: b8f0 fe3e 1496 013f 8508 683e 6ce8 db3d
00000160: 994f 433f b5ca 9c3e 4494 9e3e 1680 893e
00000170: 2b73 f03e 4310 fa3e 255f f43e a37a d73e
00000180: ae25 a23e 4c89 813e 963a 113f 8ac1 323f

mu.weight f4 [10, 100]
-0.055289336 0.07249418 -0.06476763 -0.027879672 0.06400283 0.01737054 -0.081481494 0.035032958
0.05950521 0.13273774 -0.026149321 0.109228685 0.13229528 0.056515582 0.0001812377 -0.07941932
-0.011868635 -0.015869949 0.026010958 -0.062684245 0.005637284 -0.09140317 -0.008062242 0.015256807
-0.044316586 0.041179303 0.087522954 0.024273554 -0.07398478 0.037982717 0.07330876 -0.039564095
0.031371854 -0.05999238 0.07847576 -0.026405266 -0.104546055 0.04042646 0.032530874 -0.07734797
-0.054002322 0.0929473 -0.058187723 0.08844521 0.050713833 -0.056713462 0.088653326 0.034440406
0.068743154 0.105211996 0.14436907 -0.080857314 0.03113293 -0.04226248 0.047376063 0.13944632
0.08644989 0.12676525 -0.06817351 -0.09529579 -0.09034017 0.027445186 0.11629604 -0.081149206
-0.028422026 0.06607416 0.047279403 -0.04139468 0.07169462 0.100872 0.1287937 -0.18202245
-0.07234391 0.08278323 0.031373236 -0.07590648 -0.06337704 -0.11275348 -0.050012834 0.040648416
-0.07528429 -0.094398655 0.074655496 -0.006927477 -0.08025849 -0.018072937 -0.15976249 0.08112903
0.06553044 0.017102672 0.010276022 -0.0006565082 -0.11869252 -0.110122 0.054551903 -0.09239743
-0.049541548 -0.044043668 0.03860755 0.04320541 0.073864274 -0.052525356 0.10555979 0.0680169
-0.052221004 0.115065664 0.008210903 0.04505162 0.054964468 0.047368478 -0.07374349 -0.09575094
-0.009792628 -0.021142868 -0.027018601 0.034979455 -0.0044977507 0.007498304 0.07478506 0.064244054
-0.065030694 0.14595789 0.008851588 -0.06259309 0.11971739 0.025916276 -0.109658 0.10533612
0.06908559 0.04351888 0.09264936 -0.07767327 -0.093868904 0.12936686 -0.09402658 -0.024927357
-0.05216886 -0.078778535 0.11162352 0.007866968 -0.06416008 0.0057156524 -0.14043453 0.08043777
0.0677324 0.09102203 0.10694982 0.090002544 -0.02769701 0.04511308 0.019382218 0.10037401
-0.11233327 -0.041122895 0.07236514 -0.0017110556 0.072349116 0.07099552 0.05552982 -0.09828535
0.09828205 0.00836029 0.10334684 0.049899314 0.062674396 -0.0067303735 0.01447183 -0.0894818
0.08750336 0.11937516 0.09099734 -0.06985697 0.015825925 -0.06086064 0.0014939965 0.015697986
-0.008418316 -0.025100565 0.07754421 0.14460899 -0.037596546 0.072384045 -0.091631494 -0.045825463
0.08351274 0.06909257 0.028715366 -0.09707447 -0.10082096 0.082181804 0.042144835 -0.042811375
-0.016732523 0.010805229 0.092612736 0.011281897 0.037381295 0.057217125 -0.06998372 -0.12515114
-0.12149043 0.06062713 -0.08552092 0.05159649 -0.027397703 0.12986627 0.073828205 -0.090756916
0.065074645 0.064523146 0.009610857 0.04356128 -0.0022812083 -0.029973404 -0.13537787 -0.052425317
0.06338613 -0.041677296 -0.036410473 0.0521131 0.018889835 0.020100813 0.069134325 0.034155644
0.030783359 -0.07168595 0.08593597 -0.07344659 -0.12137203 0.1096613 0.13165598 0.07490692
-0.096142076 0.109071344 -0.039664965 0.046198163 -0.11147104 0.06266682 -0.022913458 0.09743141
-0.011747439 0.0787947 -0.05980323 -0.027005792 0.07934077 -0.029289735 -0.007069623 -0.027275499
-0.007816928 -0.09695135 -0.064385444 -0.062153988 -0.08073819 -0.057260413 0.058067065 0.032250136
00000000: 1277 62bd d477 943d e4a4 84bd e963 e4bc
00000010: ea13 833d aa4c 8e3c c5df a6bd b87e 0f3d
00000020: bcbb 733d 67ec 073e 1a37 d6bc 4ab3 df3d
00000030: 6a78 073e e27c 673d a00a 3e39 99a6 a2bd
00000040: aa74 42bc b201 82bc ef14 d53c 9960 80bd
00000050: f7b8 b83b 9631 bbbd 7e17 04bc b0f7 793c
00000060: 4f85 35bd a1ab 283d 3c3f b33d 55d9 c63c
00000070: 5585 97bd c493 1b3d e722 963d f60d 22bd
00000080: c67f 003d 92ba 75bd e6b7 a03d db4f d8bc
00000090: 3e1c d6bd 3796 253d 183f 053d 9d68 9ebd
000000a0: 8a31 5dbd 275b be3d 4056 6ebd c322 b53d
000000b0: 4fb9 4f3d 604c 68bd e08f b53d 6211 0d3d
000000c0: 36c9 8c3d 6379 d73d 7cd5 133e 8598 a5bd
000000d0: 7d0a ff3c 6c1b 2dbd 670d 423d 04cb 0e3e
000000e0: a40c b13d c0ce 013e 8e9e 8bbd 702a c3bd
000000f0: 4404 b9bd bad4 e03c 9e2c ee3d 8e31 a6bd
00000100: 4fd5 e8bc e451 873d 0ca8 413d 788d 29bd
00000110: a1d4 923d fb95 ce3d 7fe2 033e 1864 3abe
00000120: 0b29 94bd 418a a93d 3981 003d db74 9bbd
00000130: d2cb 81bd 4ceb e6bd 42da 4cbd f47e 263d
00000140: a62e 9abd 1554 c1bd fbe4 983d e4ff e2bb
00000150: 905e a4bd b20d 94bc c798 23be fa26 a63d
00000160: d334 863d e71a 8c3c c35c 283c 8519 2cba
00000170: 1015 f3bd a587 e1bd d171 5f3d dd3a bdbd
00000180: 14ec 4abd 2267 34bd f322 1e3d 28f8 303d
00000190: 2746 973d d424 57bd bb2f d83d 724c 8b3d
000001a0: b1e5 55bd 8ca7 eb3d 0687 063c 0c88 383d
000001b0: 6c22 613d 7305 423d d406 97bd 1219 c4bd
000001c0: 4271 20bc cf33 adbc 1d56 ddbc 9e46 0f3d
000001d0: de61 93bb 55b4 f53b e928 993d 6392 833d
000001e0: d02e 85bd fc75 153e 4006 113c ce30 80bd
000001f0: 642e f53d 5f4e d43c 6094 e0bd 77ba d73d
00000200: bf7c 8d3d da40 323d f3be bd3d 2a13 9fbd
00000210: 573e c0bd bf78 043e 0291 c0bd 7534 ccbc
00000220: 04af 55bd a456 a1bd df9a e43d 75e4 003c
00000230: 5c66 83bd 5e4a bb3b 12ce 0fbe 8fbc a43d
00000240: 49b7 8a3d c269 ba3d 8208 db3d 4153 b83d
00000250: d7e4 e2bc 7ec8 383d 75c7 9e3c e490 cd3d
00000260: fc0e e6bd 7b70 28bd 2d34 943d 8045 e0ba
00000270: c62b 943d 1966 913d 3d73 633d d449 c9bd
00000280: 1948 c93d 99f9 083c 82a7 d33d 3963 4c3d
00000290: 6f5b 803d 778a dcbb 411b 6d3c 3c42 b7bd
000002a0: f634 b33d f77a f43d d05c ba3d 2c11 8fbd
000002b0: 5fa5 813c 0249 79bd 34d2 c33a 1099 803c
000002c0: faec 09bc b39f cdbc 80cf 9e3d 6114 143e
000002d0: d6fe 19bd 163e 943d 4ba9 bbbd 7bb3 3bbd
000002e0: ba08 ab3d 6880 8d3d 7d3c eb3c fbce c6bd
000002f0: 387b cebd ef4e a83d 10a0 2c3d fb5a 2fbd
00000300: a512 89bc 6a08 313c bfab bd3d b5d7 383c
00000310: 211d 193d 815c 6a3d a053 8fbd 9f27 00be
00000320: f9cf f8bd 2754 783d 9825 afbd d756 533d
00000330: 2671 e0bc aafb 043e 3e33 973d c3de b9bd
00000340: db45 853d b624 843d db76 1d3c 506d 323d
00000350: 5380 15bb c98a f5bc 7fa0 0abe eebb 56bd
00000360: 96d0 813d d0b5 2abd 2623 15bd 8c74 553d
00000370: dbbe 9a3c 76aa a43c 4c96 8d3d cae6 0b3d
00000380: 622d fc3c 15d0 92bd 33ff af3d 2a6b 96bd
00000390: e691 f8bd 1b96 e03d d3d0 063e cd68 993d
000003a0: 23e6 c4bd cc60 df3d bb77 22bd 493a 3d3d
000003b0: ee4a e4bd 7657 803d 01b5 bbbc 1e8a c73d
000003c0: 5578 40bc 1e5f a13d 3bf4 74bd 403b ddbc
000003d0: 6a7d a23d 07f1 efbc 4ca8 e7bb de70 dfbc
000003e0: 9312 00bc 6e8e c6bd 84dc 83bd 2e95 7ebd
000003f0: 105a a5bd e589 6abd bbd7 6d3d b818 043d

mu.bias f4 [10]
-0.08690416 0.014232553 0.011380449 -0.07651339 -0.09350213 -0.06385155 -0.06876626 0.043349262
-0.083724156 -0.107701086
00000000: cffa b1bd a72f 693c 1075 3a3c 0db3 9cbd
00000010: 0b7e bfbd 9ac4 82bd 53d5 8cbd ff8e 313d
00000020: 9277 abbd 6392 dcbd

var.weight f4 [10, 100]
0.065692864 0.086514466 0.0042396127 0.0066147903 -0.0039339876 -0.04514881 -0.0018047678 -0.05744154
-0.09058073 -0.05726677 0.017834567 0.023205027 -0.06471464 -0.06674887 -0.07206617 -0.008702921
0.07398954 0.0044083702 -0.026874494 0.024998946 -0.029611908 -0.03083825 -0.058851372 0.026352825
-0.035389733 0.09407507 -0.0052995435 0.01805922 -0.0808848 -0.034046844 0.076692425 -0.028971368
0.046158303 0.0721778 0.08931613 0.00974437 0.029978368 -0.09521074 0.009308345 -0.033138126
0.069624744 0.03442764 -0.078806564 0.047925938 -0.03457831 0.027860437 -0.0457254 0.06880522
0.071919076 -0.0014292983 -0.013070665 0.10794972 0.08769087 0.061530937 -0.06407134 -0.069145866
0.005233449 0.016806383 0.0787106 0.06464608 0.073877774 0.0034874815 -0.016948098 0.047915928
-0.060678717 0.02688322 -0.08607248 -0.094811596 -0.05176543 0.0034390741 0.08476071 -0.07892536
-0.079585314 -0.08824753 -0.03383286 -0.0010240661 0.032078676 0.035931036 -0.047461912 0.04140039
-0.0021003194 -0.017047668 0.07093847 0.01582672 -0.053947028 0.04255287 -0.029034724 -0.060189676
0.016801279 0.067068174 -0.023617696 0.017226899 0.019134447 -0.047347676 -0.04996605 -0.0014670258
0.105451666 -0.08569911 0.09808765 0.02860347 -0.0019972518 -0.09592095 -0.0071512274 -0.07405797
-0.10784077 0.005699636 -0.059196956 0.045228045 0.029294668 0.033009272 0.01928578 0.028363945
0.09756236 -0.026077522 -0.033533327 0.007228984 0.025492184 -0.012750966 0.02817642 -0.09132286
0.07188426 0.009832622 0.077869534 0.105401695 -0.023811448 0.01994945 0.01837423 0.043229543
-0.024414448 0.055677243 -0.017618326 -0.060955063 -0.044875666 -0.011620347 -0.009489354 0.031888574
-0.05135337 -0.03692032 -0.020863978 0.09065504 -0.022565184 -0.03454563 -0.07677301 0.052245714
-0.021450434 0.023748737 -0.009833451 0.08210687 0.09824872 0.046897896 0.05959959 -0.02736872
0.015220068 0.047726966 -0.06829765 0.02041202 0.03965768 -0.09255316 0.017381608 -0.05719217
-0.0094380155 -0.069290936 -0.050289992 -0.023323204 0.06839233 0.026109708 -0.045137577 -0.068901636
-0.04163757 -0.07355593 -0.021446856 0.07674515 0.030631617 -0.0034946399 0.028289096 0.03984437
-0.05626442 0.010094046 0.0013279034 -0.04776373 -0.02955318 0.059326485 0.019407455 -0.0791079
0.056701228 0.06578454 0.065620825 0.008032053 -0.027254108 0.0009839402 0.08423609 0.041151043
0.03463987 -0.059053008 0.06715862 0.08184929 -0.059434086 -0.077336065 0.052199814 0.015069258
0.06890737 -0.09536127 0.085989356 0.06901796 0.017966561 0.04627831 0.035519168 0.09089736
-0.032240603 -0.03433549 -0.06483397 0.018178588 -0.03737723 -0.06251524 0.025323093 0.062188074
0.07532363 -0.016652517 -0.06171817 -0.030448936 -0.075851105 0.0014078766 -0.045660697 0.015015451
-0.0011517976 0.04474738 0.019860255 -0.06953432 -0.014113363 0.09055911 -0.045057967 0.056338567
0.0084168 -0.067513146 -0.014012593 0.10172975 0.08249044 0.048109677 0.009350081 -0.0021088065
-0.04011136 -0.074373275 0.07534428 0.018668635 0.034738902 0.08657349 -0.0264651 -0.014095826
-0.07332127 -0.0582048 0.09260237 -0.065713346 0.010682147 -0.10769795 -0.08187531 -0.011216463
00000000: fb89 863d 7f2e b13d 73ec 8a3b e2c0 d83b
00000010: aee8 80bb f5ed 38bd f58d ecba d247 6bbd
00000020: 6482 b9bd 9090 6abd cc19 923c 7818 be3c
00000030: 1c89 84bd a2b3 88bd 6e97 93bd b296 0ebc
00000040: d487 973d 1774 903b e627 dcbc 97ca cc3c
00000050: ac94 f2bc 7fa0 fcbc 230e 71bd e1e1 d73c
00000060: d3f4 10bd 6eaa c03d cba7 adbb eef0 933c
00000070: eea6 a5bd b474 0bbd eb10 9d3d 5d55 edbc
00000080: 7d10 3d3d f4d1 933d 60eb b63d daa6 1f3c
00000090: 3295 f53c d9fd c2bd 0782 183c d8bb 07bd
000000a0: 6b97 8e3d ff03 0d3d 5665 a1bd fd4d 443d
000000b0: fca1 0dbd 923b e43c 8f4a 3bbd c0e9 8c3d
000000c0: 4f4a 933d 4b57 bbba 5826 56bc be14 dd3d
000000d0: 4597 b33d dd07 7c3d d637 83bd 599c 8dbd
000000e0: 5a7d ab3b 8aad 893c 0633 a13d 2a65 843d
000000f0: 3b4d 973d 3b8e 643b bdd6 8abc 7e43 443d
00000100: 3f8a 78bd 333a dc3c c546 b0bd 952c c2bd
00000110: fd07 54bd 1762 613b 0697 ad3d 9fa3 a1bd
00000120: a0fd a2bd 1fbb b4bd 5394 0abd f539 86ba
00000130: ee64 033d 6c2c 133d 6c67 42bd 7593 293d
00000140: 83a5 09bb 8da7 8bbc 3048 913d 0aa7 813c
00000150: 8ff7 5cbd eb4b 2e3d 3bda edbc 7389 76bd
00000160: d6a2 893c 0a5b 893d e679 c1bc 6d1f 8d3c
00000170: d8bf 9c3c a3ef 41bd 33a9 4cbd 3849 c0ba
00000180: 0bf7 d73d 0483 afbd 2ee2 c83d d351 ea3c
00000190: 53e4 02bb 3472 c4bd d854 eabb b4ab 97bd
000001a0: 9fdb dcbd 03c4 ba3b 8278 72bd 0b41 393d
000001b0: 5ffb ef3c bb34 073d 36fd 9d3c 815b e83c
000001c0: c6ce c73d 87a0 d5bc 3e5a 09bd 1de1 ec3b
000001d0: fcd4 d03c 6de9 50bc 3cd2 e63c 7b07 bbbd
000001e0: 0e38 933d 0119 213c 107a 9f3d d8dc d73d
000001f0: 3a10 c3bc 076d a33c 8e85 963c 7611 313d
00000200: cf00 c8bc d20d 643d 4f54 90bc 04ac 79bd
00000210: 8ccf 37bd 4563 3ebc 3c79 1bbc 989d 023d
00000220: e957 52bd c339 17bd efea aabc 5aa9 b93d
00000230: 9fda b8bc b87f 0dbd 2b3b 9dbd 9aff 553d
00000240: d2b8 afbc b68c c23c 7c1c 21bc a627 a83d
00000250: a036 c93d 0218 403d b31e 743d 5e34 e0bc
00000260: 985d 793c 5a7d 433d a3df 8bbd 1c37 a73c
00000270: 1770 223d 838c bdbd e063 8e3c 5642 6abd
00000280: e8a1 1abc 68e8 8dbd e1fc 4dbd 4e10 bfbc
00000290: 4711 8c3d 07e4 d53c 2ee2 38bd 4d1c 8dbd
000002a0: 288c 2abd 7ea4 96bd 51b1 afbc 902c 9d3d
000002b0: 28ef fa3c 5406 65bb 89be e73c da33 233d
000002c0: 8575 66bd 7f61 253c 0b0d ae3a e7a3 43bd
000002d0: 8319 f2bc 5400 733d 62fc 9e3c 5303 a2bd
000002e0: 8c3f 683d 0bba 863d 3664 863d df98 033c
000002f0: 0244 dfbc 8ef7 803a f983 ac3d ff8d 283d
00000300: 89e2 0d3d 91e1 71bd 758a 893d 9aa0 a73d
00000310: 2871 73bd 5f62 9ebd 79cf 553d 0de5 763c
00000320: 4f1f 8d3d c54c c3bd 301b b03d 4a59 8d3d
00000330: 9c2e 933c 538e 3d3d 8c7c 113d 6528 ba3d
00000340: b90e 04bd 5fa3 0cbd acc7 84bd 43eb 943c
00000350: de18 19bd fd07 80bd 6072 cf3c ecb8 7e3d
00000360: 4643 9a3d dc6a 88bc 31cc 7cbd 0c70 f9bc
00000370: d357 9bbd 8088 b83a b606 3bbd 5e03 763c
00000380: eaf7 96ba 0749 373d f9b1 a23c 0268 8ebd
00000390: bc3b 67bc 0e77 b93d b48e 38bd 45c3 663d
000003a0: 9ee6 093c 5544 8abd 1395 65bc b057 d03d
000003b0: bff0 a83d a70e 453d 1531 193c e733 0abb
000003c0: cf4b 24bd 0451 98bd 1a4e 9a3d f7ee 983c
000003d0: 614a 0e3d 714d b13d 56cd d8bc 2ef2 66bc
000003e0: 7629 96bd 2868 6ebd 50a6 bd3d b894 86bd
000003f0: 2c04 2f3c be90 dcbd 3eae a7bd 41c5 37bc

var.bias f4 [10]
-0.11006179 -0.14797369 -0.012050049 -0.025984881 -0.11629016 -0.120644405 -0.14651683 -0.17647709
-0.1982981 -0.042123772
00000000: 1368 e1bd 6a86 17be 926d 45bc 3fde d4bc
00000010: 8929 eebd 6a14 f7bd 8208 16be 69b6 34be
00000020: a80e 4bbe fa89 2cbd
