tutorial/data/test_small/interim_data_test/models/model_10_7.pt (torch, 78251 bytes, 18 tensors)

encoderlayers.0.weight f4 [100, 70]
00000000: 43ad 523c aaea f5bd 5f9b d9bd ed7b e93d
00000010: 590d 1e3d 1cd6 d13d 712e 9a3d 8850 94bd
00000020: d9ed a13d 6057 d1bc 8385 853c baf0 073c
00000030: d00e 853d 66ef 8abd 2d4a 28bd 7ccf 79bc
00000040: a487 83b8 b9f2 a03d b2dd 6ebc 6755 e23d
00000050: aec6 f6bd d8da dbbd 2d84 633a cb0a 02bd
00000060: 3924 3f3d dbd1 353d a574 0c3c f479 89bd
00000070: 482d cdbd 10e6 2c3d d8e7 923d 0ca3 a53d
00000080: 611e b0bd 5ff2 d9bd dcd2 51bd cbfe b3bd
00000090: ee42 a6bd 0137 343d 2814 84bd c14f e0bd
000000a0: f643 a63d 9293 1b3d ee9f 353d a0ca 75bc
000000b0: 1c59 cd3d 8970 183d bef1 fd3d 63ec 913d
000000c0: 2203 733d 47d1 593d b5f4 80bd 3f37 a43d
000000d0: e7ff c63d 886d e93c bb93 a73b 0f9c 513d
000000e0: 871e 4dbd c22b 163d aabc 8fbd ca29 e03d
000000f0: c4a0 d6bd c06e b6bd 7834 b43c 1c01 1c3d
00000100: a499 17bd 2645 ecbd 8817 a9bd 7a5c 083d
00000110: 63ff 8f3d cba5 063d ca1f 99bd f08a e6bd
00000120: 6332 243d 756d a3bd cfb3 5b3d beeb 2ebe
00000130: 598b 56bd 98ba 183e b29b ad3d eb02 bdbd
00000140: 9c53 1bbd e514 84bd 25c8 e8bb 8545 77bd
00000150: 2aee bb3d c2b9 c63c 87ab 67bd ea03 8e3c
00000160: f886 29bc 2553 83bc 99b8 6a3c c78e ba3d
00000170: 444e 893d 3ba6 723d 5052 ad3d d320 8b3d
00000180: cb41 5e3d 7218 66bd 376b ad3d ff77 473d
00000190: fa16 bfbd ca5c ca3d b578 7d3d cd42 f23d
000001a0: 14a1 9cbc 1972 b13d 9a56 8cbd d40b 9e3d
000001b0: 718b 5b3d 16ed 7d3d 9f28 de3b 70ca ac3d
000001c0: 4137 c8bd 7f26 d9bd 991d 9bbc 390f 273d
000001d0: 8406 343d b1a6 bfbd 7582 7d3d f35f 6cbc
000001e0: d220 14bd 1c53 803b 8772 5a3d 4ca6 5abc
000001f0: 2217 01bd 2614 d63d 7fe4 e43d a2df 413d
00000200: 99b8 ab3d aad9 79bd 760d bcbd 506e 5c3d
00000210: 5a34 babd cc0a d4bd 1339 9a3d bca3 b1bd
00000220: 2537 00bd f9e2 2cbd 6df6 a43d eaa5 82bd
00000230: f66c eb3d 392d a9bd 9b56 bbbd 2ce7 2c3c
00000240: 6094 403d 0b98 73bd 2ea8 a93b e49f 123d
00000250: a68f 943c 64e4 d4bd 47e6 77bd 08d7 52bc
00000260: f09a 92bd 8540 2dbc 0733 a43d 265e 493d
00000270: 1384 84bd 84c9 60bd d104 463d 2e27 323d
00000280: 5100 1dbd 765e 863d fdf5 dfbd ddc5 83bd
00000290: ebc3 c3bd 0b5d 0c3d edab c0bd a1e6 1fb9
000002a0: 184c 543d bba1 c03d ebb9 2cbb 6748 653d
000002b0: 93dc 183d bc2b 08bc 5e0c 6f3d 5acb e0bc
000002c0: 883f f43d 2fcf 963d 5665 873d b08b 14bd
000002d0: e9a8 f23d 8b5b 63bc 80b5 de3b fac8 b63d
000002e0: c890 e1bd eea6 a8bd 213f 363d ad80 983d
000002f0: 9b5c e53b fe9c 7dbd 6910 d33d 853e ad3d
00000300: 65d4 60bd 1849 eebd 6768 ec3d ad4d 1b3c
00000310: f70f 4f3c 1844 b93d be00 103d 602b c9bc
00000320: 98ee d3bd 7f71 8dbc b19b 9f3d 6143 82bd
00000330: b345 e4bd a5d1 e8bd 75ab 113d ef47 fcbd
00000340: e11d 76bd 78e4 4ebd 6cf2 cdbd d31d ad3d
00000350: 5437 f13c 071d abbd fcff 963a 62b6 d1bc
00000360: a5f1 c43d 74f8 00bd 8dec a4bc c191 41bd
00000370: df90 113c a1db f4bc a677 8a3c 9efb d0bb
00000380: d8d4 b43d e9f9 853d ad63 8ebc e1ed dcbc
00000390: 3ecf a73c f20a ebbd 00b8 46bd 8b0b e3bd
000003a0: 8145 8d3d db5b 85bd a08c c7bd 4215 e0bc
000003b0: d647 d83d ec08 fbbc 1b16 c43c 9cfe 3cbd
000003c0: 16f7 e6bd 7c23 f3bc 427e 123d 9cff d63d
000003d0: 52b3 ae3d 907c 4bbd bf4b b43d ca25 dd3d
000003e0: f0be 033c b675 c7bb 7c4f 40bc 283d 753d
000003f0: 87e0 46bd 7cbc d0bd b3f1 b0bb 9124 8c3d
0.012858692 -0.12007649 -0.10625338 0.1140059 0.038586948 0.10245916 0.07528389 -0.072419226
0.07906694 -0.025554359 0.016299015 0.00829714 0.06496966 -0.06783943 -0.041086365 -0.015247222
-6.271832e-05 0.07858796 -0.0145792235 0.110514455 -0.12049614 -0.107351005 0.00086790585 -0.031748574
0.046665404 0.044389587 0.008572732 -0.06712714 -0.10018402 0.042211592 0.07173127 0.08087739
-0.08599544 -0.10641932 -0.05122648 -0.08788832 -0.081182346 0.04399777 -0.06449157 -0.10952712
0.08118431 0.03798253 0.044341974 -0.015001923 0.10026762 0.037216697 0.12399624 0.07125165
0.05932916 0.053178098 -0.06296674 0.0801835 0.09716778 0.028494611 0.0051140464 0.05117422
-0.05007794 0.036662824 -0.07018407 0.10945471 -0.10479882 -0.08907843 0.021997675 0.038086995
-0.037011757 -0.115366265 -0.08256441 0.033291318 0.07031133 0.032872956 -0.074767664 -0.11256969
0.040087115 -0.07979862 0.053638276 -0.17082116 -0.052378986 0.1491493 0.08476962 -0.09229072
-0.037921533 -0.06449298 -0.007103937 -0.060369033 0.091762856 0.024258498 -0.056560066 0.01733585
-0.01034712 -0.016030857 0.014326238 0.09109264 0.06704381 0.05924056 0.084629655 0.0679337
0.054261964 -0.056175657 0.08467715 0.04869842 -0.09330554 0.09880979 0.061882693 0.118291475
-0.019119777 0.086643405 -0.068524554 0.077171 0.05359978 0.06199368 0.0067797448 0.084370494
-0.09776164 -0.10603046 -0.018935012 0.040786 0.043951526 -0.09357966 0.06189199 -0.014427173
-0.036164112 0.0039161574 0.053331878 -0.013345312 -0.0315162 0.10453062 0.11176395 0.047332413
0.083848186 -0.060998596 -0.09182255 0.05381614 -0.090920165 -0.10353622 0.07530417 -0.08673808
-0.03130259 -0.042208645 0.080548145 -0.06379302 0.11495392 -0.08260579 -0.09147378 0.010553163
0.0470165 -0.05947117 0.0051775193 0.035797015 0.018134903 -0.103951246 -0.060522344 -0.01286865
-0.07158458 -0.010574465 0.08017545 0.049162053 -0.06470504 -0.05487968 0.048344437 0.043494396
-0.03833038 0.06560986 -0.109355904 -0.06434224 -0.09558853 0.03426842 -0.09407792 -0.00015249338
0.05183038 0.09405848 -0.0026355933 0.05597725 0.03731973 -0.008311208 0.058361404 -0.027440716
0.1192618 0.07363736 0.06611125 -0.03626603 0.11848623 -0.013876806 0.006796539 0.08925052
-0.11013943 -0.08234964 0.0444938 0.07446418 0.006999565 -0.061917298 0.10305864 0.0845919
-0.054890055 -0.11635035 0.11543351 0.009478969 0.012638084 0.09046191 0.035156958 -0.024556816
-0.103482425 -0.017266033 0.07793368 -0.06360508 -0.111461066 -0.113681115 0.035563905 -0.12318408
-0.06008709 -0.050510854 -0.10056004 0.08452954 0.029445328 -0.08355146 0.0011520381 -0.025599662
0.096164025 -0.031486943 -0.020132327 -0.047258142 0.008884638 -0.029889883 0.016902756 -0.0063776514
0.08829659 0.06541807 -0.017381513 -0.026968898 0.020484563 -0.11476697 -0.04851532 -0.11086186
0.068980224 -0.06511661 -0.09743619 -0.027353887 0.105605766 -0.030643903 0.023936322 -0.046141252
-0.11277597 -0.029680006 0.03576494 0.10497972 0.085302964 -0.04967934 0.0880351 0.10798223
0.0080411285 -0.0060870303 -0.011737701 0.059872776 -0.04855397 -0.101922005 -0.0053999065 0.06842912

encoderlayers.0.bias f4 [100]
00000000: 80be 7a3d 66c7 a63d f501 513d bd6a 2bbd
00000010: 7304 de3c 6f21 7e3d 1535 45bb 129f 6cbd
00000020: 3d9e fcbb d465 5d3c 7d1f 983d fd3f 503d
00000030: d36c 2b3c 182f 26bb 7017 ac3d a2f1 2dbd
00000040: 7496 88bc 8310 febd a6ec 02bd 9229 903d
00000050: 1a92 8b3d 6d68 be3c f3f6 513d 2260 f4bd
00000060: 3c1b 81bd 0e15 f2bd 09d3 3d3d bbfd 42bc
00000070: 553f c93c 0df2 d33d 9b6d 59bc ec62 ffbc
00000080: ed01 b53d 242b 823d 5652 b6bc 6b3f c9bd
00000090: 6e45 cc3d b1aa c6bd 4573 b03b 8bbf 94bd
000000a0: 9f26 a8ba 2c6b 933d 0142 9b3d 264a 42bd
000000b0: 1f4d a73c 997c b9bd a8ad a73d 2ec0 aabd
000000c0: 0a1e d13d 7469 b7bd d256 863b a674 90bd
000000d0: 25df cb3c 72ca 773d 9854 773d 6b13 08bd
000000e0: 8f20 f1bc c5ef dfbd 52ec 9f3d 7bab b33d
000000f0: 6302 ae3d 8508 e0bc 078d a73d c882 b93d
00000100: 03d0 c8bd 3b1e eb3d 01ed 87bd 93c5 d0bd
00000110: 2d35 b43d 4849 fe3c f028 55bd 0c81 973c
00000120: f436 9cbd 17f4 8ebc cf43 593c 1195 923c
00000130: f4e8 b33d 28a2 8b3c 19d6 b03c 14f7 923d
00000140: aad8 dfbd 5427 e73d 60d2 a93d e917 7e3d
00000150: 79ab 2cbd 432d cd3d 1ce8 9cbd 6198 db3c
00000160: d28f 11bc f810 24bd 1c8f 47bd dc8d aabd
00000170: 4342 aabd 769a 93bd 727b 863d ab34 d5bc
00000180: 29ae c03d 391c 983c 9466 d8bd 5739 d73d
0.06121683 0.08143501 0.051027257 -0.04184984 0.02710173 0.062043604 -0.0030091454 -0.05776889
-0.007709293 0.013513047 0.07427881 0.050842274 0.010462957 -0.002535766 0.08402908 -0.042466767
-0.016673304 -0.12405493 -0.031963967 0.07039179 0.06814976 0.023243153 0.0512609 -0.119323984
-0.06304023 -0.11820422 0.046343837 -0.011901314 0.024566332 0.10348902 -0.013270761 -0.0311751
0.08838258 0.06355885 -0.022256058 -0.09826549 0.0997418 -0.097005256 0.005384835 -0.072630964
-0.0012828893 0.07198176 0.075809486 -0.047433995 0.020422516 -0.09056968 0.08187419 -0.083374366
0.102108076 -0.089556605 0.0040997053 -0.07053499 0.024886677 0.0604958 0.06038341 -0.033221643
-0.02943447 -0.10934404 0.078087464 0.08772942 0.08496549 -0.027347812 0.08181196 0.09058148
-0.098053 0.114803754 -0.06637002 -0.10193934 0.08799205 0.031040803 -0.052040994 0.018494152
-0.07627669 -0.017450375 0.013260796 0.017893346 0.08784667 0.017045096 0.021586465 0.07176033
-0.10929997 0.11286798 0.08292079 0.06203452 -0.042155717 0.100183986 -0.07661459 0.026806058
-0.008884387 -0.040055245 -0.048720464 -0.08327839 -0.0831342 -0.072071955 0.06566514 -0.02602609
0.094082184 0.018568145 -0.1056644 0.105089836

encodernorms.0.weight f4 [100]
00000000: 7b06 863f 5b81 873f 0d83 873f e798 813f
00000010: 2974 863f 0e07 833f 6942 863f 92ee 853f
00000020: a543 833f 42d7 863f b247 813f 5564 823f
00000030: 4045 813f d530 843f 3079 813f b8a4 883f
00000040: 5b4f 833f 799a 823f baec 803f bf9e 833f
00000050: af73 813f 007c 853f fcbd 853f 7863 803f
00000060: e34f 853f 94e0 853f e12b 883f ce36 8a3f
00000070: a769 863f 3bb0 813f ee60 843f f6cd 7f3f
00000080: 05d5 803f 6f05 863f 9e7e 843f e3d1 863f
00000090: c158 863f c635 823f 2ed3 853f 1d79 843f
000000a0: f3e4 793f 5892 853f 37cf 843f 1c9d 813f
000000b0: 0f85 863f 6ed9 863f f092 833f 852a 813f
000000c0: 6271 863f 8335 803f 8f68 813f 010a 883f
000000d0: b9af 873f 5924 873f afc0 853f 951d 853f
000000e0: 73ea 823f 1ea2 7d3f 41f2 803f 08a7 833f
000000f0: 16c0 7a3f d90c 7a3f 4934 873f 6054 833f
00000100: ba51 823f 91cf 853f 0807 863f ed00 863f
00000110: f296 803f 5343 843f 09bc 873f b507 873f
00000120: bb6f 823f 5341 863f cdb5 833f 0848 863f
00000130: 3168 813f 36c9 893f e961 883f 9206 823f
00000140: ad08 873f fd96 853f d730 893f e76f 833f
00000150: 1ce6 883f 11d2 873f 0c27 803f 8684 833f
00000160: 4d0b 833f 2cfc 853f a8f7 823f 07c2 883f
00000170: 2337 803f d942 803f 8a98 813f 11f3 823f
00000180: 746c 843f 3809 833f 90fe 853f fcdb 863f
1.0470728 1.0586351 1.0586869 1.0124787 1.0504199 1.0236528 1.0489017 1.0463431
1.0255018 1.0534441 1.0100005 1.0186869 1.0099258 1.0327402 1.0115108 1.0675268
1.0258592 1.0203391 1.0072243 1.028282 1.0113429 1.0428467 1.0448604 1.0030355
1.0415004 1.0459161 1.0638391 1.0797975 1.0500993 1.0131906 1.034208 0.99923646
1.0065008 1.0470408 1.035114 1.0532802 1.0495836 1.017266 1.0455072 1.0349461
0.97614974 1.0435286 1.0375737 1.0126071 1.0509356 1.0535104 1.0279217 1.0091101
1.0503352 1.001633 1.0110034 1.0628053 1.0600501 1.0557967 1.0449427 1.0399653
1.0227798 0.99075496 1.007393 1.0285349 0.9794935 0.97675854 1.0562831 1.0260124
1.0181191 1.0453969 1.0470896 1.0469033 1.0046065 1.0333046 1.0604259 1.0549227
1.0190347 1.0488685 1.0289856 1.0490732 1.0109922 1.076453 1.065488 1.0158255
1.0549523 1.0436703 1.071803 1.0268525 1.0695224 1.0610982 1.0011916 1.0274818
1.0237824 1.0467582 1.0231829 1.0684212 1.0016826 1.00204 1.0124676 1.0230428
1.0345597 1.0237188 1.0468311 1.0535884

encodernorms.0.bias f4 [100]
00000000: 4711 acbd 56b5 33bd 7b87 f33c bf6a 803c
00000010: a75d bf3d 18c7 3dbd 80e4 923d 841f acbb
00000020: e3a9 f43d af1e 63bd b62b 263c 6140 cbbc
00000030: 76f2 c6ba 194b 713d 4e14 b83a 19d4 8c3d
00000040: ee21 0abd f703 67bb 8b34 3f3d 194d b6bc
00000050: 1916 96ba f5fa 10bc 9e32 1bbc d7ad 8abd
00000060: 6c20 a63d 90c4 d4ba ddfb af3c 7128 eabc
00000070: 0ec9 c8bc e2a5 17bd 9caf c13b d9e5 9a3d
00000080: 43d8 6bbd 872a ec3d 6070 0a3d 24a0 b73c
00000090: c24b 4dbd 6fed e2bd bca9 b63d d105 f83c
000000a0: 0b62 b23d 6216 56bb 10e6 673c b666 a53d
000000b0: 731c cdbd 46a7 5dbd 93e8 883d 4826 22bd
000000c0: 77cb 45bd 32b4 deba 03de 5d3b fc0a 28bd
000000d0: 15ab c83d bd6a 5e3d 1ed9 0c3d d660 813d
000000e0: bc0f 8dbd fd6f 49ba d1df ae3c 404b c73c
000000f0: 9031 d8ba c2b2 8fbd 6e60 7c3c 13f0 bebd
00000100: 8cd4 2d3c ea0c cd3b c6ab 53bd c06b 55bc
00000110: 104a 6e3d cca5 1d3d d3a7 853d 0ebb bcbd
00000120: 387b a0bd a392 fa3c eeec a3bd dda4 83bd
00000130: a698 8c3d ce1b 21bd ebcd 513b 9ba9 94bd
00000140: 7e8e ba3d c58c d0bd 6514 c83b 72ac 7dbb
00000150: c238 873d 8a15 9ebd 56a7 313d 400a 7cbd
00000160: b0f8 64bd 31ef 02bd 8dcd a43c 10d3 693d
00000170: f840 adbc a1df 8d3c 4a41 2cbc 8f38 cabd
00000180: f5a1 5e3d cbfb 173d 6092 73bc 0780 33bd
-0.08401733 -0.043874107 0.029727688 0.0156759 0.09344035 -0.04633245 0.07172489 -0.0052527804
0.11946466 -0.055449184 0.010142257 -0.024810972 -0.001517846 0.05890951 0.0014044137 0.06876392
-0.033723764 -0.0035250166 0.04668097 -0.02225356 -0.0011450677 -0.008848895 -0.009472517 -0.067714386
0.08111653 -0.0016232897 0.021482402 -0.028583737 -0.024509933 -0.037023433 0.005910827 0.07563371
-0.05757929 0.11531549 0.033798575 0.022415228 -0.050121076 -0.11080443 0.08919093 0.030276211
0.087101065 -0.003266715 0.014153972 0.08076231 -0.10015192 -0.054114603 0.06684985 -0.03958729
-0.048289742 -0.0016990958 0.0033854253 -0.0410261 0.09798256 0.054301012 0.034386747 0.06317298
-0.06887767 -0.0007684229 0.021346958 0.024327874 -0.0016494263 -0.07016517 0.01540385 -0.09323134
0.010609757 0.006257643 -0.051677488 -0.013026178 0.0581761 0.038488194 0.065261506 -0.09215365
-0.07836002 0.0305875 -0.08004175 -0.064279296 0.06865053 -0.039333157 0.0032013606 -0.07258912
0.091092095 -0.101831 0.006105947 -0.0038707522 0.066026226 -0.07718952 0.043372475 -0.061533213
-0.05590123 -0.031966392 0.020117546 0.05708605 -0.021149144 0.017318549 -0.010513613 -0.09874069
0.054353673 0.037105363 -0.0148664415 -0.04382327

encodernorms.0.running_mean f4 [100]
00000000: ae6d 783e 0880 b73e bb82 353e c6d1 bc3d
00000010: 1168 533e 95b9 a73e 3802 e23e 7cf8 6e3e
00000020: 1a31 7b3c 6c92 453e 1c96 d73e 897d 5b3e
00000030: 873c 813e a688 853e e527 1d3e 9674 753e
00000040: 336c bb3e cb19 f73a b4a9 523e 9600 c73e
00000050: e0f6 343d fe9c 463d 8260 3a3e e8dd de3d
00000060: f0e2 b13d 9045 8a3b 06f3 693e a349 993e
00000070: 15df 7e3e a638 6c3e ddc7 473e 4ddd 4e3c
00000080: 55d0 253d 0488 873e 4485 c73d 30cd 2d3d
00000090: cccf 943e 9caf 6a3d c148 bc3e f282 923c
000000a0: b460 b13d 6377 023e 235d 0c3e 04b6 693e
000000b0: 9f7f 793e 6b32 8e3e 842f 933e 88bc 273e
000000c0: b4ba b93e 6c0f 3c3e a3c0 a63d 8387 a63e
000000d0: 9cb9 973e a201 9c3e d824 513e f07d a63c
000000e0: 011d 9c3e 35e7 7b3d 1d2a cd3c adf8 cb3e
000000f0: f651 e83d 9d6d 373d f33c a33e 85a5 363e
00000100: 8274 943c ee6b 203e c8ab 543e 4e54 443e
00000110: 5c2a c13d 34e9 9e3d a87e 5f3e b145 aa3e
00000120: 6506 a53d 80e8 ee3e 78be b23c 522c 163e
00000130: 7e67 1a3e 9688 be3e a40f e23e a361 1b3e
00000140: 0185 993e 2de9 a93e 918e a93e cf7b 8f3d
00000150: 5e4b 903e ead5 a53e 3a9c 313e 1c5d 543c
00000160: 1ce3 943e 964c d43b f172 a63e 02aa 513e
00000170: 20d9 fe3a f2d4 473e 81c3 903e ddda 983e
00000180: cd78 bc3e 02c6 fb3d 87e3 603e 7b36 c23e
0.2426059 0.35839868 0.17725651 0.092196986 0.20645167 0.32758775 0.44142318 0.23336977
0.015331531 0.19294137 0.42106712 0.21434607 0.2524149 0.26080817 0.1534725 0.23970255
0.36605987 0.0018852291 0.20572549 0.38867635 0.04418075 0.048489563 0.18200877 0.10882169
0.08685863 0.0042197183 0.22846612 0.29938993 0.24889787 0.23068485 0.19509836 0.012626004
0.040481884 0.2647096 0.09742215 0.04243201 0.29064786 0.05729638 0.36774257 0.017884705
0.08661023 0.12740855 0.13707404 0.2282334 0.2436509 0.2777284 0.2874719 0.16380513
0.36275256 0.18365258 0.08142211 0.32525262 0.29633796 0.30469996 0.20424211 0.020323724
0.30490878 0.061499793 0.025044495 0.39838162 0.11343758 0.04478227 0.31882438 0.17836578
0.018121962 0.15666172 0.20768654 0.19172785 0.094319075 0.07759324 0.2182566 0.33256295
0.0805786 0.46661758 0.021819338 0.14665344 0.15078542 0.37213582 0.44152558 0.15173964
0.29984286 0.33185712 0.33116582 0.070060365 0.281825 0.32389766 0.17344752 0.012961652
0.2907952 0.0064788563 0.32509568 0.20475009 0.001944337 0.19514826 0.28274158 0.2985448
0.36810914 0.12293626 0.21961795 0.3793219

encodernorms.0.running_var f4 [100]
00000000: 3cb7 d63d 0df1 ff3d 4261 8e3d e406 e83c
00000010: ea58 a53d 7c67 d33d 028f 093e a980 e53d
00000020: 6bda 383c ab81 843d acd6 2d3e c40e 8f3d
00000030: b489 b63d 0506 e03d 042a 393d 9109 9c3d
00000040: e2d6 d43d 9847 453b 6735 ad3d 4dc1 fe3d
00000050: ecb1 a53c 915b 9b3c 6d6d 8d3d 6ad1 333d
00000060: 0634 373d 0af2 033b 0644 a73d 048c e43d
00000070: caa7 c53d f7ba a03d 43e8 cf3d 7262 b53b
00000080: 8613 893c a782 bd3d 9b62 f13c f9a0 ac3c
00000090: b374 e73d ef54 d63c f751 0c3e 8159 f93b
000000a0: 1a4e ff3c 97d4 443d b263 6d3d 8b41 733d
000000b0: 3660 833d 4615 b83d 67ec d43d 9d25 633d
000000c0: fcd3 093e 63b1 863d b9cb ec3c 78e1 e43d
000000d0: 5b9c c43d bb38 013e 1ab2 713d a027 463c
000000e0: 2d66 ed3d d97b e63c 6d88 2b3c 291c 163e
000000f0: 1cfc 6e3d 0711 a03c 6329 de3d e47f 8c3d
00000100: 451a 2d3c 9bb8 713d 4979 8f3d 67d8 903d
00000110: 2525 0e3d 36f8 d43c 119b 813d 3145 eb3d
00000120: e787 193d 9b0c 1f3e 7aaf f73b 5f63 8a3d
00000130: 34ef 7b3d ec6c 0a3e 7dbf 343e 79e6 433d
00000140: 9fa8 ce3d e5e4 f13d 03f6 e33d cf12 bd3c
00000150: 45cd c03d 1425 e13d 0c8d a13d 1eb8 a53b
00000160: 0b31 f53d 01a7 6f3b 40b7 e63d 7d51 993d
00000170: 4aca c83a 1c58 8e3d c6d5 aa3d 64fb 073e
00000180: f113 d93d 8cbb 2c3d 7fea 9c3d 667c 083e
0.10484168 0.12497149 0.06952144 0.028323598 0.080736 0.103224725 0.1343346 0.112061806
0.011282544 0.06470045 0.16976422 0.06985238 0.089129835 0.10938648 0.045206085 0.07619012
0.10392548 0.0030102488 0.08457451 0.12439213 0.020226441 0.01896456 0.06905637 0.043900885
0.044727348 0.002013328 0.08167271 0.11159518 0.09651144 0.07848161 0.10151722 0.0055354172
0.016732942 0.092534356 0.029465964 0.021072851 0.113015555 0.026163546 0.13703142 0.0076095467
0.031165171 0.048054304 0.057956405 0.05938868 0.06414835 0.089884326 0.10396653 0.055455793
0.13459772 0.065768026 0.028905736 0.11175817 0.09600135 0.12619297 0.05900774 0.012094408
0.11591754 0.028135227 0.010469538 0.1465918 0.0583459 0.01953937 0.10847738 0.06860331
0.010565345 0.059013944 0.07005555 0.070725255 0.034703393 0.025997262 0.06328405 0.114878066
0.037483122 0.15532152 0.0075587602 0.06757235 0.06150742 0.13518113 0.17651172 0.047827218
0.10090756 0.11811236 0.111309074 0.023080258 0.09414152 0.109934 0.07888231 0.005057349
0.11972245 0.0036568048 0.11265421 0.07486246 0.0015319076 0.06950399 0.08341555 0.13279492
0.10599507 0.042171046 0.07661914 0.13328704

decoderlayers.0.weight f4 [100, 10]
00000000: 925e e83d bdc1 84be 0e96 1f3e f300 9abe
00000010: 0632 2dbe c71f d33d 3b14 3a3e 6e15 12bc
00000020: 6a1e 74bd ad31 42be fb8f ae3d 28a8 8dbe
00000030: 3ce7 a43d 6b68 34bd 0e39 413e 71e4 4e3e
00000040: 1c3a 0bbd c6ee 5cbe 033c d1bd c209 9e3d
00000050: ff09 283e 9abd 4e3e aa26 573e 071b 793d
00000060: 4ef9 633e 5a74 8bbe a55a 6bbd 674f 14bd
00000070: b819 7c3e 3142 f9bd 923a 2abe a4f1 d43d
00000080: a70d 6ebd cab1 6f3e a524 b43d f4b9 6a3e
00000090: af5a 36be 0c2f 593d 60e8 8abd 9c83 bebd
000000a0: 0d56 d73d 1cdd 9f3e ea61 883d d0ba c3bd
000000b0: 5c91 20be c2a0 91be 88dc 803e 9d6c 4ebe
000000c0: 07b9 ca3d 9826 093d 4798 a23e 6e50 24bc
000000d0: a154 d4bd 92cd 603c ae5e b03c 2215 313e
000000e0: e0d1 88be f304 60bd d58a 6ebe c2c6 873e
000000f0: 5919 873e c466 ea3d cf85 fa3c a6a0 8ebe
00000100: f5b1 163d e69a da3d 0a0c fdbc 750d 793e
00000110: 6617 9fbe 2951 65be c3bb 3e3e a59a 283e
00000120: 1506 30be af76 54be 04ce 9f3d 8c10 033e
00000130: 7bbc 81be e953 0ebe 2115 b4bd 1b44 81bd
00000140: e43f e8bd b5c3 bdbd bd5d 3fbd 24b4 d93d
00000150: d8f4 993e a213 d63d 4b17 513e b93c 8dbe
00000160: f96c 27be fc5a f93d 2bd1 2fbe d0eb 91bc
00000170: da2a 943e 9f54 533e 8d50 83be 2929 8abd
00000180: ab55 43be f8d3 f3bd e59e 773d 60b8 7ebe
00000190: a78f 27be b821 7fbe 519f f13c 3456 b3bb
000001a0: fe7d 8abd f50d 12be 0fa3 4cbd 62be a73d
000001b0: e4e7 743d 4f8d 983e 1386 8a3e f202 22be
000001c0: 9287 6ebe 0501 91be bbfd d43d 7a4a 993e
000001d0: 8212 283d dae7 063e dbd9 0ebe e45a 633c
000001e0: 67a6 9bbc 7a06 0d3d 4f5f f5bd 5db2 133e
000001f0: d8c2 483e 2f76 c9bd 4712 1a3e 49a7 03be
00000200: bb92 893e f382 4fbe 4b54 53bd 60cd 6ebd
00000210: c117 9cbe 05ab 80be bff6 2abe c409 853d
00000220: ce49 61be 4378 a5bd 16a4 223d e9a6 86bd
00000230: 9fa6 c63d 2175 473e f914 14bd cd6d 76be
00000240: 679f 983c 6389 2d3d 5288 b2bd c541 ddbd
00000250: 9422 a93e df74 0ebe aa25 24be b3e7 efbc
00000260: 1baf 06be 9dd9 a5be b237 92be 533a bf3d
00000270: 78d6 a63d 9f2e eb3d 7e8a 30be 04f4 553d
00000280: a50b 683e d03d 7cbe e3b6 983d 8adf d53d
00000290: 2dbd 5abe 5bd3 49be 1819 5fbe 1607 dfbd
000002a0: fba6 8f3e 30bf 343c 93b3 94bd a4d0 e1bd
000002b0: ef85 10be 0b21 b0bc 199c 92be 158e 99be
000002c0: ba08 0e3e a8f3 873e 3bed a8bd a6c2 4f3e
000002d0: 2915 1e3e ef81 5abe b082 9a3e 544d 5c3e
000002e0: d0de 9c3e 8850 b13b c576 b13a 837f 0c3e
000002f0: 96f5 9d3d 2754 12be eb63 64be a493 6c3d
00000300: d5e1 44bd 6e09 cebd 498e 233e 8290 aabc
00000310: f78b 78be 44f6 3ebe 0d7b f6bd 2043 5d3e
00000320: 47d0 093d e0a4 d83b 8931 0abe ae0e 993e
00000330: 35d8 973e b838 86bc 07f0 84be c009 e73c
00000340: 4b2c 53be 6930 53be 2200 813e 2c3d 823d
00000350: 8beb 5f3e fcfc dabc a3ff 983e 029a a33e
00000360: ec22 01be fcb2 c23d b0e5 febc f493 ecbd
00000370: 0aa5 6bbe 08fe 6dbe 2022 ecbd 3d81 52bd
00000380: ce70 e53d 36a1 093e 444c 6e3d ed2d 8a3e
00000390: 84e1 88be 65c6 53be 2331 56be 8c57 9e3e
000003a0: a81c 9b3e 8204 84be 7a9a 3fbd f39b 83be
000003b0: b1fb 303d b6f7 ae3d a5a0 ab3c 0b72 aa3c
000003c0: f05d 52be f034 34be ae0f 713d 8361 07be
000003d0: f382 bebc 6b7a 94bd 8ce0 78be b0ae 323e
000003e0: f252 cb3c e6fa 803e 8e3a 113d 14a4 ea3d
000003f0: aa43 703e 18d3 0c3e 8e2a 78be a9ac 61bd
0.11346163 -0.2592906 0.15584585 -0.3007885 -0.16913614 0.103087954 0.1817178 -0.008916242
-0.059599318 -0.18964262 0.08523556 -0.27667356 0.08051917 -0.044044893 0.18869421 0.20204331
-0.033990964 -0.2157546 -0.102165245 0.07716705 0.16410063 0.20189515 0.21010843 0.06081679
0.22263071 -0.27237207 -0.057459492 -0.036208536 0.24619186 -0.12170828 -0.16623905 0.10397652
-0.05811849 0.23407665 0.08796052 0.22922498 -0.1780803 0.053023383 -0.06782603 -0.09302446
0.1051446 0.3122338 0.066593006 -0.09557116 -0.1568045 -0.2844296 0.25168252 -0.2015862
0.098985724 0.03348407 0.31756803 -0.010028942 -0.10367704 0.013720887 0.021529522 0.17293218
-0.26722622 -0.05469222 -0.23295148 0.26518828 0.26386526 0.11445382 0.030581383 -0.2785694
0.036790807 0.10674076 -0.03088953 0.2432154 -0.3107254 -0.22394241 0.18626313 0.16465242
-0.1718982 -0.20748399 0.07802966 0.12799281 -0.25339112 -0.13899197 -0.087930925 -0.06311818
-0.11340311 -0.09265844 -0.046720255 0.10630062 0.30069613 0.104529634 0.20419042 -0.2758539
-0.16350164 0.12175557 -0.17169635 -0.01781264 0.28938943 0.20637749 -0.25647393 -0.06746132
-0.19075648 -0.11905664 0.060454268 -0.24875021 -0.16363393 -0.24915206 0.029494913 -0.0054729227
-0.06762312 -0.14263137 -0.049960192 0.081906095 0.05979146 0.2979531 0.27055416 -0.15821436
-0.23293903 -0.2832109 0.10399958 0.29939634 0.041033275 0.13174382 -0.13950293 0.0138766505
-0.019000245 0.034430005 -0.11981069 0.14423509 0.19605577 -0.09836995 0.15046035 -0.12856783
0.2686976 -0.20264797 -0.05159406 -0.05830133 -0.30486873 -0.25130478 -0.16695689 0.06496003
-0.2200081 -0.08079579 0.039707266 -0.06574804 0.09699749 0.19478275 -0.036152814 -0.24065323
0.018630696 0.04236735 -0.08717407 -0.1080356 0.33034194 -0.1391177 -0.16029993 -0.029285287
-0.13152735 -0.32392588 -0.28558117 0.09337296 0.081463754 0.11483502 -0.1724033 0.052234665
0.22660692 -0.24632955 0.07456758 0.10443027 -0.21361227 -0.19709532 -0.21786916 -0.108900234
0.28057083 0.011031911 -0.072608136 -0.11026123 -0.14113592 -0.021500131 -0.28634718 -0.29991212
0.13870516 0.26553082 -0.08248373 0.20289096 0.1543776 -0.21338628 0.30177832 0.21513873
0.30638742 0.0054112114 0.0013539424 0.13720517 0.077128574 -0.14289914 -0.2230374 0.05775799
-0.048066933 -0.10060392 0.15972246 -0.02082086 -0.24272142 -0.1864863 -0.12035189 0.21607637
0.033645894 0.0066114515 -0.13495459 0.29894012 0.2965714 -0.016384467 -0.25964376 0.028202891
-0.20622365 -0.20623936 0.25195414 0.06359324 0.21867196 -0.02673196 0.29882535 0.31953436
-0.12610978 0.09506795 -0.031115383 -0.11551657 -0.23012176 -0.23241436 -0.11529946 -0.051392782
0.112031564 0.13440403 0.0581782 0.26988164 -0.26734555 -0.2068115 -0.20917182 0.30926168
0.302953 -0.2578469 -0.04677818 -0.25704917 0.04320878 0.08543341 0.020950625 0.020806333
-0.20543647 -0.17598319 0.058852844 -0.13220792 -0.0232558 -0.07249912 -0.24304408 0.1744945
0.024819825 0.2519142 0.035456233 0.11457077 0.23463312 0.13752401 -0.24234983 -0.055096302

decoderlayers.0.bias f4 [100]
00000000: 3fa8 533e 2b82 15be 38bd 563d b7de 88be
00000010: be67 df3c 910f 10bd 2ad5 7e3e 60f7 8dbe
00000020: 7b9c f73d fee1 9f3e d717 303e 4062 f3bd
00000030: a696 3bbd 3aeb 4a3e b2a5 1a3c 790b 8fbe
00000040: 33ca ee3d 954a 37be b330 9fbd a322 503e
00000050: b324 8e3d 2022 43be 672f a23e d769 d13d
00000060: 3eec 2ebe e7b0 62be a3f6 7d3e b7c7 353e
00000070: a90c 073e 8d0f 3fbe 8a4b a23d 7c6d 8a3e
00000080: 481a 5bbe 6f7a 83be 0d95 6a3d 4831 34be
00000090: 8e35 81be 7c70 f0bd c9d6 ce3d 5bca 0fbe
000000a0: 4d82 73bd 28e7 123d 59c1 563d 6db5 553d
000000b0: a1cd af3d af01 6c3e e1b1 843e 8cb3 fd3d
000000c0: 7c2b 34be 11a6 7fbe 5d41 353e 106f 1fbe
000000d0: 47a9 51be 35a8 613e 1de8 23bd 4b2b 5e3e
000000e0: 002f e9bd 79f6 48be 9b81 56bd 2bc8 9f3d
000000f0: 6af7 243d 14dc 8fbe 0525 133e 5d98 913e
00000100: 6e7d 83be e384 1f3c 1fc5 103d fc20 97bd
00000110: 13ff 803e 8643 1ebe b4d2 8fbe 5c3c 40bd
00000120: 2eb0 ccbd c1fd 8a3e ab5c 883e dae1 253e
00000130: 2637 a03a 126a 613e a5c4 55be df3a 843e
00000140: aa9a 753e 064d 973e 18e6 9cbd 1e70 60be
00000150: f118 503e 1bef 7a3d 7e66 413e 11a6 70be
00000160: 926c d33d 488f 8dbe 7d2b 85be faa6 193e
00000170: 1ac8 66be 9edd 66bd 4e46 19be d729 9bbe
00000180: 5f49 8dbd 5311 a53e 6ddf 963e 9ff1 1b3e
0.2066965 -0.14600436 0.052426547 -0.26732418 0.027271148 -0.035171095 0.24886003 -0.27727795
0.12090393 0.31227106 0.17196594 -0.11883974 -0.045797966 0.19816294 0.009438919 -0.2793844
0.1165966 -0.17899545 -0.077729605 0.20325713 0.069405936 -0.19055986 0.3167679 0.102252655
-0.17082307 -0.22137795 0.24801116 0.17751966 0.13188423 -0.18658276 0.07924564 0.27036655
-0.21396744 -0.25679347 0.057271052 -0.17596924 -0.2523617 -0.11740205 0.10099561 -0.14042036
-0.059450436 0.03586498 0.052430484 0.052174974 0.085841425 0.23047517 0.2591696 0.123877615
-0.17594713 -0.24965693 0.17700715 -0.1556971 -0.2047473 0.22036822 -0.040016282 0.21696202
-0.11385918 -0.19625272 -0.052369695 0.07801851 0.040275015 -0.28097594 0.1436959 0.28436556
-0.25681633 0.0097362725 0.03534424 -0.07379338 0.25194606 -0.15455446 -0.2809044 -0.046932563
-0.09994541 0.27146724 0.266332 0.16199437 0.0012223467 0.22013119 -0.20875795 0.25826165
0.23984781 0.29550952 -0.076610744 -0.2191777 0.20322014 0.061263185 0.18886754 -0.2350085
0.103234425 -0.27648377 -0.2600974 0.15005103 -0.2253727 -0.056363694 -0.14968225 -0.3030536
-0.0689876 0.3223978 0.29467335 0.1522889

decodernorms.0.weight f4 [100]
00000000: 3847 703f 4ad7 6f3f 60e2 713f d375 723f
00000010: 314c 743f 600a 773f a0a3 773f f802 703f
00000020: 0f1a 783f f931 7c3f 4154 723f 39db 713f
00000030: 3433 773f 4728 763f 9e79 743f 02a3 723f
00000040: 9b3e 743f 60fe 773f b4f4 753f 6083 733f
00000050: 1b1c 6e3f 6362 743f ed7b 763f bb72 743f
00000060: a9e4 733f 5f1f 713f b194 763f d873 773f
00000070: 653b 793f 59cc 713f 2884 743f 04fe 793f
00000080: be08 773f 91fa 743f 6fc2 753f f760 743f
00000090: f88f 703f 98df 753f e8fc 773f 8f55 723f
000000a0: ccf5 773f 496b 763f 8254 7f3f a17f 7c3f
000000b0: 900b 793f 2aa3 763f d79d 6e3f 3ba1 793f
000000c0: e6c3 713f 5376 7b3f cb69 743f 9706 743f
000000d0: 6c5c 793f a4f8 733f 134e 713f 16c6 7f3f
000000e0: 8332 723f 4b61 6d3f 25a2 6f3f 3c19 7b3f
000000f0: 07ee 763f ec7b 6c3f a1aa 6e3f 76e8 743f
00000100: 19be 753f 5235 763f de22 703f 910d 793f
00000110: e9a4 793f 44fa 743f ddec 723f b301 713f
00000120: 9622 743f 48b0 703f a4a7 733f b35c 723f
00000130: 721f 743f f2d8 723f a792 713f 4e79 773f
00000140: 1948 793f f793 773f 64bb 733f 0065 773f
00000150: 17b1 7a3f 03d0 723f 2992 763f 1e91 713f
00000160: 86f3 723f af74 6e3f 713c 783f 4a80 6f3f
00000170: 29c0 723f 15e2 733f bf8b 743f 06ad 723f
00000180: ee36 773f 5d53 753f 98bc 723f 1dd6 723f
0.9385867 0.9368788 0.94486046 0.94711035 0.9542876 0.96500206 0.96734047 0.9375453
0.9691476 0.9851375 0.9465981 0.9447513 0.96562505 0.9615521 0.95498073 0.9477998
0.9540803 0.9687252 0.9607651 0.9512234 0.93011636 0.95462626 0.96282846 0.95487565
0.9527078 0.94188493 0.96320635 0.9666114 0.97356254 0.94452435 0.95514154 0.9765322
0.96497715 0.95694834 0.9599981 0.95460457 0.9396968 0.960443 0.9687028 0.946618
0.9685943 0.96257454 0.99738324 0.98632246 0.9728327 0.9634272 0.93209594 0.97511643
0.9443954 0.98227423 0.9547393 0.95322555 0.9740665 0.9530127 0.94259757 0.9991163
0.94608325 0.9272658 0.9360679 0.9808538 0.9645695 0.9237659 0.9322911 0.9566721
0.9599319 0.9617511 0.93803203 0.97286326 0.9751726 0.95694375 0.94892675 0.9414322
0.95365274 0.94018984 0.95177674 0.946727 0.9536048 0.9486228 0.943644 0.9666947
0.9737564 0.9671015 0.9520781 0.9663849 0.9792647 0.9484865 0.9631677 0.94362056
0.9490284 0.93146795 0.96967226 0.9355513 0.94824463 0.9526685 0.95525736 0.9479526
0.9656819 0.9583033 0.9481902 0.9485796

decodernorms.0.bias f4 [100]
00000000: dc03 003d 246a 083d 9ca3 02bd 2a79 803c
00000010: 55fa a43c 3b1a f5bc ff83 843c 7ecd 75b8
00000020: 6948 02bc fc13 a63c b0cf 263b 4b02 fd3c
00000030: 8093 04bc 85fd f83c 1c37 a43c cc38 5cbc
00000040: c980 1c3c 6472 85bc 4bee e2bc bfcb 1a3d
00000050: fd84 ed3b c9ef 653a fe99 35bc 4f1a 853c
00000060: e4e9 b83c ca77 fabb 8130 bc3a 1700 5fbb
00000070: b43c 9c3a d64e 39bc 392e 223d 0204 3b3c
00000080: d60f 843b 02a4 9f3c b71c b4bc fb68 ddbc
00000090: 533a 8dbb b240 25bc 9279 0abb f5d8 67bc
000000a0: 444a 9c3c c125 eaba acaf a9bc 764e 2d3c
000000b0: 3206 a9bc 36a2 fbbb 72d4 0abb 3cb2 af3b
000000c0: 94bb 2b3c d421 2dbc b441 1d3d 5d7e 1f3c
000000d0: b3f2 c4bc d7d4 9ebc 8220 153d fe4f d8bc
000000e0: 2665 d73c 0477 433c a2f2 953c c4cf d0bb
000000f0: a705 e93c 5a3b 193b 88ed 17bc b8f4 2fbc
00000100: 28f2 97bc cc33 ddbb c93a bc3c 51a8 0e3d
00000110: 9b09 c9bc c8e1 3abc f351 073d 838d 6cbc
00000120: a66e 8d3c bdb1 7e3c 5c9e bfbb d9c9 0e3c
00000130: c437 6c3a 53ac 873c e61f cebb ef6f 1f3d
00000140: e8b1 573c 9b92 13bd 01e9 bfbb 46a4 07bc
00000150: 67ce 1dbc e9b4 1fbc a43a 153c af08 ec3c
00000160: f085 92bb 6620 04bc 07b2 f0bb dfea 913c
00000170: b3fb febb 10ec 2638 3927 2abd 7a5c ebbc
00000180: aa12 ddba 0f4a 6dbc ff2f 85bc dc0b e9bb
0.03125368 0.03330435 -0.03189431 0.015682776 0.020138899 -0.029919734 0.016176222 -5.860393e-05
-0.007951834 0.020273201 0.0025453381 0.030884882 -0.008091807 0.030394325 0.02004581 -0.013441276
0.009552189 -0.016289897 -0.027701518 0.037791964 0.0072485195 0.00087713875 -0.011084078 0.016247896
0.022572465 -0.0076436745 0.0014357717 -0.0034027153 0.0011919946 -0.0113103 0.039594863 0.01141453
0.004030208 0.019487385 -0.021986349 -0.027027598 -0.0043099313 -0.010086225 -0.002112959 -0.014150848
0.019078381 -0.0017864035 -0.02071365 0.010577789 -0.020632837 -0.007679249 -0.0021183756 0.0053618234
0.010481734 -0.010567147 0.038392738 0.009734717 -0.02404151 -0.0193886 0.036407955 -0.02640533
0.026293349 0.011930231 0.018304173 -0.006372424 0.028445078 0.0023381324 -0.00927294 -0.010739498
-0.018548086 -0.0067505594 0.02297725 0.034828488 -0.024540713 -0.0114063695 0.033037137 -0.014438036
0.017264675 0.015545306 -0.0058477353 0.008715116 0.0009010995 0.016561663 -0.0062904237 0.038925108
0.013164975 -0.036028486 -0.0058566337 -0.008278912 -0.00963173 -0.009747722 0.009108219 0.028812734
-0.004471533 -0.008064365 -0.0073454413 0.01781219 -0.0077814697 3.9797334e-05 -0.041541312 -0.02873062
-0.0016866524 -0.014482989 -0.016258238 -0.0071120095

decodernorms.0.running_mean f4 [100]
00000000: 3630 ad3e 73da 463e 2b49 cf3e 3ecb 063e
00000010: d76a d93e 0cfe 993e 3de4 d33e 4b4e 453e
00000020: 9050 c93e 1623 073f d186 eb3e a113 703e
00000030: c6e4 963e 3ed6 e23e 12ae b23e 2c9b 773e
00000040: 642b de3e 58e9 ad3e 4180 833e e8bb d83e
00000050: d1d9 b33e 6aaa 4e3e fbde f13e d300 ef3e
00000060: 95d4 853e 6041 653e 5a58 cb3e 19c0 b23e
00000070: a59e e13e 14d8 b53e 77c5 ce3e 53a8 f53e
00000080: 277d 203e 82fb 333e f758 ca3e 6c74 5d3e
00000090: 5d3f 743e 9c40 a73e 2995 b03e fcd8 673e
000000a0: c92b 8d3e c950 8c3e 4fba c63e f426 b53e
000000b0: d6e3 ec3e 09ac fe3e 9c1d e73e b1b5 f33e
000000c0: 3643 9f3e 7228 cf3e 5b3d 9e3e c7d9 973e
000000d0: e8ae 9a3e a875 f53e 262f dd3e f843 a63e
000000e0: e04f 973e 0b6e a53e 9c1f 943e f231 923e
000000f0: a53b 913e cc69 133e fcbe f03e fa7b 3b3f
00000100: f137 983e b3f7 ee3e ed40 af3e 4bfe 803e
00000110: f03f f63e 0cbf 503e 92df 273e 5117 9a3e
00000120: 0081 a83e e880 133f 46ee 263f e42e f63e
00000130: d01a a33e 9cfa fb3e 9b19 813e 83dd dd3e
00000140: 3fa4 ec3e 0156 e43e a8af 9f3e 16ae de3e
00000150: 0c74 d23e c31e bb3e bebf 003f a808 343e
00000160: 4e8e bd3e 11de 223e 47b0 943e 7ee7 ea3e
00000170: 2fa7 423e e800 d23e 1ba2 9b3e 8074 793e
00000180: b884 9e3e 39f4 cc3e fbde e93e b6cd db3e
0.33825845 0.1941927 0.4048551 0.13163468 0.42464325 0.30076635 0.4138507 0.19268148
0.39319277 0.5278791 0.46001294 0.23444988 0.29471415 0.4430408 0.3489843 0.24180287
0.4339248 0.3396709 0.25683787 0.4233086 0.35127118 0.20182195 0.47240433 0.46680316
0.2613875 0.2238822 0.39715844 0.34912184 0.4406635 0.35516417 0.4038503 0.47979984
0.15672742 0.17576411 0.39521 0.21626443 0.23852296 0.3266648 0.344888 0.22641367
0.27572468 0.27405384 0.38814017 0.3538128 0.46267575 0.49740627 0.45139778 0.47599557
0.31105965 0.40460545 0.30906186 0.29658338 0.30211568 0.47941327 0.43200034 0.3247373
0.29553127 0.3231052 0.28930366 0.2855373 0.28365818 0.14395827 0.4702071 0.7323605
0.2973018 0.46673355 0.34229222 0.2519401 0.48095655 0.20385379 0.16393879 0.30095914
0.3291092 0.5761857 0.65207326 0.4808265 0.31856394 0.49214637 0.25214848 0.43333063
0.4621906 0.44596866 0.31188703 0.43492192 0.41104162 0.36546907 0.50292575 0.17581427
0.37022632 0.15905024 0.2904074 0.4587974 0.19009088 0.41016316 0.30397114 0.24360847
0.3096063 0.40030077 0.45677933 0.42930382

decodernorms.0.running_var f4 [100]
00000000: 5ccf 873e 3da5 1e3e d695 ea3e 10e0 b53d
00000010: 7c4f d13e 2313 823e 6042 b63e 2755 263e
00000020: 164a b43e 13a0 0e3f dd69 993e b6ff 5e3e
00000030: ce54 923e 2f82 cc3e 7f81 923e 8e13 6a3e
00000040: 8999 c43e 83a3 993e 3f7d 673e fd32 863e
00000050: e2ea b63e 15dc 2f3e 0d6b e93e 8976 053f
00000060: 2487 373e d6dc 2a3e c3db 7f3e 9ab5 733e
00000070: 3f08 ae3e 8759 c73e 6aa3 d33e 0273 cc3e
00000080: 931e f83d 160d 183e 3d1b fe3e ea96 4e3e
00000090: 9a87 583e 9f77 b43e 8ebe 493e daea 633e
000000a0: a37f 943e 7991 483e 0928 bf3e 9d40 963e
000000b0: 6bf7 cd3e a4f6 d43e f39f bd3e a695 fe3e
000000c0: c1cd c83e 5e97 f43e 056b 153e ef73 8b3e
000000d0: 7c05 8b3e 267d e03e 99ac f83e 5369 923e
000000e0: 558d 533e b36d 9b3e a376 903e 0d16 5f3e
000000f0: 9f50 733e 66ca d93d cc15 de3e 28de 2e3f
00000100: b34a 9b3e 3034 1f3f 7b7f be3e 6036 3d3e
00000110: 3239 bf3e 96ec 2e3e 9f6e 133e e0ff 923e
00000120: c406 a13e 3b3e 2c3f 29f4 503f 1623 0c3f
00000130: c1c1 983e d5ec 033f df51 6f3e 3771 cd3e
00000140: 8c4f cf3e 627d ac3e c9de 5b3e fb2f 5a3f
00000150: b511 8e3e b126 a93e 9975 033f 5800 0c3e
00000160: a641 b43e 1a22 fb3d c605 603e c8a6 ec3e
00000170: 3dfd 2d3e 187a e33e 1e47 b73e ce8b 6e3e
00000180: 6979 b83e d3f4 7d3e d216 b93e afea f73e
0.2652539 0.15492721 0.4581744 0.08880627 0.40880954 0.25405225 0.35597515 0.1624342
0.35212773 0.55713004 0.2996358 0.21777233 0.28580326 0.39943072 0.28614423 0.22859022
0.38398388 0.30007562 0.22606371 0.26210776 0.35726076 0.17173798 0.45589486 0.52133995
0.17922646 0.16685805 0.24986176 0.23799744 0.33990666 0.3893549 0.41335613 0.39931494
0.121152066 0.14848742 0.49630156 0.20174757 0.21145478 0.35247514 0.19701597 0.22257558
0.2900363 0.19586743 0.37335232 0.2934617 0.40227827 0.41594422 0.37036094 0.49723548
0.39219478 0.47771734 0.14591606 0.27236888 0.27152622 0.4384548 0.48569182 0.2859598
0.20659383 0.3035713 0.28215513 0.21785755 0.23761223 0.106343076 0.43376005 0.68307734
0.30330428 0.62189007 0.37206635 0.18477774 0.37348324 0.17082438 0.14397667 0.28710842
0.31450474 0.67282456 0.8162256 0.54741037 0.29835322 0.5153325 0.23371075 0.4012544
0.40490377 0.3368941 0.21471705 0.8522946 0.27747884 0.33037332 0.51351315 0.13672006
0.35206336 0.12262364 0.21877202 0.46220994 0.16991134 0.44429088 0.35796446 0.23295519
0.3603013 0.24800424 0.36150223 0.48421237

mu.weight f4 [10, 100]
00000000: c12b f1bc 994f 193d 9a04 e5bd f971 57bd
00000010: 3492 1d3d 88c8 15bc f997 a13d cce5 103d
00000020: e051 89bd b56e debd df6b 763d 00a3 163d
00000030: 63a3 343d 0687 da3b 3c25 033d 3f72 f6bd
00000040: 3bec 273d 94c5 ec3b eae8 7a3d 688e 52bd
00000050: 2554 253d 511b 91bd f25a e43d cf88 8f3d
00000060: 943c f23a 97d8 b0bd a937 963d 60c0 3f3d
00000070: d438 8abb f004 243d a6fd 093d f951 93bc
00000080: 8d0f eabc c0ba d63c 189a d73d 8477 9f3d
00000090: 0657 873d 3e4d 253d 4382 933d 1a27 8f3d
000000a0: dc1a 4abd 9da9 80bd b264 67bc c4ea cd3a
000000b0: 9ce7 2ebc 47cf dc3d 1c2c 46bd 7574 ab3d
000000c0: be85 e2bd feea 94bd a68a 643c 1fc6 0cbe
000000d0: 8efa 74bb d5c1 d43d c6cb f0bd dab1 0dbc
000000e0: 0036 753d 646e 733c 322e a6bd 9c2f 5b3d
000000f0: 22c0 d4bd bf20 fcbb bbba 7c3d 390f 08bc
00000100: 2423 80bc 6e78 f03c dd41 8cbd 86c7 10bc
00000110: 12e4 e7bc f511 ae3c a8d7 8b3c f168 30bd
00000120: 2f01 f3bd 3a15 0ebe 086b 60bd d1c3 b5bd
00000130: 12b8 5d3c e679 ffbd 170c f73d d28e 83bd
00000140: 5584 62bd 3a91 61bc 7156 e83d e874 a13d
00000150: f18d f93c 9f59 c23d f193 c73d 4f50 063d
00000160: ee71 333d d321 de3c d5ca cfbd 3300 013e
00000170: 1046 c13d ffd5 aa3d d50a 51bd fa5a 5c3d
00000180: 445e 143d 3112 a8bd 788b 2e3d a4e3 6d3d
00000190: 62d6 6abd 46d9 fabd de05 d53d cd8a efbc
000001a0: 26da a7bd 575a 70bd 8599 233d fa77 f93c
000001b0: 337c c93c 746c 82bc f6cd cb3b dd73 49bd
000001c0: 09b2 1bbd 879e 933c 2e03 273d a2da 3bbd
000001d0: bffa 53bd eeb3 fb3c 135e f13d 124d ccbc
000001e0: 3b3e 983d bb79 9ebd 943b cc3d bb54 9abd
000001f0: 751d c73c 40a2 6f3d aea7 ba3d 2e21 89bd
00000200: eb34 80bc dd77 18bd 8f4e 143d 3903 34bd
00000210: 12cb 6cbd 8325 f53c 2cfa 5e3d 2ac9 3a3c
00000220: eb1b afba 3983 853d 7e8c 0d3e e5db a83d
00000230: 3b56 483d 09ac babd 795c 5a3d 54ad aa3d
00000240: 2b91 5f3d 7539 1b3d b679 93bd 6147 d63d
00000250: 63fb 72bd 358b 43bd 9009 adbd d6b7 35bd
00000260: 4eeb 863d a291 72bd 316e b8bd 76e5 7f3d
00000270: 2be1 a43c e437 2c3d 117c e93d f2ea b13d
00000280: 2612 dcbd dd31 593c 076a 07bd f4f5 163d
00000290: d2b5 a2bd e75b dc3d b376 f23d 5b5d 9ebd
000002a0: d1c5 683d 6c7c 51bc 0e81 cbbd 3c4f e13d
000002b0: 9463 29bd 609e d6bc f63b 423d 84bf b2bc
000002c0: 9310 0abe b8a5 a5bb 8d1e 01bd 3e35 ff3d
000002d0: f109 943d a4b5 183e abb9 043e ae46 8c3c
000002e0: b210 603d 6fd9 e93d 96f6 ba3c 4029 8b3d
000002f0: c870 a5bd a6d6 5d3c 4eda 373d 6eaa 203e
00000300: 1399 8dbd 4b9d 663d ff3f 80bd f6ce 8b3d
00000310: 7ef3 7f3d 57de bbbc a7b3 963d b4ac 29bd
00000320: bf93 84bc c955 09be 6abe 8ebd d6ef 92bb
00000330: 6c4e d6bd 7031 d4bd 31ed 14be 0bb2 d93a
00000340: bf8c 68bc cc44 d9bd bfed b83c 64a6 4ebd
00000350: 9982 e1bd aa95 863d 4e51 afbd be5e 053e
00000360: d4ce 98bd 9847 3ebd 54ce 003d 0944 30bd
00000370: 61ad 3b3d 6fb8 e73d 0f91 a2bc b3e1 cc3d
00000380: b33c d63d 6104 e23d c980 33bd c71e 10be
00000390: 289f 0e3d 2643 9f3d 8eee 0cbd d600 073e
000003a0: 67ac 593d e4b6 be3c a906 bfbd d183 b4bd
000003b0: 2575 70bd 4f64 0ebc c34b dc3c ad0f a33c
000003c0: c73d d5bc 965b b93d 5972 9a3c 412e ca3d
000003d0: 8ee7 213e 9df6 99bd 687c dcbd 36fa 823d
000003e0: 0df1 0dbd 0414 a4bd e722 c53c 6a9b a53d
000003f0: 25f8 433d 7f88 59bd 3dee c03c aade fcbc
-0.029439809 0.037429426 -0.11182518 -0.052598927 0.03846951 -0.009142049 0.078903146 0.0353754
-0.067050695 -0.108609594 0.060161468 0.036776543 0.04410113 0.006668928 0.03201793 -0.120335095
0.04099677 0.0072257016 0.06125728 -0.05140534 0.04036345 -0.07085288 0.11150159 0.07008516
0.0018481188 -0.08635061 0.07334835 0.046814322 -0.0042182 0.04004377 0.033689164 -0.017983424
-0.028571868 0.026212096 0.10527438 0.07786468 0.06608395 0.040356867 0.0720258 0.0698988
-0.04934202 -0.06282351 -0.014123129 0.0015710224 -0.010675337 0.107817225 -0.04838191 0.08371822
-0.110606655 -0.07271384 0.013949072 -0.13747452 -0.0037380788 0.10388533 -0.11757617 -0.00864836
0.05986595 0.014857862 -0.0811428 0.0535122 -0.10388209 -0.0076943333 0.061701518 -0.008304411
-0.015641756 0.0293543 -0.068485 -0.008836633 -0.028306995 0.021248797 0.017070606 -0.04306883
-0.1186546 -0.13875285 -0.054789573 -0.0887524 0.013532655 -0.12474422 0.12062853 -0.06423725
-0.055301983 -0.013767535 0.113446124 0.07883626 0.03046319 0.0948975 0.097450145 0.032791432
0.043809824 0.027115738 -0.10146109 0.12597732 0.094371915 0.08341598 -0.05103572 0.0537977
0.03622271 -0.08206595 0.042613477 0.058078423 -0.057333358 -0.12248473 0.1040151 -0.02924099
-0.081959054 -0.058679905 0.03994133 0.030452717 0.024595356 -0.015920855 0.006219621 -0.04918276
-0.038011584 0.018019928 0.040774517 -0.0458628 -0.051752802 0.030725446 0.11785521 -0.024939094
0.074337445 -0.07738062 0.09972301 -0.07535692 0.024306038 0.058504343 0.091140136 -0.06695782
-0.015650233 -0.037223686 0.03620773 -0.043948386 -0.05781085 0.029925114 0.0544378 0.0114005
-0.0013359761 0.06519169 0.13823125 0.082450666 0.04891036 -0.09114844 0.053310845 0.08333841
0.054581802 0.037896592 -0.07200949 0.10462833 -0.059321772 -0.04774018 -0.084490895 -0.044364773
0.065878496 -0.059220918 -0.09005392 0.06247469 0.0201269 0.04204549 0.11400617 0.086873904
-0.10745649 0.013256517 -0.0330601 0.036855653 -0.07944836 0.107597165 0.11839046 -0.0773265
0.056829277 -0.012786012 -0.099367246 0.11001441 -0.04135473 -0.026198566 0.047420464 -0.021819837
-0.13482885 -0.0050551556 -0.031523276 0.12461327 0.07228459 0.1491304 0.12961452 0.017123546
0.054703422 0.11418425 0.02282266 0.06794977 -0.08078152 0.013539946 0.044885926 0.15690014
-0.06913962 0.05630235 -0.06262206 0.06826584 0.06248807 -0.022933168 0.07358485 -0.04142447
-0.016183732 -0.1341163 -0.06969912 -0.004484157 -0.104641765 -0.10360992 -0.14543606 0.0016608847
-0.014193713 -0.10608825 0.022574304 -0.05045165 -0.11011238 0.06571515 -0.085604295 0.13024423
-0.07461324 -0.046454996 0.03144677 -0.043033633 0.045819644 0.11314475 -0.01984456 0.10003986
0.10460796 0.110359915 -0.04382399 -0.1407424 0.034819752 0.077764794 -0.03440719 0.13183913
0.05314293 0.023280568 -0.09327442 -0.088142045 -0.058705468 -0.008690908 0.026891595 0.019904936
-0.026030434 0.09050672 0.018853353 0.098721035 0.15810987 -0.07517741 -0.10765916 0.0639538
-0.034653712 -0.0801163 0.024064494 0.080862835 0.04784407 -0.05310869 0.0235511 -0.030867893

mu.bias f4 [10]
00000000: 25fd 65bd 9475 5cbd 6d81 283b a979 37bd
00000010: 8360 dabc b203 8d3d eda9 3ebd 669b 613b
00000020: d7b8 823d 29c7 e13b
-0.05614962 -0.05382307 0.002571191 -0.04479376 -0.026657348 0.068854704 -0.046548773 0.00344249
0.06382912 0.006890197

var.weight f4 [10, 100]
00000000: 88df 243d 2382 b43a 4766 2b3d cc84 8dbd
00000010: af4c 9fbd 0931 dfbb de6b 4d3d d325 7bbc
00000020: 2535 a6bd e86d c2bb faeb 363d 3052 af3d
00000030: 2f45 553c 62e2 c13b fa49 ccbc ad75 aebd
00000040: f699 893d 9a63 973d 4e88 05bd 69cb b9bc
00000050: 10f9 b4bd ed43 3e3d 0a0e a0bd 721e a33d
00000060: 3a45 0dbd 7f07 23bd b93e b1bd ebe2 7ebd
00000070: 70de 643d c908 5c3d ab27 bfbc 8af8 3a3d
00000080: c80e bd3d 568c 98bc c6c9 7a3c c6f0 84bd
00000090: ed5b b73d 3287 cc3d 04e6 bdbd a370 453d
000000a0: 74cf 8abd aa7c 4cbd de88 513c e230 6dbd
000000b0: c852 363c 58ea e439 6223 713a 6c62 4d3d
000000c0: ad6f 7bbc 9ea5 56bd 603a 243d 8cc9 ab3d
000000d0: 45a7 08bd 1021 a6bd 4382 c63c 4e26 30bd
000000e0: 64da 833d 4080 a33d 3887 a8bd fef1 253c
000000f0: 8959 aabb f91f 893d 104e e63c 9ff8 a33d
00000100: b4a9 4c3d 1839 38bd 80ae 94bb 9995 b93d
00000110: 76f6 62bd e58c 6b3d 32bf 7f3d e5c8 973c
00000120: b0df bc3d 963c 66bd 858e 50bd 9144 623d
00000130: 5e1f a4bd 54f2 fc3c 784c 9a3d d24f 823d
00000140: f16b 893b bca4 60bc e3ec 99bd fd4b ac3d
00000150: c2eb 143b 5eb6 3b3c af74 c0bd 05b6 5fbc
00000160: 5aff 763d b73f d0bc cd2b 3e3d 28d0 283d
00000170: 549b 3cbd 9379 b9bd 74e7 a03d 8404 813d
00000180: 3eb9 a23d bab3 16bd 45b7 07bd 9626 ed3c
00000190: ceb4 8e3c 97b0 fabc c5e5 a1bd 888c 8bbd
000001a0: 048f a9bd 1100 e4bc 9c24 fe3c 4560 46bc
000001b0: 8830 93bd 550c 6b3d 0f19 993d 40b6 953d
000001c0: d529 a5bc ef9b b2bd 06c5 b83c 4efe a8bd
000001d0: 6ef1 91bd 307b 81bc 422b babd 58f4 973d
000001e0: a4b0 7d3d 2a0c 323d 57d1 db3c ad59 923d
000001f0: 5c8e 49bd fd37 363d a4e5 553c 59ac b73c
00000200: a1c6 0b3d 5df0 433d 83f0 b63d 9572 a43c
00000210: 60d5 353d 3995 40bd 5ec3 083d 5855 1ebc
00000220: 3ae2 76bd 6908 e33d d7f1 713d 1d4d 47bd
00000230: c949 b23d 6fb4 43bd 5089 6dbc 5974 13bd
00000240: 68e9 bd3c 7073 6ebd ea0a b5bd 9ce5 57bd
00000250: dc4a 8abd b5e6 05bd 68eb b33c f5c8 9bbc
00000260: 4f79 9f3d cd33 62bd 5fd1 0abd 66ba 573d
00000270: c5c1 063c 3a4c 5ebd 8540 9b3d b69b aa3c
00000280: 4199 9d3d a5fb d93b c0a4 073d a65e ff3b
00000290: 812e 8a3d 4792 70bc a0a8 1dbd 3ce1 dcbc
000002a0: 25e6 8abd 25c7 53bc 88a8 a5bd 1cb9 423d
000002b0: 46a6 90bd 4111 17bc a3ff 5c3d eeea a23d
000002c0: ac0c 9cbd e382 333c 96c8 9d3b f7f6 b4bd
000002d0: c5bb 08bd b92e 8b3d b12e bbbc bf0e 473d
000002e0: 9b53 0d3b d1a3 313d 626d 803d f446 463c
000002f0: 814c 1dbd c4f9 27bc be88 cdbd 4d33 fbbc
00000300: 92f7 853d b921 833d 1ea3 b63c c624 60b9
00000310: bbc1 d5bb cd3f 99bd 9173 a43d c558 a03b
00000320: e724 babd c04d 87bb abfe 933d 1c4e a7bd
00000330: 191b 883d 027f 483d c7e6 82bd 7eae 493d
00000340: 0b89 83bc 2395 a13d 7ada 4bbd 837e 463d
00000350: 72ef 1cbd 28f3 f83c b295 ab3d c548 debc
00000360: 9b10 54bc c422 72bd 9899 f2bc a53d 42bd
00000370: 7ed8 583c 956c d4bc 870d 33bd 9949 08bc
00000380: d585 90bd 8447 3b3d 08d0 64bd 90f2 b83d
00000390: 49a8 a8bd 90ff 4c3c 9e91 0fbd f430 99bd
000003a0: 6555 0dbd 54c9 d0bd 2819 783c 676a a6bc
000003b0: aabd b4bd 0c65 a33c d71e c9bd 7176 bcbd
000003c0: bbbb b8bc 7787 9abc 7ee0 1dbd f899 6fbd
000003d0: 9c0d 223c 186b bc3d da42 a93b c215 6c3d
000003e0: 548a c53d a87c 883d b06f 96bd 5cde 37bc
000003f0: d942 aa3b c720 b33c ae8e 753d c622 54bd
0.04025224 0.0013771694 0.041845586 -0.069100946 -0.07778298 -0.0068112654 0.0501517 -0.015328842
-0.08115605 -0.005933512 0.04465864 0.08560598 0.013016983 0.0059168795 -0.024937619 -0.085185386
0.06718819 0.07392044 -0.032600693 -0.022680001 -0.088365674 0.046451498 -0.07815178 0.07964791
-0.034489848 -0.03980207 -0.086545415 -0.062228125 0.055876195 0.053719316 -0.023334345 0.04564718
0.09231335 -0.018621605 0.015306896 -0.064912364 0.0895308 0.09986724 -0.092723876 0.048203122
-0.0677785 -0.049923576 0.012788979 -0.057907946 0.011128135 0.00043662149 0.0009198693 0.05014269
-0.01534645 -0.05240404 0.040094733 0.083880514 -0.033362646 -0.08111775 0.024232036 -0.04300528
0.06438139 0.07983446 -0.08228916 0.010128496 -0.0051986617 0.066955514 0.028113395 0.08006405
0.04996653 -0.044976324 -0.0045374036 0.090617366 -0.055410825 0.057507414 0.062438197 0.018528411
0.092223525 -0.056210123 -0.050917167 0.05524117 -0.08013795 0.03087727 0.075341165 0.06362881
0.004193776 -0.013711151 -0.07515886 0.08412931 0.002272353 0.011457054 -0.09397256 -0.013654237
0.060302116 -0.025421007 0.04642849 0.04121414 -0.04604657 -0.090563916 0.07856646 0.062996894
0.079454884 -0.036792494 -0.033133764 0.028949063 0.017420199 -0.030601783 -0.07905153 -0.068139136
-0.08279231 -0.027832063 0.031023316 -0.012107913 -0.07186991 0.057384808 0.07475483 0.07310152
-0.020161549 -0.08721148 0.022554886 -0.0825163 -0.07126127 -0.01580581 -0.09090282 0.07419652
0.061936036 0.04346863 0.02683322 0.071460105 -0.04920803 0.04448699 0.013055239 0.022421049
0.034124974 0.04783665 0.08932593 0.020074168 0.044392943 -0.04701731 0.03338944 -0.009663902
-0.06027434 0.110855885 0.059068527 -0.048657525 0.0870548 -0.047779497 -0.01449807 -0.03599963
0.023182586 -0.05821556 -0.08839972 -0.052709207 -0.067525595 -0.032690722 0.021962836 -0.019016722
0.0778681 -0.055225182 -0.033891078 0.052667998 0.008224909 -0.054271914 0.075806655 0.020826202
0.076952465 0.006652313 0.033116102 0.0077932654 0.06747151 -0.014683313 -0.03849089 -0.026962869
-0.06782178 -0.012925898 -0.080887854 0.047539815 -0.07062964 -0.009220422 0.05395473 0.079549655
-0.076196045 0.010956499 0.0048151715 -0.08836167 -0.033382196 0.06796021 -0.022849413 0.048598047
0.0021564725 0.043369118 0.06270863 0.0121018775 -0.038403038 -0.01025242 -0.10035847 -0.03066411
0.06541361 0.064029165 0.022294577 -0.00021376004 -0.0065233386 -0.07482872 0.08029855 0.0048933947
-0.0908907 -0.0041291416 0.072263084 -0.08169195 0.066457935 0.04894925 -0.063916735 0.049238674
-0.016056558 0.07889774 -0.049768902 0.048460495 -0.03831429 0.030389383 0.083781615 -0.027134309
-0.012943412 -0.059115186 -0.029614255 -0.04742207 0.0132352095 -0.025930682 -0.043714073 -0.008318328
-0.070567764 0.0457225 -0.055862457 0.0903064 -0.08235223 0.012512103 -0.03505098 -0.0748004
-0.034505267 -0.1019465 0.0151427165 -0.020314408 -0.08825238 0.019945644 -0.09820335 -0.092022784
-0.022550454 -0.018863423 -0.03854417 -0.058496445 0.00989094 0.09200114 0.00516544 0.057637937
0.096455246 0.06664401 -0.073455215 -0.011222448 0.005195957 0.021866215 0.059950523 -0.051790975

var.bias f4 [10]
00000000: 9dc6 23be 3f87 3bbe 4a6d 96bd b1a8 f13c
00000010: 7f46 c7bd 323c 07be c969 e8bd 7872 053b
00000020: 86db aebd c09e febd
-0.15993734 -0.18313311 -0.07345064 0.029499384 -0.09730243 -0.13206556 -0.11348302 0.0020362418
-0.085379645 -0.12432623
