tutorial/data/test_small/interim_data_test/models/model_10_29.pt (torch, 78273 bytes, 18 tensors)

encoderlayers.0.weight f4 [100, 70]
0	0x3d527636	0.051382266
1	0x3dadb147	0.084810786
2	0x3dd7a214	0.10528961
3	0x3ce0cc1d	0.027441079
4	0xbdad9c6f	-0.08477103
5	0x3d33300a	0.043746985
6	0x3e13e03e	0.1444101
7	0xbd7633f9	-0.06010816
8	0xbd377abc	-0.044794783
9	0xbdbada06	-0.09123616
10	0xbd09d6f2	-0.033652253
11	0xbce93e86	-0.028472196
12	0x3d0a1cb2	0.033718772
13	0xbd9f9333	-0.07791748
14	0xbdb21ed2	-0.08697285
15	0xbddc6b26	-0.107626244
16	0xbc897ae3	-0.01678223
17	0x3c93c603	0.018038755
18	0x3dfba577	0.12287419
19	0x3db66077	0.08905118
20	0xbd526496	-0.051365457
21	0xbda58dda	-0.08083697
22	0x3d042021	0.032257203
23	0xbd960269	-0.073246785
24	0xbd49779d	-0.049186338
25	0x3d0e5674	0.034750417
26	0xbb262396	-0.00253508
27	0xbccf78ec	-0.025326215
28	0x3c35eea6	0.0111042615
29	0x3d7839fd	0.060602177
30	0x3cc970c4	0.024589904
31	0xbdefe1e9	-0.11713011
32	0xbddfc1a1	-0.10925604
33	0xbdda93c9	-0.10672719
34	0x3d8e3ac8	0.069448054
35	0x3db9dbea	0.090751484
36	0x3d85d0b1	0.06533945
37	0x3d6dbde2	0.058042414
38	0xbd251ab5	-0.040308673
39	0xbdc7020e	-0.09717189
40	0xbd53afbe	-0.051681273
41	0xbceab6e2	-0.028651658
42	0x3c62760b	0.013822089
43	0xbd42df84	-0.047576442
44	0xbb60a851	-0.0034280012
45	0x3dd3715f	0.10324358
46	0x3dae91e6	0.08523922
47	0xbd5694de	-0.052388065
48	0xbd1792d2	-0.037005253
49	0x3d7b6c82	0.061382778
50	0x3cd3fa1e	0.025876101
51	0xbd8301b7	-0.063968115
52	0x3da7b582	0.08188917
53	0xbdc1df85	-0.09466461
54	0xbcca50fc	-0.02469682
55	0x3b9f50da	0.004861933
56	0xbd48ccc2	-0.049023397
57	0x3da05bb8	0.07829994
58	0xbdc82e5f	-0.097744696
59	0xbdc6ea2a	-0.09712632
60	0x3da5c44e	0.08094083
61	0xbbc6c795	-0.0060662725
62	0x3d763292	0.06010682
63	0xbd8155d1	-0.06315196
64	0xbc872be7	-0.016500426
65	0xbda3c449	-0.07996423
66	0xbd1f4671	-0.038885538
67	0x3d650a72	0.055918165
68	0x3b096074	0.0020962032
69	0xbda0f0d6	-0.07858436
70	0xbd80a65b	-0.0628173
71	0x3d13c8a1	0.036080007
72	0xbdf89258	-0.12137288
73	0x3caffeae	0.021483745
74	0xbce79a79	-0.0282719
75	0x3d721321	0.059100274
76	0x3c63932c	0.013890069
77	0xbbfb56ad	-0.0076702447
78	0x3d4e3f43	0.0503533
79	0xbe2668d0	-0.1625092
80	0xbd6e466c	-0.05817263
81	0x3a5f6b42	0.00085227576
82	0xbc980b6d	-0.018560136
83	0x3d04a911	0.032387797
84	0xbd9bdc3f	-0.07610368
85	0xbce992b3	-0.028512334
86	0xbdc79bdb	-0.09746524
87	0xbcdb1215	-0.02674202
88	0x3d58acab	0.052899044
89	0x3c50eda2	0.012751969
90	0x3daae0ef	0.08343684
91	0x3d807543	0.06272366
92	0x3d36a552	0.044591255
93	0x3ddb9904	0.10722545
94	0x3d8139f4	0.06309882
95	0x3d9718ea	0.07377799
96	0xbc9f6ef2	-0.019462083
97	0xbd60122e	-0.054704838
98	0x3d72749b	0.059193235
99	0x3def0b5c	0.116720885
100	0xbd5e0f30	-0.054213703
101	0x3d967032	0.07345618
102	0x3de7b451	0.113136895
103	0xbdd67f6c	-0.104735225
104	0xbd2d6573	-0.042333078
105	0xbddf436d	-0.10901532
106	0x3d037d53	0.03210194
107	0xbd931935	-0.07182542
108	0x3d27e2b8	0.0409877
109	0xbd5ded07	-0.054181125
110	0xbbd78674	-0.0065773074
111	0x3c91fb99	0.017820166
112	0x3db633b9	0.08896584
113	0x3ccaadf1	0.024741145
114	0x3deca599	0.11555023
115	0x3ccfd827	0.025371624
116	0x3c9071a4	0.017632313
117	0xbda45729	-0.08024437
118	0xbd7166e7	-0.058936026
119	0xbd9ac7a8	-0.07557613
120	0xba9b39d5	-0.0011842797
121	0x3d9322db	0.071843825
122	0xbddd508a	-0.10806377
123	0xbb32b411	-0.0027267972
124	0xbdd12362	-0.10211827
125	0x3c67f03f	0.0141564
126	0xbc262c2c	-0.010142367
127	0xbc1e70bd	-0.009670434
128	0x3dfa4862	0.12220837
129	0xbd81e74b	-0.06342944
130	0xbc8e3668	-0.017359927
131	0xbda812aa	-0.08206685
132	0x3b332225	0.0027333584
133	0x3dc49c70	0.096001506
134	0xbd280bab	-0.041026752
135	0x3d57ef68	0.05271855
136	0xbbea928d	-0.0071585835
137	0xbd66832b	-0.056277435
138	0xbd4dcce1	-0.050244216
139	0x3d5c3daf	0.053769764
140	0xbd891d36	-0.06695025
141	0x3de6581f	0.112472765
142	0xbd966d50	-0.073450685
143	0xbd6dd7e1	-0.058067206
144	0xbd720b92	-0.059093066
145	0xbdd1c750	-0.10243094
146	0x3d8caeb6	0.06869261
147	0xbdc27e1c	-0.0949671
148	0xbb163c71	-0.002292421
149	0x3d444686	0.04791882
150	0xbca59701	-0.020213606
151	0xbd588486	-0.05286076
152	0x3dcf55f0	0.10123813
153	0x3bdb7f61	0.0066985344
154	0xbdb0259c	-0.086009234
155	0x3d73901d	0.05946361
156	0xbd2a2662	-0.04154051
157	0xbd07958b	-0.0331016
158	0xbab80cbd	-0.0014041882
159	0xbd14efea	-0.036361612
160	0x3d7c9b6f	0.06167167
161	0x3cf2e16f	0.02964851
162	0x3d67fd49	0.056638036
163	0x3d9bb33f	0.07602548
164	0x3d7a5242	0.061113603
165	0x3dbf8268	0.09351045
166	0x3d129ed0	0.035795987
167	0xbd409af6	-0.047022782
168	0xbddce5cb	-0.10786017
169	0xbdc956e5	-0.09831027
170	0xbd60436e	-0.054751806
171	0xbdd551ae	-0.1041597
172	0xbdb5b0c8	-0.08871609
173	0xbdb9a357	-0.09064358
174	0xbcf7066f	-0.030154435
175	0xbdcedc49	-0.1010061
176	0xbda08d22	-0.07839419
177	0xbdccbf76	-0.09997456
178	0x3bb6290e	0.0055590933
179	0xbd59c19b	-0.053163152
180	0xbd3c0e9e	-0.045912378
181	0xbde5ca8f	-0.112202756
182	0xbdce8742	-0.10084392
183	0xbcdcbe47	-0.0269462
184	0xbd985cf4	-0.074396044
185	0x3d928529	0.071543045
186	0xbae54e60	-0.0017494671
187	0xbaf9be0c	-0.0019053831
188	0x3d60c0f8	0.05487153
189	0x3db3e1d8	0.08783311
190	0xbd7da813	-0.061927866
191	0x3d691fb0	0.056914985
192	0xbd627e9f	-0.055296537
193	0x3da0f622	0.07859446
194	0xbc7c593b	-0.015402134
195	0xbd2b80f9	-0.041871045
196	0x3c3eab90	0.011637583
197	0xbd69418a	-0.05694727
198	0xbd9e6e2e	-0.07735859
199	0xbda720cf	-0.081605546
200	0xbdc134dd	-0.09433911
201	0xbc45f136	-0.012081435
202	0xbccedec7	-0.025252713
203	0xbdc02164	-0.09381369
204	0xbd5b83ec	-0.053592607
205	0xbdd261ec	-0.10272583
206	0x3beb93db	0.0071892566
207	0xbda1fda0	-0.07909703
208	0x3d5a61ef	0.053316053
209	0x3cb345a9	0.021883802
210	0x3d847902	0.06468393
211	0x3de8fda2	0.113765016
212	0x3e475a78	0.19468105
213	0xbb21a5db	-0.0024665508
214	0xb9d60663	-0.0004082202
215	0x3df48b13	0.11940589
216	0x3c875940	0.01652205
217	0xbdd0e780	-0.10200405
218	0x3dcd0b76	0.100119516
219	0xbc9f3f4f	-0.019439368
220	0xbdbfde9c	-0.09368631
221	0xbc41164d	-0.011785102
222	0x3d742c91	0.059612814
223	0xbd231e1c	-0.039823636
224	0xbc297319	-0.010342383
225	0x3da35fd6	0.07977264
226	0xbdbdd65f	-0.09269404
227	0xbdd44890	-0.10365403
228	0x3dbac90f	0.0912038
229	0x3c86196d	0.016369546
230	0xbd6a3586	-0.05717995
231	0xbce89d72	-0.028395388
232	0xbd80653e	-0.062693104
233	0x3d105345	0.035235662
234	0xbca9ccaf	-0.020727484
235	0x3d3ec7c3	0.046577226
236	0x3d9e9039	0.07742352
237	0xbd82e947	-0.0639215
238	0xbd87e95a	-0.06636305
239	0xbd59e2b2	-0.05319471
240	0xbcf6e0d4	-0.030136503
241	0xbd73db25	-0.059535164
242	0x3d0dc186	0.034608386
243	0x3c06d0b5	0.008228471
244	0x3caa5517	0.020792527
245	0x3d380a00	0.04493141
246	0xbdcfbcb5	-0.10143415
247	0x3cef1dec	0.029189073
248	0x3db24365	0.08704261
249	0x3c8dc439	0.01730548
250	0xbd3842d2	-0.0449856
251	0x3d43b7fc	0.047782883
252	0xbd5c1141	-0.053727392
253	0x3d17739f	0.0369755
254	0x3dcf642d	0.10126529
255	0x3df542a3	0.119756006

encoderlayers.0.bias f4 [100]
0	0xbca258f5	-0.019817809
1	0x3dbfeecc	0.09371719
2	0x3db5750a	0.08860214
3	0xbdcd4cc7	-0.1002441
4	0x3bc0416c	0.005867174
5	0x3d891ab1	0.06694544
6	0xbc943565	-0.018091867
7	0x3d8357f3	0.06413259
8	0x3d951fa3	0.07281425
9	0xbca79153	-0.020455038
10	0xbb474cb8	-0.0030410718
11	0xbceadca4	-0.028669663
12	0x3cdde506	0.027086746
13	0xbd45a4fd	-0.04825305
14	0xbc9059b1	-0.017620893
15	0xbd7ac506	-0.061223052
16	0xbd88996f	-0.0666989
17	0x3ddc59e9	0.107593365
18	0x3d173516	0.03691586
19	0x3d96fd50	0.07372534
20	0xbd8fca23	-0.070209764
21	0xbd00a20a	-0.031404532
22	0xbd74be24	-0.059751645
23	0x3db70c2d	0.08937869
24	0xbda277a8	-0.07932979
25	0xbd773aad	-0.060358692
26	0x3db38409	0.08765418
27	0xbdc42f7b	-0.09579369
28	0x3d940127	0.07226782
29	0xbc42f491	-0.0118991295
30	0xbdbc6692	-0.09199251
31	0x3da2d6b9	0.07951111
32	0x391c38eb	0.00014898523
33	0x3deeeee1	0.11666656
34	0x3d0ed1fe	0.034868233
35	0x3d9faa50	0.077961564
36	0xbd336c7d	-0.043804634
37	0x3dcffd81	0.10155774
38	0xbdc59ed4	-0.09649435
39	0xbd4f9571	-0.050679628
40	0xbcb5e976	-0.02220605
41	0xbda1843e	-0.07886551
42	0x3d3ebced	0.046566892
43	0xbdda03e1	-0.10645271
44	0x3a86297e	0.0010235754
45	0x3dc0fd10	0.09423268
46	0xbdd5dd7b	-0.10442635
47	0xbd929b7a	-0.07158561
48	0xbc81feac	-0.015868507
49	0x3da711d8	0.081577
50	0x3d555886	0.052086376
51	0x3dcf0b8c	0.10109624
52	0x3d96e2de	0.0736749
53	0x3cf94a07	0.030430807
54	0xbd51a309	-0.051180873
55	0xbcedb284	-0.029015787
56	0x3d200223	0.039064538
57	0xbd8eeb53	-0.06978478
58	0xbcff11a9	-0.03113635
59	0xbde5b9eb	-0.11217102
60	0x3da5e5d4	0.08100477
61	0x3d910878	0.070816934
62	0xbd15e74a	-0.036597528
63	0x3ddce18d	0.10785208
64	0x3df2bb0b	0.11852082
65	0x3bf1b2fc	0.007376073
66	0xbc916989	-0.017750518
67	0x3d5086e6	0.0509099
68	0xbd9bc962	-0.0760677
69	0x3d40cbae	0.047069244
70	0xbc60cb1a	-0.013720298
71	0xbcbfbf20	-0.023406565
72	0xbd187c37	-0.037227836
73	0xb9d8dee9	-0.00041364811
74	0xbcabb16a	-0.020958621
75	0xbb875463	-0.0041299327
76	0xbdb277b2	-0.08714236
77	0xbd1b3ff1	-0.037902776
78	0xbd3a5919	-0.045495126
79	0xbde77b65	-0.113028325
80	0xbce3022f	-0.027711002
81	0xbb1b70a2	-0.0023718257
82	0xbd95dee3	-0.07317903
83	0xbd7d5258	-0.061846107
84	0xbdc40a4f	-0.09572279
85	0xbda50701	-0.080579765
86	0x3d88bffb	0.06677242
87	0x3db1c29f	0.08679699
88	0x3db18bdd	0.08669255
89	0xbd528a9e	-0.051401727
90	0x3cce92e2	0.025216524
91	0xbb632cdd	-0.0034664192
92	0xbc44ad60	-0.012004226
93	0x3ce4c6bd	0.027926797
94	0x3cd6e93c	0.026234262
95	0x3d32b977	0.043633904
96	0x3da3dbff	0.08000945
97	0x3d9e5c07	0.077323966
98	0x3df0caba	0.11757417
99	0x3d9a0541	0.07520533

encodernorms.0.weight f4 [100]
0	0x3f821fe2	1.016598
1	0x3f84fb11	1.0389119
2	0x3f840f75	1.0317217
3	0x3f84acc6	1.0365226
4	0x3f85d0be	1.0454328
5	0x3f819a22	1.0125163
6	0x3f81b56d	1.0133492
7	0x3f86211d	1.0478855
8	0x3f8184f8	1.0118704
9	0x3f8280ac	1.0195518
10	0x3f8101ac	1.0078635
11	0x3f826efd	1.0190121
12	0x3f82ffae	1.0234277
13	0x3f874698	1.0568419
14	0x3f86b68e	1.0524461
15	0x3f87d943	1.0613178
16	0x3f8a079b	1.0783571
17	0x3f83548f	1.026018
18	0x3f8506b0	1.0392666
19	0x3f7bbdb3	0.98336333
20	0x3f862d4e	1.0482576
21	0x3f8554e5	1.0416533
22	0x3f89c338	1.0762701
23	0x3f83f19b	1.0308107
24	0x3f7f3102	0.99684155
25	0x3f852150	1.0400791
26	0x3f82b19c	1.0210452
27	0x3f879b16	1.0594203
28	0x3f8491ad	1.0356957
29	0x3f811151	1.008341
30	0x3f86abaf	1.0521144
31	0x3f861b92	1.0477164
32	0x3f84142a	1.0318654
33	0x3f8406c2	1.0314562
34	0x3f7cf1db	0.9880654
35	0x3f831174	1.0239701
36	0x3f83d577	1.0299519
37	0x3f811852	1.0085547
38	0x3f826290	1.0186329
39	0x3f82ef05	1.0229193
40	0x3f86c64c	1.0529265
41	0x3f8372e8	1.0269442
42	0x3f84df89	1.0380718
43	0x3f845696	1.0338924
44	0x3f85ab51	1.0442907
45	0x3f84bb38	1.0369635
46	0x3f87aa63	1.0598873
47	0x3f80e4c3	1.0069813
48	0x3f84aace	1.0364625
49	0x3f89086a	1.0705693
50	0x3f8431c4	1.0327687
51	0x3f83e6cf	1.0304812
52	0x3f86a59f	1.0519294
53	0x3f82d6bb	1.022178
54	0x3f857470	1.0426159
55	0x3f87a8d7	1.0598401
56	0x3f836d90	1.0267811
57	0x3f83c41a	1.029422
58	0x3f850be7	1.0394257
59	0x3f842e20	1.0326576
60	0x3f81bea8	1.0136309
61	0x3f82fbb1	1.023306
62	0x3f837228	1.0269213
63	0x3f82cdaa	1.0219014
64	0x3f855ebb	1.0419534
65	0x3f874cce	1.0570314
66	0x3f848477	1.0352925
67	0x3f86a86b	1.0520147
68	0x3f860953	1.0471596
69	0x3f845920	1.0339699
70	0x3f84652e	1.0343378
71	0x3f85a139	1.0439826
72	0x3f85de80	1.0458527
73	0x3f88a79d	1.0676152
74	0x3f8565c8	1.0421686
75	0x3f808ea6	1.0043533
76	0x3f87ddcb	1.0614561
77	0x3f8495e6	1.0358245
78	0x3f85fe5a	1.0468247
79	0x3f82a0cf	1.0205325
80	0x3f88a1b8	1.0674353
81	0x3f813d7c	1.0096889
82	0x3f822e5b	1.0170397
83	0x3f83e948	1.0305567
84	0x3f81d8cc	1.0144286
85	0x3f8699fd	1.0515743
86	0x3f863e5d	1.0487782
87	0x3f82c39d	1.0215946
88	0x3f874d89	1.0570537
89	0x3f7db545	0.9910472
90	0x3f87270f	1.0558795
91	0x3f86653a	1.0499642
92	0x3f854f32	1.0414793
93	0x3f7fc3f9	0.99908406
94	0x3f7c2574	0.9849465
95	0x3f843051	1.0327245
96	0x3f84e6d9	1.0382949
97	0x3f847301	1.0347596
98	0x3f823c91	1.0174733
99	0x3f7ef606	0.9959415

encodernorms.0.bias f4 [100]
0	0xbc673039	-0.014110618
1	0x3d0e3f73	0.03472848
2	0x3da9a411	0.08283246
3	0xbd2f54e0	-0.042805552
4	0x3d279de5	0.040922064
5	0xbd8c030e	-0.0683652
6	0x3db37cc5	0.08764032
7	0x3c1e278f	0.009652986
8	0xbc3405f0	-0.010987744
9	0xbbcdd7eb	-0.006281843
10	0xbd01a165	-0.03164806
11	0x3d7c8104	0.061646476
12	0xbd3a2c57	-0.045452442
13	0xbd1c70be	-0.038193457
14	0x3c116855	0.008874972
15	0xbdb0df81	-0.0863638
16	0x3dd07e54	0.10180345
17	0xbd82d5c0	-0.06388426
18	0x3dc149ed	0.09437928
19	0x3ce8875a	0.028384853
20	0x3d9b7e30	0.07592428
21	0xbc9cff65	-0.01916475
22	0xbcded33d	-0.027200336
23	0x3ca5fe14	0.020262755
24	0x3c8df864	0.017330356
25	0x3c273d07	0.010207421
26	0xbd7bc385	-0.06146576
27	0xbb896a13	-0.0041935532
28	0xbc75b483	-0.014996651
29	0xbd5bece7	-0.053692725
30	0x3d045f5c	0.032317504
31	0xbd8cfc0b	-0.06884011
32	0x3dae061b	0.08497258
33	0xbd9ea295	-0.07745854
34	0x3d0b6570	0.034032285
35	0x3c4c9c86	0.01248849
36	0x3dd21d5d	0.10259507
37	0x3d80c922	0.06288363
38	0xbd730173	-0.059327554
39	0x3cbf411b	0.023346474
40	0xbd69e79d	-0.05710565
41	0x3d79aecf	0.060957726
42	0x3b9b0345	0.0047306144
43	0x3d105fcd	0.035247613
44	0x3d4e4118	0.050355047
45	0x3ce827d3	0.028339302
46	0x3aa7b925	0.0012796266
47	0x3c467f57	0.012115321
48	0x3d3c918c	0.04603724
49	0xbd5ab17b	-0.053391915
50	0xbbe0fcd5	-0.0068660774
51	0x3da62d81	0.08114148
52	0x3c37deda	0.011222566
53	0x3d484d4f	0.048901852
54	0xbd9e69df	-0.07735037
55	0x3cebfbb2	0.028806541
56	0xbdcaf001	-0.09909058
57	0x3d022dcf	0.031781968
58	0x3cfd5954	0.030926384
59	0xbcfaffcd	-0.030639553
60	0x3d70f9d7	0.058832016
61	0xbb8c3d83	-0.0042797937
62	0xbcdd8a30	-0.027043432
63	0x3dad6a39	0.08467526
64	0x3b553108	0.0032530446
65	0xbd3e6ee7	-0.046492483
66	0x3d2b54cd	0.04182892
67	0xbd2e6cb5	-0.04258414
68	0x3c3f2166	0.011665678
69	0xbd4af059	-0.04954562
70	0xbc528301	-0.012848617
71	0xbd2bec85	-0.04197361
72	0xbc0b7810	-0.008512512
73	0xbcbc1375	-0.022958497
74	0xbd5be31e	-0.053683393
75	0x3bc8ecd9	0.00613175
76	0x3d46c39c	0.04852639
77	0xbd9fb4e3	-0.07798173
78	0xbce68210	-0.02813819
79	0x3d633886	0.055473827
80	0xbc6dc0e7	-0.0145113235
81	0x3dbadeec	0.0912455
82	0xbd92a2f4	-0.07159987
83	0xbd1ed05b	-0.038772922
84	0x3d48eaef	0.049052175
85	0x3d98050a	0.07422836
86	0xbd4cb184	-0.04997398
87	0xbd32f0e3	-0.04368676
88	0x3dae2c62	0.08504559
89	0x3daa2b0b	0.08308991
90	0xbdf9767d	-0.12180803
91	0xbd8fb0ee	-0.070161685
92	0xbc9f1b58	-0.019422218
93	0xbdbe101e	-0.09280418
94	0xbd6a99b8	-0.057275504
95	0xbd8f7cfa	-0.07006259
96	0xbc65fc1b	-0.014037157
97	0xbd94cf56	-0.07266109
98	0xbc3751db	-0.011188949
99	0xbcff26a5	-0.031146357

encodernorms.0.running_mean f4 [100]
0	0x3d966a3a	0.0734448
1	0x3e329584	0.17439848
2	0x3c1c514e	0.009540869
3	0x3e411b35	0.18858035
4	0x3e854701	0.26030734
5	0x3da50fd5	0.0805966
6	0x3b949466	0.004534292
7	0x3e3a0a80	0.18168068
8	0x3ce6ead6	0.02818815
9	0x3cf44732	0.029819105
10	0x3d986da0	0.07442784
11	0x3cd322d7	0.025773449
12	0x3e93cccf	0.28867194
13	0x3deb95af	0.11503159
14	0x3e74a657	0.23891579
15	0x3e71065c	0.23537582
16	0x3ea82bae	0.32845825
17	0x3cab5d23	0.020918434
18	0x3e691fc1	0.2276602
19	0x3c6dcbbc	0.014513906
20	0x3e4c62b2	0.19959524
21	0x3e317989	0.17331518
22	0x3ea83008	0.32849145
23	0x3e9c7e82	0.30565268
24	0x3c480f50	0.012210682
25	0x3e580741	0.21096517
26	0x3e75d33e	0.24006364
27	0x3e41e674	0.18935567
28	0x3e42edaa	0.19035974
29	0x3e878af0	0.26473188
30	0x3e59b88c	0.21261805
31	0x3e2479b4	0.16062051
32	0x3e545f93	0.20739584
33	0x3d5ca6a0	0.053869843
34	0x3de12828	0.10993987
35	0x3e4a2983	0.19742398
36	0x3dc5c6f0	0.09657085
37	0x3e50fb91	0.20408465
38	0x3d849bf1	0.06475056
39	0x3e4f41a6	0.20239887
40	0x3ec85c0e	0.39132732
41	0x3d8062e8	0.06268865
42	0x3e8b5169	0.2721055
43	0x3dad6bc9	0.08467824
44	0x3ebe73c7	0.37197706
45	0x3e9e4b09	0.30916622
46	0x3b275a4e	0.0025536004
47	0x3de7f2bc	0.11325595
48	0x3e15127d	0.14557834
49	0x3e803525	0.25040546
50	0x3e5bedad	0.21477385
51	0x3e7c136e	0.24616787
52	0x3e6f4f36	0.2337006
53	0x3db9c000	0.09069824
54	0x3e78081b	0.24221842
55	0x3e904bc0	0.28182793
56	0x3e392ec1	0.18084241
57	0x3e637038	0.22210777
58	0x3ef29545	0.4737951
59	0x3b1d9813	0.0024046942
60	0x3e1a8131	0.15088345
61	0x3f487408	0.7830205
62	0x3dc43847	0.095810466
63	0x3ecc3d31	0.39890435
64	0x3e4dca54	0.20096713
65	0x3ebbd504	0.36685956
66	0x3e931586	0.2872736
67	0x3e3d2df6	0.18474564
68	0x3e98f607	0.29875204
69	0x3e042b8e	0.1290724
70	0x3ec143e2	0.37747103
71	0x3eba2e1f	0.36363313
72	0x39085d94	0.00013004831
73	0x3e97c14b	0.29639658
74	0x3e6f45ec	0.23366517
75	0x3c2bd400	0.010487556
76	0x3e85594e	0.26044697
77	0x3e71dab8	0.23618591
78	0x3ecaa6a5	0.39580265
79	0x3e91a430	0.28445578
80	0x3e2ddc00	0.16978455
81	0x3dd40d66	0.10354118
82	0xbadf0939	-0.0017016298
83	0x3dcf99b9	0.10136742
84	0x3dc183ea	0.09448989
85	0x3e60d1f8	0.21955097
86	0x3da3beb6	0.079953596
87	0x3de52a35	0.11189691
88	0x3eac8c5a	0.3370083
89	0x3c6a27d9	0.014291727
90	0x3f085498	0.5325408
91	0x3e503406	0.20332345
92	0x3d77ed55	0.06052907
93	0x3dd34244	0.103153735
94	0x3dc1fc6b	0.09471973
95	0x3dfc68e9	0.123246975
96	0x3ea64d97	0.3248107
97	0x3e909f5f	0.2824659
98	0x3e9abff0	0.30224562
99	0x3e76be4f	0.24096034

encodernorms.0.running_var f4 [100]
0	0x3ce85953	0.028362906
1	0x3d5c2904	0.053750053
2	0x3b80f672	0.0039356286
3	0x3d62ccaa	0.055370964
4	0x3dc7bcfe	0.09752844
5	0x3ce30369	0.027711587
6	0x3b47e046	0.0030498668
7	0x3da64d5e	0.08120225
8	0x3c3036ef	0.010755285
9	0x3c7a4c20	0.015276939
10	0x3d03ff52	0.032225914
11	0x3bf53a1a	0.007483733
12	0x3ddde22f	0.10834157
13	0x3d418499	0.047245596
14	0x3d987dd9	0.074458785
15	0x3dbc99d5	0.09209029
16	0x3e046bdb	0.12931769
17	0x3c127506	0.008939033
18	0x3d9f6999	0.07783813
19	0x3bd79604	0.0065791626
20	0x3daf8bdf	0.085716
21	0x3d60a6f9	0.054846738
22	0x3dd0c1f0	0.10193241
23	0x3dd4c26f	0.10388648
24	0x3ba29fb1	0.0049628844
25	0x3da88649	0.08228738
26	0x3db85b07	0.09001737
27	0x3d9e0b13	0.07716956
28	0x3dd0bb21	0.10191942
29	0x3dbc0cbc	0.091821164
30	0x3da195af	0.07889878
31	0x3d5e2328	0.054232746
32	0x3db08656	0.086193725
33	0x3c70e931	0.014704035
34	0x3d3ddabe	0.046351187
35	0x3d876d4d	0.06612644
36	0x3d107a78	0.035273045
37	0x3d9d8c23	0.076927446
38	0x3cd4df2f	0.025985328
39	0x3d9e21ee	0.07721315
40	0x3e315eb3	0.17321281
41	0x3cb9fbc1	0.022703053
42	0x3df18c20	0.11794305
43	0x3ce6263a	0.0280944
44	0x3dbd7ce9	0.0925234
45	0x3dcd49ea	0.100238636
46	0x3b6aed07	0.0035846846
47	0x3d2a02f5	0.041506726
48	0x3d8a9632	0.06766929
49	0x3d9dc033	0.07702675
50	0x3da4453f	0.0802102
51	0x3dc0a2f4	0.09406081
52	0x3d993d46	0.0748239
53	0x3cdd7105	0.027031431
54	0x3da61a65	0.08110503
55	0x3e02ccf9	0.12773503
56	0x3d956163	0.07293966
57	0x3dc22bcf	0.09481012
58	0x3e3e7c88	0.18602192
59	0x3b7127a9	0.003679732
60	0x3d895ecb	0.067075334
61	0x3e770e95	0.24126656
62	0x3d21c8ab	0.039498013
63	0x3df7fc16	0.121086285
64	0x3d997229	0.074924774
65	0x3e12deff	0.14342879
66	0x3dd8b9fb	0.10582348
67	0x3d5e5e00	0.054288864
68	0x3df39655	0.11893908
69	0x3d797af7	0.060908284
70	0x3e0782df	0.13233517
71	0x3df9511f	0.12173676
72	0x3aeaee46	0.0017923794
73	0x3dc64675	0.09681407
74	0x3dbb4a83	0.09145071
75	0x3baa8ce1	0.0052047824
76	0x3dc08a62	0.094013944
77	0x3dc858e1	0.09782577
78	0x3e0bd18d	0.13654156
79	0x3dfce4a1	0.12348295
80	0x3d69c1a1	0.057069425
81	0x3d1ce49e	0.038303964
82	0x3ad59639	0.001629538
83	0x3d29b8f6	0.041436158
84	0x3d1263f3	0.03573985
85	0x3da6f51a	0.08152218
86	0x3d0961a3	0.03354038
87	0x3d1f337a	0.03886745
88	0x3de7156a	0.11283381
89	0x3bb7e3f2	0.00561189
90	0x3e3b2799	0.18276824
91	0x3d97c0d0	0.07409823
92	0x3c95341f	0.01821333
93	0x3d2c9e4a	0.042143144
94	0x3d2232a8	0.03959909
95	0x3d373480	0.044727802
96	0x3ddf0cd0	0.10891116
97	0x3dad626f	0.0846604
98	0x3dd7b019	0.10531635
99	0x3dcbb120	0.09945893

decoderlayers.0.weight f4 [100, 10]
0	0x3e5e8c65	0.21733244
1	0xbe9a337f	-0.30117413
2	0x3e4c2bc3	0.19938569
3	0xbdda7124	-0.10666111
4	0x3dc5ce6c	0.096585125
5	0xbd71fec5	-0.059080858
6	0x3e20a08b	0.15686242
7	0xbe8183c0	-0.2529583
8	0x3d6842fe	0.056704514
9	0xbde95b16	-0.113943264
10	0x3e22140f	0.15827964
11	0x3e2261da	0.1585764
12	0xbde03688	-0.10947901
13	0x3e72c420	0.23707628
14	0x3dfafc20	0.1225512
15	0xbd98480f	-0.07435619
16	0xbe5fde61	-0.21862175
17	0x3de365d5	0.11103407
18	0x3e8f0f46	0.2794134
19	0xbce31491	-0.027719768
20	0x3e565532	0.20930937
21	0xbe25ce33	-0.1619194
22	0xbe957143	-0.29187974
23	0x3e47b2da	0.1950182
24	0xbe9aac76	-0.30209702
25	0x3e362bb0	0.17790103
26	0xbdfabdb4	-0.12243214
27	0xbe7839a3	-0.24240737
28	0x3df4ce55	0.11953417
29	0x3cc8ece0	0.024527013
30	0xbe019b4b	-0.12656896
31	0x3d95a83d	0.073074795
32	0x3d32cda6	0.043653153
33	0xbe473c65	-0.19456632
34	0xbd4eb81a	-0.05046854
35	0x3cc1c278	0.0236523
36	0x3b5c2b40	0.0033595115
37	0x3ace1ef4	0.0015725777
38	0x3d08402d	0.033264328
39	0x3d809fde	0.06280492
40	0x3e78ae4d	0.2428524
41	0x3cc846d3	0.024447834
42	0xbe3a652d	-0.18202658
43	0x3d704948	0.058663636
44	0x3dc6c6a8	0.097058594
45	0xbe5a097d	-0.21292682
46	0xbe69a5a6	-0.22817096
47	0xbe90fd78	-0.2831838
48	0x3cf36451	0.02971092
49	0xbe874081	-0.264164
50	0xbe437d3c	-0.19090742
51	0xbde01e1f	-0.10943245
52	0x3e45a4ea	0.19301191
53	0x3e0b4deb	0.13603942
54	0xbd56372f	-0.05229872
55	0x3e2b5f80	0.16735649
56	0xbe9a89c8	-0.30183244
57	0x3e3a9a1f	0.18222855
58	0x3cfdc9f4	0.030980088
59	0xbde99530	-0.114054084
60	0xbd7ee393	-0.06222875
61	0x3e168a2e	0.14701149
62	0xbe7329d7	-0.2374643
63	0x3ea21236	0.3165452
64	0x3e71ece6	0.23625526
65	0xbdb60ac8	-0.08888775
66	0x3e3c042b	0.18360965
67	0x3d6368dc	0.055519924
68	0x3e565032	0.2092903
69	0xbcfb7d70	-0.030699462
70	0xbd8f29e6	-0.06990413
71	0x3e456258	0.19275796
72	0x3e8bfcf2	0.2734142
73	0xbd9c93e7	-0.07645398
74	0xbe4435a6	-0.1916109
75	0xbe81d1e2	-0.2535544
76	0x3e1b1b31	0.15147091
77	0xbe838f60	-0.25695324
78	0xbd88c117	-0.06677454
79	0xbe5f170f	-0.2178614
80	0x3e79810f	0.24365638
81	0xbd9a4e99	-0.075345226
82	0xbd46d1f5	-0.048540074
83	0xbe1b994e	-0.151952
84	0x3ea35f86	0.31908816
85	0xbdfff10b	-0.12497147
86	0x3e83340e	0.25625652
87	0xbe60c05a	-0.21948376
88	0x3de5fdeb	0.11230072
89	0xbe1855a9	-0.14876427
90	0x3e647815	0.22311433
91	0xba35935d	-0.0006926561
92	0x3dc82a74	0.09773722
93	0xbe4a252a	-0.1974074
94	0x3d077601	0.03307152
95	0xbe648f69	-0.22320332
96	0xbe738a64	-0.2378326
97	0x3e1ccb07	0.15311824
98	0x3cceb26d	0.025231564
99	0xbd9d6d1d	-0.07686827
100	0xbe8691a4	-0.2628299
101	0xbe1c85a4	-0.15285355
102	0x3e98465d	0.29741183
103	0xbdd9e7c3	-0.10639908
104	0x3d2378d0	0.039910138
105	0xbd8844d4	-0.06653753
106	0x3ccf8cc8	0.025335684
107	0x3e992465	0.2991058
108	0x3e4b2436	0.19838032
109	0x3e436bdd	0.19084115
110	0x3d8179bd	0.06322048
111	0x3bf4297a	0.0074512335
112	0xbe836c6d	-0.2566866
113	0xbd769e08	-0.060209304
114	0x3e9595a9	0.29215744
115	0xbe68bc60	-0.2272811
116	0x3b85e530	0.004086159
117	0x3e863d33	0.26218566
118	0xbd4db705	-0.05022337
119	0xbdf92328	-0.12164909
120	0xbcf14660	-0.029452503
121	0xbe8511d9	-0.2599018
122	0xb9b30c81	-0.00034150857
123	0xbe117127	-0.1420332
124	0x3c2b8600	0.01046896
125	0xbe8713d1	-0.26382306
126	0x3e7a1225	0.24420984
127	0x3e0d2f8d	0.1378767
128	0xbe039364	-0.12849194
129	0x3d95839f	0.07300495
130	0x3ccaf638	0.02477561
131	0xbe838082	-0.2568398
132	0x3e36d9fc	0.17856592
133	0x3e36e552	0.17860916
134	0x3c62e098	0.013847493
135	0xbe895636	-0.26823586
136	0xbe93ac3a	-0.28842336
137	0xbe843498	-0.25821376
138	0x3e7ba2ff	0.24573897
139	0xbe01b227	-0.12665616
140	0xbccc9a57	-0.024975939
141	0xbca1b7f4	-0.019741036
142	0x3e235978	0.15952098
143	0xbd2f2d88	-0.04276803
144	0x3da0c237	0.078495435
145	0x3e789a63	0.24277644
146	0xbc25c1aa	-0.010116974
147	0xbcea8aa4	-0.028630562
148	0x3d809fe0	0.06280494
149	0x3e639edd	0.2222857
150	0xbe2371a5	-0.1596132
151	0xbb10ecb2	-0.0022113738
152	0xbde2ff12	-0.11083807
153	0xbe398615	-0.18117554
154	0xbea2d7d7	-0.31805298
155	0xbd98b001	-0.07455445
156	0xbda81be5	-0.082084455
157	0xbd14a425	-0.036289353
158	0x3e97218c	0.29517782
159	0x3e8188c8	0.25299668
160	0x3c8205d1	0.015871914
161	0xbe6b38e1	-0.22970916
162	0x3e779462	0.24177697
163	0x3d8ca734	0.06867829
164	0xbe7d0d50	-0.2471211
165	0xbe120bf6	-0.14262375
166	0xbe527e9c	-0.2055611
167	0xbe07ce78	-0.13262355
168	0xbd702d64	-0.058637038
169	0xbdaabf3b	-0.083372556
170	0x3ea19fd2	0.31567246
171	0xbe16e98e	-0.14737532
172	0xbe551460	-0.20808554
173	0xbe2d1a7e	-0.16904637
174	0x3d9e4608	0.07728201
175	0xbd9f8473	-0.077889346
176	0xbd717f0a	-0.058959045
177	0xbe95ad7b	-0.29233918
178	0xbe8b5577	-0.27213642
179	0x3e4e130b	0.20124452
180	0x3d81db9a	0.06340714
181	0xbe8ae0a6	-0.27124518
182	0xbe4f0850	-0.20218015
183	0x3e7af422	0.24507192
184	0x3e11a201	0.14221956
185	0x3d952c4c	0.072838396
186	0xbe6db026	-0.23211727
187	0xbe6afde7	-0.22948419
188	0xbe7ef083	-0.24896435
189	0xbd866d0f	-0.0656377
190	0xbdc0a862	-0.094071165
191	0xbe43db96	-0.19126734
192	0xbdcccdb1	-0.1000017
193	0xbd47fb2d	-0.048823524
194	0x3c4f9a5c	0.0126710795
195	0x3d9ccf79	0.0765676
196	0xbd80deb0	-0.06292474
197	0xbe00993e	-0.12558457
198	0xbc2959d8	-0.010336362
199	0xbc846369	-0.016160684
200	0x3c9551ab	0.018227419
201	0x3c74a51c	0.014931943
202	0x3ddb386b	0.1070412
203	0x3e33399e	0.17502448
204	0x3e363c24	0.1779638
205	0xbdb2036f	-0.08692061
206	0x3de02c91	0.10946
207	0xbdc491c1	-0.09598113
208	0xbea1faf4	-0.31636775
209	0xbd1b57ad	-0.03792541
210	0x3d8dcade	0.069234595
211	0xbe9566f4	-0.2918011
212	0x3da8cd02	0.08242227
213	0xbea0c8c2	-0.31403166
214	0xbe189a8f	-0.1490271
215	0x3d247231	0.040147964
216	0x3e09499e	0.13406989
217	0x3e7635f9	0.24044026
218	0x3e93947a	0.28824216
219	0xbe1eb293	-0.15497808
220	0xbbbc185c	-0.0057402086
221	0xbe2d7bc3	-0.16941743
222	0x3e64db27	0.22349225
223	0x3e1150f7	0.14191042
224	0xbea75ad7	-0.32686493
225	0xbea59623	-0.32341108
226	0xbe86a538	-0.26297927
227	0xbe097b37	-0.13425909
228	0xbc57dcaf	-0.013175174
229	0x3dc89410	0.09793866
230	0xbbdbe9ed	-0.0067112357
231	0xbe5098b8	-0.20370758
232	0x3e9133a3	0.28359708
233	0x3db5ea8a	0.088826254
234	0x3d8aa70f	0.06770145
235	0xbe37ab6d	-0.17936487
236	0xbbc432da	-0.0059875073
237	0x3db7c15f	0.089724295
238	0x3e60d60f	0.21956657
239	0xbd1cdf7c	-0.03829907
240	0xbe2a08de	-0.16604945
241	0x3dd81349	0.10550553
242	0x3dfe9457	0.12430637
243	0xbe1a8e28	-0.15093291
244	0xbd92055f	-0.07129931
245	0x3dc8a150	0.09796393
246	0xbe3123d3	-0.17298822
247	0xbe8d6a3c	-0.27620113
248	0x3e0642b4	0.13111383
249	0xbe1683ae	-0.1469867
250	0xbe104527	-0.1408888
251	0x3da10c06	0.078636214
252	0xbe329096	-0.17437968
253	0xbe2fce3e	-0.17168519
254	0x3d63c6c1	0.05560947
255	0x3cae2228	0.021256521

decoderlayers.0.bias f4 [100]
0	0xbe2b9420	-0.16755724
1	0xbe11fabc	-0.14255804
2	0xbbb89c9c	-0.0056339037
3	0xbe8a12a6	-0.26967353
4	0xbe8b0ce2	-0.27158266
5	0xbe708039	-0.23486413
6	0xbc7da8a2	-0.0154821
7	0xbe7257a9	-0.23666252
8	0xbe1ffc07	-0.15623485
9	0x3d42e3d1	0.047580544
10	0x3e6a5382	0.22883418
11	0x3d21b876	0.039482556
12	0xbe8d98bc	-0.2765559
13	0xbd9cb10c	-0.076509565
14	0xbe37d0b4	-0.17950708
15	0x3ea443e9	0.3208306
16	0xbd296df4	-0.041364625
17	0xbe296d20	-0.16545534
18	0xbddb6cb7	-0.10714095
19	0xbe5ae7ae	-0.21377441
20	0x3d7c94a2	0.061665185
21	0xbde55ccc	-0.1119934
22	0xbe4af108	-0.19818509
23	0xbe07d31d	-0.13264127
24	0x3ddaa7f3	0.10676565
25	0xba3c8bae	-0.0007192445
26	0x3e02e4bc	0.12782568
27	0xbdd57753	-0.1042315
28	0xbcb29b4f	-0.021802573
29	0x3c0ce652	0.0085998345
30	0xbe37dd37	-0.1795548
31	0xbe2cf6ab	-0.16890971
32	0xbda5ae06	-0.08089833
33	0xbe21e9d7	-0.15811859
34	0x3e5dd04e	0.21661493
35	0xbddc935a	-0.107702926
36	0x3e9b63aa	0.30349475
37	0xbcb27e70	-0.021788806
38	0x3e8e4542	0.27787215
39	0xbcd7a8c7	-0.026325596
40	0x3e4645cd	0.19362564
41	0x3d2fd607	0.04292872
42	0x3e04f810	0.12985253
43	0x3e8f1840	0.2794819
44	0xbdbc1286	-0.091832206
45	0xbdf269a1	-0.11836553
46	0x3e158dc0	0.14604855
47	0x3e6f16fc	0.23348612
48	0xbe7c3477	-0.24629389
49	0xbc99395c	-0.018704109
50	0x3e3f0d57	0.18657432
51	0x3dd4a796	0.10383527
52	0x3cac86d6	0.021060389
53	0xbe2a5a74	-0.16636068
54	0x3e25802d	0.16162176
55	0x3e9f0ef4	0.31066096
56	0xbe86a49e	-0.26297468
57	0xbe0d0ea7	-0.1377512
58	0x3e2e295f	0.1700797
59	0x3e9773f3	0.2958065
60	0x3e15a618	0.14614141
61	0xbe03f97e	-0.12888142
62	0xbe32f992	-0.17478016
63	0xbe08fafc	-0.13376993
64	0x3e00d4b0	0.12581134
65	0x3dd0d282	0.10196401
66	0x3db9af6e	0.09066664
67	0x3e3bc2e1	0.18336059
68	0xbc1ecf8a	-0.009693036
69	0xbd1e9e28	-0.03872505
70	0x3e909019	0.28234938
71	0xbc9bc2bb	-0.019013753
72	0xbe89e82c	-0.26934946
73	0xbb9a79af	-0.004714213
74	0x3d6841f1	0.05670351
75	0xbd48a651	-0.048986737
76	0x3d530201	0.051515583
77	0x3d655bbf	0.0559957
78	0x3be09c56	0.006854574
79	0x3db0e9de	0.086383566
80	0x3e8a6c57	0.27035782
81	0xbdb40139	-0.08789296
82	0x3e552661	0.20815422
83	0xbdad258e	-0.084544286
84	0xbe9058d4	-0.2819277
85	0x3e36c9af	0.17850374
86	0xbe58c458	-0.21168649
87	0xbd9aeb9b	-0.075644694
88	0xbd8e587a	-0.06950469
89	0x3eafca33	0.34333953
90	0x3e9e07e5	0.30865398
91	0x3dd73d7b	0.10509773
92	0x3d63f4c0	0.055653334
93	0xbcde3ba0	-0.02712804
94	0x3d0a8ec9	0.033827577
95	0x3e2ff37b	0.17182724
96	0x3e420bb2	0.18949774
97	0x3df1b138	0.1180138
98	0xbd9903c0	-0.074714184
99	0x3e810492	0.251988

decodernorms.0.weight f4 [100]
0	0x3f74c08e	0.95606315
1	0x3f743b02	0.9540254
2	0x3f77d588	0.968102
3	0x3f6ebce1	0.93256956
4	0x3f704c68	0.93866587
5	0x3f755205	0.95828277
6	0x3f723a1a	0.94619906
7	0x3f6f66d2	0.93516266
8	0x3f6e7cc2	0.93159115
9	0x3f727a67	0.9471802
10	0x3f7c706b	0.98609036
11	0x3f74b753	0.9559223
12	0x3f6e88b9	0.9317737
13	0x3f763350	0.96172047
14	0x3f7612b9	0.9612232
15	0x3f77fb3e	0.9686774
16	0x3f71f7fa	0.9451901
17	0x3f736925	0.9508231
18	0x3f7273a4	0.94707704
19	0x3f72e49b	0.94880074
20	0x3f745d5f	0.95454973
21	0x3f7781b0	0.9668226
22	0x3f715766	0.94273984
23	0x3f716b00	0.94303894
24	0x3f765b60	0.9623318
25	0x3f71ba0c	0.9442451
26	0x3f73540f	0.9505014
27	0x3f7939fe	0.97354114
28	0x3f7050d4	0.93873334
29	0x3f749ce7	0.95551914
30	0x3f6ee69d	0.9332064
31	0x3f6f8d03	0.9357454
32	0x3f723753	0.9461567
33	0x3f7a05a0	0.97664833
34	0x3f775e0d	0.96627885
35	0x3f7d06bd	0.98838407
36	0x3f7a46d6	0.9776434
37	0x3f729f39	0.94774204
38	0x3f732149	0.94972664
39	0x3f6fcfaf	0.93676275
40	0x3f745c13	0.95452994
41	0x3f72fd56	0.9491781
42	0x3f7b353d	0.9812811
43	0x3f725d03	0.94673175
44	0x3f765117	0.96217483
45	0x3f717ef3	0.94334334
46	0x3f7798c6	0.9671749
47	0x3f75338b	0.95781773
48	0x3f75153d	0.9573553
49	0x3f72c88e	0.9483727
50	0x3f6f989a	0.93592227
51	0x3f78f04b	0.9724166
52	0x3f6fe510	0.93708897
53	0x3f76c616	0.96396005
54	0x3f778bd2	0.96697724
55	0x3f796ce5	0.97431785
56	0x3f75d7bf	0.9603233
57	0x3f6eabd8	0.9323096
58	0x3f76de12	0.964326
59	0x3f708fcc	0.93969417
60	0x3f73ff0d	0.9531105
61	0x3f757f10	0.95897007
62	0x3f6ddc8a	0.9291464
63	0x3f77e6d8	0.96836615
64	0x3f791394	0.972955
65	0x3f755cf8	0.95844984
66	0x3f7bce94	0.9836209
67	0x3f7626cb	0.96152943
68	0x3f75a9a4	0.95961976
69	0x3f74d8ed	0.956435
70	0x3f76a0cb	0.963391
71	0x3f705bbe	0.9388999
72	0x3f707a25	0.9393638
73	0x3f7641c3	0.96194094
74	0x3f798c6b	0.97479886
75	0x3f6bdad6	0.9213079
76	0x3f73bb67	0.9520783
77	0x3f71265b	0.9419915
78	0x3f785964	0.970114
79	0x3f751ad0	0.9574404
80	0x3f728e89	0.9474874
81	0x3f75a2ce	0.95951545
82	0x3f71f773	0.945182
83	0x3f74f82f	0.956912
84	0x3f725967	0.9466767
85	0x3f747fcd	0.9550751
86	0x3f723c85	0.94623595
87	0x3f72b603	0.9480898
88	0x3f710525	0.94148475
89	0x3f6eda79	0.9330211
90	0x3f76079b	0.96105355
91	0x3f77fb40	0.9686775
92	0x3f7399f1	0.9515677
93	0x3f7487c2	0.9551965
94	0x3f6eb4e7	0.93244785
95	0x3f6e5f03	0.93113726
96	0x3f78b380	0.97148895
97	0x3f794439	0.97369725
98	0x3f797a4f	0.97452253
99	0x3f78eaa4	0.97233033

decodernorms.0.bias f4 [100]
0	0x3c2e6679	0.010644549
1	0x3c93e0dd	0.01805156
2	0x3ba107d4	0.0049142633
3	0xbca7bf7b	-0.020477047
4	0x3c857e28	0.016295508
5	0x3c9e2850	0.019306332
6	0x3b21267c	0.002458959
7	0x3c3e6efb	0.0116231395
8	0x3ceb99fa	0.028759945
9	0x3c5f5f0c	0.013633501
10	0x3bd79c5c	0.006579919
11	0xbbc7cabe	-0.006097167
12	0xbc60e116	-0.01372554
13	0x3b97d862	0.004633949
14	0xbcb99e2f	-0.022658436
15	0x3d1aa1b1	0.037751857
16	0x3afb82f1	0.0019188804
17	0x3ba1a3c6	0.0049328534
18	0x3c84efcf	0.01622763
19	0x3ccfe346	0.025376927
20	0x3c412858	0.011789404
21	0xbb7a04fc	-0.0038149944
22	0x3a763385	0.0009391832
23	0xbb2715d7	-0.0025495195
24	0xbc538aa0	-0.012911469
25	0xbcfbf4d5	-0.030756393
26	0xbccbfc33	-0.024900531
27	0x39854c5c	0.0002542463
28	0x3bf231bf	0.007391184
29	0xbcf1d75d	-0.029521639
30	0xbca84083	-0.020538574
31	0x3b36d259	0.0027896373
32	0xbc71a2a1	-0.014748246
33	0xbc3f9654	-0.011693556
34	0xbc868eff	-0.016425608
35	0xb917310e	-0.00014418756
36	0x3caf4baa	0.021398384
37	0x3cb90eba	0.02259003
38	0xbc7473d1	-0.014920191
39	0x3bb3e782	0.0054902444
40	0xba67b73f	-0.00088392565
41	0xba216e28	-0.0006158077
42	0x3c7ed444	0.015553538
43	0xbcb9d9bc	-0.022686832
44	0x3cadaccc	0.02120056
45	0xbba3f35c	-0.005003376
46	0xbc4975c2	-0.012296142
47	0xbbb4a48e	-0.0055127805
48	0xbb4d6193	-0.0031338676
49	0x3cc40bd2	0.023931418
50	0x3afa8862	0.0019114132
51	0xbd136f2a	-0.035994686
52	0xb9ee044a	-0.00045398093
53	0x3cdaf9df	0.026730476
54	0x3c40609c	0.0117417835
55	0x3c86c32f	0.016450493
56	0xbc90455d	-0.0176112
57	0x3c06a505	0.008218055
58	0xbaab4eda	-0.0013069764
59	0xbcc173c3	-0.02361477
60	0xbd313f44	-0.043273225
61	0xba8ebe27	-0.001089041
62	0x3b2bcc6a	0.002621437
63	0x3d064332	0.032778926
64	0xbc6b66a7	-0.014367736
65	0xbc13b9b4	-0.009016443
66	0xbbe09ba7	-0.0068544927
67	0xbb0c19c0	-0.0021377653
68	0xbcce5450	-0.025186688
69	0xbc33b502	-0.010968449
70	0xbb3e6f70	-0.002905812
71	0xbc645cc7	-0.0139381355
72	0xbc886e34	-0.016654111
73	0xbae61446	-0.0017553649
74	0xbcf0c996	-0.029392999
75	0xbcbb9f3a	-0.022903074
76	0x3cb81524	0.022471018
77	0xbc1123ac	-0.0088586025
78	0xbd180e21	-0.03712285
79	0xbc333ef7	-0.010940305
80	0xbc621a6e	-0.013800247
81	0xbc1f3748	-0.00971777
82	0xbaa8233f	-0.0012827887
83	0x3ce055e8	0.027384713
84	0x3cc51b75	0.024060944
85	0xbc8387f9	-0.016056048
86	0x3cd91d71	0.026503297
87	0xbba0dac1	-0.00490889
88	0x3a1257cd	0.00055825413
89	0x3c8b8d29	0.017035084
90	0x3cae97ca	0.021312613
91	0x3c2ce239	0.010551983
92	0x3b9eddfb	0.0048482395
93	0x3b3d684b	0.0028901275
94	0xbc8187ed	-0.015811885
95	0xbcab7900	-0.02093172
96	0x3c3ac2be	0.011398969
97	0xbc0b3b6c	-0.008498054
98	0xbbbe581d	-0.0058088438
99	0xbc573a58	-0.013136469

decodernorms.0.running_mean f4 [100]
0	0x3e70c764	0.23513561
1	0x3e9b81fe	0.30372614
2	0x3ed67f77	0.41894123
3	0x3d38679a	0.045020677
4	0x3e21eb2b	0.15812366
5	0x3e91664f	0.28398368
6	0x3eb658c7	0.35614607
7	0x3e79bf88	0.2438947
8	0x3e8cf079	0.27527216
9	0x3eae1709	0.3400195
10	0x3f0de327	0.5542473
11	0x3ec00111	0.37500814
12	0x3e4d9ae8	0.20078623
13	0x3eba3eb7	0.36375973
14	0x3e0e31e1	0.13886215
15	0x3f112fd8	0.5671363
16	0x3e9f0fd7	0.31066772
17	0x3e9669ff	0.29377744
18	0x3ea2086c	0.3164705
19	0x3d8d9ce8	0.06914693
20	0x3e9e73ce	0.30947727
21	0x3ead596d	0.3385729
22	0x3e9ee032	0.31030422
23	0x3e98f927	0.29877588
24	0x3ea97862	0.33099657
25	0x3e68218a	0.22669044
26	0x3ebb23ce	0.36550754
27	0x3e979ec2	0.2961331
28	0x3e5ef3c7	0.21772681
29	0x3eb3f913	0.35150966
30	0x3e4f6a27	0.20255338
31	0x3e88f917	0.2675254
32	0x3ec3b114	0.38221037
33	0x3e8aed07	0.27133963
34	0x3ee914a8	0.45523572
35	0x3eb5936c	0.35464036
36	0x3eed504e	0.4635033
37	0x3e82c4e5	0.25540844
38	0x3ed526f4	0.4163128
39	0x3eb302f6	0.34963197
40	0x3ee70a6a	0.45125133
41	0x3ec7e3d5	0.3904101
42	0x3ea80dd1	0.3282304
43	0x3f02e084	0.51123834
44	0x3eb7c5a6	0.3589298
45	0x3e7d6d97	0.24748836
46	0x3f00d5e4	0.5032637
47	0x3edf1d74	0.43577158
48	0x3e928dc0	0.28623772
49	0x3e749247	0.23883925
50	0x3ed45db4	0.4147774
51	0x3ece8a5f	0.40339944
52	0x3eb1f916	0.3476035
53	0x3e98b013	0.29821834
54	0x3ee34a4e	0.44392627
55	0x3f103708	0.5633397
56	0x3e3b223b	0.18274777
57	0x3e8707e3	0.26373205
58	0x3ed98e39	0.4249132
59	0x3f009834	0.50232244
60	0x3ef1dbb6	0.4723794
61	0x3e8a7df4	0.2704922
62	0x3e8359bb	0.25654396
63	0x3e7e7170	0.2484796
64	0x3f033fd0	0.51269245
65	0x3ebf86cf	0.37407538
66	0x3eae0836	0.3399064
67	0x3ee07377	0.43838093
68	0x3ec4e74e	0.3845772
69	0x3ec18295	0.3779494
70	0x3f0a133c	0.539356
71	0x3e747b4b	0.23875158
72	0x3ec6d7d0	0.38836527
73	0x3ecb0a70	0.396564
74	0x3ecbdaae	0.39815277
75	0x3e9289f3	0.28620872
76	0x3eaee5b7	0.34159634
77	0x3ead834e	0.3388924
78	0x3ed8f1de	0.4237203
79	0x3ed9b28f	0.42519042
80	0x3efa9349	0.48940495
81	0x3eb9b3c1	0.36269954
82	0x3edddcda	0.4333256
83	0x3edfc2c1	0.43703273
84	0x3e32aba6	0.17448291
85	0x3eeee684	0.46660244
86	0x3e575dac	0.21031827
87	0x3ec96aaf	0.39339206
88	0x3e95b3e9	0.29238823
89	0x3f1bf6ff	0.6092376
90	0x3ee1fced	0.4413828
91	0x3e8946d2	0.26811844
92	0x3eeb96c1	0.46013454
93	0x3ea1d69d	0.3160905
94	0x3ea40c55	0.3204066
95	0x3ef94e45	0.48692527
96	0x3efdd4ca	0.49576408
97	0x3e8dac96	0.27670735
98	0x3e753600	0.2394638
99	0x3ef512de	0.47865957

decodernorms.0.running_var f4 [100]
0	0x3e66381a	0.22482339
1	0x3e863615	0.26213136
2	0x3edca67c	0.43095767
3	0x3c99f247	0.018792285
4	0x3df2801b	0.118408404
5	0x3ea463e3	0.32107458
6	0x3ebeedcf	0.3729081
7	0x3e71c283	0.23609357
8	0x3e81a700	0.25322723
9	0x3e967073	0.29382667
10	0x3ef27e3c	0.47361934
11	0x3e9a7126	0.3016445
12	0x3e1e0f0d	0.15435429
13	0x3ee806f5	0.45317808
14	0x3da4b879	0.08042998
15	0x3f040097	0.515634
16	0x3ea4dd75	0.32200208
17	0x3ea87df4	0.32908595
18	0x3ea5dace	0.32393497
19	0x3cfb7e4f	0.030699877
20	0x3e715c1e	0.23570296
21	0x3ed91672	0.42399937
22	0x3eb1a35d	0.3469495
23	0x3e997802	0.2997437
24	0x3e8f1132	0.27942806
25	0x3e02bc33	0.12767105
26	0x3e9439c3	0.2895032
27	0x3e9a20eb	0.3010324
28	0x3e0fc5af	0.14040254
29	0x3ea9860e	0.33110088
30	0x3e135794	0.14388877
31	0x3e6a5ca7	0.22886907
32	0x3ec0a500	0.37625885
33	0x3e96ab4d	0.29427567
34	0x3eb69c5e	0.35666174
35	0x3ef217a9	0.47283676
36	0x3ec44bfa	0.38339216
37	0x3e2c07fd	0.16799922
38	0x3eab8910	0.33503008
39	0x3e814d02	0.25254065
40	0x3ebef4d0	0.37296152
41	0x3ea4b16c	0.32166612
42	0x3e4a2f07	0.19744502
43	0x3efe1eda	0.49632913
44	0x3ee89a04	0.45430005
45	0x3e4af1a5	0.19818743
46	0x3f0c31b1	0.54763323
47	0x3eb8e32c	0.36110818
48	0x3ea050ef	0.31311747
49	0x3e046620	0.12929583
50	0x3eba81f3	0.36427268
51	0x3edfa7b4	0.43682635
52	0x3e975529	0.2955716
53	0x3e75142f	0.2393348
54	0x3eef02bf	0.46681783
55	0x3f21fb5c	0.6327417
56	0x3e14b0ad	0.14520521
57	0x3e8820e2	0.26587588
58	0x3ec7d9dc	0.390334
59	0x3ef56f59	0.47936514
60	0x3ee44b36	0.4458863
61	0x3e5c0b8d	0.21488781
62	0x3e6f8e4e	0.23394129
63	0x3e4eeae2	0.20206788
64	0x3f178235	0.59183055
65	0x3e9f6f56	0.3113963
66	0x3e767ff3	0.24072246
67	0x3ecc54e5	0.3990852
68	0x3ee142ba	0.4399622
69	0x3eccdabe	0.40010637
70	0x3f0818bb	0.53162736
71	0x3e34003d	0.17578216
72	0x3f0eedc4	0.5583155
73	0x3edde2dc	0.43337142
74	0x3ea9a9d5	0.33137384
75	0x3e78472d	0.24245901
76	0x3e8b4b6b	0.27205977
77	0x3e71fed9	0.23632373
78	0x3ed5267d	0.41630927
79	0x3ef1ad5e	0.4720258
80	0x3ec12829	0.37725952
81	0x3eb4e722	0.3533259
82	0x3ed27b01	0.4110947
83	0x3f011e0f	0.5043649
84	0x3e16d6d5	0.1473039
85	0x3efe5af6	0.49678773
86	0x3e430d04	0.19047934
87	0x3ec6e5fe	0.38847345
88	0x3e921676	0.2853276
89	0x3f1ca6f0	0.61192226
90	0x3ea6a1a8	0.3254521
91	0x3e15678a	0.14590278
92	0x3ef07fad	0.4697241
93	0x3e9ccd26	0.30625266
94	0x3e97a73a	0.2961977
95	0x3ef578c4	0.479437
96	0x3edaa57f	0.42704388
97	0x3e4bb1f5	0.19892104
98	0x3e4209f1	0.18949105
99	0x3ee8ab5b	0.45443234

mu.weight f4 [10, 100]
0	0x3db5d222	0.0887797
1	0xbd6b8322	-0.057498105
2	0x3cb7aacd	0.022420311
3	0x3d56d48f	0.052448805
4	0x3d6357a3	0.0555035
5	0x3d69d924	0.057091847
6	0xbd03bfdd	-0.032165397
7	0x3dda525b	0.10660239
8	0x3d94f3de	0.072730765
9	0xbe103a8e	-0.14084837
10	0x3d3008a6	0.042976998
11	0xbb3acc08	-0.002850296
12	0x3e04fdcf	0.12987445
13	0x3d128abf	0.03577685
14	0x3ddc8512	0.10767569
15	0x3d3bff05	0.045897502
16	0xbd190073	-0.037353944
17	0xbd43b6ee	-0.047781877
18	0x3ca36989	0.019947784
19	0xbcf10157	-0.029419584
20	0x3d9a0b6b	0.07521709
21	0x3d2aee7b	0.04173134
22	0xbd9aa198	-0.07550353
23	0x3d70e21e	0.058809392
24	0x3d6dd67d	0.05806588
25	0xbd622639	-0.055212233
26	0x3d2f1971	0.042748872
27	0xbdedd373	-0.11612596
28	0x3dad2f16	0.084562466
29	0x3d1edb13	0.038783144
30	0xbe09208b	-0.1339132
31	0x3d9f046a	0.07764514
32	0xbcb34082	-0.021881346
33	0x3dc8b5a3	0.098002695
34	0x3d1c51ab	0.038163822
35	0xbdb9cbee	-0.090720996
36	0xbd9bcae8	-0.07607061
37	0xbd3c10f5	-0.04591461
38	0x3ce61767	0.028087331
39	0x3d36cc37	0.04462835
40	0x3e0b0ac0	0.1357832
41	0xbe04825b	-0.12940352
42	0x3d9235d2	0.07139172
43	0x3d50e865	0.05100288
44	0xbd350ba4	-0.044200554
45	0x3dcb30b3	0.09921398
46	0x3c88c042	0.016693238
47	0xbd561294	-0.05226381
48	0x3d0132e5	0.031542677
49	0xbdf63f16	-0.120237514
50	0x3defa281	0.11700917
51	0x3ce80d14	0.028326549
52	0x3d1f7ca4	0.038937226
53	0x3d9a6ab0	0.0753988
54	0xbc1c48b0	-0.009538814
55	0xbdf14cdd	-0.11782239
56	0x3a04a2d0	0.00050596613
57	0x3c3a6d11	0.0113785425
58	0x3d447184	0.04795982
59	0x3da78b91	0.08180917
60	0xbd972ed0	-0.07381976
61	0xbc8b4c16	-0.017004054
62	0xbcb862ad	-0.02250799
63	0xbb39d822	-0.0028357585
64	0x3de2f687	0.110821776
65	0x3db192f0	0.08670604
66	0x3b6dff1d	0.003631539
67	0x3c9bbc7d	0.019010777
68	0x3df07734	0.11741486
69	0x3c644007	0.013931281
70	0x3d09780e	0.03356176
71	0x3dded717	0.10880869
72	0xbdcbee13	-0.099575184
73	0x3ce9c99b	0.028538516
74	0xbc4a68f1	-0.012354122
75	0x3d7f9fcf	0.062408265
76	0xbdcb30b0	-0.09921396
77	0xbdff2c0d	-0.12459574
78	0xbdb90d1c	-0.090357035
79	0xbd38e5dc	-0.045141086
80	0x3af469b1	0.0018647221
81	0x3dcc218b	0.09967335
82	0xbd71352b	-0.058888596
83	0x3d987217	0.07443636
84	0xbd0ead15	-0.034833033
85	0xbc6593d2	-0.014012294
86	0x3d686784	0.056739345
87	0x3dd0aa46	0.10188727
88	0x3cf632b7	0.03005348
89	0x3da782bc	0.081792325
90	0xbe0543a0	-0.13014078
91	0xbc19daa9	-0.009390512
92	0xbe0dcf6e	-0.1384866
93	0x3cc37063	0.023857301
94	0xbbc99d7b	-0.0061528063
95	0x3d3ca785	0.046058197
96	0xbbe90501	-0.007111192
97	0xbd6e371b	-0.05815802
98	0x3d3d4cb7	0.04621574
99	0x3d9e7bb7	0.077384405
100	0xbd200d20	-0.039075017
101	0x3db2e68e	0.08735381
102	0xbd98573c	-0.07438514
103	0x3d2034d1	0.03911287
104	0xbc5260c7	-0.012840456
105	0xbce696e4	-0.028148122
106	0xbc3d5829	-0.011556664
107	0xbd99c5bd	-0.07508419
108	0xbdd2c6fe	-0.10291861
109	0xbc9bd136	-0.019020658
110	0x3d941c8c	0.072320074
111	0xbd39defc	-0.04537867
112	0x3d5dd14c	0.05415468
113	0xbcc545fe	-0.024081226
114	0xbda8e978	-0.08247656
115	0xbde5b100	-0.11215401
116	0x3ddbfb61	0.10741306
117	0xbd256489	-0.04037908
118	0xbdbd469d	-0.09241984
119	0xbd87dba9	-0.06633694
120	0xbd872795	-0.065993465
121	0xba763c97	-0.0009393184
122	0xbd5408a5	-0.051766057
123	0x3d5d0355	0.053958256
124	0xbd596a9f	-0.053080197
125	0x3bf9200b	0.007602697
126	0x3de2cf83	0.11074736
127	0xbdc3196b	-0.095263325
128	0xbbfb9dd7	-0.007678728
129	0xbd3a97c4	-0.04555489
130	0xbcde5c33	-0.027143573
131	0x3d866d72	0.06563844
132	0xbc406388	-0.01174248
133	0x3c120818	0.0089130625
134	0xbd12b607	-0.035818126
135	0x3d5c9474	0.053852513
136	0xbdad4973	-0.08461275
137	0x3d663d90	0.056211054
138	0xbd9d1fc5	-0.07672075
139	0xbcbb41a4	-0.022858448
140	0xbdd5cc64	-0.10439375
141	0xbd3df71c	-0.04637824
142	0x3d1a936d	0.037738252
143	0x3d9f24a6	0.07770662
144	0xbdf60132	-0.12011947
145	0xbd1d9d8d	-0.03848033
146	0xbd8d5efe	-0.06902884
147	0xbd10efb1	-0.035384838
148	0x39cf2f8e	0.00039517548
149	0xbca5a102	-0.020218376
150	0xbc97d0b2	-0.01853213
151	0x3d59c59d	0.053166974
152	0xbd53b2b7	-0.051684108
153	0xbd8b4478	-0.06800169
154	0xbccf75e0	-0.025324762
155	0xbe26fb24	-0.1630674
156	0x3cccc160	0.024994552
157	0xbd17f336	-0.03709718
158	0x3cc966ad	0.024585092
159	0x3cb409bd	0.0219773
160	0xb974254a	-0.00023283545
161	0xbd4941a6	-0.049134873
162	0x3bcf6cad	0.006330094
163	0x3d30951a	0.043110944
164	0xba56b38c	-0.0008190207
165	0x3dbf3c02	0.093376175
166	0xbcccc3dd	-0.024995739
167	0x3c1d6c20	0.009608299
168	0xbdba858d	-0.09107504
169	0xbdba7d3d	-0.091059186
170	0x3dc0509b	0.09390374
171	0xbcaebdbf	-0.021330712
172	0x3b5e2044	0.0033893744
173	0x3d3afc76	0.04565092
174	0x3d2b3e02	0.041807182
175	0x3c3704c7	0.011170573
176	0x3d876446	0.066109225
177	0x3d5f5faf	0.05453461
178	0x3d230dfa	0.03980825
179	0xbd04ed07	-0.03245261
180	0xbc9518ff	-0.018200396
181	0x3d63be53	0.05560143
182	0xbd735239	-0.059404586
183	0x3dd8c26c	0.10583958
184	0x3d49c9e5	0.049264807
185	0xbd383f83	-0.044982444
186	0x3d73e962	0.059548743
187	0xbc5dae61	-0.013530345
188	0x3dc54c36	0.09633677
189	0x3a3f83d1	0.0007305714
190	0x3d51cfd8	0.051223606
191	0x3d522ce0	0.051312327
192	0xbdde831a	-0.108648494
193	0xbd927339	-0.07150883
194	0x3da535be	0.08066891
195	0xbdfa423a	-0.12219663
196	0x3da7b6ab	0.08189138
197	0x3db963b7	0.09052222
198	0xbd49d8d2	-0.04927904
199	0xbb73205e	-0.003709815
200	0x3cf78772	0.030215953
201	0x3e04cfe7	0.12969933
202	0x3d2bc6d3	0.04193766
203	0xbe11fd28	-0.14256728
204	0x3d7b58fa	0.06136415
205	0xbd5eed07	-0.054425266
206	0x3dbfd802	0.09367372
207	0x3d155e05	0.036466617
208	0x3da5b52b	0.08091196
209	0xbca8f713	-0.020625627
210	0xbd779649	-0.060446057
211	0xbd8e88b8	-0.06959671
212	0x3d8d0b5c	0.06886932
213	0x3d5db945	0.054131765
214	0xbdba17ec	-0.09086594
215	0x3d881787	0.066451125
216	0x3aeb829b	0.0017968001
217	0x3d31fd75	0.043454606
218	0xbdd4a54f	-0.103830926
219	0x3cbc345b	0.022974184
220	0x3c096764	0.008386467
221	0x3b06095b	0.0020452354
222	0x3defb051	0.117035516
223	0x3dcc514b	0.09976443
224	0xbdf131a2	-0.11777045
225	0xbd64c07b	-0.055847626
226	0x3b887443	0.00416425
227	0x3e0d0c00	0.13774109
228	0xbdd26b8a	-0.10274418
229	0x3d28072b	0.04102246
230	0xbd7d4df4	-0.06184192
231	0x3d9a4811	0.07533277
232	0x3c764150	0.01503022
233	0xbcc679b7	-0.02422796
234	0xbd6c05ac	-0.057622597
235	0x3d831ad0	0.064015985
236	0xbd9c6d69	-0.07638056
237	0x3cb3454b	0.021883627
238	0xbda57409	-0.080787726
239	0xbdae5a37	-0.08513301
240	0x3ab9ec8c	0.0014184876
241	0xbc610e06	-0.013736254
242	0x3d52ba9c	0.051447496
243	0xbc643311	-0.013928191
244	0xbe09fb98	-0.13474882
245	0xbd2c5571	-0.04207367
246	0x3de003a6	0.10938196
247	0x3cdcda73	0.026959633
248	0x3ddfbfb8	0.10925239
249	0x3debd361	0.11514927
250	0x3b9f03ba	0.004852739
251	0xbd91d8f2	-0.07121457
252	0xbc98e91b	-0.01866584
253	0x3de1ed94	0.110316426
254	0x3dd855f5	0.1056327
255	0x3d38a81c	0.045082197

mu.bias f4 [10]
0	0x3c3f7744	0.01168615
1	0x3d83ae8e	0.06429778
2	0xbdc3de47	-0.095638804
3	0x3b7d5678	0.0038656276
4	0xbd80709c	-0.062714785
5	0xbd0d519c	-0.034501657
6	0x3c5beaf3	0.0134227155
7	0x3c8e81d9	0.0173959
8	0x3de2a9f0	0.11067569
9	0x3d9d2461	0.07672954
