tutorial/data/test_small/interim_data_test/models/model_8_9.pt (torch, 14357 bytes, 18 tensors)

encoderlayers.0.weight f4 [12, 70]
00000000: 3fc4 763e d6ba 89be 9202 083e e8cd 7abd
00000010: da01 54bd 88b5 14be 096c 063e faff 23be
00000020: 46e4 033d ecb8 96bd ba5f d937 a7ae 633c
00000030: e9df 813c 6862 d43d ddfe d63d ce6a d63d
00000040: bcf7 51bd 38d5 113d 4c70 6cbd 782d a8ba
00000050: 1902 c33d 4b3c 1f3d 9eb1 c3bc 8b8a 02be
00000060: 8069 d13d 8139 393d 24bc 5abc 1753 85bd
00000070: a4a8 b83d d185 e53d 5285 903d 253b c43d
00000080: 1c5d e5bc 086e a4bd 6604 26bd 95cf 463d
00000090: a499 65bc be43 5d3d 1e7c af3c 3a14 0abd
000000a0: a43f 1abb b678 893c 60d4 5ebd 35ec 6cbd
000000b0: 8b3f d53d 2f3d 1cbc 3b73 19bd 276a 313d
000000c0: fc42 3039 ca89 5abd 895d 2a3c e0c3 553c
000000d0: 54ef f13c 7274 b03d fb38 623d 683f 2e3d
000000e0: 348a d33b 7dd8 d0bd 764c 88bd 1447 01bc
000000f0: d6e9 953d d894 cb3b 8ca0 613d 5a4c c43b
00000100: 7e16 743d d636 4c3d bd1f 673d f072 3fbd
00000110: 8df3 93bd dac9 803d ea16 66be 880e 5c3e
00000120: bf4f 443c 3d13 073d dc38 3d3d 438e 41bd
00000130: 64e1 a83d 9c0f bd3c 74d2 5a3d 0251 833b
00000140: d8a2 0c3e 91a1 ef3c 10e5 ecbc 6b76 84bc
00000150: 15f6 b53d 16b1 3b3d b0a8 46bd 68e4 58bd
00000160: ed09 99bd 22a1 673d 6350 16bd efae 37bb
00000170: f0dd d03d 4c42 703d eeb7 a4bd 16bb 5c3b
00000180: aae3 a2bd 8b7d 633d daff 2f3c dbc2 553d
00000190: b71f 85bd f7a7 22bd 461a 893d 24f0 373d
000001a0: ca8c 3fbb de67 b53d d893 04bd 8afc 523d
000001b0: ede7 e3bd c689 23bd 5832 bb3d 2dd7 913d
000001c0: c3e9 75bd b6c7 ceba 36f1 cc3c 7819 c03d
000001d0: 8058 803d b053 fb3c f158 deba b346 53bb
000001e0: 133c d53c 3687 a23b 2a16 afbc 4fbf d5bc
000001f0: 32fc b23d eec5 27bd 0da2 8cbd c652 f83d
00000200: 24f0 143d e7f0 603d 03ae 403d 56c5 a03d
00000210: 7bea 323b 5303 37bb b84f dbbc 0f66 053c
00000220: 6340 473d 4361 023d d62d c73d f9d4 ad3c
00000230: 44cd 64be 9ab8 1c3e 8850 1dbd 7ddb c6bc
00000240: 55be 6dbe aa95 643e 33ba b9bc d27a 133e
00000250: 3cce c0ba bdc6 64bd 204e 92bd 999f 4c3d
00000260: 35e1 883c d3b2 533d b04d 963d d14f bb3d
00000270: 7f46 a03d 001e 8e3c 149c 893d cacb d33d
00000280: 4fbf bc3c 5fff fdbc 78bd bbbd 6699 cabd
00000290: 6ea1 d03d 58a6 ea3d ab36 dfbc fb9c 17bd
000002a0: 4ca2 643d bf7c e63d 6fe0 b5bc ac68 5c3d
000002b0: 202a a1bd 5585 0c3c b068 dfbc f9c5 823d
000002c0: cf33 423c aeaf 5abd d2cb ba3d 1c08 3a3d
000002d0: 4709 dfbc e815 babd 4157 a5bd a844 26bd
000002e0: 5d74 87bd c11a ccbd da0b a33d 47ab a33d
000002f0: 676e 4c3c 407f c03d 1187 683c 85bd 3dbd
00000300: b6b7 81bd 5411 893d 746d 3b3c 4710 17bd
00000310: 2ae1 dcbb 4f1e 92bc 50a1 92bd 37d2 873d
00000320: 2a16 0d3c f793 8abd 023e 94bd c25a 92bd
00000330: fc34 63bc 8f4c 123c 1754 273d 7138 14bc
00000340: 5f29 7ebc 440b 92bc 617e 45be 9922 6d3e
00000350: 63c5 313e 5ea0 2c3d 371d 763d 0d98 03be
00000360: 0c06 52be 1209 0a3e 613c 15bd a2d1 e1bc
00000370: 8946 143d aa6f e33c 6b16 cc3d 6147 c6bb
00000380: 862e 03bd 907b 66bc acfd 713c 6a0f 553d
00000390: 7d5e 99bb 8f07 92bd 5a6c 863c 41f2 923d
000003a0: b2f5 99bd 2de9 753c 4fa6 7b3d 1754 3cbd
000003b0: abc9 bb3d a143 cdbc 2189 bdbd c5b1 9abd
000003c0: c735 9a3d 01b0 283d c82f 0e3d a0bd 993d
000003d0: 9d56 bf3b db00 cf3c 2391 d2bd 5c6d 74bd
000003e0: c781 8cbc c2b3 b13c a296 ccbc d7ea 08bd
000003f0: 6e0f 6e3d b4e5 093d 5584 cebd 137d adbd
0.240983 -0.26900357 0.1328223 -0.061231524 -0.05175958 -0.14522374 0.1312715 -0.16015616
0.03220012 -0.0735949 2.5912992e-05 0.013896621 0.015853839 0.10370332 0.1049783 0.1046959
-0.05126165 0.035603732 -0.057724282 -0.0012830934 0.095218845 0.03887586 -0.023888405 -0.12748162
0.10225201 0.045220856 -0.01335052 -0.06509989 0.09016541 0.11207164 0.07056679 0.095815934
-0.0279985 -0.08028799 -0.04053154 0.04853781 -0.014013682 0.054019682 0.021421488 -0.033710696
-0.0023536468 0.016781192 -0.054401755 -0.057842452 0.104125105 -0.009536072 -0.037463408 0.043314125
0.00016809622 -0.053354062 0.010398277 0.0130471885 0.029533066 0.0861596 0.055230122 0.042540938
0.006455684 -0.10197542 -0.06655209 -0.0078904815 0.07319991 0.006212812 0.05508475 0.005990547
0.059591763 0.049856983 0.056426752 -0.046740472 -0.07224188 0.062885 -0.22469679 0.21489918
0.011981904 0.03297733 0.046196803 -0.047254812 0.08246115 0.023078732 0.05342336 0.0040074596
0.13733995 0.029251846 -0.02891782 -0.016169747 0.08884827 0.04582318 -0.048500717 -0.0529522
-0.07472596 0.056550153 -0.036697756 -0.0028027853 0.10198581 0.058656976 -0.08042894 0.0033680848
-0.0795358 0.05553965 0.010742152 0.05218778 -0.0650019 -0.039710965 0.066944644 0.04490675
-0.0029228204 0.08857702 -0.032367557 0.05151037 -0.11128221 -0.039926313 0.09140462 0.0712112
-0.060037386 -0.0015776071 0.025017362 0.09379858 0.0626688 0.030679554 -0.0016963762 -0.0032238185
0.026029622 0.004959966 -0.021372873 -0.0260922 0.08739509 -0.040960245 -0.06866846 0.12125163
0.03636183 0.054917242 0.04704095 0.07850139 0.0027300406 -0.0027925565 -0.026771411 0.008142008
0.04864539 0.031831037 0.097255394 0.021219717 -0.22343928 0.15304795 -0.03840688 -0.024274582
-0.23217137 0.22322717 -0.022671795 0.14402321 -0.00147099 -0.055853594 -0.071438074 0.04995689
0.01670895 0.051684212 0.073390365 0.09146083 0.07825946 0.01734829 0.06719223 0.10341604
0.023040442 -0.03100556 -0.09166998 -0.0989254 0.1018704 0.11457509 -0.027247747 -0.037014943
0.05581884 0.11254262 -0.022201745 0.05381076 -0.07869363 0.008576711 -0.027271599 0.063854165
0.011853172 -0.053390197 0.09120907 0.04541789 -0.027226103 -0.090862095 -0.08073283 -0.04059282
-0.066139914 -0.099660404 0.07961245 0.07991653 0.012477494 0.09399271 0.014192359 -0.046323318
-0.06333868 0.06692758 0.01143967 -0.036880758 -0.006740709 -0.017836718 -0.07159674 0.06631892
0.008611241 -0.06766503 -0.072383896 -0.07146217 -0.013867613 0.008929386 0.04085168 -0.00904666
-0.015512793 -0.017827637 -0.19286491 0.23157729 0.17360453 0.042145126 0.060086455 -0.12850972
-0.20510119 0.13480023 -0.036434535 -0.027565781 0.03620008 0.027763207 0.099652134 -0.0060509895
-0.03202679 -0.0140675455 0.014769953 0.052016653 -0.0046804533 -0.07130348 0.016409088 0.071751125
-0.07517566 0.015009207 0.0614379 -0.04597863 0.091693245 -0.025056662 -0.09254671 -0.07553438
0.075297885 0.041183475 0.034713537 0.07506871 0.0058391825 0.025268963 -0.10281589 -0.059674606
-0.017151726 0.02169216 -0.024974171 -0.033427086 0.058120184 0.033666328 -0.10083834 -0.08471122

encoderlayers.0.bias f4 [12]
00000000: 0bb8 233d 7e8e 1ebc 13f4 ec3d ead2 dc3d
00000010: c265 433d 9692 da3b 0cd6 6a3c 8ee2 4bbc
00000020: 6c0f b73c 1c57 0d3b 6fb4 9dbc 6f7a 133d
0.03997044 -0.0096775275 0.11569991 0.10782416 0.047704466 0.0066703064 0.014333259 -0.012444152
0.02234622 0.0021566814 -0.019251077 0.036005434

encodernorms.0.weight f4 [12]
00000000: af04 933f e783 863f 2f1d 993f 6bc8 903f
00000010: bb08 8f3f 0b01 993f 6cca 963f 3355 963f
00000020: b2f6 7b3f 3df0 8b3f 6fe5 983f ad73 8f3f
1.1485804 1.0509003 1.1962031 1.1311163 1.1174539 1.1953443 1.1780524 1.1744751
0.984233 1.093269 1.1945018 1.1207176

encodernorms.0.bias f4 [12]
00000000: ebef 1bbe 54bb 8e3a e4d0 9f3d afed 12be
00000010: b4a0 25bd 301d fb3c 3d09 ddbc d34a 313e
00000020: 5a07 193e 5b01 29bd 65f8 54be f4a5 c5bd
-0.1522824 0.0010889568 0.078035146 -0.14348482 -0.04043646 0.030653566 -0.026981944 0.173137
0.1494421 -0.04126106 -0.2079788 -0.09650794

encodernorms.0.running_mean f4 [12]
00000000: 38e7 933e e597 c83e 45d5 c73e 561b 883e
00000010: 3579 b63e 0c13 db3e 7c57 803e db6c 823e
00000020: 3d09 6fbb 708a 463e c0ab 953e d10b 9c3e
0.28887343 0.39178386 0.390299 0.26583356 0.3563935 0.4278797 0.25066745 0.25473675
-0.0036474012 0.19388747 0.29232597 0.30477765

encodernorms.0.running_var f4 [12]
00000000: 4259 063e 0f15 063e 5d4e 183e 84fb cc3d
00000010: 54e0 203e 78d4 1b3e f835 b73d 189b d23d
00000020: 138b 7f3a 81e2 a13d a0ac 083e 3655 053e
0.13119987 0.1309397 0.14873643 0.1000891 0.15710574 0.15217769 0.089458406 0.10283488
0.00097482017 0.0790453 0.13347101 0.13020787

decoderlayers.0.weight f4 [12, 8]
00000000: 2f61 bf3e dc96 7fbe 7104 153d 1a60 843e
00000010: 59b3 813e 7d8d 803e bed1 6a3e 7ea9 3bbe
00000020: e269 62bd 2a9e 163e 2249 95be 8289 4cbe
00000030: 0059 a33e 8bbd 35bd 2dff ad3d 21eb 90be
00000040: 21ee 1fbe 4660 183e e187 aa3d a19d de3e
00000050: 9cef 8fbd 3602 9d3e 9217 853e a62d 8d3e
00000060: a208 0abe 08ab acbe 60f2 57bd 2a17 803e
00000070: 3849 1d3d 2784 f4bd cc1a 19be d478 fcbd
00000080: c983 8cbe a2bb 64be 0776 973e f745 24be
00000090: b94b b1bd 808d 5ebe f2cc 7c3b 110c fd3d
000000a0: 4212 a43d 1ff4 2b3e 3fb0 5e3d 32a0 df3d
000000b0: a25f 4fbe c9c0 83bd 0074 e73d 0a75 2cbe
000000c0: e079 193e 95b8 573e 58f2 73bd fd9d 273e
000000d0: 3ddc 4cbe b295 7c3d cd08 113d 3f56 a6be
000000e0: 293d 803e cfbb 7f3d 6be0 4e3e 1d0d bf3d
000000f0: 6b40 01be 6e7d d13d c4f3 cf3e b529 0bbe
00000100: c50d b0be b5de 883e 77c9 34be 376e 1f3e
00000110: 9fb9 403e 0d11 693e 6221 26be 0770 043e
00000120: bb5c 77be 40e1 9f3e cb1b 02bd 0144 5b3e
00000130: 1225 193e 2c01 ecbd 295e 86bc 67c1 123e
00000140: e3a0 323e 52fe cd3d 64c0 fabd e156 5f3e
00000150: 4b89 57be 0c37 4a3d 0ac4 1d3e 5f83 b1be
00000160: cbe8 63bc 6451 85be 251c e3bc 7fd8 d43d
00000170: 4570 92be 2436 73bd 2cfa 71be b68f 7f3d
0.37378833 -0.24959892 0.03638119 0.2585457 0.25332144 0.25107947 0.22931573 -0.18326375
-0.05527676 0.14708772 -0.29157358 -0.1997433 0.3190384 -0.044370215 0.084959365 -0.2830439
-0.15618183 0.14880475 0.08326698 0.43479636 -0.07028124 0.3066575 0.25994545 0.2757389
-0.13479856 -0.33724236 -0.05272138 0.25017673 0.038399905 -0.119392686 -0.14951628 -0.12327734
-0.27444294 -0.22337201 0.29582235 -0.16042314 -0.08657021 -0.21733665 0.0038574305 0.12355817
0.08011295 0.16792344 0.0543673 0.10919227 -0.20251325 -0.06433255 0.11301422 -0.16841522
0.14987898 0.21066506 -0.05955729 0.16368861 -0.20005889 0.061666198 0.035408784 -0.32487676
0.25046661 0.062434968 0.20202796 0.09328673 -0.1262223 0.10229002 0.40615666 -0.13590129
-0.34385505 0.26732412 -0.17654978 0.15569387 0.18820809 0.2276041 -0.16223672 0.1293336
-0.24156468 0.3122654 -0.031764787 0.2141266 0.14955547 -0.11523661 -0.016402321 0.1433159
0.17444186 0.100582734 -0.12243727 0.21810485 -0.21048467 0.049368903 0.15406814 -0.3467054
-0.013910483 -0.2603866 -0.027723381 0.10392856 -0.2860128 -0.059377804 -0.23630589 0.062392913

decoderlayers.0.bias f4 [12]
00000000: c09c 8d3e 7a84 dbbd 4dea 2c3e 5b22 73be
00000010: 7e94 72be 9029 0a3e 35e5 45be e09e 993e
00000020: bbc3 6d3e 9039 6c3e 3a72 ea3d 52fc 4c3e
0.27658653 -0.10718627 0.16886254 -0.23743574 -0.23689458 0.13492417 -0.19325717 0.30004025
0.23219196 0.23068833 0.11447568 0.20018128

decodernorms.0.weight f4 [12]
00000000: d6f4 593f 834f 583f 9eea 543f ef0a 433f
00000010: a8f9 323f b15f 5f3f 2293 483f 6682 573f
00000020: 85b4 543f 0f22 603f ba14 563f bcde 533f
0.85139215 0.84496325 0.831705 0.7618856 0.69912195 0.8725539 0.78349507 0.8418335
0.8308795 0.8755197 0.83625376 0.8276174

decodernorms.0.bias f4 [12]
00000000: 4015 54bd 55ad fdbc 74c6 f23d 249f cd3c
00000010: d3d1 7a3d 94a1 c3ba 115a 06bd 8b6f a03d
00000020: 8229 1bbe f755 993d 1b5d 22bd ccae 9b3d
-0.051778078 -0.03096644 0.11854258 0.025100298 0.06123526 -0.0014925473 -0.032800738 0.07833775
-0.15152553 0.074870996 -0.039639574 0.07601699

decodernorms.0.running_mean f4 [12]
00000000: 20f8 473f 23ee 9a3e a69c 0c3f a6fe 873e
00000010: 62f8 043e b9d3 bd3e 1de0 653e 2bf0 2c3f
00000020: 59ab 443f c460 0f3f 58c7 e33e c947 e63e
0.78112984 0.3025981 0.54926527 0.2656147 0.12985376 0.37075594 0.22448774 0.6755397
0.76823956 0.5600703 0.44488025 0.44976643

decodernorms.0.running_var f4 [12]
00000000: 9ad1 6b3f 9eb6 953e 84b1 113f e177 653e
00000010: 3193 ab3d bf19 733e 5db3 143e baac 463f
00000020: 5360 883f 0202 1a3f 9079 ae3e 8ee3 c83e
0.921167 0.29240888 0.5691149 0.22409011 0.08377684 0.2374029 0.14521547 0.7760731
1.0654396 0.60159314 0.3407712 0.3923611

mu.weight f4 [8, 12]
00000000: f54d 973e 191e 97be 96de 5cbe 9f02 47be
00000010: 6ffd 0ebd a5e9 46be 7edc 78be 7782 8dbd
00000020: 690f cb3d 36f9 5dbe e7fb b83e fbcc 12be
00000030: 201d 35bd 38b6 8c3e 918c a7be 1b90 7d3e
00000040: fc36 973e e9f5 0bbe 6228 ea3d 46ca 3cbe
00000050: 9fa7 d33d b684 cc3e 6f38 d5be 459f 9dbe
00000060: 69a1 8d3e 99b7 5bbd eeae 85be 5d78 a9be
00000070: 8c93 933d 829f 20be b03b 4abe 5c0e 99bc
00000080: 0b86 883e 47b5 6dbe 1328 183e 67bc 37be
00000090: 6b78 02bd 46cb c83d ab3d 473e b6e7 373e
000000a0: 08fc ce3d fc96 cc3d 56fd 86bd 5d17 c73e
000000b0: 6b8a 02be e94f 893d 4873 41bd 75a2 953e
000000c0: 961c 8bbe b27a c73d 12a0 f2bd 2156 0b3e
000000d0: a9fa bdbe b621 df3e d982 063e 6a28 ddbb
000000e0: 4a8d 563e 1550 8c3e b5f3 9b3e 8053 8dbd
000000f0: fe19 66be f369 94be 3629 8a3e cd65 723e
00000100: 1600 f4bd bbfc 543d 1f7f 50be f296 953e
00000110: b910 81be 1110 25be 2a82 f43d 8809 c7bb
00000120: 6232 073e 4140 acbe e3f2 b1be 3367 efbd
00000130: ecba 97be f315 9cbe 6b5d e33e 9c27 a23e
00000140: 569d c73c 7e5a e5bd 97b9 ebbc 8ce3 3dbe
00000150: 7ca9 03be dd33 2e3e c78c d03e f851 913e
00000160: 8051 98bd e0a3 253e abda 7cbd 5573 643e
00000170: d887 0dbe aef5 1e3e 69cf 2ebd 9e5e 6d3e
0.29551664 -0.2951515 -0.21569285 -0.19434594 -0.03490966 -0.19425066 -0.24302861 -0.0690965
0.09915049 -0.21677098 0.36129686 -0.14336006 -0.04421723 0.27482772 -0.3272443 0.24762003
0.29534137 -0.13668026 0.11433484 -0.18436536 0.103347056 0.39945 -0.41644618 -0.30785576
0.2766221 -0.05364189 -0.26110023 -0.33099642 0.07205877 -0.15685847 -0.19749331 -0.018683605
0.26664767 -0.23213683 0.14859037 -0.17942964 -0.03185312 0.09804396 0.19457118 0.17959484
0.10106665 0.099897355 -0.06591289 0.38885012 -0.12748115 0.06704695 -0.04722908 0.29225507
-0.27170247 0.09740199 -0.11846937 0.13607074 -0.371053 0.43580407 0.13135852 -0.0067492025
0.20952335 0.27404848 0.3045937 -0.06900692 -0.22470853 -0.28987083 0.26984566 0.23671646
-0.11914079 0.051998835 -0.20360993 0.29216725 -0.2520807 -0.1611941 0.11938889 -0.0060741343
0.13202813 -0.33642772 -0.3475562 -0.116896056 -0.29634798 -0.30485496 0.4440721 0.31670845
0.024367016 -0.11198901 -0.02877502 -0.18543833 -0.12857622 0.17011972 0.40732405 0.2838285
-0.0743742 0.16175795 -0.061731976 0.2230962 -0.13821352 0.15523407 -0.04267827 0.23180625

mu.bias f4 [8]
00000000: 867a 44bd e4f2 83bd f244 7cbc 9d28 b73e
00000010: e584 053e cc69 e2bc 1966 99bd b53a 9fbe
-0.04796841 -0.06442812 -0.015397297 0.35773173 0.13038976 -0.027638339 -0.07490177 -0.31099477

var.weight f4 [8, 12]
00000000: cc3f fd3d b3a0 4fbc 61bd 91bd 1ae6 563e
00000010: bb53 61bb 6053 093e 49f0 823e 413f 88be
00000020: 5c76 293e 218d 95be 7812 09ba 41ea 963d
00000030: 7d94 fd3d 64e0 413e 3d30 bebd 1f5e 473e
00000040: 35e5 28bd 4982 11be 6788 b33c 5397 69bc
00000050: 73f0 93bd a4a4 183e 6483 3c3e f380 243e
00000060: fb36 203e 167e 4c3e 618e b8bd 0e81 58ba
00000070: aa0a ff3d 0f1f 83be acb2 563e 0ea8 53be
00000080: 64e8 5e3e 3f43 613e 577f 913e 24d8 37be
00000090: 7bf4 293e 8f27 75be c735 1fbe 52d4 acbd
000000a0: e075 4ebe ac43 91bd 9825 21be 100d a03d
000000b0: dbc5 8bbe 44bf e83d 1688 7fbd 0878 fa3b
000000c0: ba8d 853d e27e dbbd ce63 5cbe 6261 24bd
000000d0: 48ec 523e 6a67 573e ac76 a0bd 77a4 11be
000000e0: 6590 23be b7c4 3cbd cce7 793e fe05 2a3e
000000f0: a8c7 c63d e69d 33be 4814 2dbe 87a5 943d
00000100: 5269 c1bd 0af2 213e 01dd 2f3d d3f4 1c3d
00000110: 1e0b 1ebe fb0e 6a3e 48d6 883e be96 adbd
00000120: be2f 45bd 5bb5 983c 1233 213d 87ac a03d
00000130: b228 fa3d b07d 7ebe c218 10be a0d7 503d
00000140: b109 12be 5995 663e a5fe ecbc a9b5 40be
00000150: 688e 173e 6255 9d3c 5ff2 053e 1744 463e
00000160: 3f0b 3b3e aa10 6cbe 5259 223e fc4f 64be
00000170: e425 56be 420d 08be 9a16 c03d 633d 243e
0.12365684 -0.012672591 -0.07116199 0.20986214 -0.0034382183 0.13410711 0.25573948 -0.2661076
0.16549057 -0.29209235 -0.00052288873 0.07368899 0.123818375 0.18933254 -0.092865445 0.19469498
-0.041234214 -0.14209856 0.021915628 -0.01425727 -0.072235964 0.14906555 0.18409497 0.16064815
0.15645973 0.19969973 -0.090115316 -0.0008258977 0.12453206 -0.25609633 0.20966595 -0.20669577
0.21768337 0.21998309 0.28417465 -0.17953545 0.16597168 -0.23940872 -0.15547858 -0.084389344
-0.20162153 -0.070929855 -0.15736997 0.078149915 -0.2729939 0.11364606 -0.06238564 0.0076437034
0.06521173 -0.1071756 -0.21522447 -0.040131934 0.20597947 0.21035543 -0.07835135 -0.14222895
-0.15973051 -0.04608604 0.2440483 0.16603848 0.0970605 -0.17540702 -0.16902268 0.07258134
-0.094439164 0.15814987 0.042935375 0.03831942 -0.15433928 0.22857277 0.26725984 -0.084760174
-0.048141234 0.018641165 0.039355345 0.07845407 0.12214793 -0.24852633 -0.14071944 0.050986886
-0.1426151 0.22517909 -0.028930018 -0.18819298 0.14800417 0.019205753 0.13080738 0.19361912
0.18266009 -0.23053232 0.15854385 -0.22296137 -0.20912892 -0.13286307 0.09379311 0.16039042

var.bias f4 [8]
00000000: 82f3 c83c 1527 15be 8389 493e ff5a aebe
00000010: c0ed ddbe a015 15be 55fa 82be 02c2 c9be
0.024530176 -0.1456569 0.19681363 -0.340538 -0.4334545 -0.1455903 -0.25581613 -0.3940583

out.weight f4 [70, 12]
00000000: 11c0 873e ad00 2d3e 0065 fd3b e559 e7bd
00000010: cf90 623e 802d 8c3e d299 2dbd a893 d13e
00000020: 930d c4be e3eb 40be 6da8 a13e 4f41 4fbd
00000030: 6849 ad3c 60d3 ac3d 4203 7f3e b55d 6abd
00000040: d56d 2dbd 5f87 3bbe cec1 243e c1ff 8fbc
00000050: 8ba4 813c 710b b43e deb0 a5bd 681c ef3d
00000060: 0325 86be 318b f33d 29b9 4fbd 6a34 74be
00000070: 7a4d 313e ce8b 473e 26ed 1abe b41e 19be
00000080: feb3 f1bc 2d50 1a3e f195 5bbe a2c7 733d
00000090: 69c4 83bd b9fb 8e3d 6202 1dbe 2c47 a3bd
000000a0: e528 203e da6e a03c 4bf9 95be c413 57be
000000b0: b19f 23bc 7f40 16bd 51c4 79be a08d 1abe
000000c0: 41cf e43c aba5 7e3e 9057 943d c560 1e3e
000000d0: ecec 1b3d 26b8 dd3b a57e 2dbe 554d 0b3e
000000e0: d185 dcbc 62d4 2b3e 1f92 1e3e a9a4 95be
000000f0: 6f4f 5c3e 403b 6bbe 68c7 ff3d b9dd a33e
00000100: 6174 1abe c1a2 7cbe 36fc 64be 53bd 5fbe
00000110: 0832 a13c 4879 57be 87fc 853b 2417 e63d
00000120: dfe6 04be 82a2 81be efc4 34be c0b4 3abe
00000130: da53 77bc 1d09 3e3e fa3b 353e ba47 c63a
00000140: a4e3 23be 9865 7a3a 3b36 adbc 48d2 a93c
00000150: 2e38 4f3e 068f 60be c0ed 953d a8eb 0fbe
00000160: d064 42bd 520e 2abe 386a ffbd dcf4 5bbe
00000170: a523 383e 13c8 023e 0904 183e 12db 19be
00000180: 1336 63be 7dc8 43be 36d1 fe3d 75b2 6dbc
00000190: 60b6 63bd 9e42 0e3d deb6 05be c292 f03d
000001a0: 5212 28bd 09cf 9f3e fecc 1f3e 02d8 363e
000001b0: 8aec b73c 66b6 f9bd bbf5 00be 3bd2 f53c
000001c0: a83d db3d b058 503d dbc3 22be 3ac7 06be
000001d0: 6d7c e83d ccfa 4a3e 716b ae3d f86f 533b
000001e0: 3b4b e73d b322 593b 6e33 ecbd 5434 61be
000001f0: 5a10 af3d dda9 b9bc 53c2 963c 6500 5ebe
00000200: 6357 843a 3e56 033e 4b44 603e 8e73 98bd
00000210: 30b3 663c 8204 803d 551d f23d 66f1 2dbe
00000220: a2e4 b9bb ea85 0dbe a2d9 473d 16a2 a93d
00000230: a20d 70bb 29a4 3abe 4fef 443e 2336 5bbd
00000240: 18ab 2b3e c1bf 683c edf6 a7be 01f2 dabd
00000250: 20a7 46bd f79b ec3d 57ab c0bd 39bc 25be
00000260: 7c56 4abe f8c8 293e 6f35 5b3d 11c4 39be
00000270: 26cb 273e 1a1e 263d 9326 cabd c3ac 31bd
00000280: cc76 b43d c9ef 1a3e 17d4 063e 6e8c 16be
00000290: 3188 5bbe 8ed2 29be 359f 18be 021d e7bb
000002a0: 593c f43b 4dd9 983d 809e 29be 6714 62be
000002b0: 7837 0c3e 1bd5 843d 0443 58be 39cd 1dbb
000002c0: 649f a5bd 54a1 7f3e 6ef2 b9bb 4fe7 133e
000002d0: cb82 8c3c b953 803d f654 9fbb 057d 55be
000002e0: 7658 373e 2f07 40be f711 85be 1e1f ce3d
000002f0: 041a d8bc 8578 5fbd f80c 813e 3cb1 4c3e
00000300: fd61 aabd d150 413e 90de 28be 3450 22be
00000310: 85f0 f0bd fb13 9b3d c345 083d bc89 09be
00000320: 8473 653e 62e1 393c 7270 23be add2 95bd
00000330: fcab 90bc 2975 863e b120 c0bd a18d bc3b
00000340: 000d 8cbd 1253 0abe 8b67 1a3c 1695 503e
00000350: 9e7e 2f3e 5c18 113e 44a9 37be 4f5d 4d3c
00000360: 32ff 853d 2986 5cbe 3c3e 3d3e f5aa 8c3d
00000370: 82bf 17be 93fe f63b 61cf 453e a7e4 c83d
00000380: bfa7 76bd 9df3 ba3d 213a 28be 62ff 383e
00000390: 3b0a 1f3e 6f0b 09be 2b9e 97bd ed09 02bd
000003a0: eeda 013e 25dc 34bd f111 513e d6d2 4a3e
000003b0: 0dac 2c3e 8df9 543e 9caa 2dbe f63d 0c3e
000003c0: 5fc3 983b 9c2f cf3d 25b4 b6bc 76df c03d
000003d0: 79e4 743d e569 753d efa7 c73c 836f 49bd
000003e0: ae21 f93c fe68 233d a0c4 f13d 4c6b 41be
000003f0: d2eb 7c3d 9565 6cbc b643 5f3e 1384 22bd
0.26513723 0.16894789 0.0077329874 -0.11296443 0.22125553 0.27378464 -0.042383023 0.40932965
-0.38291606 -0.18839984 0.3157381 -0.050599393 0.021153167 0.08438754 0.24903587 -0.057218272
-0.042341072 -0.18313359 0.16089556 -0.017578008 0.01582553 0.3516498 -0.08090375 0.1167534
-0.26200113 0.11891783 -0.05071369 -0.2384812 0.17314711 0.19486925 -0.15129527 -0.14953119
-0.029504772 0.15069647 -0.21443917 0.059516557 -0.06433947 0.06981606 -0.1533294 -0.07972559
0.156406 0.019584108 -0.29291758 -0.21003634 -0.009986804 -0.036682602 -0.24391295 -0.15093088
0.027930858 0.24867885 0.07243264 0.15466602 0.038067743 0.006766337 -0.16942842 0.13603719
-0.026919277 0.16780236 0.15485428 -0.29227188 0.21514677 -0.22971821 0.124892056 0.32005098
-0.15083458 -0.2467146 -0.22361836 -0.21849565 0.019677177 -0.21042359 0.0040889415 0.112348825
-0.12978695 -0.25319296 -0.17653249 -0.18233013 -0.015095675 0.18558164 0.1769866 0.0015127577
-0.16004807 0.0009551882 -0.021144023 0.020730153 0.20236275 -0.21929559 0.07320738 -0.1405474
-0.047459424 -0.16607025 -0.124714315 -0.21480125 0.17982347 0.12771635 0.1484529 -0.15024975
-0.22188596 -0.19119449 0.124422476 -0.0145078795 -0.05559385 0.0347315 -0.1305804 0.11746742
-0.041033097 0.31212643 0.15605542 0.17855838 0.022451658 -0.12192993 -0.12593739 0.030007472
0.10705119 0.05086583 -0.15895025 -0.13161936 0.11351857 0.19822234 0.085165866 0.0032262783
0.11293646 0.0033132255 -0.11533247 -0.21992618 0.08548041 -0.022664005 0.018403208 -0.21679838
0.0010096844 0.12825868 0.21901052 -0.07443915 0.014080808 0.0625086 0.11822001 -0.16986617
-0.005673007 -0.13820615 0.048791535 0.082828686 -0.003662922 -0.18226685 0.19231914 -0.053518426
0.16764486 0.014205874 -0.32805577 -0.1069069 -0.048499227 0.115531854 -0.094076805 -0.16185082
-0.19759554 0.1658057 0.053517755 -0.181412 0.16386089 0.04055605 -0.09870639 -0.04337765
0.08811721 0.15130533 0.13166843 -0.14702007 -0.21438672 -0.16584226 -0.14904483 -0.0070530185
0.007453483 0.07463322 -0.16564369 -0.22078095 0.13693035 0.06485959 -0.21119314 -0.002407862
-0.08087042 0.24963886 -0.005674652 0.14443706 0.01715221 0.06265969 -0.004862423 -0.20848472
0.17904839 -0.1875274 -0.2599027 0.10064529 -0.026379593 -0.054558296 0.25205207 0.19989485
-0.08319471 0.18878485 -0.16491151 -0.15850908 -0.117646255 0.0757217 0.033269655 -0.13431448
0.22407347 0.011345239 -0.15960863 -0.07315574 -0.017660134 0.2626126 -0.093812354 0.005754188
-0.06838417 -0.13508251 0.009424101 0.20369372 0.17138144 0.14169449 -0.17935663 0.0125344535
0.06542815 -0.21535553 0.18480772 0.06868545 -0.14819148 0.007537672 0.1931739 0.09809237
-0.06021857 0.09128497 -0.16428424 0.18066171 0.15531246 -0.13383268 -0.07403215 -0.031747747
0.12681171 -0.04415526 0.20417 0.1980699 0.16862507 0.20798321 -0.16959614 0.13695511
0.004661962 0.10116503 -0.022302696 0.09417622 0.0597882 0.059915442 0.02437207 -0.04917861
0.030411568 0.03989505 0.11805081 -0.18888587 0.061748333 -0.014428516 0.21803173 -0.039676737

out.bias f4 [70]
00000000: d120 8abc bb74 923d e349 11be 0e58 2dbd
00000010: 1edb 793d 00b5 0c3e 4f37 483d 3e16 133e
00000020: b163 51bd 6969 d13d e2c5 c6bd 4384 6abc
00000030: a48f 8b3c 6b9f 1b3c c7d5 3b3d a137 de3d
00000040: 22e1 6bbd e3db 57be 0bbe 433e 22a2 733e
00000050: b7f2 e63d 751e 80bd 6c83 cebd 6c31 99bd
00000060: 6399 cd3b aaec 40be c007 263e 8ebd 8f3d
00000070: 815c 803e fcd2 813e 0b23 2fbd d2a4 473d
00000080: f15a 433e 5a25 3a3e 6420 eb3c 1007 2a3e
00000090: ae71 52be 204e 3fbe bd71 293e 0688 2d3e
000000a0: 3a09 153d 4f6d 22bc 04ee a7bd 98ac 9cbd
000000b0: 3240 c53d be69 0d3e 4282 193e 924d 533e
000000c0: 2905 243d 4149 8fbc 856a a1bd 6ea1 7bbd
000000d0: 4c62 183d 452a 2bbd 0d5c b03d 19a0 483c
000000e0: 5023 49bd 244e 40bc e75b 843d fb24 843b
000000f0: e76c 99bd 45ba 943d f56c 5d3d 2896 39bd
00000100: bb3a 4abb 83c7 e83c 4d6d 4fbd c142 e13d
00000110: 5091 c0bd 0080 cb37
-0.016861351 0.07151171 -0.14188342 -0.042320304 0.060999982 0.13740921 0.04888087 0.14363953
-0.051120464 0.102251835 -0.09705712 -0.01431376 0.017036267 0.009498457 0.04585817 0.10850454
-0.05758775 -0.21079974 0.19115464 0.23792318 0.11276763 -0.06255809 -0.100836605 -0.074801296
0.0062743886 -0.1884028 0.16213894 0.070185766 0.25070575 0.2535628 -0.04275803 0.04874117
0.1907766 0.18178311 0.028701968 0.16604257 -0.20551178 -0.18682146 0.16547294 0.1694642
0.036385752 -0.0099137565 -0.08199695 -0.07650107 0.09631385 0.13809869 0.14991096 0.2063506
0.040043984 -0.017490985 -0.07881645 -0.06143325 0.03720312 -0.04178836 0.08611307 0.0122452015
-0.049105942 -0.01173738 0.064628415 0.0040327287 -0.074914746 0.072620906 0.054058988 -0.045309216
-0.003085776 0.028415447 -0.050641347 0.109990604 -0.09402716 2.425909e-05
