tutorial/data/test_small/interim_data_test/models/model_10_3.pt (torch, 78251 bytes, 18 tensors)

encoderlayers.0.weight f4 [100, 70]
0.10469311 0.03481147 0.028646767 -0.06543856 0.08285258 0.077882156 0.08983619 0.02699011
-0.07936681 -0.084170245 -0.11618452 0.044315267 0.009492926 0.020749217 -0.017401092 -0.089000136
-0.05091016 -0.007368539 -0.107265525 0.002524871 -0.00936939 -0.032718398 0.024009569 0.08154006
-0.011442906 -0.07259592 -0.0953227 0.07097234 -0.03263083 0.05472744 -0.046903737 -0.08436879
0.03921134 -0.047922604 -0.034907702 -0.11863954 -0.10274079 0.07052214 0.0070673507 0.011042368
0.034176957 -0.017728696 -0.05578395 -0.00088652916 -0.082357936 0.089724764 -0.0042243307 0.0013145091
-0.10439933 -0.013610593 -0.09697461 -0.10270854 0.09194536 0.102549426 -0.0728781 -0.13165449
0.056853753 0.047525052 -0.07985775 -0.09219207 0.07389665 -0.07975964 -0.078696035 -0.10413645
-0.10910055 0.082423724 -0.058704123 -0.12137829 0.01856907 0.081726015 0.1398547 -0.03920984
0.05469261 0.026776006 0.0033267855 0.041505486 -0.011139198 0.0048939576 -0.003296291 -0.013743783
0.094546385 -0.096046686 0.033742223 -0.08836073 0.09983803 0.07516898 0.051537212 0.06865756
-0.077380456 0.034257006 -0.10987888 0.058699954 0.020626286 0.10854757 -0.068108335 0.061665468
0.080891095 0.07956501 0.06292415 -0.076408945 0.010567433 0.120019324 0.010638484 -0.054359272
-0.048143838 -0.05460821 -0.040351328 0.06626127 -0.0025151966 -0.013791706 -0.0093177445 0.03562446
-0.034060318 0.10657545 -0.11105828 -0.039612304 0.09093566 0.05537861 0.05425706 0.014489266
0.08789307 -0.053138085 -0.02688954 -0.10201145 0.12006717 -0.06916769 -0.10023631 -0.014240438
-0.09649555 0.08124387 -0.018299414 0.0031232538 -0.049109675 0.009444942 0.009267985 0.0060876105
0.033145603 0.027489344 0.04332983 -0.060175456 0.044645417 -0.019175276 0.07282083 0.013099873
0.15281332 -0.14658622 -0.035409875 0.04445393 0.08699236 -0.025878634 -0.03366078 0.106751814
-0.046598166 0.032094017 0.030966666 -0.0035068768 -0.032670226 -0.071024455 -0.026465762 0.113626316
-0.08123255 0.09566841 -0.06603315 -0.08544236 -0.009385653 0.006700219 0.022751402 -0.09993444
-0.010091582 0.017262366 -0.044627063 -0.007499525 0.02001477 -0.065180354 -0.09291276 -0.05524522
-0.09157586 -0.09470602 -0.027061636 0.07114575 0.014025131 -0.096695185 -0.027801603 0.027058976
-0.045558017 -0.08700938 0.04179938 -0.087410875 -0.032936305 -0.00097517116 -0.101986945 -0.02670856
0.10066562 -0.045851737 -0.021266345 -0.017809916 -0.08720209 0.04469815 -0.08181375 -0.057402994
0.09244663 0.06314439 -0.045661148 0.09823037 -0.106521875 -0.057095148 0.06813152 -0.046983544
0.08873039 0.100163564 0.12710112 -0.007902903 -0.057217497 -0.106178045 -0.054746974 0.06873998
0.054586943 0.035516415 0.011925388 -0.026793284 -0.101281606 0.11148026 -0.10019099 -0.04742381
0.024837527 -0.09474267 0.03427773 -0.12087888 -0.00492983 0.01634803 -0.07129786 0.09442941
0.05782505 0.08383586 0.081588596 0.05063215 -0.023047024 0.08738732 0.06874653 0.079994686
0.07898373 -0.093414545 0.08712685 -0.113557 0.004761189 0.060647633 0.03303681 -0.062895454
0.028824447 0.035759896 -0.044242017 -0.017234098 -0.007703909 0.110796586 0.0120326085 -0.09878322
00000000: 5769 d63d 7996 0e3d a0ac ea3c a704 86bd
00000010: 9dae a93d ae80 9f3d 09fc b73d 5d1a dd3c
00000020: 118b a2bd 7361 acbd 26f2 edbd ed83 353d
00000030: 3888 1b3c 43fa a93c bc8c 8ebc b445 b6bd
00000040: 2c87 50bd c973 f1bb 07ae dbbd 4e78 253b
00000050: 1282 19bc ba03 06bd b7af c43c 7afe a63d
00000060: 077b 3bbc 2bad 94bd 8c38 c3bd f259 913d
00000070: e8a7 05bd e129 603d 221e 40bd 8bc9 acbd
00000080: 129c 203d 7e4a 44bd 61fb 0ebd 4af9 f2bd
00000090: c369 d2bd e96d 903d 3c95 e73b 0ceb 343c
000000a0: 23fd 0b3d c53b 91bc b67d 64bd f765 68ba
000000b0: 47ab a8bd 9ec1 b73d 416c 8abb 9b4b ac3a
000000c0: 51cf d5bd f7fe 5ebc a09a c6bd db58 d2bd
000000d0: d94d bc3d 6f05 d23d 1d41 95bd 6fd0 06be
000000e0: 7bdf 683d a1a9 423d 768c a3bd 32cf bcbd
000000f0: 2057 973d 0659 a3bd 632b a1bd 7e45 d5bd
00000100: 1c70 dfbd c5cd a83d bc73 70bd 2e95 f8bd
00000110: 2a1e 983c f85f a73d 1236 0f3e 7f9a 20bd
00000120: 5c05 603d 5b59 db3c 3306 5a3b a801 2a3d
00000130: 2f81 36bc 7e5d a03b 9606 58bb 9b2d 61bc
00000140: 89a1 c13d 20b4 c4bd 4935 0a3d 78f6 b4bd
00000150: e277 cc3d 32f2 993d af18 533d 569c 8c3d
00000160: a579 9ebd 1351 0c3d 2e08 e1bd 5d6f 703d
00000170: 75f8 a83c 304e de3d 627c 8bbd ee94 7c3d
00000180: 3baa a53d fbf2 a23d 60de 803d 4b7c 9cbd
00000190: 0723 2d3c b1cc f53d 094d 2e3c d4a7 5ebd
000001a0: 7932 45bd dcac 5fbd 6f47 25bd fdb3 873d
000001b0: ffd5 24bb 9cf6 61bc 74a9 18bc f4ea 113d
000001c0: d582 0bbd 3b44 da3d 8672 e3bd 8340 22bd
000001d0: 7a3c ba3d aed4 623d a73c 5e3d 6364 6d3c
000001e0: 4801 b43d 52a7 59bd 7447 dcbc 61eb d0bd
000001f0: c7e5 f53d caa7 8dbd b248 cdbd ba50 69bc
00000200: 759f c5bd 3063 a63d a7e8 95bc 81af 4c3b
00000210: 3a27 49bd f5be 1a3c bfd8 173c 947a c73b
00000220: afc3 073d 5531 e13c 9f7a 313d 8a7a 76bd
00000230: 1dde 363d 7815 9dbc 1623 953d daa0 563c
00000240: 187b 1c3e b31a 16be f209 11bd 5315 363d
00000250: 0d29 b23d 6eff d3bc e3df 09bd b2a0 da3d
00000260: b8dd 3ebd 0475 033d cead fd3c a1d3 65bb
00000270: 37d1 05bd 4575 91bd bace d8bc eab4 e83d
00000280: 405d a6bd cded c33d 633c 87bd 67fc aebd
00000290: 48c6 19bc 838d db3b 2661 ba3c 6daa ccbd
000002a0: 2a57 25bc ce69 8d3c deca 36bd 93be f5bb
000002b0: 04f6 a33c 477d 85bd 0c49 bebd d048 62bd
000002c0: 208c bbbd 3bf5 c1bd 5db0 ddbc ddb4 913d
000002d0: aac9 653c 2008 c6bd 30c0 e3bc c9aa dd3c
000002e0: 0b9b 3abd f931 b2bd d435 2b3d 7904 b3bd
000002f0: 38e8 06bd a1a2 7fba 88de d0bd e9cb dabc
00000300: c729 ce3d 08cf 3bbd c236 aebc 1ae6 91bc
00000310: 0297 b2bd 6815 373d f88d a7bd 671f 6bbd
00000320: a954 bd3d d951 813d 2f07 3bbd 012d c93d
00000330: 2428 dabd 9adc 69bd 8a88 8b3d d171 40bd
00000340: 47b8 b53d 8e22 cd3d cc26 023e 2d7b 01bc
00000350: e55c 6abd e073 d9bd 5d3e 60bd 8cc7 8c3d
00000360: 8f96 5f3d a979 113d b462 433c 977d dbbc
00000370: bb6c cfbd c34f e43d ef30 cdbd 783f 42bd
00000380: 1278 cb3c 7208 c2bd ce66 0c3d 598f f7bd
00000390: 698a a1bb 4eec 853c 9d04 92bd 3564 c13d
000003a0: f6d9 6c3d 23b2 ab3d ec17 a73d a863 4f3d
000003b0: 1dcd bcbc 20f8 b23d fbca 8c3d 41d4 a33d
000003c0: 39c2 a13d 2050 bfbd 906f b23d 9390 e8bd
000003d0: c003 9c3b a769 783d 9b51 073d 55cf 80bd
000003e0: 3f21 ec3c f878 123d 1e37 35bd 862e 8dbc
000003f0: 1371 fcbb 52e9 e23d 6b24 453c db4e cabd

encoderlayers.0.bias f4 [100]
0.089863636 0.09903528 0.0067867856 0.07607754 0.030357333 0.06788718 -0.091239795 -0.08076279
-0.02180919 -0.0973809 0.015184778 0.018119194 -0.10591371 -0.07514978 0.0053018085 -0.056825142
0.09579993 0.10974704 -0.09233623 -0.10516522 -0.01597544 -0.10053306 0.054783262 -0.10544651
0.10682093 -0.005017214 -0.11984721 0.086927556 0.041328456 0.092749946 0.068384476 0.02800297
-0.10824173 0.06817793 -0.025664436 0.10605999 0.094928384 -0.036177136 -0.10537295 0.04089879
0.086494885 -0.119110115 -0.07746161 -0.12656842 -0.04109532 0.09411687 -0.08298883 0.04997986
-0.06428142 -0.10186568 0.106680185 0.11715121 -0.08340054 0.083432294 0.087417066 0.041109912
0.035644133 0.0115090795 -0.041124806 0.11698005 -0.10780715 -0.05187486 -0.06356975 -0.10897986
-0.08468313 0.056152977 0.059494097 0.11035429 0.09396152 0.059952524 0.053344402 -0.065325744
-0.11217682 0.033715297 0.07166025 -0.11815748 0.068330385 -0.01581321 -0.04537161 -0.087432586
0.0038459625 0.052890513 -0.03203201 0.06785956 -0.124636814 -0.06598285 0.0437207 -0.064620376
-0.11302352 0.04063529 0.11116987 0.033835594 0.05240968 0.09983702 0.1151475 -0.0137832435
0.12205862 0.0014360917 -0.03557258 -0.04164295
00000000: 6d0a b83d 02d3 ca3d af63 de3b 8bce 9b3d
00000010: f1af f83c 6f08 8b3d eedb babd f666 a5bd
00000020: 30a9 b2bc a36f c7bd 93c9 783c b46e 943c
00000030: 4ae9 d8bd 21e8 99bd cbba ad3b 7bc1 68bd
00000040: c132 c43d 0ec3 e03d c71a bdbd dd60 d7bd
00000050: edde 82bc 47e4 cdbd 6a64 603d 57f4 d7bd
00000060: efc4 da3d 7167 a4bb 7472 f5bd 1307 b23d
00000070: 0748 293d aff3 bd3d 290d 8c3d 7c66 e53c
00000080: d7ad ddbd dfa0 8b3d 393e d2bc fb35 d93d
00000090: d069 c23d 7a2e 14bd c6cd d7bd 7d85 273d
000000a0: 3b24 b13d 01f0 f3bd 31a4 9ebd 279b 01be
000000b0: 9153 28bd 58c0 c03d 0cf6 a9bd afb7 4c3d
000000c0: faa5 83bd f49e d0bd 247b da3d f9ec ef3d
000000d0: e7cd aabd 8dde aa3d b807 b33d de62 283d
000000e0: 95ff 113d 9490 3c3c 7c72 28bd 3d93 ef3d
000000f0: ffc9 dcbd bc7a 54bd db30 82bd d530 dfbd
00000100: 596e adbd aa00 663d 15b0 733d 6e01 e23d
00000110: e66e c03d c790 753d a97f 5a3d 81c9 85bd
00000120: f6bc e5bd 0d19 0a3d 9cc2 923d 8dfc f1bd
00000130: cdf0 8b3d b48a 81bc 95d7 39bd db0f b3bd
00000140: 8b0c 7c3b b9a3 583d ff33 03bd f4f9 8a3d
00000150: 9641 ffbd 0422 87bd 7a14 333d b057 84bd
00000160: e078 e7bd 3171 263d 07ad e33d 3197 0a3d
00000170: 88ab 563d 5a77 cc3d 74d2 eb3d 1dd3 61bc
00000180: dff9 f93d 3e3b bc3a 8eb4 11bd cc91 2abd

encodernorms.0.weight f4 [100]
1.0207441 1.0166832 1.0347644 1.0059365 1.0285642 1.0248082 1.0375592 1.0137247
1.0082873 1.0049696 1.0375109 1.027905 1.0304929 1.0213807 1.0178137 1.0240939
1.0357624 1.0628011 1.0241096 1.023598 1.0098926 1.0119494 1.0717771 1.0485703
1.029488 1.0351886 1.0329638 1.0173258 1.0088233 1.0457686 1.0336298 1.0633609
1.0314575 1.0140978 1.0111746 1.0394758 1.0275862 1.0089755 1.0338668 1.0344682
1.0565833 1.0433067 1.0424803 1.0316429 1.0351136 1.0594876 1.0634881 1.0068436
0.9894938 1.0354388 1.0406289 1.0267118 1.038832 1.0953218 0.996301 1.024829
1.0009356 1.0522887 1.0834553 1.0143931 1.0470581 1.0575572 1.0471108 1.0213133
1.0307115 1.015054 1.036152 1.0412191 0.99972004 1.0289639 1.0569837 1.0332178
1.0421641 1.0136532 1.0412805 0.9958737 1.0338869 1.0088758 1.0090709 0.99583155
1.0173464 1.0386206 1.0200384 1.0633422 1.0273143 1.0102427 1.0387921 1.0021896
1.0021331 1.0383867 1.0666791 1.0788 1.0078837 1.042694 1.0305028 1.0070903
1.043137 1.0432032 1.0140071 1.017085
00000000: bea7 823f ad22 823f 2973 843f 87c2 803f
00000010: fea7 833f ea2c 833f bdce 843f bbc1 813f
00000020: 8f0f 813f d8a2 803f 28cd 843f 6492 833f
00000030: 31e7 833f 9abc 823f b847 823f 8215 833f
00000040: dd93 843f de09 883f 0616 833f 4205 833f
00000050: 2944 813f 8f87 813f fe2f 893f 8d37 863f
00000060: 43c6 833f 0f81 843f 2838 843f bb37 823f
00000070: 1f21 813f bfdb 853f fb4d 843f 361c 883f
00000080: cd06 843f f5cd 813f 2b6e 813f 8b0d 853f
00000090: f287 833f 1c26 813f bf55 843f 7469 843f
000000a0: 1f3e 873f 138b 853f ff6f 853f e00c 843f
000000b0: 9a7e 843f 4a9d 873f 6120 883f 40e0 803f
000000c0: 774f 7d3f 4289 843f 5433 853f 4b6b 833f
000000d0: 72f8 843f 8133 8c3f 950d 7f3f 992d 833f
000000e0: a81e 803f 65b1 863f aaae 8a3f a2d7 813f
000000f0: 0006 863f 095e 873f ba07 863f 65ba 823f
00000100: 5bee 833f 4aed 813f a1a0 843f ab46 853f
00000110: a7ed 7f3f 17b5 833f 3e4b 873f 7b40 843f
00000120: a265 853f 63bf 813f ae48 853f 94f1 7e3f
00000130: 6856 843f d822 813f 3c29 813f d1ee 7e3f
00000140: 6838 823f 85f1 843f 9e90 823f 991b 883f
00000150: 097f 833f a24f 813f 24f7 843f c047 803f
00000160: e645 803f dbe9 843f f188 883f 1e16 8a3f
00000170: 5502 813f ff76 853f 84e7 833f 56e8 803f
00000180: 8385 853f af87 853f fcca 813f d72f 823f

encodernorms.0.bias f4 [100]
0.02219324 -0.004272487 -0.02273404 0.0042421822 0.043841533 0.002563933 0.1277551 -0.030886177
-0.018734522 -0.05198518 0.07344335 0.0048931823 -0.041536625 -0.056848507 -0.025690267 0.003720233
-0.016904905 -0.005903793 -0.06429466 -0.004373457 0.07713938 -0.012419208 0.06270279 0.045344863
0.006716383 -0.066429906 -0.014182131 -0.0048890607 -0.036570214 -0.072299995 -0.032828253 0.012702841
-0.03999724 0.06850919 -0.04544816 -0.063395426 -0.020147132 -0.06346647 -0.019218823 0.033852078
-0.052913256 -0.037659194 0.042858403 0.058108486 -0.08616145 0.025769517 0.022487143 0.008216727
0.062131334 -0.054803424 0.07538639 0.015605359 0.037277274 -0.010163254 0.05806084 0.020138634
0.10420792 0.020972911 0.057076264 0.036361083 -0.07611768 0.0036070084 0.0311916 -0.03614396
-0.0035354083 -0.01925648 0.049343552 -0.06535136 0.028322142 0.07308098 0.0962553 -0.010095209
0.028470172 0.0144699365 0.085963026 -0.06766563 0.08526039 0.0015627451 -0.040956132 -0.08498532
0.008530254 -0.0017424515 -0.0070685633 0.010415642 0.024409164 -0.08958239 0.031476613 -0.05730117
-0.013361038 0.06575294 -0.059890885 0.027164869 -0.049699984 0.027363673 -0.055366237 -0.010896924
0.05491206 0.064997986 0.059749935 -0.04626514
00000000: 99ce b53c 3800 8cbb bd3c babc 0102 8b3b
00000010: 2e93 333d a807 283b 3cd2 023e 0205 fdbc
00000020: 2479 99bc 69ee 54bd 7869 963d fd56 a03b
00000030: 4f22 2abd fbd9 68bd 6574 d2bc 27cf 733b
00000040: 287c 8abc 9b74 c1bb ebac 83bd 374f 8fbb
00000050: 40fb 9d3d ef79 4bbc 526a 803d 89bb 393d
00000060: 1b15 dc3b 670c 88bd 2b5c 68bc 6a34 a0bb
00000070: a6ca 15bd 0512 94bd eb76 06bd 941f 503c
00000080: 25d4 23bd 8c4e 8c3d da27 3abd 76d5 81bd
00000090: 990b a5bc b5fa 81bd cb70 9dbc 7aa8 0a3d
000000a0: 92bb 58bd 8740 1abd 4b8c 2f3d 2a03 6e3d
000000b0: 6a75 b0bd 981a d33c f536 b83c 739f 063c
000000c0: 6d7d 7e3d 8e79 60bd 2e64 9a3d 9fad 7f3c
000000d0: 0eb0 183d c783 26bc 34d1 6d3d c7f9 a43c
000000e0: f66a d53d 62cf ab3c cdc8 693d 5cef 143d
000000f0: 96e3 9bbd 8f63 6c3b 8785 ff3c b00b 14bd
00000100: 4fb2 67bb c4bf 9dbc 771c 4a3d efd6 85bd
00000110: d603 e83c 7bab 953d 8021 c53d 6066 25bc
00000120: 473a e93c 5013 6d3c 620d b03d 4794 8abd
00000130: 009d ae3d 06d5 cc3a 9ec1 27bd c90c aebd
00000140: 7ac2 0b3c f862 e4ba 689f e7bb 5ea6 2a3c
00000150: baf5 c73c f976 b7bd 9fed 003d a2b4 6abd
00000160: 41e8 5abc 7aa9 863d 2550 75bd dc88 de3c
00000170: 3692 4bbd c829 e03c b5c7 62bd 0389 32bc
00000180: 78eb 603d aa1d 853d 59bc 743d 8480 3dbd

encodernorms.0.running_mean f4 [100]
0.09752713 0.49993542 0.048611246 0.2867828 0.028628951 0.07237035 0.06382053 0.21183307
0.10324988 0.14041561 0.015938073 0.13890877 0.018338151 0.06429312 0.29533887 0.08049098
0.39156297 0.36035487 0.31488362 0.023134626 0.19012186 0.09543959 0.29052174 0.03157129
0.30232722 0.28595996 0.23612809 0.086596586 0.1094508 0.09347193 0.18275532 0.46106339
0.2755871 0.12371 0.37221834 0.23276354 0.17900392 0.17774007 0.18646365 0.20714939
0.26253203 0.044482585 0.21483962 0.14453888 0.10028143 0.1641696 0.2894101 0.07014199
0.06629226 0.14444457 0.25159925 0.10365988 0.39374763 0.30450615 0.10902783 0.4731975
0.033600967 0.32042247 0.3673104 0.06485052 0.2600317 0.29479378 0.19534662 0.10643969
0.18830165 0.042796157 0.5134334 0.19961676 0.2206292 0.01874722 0.33168748 0.06312193
0.033974137 0.12435792 0.19610058 0.010460946 0.12535977 0.23023629 0.07728401 0.013915057
0.010519333 0.08596004 0.0435781 0.4021608 0.22154701 0.056716435 0.1639637 0.15929866
0.03475874 0.46560287 0.3148558 0.3034644 0.2613169 0.19863762 0.21549074 0.050409645
0.32435015 0.33530277 0.111015745 0.19074306
00000000: 4ebc c73d 89f7 ff3e 961c 473d 32d5 923e
00000010: 4387 ea3c e836 943d 57b4 823d c5ea 583e
00000020: ac74 d33d 1cc9 0f3e 9090 823c 1a3e 0e3e
00000030: e439 963c 1cac 833d a836 973e 74d8 a43d
00000040: f17a c83e 6f80 b83e 6d38 a13e d484 bd3c
00000050: 4eaf 423e d575 c33d 44bf 943e e650 013d
00000060: a2ca 9a3e 5869 923e 90cb 713e 8d59 b13d
00000070: be27 e03d 366e bf3d 3624 3b3e 8010 ec3e
00000080: c119 8d3e ab5b fd3d 6793 be3e 9159 6e3e
00000090: ce4c 373e 7e01 363e 54f0 3e3e f81e 543e
000000a0: 996a 863e 5f33 363d ebfe 5b3e 0002 143e
000000b0: 5a60 cd3d 131c 283e 902d 943e 9ba6 8f3d
000000c0: 3dc4 873d 47e9 133e 9ed1 803e a24b d43d
000000d0: 4a99 c93e 3be8 9b3e fc49 df3d f146 f23e
000000e0: 2ba1 093d 6a0e a43e 1c10 bc3e 59d0 843d
000000f0: e022 853e 36ef 963e f208 483e 0dfd d93d
00000100: 26d2 403e 064b 2f3d 5f70 033f 5668 4c3e
00000110: 9fec 613e c593 993c f1d2 a93e 1246 813d
00000120: 7728 0b3d 5daf fe3d 97ce 483e 6364 2b3c
00000130: 505e 003e 10c3 6b3e 1447 9e3d fbfb 633c
00000140: 4859 2c3c d10b b03d f37e 323d 05e8 cd3e
00000150: 38dd 623e 7e4f 683d 1ae6 273e 301f 233e
00000160: 2e5f 0e3d 8063 ee3e c834 a13e b05f 9b3e
00000170: 54cb 853e a967 4b3e 9ba9 5c3e 587a 4e3d
00000180: 3911 a63e ceac ab3e 395c e33d 2652 433e

encodernorms.0.running_var f4 [100]
0.052365564 0.16412547 0.017085135 0.108605646 0.012322886 0.026248876 0.027064783 0.08782732
0.029490577 0.04660972 0.0076801875 0.04689476 0.006798806 0.023104925 0.13504645 0.0376166
0.14741635 0.1315679 0.116548955 0.008212715 0.071733125 0.035780877 0.10530405 0.009671397
0.11152732 0.09405491 0.08038048 0.0331689 0.04567925 0.035270575 0.062261492 0.13975884
0.10691037 0.04814101 0.13519421 0.08754333 0.092853256 0.10669106 0.0778656 0.069024146
0.107058346 0.021040052 0.059087686 0.06332032 0.03397601 0.06864508 0.08527302 0.028318722
0.028837206 0.05745856 0.10735526 0.04296985 0.1293451 0.12230039 0.042366482 0.15744428
0.015638586 0.09851089 0.13129328 0.039332043 0.09814056 0.07859634 0.06934251 0.04244273
0.07278175 0.018228587 0.18433107 0.08420617 0.07287442 0.011135247 0.12311271 0.021109773
0.013370197 0.048715964 0.07222344 0.0066705565 0.035701256 0.09538812 0.030321624 0.005299772
0.0046124943 0.03498739 0.015830783 0.112738386 0.06697219 0.027469277 0.057703067 0.05971518
0.009817891 0.16848183 0.11535214 0.115776934 0.09383648 0.06398214 0.08031873 0.021048434
0.109191984 0.12632139 0.040782955 0.06546896
00000000: 467d 563d 8210 283e 20f6 8b3c a36c de3d
00000010: eee5 493c e207 d73c f7b6 dd3c cfde b33d
00000020: 3996 f13c d5e9 3e3d 15aa fb3b b814 403d
00000030: 85c8 de3b 8a46 bd3c 9e49 0a3e dd13 1a3d
00000040: 50f4 163e bcb9 063e 38b1 ee3d a08e 063c
00000050: d1e8 923d f88e 123d a6a9 d73d c774 1e3c
00000060: 7068 e43d dc9f c03d 859e a43d 1ddc 073d
00000070: 2a1a 3b3d e177 103d e805 7f3d f11c 0f3e
00000080: d3f3 da3d 822f 453d 5a70 0a3e eb49 b33d
00000090: d929 be3d d880 da3d 0078 9f3d 885c 8d3d
000000a0: 6841 db3d 305c ac3c ee05 723d 15ae 813d
000000b0: 6e2a 0b3d cb95 8c3d 9fa3 ae3d aafc e73c
000000c0: 013c ec3c ab59 6b3d 13dd db3d 2701 303d
000000d0: 0b73 043e a078 fa3d 7a88 2d3d 1339 213e
000000e0: 7e1c 803c 14c0 c93d bf71 063e a31a 213d
000000f0: ebfd c83d 1ef7 a03d 7203 8e3d 6ed8 2d3d
00000100: 990e 953d 1e54 953c 49c1 3c3e 4974 ac3d
00000110: 2f3f 953d 9c70 363c 8422 fc3d 67ee ac3c
00000120: ac0e 5b3c 648a 473d e2e9 933d af94 da3b
00000130: 7b3b 123d d95a c33d 0e65 f83c b6a9 ad3b
00000140: 6824 973b f04e 0f3d 8faf 813c 62e3 e63d
00000150: b728 893d 4007 e13c 0d5a 6c3d e897 743d
00000160: 38db 203c 8086 2c3e be3d ec3d 751c ed3d
00000170: 572d c03d 1109 833d 257e a43d c46d ac3c
00000180: 0ca0 df3d 655a 013e 070c 273d 9714 863d

decoderlayers.0.weight f4 [100, 10]
0.10286454 0.10508227 -0.29535928 0.16564032 0.29358503 0.23239364 -0.2318888 -0.2302199
0.2288493 0.2542155 -0.29626745 -0.12313217 -0.25163692 -0.050673712 0.22728132 0.089429155
-0.28596973 -0.08418935 -0.10392228 -0.2782127 -0.26502356 0.15423028 -0.12678282 0.22918986
0.07717664 0.13121891 0.0075254655 -0.20145158 -0.19684613 0.21912733 0.11893481 -0.21852645
0.13305587 0.12086412 -0.16446817 0.05551677 0.28647396 -0.029529884 0.16724452 -0.18995254
0.074997626 -0.2701452 -0.108839415 -0.31323835 -0.1864482 -0.21491888 0.090130925 -0.16027017
-0.1869586 -0.12627038 -0.27724066 -0.018952472 -0.29344648 -0.059398748 0.26311186 0.21598327
-0.21316415 -0.24328828 -0.18250683 0.0760097 -0.121080965 0.12129063 0.09708235 0.2607131
-0.13330042 0.19184282 -0.18242887 0.22106974 -0.024219874 0.078631796 0.16485883 -0.19492248
0.12497347 -0.30908898 0.101439066 0.009822867 0.18171754 -0.18204005 -0.028190609 -0.11229812
0.07967753 -0.040016405 0.074660115 0.11720251 -0.16709293 -0.2356043 0.015804924 -0.20243655
-0.2475141 0.27745968 0.21890935 0.078708455 0.10249223 0.10044502 -0.108245164 -0.17102544
0.1955949 -0.19657467 0.28535625 0.12784271 -0.34241822 0.21639441 -0.22415765 -0.09194652
0.16584775 -0.15639533 -0.23591213 -0.21873441 -0.06296379 0.13371295 -0.2678671 0.116285905
0.2714272 0.28940642 0.101634726 0.30588898 0.033456855 0.21429361 0.055763483 -0.22821818
0.0657503 0.06413108 -0.13297987 0.19153528 -0.16848812 0.13871832 0.032229796 -0.07143879
-0.28633285 -0.2565546 -0.15379629 0.010581759 -0.3147541 -0.07704323 0.07002286 0.15998828
0.25926065 0.2299979 -0.27992648 -0.047516022 -0.093797445 0.15282138 0.21091336 -0.07576975
0.15868708 0.23936935 -0.02489056 0.2993987 -0.23557523 -0.11298831 -0.14591664 0.18073148
-0.26668775 -0.20299627 -0.030429216 -0.11761633 0.20391405 -0.2130903 0.09548038 -0.11505395
-0.1468701 0.0400032 -0.2584066 -0.106546514 0.1312121 -0.30305573 0.23215246 0.051504463
-0.019357877 -0.21506467 0.08043688 0.1644131 0.23242952 -0.124385335 0.3202767 -0.0031686726
-0.19612114 0.04291552 0.21867338 0.0570969 -0.29272154 -0.15840931 0.29114127 -0.09275145
0.039596528 0.25165474 0.10650045 0.11725762 -0.04004953 0.122922726 -0.07446113 -0.031665973
-0.110763215 -0.109980844 -0.18016091 -0.29349393 -0.29991794 -0.29733935 0.25815856 -0.010357058
-0.039288346 0.08764458 -0.112547226 -0.10455189 0.07897354 -0.25235534 -0.2929809 0.18906096
0.26439807 -0.29585886 0.09441031 0.29812732 -0.30052555 0.20759757 0.19356547 0.11956145
-0.16019641 0.20033927 0.31099755 0.3016584 -0.04901867 0.15413766 -0.19717707 -0.21963196
0.24205011 0.24054794 -0.056305647 0.029368475 0.07813516 -0.0016469338 -0.04095165 0.006931585
0.16666591 -0.25981984 0.30950665 0.1982345 -0.07372628 -0.29799744 -0.08659793 -0.14925897
0.05501058 0.24951954 0.28833565 0.19422226 -0.04703108 0.27550638 -0.23909783 0.10978541
-0.22501606 0.018659476 -0.194471 -0.12680279 -0.32146505 -0.033164684 -0.22402176 0.22840872
00000000: a5aa d23d 6035 d73d 5539 97be 9e9d 293e
00000010: c750 963e 99f8 6d3e 4274 6dbe c4be 6bbe
00000020: 7957 6a3e 8928 823e 5eb0 97be b82c fcbd
00000030: 8ed6 80be 3d8f 4fbd 6fbc 683e a226 b73d
00000040: a06a 92be 776b acbd 34d5 d4bd e571 8ebe
00000050: 2bb1 87be 8bee 1d3e 5bd3 01be bfb0 6a3e
00000060: c90e 9e3d 405e 063e 2e98 f63b 5349 4ebe
00000070: 0892 49be ea62 603e 1894 f33d 66c5 5fbe
00000080: cc3f 083e 9c87 f73d 586a 28be 8d65 633d
00000090: b7ac 923e a8e8 f1bc 2642 2b3e eb82 42be
000000a0: 5b98 993d 7950 8abe 33e7 debd c760 a0be
000000b0: 47ec 3ebe b213 5cbe 9096 b83d dd1d 24be
000000c0: 1372 3fbe 064d 01be 7df2 8dbe 3742 9bbc
000000d0: 9e3e 96be 1a4c 73bd 99b6 863e b82a 5d3e
000000e0: b447 5abe 9020 79be 12e3 3abe f9aa 9b3d
000000f0: 4cf9 f7bd 3967 f83d 1cd3 c63d 307c 853e
00000100: e87f 08be 7272 443e a2ce 3abe 1b60 623e
00000110: c268 c6bc b509 a13d c1d0 283e c299 47be
00000120: 17f2 ff3d e940 9ebe 49bf cf3d 17f0 203c
00000130: 2a14 3a3e b568 3abe feef e6bc 8ffc e5bd
00000140: f92d a33d 3ee8 23bd 67e7 983d df07 f03d
00000150: 691a 2bbe 4142 71be 5479 813c 874b 4fbe
00000160: 5674 7dbe 320f 8e3e c629 603e e631 a13d
00000170: 72e7 d13d 1eb6 cd3d a4af ddbd 4b21 2fbe
00000180: 084a 483e df4a 49be 371a 923e 33e9 023e
00000190: 7151 afbe 7f96 5d3e 9589 65be 754e bcbd
000001a0: fed3 293e 1926 20be f392 71be eafb 5fbe
000001b0: 29f3 80bd 0cec 083e e025 89be 4e27 ee3d
000001c0: 82f8 8a3e 142d 943e de25 d03d 7b9d 9c3e
000001d0: 0e0a 093d c96f 5b3e 4068 643d 07b2 69be
000001e0: 18a8 863d 2857 833d e02b 08be d321 443e
000001f0: 2688 2cbe 2d0c 0e3e 6403 043d 804e 92bd
00000200: 389a 92be 205b 83be c67c 1dbe 1d5f 2d3c
00000210: 7327 a1be d7c8 9dbd 2568 8f3d f8d3 233e
00000220: d0bd 843e 9284 6b3e 8652 8fbe 29a0 42bd
00000230: e018 c0bd 357d 1c3e acf9 573e 2c2d 9bbd
00000240: de7e 223e 3d1d 753e 4ae7 cbbc c94a 993e
00000250: a23a 71be 6a66 e7bd 2c6b 15be ac11 393e
00000260: 4c8b 88be 41de 4fbe b146 f9bc d5e0 f0bd
00000270: d8ce 503e 5834 5abe 388b c33d 68a1 ebbd
00000280: 1e65 16be 65da 233d df4d 84be 0f35 dabd
00000290: 775c 063e 1f2a 9bbe 60b9 6d3e 58f6 523d
000002a0: 6994 9ebc ea39 5cbe 17bc a43d e85b 283e
000002b0: 0102 6e3e bdbd febd 4ffb a33e 81a9 4fbb
000002c0: fbd3 48be 2fc8 2f3d eaeb 5f3e 70de 693d
000002d0: 99df 95be 0d36 22be 7810 953e 79f4 bdbd
000002e0: f82f 223d e4d8 803e e81c da3d c324 f03d
000002f0: fa0a 24bd e9be fb3d 147f 98bd 2eb4 01bd
00000300: d3d7 e2bd a33d e1bd 1a7c 38be d644 96be
00000310: d88e 99be dd3c 98be 5c2d 843e a6b0 29bc
00000320: d1ec 20bd 007f b33d 297f e6bd 4d1f d6bd
00000330: e1bc a13d b834 81be 9801 96be 3299 413e
00000340: 2f5f 873e d07a 97be 315a c13d 25a4 983e
00000350: 7cde 99be 7594 543e 0736 463e a2dc f43d
00000360: 870a 24be bd25 4d3e 123b 9f3e f872 9a3e
00000370: cdc7 48bd 43d6 1d3e c9e8 49be 33e7 60be
00000380: fcdb 773e 3352 763e c0a0 66bd 2896 f03c
00000390: 5405 a03d eedd d7ba ebbc 27bd 5922 e33b
000003a0: 78aa 2a3e 1b07 85be a877 9e3e fcfd 4a3e
000003b0: cefd 96bd 1f93 98be 415a b1bd 58d7 18be
000003c0: c652 613d 0d82 7f3e bba0 933e 33e2 463e
000003d0: a9a3 40bd 2c0f 8d3e 10d6 74be 2cd7 e03d
000003e0: 9c6a 66be c2db 983c 6823 47be 97d8 01be
000003f0: 1197 a4be b1d7 07bd f665 65be fae3 693e

decoderlayers.0.bias f4 [100]
0.1090593 0.10260606 0.026372474 -0.17146434 -0.2895004 0.16745949 0.013156322 -0.23751795
0.3373241 0.13019925 0.30837488 0.114943765 -0.030617012 -0.0388945 -0.048754342 0.1529589
0.050101496 0.25529957 0.0130375875 0.1750037 0.24904987 0.004915099 -0.046378456 -0.2646534
0.030865677 0.21134996 -0.039593104 -0.05590449 -0.21524806 0.25796932 0.17176941 -0.1713869
0.13324247 -0.29572502 -0.022090212 -0.217357 -0.006566585 -0.26464814 -0.03550487 0.23156372
-0.26676422 0.050480153 0.008467843 -0.06845717 0.2288566 -0.16191275 0.011776641 0.011322008
0.19020304 0.1508539 0.09398838 0.26648292 -0.062022183 0.3143073 0.026689183 0.048008475
0.0643178 0.03258346 0.29785725 0.038900066 -0.09364842 -0.07250277 -0.02051774 0.001589065
0.30964714 -0.21914364 0.18149583 -0.20720632 -0.103172444 -0.12601873 -0.17384729 0.30841556
-0.05876507 0.21250817 -0.22954178 -0.29196653 -0.045498665 -0.16149473 0.29985473 -0.27217847
0.17209746 -0.12580214 -0.15666386 0.21197319 -0.11424578 0.15365174 -0.02760104 -0.24205199
-0.056427415 -0.27166936 0.20750454 -0.010546997 0.31617573 0.089265 -0.22048174 -0.116540596
0.12416521 0.07456173 0.033038545 -0.016920952
00000000: 7b5a df3d 2023 d23d 160b d83c 5994 2fbe
00000010: 6539 94be 807a 2b3e 9d8d 573c e837 73be
00000020: bfb5 ac3e f452 053e 50e3 9d3e a367 eb3d
00000030: 87d0 fabc d74f 1fbd a2b2 47bd 42a1 1c3e
00000040: 3a37 4d3d a0b6 823e 9b9b 553c 2c34 333e
00000050: ee06 7f3e d70e a13b 56f7 3dbd a780 87be
00000060: 04da fc3c 206c 583e 612c 22bd 1bfc 64bd
00000070: fd69 5cbe 8e14 843e 52e4 2f3e 0c80 2fbe
00000080: b770 083e 4569 97be 88f6 b4bc d592 5ebe
00000090: 822c d7bb f67f 87be 8e6d 11bd 0a1f 6d3e
000000a0: 5295 88be 47c4 4e3d b5bc 0a3c 4633 8cbd
000000b0: 6259 6a3e 75cc 25be d0f2 403c f27f 393c
000000c0: 96c4 423e 7279 1a3e fb7c c03d 7370 883e
000000d0: f90a 7ebd e3ec a03e 46a3 da3c 89a4 443d
000000e0: 0db9 833d 3c76 053d bf80 983e ad55 1f3d
000000f0: beca bfbd 557c 94bd d214 a8bc 2c48 d03a
00000100: 128a 9e3e 3167 60be 0bda 393e e52d 54be
00000110: 134c d3bd 0e0b 01be 0605 32be a5e8 9d3e
00000120: a4b3 70bd be9b 593e 000d 6bbe a37c 95be
00000130: cf5c 3abd e05e 25be 8f86 993e fa5a 8bbe
00000140: 513a 303e 47d2 00be 7e6c 20be 800f 593e
00000150: b1f9 e9bd e256 1d3e 941b e2bc 7adc 77be
00000160: 6f20 67bd 3f18 8bbe 127c 543e 50cd 2cbc
00000170: c9e1 a13e 91d0 b63d f7c5 61be d6ac eebd
00000180: 544a fe3d d2b3 983d 6d53 073d cf9d 8abc

decodernorms.0.weight f4 [100]
0.9420436 0.96080536 0.9326828 0.9508499 0.94081473 0.94775766 0.94295114 0.97811687
0.95119375 0.9431005 0.9719302 0.93771476 0.9769944 0.9543214 0.95856667 0.9677615
0.9560048 0.9708485 0.9650693 0.95871943 0.9624394 0.92752063 0.91842127 0.9556684
0.9736904 0.95860463 0.9734222 0.9485132 0.9375131 0.94024134 0.96204495 0.9419851
0.96983933 0.95096296 0.94792014 0.9663198 0.94450754 0.95289415 0.96013683 0.95430726
0.97991425 0.9314308 0.967115 0.95239204 0.99079037 0.9492776 0.9541011 0.96203274
0.9447748 0.95191 0.9624299 0.9671271 0.94693476 0.9777893 0.97093105 0.96236616
0.95716894 0.9665624 0.9459914 0.946355 0.97180796 0.9465423 0.92693007 0.9453736
0.9360698 0.9432196 0.9383815 0.9471237 0.9564146 0.9519073 0.94370735 0.97274625
0.9648121 0.9388822 0.920816 0.9485382 0.9427915 0.94907695 0.9568501 0.9668866
0.94175756 0.939167 0.95902044 0.9823653 0.93724614 0.94557744 0.95214623 0.9587255
0.953616 0.9490303 0.9513 0.93795764 0.96107566 0.9347297 0.9498699 0.9532306
0.9221533 0.9465621 0.9314219 0.94768065
00000000: c529 713f 57f7 753f 4dc4 6e3f e66a 733f
00000010: 3cd9 703f 3fa0 723f 3f65 713f de65 7a3f
00000020: 6f81 733f 096f 713f 6bd0 783f 130e 703f
00000030: 4e1c 7a3f 684e 743f a064 753f 38bf 773f
00000040: bbbc 743f 8789 783f c80e 773f a36e 753f
00000050: 6e62 763f fe71 6d3f a81d 6b3f afa6 743f
00000060: c643 793f 1d67 753f 3332 793f c3d1 723f
00000070: dc00 703f a8b3 703f 9448 763f ef25 713f
00000080: 6447 783f 4f72 733f e5aa 723f bc60 773f
00000090: 3fcb 713f dff0 733f 87cb 753f 7b4d 743f
000000a0: a9db 7a3f 4072 6e3f d994 773f f7cf 733f
000000b0: 70a4 7d3f db03 733f f83f 743f c747 763f
000000c0: c3dc 713f 60b0 733f ce61 763f a495 773f
000000d0: 516a 723f 6650 7a3f f08e 783f a15d 763f
000000e0: 0609 753f a270 773f 7e2c 723f 5244 723f
000000f0: 68c8 783f 9950 723f 4a4b 6d3f 0104 723f
00000100: 45a2 6f3f d776 713f c539 703f b376 723f
00000110: 96d7 743f 32b0 733f ce96 713f e605 793f
00000120: edfd 763f 955a 703f 99ba 6b3f 66d3 723f
00000130: c95a 713f b5f6 723f 21f4 743f e185 773f
00000140: 0617 713f 406d 703f 5d82 753f 4b7c 7b3f
00000150: 5def 6f3f 5d11 723f dbbf 733f 096f 753f
00000160: 2e20 743f a6f3 723f 6688 733f fe1d 703f
00000170: 0e09 763f 724a 6f3f ac2a 733f ec06 743f
00000180: 3d12 6c3f e551 723f aa71 6e3f 339b 723f

decodernorms.0.bias f4 [100]
0.0015569582 0.027303841 0.0010694212 -0.049333386 0.029040474 0.005333093 -0.036173493 -0.05184693
-0.009856284 -0.015727099 0.034250747 0.009560729 -0.021957843 -0.016602207 0.022908729 -0.006208644
0.021540618 0.038687263 0.020097846 0.011025284 -0.03281414 0.047633264 0.01950259 0.03060575
-0.0043111257 0.004796618 -0.006251285 0.022408735 0.027748983 0.007825849 -0.012874499 -0.011564776
0.038377203 -0.031983428 0.01981728 -0.0061794287 0.019568985 0.0042609856 -0.062613115 -0.017025717
0.037067454 0.037384298 -0.022497663 0.022098284 -0.036716375 0.0056751543 0.020439439 -0.0024326558
0.018094206 -0.031546928 -0.010191567 0.0087496685 -0.03622524 -0.010963909 -0.01995757 0.025389994
0.027312161 -0.0088870805 -0.036098458 0.006627919 -0.0029709705 -0.029164398 0.013183733 -0.016776722
0.0006672824 -0.053375218 0.0123909805 -0.040349077 -0.0090523865 -0.023670875 0.00010679339 -0.019876784
0.006476331 -0.050316524 -0.009049671 -0.00025710854 -0.012704011 -0.027475232 -0.017959325 -0.0049176686
0.031962812 -0.04271863 0.039468713 -0.00881277 -0.0072398935 0.022228368 0.031539917 0.028236613
-0.040446408 0.016735319 -0.0060303346 -0.012674592 0.016261116 -0.0064668 0.014827579 0.0192665
0.006815596 0.016282305 0.02003253 -0.0070174523
00000000: d912 cc3a 4eac df3c d22b 8c3a ce11 4abd
00000010: 4ae6 ed3c 3ac1 ae3b a82a 14bd 725d 54bd
00000020: 407c 21bc 1ed6 80bc 834a 0c3d 9ba4 1c3c
00000030: efe0 b3bc 5a01 88bc 16ab bb3c e171 cbbb
00000040: f375 b03c 8976 1e3d 3da4 a43c 65a3 343c
00000050: 1f68 06bd 191b 433d e5c3 9f3c e9b8 fa3c
00000060: 5844 8dbb f32c 9d3b 94d7 ccbb 8692 b73c
00000070: d651 e33c fd37 003c 90ef 52bc 307a 3dbc
00000080: 6a31 1d3d 0e01 03bd d957 a23c ce7c cabb
00000090: 234f a03c bd9f 8b3b 4e3b 80bd 8479 8bbc
000000a0: 0bd4 173d 4720 193d 054d b8bc 7607 b53c
000000b0: e963 16bd a5f6 b93b 9c70 a73c 316d 1fbb
000000c0: 4d3a 943c 5a37 01bd 88fa 26bc c55a 0f3c
000000d0: eb60 14bd f8a1 33bc 0f7e a3bc adfe cf3c
000000e0: c1bd df3c 1e9b 11bc fadb 13bd 042f d93b
000000f0: 9db4 42bb 2dea eebc 9600 583c 566f 89bc
00000100: 90ec 2e3a f99f 5abd 8a03 4b3c 1345 25bd
00000110: 7650 14bc 6ce9 c1bc 44f6 df38 a3d4 a2bc
00000120: 6737 d43b b318 4ebd 1245 14bc 86cc 86b9
00000130: 7c24 50bc bd13 e1bc 6f1f 93bc 6524 a1bb
00000140: 70eb 023d bbf9 2ebd f2a9 213d 7063 10bc
00000150: a13c edbb 4418 b63c 0030 013d 7850 e73c
00000160: 22ab 25bd 8218 893c 1d9a c5bb 18a9 4fbc
00000170: 0836 853c 73e7 d3bb 60ef 723c c7d4 9d3c
00000180: 5d55 df3b 7862 853c 431b a43c a8f2 e5bb

decodernorms.0.running_mean f4 [100]
0.42992932 0.5523456 0.47142726 0.27306888 0.17109574 0.6950817 0.3583084 0.19347642
0.4197941 0.3195746 0.67359567 0.5291852 0.34921327 0.42803735 0.40549177 0.36044443
0.36238992 0.4359812 0.40458372 0.34937128 0.4518215 0.32419032 0.31058863 0.31179804
0.45704895 0.49828887 0.4030946 0.41178888 0.34630096 0.46527597 0.4103161 0.27516294
0.30736214 0.23328862 0.3021105 0.2348807 0.3522756 0.21699552 0.4551236 0.49457794
0.2970751 0.48944327 0.38069522 0.35062072 0.4792758 0.21226479 0.3667302 0.3104977
0.28942615 0.40459073 0.32595563 0.3889605 0.22279413 0.6476145 0.6480055 0.48732927
0.42920598 0.31791148 0.63602984 0.36069375 0.22212937 0.19204473 0.4299668 0.33923703
0.44016063 0.24265382 0.5884349 0.26451927 0.26978254 0.27896276 0.28652784 0.45469123
0.3276876 0.3944185 0.3352883 0.21835686 0.2889895 0.21998292 0.52241284 0.33581206
0.4159863 0.37591735 0.25819388 0.41257742 0.3442505 0.26883137 0.17555417 0.3578207
0.28738493 0.24215904 0.4487509 0.4380563 0.7229997 0.3923211 0.20142233 0.24650869
0.41545522 0.3876574 0.43272704 0.33289373
00000000: b21f dc3e 8566 0d3f ea5e f13e afcf 8b3e
00000010: b933 2f3e e0f0 313f 3374 b73e af1e 463e
00000020: 41ef d63e 489f a33e c470 2c3f ae78 073f
00000030: 15cc b23e b627 db3e 9e9c cf3e 2c8c b83e
00000040: 2c8b b93e ee38 df3e 9925 cf3e cbe0 b23e
00000050: 2655 e73e 46fc a53e 7905 9f3e fea3 9f3e
00000060: 5202 ea3e b81f ff3e 6a62 ce3e fed5 d23e
00000070: 5c4e b13e a738 ee3e f414 d23e 28e2 8c3e
00000080: 925e 9d3e 36e3 6e3e 3aae 9a3e 9184 703e
00000090: 785d b43e 1334 5e3e f605 e93e 5239 fd3e
000000a0: 3a1a 983e 4f98 fa3e 7cea c23e 8f84 b33e
000000b0: a363 f53e f15b 593e 10c4 bb3e 8ef9 9e3e
000000c0: aa2f 943e 8426 cf3e a8e3 a63e d525 c73e
000000d0: 2524 643e 10ca 253f b0e3 253f 3983 f93e
000000e0: e3c0 db3e 4bc5 a23e dad2 223f daac b83e
000000f0: e275 633e 60a7 443e 9c24 dc3e 7ab0 ad3e
00000100: bc5c e13e 3e7a 783e aba3 163f 126f 873e
00000110: f020 8a3e 35d4 8e3e c7b3 923e 4acd e83e
00000120: abc6 a73e 39f1 c93e e8aa ab3e f198 5f3e
00000130: 6ff6 933e 3443 613e d9bc 053f 8fef ab3e
00000140: 28fc d43e 3d78 c03e fd31 843e 593d d33e
00000150: 9a41 b03e 44a4 893e 79c4 333e 4634 b73e
00000160: 1e24 933e 8af8 773e aec2 e53e ea48 e03e
00000170: 8216 393f 50de c83e a841 4e3e c66c 7c3e
00000180: 8cb6 d43e 087b c63e 668e dd3e 0c71 aa3e

decodernorms.0.running_var f4 [100]
0.4240596 0.68515885 0.47427624 0.21947479 0.15199551 0.81789076 0.30503163 0.15508506
0.29114857 0.27848038 0.83274394 0.5479612 0.24300413 0.44100454 0.3873357 0.29584745
0.28398883 0.39378208 0.3122264 0.34632447 0.4175734 0.28736538 0.19372112 0.2750881
0.46358496 0.48232314 0.4372376 0.38556322 0.35781977 0.37560987 0.32441598 0.23962452
0.23932055 0.22751616 0.24788007 0.18164697 0.40655774 0.16042933 0.6502302 0.4762683
0.37651458 0.5156526 0.37342998 0.33607852 0.34577772 0.2021948 0.34603715 0.3773767
0.18791373 0.40525678 0.242762 0.35647032 0.24454357 0.61008865 0.81871384 0.42134157
0.38283378 0.3305662 0.6121465 0.28107426 0.2497024 0.13069828 0.36624217 0.36973464
0.4107013 0.22613294 0.6038758 0.2191343 0.23739508 0.20243411 0.24427082 0.37988615
0.23783277 0.3670333 0.3162346 0.19774707 0.24275824 0.1326308 0.32382548 0.3078063
0.32903868 0.34048906 0.23544936 0.33780923 0.34232822 0.178061 0.09955914 0.36745974
0.29781765 0.18524393 0.41230303 0.45718512 0.695666 0.31765398 0.17374246 0.22900684
0.3720765 0.30051222 0.37785307 0.26620212
00000000: 571e d93e 9266 2f3f 56d4 f23e 00be 603e
00000010: b6a4 1b3e 4a61 513f 1b2d 9c3e 9ece 1e3e
00000020: 6d11 953e fb94 8e3e b52e 553f 2f47 0c3f
00000030: 13d6 783e 59cb e13e dd50 c63e 5179 973e
00000040: fc66 913e ce9d c93e 24dc 9f3e 7151 b13e
00000050: 2ecc d53e 8e21 933e d45e 463e 59d8 8c3e
00000060: 025b ed3e 0ff3 f63e 9bdd df3e 8b68 c53e
00000070: 2734 b73e f04f c03e da19 a63e 2160 753e
00000080: 7210 753e fff9 683e 46d4 7d3e aa01 3a3e
00000090: 5628 d03e 9647 243e 7d75 263f 70d9 f33e
000000a0: 85c6 c03e cf01 043f 3732 bf3e 7c12 ac3e
000000b0: c709 b13e 270c 4f3e c82b b13e 8537 c13e
000000c0: 756c 403e d17d cf3e 9a96 783e 4783 b63e
000000d0: a169 7a3e c52e 1c3f 3b97 513f 15ba d73e
000000e0: ca02 c43e f93f a93e a2b5 1c3f f7e8 8f3e
000000f0: fcb1 7f3e c5d5 053e 1884 bb3e dc4d bd3e
00000100: 7147 d23e 658f 673e 9b97 1a3f be64 603e
00000110: b217 733e e34a 4f3e 2122 7a3e 7080 c23e
00000120: 6f8a 733e caeb bb3e 80e9 a13e 357e 4a3e
00000130: 9e95 783e 5ed0 073e 74cc a53e ca98 9d3e
00000140: c277 a83e 9554 ae3e a319 713e 55f5 ac3e
00000150: a545 af3e 9f55 363e aae5 cb3d af23 bc3e
00000160: 8e7b 983e 96b0 3d3e 6219 d33e 2b14 ea3e
00000170: 2b17 323f 8ba3 a23e 8be9 313e c580 6a3e
00000180: d080 be3e bddc 993e f575 c13e a54b 883e

mu.weight f4 [10, 100]
-0.054815326 -0.03316096 0.09624649 0.04655438 0.008846406 0.035894647 -0.07387801 -0.0499804
0.02554904 -0.09696691 0.08298953 -0.11454337 0.07412595 -0.08300506 0.011468641 0.038870405
0.092158824 0.09791795 0.086929105 0.05222169 -0.12611315 -0.0065424023 0.031497866 0.1242887
0.060003407 0.10530985 0.11993035 0.05859524 0.068620235 0.025728023 0.05641668 0.074980475
0.07609374 -0.095188946 -0.035224922 0.06670629 0.05769279 -0.097059086 0.09573008 -0.10236992
0.002464043 0.04751151 0.061020777 0.030081173 0.09119783 -0.11690529 -0.0381593 -0.094851285
-0.04338807 0.00052772276 0.024442388 -0.07185565 -0.103279136 0.1448814 0.11775193 0.0648128
-0.042078886 -0.0017611787 -0.054353334 0.03479259 0.08171515 -0.13102897 0.08990643 -0.07811738
-0.07713497 0.031574972 -0.06576621 -0.0055824113 -0.070950665 0.096533 0.07799179 0.09983792
-0.074537076 0.016845737 -0.04941927 0.04097357 -0.020603819 -0.029300738 -0.044207625 0.007233426
-0.018670985 -0.00641563 0.04046312 0.13169834 0.08158099 -0.06466646 0.12853047 0.028758034
-0.06648073 -0.12960295 -0.106171094 -0.045164622 0.07018993 0.08384635 0.06865105 0.058804754
-0.114336416 0.06631752 -0.019750215 -0.087138735 -0.0007201828 -0.121352196 0.07802471 -0.08975422
-0.10725621 -0.003584033 -0.02599565 0.055988632 -0.06911658 0.030629769 -0.03994056 0.035443116
-0.027068634 0.047809962 -0.007364116 0.08228771 0.053962044 -0.049240436 0.001996232 -0.10658784
0.07663847 -0.009523011 0.1211693 -0.08933621 -0.09089543 -0.025060885 -0.038987055 0.03896108
0.10058568 -0.06578219 -0.09098296 -0.034668893 -0.09588144 -0.098434925 0.06693235 -0.01696958
-0.07407563 0.056760333 0.10033737 0.054313205 -0.09914795 -0.08869754 -0.10933569 -0.0038179094
-0.029593676 0.07714729 0.06919187 -0.023296794 0.011065717 0.03932897 0.0029337853 0.104229964
-0.09114174 -0.01495528 -0.046513706 -0.0646 0.044197306 -0.14952913 -0.04397344 0.04248816
-0.085694164 0.086812906 0.016904902 -0.0424475 0.037894458 0.051424928 -0.12928084 -0.063106775
0.084132075 0.03608994 0.0012910133 0.053425424 0.0953623 -0.076726645 0.10647613 -0.02195232
-0.06576748 -0.10731224 -0.03595321 -0.027233604 -0.0051013175 0.12062534 0.011215516 0.078727424
-0.0017987154 0.0040799645 -0.11037676 -0.05932258 -0.049971778 0.13033041 0.0022704997 -0.10969976
0.051496945 -0.07292537 0.05467387 0.032999046 -0.028588459 0.026590372 -0.07102928 -0.012399328
-0.0076795327 0.02731756 0.07267737 -0.06909323 -0.16259897 0.07388951 -0.03929454 0.010884849
-0.044773582 0.013831147 -0.07706286 0.07090164 0.12205374 -0.057394072 -0.021484561 0.035035696
0.010218179 -0.02609748 -0.07900974 0.03598505 -0.03685688 0.09403564 -0.08861079 0.049395617
-0.1229672 0.032331575 0.0029926419 -0.03466485 -0.10096618 -0.004868398 0.058284488 0.013423397
0.002821049 -0.101561606 0.06574516 0.14983343 0.07507588 0.064815916 0.014914498 0.006610674
-0.04121247 0.036918975 0.13044664 -0.060766503 0.012393286 -0.10815257 -0.08614469 -0.033822387
0.0014140317 -0.015404403 -0.087088645 0.05263122 -0.044167235 0.16413641 -0.027283173 -0.0034006932
00000000: 0986 60bd c9d3 07bd e11c c53d ceaf 3e3d
00000010: 84f0 103c 4406 133d 5b4d 97bd 3fb8 4cbd
00000020: 384c d13c 9696 c6bd 6af6 a93d b795 eabd
00000030: 59cf 973d 8ffe a9bd f8e6 3b3c 9336 1f3d
00000040: c4bd bc3d 3589 c83d e307 b23d 69e6 553d
00000050: ce23 01be a661 d6bb e803 013d 138b fe3d
00000060: 22c6 753d b1ac d73d 0b9e f53d 9001 703d
00000070: c488 8c3d 93c3 d23c 2d15 673d 5d8f 993d
00000080: 09d7 9b3d 6cf2 c2bd 0248 10bd 4f9d 883d
00000090: 464f 6c3d eac6 c6bd 220e c43d 52a7 d1bd
000000a0: c87b 213b 6e9b 423d ecf0 793d cb6c f63c
000000b0: eec5 ba3d 0a6c efbd ed4c 1cbd 6441 c2bd
000000c0: b0b7 31bd e056 0a3a 673b c83c 0e29 93bd
000000d0: 0384 d3bd ca5b 143e ed27 f13d 93bc 843d
000000e0: e95a 2cbd 5ad7 e6ba 9aa1 5ebd ad82 0e3d
000000f0: 465a a73d 752c 06be dd20 b83d 01fc 9fbd
00000100: f0f8 9dbd c254 013d 6fb0 86bd a9ec b6bb
00000110: 954e 91bd 18b3 c53d 29ba 9f3d d377 cc3d
00000120: e5a6 98bd 1200 8a3c dc6b 4abd e7d3 273d
00000130: 57c9 a8bc 1a08 f0bc 0e13 35bd 6006 ed3b
00000140: e5f3 98bc 353a d2bb a8bc 253d eedb 063e
00000150: ef13 a73d d96f 84bd 7e9d 033e f895 eb3c
00000160: 0d27 88bd a3b6 04be 3b70 d9bd 8afe 38bd
00000170: bdbf 8f3d a3b7 ab3d ec98 8c3d 41dd 703d
00000180: 3629 eabd 7bd1 873d 34cb a1bc cb75 b2bd
00000190: a6ca 3cba 8087 f8bd 6bcb 9f3d 0fd1 b7bd
000001a0: 25a9 dbbd 19e2 6abb d4f4 d4bc 5654 653d
000001b0: fe8c 8dbd 48eb fa3c b698 23bd cd2c 113d
000001c0: 0abf ddbc 61d4 433d af4e f1bb 7586 a83d
000001d0: 4e07 5d3d 57b0 49bd 37d3 023b ba4a dabd
000001e0: a1f4 9c3d 6706 1cbc 9c27 f83d e7f5 b6bd
000001f0: 6227 babd 7c4c cdbc e4b0 1fbd a795 1f3d
00000200: ddff cd3d d0b8 86bd 4655 babd f800 0ebd
00000210: 7d5d c4bd 4098 c9bd d413 893d ca03 8bbc
00000220: f7b4 97bd 867d 683d ae7d cd3d 8677 5e3d
00000230: 150e cbbd 0ea7 b5bd 64eb dfbd e435 7abb
00000240: 706e f2bc 66ff 9d3d 78b4 8d3d ebd8 bebc
00000250: fb4c 353c 6a17 213d c044 403b 8576 d53d
00000260: 85a8 babd fe06 75bc 2885 3ebd 014d 84bd
00000270: 3c08 353d 2a1e 19be 7e1d 34bd 1108 2e3d
00000280: 6c80 afbd f7ca b13d 267c 8a3c 6edd 2dbd
00000290: 3837 1b3d f2a2 523d 3262 04be 203e 81bd
000002a0: 704d ac3d 0cd3 133d 3837 a93a 9ed4 5a3d
000002b0: 4f4d c33d dc22 9dbd 2810 da3d 5ad5 b3bc
000002c0: 1ab1 86bd 85c6 dbbd ac43 13bd 0219 dfbc
000002d0: f428 a7bb 6b0a f73d 49c1 373c d83b a13d
000002e0: e0c2 ebba 39b1 853b 360d e2bd 3cfc 72bd
000002f0: 35af 4cbd 5675 053e aacc 143b 45aa e0bd
00000300: 76ee 523d e559 95bd b5f1 5f3d 022a 073d
00000310: 5832 eabc 0dd4 d93c cd77 91bd 8d26 4bbc
00000320: 97a4 fbbb 13c9 df3c dfd7 943d c080 8dbd
00000330: 5880 26be 6253 973d 50f3 20bd 5e56 323c
00000340: 8164 37bd 099c 623c 22d3 9dbd e134 913d
00000350: 50f7 f93d 0c16 6bbd 6400 b0bc 9781 0f3d
00000360: 266a 273c 62ca d5bc dccf a1bd 0f65 133d
00000370: 3df7 16bd c295 c03d 9379 b5bd 0f53 4a3d
00000380: 3ad6 fbbd 1d6e 043d 3320 443b bbfc 0dbd
00000390: 5bc7 cebd 1587 9fbb b7bb 6e3d cfed 5b3c
000003a0: 59e1 383b 88ff cfbd 66a5 863d ef6d 193e
000003b0: 62c1 993d 35be 843d f05b 743c 5a9e d83b
000003c0: 68ce 28bd 5a38 173d ce93 053e 4ce6 78bd
000003d0: 360d 4b3c 187f ddbd a16c b0bd 5889 0abd
000003e0: 0857 b93a c062 7cbc 885b b2bd d693 573d
000003f0: b4e8 34bd 6013 283e f680 dfbc 2ade 5ebb

mu.bias f4 [10]
-0.048635256 0.018666944 0.010864167 0.057115678 0.05696171 0.11463475 -0.0026576866 0.021742817
-0.096954964 0.00036225255
00000000: c335 47bd 6beb 983c 9eff 313c 21f2 693d
00000010: af50 693d a0c5 ea3d 952c 2ebb fe1d b23c
00000020: 5390 c6bd b7ec bd39

var.weight f4 [10, 100]
-0.01893702 0.021091519 -0.053709555 -0.021902231 0.032809183 0.023336882 -0.11169479 -0.016830105
0.065287866 -0.0071613044 0.0627794 0.07558948 0.09195555 -0.01565267 -0.06685385 -0.07244597
-0.036820024 0.03163114 0.06046698 0.028124848 -0.031855017 0.0026755843 -0.02204773 -0.026422031
-0.039378393 0.061651427 -0.066424206 0.08141528 0.026034817 0.041581903 -0.002146199 0.049965914
-0.019712782 -0.08295628 -0.03228038 0.095540725 -0.026463028 0.026516112 0.04153067 -0.06002788
0.020593792 -0.047424685 -0.073667094 -0.08470715 0.0686486 -0.06396098 -0.055305958 0.08800384
-0.012891057 0.0665208 -0.0419585 -0.10174662 -0.06349764 0.028548613 -0.018726695 0.07555633
-0.00067480205 -0.018391 0.009926496 -0.037422527 -0.014613187 0.0018495742 -0.064983845 -0.0037164132
0.068264045 -0.09094603 -0.047748126 0.005927233 0.068244465 -0.034314558 -0.05460292 -0.0526982
-0.067691036 -0.011414581 0.0063419323 -0.06383179 0.07506558 0.014612876 0.009972007 -0.025785074
-0.08445021 0.08795636 0.06887252 0.0074715153 -0.044263504 0.043022286 -0.01195638 0.0012470429
0.046383165 -0.03506427 0.026923731 0.05096567 0.03722792 -0.019422473 0.07210944 -0.066786684
-0.1056538 -0.06079835 -0.023212764 0.029534848 4.96812e-05 0.07033913 -0.069202885 -0.07617341
-0.059513014 -0.05946871 -0.098988354 -0.0063203215 -0.011156613 -0.0057453364 -0.055137504 0.030291092
0.025614988 -0.04770188 -0.02890749 0.096528426 0.010821723 0.019200249 0.03522887 0.018011522
-0.067504875 -0.06535702 -0.0055587627 -0.06880943 -0.04632861 0.018390866 -0.042510632 -0.037312366
0.0045380155 0.0726736 0.07267652 0.0035142747 0.023941224 0.046875745 0.06381858 0.0432129
0.08005684 0.057381716 -0.03771002 0.015426411 0.013426568 0.06786016 0.08411906 -0.0076020183
0.039235905 0.01974107 0.014881233 0.037080288 -0.06034978 -0.07123175 -0.00075380516 -0.023285499
-0.03779116 0.04218745 -0.05457816 0.04295889 -0.00062045874 0.009331212 -0.0731355 -0.0070525426
0.06804889 -0.012686897 -0.03944631 -0.0675436 0.012872312 -0.067637295 -0.048501115 0.031548724
-0.06500695 -0.042410076 -0.030559283 0.07987873 -0.02062907 0.0766076 -0.06211778 0.053235102
-0.07484266 -0.018864485 0.0021866441 0.10071823 -0.014918212 -0.07602378 -0.0813517 -0.063885376
0.06461369 0.10113515 -0.051612634 0.064661644 -0.08168937 -0.07186019 -0.04587959 0.034297083
-0.06450193 -0.030471092 0.040781353 0.0023375559 0.04578739 -0.042880386 -0.023211347 0.076290525
0.07453342 -0.055672508 0.03534782 0.003735367 -0.016615372 0.0038702246 -0.029806402 0.06455326
-0.034749303 0.04409569 -0.06333007 0.07513014 -0.008696191 0.049076375 -0.008796253 -0.00047463458
-0.072982706 -0.08720436 -0.0083276965 -0.07415908 0.01559073 -0.07635271 -0.028011942 -0.0067542004
-0.06615274 0.06689385 -0.015704948 -0.03131847 -0.02236445 0.024692975 0.08578881 0.09198375
-0.062281646 -0.10442931 0.005839951 0.033148997 -0.0807096 0.093112245 0.047635015 -0.09395825
0.00096149696 0.053667013 -0.017318713 -0.08489717 0.09686588 -0.004200559 0.0031637177 -0.08136517
0.026390404 0.07086675 0.03514269 0.02800344 -0.02776614 0.0454514 -0.08571425 -0.014552996
00000000: cf21 9bbc 1fc8 ac3c 8dfe 5bbd 4f6c b3bc
00000010: ec62 063d fd2c bf3c 3dc0 e4bd 4adf 89bc
00000020: a5b5 853d 60a9 eabb 7c92 803d a8ce 9a3d
00000030: 3153 bc3d 073a 80bc acea 88bd 8d5e 94bd
00000040: 98d0 16bd a78f 013d 39ac 773d 1566 e63c
00000050: 687a 02bd db58 2f3b 719d b4bc 0473 d8bc
00000060: 3d4b 21bd 3586 7c3d 6a09 88bd 0ebd a63d
00000070: f846 d53c c951 2a3d 3fa7 0cbb 0fa9 4c3d
00000080: b37c a1bc fbe4 a9bd 6f38 04bd dbaa c33d
00000090: fec8 d8bc 5138 d93c 101c 2a3d cbdf 75bd
000000a0: 50b4 a83c 6340 42bd c6de 96bd f17a adbd
000000b0: a397 8c3d f9fd 82bd 8088 62bd 5b3b b43d
000000c0: 0335 53bc 0f3c 883d addc 2bbd 8860 d0bd
000000d0: 0d0b 82bd c8de e93c ba68 99bc 47bd 9a3d
000000e0: 33e5 30ba b9a8 96bc bea2 223c 5d48 19bd
000000f0: 266c 6fbc 696d f23a 4016 85bd 118f 73bb
00000100: 05ce 8b3d ea41 babd 8a93 43bd 3c39 c23b
00000110: c1c3 8b3d 6c8d 0cbd 50a7 5fbd 11da 57bd
00000120: 99a1 8abd 3904 3bbc fccf cf3b 3eba 82bd
00000130: fcbb 993d d86a 6f3c a161 233c 383b d3bc
00000140: 3bf4 acbd 7722 b43d 090d 8d3d 9dd3 f43b
00000150: a64d 35bd 2338 303d b1e4 43bc d173 a33a
00000160: 46fc 3d3d 8d9f 0fbd 288f dc3c 61c1 503d
00000170: 4e7c 183d e11b 9fbc 1dae 933d 75c7 88bd
00000180: 0561 d8bd b107 79bd b228 bebc 11f3 f13c
00000190: c860 5038 f60d 903d 3eba 8dbd ce00 9cbd
000001a0: ebc3 73bd 7695 73bd 68ba cabd b31a cfbb
000001b0: 3aca 36bc 6043 bcbb ddd7 61bd 0625 f83c
000001c0: 86d6 d13c 0c63 43bd 67cf ecbc b2b0 c53d
000001d0: 994d 313c d749 9d3c 264c 103d e68c 933c
000001e0: ff3f 8abd e7d9 85bd 4826 b6bb f5eb 8cbd
000001f0: 12c3 3dbd 71a8 963c a11f 2ebd dad4 18bd
00000200: a2b3 943b e5d5 943d 6dd7 943d bf4f 663b
00000210: 6320 c43c c800 403d 51b3 823d 0300 313d
00000220: d7f4 a33d 1709 6b3d d275 1abd 0fbf 7c3c
00000230: 1cfb 5b3c 44fa 8a3d 9d46 ac3d 5a1a f9bb
00000240: d4b5 203d 06b8 a13c 6ad0 733c 80e1 173d
00000250: 5531 77bd f4e1 91bd 029b 45ba 3bc1 bebc
00000260: e7ca 1abd bfcc 2c3d 598d 5fbd a9f5 2f3d
00000270: 48a6 22ba f1e1 183c 11c8 95bd 0419 e7bb
00000280: 375d 8b3d b4dc 4fbc 7492 21bd 4d54 8abd
00000290: 64e6 523c 6c85 8abd 1ba9 46bd 3c39 013d
000002a0: 5d22 85bd 30b6 2dbd 7657 fabc 7697 a33d
000002b0: 4cfe a8bc 72e4 9c3d 376f 7ebd 0d0d 5a3d
000002c0: 1c47 99bd b189 9abc cd4d 0f3b 5c45 ce3d
000002d0: 846b 74bc 5bb2 9bbd b89b a6bd 56d6 82bd
000002e0: 2f54 843d f21f cf3d c567 53bd 536d 843d
000002f0: c24c a7bd 6f2b 93bd 3dec 3bbd 197b 0c3d
00000300: 9619 84bd 839e f9bc 590a 273d ae31 193b
00000310: 8f8b 3b3d 58a3 2fbd b925 bebc 353e 9c3d
00000320: faa4 983d db08 64bd e0c8 103d 0fcd 743b
00000330: f61c 88bc 98a3 7d3b 8e2c f4bc 8034 843d
00000340: 4955 0ebd af9d 343d 32b3 81bd d5dd 993d
00000350: 787a 0ebc 4f04 493d 291e 10bc 60d8 f8b9
00000360: f577 95bd 3398 b2bd e470 08bc b7e0 97bd
00000370: 4370 7f3c cf5e 9cbd 4d79 e5bc 5752 ddbb
00000380: 167b 87bd a5ff 883d aaa7 80bc cc47 00bd
00000390: a735 b7bc ec48 ca3c 0bb2 af3d fa61 bc3d
000003a0: 0a1b 7fbd 09df d5bd 0f5d bf3b 3ec7 073d
000003b0: 134b a5bd a2b1 be3d ef1c 433d 2f6d c0bd
000003c0: f80c 7c3a f1d1 5b3d f9df 8dbc 91de adbd
000003d0: 9e61 c63d d8a4 89bb 6056 4f3b c8a2 a6bd
000003e0: b030 d83c 9622 913d c8f1 0f3d 7867 e53c
000003f0: d175 e3bc 3f2b 3a3d f48a afbd b06f 6ebc

var.bias f4 [10]
-0.10628173 -0.07261675 -0.16339593 -0.08839936 -0.007610637 -0.13755205 -0.0058309333 0.0145574985
-0.010275979 -0.03762386
00000000: 3caa d9bd 17b8 94bd 4351 27be b90a b5bd
00000010: a762 f9bb 72da 0cbe 6a11 bfbb 9382 6e3c
00000020: 945c 28bc 7a1b 1abd
