tutorial/data/test_small/interim_data_test/models/model_10_1.pt (torch, 78251 bytes, 18 tensors)

encoderlayers.0.weight f4 [100, 70]
0	0xbd04450f	-0.032292422
1	0xbd995754	-0.0748736
2	0x3dd69492	0.10477556
3	0x3d99131f	0.0747435
4	0xbe135fac	-0.14391965
5	0x3d9b55c7	0.0758472
6	0x3ddec2d9	0.10877008
7	0x3cf5640e	0.029954936
8	0x3ccbd54b	0.02488198
9	0x3d16886d	0.0367512
10	0x3dabdf96	0.08392255
11	0xbd6f8c54	-0.058483437
12	0x3d36cc12	0.04462821
13	0xbd77885c	-0.060432777
14	0x3d5c8cac	0.053845093
15	0x3c93a8a5	0.018024752
16	0xbd03ba0b	-0.032159846
17	0x3db11e3b	0.08648344
18	0x3d114007	0.03546145
19	0x3de52134	0.111879736
20	0xbdf88d99	-0.121363826
21	0xbc9bcfec	-0.019020043
22	0xbdd700c8	-0.10498196
23	0x3d09dc63	0.033657443
24	0x3d836770	0.064162135
25	0x3d0ee612	0.03488738
26	0x3d7ecf29	0.062209282
27	0xbdd5bf06	-0.104368255
28	0x3d87d11a	0.0663168
29	0x3cc0f723	0.023555344
30	0xbdf3653c	-0.11884543
31	0xbdf2cf08	-0.11855894
32	0xbb890cf9	-0.0041824547
33	0x3d46eb57	0.04856428
34	0x3d7d53ea	0.061847605
35	0x3d76d1a0	0.060258508
36	0xbd64da62	-0.05587233
37	0x3dca65e8	0.09882718
38	0xbce15420	-0.027505934
39	0x3d7d11b4	0.06178446
40	0xbd2d81c0	-0.042360067
41	0xbb62c993	-0.003460501
42	0x3d4b4b3c	0.049632296
43	0xbaaf29e4	-0.0013363925
44	0xbc82cfda	-0.015968252
45	0x3d6272a2	0.055285104
46	0xbc8faa52	-0.01753727
47	0x3dbc06d3	0.09180989
48	0x3dc0e82b	0.094192825
49	0x3d4adac3	0.049525034
50	0x3a3d9f7b	0.0007233542
51	0xbdfe27db	-0.124099456
52	0x3d861c0b	0.065483175
53	0xbde1616e	-0.11004911
54	0xbcd931af	-0.026512949
55	0xbd9431f5	-0.07236091
56	0x3d6606b2	0.05615873
57	0xbd82ffb3	-0.06396427
58	0x3d13329a	0.03593693
59	0x3d263593	0.040578436
60	0xbdd3de23	-0.103451036
61	0xbda97243	-0.08273747
62	0x3e1313bc	0.14362997
63	0xbcc023e5	-0.023454616
64	0x3da93990	0.08262932
65	0xbc9a2e30	-0.018820852
66	0x3dcd02f3	0.10010328
67	0x3bf35cf9	0.0074268547
68	0xbd8b8d2a	-0.06814034
69	0xbd671f14	-0.056426123
70	0xbd2b1666	-0.041769408
71	0xbb983cf3	-0.0046459376
72	0xbcaaf06a	-0.020866591
73	0xbd970f52	-0.07375969
74	0xbdac1283	-0.08401968
75	0x3cbe1fa6	0.02320845
76	0xbe0ccbad	-0.13749571
77	0x3db6f259	0.08932943
78	0x3d854474	0.06507197
79	0x3cbbfd52	0.022947941
80	0xbdfa2bd9	-0.122153945
81	0x3df3db51	0.11907066
82	0x3ccde231	0.02513227
83	0x3d271325	0.040789742
84	0x3d84133e	0.06448983
85	0x3b3970d4	0.002829601
86	0x3d3b766e	0.04576724
87	0xbd93ee48	-0.07223183
88	0x3b9d0a74	0.004792506
89	0xbdc6ebfd	-0.0971298
90	0xbde819fd	-0.11333082
91	0x3d472229	0.048616562
92	0x3da3fb74	0.08006945
93	0x3cf0e607	0.02940656
94	0x3da14248	0.0787397
95	0xbc310b5b	-0.01080593
96	0x3d814901	0.063127525
97	0xbdf86baa	-0.1212991
98	0xbd90ca25	-0.07069806
99	0x3dbf2144	0.09332517
100	0xbd92c1dc	-0.07165882
101	0x3dabeca0	0.08394742
102	0x3d9f15e6	0.07767849
103	0xbdd8167c	-0.105511636
104	0xbdb7feda	-0.08984156
105	0xbdaf64f8	-0.0856418
106	0xbcb05e7e	-0.021529432
107	0xbdcdd7da	-0.10050936
108	0xbdd6567c	-0.10465714
109	0xbd84845f	-0.0647056
110	0xbde27a55	-0.11058489
111	0xbdd4e299	-0.103947826
112	0x3c411a6e	0.0117860865
113	0xbd476ee0	-0.048689723
114	0xbdfb6317	-0.12274759
115	0xbd8bd4d3	-0.068277024
116	0xbd0bc640	-0.034124613
117	0x3cd72902	0.026264671
118	0x3c508b4c	0.012728523
119	0x3da1d7db	0.07902499
120	0x3ded9a5d	0.11601708
121	0x3baa82fa	0.005203602
122	0xbddd30e5	-0.108003415
123	0x3d8e8702	0.069593444
124	0xbdb21652	-0.086956635
125	0xbd5ec6a3	-0.054388653
126	0xbc0113b6	-0.007878235
127	0xbdd85a5e	-0.10564111
128	0xbdf4df61	-0.11956669
129	0x3d083cd7	0.033261146
130	0x3d713622	0.058889516
131	0x3c09662f	0.008386179
132	0xbd588cdf	-0.05286872
133	0xbda69c47	-0.08135276
134	0xbc66c3ff	-0.014084815
135	0x3dca47c1	0.09876967
136	0x3c8ef684	0.017451532
137	0xbdbff877	-0.09373563
138	0x3db0c69a	0.0863163
139	0x3de4b39e	0.11167072
140	0x3ccaf2ad	0.02477392
141	0xbdadfb13	-0.08495154
142	0xbdb6642c	-0.08905825
143	0x3d96140d	0.07328043
144	0xbd205e51	-0.039152447
145	0xbc2cc492	-0.010544913
146	0xbd19e8a3	-0.037575375
147	0xbd9688be	-0.073503
148	0xbe0be959	-0.13663234
149	0x3866f863	5.50676e-05
150	0x3dcb02f3	0.09912672
151	0x3d5aaaf7	0.0533857
152	0xbd1df576	-0.038564168
153	0xbd9fbcf9	-0.077997155
154	0xbdc7fdd9	-0.097652145
155	0x3de9ec56	0.11422031
156	0xbdbd0324	-0.09229115
157	0x3d711e8c	0.058867022
158	0x3cb78830	0.022403806
159	0x3db16e56	0.08663623
160	0xbdb15630	-0.08659017
161	0x3dcfb8ce	0.101426706
162	0x3d88be44	0.06676915
163	0x3ddfe0d8	0.109315574
164	0xbdbe3439	-0.092873044
165	0x3ccdb42a	0.025110323
166	0xbd8b23a6	-0.06793909
167	0xbd06ced4	-0.03291209
168	0x3de72bbf	0.11287641
169	0x3b7405d1	0.0037234912
170	0xbdadfcb0	-0.08495462
171	0xbccd8204	-0.02508641
172	0x3d236cd3	0.039898705
173	0x3dad4e8b	0.084622465
174	0x3ddf0899	0.10890312
175	0x3d578b22	0.05262292
176	0xbd91adc7	-0.071132235
177	0x3dc1005b	0.09423896
178	0x3dbd734a	0.09250505
179	0x3dfb3be5	0.12267283
180	0x3d9e641e	0.077339396
181	0xbdaf9d11	-0.0857488
182	0xbc81b97a	-0.015835512
183	0x3dd0b8e6	0.101915166
184	0xbd92b76f	-0.071638934
185	0x3d22ebb4	0.039775565
186	0xbd9d7f0a	-0.076902464
187	0xbbe1c632	-0.006890082
188	0x3b7f9a50	0.003900189
189	0x3d9a4a02	0.07533647
190	0xbd621fbf	-0.055206057
191	0x3d2fb74b	0.04289941
192	0xbd8549e3	-0.065082334
193	0x3ddee3ad	0.108832695
194	0x3bf34372	0.0074238116
195	0x3cdcd42c	0.02695664
196	0xbd1d5354	-0.038409546
197	0xbdbea08b	-0.09307965
198	0xbc523e39	-0.012832218
199	0x3dc32973	0.0952939
200	0xbdba62c0	-0.09100866
201	0xbdd3175b	-0.10307189
202	0xbe0f7899	-0.14010848
203	0x3df1c91f	0.11805939
204	0x3d0d397b	0.034478646
205	0x3d4c5667	0.049887087
206	0xbb99ecd9	-0.004697424
207	0x3dc418fe	0.095750794
208	0xbb911779	-0.004427847
209	0xbd929272	-0.071568385
210	0xbce0a2aa	-0.027421314
211	0xbcb845cb	-0.022494217
212	0x3d331523	0.04372133
213	0x3d1ca646	0.03824451
214	0xbd5414fc	-0.051777825
215	0xbd738900	-0.059456825
216	0x3d40298d	0.046914626
217	0x3d693f97	0.05694541
218	0x3ca122b0	0.01966986
219	0x3dc4fd47	0.09618621
220	0xbc04497c	-0.008074161
221	0x3cfb42c4	0.030671485
222	0x3d13f385	0.03612091
223	0x3d2694ca	0.04066924
224	0xbd3bcedc	-0.045851573
225	0x3dc71e0f	0.0972253
226	0x3dbb1364	0.09134558
227	0x3bda9da4	0.0066716243
228	0xbda6b425	-0.081398286
229	0x3d85dc1e	0.06536125
230	0xbd53310e	-0.051560454
231	0xbdaea51b	-0.08527585
232	0x3c2016c6	0.009771055
233	0x3c2b93d0	0.010472253
234	0x3db00c7e	0.08596133
235	0x3db46e84	0.08810142
236	0xbdd5fbe5	-0.10448436
237	0x3dc3a09c	0.09552118
238	0x3d969d0c	0.07354173
239	0x3dd372ec	0.10324654
240	0xbd81eab1	-0.06343592
241	0xbd395b61	-0.04525316
242	0x3d1b266c	0.03787844
243	0x3d647504	0.055775657
244	0xbdaa09db	-0.08302661
245	0x3da5d836	0.080978796
246	0xbd4112b3	-0.047136974
247	0xbda65f05	-0.08123592
248	0xbdeff811	-0.11717237
249	0xbccfd163	-0.025368398
250	0x3dc3ea57	0.09566181
251	0xbde59622	-0.11210276
252	0xbd93f81b	-0.07225057
253	0x3c821d83	0.015883213
254	0xbdeb3d87	-0.11486345
255	0xbd96555c	-0.073405

encoderlayers.0.bias f4 [100]
0	0x3d0d1bf6	0.034450494
1	0xbd5411cb	-0.05177478
2	0xbd3ad337	-0.045611586
3	0x3c847d1b	0.016172936
4	0x3d39bd05	0.04534628
5	0x3ce3e89c	0.027820878
6	0x3d216141	0.03939939
7	0x3dbb9547	0.09159332
8	0xbd909609	-0.07059867
9	0xbb1bc05c	-0.0023765778
10	0xbd769339	-0.060198996
11	0x3cc7d99f	0.024395762
12	0xbd80015b	-0.062502585
13	0xbd8c6ed8	-0.06857079
14	0x3d6b5293	0.057451796
15	0x3be88186	0.0070955185
16	0xbdb528a5	-0.08845643
17	0xbd35cfc7	-0.044387605
18	0xbd5dff9d	-0.05419885
19	0x3d1f5cb3	0.038906764
20	0xbd48d7db	-0.04903398
21	0x3ca4afee	0.020103421
22	0xbdd7f31c	-0.10544416
23	0x3dfabef6	0.12243454
24	0x3d4be4db	0.0497788
25	0xbdb462b7	-0.08807891
26	0xbdd31c7a	-0.10308166
27	0xbdb7f79c	-0.089827746
28	0xbd12e865	-0.03586616
29	0x3d495a3c	0.04915832
30	0xbb7bf187	-0.0038443522
31	0x3d89d063	0.067292
32	0x3de90448	0.1137777
33	0x3c1ec0f2	0.009689556
34	0x3acf89dc	0.0015833932
35	0x3d74d89b	0.059776884
36	0x3cf58bf6	0.029973965
37	0xbc80756f	-0.015680997
38	0x3deea25a	0.1165206
39	0x3cce5081	0.025184872
40	0x3d83e0a9	0.06439335
41	0xbc086bb6	-0.008326462
42	0xbd3d3c18	-0.046199888
43	0xbdd1451e	-0.10218261
44	0xbcff49f6	-0.031163197
45	0x3d0d8e1b	0.03455935
46	0xbdeb1b5c	-0.11479828
47	0xbd7ac56b	-0.06122343
48	0x3db94b8a	0.09047611
49	0xbd297e57	-0.041380253
50	0x3a114916	0.00055422017
51	0x3c53f22c	0.012936156
52	0xbdcb3dbf	-0.099238865
53	0x3d8d90da	0.06912394
54	0xbc368f86	-0.011142617
55	0x3dd339eb	0.10313781
56	0x3dda9420	0.10672784
57	0xbcba6640	-0.022753835
58	0xbd2c3700	-0.04204464
59	0xbdb869fc	-0.0900459
60	0x3dadb7ed	0.08482347
61	0x3d3ab937	0.04558679
62	0xbd17fb46	-0.037104867
63	0xbd9981f0	-0.07495487
64	0x3dee9b28	0.116506875
65	0x3d394445	0.045231123
66	0xbddd78e8	-0.10814077
67	0xbcb15d44	-0.021650918
68	0xbc451ecc	-0.012031268
69	0x3d8dbfed	0.069213726
70	0x3defd1b7	0.11709922
71	0xbd37f7ac	-0.044913933
72	0x3d81bfd9	0.0633542
73	0xbded3f4f	-0.11584341
74	0xbdd4aacc	-0.103841394
75	0xbdcbcad6	-0.09950797
76	0x3db9e94f	0.09077703
77	0xbdf3f633	-0.11912193
78	0xbd5acb66	-0.053416632
79	0x3cbbbf26	0.022918295
80	0x3d4b1acf	0.049586114
81	0xbd87c434	-0.0662922
82	0xbc34c13b	-0.011032398
83	0xbd51ca29	-0.051218186
84	0xbd06540c	-0.032794997
85	0xbcb4cb92	-0.022069726
86	0xbd80e690	-0.06293976
87	0x3cf906d8	0.030398771
88	0x3d7bee20	0.06150639
89	0xbdd8d809	-0.105880804
90	0xbd6dcb9d	-0.05805551
91	0x3d2b7efa	0.04186914
92	0xbd1aa07e	-0.037750714
93	0xbd91ae03	-0.07113268
94	0xbd91b74c	-0.07115039
95	0xbdded27f	-0.10879993
96	0x3dc14235	0.09436456
97	0x3dea2060	0.11431956
98	0xbd97fe62	-0.074215665
99	0xbc854957	-0.016270323

encodernorms.0.weight f4 [100]
0	0x3f87d124	1.06107
1	0x3f7f3ba8	0.99700403
2	0x3f7fef0c	0.9997413
3	0x3f825ef4	1.0185227
4	0x3f85895d	1.0432545
5	0x3f8268d0	1.0188236
6	0x3f8453f4	1.033812
7	0x3f8304c1	1.0235826
8	0x3f8226fc	1.0168147
9	0x3f85ab28	1.0442858
10	0x3f85ae04	1.044373
11	0x3f859849	1.0437099
12	0x3f838483	1.0274814
13	0x3f8285f4	1.0197129
14	0x3f880149	1.0625392
15	0x3f86411c	1.048862
16	0x3f81cfd2	1.0141547
17	0x3f85a146	1.0439842
18	0x3f85b285	1.0445105
19	0x3f86bf6e	1.052717
20	0x3f84d46c	1.0377326
21	0x3f7d58b6	0.9896349
22	0x3f83587c	1.0261378
23	0x3f8934fa	1.0719292
24	0x3f89840d	1.0743424
25	0x3f872d62	1.0560725
26	0x3f84c566	1.0372741
27	0x3f863ba5	1.0486952
28	0x3f879336	1.05918
29	0x3f83460e	1.0255754
30	0x3f85e8c2	1.0461657
31	0x3f83ae44	1.0287557
32	0x3f87c2e2	1.0606349
33	0x3f84fe68	1.0390139
34	0x3f817666	1.0114257
35	0x3f849c6f	1.036024
36	0x3f84d5a1	1.0377694
37	0x3f86602b	1.0498098
38	0x3f8651ea	1.0493748
39	0x3f86ec31	1.054083
40	0x3f8ab88f	1.0837573
41	0x3f8281b4	1.0195832
42	0x3f832fdc	1.024898
43	0x3f822c3d	1.016975
44	0x3f84f943	1.0388569
45	0x3f841e97	1.0321835
46	0x3f7f9c60	0.99847984
47	0x3f8368b5	1.0266329
48	0x3f89b431	1.0758115
49	0x3f88e470	1.0694714
50	0x3f815fb2	1.0107329
51	0x3f899a0e	1.0750139
52	0x3f8595a8	1.0436296
53	0x3f81a148	1.0127344
54	0x3f85fc46	1.0467613
55	0x3f805cd7	1.0028332
56	0x3f86dcda	1.0536149
57	0x3f828d28	1.0199327
58	0x3f8b12ed	1.0865151
59	0x3f86196b	1.0476507
60	0x3f819e8c	1.012651
61	0x3f8553d1	1.0416204
62	0x3f8023bc	1.0010905
63	0x3f82d91c	1.0222507
64	0x3f86d88a	1.0534832
65	0x3f853f17	1.0409878
66	0x3f84acd3	1.0365242
67	0x3f832b33	1.0247558
68	0x3f817dc7	1.0116509
69	0x3f856bc0	1.0423508
70	0x3f868975	1.0510699
71	0x3f84a2e1	1.0362207
72	0x3f852a4d	1.0403534
73	0x3f814ea0	1.010212
74	0x3f825f9d	1.0185429
75	0x3f85b838	1.0446844
76	0x3f8118f1	1.0085737
77	0x3f812aa2	1.0091136
78	0x3f83c23c	1.0293651
79	0x3f8371bb	1.0269083
80	0x3f81cc36	1.0140445
81	0x3f85cf1d	1.0453831
82	0x3f82f418	1.0230742
83	0x3f8518f3	1.0398239
84	0x3f85c769	1.045148
85	0x3f873e57	1.05659
86	0x3f8169a6	1.0110366
87	0x3f815738	1.0104742
88	0x3f819438	1.0123358
89	0x3f81d778	1.0143881
90	0x3f8738cf	1.0564212
91	0x3f872e74	1.0561051
92	0x3f836a1e	1.0266759
93	0x3f848cf4	1.0355515
94	0x3f820e24	1.0160565
95	0x3f81e112	1.0146811
96	0x3f813614	1.0094628
97	0x3f84d581	1.0377656
98	0x3f8044ab	1.0020956
99	0x3f8466c6	1.0343864

encodernorms.0.bias f4 [100]
0	0xbce4f697	-0.027949614
1	0x3daf53aa	0.085608795
2	0xbdea2194	-0.11432186
3	0xbd5fc716	-0.054633223
4	0x3c8be285	0.017075786
5	0xbc1fa9e3	-0.009745094
6	0x3cb14245	0.021638045
7	0x3d8ce5ce	0.06879769
8	0x3db34d8f	0.087550275
9	0x3d8dc230	0.06921804
10	0xbd70ca04	-0.058786407
11	0xbd87e9e2	-0.066364065
12	0x3db5e49e	0.08881496
13	0x3d5c3c5f	0.05376851
14	0xbbc00a03	-0.0058605685
15	0xbd92db88	-0.071707785
16	0x3d648ffd	0.05580138
17	0xbd3d6612	-0.04623992
18	0xbc935e1b	-0.017989209
19	0xbc7f934d	-0.015599084
20	0xbc845d50	-0.016157776
21	0xbce1d35e	-0.027566608
22	0xbc9a5f53	-0.018844282
23	0xbcb9eb69	-0.02269526
24	0xbd3f872c	-0.04675977
25	0xbd25f6ee	-0.040518694
26	0xbc8e9859	-0.01740663
27	0xbdc2d6e0	-0.095136404
28	0x3c9385fb	0.018008223
29	0xbccc9b95	-0.024976531
30	0x3c35015b	0.011047686
31	0xbdcfb289	-0.10141475
32	0xbd12127b	-0.035662156
33	0x3d014f53	0.03156979
34	0x3e068f23	0.1314054
35	0x3a1b9ed4	0.0005936448
36	0xbd722ebf	-0.05912661
37	0xbda729b1	-0.08162249
38	0x3d9f566d	0.07780156
39	0x3d44fbcd	0.0480917
40	0xbd971fd6	-0.07379119
41	0xbce2df40	-0.027694345
42	0x3cb4c30b	0.02206566
43	0x3d870f9f	0.06594776
44	0xbbfe00cb	-0.0077515594
45	0xbd1a8f50	-0.03773433
46	0xbb1d1054	-0.002396603
47	0xbd6d8d7d	-0.057996262
48	0x3d88c6c2	0.06678535
49	0xbd6de2f1	-0.058077756
50	0x3ce0a029	0.02742012
51	0x3d367bc7	0.044551637
52	0xbd9f3dd7	-0.07775467
53	0x3df363e5	0.11884288
54	0xbd85e809	-0.06538398
55	0x3d6bbab7	0.057551112
56	0x3c8c738a	0.017144937
57	0x3dcb8d23	0.09939029
58	0x3d8dafcf	0.069182985
59	0xbd944e28	-0.072414696
60	0xbd934632	-0.07191123
61	0x3d8798ad	0.066209175
62	0x3d092673	0.033483934
63	0x3d04dcdf	0.0324372
64	0x3c9f38b2	0.019436214
65	0xbd24c8ba	-0.04023049
66	0x3dde7bde	0.108634695
67	0x3d9e9d97	0.077449016
68	0xba6aca6f	-0.00089565566
69	0xbd93fb0a	-0.07225616
70	0x3d4a7b32	0.049433894
71	0x3b0a7e89	0.002113255
72	0xbd87a867	-0.06623917
73	0xbd3766ef	-0.0447759
74	0x3aa29ee0	0.0012406968
75	0x3d812be7	0.06307202
76	0x3d754a18	0.059885114
77	0xbccc96ef	-0.024974314
78	0x3c633214	0.01386692
79	0xbcadb4c1	-0.021204354
80	0xbbdfc5b2	-0.006828987
81	0xbc3c261d	-0.011483696
82	0x3dfafb08	0.12254912
83	0xbccedbb0	-0.02525124
84	0x3d9cb136	0.07650988
85	0x3d139e6e	0.036039762
86	0xbda9e479	-0.08295531
87	0xbce88d3b	-0.028387656
88	0x3cab4d0a	0.020910759
89	0x3d694af6	0.056956254
90	0x3d8f8b3d	0.070089795
91	0xbcbea098	-0.023269936
92	0x3becca95	0.007226298
93	0x3d90533b	0.07047125
94	0x3d0a5552	0.033772774
95	0xbd58c9ce	-0.05292683
96	0xbcfc1f4e	-0.030776646
97	0xbdc6f8fa	-0.09715457
98	0xba9b74ff	-0.0011860429
99	0xbc0f2f92	-0.008739369

encodernorms.0.running_mean f4 [100]
0	0x3edd34e9	0.4320443
1	0x3c8e2779	0.017352806
2	0x3e52e1c6	0.20593938
3	0x3e213ec3	0.15746598
4	0x3e09a99e	0.1344361
5	0x3b48bdee	0.0030630785
6	0x3dfc97e0	0.12333655
7	0x3df6bde0	0.120479345
8	0x3c52d44f	0.012868001
9	0x3e6e520b	0.23273484
10	0x3eba9ec7	0.36449262
11	0x3e9ed398	0.31020808
12	0x3eaa6ab6	0.3328454
13	0x3d7f0ada	0.06226621
14	0x3e71b0ec	0.23602647
15	0x3ee88687	0.45415136
16	0x3cfab6dc	0.030604772
17	0x3ef899b9	0.4855478
18	0x3e8b03e6	0.27151412
19	0x3ea7812b	0.32715735
20	0x3ea182cd	0.31545106
21	0x3df377f1	0.118881114
22	0x3e8c3dc1	0.27390864
23	0x3e69b203	0.22821812
24	0x3e468270	0.19385695
25	0x3eb29b61	0.3488417
26	0x3e1a558f	0.150717
27	0x3e64498b	0.2229368
28	0x3efb190d	0.4904255
29	0x3e2e831b	0.170422
30	0x3e73500e	0.23761007
31	0x3e8c8331	0.2744384
32	0x3d94fed5	0.07275168
33	0x3d804c91	0.06264604
34	0x3df49010	0.1194154
35	0x3e5bdd0a	0.21471038
36	0x3e48ef83	0.19622616
37	0x3e05e6e2	0.13076356
38	0x3e16f58d	0.14742108
39	0x3e8e812e	0.2783293
40	0x3ed5c490	0.41751528
41	0xbbbfc340	-0.005852133
42	0x3ee32fca	0.44372398
43	0x3cd8679a	0.026416589
44	0x3e481040	0.19537449
45	0x3e9cd145	0.3062841
46	0x3bdc8069	0.006729175
47	0x3e1113a2	0.14167646
48	0x3e9550e6	0.29163283
49	0x3e639a85	0.22226913
50	0x3efbaff7	0.49157688
51	0x3ea92de2	0.33042818
52	0x3e783bae	0.24241516
53	0x3e40244c	0.18763846
54	0x3e39c647	0.18142043
55	0x3e789d6c	0.24278802
56	0x3e9306aa	0.28716022
57	0x3e6a252c	0.22865742
58	0x3eadeb27	0.3396847
59	0x3e5b8226	0.21436366
60	0x3deb7d1e	0.114984736
61	0x3e42bdc2	0.190177
62	0x3e2930a7	0.16522466
63	0x3e1cd8eb	0.15317123
64	0x3e8b897d	0.27253333
65	0x3e903694	0.2816664
66	0x3dba2d4f	0.09090673
67	0x3e236d95	0.15959771
68	0x3d2aa0fc	0.041657433
69	0x3e9e20f4	0.30884516
70	0x3e8f9a9e	0.2804765
71	0x3e0bfc8e	0.1367056
72	0x3e88e362	0.2673598
73	0x3c94da6d	0.01817056
74	0x3dbc4f2b	0.091947876
75	0x3e3bf162	0.18353799
76	0x3d6539af	0.055963214
77	0x3e8590f0	0.2608714
78	0x3e8cb1d6	0.27479428
79	0x3e9e732f	0.30947253
80	0x3e9efe33	0.31053314
81	0x3e7f13b8	0.24909866
82	0x3e368e06	0.17827615
83	0x3e69f5dc	0.22847694
84	0x3e07b3e2	0.13252214
85	0x3e3eae84	0.1862126
86	0x3d810553	0.06299844
87	0x3e5e187d	0.21689029
88	0x3e26707a	0.16253844
89	0x3dc776d4	0.097394615
90	0x3e9fe774	0.31231272
91	0x3eafff02	0.34374243
92	0x3d6b9998	0.057519525
93	0x3c61a133	0.013771343
94	0x3e30b96d	0.17258234
95	0x3df828e8	0.12117177
96	0x3e4472c5	0.19184406
97	0x3e7b8b02	0.24564746
98	0x3d548701	0.051886562
99	0x3ea6c706	0.32573718

encodernorms.0.running_var f4 [100]
0	0x3e201028	0.15631163
1	0x3c23ffef	0.01000975
2	0x3da8af28	0.082365334
3	0x3d8656f7	0.06559556
4	0x3d504810	0.050849974
5	0x3b302f61	0.0026883709
6	0x3d13a36e	0.03604453
7	0x3d57fa13	0.052728724
8	0x3bc7791a	0.0060874345
9	0x3dca34a9	0.098733254
10	0x3df753c7	0.12076526
11	0x3dee9831	0.11650122
12	0x3dc15735	0.094404615
13	0x3ccd4aed	0.025060141
14	0x3d9dff7b	0.07714745
15	0x3e0ee4dd	0.13954492
16	0x3c349b78	0.011023395
17	0x3e3d28f0	0.18472648
18	0x3da945ef	0.08265292
19	0x3de242e0	0.11047912
20	0x3dd47841	0.10374499
21	0x3d5fa2e5	0.054598708
22	0x3dca2d0b	0.098718725
23	0x3dd0cac5	0.10194925
24	0x3d97d6c9	0.07414014
25	0x3de0be8f	0.10973846
26	0x3d47545f	0.048664447
27	0x3da43edb	0.08019801
28	0x3e0a4dfd	0.13506313
29	0x3d8bc66e	0.06824957
30	0x3db4d88a	0.08830364
31	0x3dc6247b	0.09674927
32	0x3cd8922b	0.026436886
33	0x3cd08548	0.025454178
34	0x3d1d895f	0.038461085
35	0x3db0662a	0.08613236
36	0x3d9c64c0	0.07636404
37	0x3d631c3c	0.05544685
38	0x3d59facb	0.05321769
39	0x3dc3065e	0.09522699
40	0x3e13f121	0.14447452
41	0x39068f8f	0.00012832716
42	0x3e08d9e6	0.13364372
43	0x3c268900	0.010164499
44	0x3daca356	0.08429591
45	0x3de0ee66	0.10982971
46	0x3b85e71d	0.0040863887
47	0x3d5a3fcf	0.05328351
48	0x3dc0e427	0.094185166
49	0x3da00f75	0.07815448
50	0x3e377811	0.17916895
51	0x3ded5d9c	0.1159012
52	0x3db64749	0.08900315
53	0x3d8ef912	0.069811
54	0x3d892ef9	0.066984124
55	0x3dd6cb73	0.104880236
56	0x3de45b2f	0.111502044
57	0x3dad41b2	0.08459796
58	0x3e0336c8	0.12813866
59	0x3d94fe2e	0.072750434
60	0x3d44fca7	0.04809251
61	0x3d6ee539	0.058324073
62	0x3d8d60b6	0.06903212
63	0x3d82ee28	0.06393081
64	0x3dc794dc	0.097451895
65	0x3de908e9	0.113786526
66	0x3cd43140	0.02590239
67	0x3d7d9a9b	0.06191502
68	0x3c5e12a1	0.013554246
69	0x3ddfdc1a	0.10930653
70	0x3dd0c652	0.101940766
71	0x3d79501d	0.060867418
72	0x3de847bb	0.113418065
73	0x3bee2592	0.0072676623
74	0x3d11949f	0.035542127
75	0x3d7dbe27	0.06194892
76	0x3cd7de84	0.02635122
77	0x3dce4dd0	0.10073435
78	0x3dca383a	0.098740056
79	0x3dd725db	0.10505267
80	0x3df00bfa	0.11721034
81	0x3dd244da	0.10267039
82	0x3d9835f5	0.074321665
83	0x3dc8b47e	0.09800051
84	0x3d4a2dc8	0.049360067
85	0x3d90958f	0.07059776
86	0x3cba126f	0.022713868
87	0x3db357c0	0.08756971
88	0x3d892f4e	0.06698476
89	0x3d28f980	0.041253567
90	0x3dda61f8	0.10663217
91	0x3dee7ac1	0.11644507
92	0x3ca1ce58	0.019751713
93	0x3bfc59a8	0.0077011175
94	0x3d8bc349	0.06824357
95	0x3d56fd81	0.052487854
96	0x3d9035f1	0.070415385
97	0x3da01a0b	0.07817467
98	0x3cac0922	0.021000449
99	0x3df0e305	0.117620505

decoderlayers.0.weight f4 [100, 10]
0	0xbe647e07	-0.223137
1	0xbe306901	-0.17227556
2	0xbd1e6a83	-0.038675796
3	0xbe21a9b8	-0.15787399
4	0x3c98cecb	0.018653294
5	0x3d80e265	0.06293181
6	0xbe84b880	-0.25922012
7	0x3d1151dc	0.035478458
8	0xbd048c2b	-0.032360237
9	0xbdec56d9	-0.115400024
10	0xbe467d5d	-0.1938376
11	0x3de2443e	0.110481724
12	0x3e912c7b	0.28354248
13	0xbd035b79	-0.032069657
14	0x3e349372	0.17634371
15	0xbd8d8944	-0.06910947
16	0xbe9454b4	-0.28970873
17	0x3cebd545	0.028788218
18	0x3e016c45	0.12638958
19	0xbdbdd7d2	-0.0926968
20	0xbd86ef4b	-0.0658861
21	0x3d6ebdfb	0.05828665
22	0xbd6983d1	-0.057010476
23	0xbe09a350	-0.13441205
24	0x3e1663e1	0.14686538
25	0x3dbf6dcc	0.09347114
26	0x3ddb72ab	0.107152306
27	0x3e9489a4	0.2901126
28	0x3dcee13e	0.10101555
29	0xbda79589	-0.081828184
30	0xbe97b403	-0.29629526
31	0xbe510cae	-0.20414993
32	0xbdd252ff	-0.102697365
33	0xbdffd601	-0.1249199
34	0xbd52e352	-0.05148632
35	0xbe679fe8	-0.22619593
36	0x3d66af66	0.056319617
37	0x3e9418e1	0.2892523
38	0xbe156e23	-0.14592795
39	0xbe7a9810	-0.2447207
40	0xbe9b6e9d	-0.3035783
41	0xbd52bd25	-0.051449914
42	0xbde81442	-0.11331989
43	0x3e43ba66	0.19114074
44	0x3d957b57	0.07298916
45	0xbdf65e19	-0.120296665
46	0x3e67f6cd	0.22652741
47	0xbe919827	-0.28436396
48	0xbd4fb1d6	-0.050706707
49	0x3dede5c5	0.11616091
50	0x3e9ebb71	0.3100238
51	0xbca42b1b	-0.020040086
52	0xbe94a529	-0.29032257
53	0xbd654f60	-0.0559839
54	0xbda5bd3b	-0.080927335
55	0xbe092440	-0.13392735
56	0xbd9de81e	-0.077102885
57	0xbe27d16e	-0.16388485
58	0xbe2f2cf6	-0.17106995
59	0x3d4f96b9	0.05068085
60	0x3e01e320	0.12684298
61	0x3d74cfb1	0.059768382
62	0xbd29b175	-0.041429
63	0xbe31f5d1	-0.17378928
64	0xbdfafcd6	-0.12255256
65	0x3e37564b	0.17904012
66	0xbcfc6d57	-0.030813856
67	0xbd9b98fa	-0.07597537
68	0x3d8541f8	0.06506723
69	0xbcc114ea	-0.023569543
70	0x3e978997	0.2959716
71	0xbdc8705b	-0.09787055
72	0xbd65d5d4	-0.056112126
73	0xbd9d451f	-0.076791994
74	0xbd0115f8	-0.03151509
75	0xbe94d02d	-0.29065076
76	0x3d6da752	0.058020897
77	0x3e787b1e	0.24265715
78	0xbe1885b5	-0.14894755
79	0xbe1c4287	-0.15259753
80	0xbe084d99	-0.13310851
81	0x3e7bee10	0.24602532
82	0x3dab7fc9	0.083739825
83	0x3e1b9c49	0.15196337
84	0x3e1cec7d	0.15324588
85	0x3e878c84	0.26474392
86	0x3ddbe23f	0.107365124
87	0x3e87abbf	0.2649822
88	0x3e8ca98e	0.2747311
89	0x3e6167cc	0.22012252
90	0x3c8832a0	0.016625702
91	0xbe80eb5d	-0.25179568
92	0xbd889ace	-0.06670152
93	0xbc6abb1e	-0.014326839
94	0xbe2db684	-0.16964155
95	0x3e207507	0.15669642
96	0x3c1416c3	0.00903863
97	0x3d2cef52	0.04222042
98	0x3df9eb61	0.12203098
99	0x3e18ba9b	0.14914934
100	0xbe8e8404	-0.27835095
101	0x3e92450a	0.28568298
102	0xbe8de33f	-0.27712438
103	0xbd9bc7d3	-0.07606473
104	0x3e1fb02d	0.1559455
105	0x3e777f01	0.24169542
106	0xbd3da858	-0.046303123
107	0x3e0316df	0.12801693
108	0x3e97d98e	0.2965817
109	0xbe10d020	-0.14141893
110	0x3e10a1a7	0.14124165
111	0x3e540bce	0.20707628
112	0xbe889133	-0.26673278
113	0x3dafe0b9	0.08587784
114	0xbe3d8be1	-0.18510391
115	0xbd2ab021	-0.041671876
116	0x3cbaa1b3	0.022782182
117	0x3db5aa5c	0.08870384
118	0x3dae539a	0.085120395
119	0x3e586404	0.21131903
120	0xbea3fee4	-0.32030404
121	0x3e508d97	0.20366512
122	0x3ea69b9a	0.3254059
123	0x3e85a81f	0.2610483
124	0x3e833b96	0.25631398
125	0x3d3ac047	0.045593526
126	0xbdd6caa1	-0.10487867
127	0xbe05f83c	-0.13082975
128	0x3d545ae5	0.051844496
129	0x3df6c2c4	0.12048867
130	0xbe78ac57	-0.24284492
131	0x3e0c6928	0.13711989
132	0xbdfa8a39	-0.12233395
133	0x3dc8cc60	0.098046064
134	0x3dda65c6	0.10663943
135	0x3e79e38b	0.24403207
136	0xbe67b985	-0.22629364
137	0x3e5aa71b	0.21352808
138	0xbde1d7b9	-0.11027474
139	0xbe5c054f	-0.214864
140	0xbe859313	-0.2608877
141	0x3da3ff03	0.08007624
142	0x3e8b03f8	0.27151465
143	0xbd2fdf3c	-0.042937502
144	0x3d3acca9	0.045605335
145	0x3e944b40	0.2896366
146	0x3e4fcfc7	0.20294105
147	0x3e89a3d9	0.26882818
148	0xbe4c9783	-0.19979672
149	0x3e312cff	0.17302321
150	0x3e600816	0.21878085
151	0xbe1eea2d	-0.15519018
152	0xbe1ab60e	-0.15108511
153	0x3dca1299	0.098668285
154	0xbe1c6d1f	-0.15276001
155	0x3d1907b0	0.037360847
156	0xbe408450	-0.18800473
157	0xbd08252d	-0.03323858
158	0x3e90dfe2	0.2829581
159	0xbe827fdc	-0.25488174
160	0x3dde0fc9	0.108428545
161	0x3d47a7e3	0.048744094
162	0x3dbee65d	0.09321282
163	0x3d814042	0.06311084
164	0x3ea16325	0.31520954
165	0x3d990681	0.07471944
166	0x3e11f307	0.14252864
167	0x3d9ee9a1	0.07759405
168	0x3ce43dae	0.027861442
169	0xbdc20800	-0.09474182
170	0x3e324117	0.17407642
171	0x3e38ead0	0.18058324
172	0x3d03bac7	0.032160547
173	0xbe871d2d	-0.26389447
174	0x3dcc5160	0.099764585
175	0x3df144d6	0.117807075
176	0x3e5e8745	0.21731289
177	0x3cc1f087	0.023674263
178	0x3db121ad	0.08649001
179	0x3e6e5f94	0.23278648
180	0x3d6ed15b	0.058305126
181	0x3d020e7e	0.031752102
182	0xbe5c7889	-0.21530356
183	0x3e4a93c3	0.19782929
184	0x3e6eb0d2	0.23309639
185	0x3d0dddda	0.034635402
186	0x3e97b555	0.29630533
187	0x3e765b85	0.2405835
188	0xbe263b36	-0.16233525
189	0x3e0f714c	0.14008063
190	0x3e2bf7af	0.16793703
191	0xbe82475b	-0.25445065
192	0xbe9a54ce	-0.30142826
193	0xbe21d85e	-0.15805194
194	0xbea4a095	-0.32153764
195	0xbe9a3755	-0.3012034
196	0xbe97144e	-0.2950768
197	0x3d149318	0.036273092
198	0x3dd19ba8	0.10234767
199	0xbe2158ca	-0.15756527
200	0xbd993f7c	-0.07482812
201	0x3e685810	0.22689843
202	0xbdd50df8	-0.10403055
203	0x3d4e1711	0.050314967
204	0x3e31ec0e	0.17375204
205	0xbe4e4c5e	-0.2014632
206	0xbcaa4e1f	-0.020789204
207	0xbe983829	-0.29730347
208	0xbe87b501	-0.26505283
209	0x3e847575	0.25870863
210	0xbdcd7c9f	-0.10033535
211	0xbe3b5f75	-0.18298133
212	0x3e55d392	0.20881489
213	0x3e2b6f1f	0.16741608
214	0xbdc61b4c	-0.09673175
215	0x3c11a91a	0.008890415
216	0xbe4befc2	-0.19915679
217	0x3e198826	0.14993343
218	0xbd808f99	-0.06277389
219	0xbe8f3277	-0.2796819
220	0x3d90fd25	0.070795335
221	0xbdbadc5b	-0.09124061
222	0xbe04fbf1	-0.12986733
223	0x3e39c49c	0.18141407
224	0x3e85e65f	0.26152322
225	0xbcfac14f	-0.030609755
226	0xbddec9f4	-0.10878363
227	0x3da5aaee	0.08089243
228	0x3e6122bc	0.21985906
229	0xbe0103cc	-0.12599105
230	0xbe3c52a3	-0.18390898
231	0xbdcf5004	-0.10122684
232	0x3e9555fc	0.29167163
233	0x3de07eb0	0.10961664
234	0xbde9f1f5	-0.11423103
235	0x3e8b6f3d	0.27233306
236	0x3e151e8b	0.14562432
237	0x3e93d0ec	0.28870332
238	0xbe0fc113	-0.14038496
239	0xbe62b865	-0.22140653
240	0xbe802ac7	-0.25032637
241	0xbe442018	-0.19152868
242	0x3cfdbdb0	0.03097424
243	0x3e6b3ba6	0.22971973
244	0xbdaee43f	-0.08539628
245	0xbe9595ac	-0.29215753
246	0x3de74ea2	0.11294295
247	0xbddd05c0	-0.10792112
248	0xbe1bbb41	-0.1520815
249	0xbd8bad91	-0.068202145
250	0xbe72d722	-0.23714879
251	0xbcd0f8f7	-0.02550934
252	0xbd8c035e	-0.0683658
253	0xbdcad40f	-0.09903728
254	0xbe231095	-0.15924294
255	0x3e0c1a09	0.13681807

decoderlayers.0.bias f4 [100]
0	0x3e5a2489	0.21303
1	0xbe003449	-0.12519945
2	0x3e3c909c	0.18414539
3	0x3e689d17	0.22716175
4	0x3d984e94	0.074368626
5	0x3e704607	0.23464213
6	0xbe161ea1	-0.14660122
7	0x3d704080	0.058655262
8	0xbde00369	-0.109381504
9	0x3d65ad44	0.056073442
10	0x3e42d7f9	0.190277
11	0xbd47f7c5	-0.048820276
12	0xbe84d455	-0.25943246
13	0x3e5820eb	0.21106307
14	0x3cb1fa0f	0.021725683
15	0xbd30f530	-0.04320258
16	0xbca50ad9	-0.020146774
17	0xbe4a2815	-0.19741853
18	0xbe2cccd8	-0.16875017
19	0xbe275cb1	-0.16343953
20	0xbdded342	-0.10880138
21	0xbe776a25	-0.24161585
22	0xbe93f513	-0.28897914
23	0x3e4399fc	0.19101709
24	0x3e343971	0.17600037
25	0x3e8d575d	0.27605715
26	0x3e39a015	0.18127473
27	0x3c31f009	0.0108604515
28	0x3da382de	0.07983945
29	0x3dea2374	0.114325434
30	0xbdcaabf1	-0.098960765
31	0x3e57cdf1	0.21074654
32	0x3e066c27	0.13127194
33	0xbe1529f4	-0.14566785
34	0x3e595445	0.21223553
35	0x3e772566	0.2413536
36	0x3d9517e3	0.07279947
37	0xbe8390b0	-0.25696325
38	0xbe17af96	-0.14813074
39	0x3db73948	0.089464724
40	0xbe5a05ac	-0.21291226
41	0xbe7c008a	-0.2460958
42	0x3bba5351	0.0056862016
43	0x3e4ee3e4	0.20204121
44	0xbe643d7f	-0.22289084
45	0x3e5b5fc9	0.21423258
46	0x3e95794a	0.291941
47	0xbe6a5dc6	-0.22887334
48	0x3e9706be	0.2949733
49	0xbc99f0f1	-0.018791648
50	0xbe9a696b	-0.30158553
51	0x3dd3c28e	0.10339843
52	0x3dd97938	0.10618824
53	0xbd0c7128	-0.0342876
54	0x3ded3c17	0.11583727
55	0x3e7da79f	0.24770974
56	0xbd8832be	-0.06650303
57	0xbe9492a3	-0.29018125
58	0xbd06be2e	-0.032896213
59	0xbd85aa7e	-0.065266594
60	0xba11f824	-0.0005568287
61	0xbc68a47e	-0.014199374
62	0xbe9ecff8	-0.31018043
63	0x3db3b27d	0.08774278
64	0x3e8627cc	0.26202238
65	0x3e191cbe	0.1495237
66	0x3e9af703	0.3026658
67	0x3dd78765	0.10523871
68	0x3e47446f	0.19459699
69	0xbe60a310	-0.21937203
70	0xbe4e9033	-0.20172195
71	0xbe63b3d5	-0.22236569
72	0xbe5bf04d	-0.21478386
73	0x3c3e1eb6	0.011604002
74	0xbe01b2c5	-0.12665851
75	0xbe145e1f	-0.1448903
76	0x3e7c2255	0.24622472
77	0x3b8b3bd7	0.004249077
78	0xbc6ced91	-0.014460937
79	0x3d8ef75e	0.06980775
80	0xbe458748	-0.19289887
81	0x3e0d9332	0.13825682
82	0x3e3d8e27	0.18511258
83	0x3bc98511	0.006149896
84	0xbc712e10	-0.014720455
85	0x3e480fdd	0.19537301
86	0xbdc9a835	-0.09846536
87	0x3e0771a8	0.1322695
88	0x3e422ef8	0.1896323
89	0xbe322d2a	-0.17400041
90	0x3c9fbd24	0.019499369
91	0xbe558c9d	-0.20854421
92	0x3e9c6061	0.3054228
93	0x3e25f9e1	0.16208602
94	0x3d51dff1	0.051238958
95	0x3e4d88b7	0.20071684
96	0x3e345fe6	0.17614707
97	0xbd73ed39	-0.059552405
98	0x3df433b1	0.11923922
99	0x3e241db3	0.16026954

decodernorms.0.weight f4 [100]
0	0x3f7cb7e8	0.9871812
1	0x3f7ddbe5	0.9916366
2	0x3f76262d	0.96152
3	0x3f740a05	0.9532779
4	0x3f791eb5	0.9731248
5	0x3f7b33d8	0.9812598
6	0x3f76b1f1	0.9636527
7	0x3f751534	0.9573548
8	0x3f72e231	0.9487639
9	0x3f71c581	0.9444199
10	0x3f732d76	0.9499124
11	0x3f75dd62	0.9604093
12	0x3f6f46a5	0.9346717
13	0x3f782312	0.96928513
14	0x3f726c83	0.94696826
15	0x3f7574d8	0.95881414
16	0x3f74c700	0.9561615
17	0x3f79e80f	0.9761972
18	0x3f7a0650	0.9766588
19	0x3f749bd0	0.9555025
20	0x3f731fa8	0.9497018
21	0x3f72fd29	0.9491754
22	0x3f73a5ee	0.95175064
23	0x3f72952f	0.94758886
24	0x3f776ca6	0.9665016
25	0x3f785aaf	0.9701337
26	0x3f76fb28	0.96476984
27	0x3f73a1d4	0.95168805
28	0x3f6f9ee6	0.93601835
29	0x3f734fbc	0.9504354
30	0x3f745a6e	0.95450485
31	0x3f73ebd5	0.95281726
32	0x3f7292d8	0.94755316
33	0x3f6defde	0.92944133
34	0x3f747f44	0.9550669
35	0x3f75f7b0	0.96081066
36	0x3f74ba03	0.9559633
37	0x3f70c658	0.9405265
38	0x3f77ad61	0.9674893
39	0x3f6faca4	0.93622804
40	0x3f77617a	0.9663311
41	0x3f75ae6e	0.95969284
42	0x3f7276cf	0.9471254
43	0x3f750dfa	0.9572445
44	0x3f782dc8	0.96944857
45	0x3f6cede3	0.92550486
46	0x3f7d9203	0.9905092
47	0x3f7682ec	0.9629352
48	0x3f753784	0.95787835
49	0x3f76c5ca	0.9639555
50	0x3f706476	0.9390329
51	0x3f762757	0.9615378
52	0x3f7a448a	0.9776083
53	0x3f7459d0	0.95449543
54	0x3f7f798f	0.9979486
55	0x3f711237	0.9416842
56	0x3f73c9b9	0.9522968
57	0x3f72f1c7	0.9490017
58	0x3f70c36c	0.9404819
59	0x3f725596	0.94661844
60	0x3f74209c	0.9536226
61	0x3f79bb33	0.9755127
62	0x3f705252	0.9387561
63	0x3f78f1a3	0.9724371
64	0x3f76c99f	0.964014
65	0x3f7b5f8c	0.9819267
66	0x3f75db6f	0.96037954
67	0x3f748eb8	0.9553027
68	0x3f7634ef	0.9617452
69	0x3f724044	0.9462931
70	0x3f737ba9	0.95110565
71	0x3f74616e	0.95461166
72	0x3f714ff3	0.9426262
73	0x3f715e8e	0.94284904
74	0x3f761bdc	0.9613626
75	0x3f78ab92	0.97136796
76	0x3f7796c6	0.96714437
77	0x3f7262ee	0.94682205
78	0x3f6d7d78	0.92769575
79	0x3f78bb47	0.9716076
80	0x3f717dc0	0.94332504
81	0x3f75a7e4	0.95959306
82	0x3f752cc7	0.9577145
83	0x3f7d10fb	0.98854035
84	0x3f6bfb8d	0.9218071
85	0x3f770b29	0.96501404
86	0x3f76e112	0.9643718
87	0x3f6c2d4f	0.92256635
88	0x3f73daa5	0.952555
89	0x3f6bbd79	0.9208599
90	0x3f762706	0.96153295
91	0x3f716595	0.94295627
92	0x3f761e08	0.96139574
93	0x3f7397ee	0.951537
94	0x3f6bde73	0.92136306
95	0x3f737df4	0.95114064
96	0x3f7b02a6	0.98050916
97	0x3f70cfc3	0.9406702
98	0x3f756c87	0.95868725
99	0x3f7756c9	0.966168

decodernorms.0.bias f4 [100]
0	0x3ce948ef	0.02847716
1	0x3c72b34a	0.014813254
2	0xbb806ffd	-0.0039196
3	0x3c2bcc7c	0.010485765
4	0xbc5a8dfb	-0.013339515
5	0x3c6b6b32	0.014368819
6	0xbbcd2d83	-0.006261529
7	0xbcaddeff	-0.021224497
8	0xbc0343ac	-0.00801174
9	0x3c850c5c	0.016241245
10	0x3ce71652	0.028208885
11	0x3d0c49b8	0.03424999
12	0xbc7d03e8	-0.015442826
13	0x3bd65aec	0.0065416005
14	0xbca60bde	-0.02026933
15	0xbb8dc22f	-0.004326127
16	0x3d2a1d98	0.04153213
17	0xbc16aeb7	-0.009196929
18	0xbcdab0f2	-0.026695702
19	0xbc8cb86e	-0.017177787
20	0xbcb5f244	-0.022210248
21	0xbc08399a	-0.0083145145
22	0x3c8df9c0	0.017331004
23	0x3c9ef020	0.01940161
24	0x3cc47f67	0.023986531
25	0x3bd823b0	0.006596051
26	0x3d0b5aea	0.03402225
27	0x385010b5	4.9606624e-05
28	0xbc0fb778	-0.00877177
29	0xba304be6	-0.0006725177
30	0x3bc9a5a0	0.0061537772
31	0xbc7123c7	-0.014718003
32	0x3b90fbaf	0.0044245343
33	0xbc843d0e	-0.016142394
34	0xbcede76d	-0.029041016
35	0xbc850939	-0.01623975
36	0x3c07093f	0.0082419505
37	0x3b745c38	0.0037286412
38	0xbcb5006c	-0.022094928
39	0xbbcff29e	-0.006346061
40	0x3bd55859	0.006510776
41	0xbc194209	-0.009354123
42	0xbc6d7954	-0.014494259
43	0xbbd1871b	-0.0063942797
44	0xbb1c68dd	-0.0023866214
45	0xbca7a2e8	-0.020463422
46	0xba293b12	-0.00064556405
47	0x3c901d7f	0.01759219
48	0xbc2d7d9c	-0.01058903
49	0x3c7c74ca	0.015408704
50	0xbc621450	-0.013798788
51	0x3c80e094	0.015732087
52	0x3c49735c	0.01229557
53	0x3cd2808c	0.025696062
54	0x3c8ca744	0.017169602
55	0x3b47bdf3	0.0030478209
56	0x3c1dba00	0.009626865
57	0x3c9eac0a	0.019369144
58	0x3cdd23d2	0.02699462
59	0x3c4d1291	0.012516634
60	0xbc9187eb	-0.017765006
61	0xbb27be98	-0.002559578
62	0x3c9df3e4	0.019281335
63	0x3b476c1a	0.0030429424
64	0x3b2557a9	0.0025229251
65	0x3c389ebf	0.011268317
66	0xbbfa69f0	-0.0076420233
67	0xbc1e45fc	-0.00966024
68	0xbcae2587	-0.021258129
69	0x3bbb5d8b	0.0057179383
70	0xbb2155dc	-0.0024617827
71	0x3c5b785d	0.013395396
72	0x3cae2f13	0.021262681
73	0x3c835a96	0.016034406
74	0x3c914d25	0.01773698
75	0x3c7daee5	0.015483593
76	0xba5c4100	-0.000840202
77	0xbc000f71	-0.0078161815
78	0xbb81c9ec	-0.0039608385
79	0xbcb841ce	-0.022492316
80	0x3c1cfa1a	0.009581113
81	0x3b0ad36e	0.002118315
82	0x3c1c9f46	0.009559458
83	0x3bd8cc73	0.006616169
84	0xbc50ae6c	-0.012736898
85	0xbc7dd73b	-0.0154932095
86	0x3b8baf29	0.004262824
87	0xbcd93da7	-0.026518656
88	0x3b93c5e7	0.004509676
89	0x3c196acb	0.00936384
90	0xbc84ce8c	-0.01621177
91	0x3c051829	0.008123436
92	0xbd2d474a	-0.042304315
93	0xbc216634	-0.009851027
94	0xb9c1f45f	-0.000369939
95	0xbce1ede3	-0.027579254
96	0x3c8f579d	0.017497832
97	0x3c699fd5	0.014259298
98	0x3c2923cd	0.010323477
99	0xbbc73803	-0.006079675

decodernorms.0.running_mean f4 [100]
0	0x3ecdd27c	0.4019965
1	0x3e9f0968	0.31061864
2	0x3eb97fbd	0.3623027
3	0x3f00271c	0.50059676
4	0x3eb98a73	0.3623844
5	0x3ef11118	0.47083354
6	0x3e2a0e02	0.16606906
7	0x3e871967	0.26386568
8	0x3eda3f4e	0.42626423
9	0x3ea94b57	0.33065292
10	0x3f112b87	0.5670704
11	0x3ea5a6e6	0.32353896
12	0x3eb00cf6	0.34384888
13	0x3f058b6e	0.5216588
14	0x3ef11a06	0.47090167
15	0x3ebcbf78	0.3686483
16	0x3e409064	0.1880508
17	0x3e783be7	0.24241601
18	0x3e6f546e	0.23372051
19	0x3ea07732	0.3134094
20	0x3ecf806a	0.4052766
21	0x3e7c62cc	0.24647063
22	0x3e3280dc	0.17431968
23	0x3f0428ee	0.51624954
24	0x3edd7f5a	0.43261224
25	0x3efc2af8	0.49251533
26	0x3ee9d775	0.45672193
27	0x3eac7288	0.3368113
28	0x3eacebeb	0.3377374
29	0x3ef2d931	0.4743133
30	0x3ea42d60	0.32065868
31	0x3ef309ba	0.47468358
32	0x3eaececd	0.3414215
33	0x3e7e6375	0.24842627
34	0x3eebf5a8	0.46085858
35	0x3f04131d	0.51591665
36	0x3ec6a34d	0.38796464
37	0x3e84eb07	0.25960562
38	0x3ed79a7a	0.42110044
39	0x3ed2f0b3	0.41199264
40	0x3e871d6a	0.2638963
41	0x3e83fac9	0.2577727
42	0x3ebf9551	0.37418607
43	0x3eea5305	0.45766464
44	0x3ea6cf84	0.32580197
45	0x3f0380d3	0.51368445
46	0x3f07ce3a	0.5304905
47	0x3e9b5119	0.3033531
48	0x3f07d0d8	0.53053045
49	0x3ec4f0fc	0.38465106
50	0x3e67d399	0.22639312
51	0x3ef34b1f	0.4751825
52	0x3ed614b8	0.41812682
53	0x3eb97b33	0.36226806
54	0x3ee63422	0.4496165
55	0x3eaeb960	0.34125805
56	0x3ed5c736	0.41753548
57	0x3df0a6cb	0.11750563
58	0x3f0b402d	0.543948
59	0x3e9c614f	0.3054299
60	0x3e79eaf2	0.24406031
61	0x3ef26d7f	0.47349164
62	0x3e8807b2	0.2656837
63	0x3eb0c50c	0.34525335
64	0x3f10331b	0.5632798
65	0x3f05ad73	0.5221779
66	0x3f09dbfd	0.538513
67	0x3e8f32e3	0.2796851
68	0x3f15b65f	0.584814
69	0x3e5da6f5	0.2164572
70	0x3e93f891	0.2890058
71	0x3e7dc613	0.2478259
72	0x3e609c0c	0.21934527
73	0x3e9534d3	0.29141864
74	0x3e83334a	0.25625068
75	0x3e37531c	0.17902797
76	0x3efd11a8	0.49427533
77	0x3e9106a9	0.28325394
78	0x3e9efefe	0.3105392
79	0x3eb52bd4	0.35385
80	0x3e927896	0.28607625
81	0x3ef86914	0.48517668
82	0x3ef25f96	0.4733855
83	0x3ec2b5f5	0.38029447
84	0x3e7eb92a	0.24875322
85	0x3ef68bf8	0.48153663
86	0x3e8da762	0.27666765
87	0x3ed1b79b	0.40960392
88	0x3ee29774	0.44256175
89	0x3e836a53	0.25667056
90	0x3ebbf846	0.36712855
91	0x3e42b189	0.19013037
92	0x3f44c810	0.7686777
93	0x3ee61731	0.4493957
94	0x3e928fec	0.2862543
95	0x3f049664	0.5179198
96	0x3eeee8aa	0.46661884
97	0x3e5a42da	0.21314564
98	0x3ed4bdca	0.41551048
99	0x3eda6c83	0.42660913

decodernorms.0.running_var f4 [100]
0	0x3e9efaa4	0.310506
1	0x3edb0cbf	0.42783162
2	0x3e6c48ad	0.23074599
3	0x3f0bebe1	0.546568
4	0x3eb62102	0.35572058
5	0x3f1199a0	0.5687504
6	0x3dc84116	0.09778039
7	0x3e8d2a65	0.27571407
8	0x3ece85ed	0.40336552
9	0x3e848efb	0.25890335
10	0x3f2088d8	0.62708807
11	0x3e81ddee	0.2536463
12	0x3ec3b97f	0.3822746
13	0x3f1f3cdc	0.6220224
14	0x3ecff948	0.40619874
15	0x3f10395a	0.5633751
16	0x3df17b75	0.11791126
17	0x3e4256aa	0.18978372
18	0x3e398a02	0.18119052
19	0x3ef6d43c	0.48208797
20	0x3ed8c331	0.4233642
21	0x3e7496d1	0.23885657
22	0x3e1a4519	0.15065421
23	0x3ee33ab9	0.4438074
24	0x3ed11f2e	0.408441
25	0x3e96b3c6	0.2943403
26	0x3efdf64d	0.49601975
27	0x3e949e7e	0.2902717
28	0x3e9e90e8	0.3096993
29	0x3ee6a364	0.45046532
30	0x3e983ba5	0.29733005
31	0x3ee5b248	0.4486258
32	0x3ea8977c	0.32928073
33	0x3e4c2114	0.19934493
34	0x3f11540a	0.5676886
35	0x3f032d65	0.5124114
36	0x3ed1ade6	0.40952986
37	0x3e6415b3	0.22273903
38	0x3f0ce1ad	0.55031854
39	0x3ec23f07	0.3793871
40	0x3ea780df	0.32715508
41	0x3e86c169	0.26319435
42	0x3ed5fa3a	0.4179247
43	0x3edc47c0	0.4302349
44	0x3ed25817	0.41082832
45	0x3f1bc339	0.6084476
46	0x3ef29d1a	0.47385484
47	0x3eaa5f29	0.33275726
48	0x3ef5f924	0.48041642
49	0x3ed31d1e	0.41233152
50	0x3e5cf38e	0.21577284
51	0x3f13fc41	0.57806784
52	0x3eec7235	0.46180883
53	0x3ed0d820	0.4078989
54	0x3f2825ff	0.6568298
55	0x3e77a3a9	0.24183525
56	0x3ecb3d2a	0.39695102
57	0x3d8cdad4	0.06877676
58	0x3f33234b	0.6997573
59	0x3e880604	0.2656709
60	0x3e23d48f	0.15999053
61	0x3f1a3532	0.6023742
62	0x3e8d87a0	0.27642536
63	0x3eccdae2	0.40010744
64	0x3f35c2cf	0.7100038
65	0x3f06ad9e	0.5260867
66	0x3f0196a3	0.5062048
67	0x3e437eed	0.19091387
68	0x3f240cd2	0.6408206
69	0x3e30c6d9	0.17263354
70	0x3eb5fb72	0.355434
71	0x3e876b06	0.2644884
72	0x3e669cef	0.22520803
73	0x3e8372f7	0.2567365
74	0x3e7c5dca	0.24645153
75	0x3df0dc14	0.117607266
76	0x3f052385	0.52007324
77	0x3e5050dd	0.20343347
78	0x3e835ec9	0.25658253
79	0x3ea95b8f	0.33077666
80	0x3ebb54df	0.3658819
81	0x3f13b7be	0.57702243
82	0x3ec8256a	0.39091045
83	0x3ecf7181	0.40516284
84	0x3e2c3243	0.16816048
85	0x3f048100	0.5175934
86	0x3e9a8fee	0.30187935
87	0x3ebcdea8	0.36888623
88	0x3ec48b7e	0.38387674
89	0x3e84650f	0.25858352
90	0x3ef1b3ce	0.47207493
91	0x3e1894b6	0.14900479
92	0x3f5fc94e	0.8741654
93	0x3edf4c16	0.43612736
94	0x3e6b20e8	0.22961771
95	0x3f20fba0	0.6288395
96	0x3ee2c48b	0.44290575
97	0x3e07fafb	0.13279335
98	0x3eb725c5	0.35771003
99	0x3ec64039	0.38720873

mu.weight f4 [10, 100]
0	0x3d401557	0.04689535
1	0x3d9c185b	0.07621833
2	0x3cabb133	0.020958519
3	0xbd16c210	-0.036806166
4	0xbe024c41	-0.12724401
5	0x3c202e76	0.009776702
6	0xbdb31e47	-0.08746009
7	0xbd9075c8	-0.07053715
8	0xbda5681d	-0.08076499
9	0xbd7fd4d5	-0.06245883
10	0x3d91a7e5	0.071121015
11	0x3c2081c9	0.009796568
12	0xbd112aa0	-0.03544104
13	0xbe00738a	-0.12544075
14	0xbdf4899f	-0.11940312
15	0x3d93c920	0.07216096
16	0x3cf966f3	0.030444598
17	0xbdc3932c	-0.09549555
18	0xbdb26649	-0.087109156
19	0xbc85cc57	-0.016332788
20	0xbc066e8a	-0.0082050655
21	0x3d60371f	0.054740068
22	0x3d534fc7	0.051589753
23	0xbd199973	-0.037499856
24	0x3c69d1f6	0.01427125
25	0x3cfb7168	0.030693725
26	0xbda28499	-0.07935447
27	0x3cec4605	0.028841982
28	0xbdde85f8	-0.10865396
29	0xbd87ffe0	-0.06640601
30	0x3da1ed68	0.0790661
31	0xbcb2a0d2	-0.0218052
32	0xbd2f0408	-0.042728454
33	0x3dfe171a	0.1240675
34	0x3def8a5b	0.11696311
35	0x3d07aede	0.03312575
36	0xbc962a90	-0.018330842
37	0x3da20e3b	0.079128705
38	0x3dde7a82	0.1086321
39	0xbdd47d33	-0.10375442
40	0x3dfa702e	0.12228428
41	0x3d8d51a1	0.06900335
42	0xbcab1a45	-0.02088655
43	0xbd0ea943	-0.03482939
44	0xbdb5e5ce	-0.088817224
45	0x3dc547ec	0.09632859
46	0xbd23427e	-0.039858334
47	0xbb85a6be	-0.004078715
48	0x3df0e594	0.117625386
49	0x3d5b72e4	0.053576365
50	0x3dca20c2	0.09869529
51	0xbe1ad143	-0.1511889
52	0xbdfc71f3	-0.123264216
53	0x3d1c99e9	0.038232718
54	0x3ceca97a	0.028889406
55	0xbdfdd30a	-0.12393768
56	0x3d87396a	0.06602748
57	0xbc6752cb	-0.0141188605
58	0x3d414c28	0.04719177
59	0xbd735036	-0.059402667
60	0x3db1c52c	0.08680186
61	0x3d92049a	0.07129784
62	0x3d1a57cf	0.037681397
63	0x3d8b7bf0	0.068107486
64	0x3da5cb2a	0.08095391
65	0xbd266cb6	-0.04063102
66	0x3d84650f	0.06464588
67	0x3d39a270	0.045320928
68	0x3b39d316	0.0028354577
69	0x3d82a089	0.06378276
70	0x3dd50477	0.10401242
71	0xbd9f963e	-0.07792328
72	0xbdedc9e9	-0.11610777
73	0xbd891c48	-0.06694847
74	0x3d27b017	0.040939417
75	0x3dd4090f	0.1035329
76	0x3b484f7a	0.003056495
77	0xbb79330f	-0.0038024818
78	0x3d5c7085	0.053818244
79	0x3db251fd	0.08707044
80	0x3d003532	0.03130073
81	0x3d1ec243	0.03875948
82	0x3cb56f1d	0.02214771
83	0x3df3f3ce	0.119117364
84	0xbd44ebbf	-0.048076387
85	0x3b033229	0.0020018911
86	0xbdd79e65	-0.10528258
87	0x3db4e3f4	0.08832541
88	0x3d079a6a	0.033106245
89	0xbcea0b44	-0.028569825
90	0x3d82ed40	0.06392908
91	0x3d89d052	0.06729187
92	0x3d1ee760	0.038794875
93	0xbd83a56b	-0.06428035
94	0xbc1ae59b	-0.009454156
95	0x3d5123d6	0.051059566
96	0x3de0edde	0.109828696
97	0xbb4eea7b	-0.0031572867
98	0x3d08a7d0	0.033363163
99	0xbc8d3bd6	-0.017240446
100	0xbdf307db	-0.11866733
101	0xbcc89240	-0.0244838
102	0xb9560093	-0.00020408844
103	0xbd081f8b	-0.033233207
104	0x3cd1bbff	0.025602339
105	0xbe0e09f1	-0.1387098
106	0xbca2f23a	-0.019890893
107	0xbd555402	-0.05208207
108	0xbd3d078a	-0.046149768
109	0x3bd2159e	0.0064112684
110	0x3e083c8b	0.13304345
111	0x3d112a30	0.035440624
112	0x3c9cddb5	0.019148687
113	0xbd8f5d45	-0.070002116
114	0xbd33618f	-0.04379421
115	0x3cf80eaa	0.03028043
116	0x3d6f4c26	0.05842223
117	0x3da74ca9	0.08168919
118	0x3cb15c8e	0.021650579
119	0x3dc833d2	0.09775509
120	0xbba4e58c	-0.005032247
121	0x3c18e133	0.009331035
122	0x3d4e2889	0.050331626
123	0x3e0e40d0	0.13891912
124	0xba8a4ca6	-0.0010551407
125	0xbdb896cb	-0.090131365
126	0xbd30e0a4	-0.043182984
127	0xbd0b7465	-0.03404655
128	0xbdf81d4a	-0.121149614
129	0xbdaed655	-0.08536974
130	0x3db35dc0	0.08758116
131	0xbd4499f2	-0.047998376
132	0x3dd67aac	0.104726166
133	0xbd0073e6	-0.03136053
134	0x3c8f6c32	0.017507646
135	0xbde9c2c2	-0.114141
136	0x3d8c7fc7	0.06860309
137	0xbd31f655	-0.04344781
138	0xbcaf06c1	-0.021365525
139	0xbd8785a8	-0.0661729
140	0x3dffb21c	0.124851435
141	0xbc37babc	-0.011213955
142	0xbd321675	-0.043478448
143	0x3d1c4f71	0.0381617
144	0x3cf834a6	0.030298542
145	0xbdf0be23	-0.11755016
146	0xbdc4a7b1	-0.09602297
147	0x3ce1a125	0.02754266
148	0x3d601b4e	0.05471354
149	0x3d486ae8	0.04893008
150	0x3d0d77d2	0.034538098
151	0xbdac797c	-0.08421609
152	0x3cbd9cda	0.023146082
153	0xbb64f5a0	-0.0034936443
154	0x3db0cad0	0.086324334
155	0xbd9c8aa0	-0.07643628
156	0x3d952fa0	0.072844744
157	0x3a20d457	0.0006135157
158	0xbbba81b2	-0.0056917304
159	0x3de120bc	0.10992572
160	0x3cefd035	0.029274086
161	0xbb1ef061	-0.0024252164
162	0x3cd91fb7	0.02650438
163	0x3c0874ed	0.0083286585
164	0xbde3a021	-0.111145265
165	0x3d70ce77	0.05879065
166	0xbda8626e	-0.08221899
167	0x3ba14928	0.004922051
168	0xbd7c12d9	-0.061541412
169	0x3db75071	0.0895089
170	0xbd9b706b	-0.075898014
171	0xbdba3c7b	-0.09093567
172	0x3d74dd84	0.059781566
173	0x3d375112	0.04475505
174	0xbc5ce284	-0.01348174
175	0xbd5673dc	-0.052356586
176	0x3c412a1c	0.011789825
177	0xbcc3f1ef	-0.023919074
178	0xbd57a3b9	-0.052646372
179	0x3da4f135	0.08053819
180	0x3dce1c30	0.1006397
181	0x3d843451	0.06455291
182	0xbd1d4c9d	-0.038403142
183	0xbd8c2ba2	-0.0684426
184	0xbd28d889	-0.04122213
185	0xbd746c70	-0.059673727
186	0xbce0f7e7	-0.027461959
187	0x3c409da3	0.0117563335
188	0xbd875978	-0.06608862
189	0xbdcb607d	-0.09930513
190	0x3d396778	0.04526469
191	0x3dea2430	0.114326835
192	0x3daef8af	0.085435264
193	0x3d52eff0	0.051498353
194	0xbd9ecfc0	-0.07754469
195	0xbd0e3c60	-0.034725547
196	0x3d83b37c	0.06430718
197	0x3c8b0bb1	0.016973348
198	0x3dbcf602	0.0922661
199	0x3d556ce4	0.0521058
200	0x3d3eb008	0.046554595
201	0x3c19be9e	0.009383826
202	0x3d58a741	0.05289388
203	0x3ca25e05	0.019820223
204	0xbe1384d1	-0.14406134
205	0x3d8004ed	0.062509395
206	0x3de91252	0.113804474
207	0xbdd7d6f1	-0.10539044
208	0xbd74d6d7	-0.0597752
209	0x3bad0d87	0.0052811536
210	0xbde616d9	-0.112348266
211	0xbdd2977e	-0.10282801
212	0xbbb9a3b7	-0.0056652683
213	0x3d86d24a	0.06583078
214	0x3de1fbb2	0.11034335
215	0xbde6d574	-0.11271182
216	0xbd85a8d4	-0.06526342
217	0xbd64ffcf	-0.05590802
218	0x3e060c42	0.13090613
219	0xbd9f2409	-0.07770545
220	0xbcf0f1f7	-0.029412253
221	0xbbb37693	-0.0054767816
222	0xbd378e3a	-0.044813372
223	0x3dcfe7db	0.10151645
224	0xbdecfcc2	-0.11571647
225	0xbdc3cc30	-0.0956043
226	0xbd886ab0	-0.06660974
227	0xbd1747bc	-0.036933646
228	0xbac09d22	-0.0014695267
229	0xbdcf27e5	-0.10115031
230	0xbdcc8402	-0.09986116
231	0x3d6226e5	0.055212874
232	0xbdaa8c99	-0.08327598
233	0x3da1f5a0	0.079081774
234	0x3dc10ad6	0.09425895
235	0xbcd1324f	-0.025536684
236	0x3dcf6190	0.101260304
237	0x3d5d8b34	0.054087833
238	0xbddff2e4	-0.109349996
239	0xbcc84cea	-0.024450738
240	0x3ccdb9fb	0.025113096
241	0x3ca34b2b	0.019933304
242	0xbdea64be	-0.11444996
243	0xbbb25b51	-0.0054430147
244	0xbdcf4ffa	-0.10122676
245	0xbb85d5ce	-0.0040843254
246	0xbd8d6397	-0.06903761
247	0x3bcf678c	0.0063294824
248	0xbd900f76	-0.07034199
249	0xbb8c4192	-0.0042802775
250	0xbd514307	-0.051089313
251	0x3d4961c3	0.0491655
252	0x3d41999e	0.04726564
253	0xbd36f407	-0.044666316
254	0xbd897c0a	-0.06713112
255	0x3e08e01c	0.13366741

mu.bias f4 [10]
0	0xbdbe8cb5	-0.093041815
1	0x3d05be31	0.032652084
2	0xbd96517b	-0.0733976
3	0x3d65cd9d	0.05610429
4	0xbc8815b0	-0.016611904
5	0x3d82ce5b	0.063870154
6	0x3d1b888d	0.03797202
7	0xbd4bbcfc	-0.049740776
8	0x3de3843b	0.11109205
9	0x3ccf8be9	0.025335269
